output/ddpg/2021-12-13_14-37-07-ddpg_s0_500ep/model.pt (torch_old, 572993 bytes, 11 tensors)

weight f4 [256, 16]
000000 00 54 f5 ba 5e 54 09 3e 16 b3 52 be 80 66 3c be
       -0.001871705 0.1341109 -0.20576128 -0.18398476
000010 f4 32 c5 bd ec 4b 89 3d 40 4f a2 bb ce fa 4a 3e
       -0.09628859 0.06703934 -0.004953295 0.19822237
000020 70 bf b5 bc 4c 7b 87 3d ac bb 9a bd 70 48 49 bd
       -0.022186011 0.06615314 -0.07555327 -0.049141347
000030 b8 91 74 be 52 8b 29 be e8 0e d3 bd 00 bb 17 3c
       -0.23883712 -0.16557053 -0.103055775 0.009260893
000040 33 9e 06 3c f4 d2 61 3e 08 ad 2e be e6 0d f8 bd
       0.008216429 0.22053128 -0.17058194 -0.12112026
000050 35 e7 32 3d 13 d2 1b 3e 3a 5e 89 bb 04 27 8a 3e
       0.043677527 0.15216856 -0.004192141 0.26982892
000060 a1 46 72 bc cf 84 aa 3d 98 c3 62 3e da ff 88 be
       -0.014787347 0.083261125 0.22144926 -0.267577
000070 e3 8c c2 bd d9 87 01 3c 08 79 77 bd 6a ed 8b 3e
       -0.09499528 0.007905924 -0.06041816 0.2732957
000080 ed 83 30 be 45 87 d7 bd a7 31 31 be e7 69 6c be
       -0.17237826 -0.105238475 -0.17304097 -0.23087274
000090 89 ac 1e be 32 cd 51 3e 4d 8c f5 3d 76 cc 05 3e
       -0.15495504 0.20488432 0.11989651 0.13066277
0000a0 03 3a aa 3c 61 ae f4 bd 26 6a 0e 3d 49 51 7e be
       0.020779615 -0.11947323 0.0347692 -0.24835695
0000b0 12 f8 2f be 00 dd f5 bd 1a a4 29 3e b4 fc 1e 3e
       -0.17184475 -0.12005043 0.16566506 0.15526086
0000c0 76 38 fe bd bc 39 57 3c 4c 2c 23 3e cb 7e 6f 3e
       -0.12413113 0.013136324 0.15934867 0.23388211
0000d0 68 45 b0 3d 79 05 9a 3c fe 59 22 3e 54 05 fd bd
       0.08606988 0.018801438 0.15854642 -0.12354532
0000e0 8b 1b 95 3d e2 7f 4e be b1 69 f8 bd a0 c2 76 bd
       0.07280644 -0.20165971 -0.12129534 -0.060244203
0000f0 8d ca d7 3d c5 ba d8 3d 1c ca 0b be b3 88 89 3d
       0.1053668 0.105824985 -0.13651317 0.067155264
000100 6e 89 0c 3e 20 3f 01 bd 40 64 1c 3c 00 44 6d 3d
       0.137243 -0.03155434 0.009545386 0.057926178
000110 00 d1 1e 3e 48 cf 75 3e 96 47 45 be ec a1 bb bd
       0.15509415 0.24004853 -0.19265589 -0.091617435
000120 98 38 c9 3d d0 1b 54 3e e8 c5 5e 3e 22 e2 61 3e
       0.098252475 0.20713735 0.21755183 0.22058919
000130 78 ca 4b 3d f8 9c 5e be 90 66 bc 3c ac 27 20 be
       0.049753636 -0.21739566 0.022998124 -0.15640134
000140 8c 94 6e be 3e 74 63 3e f0 a6 42 3e fe 5d 7f be
       -0.23298854 0.22212312 0.19008994 -0.24938199
000150 08 aa 3f 3d c8 80 2c bd b8 82 28 bd 1c 5f ea bd
       0.046793014 -0.042115003 -0.041140288 -0.11443922
000160 8c e4 c4 3d 34 a1 17 be dc b1 bb 3d 16 76 01 3e
       0.09613904 -0.14807588 0.09164783 0.12642702
000170 5c 43 37 3e 48 71 bf 3d 4a 5f 7d be 00 11 26 be
       0.1789679 0.093477786 -0.24743381 -0.16217422
000180 d3 41 d3 3d 8e 6d 9a 3d ae 8b 46 be d9 54 18 be
       0.10315289 0.07540427 -0.19389221 -0.14876117
000190 4f 72 60 3e 69 ba 17 3e e3 cf cf bd 45 35 3d bd
       0.21918605 0.14817204 -0.10147073 -0.04619338
0001a0 18 2f 6c be 0e 9f 90 3b 38 dd 38 be 53 bb 79 be
       -0.2306484 0.004413492 -0.18053138 -0.24387865
0001b0 ef 5a 8c bb 08 af 46 3d fa 37 c2 bd fe e3 20 3e
       -0.004283301 0.048506767 -0.09483333 0.15711972
0001c0 38 c9 1b be 68 49 68 3e d0 6f 2f 3e 64 e1 57 be
       -0.15213478 0.22684252 0.17132497 -0.21082073
0001d0 88 db 7e bd 80 d2 38 3c 18 67 15 3d d0 dd 72 3d
       -0.06222108 0.011280656 0.03647527 0.059293568
0001e0 5c ec c8 3d e0 59 75 3c cc d1 f9 bd d4 45 f2 3d
       0.09810707 0.014975041 -0.12198219 0.11829725
0001f0 56 91 75 be a0 bb 17 be 3c 2b 80 bd ec 66 f9 bd
       -0.23981223 -0.14817667 -0.06258246 -0.12177834
000200 0d ed a7 bd 46 3e 57 be 3c fb 64 bd 42 68 39 3d
       -0.08199511 -0.21019849 -0.05590366 0.045265444
000210 17 92 20 be 20 d8 ef bb 43 21 30 3e eb 01 03 bd
       -0.15680729 -0.0073194653 0.17200188 -0.03198425
000220 75 28 a7 38 dd cc e8 bc aa 26 72 3d 5d 48 0a 3e
       7.970716e-05 -0.028417999 0.059118904 0.13504167
000230 b2 86 6b 3e 42 b1 1b 3e 8f 05 6c 3e d2 48 cc bc
       0.23000601 0.15204337 0.23048995 -0.024937067
000240 66 f8 65 be 40 ba f2 bd ce 4f 2e 3e 00 6b d4 ba
       -0.22458038 -0.118519306 0.1702263 -0.0016206205
000250 dc 7c fe bd 02 2d 44 be 00 94 6f be ec 10 58 be
       -0.12426159 -0.19157794 -0.23396301 -0.21100205
000260 70 b4 4f bd 56 64 0c 3e 74 67 0a 3e 02 e5 76 be
       -0.050709188 0.1371015 0.13516027 -0.24110797
000270 2e b0 1f 3e 8a 52 48 be f0 7b 58 bd 1c 9a cf bd
       0.15594551 -0.19562736 -0.05285257 -0.10136816
000280 c1 e3 49 bd 50 8d 33 bd eb d1 65 be fa 93 62 be
       -0.04928947 -0.043835938 -0.22443359 -0.22126761
000290 ad 02 1f bd 05 3f 88 3b 17 74 ef bd d3 a1 cb 3d
       -0.03882091 0.004157903 -0.11692064 0.09942975
0002a0 bb b7 60 be 18 06 a3 bc dd f0 7c 3e 06 37 ad bd
       -0.21945088 -0.019900367 0.24701257 -0.084577605
0002b0 ac 52 64 3e b5 ce ba 3d 86 c8 64 be f8 e7 1e 3e
       0.22297162 0.091214575 -0.22342119 0.15518177
0002c0 06 3b 9a bc 25 6e 0c be 59 dd 4a 3e fe 08 4b be
       -0.018826973 -0.13713892 0.19811 -0.19827649
0002d0 d1 c6 20 3d a9 93 29 bd 56 e1 44 3e 59 63 37 3d
       0.039252106 -0.041400585 0.19226584 0.04477248
0002e0 f1 65 c5 3d 3d ba cf 3d 33 20 ac bd 1c 14 5f bd
       0.096385844 0.10142944 -0.08404579 -0.054462537
0002f0 6a c3 45 be 1f 43 09 3e 47 26 43 3e 86 20 3d 3e
       -0.19312826 0.13404511 0.1905757 0.18469438
000300 96 3b 36 be 39 2c 28 3c a9 80 37 be 2e fd 12 be
       -0.17796168 0.01026445 -0.17920174 -0.14354393
000310 ab 40 13 be 9d cf ad 3d 8e d5 19 be 02 10 21 bc
       -0.14380138 0.08486865 -0.15022871 -0.009830477
000320 28 18 a5 3a ac 27 24 3e 5b da 4a be 7f 2c 3e be
       0.00125957 0.16030759 -0.19809859 -0.18571661
000330 e0 52 15 be 1a 07 30 3e 4a ee c3 bd 6a 0d 57 3e
       -0.14582396 0.17190209 -0.095669344 0.21001211
000340 ec cd a5 3d 6e 07 d0 3c 1a d0 76 bb 74 b5 45 bd
       0.08095917 0.025394168 -0.003766066 -0.04826875
000350 54 7b f5 3c 6a 04 7a bd e2 5b b1 3c 1b 16 f5 3c
       0.029966034 -0.061039366 0.021650258 0.029917767
000360 44 fe 51 be 2a ae da bd 5d f5 30 3e a3 21 59 be
       -0.20507151 -0.106777504 0.17281099 -0.21204238
000370 3e e6 d3 3b 07 52 86 3e 9b 3b c4 3d fd af 01 3d
       0.006466656 0.26234457 0.09581681 0.031661976
000380 b3 18 57 be 14 bc 05 3e 90 4b 36 be 27 e5 ad bd
       -0.21005516 0.13060027 -0.17802262 -0.08490973
000390 08 81 ac bd 62 0e 14 bd d7 57 f2 bc 9d d4 6c 3e
       -0.08423048 -0.03614653 -0.0295829 0.2312798
0003a0 37 90 76 3d af 70 43 3e 20 aa 49 3e 7b c7 e9 bd
       0.060196128 0.19085954 0.19693804 -0.11415001
0003b0 75 d0 8d 3d 29 2b 5f be eb 21 89 bd 3a 9b e5 3c
       0.06924526 -0.21793808 -0.066959225 0.02802812
0003c0 37 d6 ca 3d 82 43 53 3e 41 78 a1 bd d6 06 e5 3b
       0.099041395 0.20631221 -0.07884265 0.0069893403
0003d0 54 aa f8 3d 27 97 71 be 17 77 36 3e 75 01 50 be
       0.121418625 -0.23592816 0.17818867 -0.20313056
0003e0 5b 3e 8f ba b3 fd 38 bd fb fb 0c be ce f5 bc 3c
       -0.0010928618 -0.04516382 -0.13767998 0.023066428
0003f0 6b 06 58 3e 06 dd 89 bd 68 54 37 be 62 a0 ac bd
       0.21096198 -0.0673161 -0.17903292 -0.08429028

bias f4 [256]
000000 08 3a 3a 3e ac 2b dc 3c 0e 41 c5 bd d3 6d f9 3d
       0.181862 0.026876293 -0.09631549 0.121791504
000010 50 11 ad 3c 1c c2 e3 bd 77 b9 88 3d 34 b7 2a be
       0.02112642 -0.11121008 0.066759996 -0.16671449
000020 20 de 66 3e 20 62 60 3e 8e a3 e5 3d 12 e0 15 3e
       0.22545671 0.21912432 0.11212836 0.14636257
000030 52 84 7f be 0f 28 ea bd 78 69 8e be 45 cb 07 be
       -0.2495282 -0.11433422 -0.2781484 -0.13261135
000040 32 3e 54 be b1 3f 3b 3e eb 1c 62 3e 97 89 07 3e
       -0.2072685 0.18286015 0.22081344 0.1323608
000050 64 34 da bd ad e2 46 3e 5f 2e 17 bd 4a f2 6c bd
       -0.10654524 0.19422407 -0.036909457 -0.057848252
000060 a3 9a f3 3d f9 98 30 3e 10 83 45 be 0c 26 75 3e
       0.11894729 0.17245854 -0.19288278 0.23940295
000070 20 b4 ce bc 73 21 bc 3d be e1 88 be 92 2d 0d 3d
       -0.025232375 0.091860674 -0.26734728 0.034467287
000080 a8 65 fd bd c2 4a 20 be 86 c9 cf bd e7 76 2a 3c
       -0.12372905 -0.15653518 -0.101458594 0.010404325
000090 f4 db 91 bd fa fd 23 be ed 6b 39 3e 94 6e 8b 3d
       -0.07122031 -0.16014853 0.18107577 0.068082005
0000a0 b8 3e 6e be 71 11 5f 3d 70 8b 7b 3d 80 82 16 3c
       -0.23266113 0.054459993 0.061412275 0.009186387
0000b0 da b1 83 3d 9f 5d 19 bd 60 eb df 3d d1 1b 2c be
       0.06430407 -0.0374428 0.10933566 -0.16807486
0000c0 8d fb e9 bd 6c c5 3f 3e 14 7d 2c be 5d 48 0a 3e
       -0.11424933 0.18727654 -0.16844589 0.13504167
0000d0 ec 54 70 3e 81 c1 41 be d0 dd c5 bd ce 85 59 3e
       0.23469895 -0.18921472 -0.09661448 0.21242449
0000e0 d1 84 3d bc 64 d2 24 3d 9d 27 77 3d a8 fe d2 3d
       -0.01156731 0.040239707 0.060340513 0.10302478
0000f0 ba cc d8 bd 2b d4 19 3d e0 61 2e 3e fb 32 21 bd
       -0.105859235 0.037555855 0.17029524 -0.03935526
000100 6a eb 7b be b9 85 dc 3d e4 0e a3 bd 9b 71 72 bd
       -0.24601522 0.10767693 -0.079618245 -0.059190374
000110 20 9e 0a 3e 34 8b 8a 3d 0a 0c 40 be d8 45 ec bd
       0.13536882 0.06764832 -0.18754593 -0.11536759
000120 2f da 49 bd a8 fe 7c bd 40 54 72 bd 72 fa 2e be
       -0.04928034 -0.061766297 -0.05916238 -0.17087725
000130 b4 46 39 3e 66 c4 04 3e 1a b2 4d 3d da ba 77 3d
       0.18093377 0.12965545 0.05021868 0.06048093
000140 70 c1 ef 3c f7 3b 3e 3e 30 60 59 3d 34 fb 5f 3d
       0.029267043 0.18577562 0.053070247 0.054682925
000150 01 0c 19 be b1 72 9b 3d 74 88 69 be 9f cc 82 3d
       -0.14945985 0.07590235 -0.22805959 0.063866846
000160 e8 e5 5d be d6 fb e2 bd fc 26 07 3e ef 10 1e be
       -0.21669734 -0.1108319 0.13198465 -0.15436147
000170 b9 31 6e 3e fa 71 0d be fa da 83 3e f8 cd 9d 3d
       0.23261155 -0.1381301 0.25753003 0.07705301
000180 32 7a ec bd 39 3b f6 3d 52 3f 70 be 78 03 25 be
       -0.115467444 0.120230146 -0.23461655 -0.16114604
000190 38 79 08 be 19 d6 7c 3d e0 63 ae 3b e7 ee 65 be
       -0.13327491 0.061727617 0.0053219646 -0.22454415
0001a0 aa 07 77 3e f6 10 13 3b de 88 0c be 00 64 b9 bb
       0.24124017 0.002244053 -0.13724086 -0.005657673
0001b0 96 09 a9 bd 33 61 a0 3d 44 ff c5 3d 8e 6a 7f bd
       -0.082537815 0.07831039 0.09667829 -0.062357478
0001c0 00 ca 6e 3c 72 52 18 3e 6a 40 1b be bf 75 57 bd
       0.014574528 0.148752 -0.15161291 -0.052602526
0001d0 92 02 f0 bc f1 eb 4c be e6 af e0 3c eb 05 4b 3c
       -0.0292981 -0.2001188 0.027427625 0.012391548
0001e0 8d 95 50 be 7b 85 16 3d ea 57 74 3e 78 07 bc 3d
       -0.20369549 0.03674839 0.23861662 0.09181112
0001f0 a7 ee 0d be 0b a5 6d 3e 6f ec 34 be 0a 59 01 be
       -0.1386057 0.2320749 -0.17668317 -0.12631622
000200 eb 77 d8 3d 9a a8 4b 3e d6 f4 72 3e 98 fd 5a 3e
       0.105697475 0.19888535 0.2372621 0.21385801
000210 3c d5 06 be 88 51 6a 3d d0 75 02 be 58 3e 79 3c
       -0.1316728 0.05720666 -0.12740254 0.015212618
000220 8c 34 4c 3e cf ec f8 3d 16 40 68 be 68 2e df bd
       0.1994192 0.12154543 -0.22680697 -0.10897523
000230 a0 44 55 be 4c 23 b7 3d ab 4c 66 3b b3 ae 2d be
       -0.2082696 0.08942279 0.0035140913 -0.16961174
000240 43 e7 36 3a c7 31 e4 3d 6f c3 d2 3c e8 34 70 3e
       0.00069772097 0.11142307 0.025727956 0.23457682
000250 66 5a fd 3c 80 b0 ad 3d 40 19 9b bd 8e 94 0e 3d
       0.030926894 0.0848093 -0.075731754 0.03480964
000260 d9 fc 3d 3d 32 e6 5b 3e af 05 03 3e 5e 6e 18 be
       0.046383712 0.21474531 0.12795137 -0.14885852
000270 45 dc 64 be ed 56 8f be e0 ef b9 bd 18 5e 04 3d
       -0.22349651 -0.27996007 -0.09078956 0.032316297
000280 e5 f9 74 3e 63 80 8a bc bc f1 c5 3d 05 27 04 3e
       0.23923452 -0.016906923 0.09665248 0.1290551
000290 74 be 47 be 0d 60 65 be 8a 7e d0 3d e0 a5 ee 3d
       -0.19506246 -0.22399922 0.101803854 0.11652732
0002a0 bc 67 ee bd ec 1e 5a 3c 68 4c 31 be d4 6d 92 3b
       -0.116408795 0.013313036 -0.17314303 0.004468659
0002b0 0d 9e 99 3d 27 a0 84 3b ef 8b 17 bd 23 4a ef 3d
       0.07500849 0.004047412 -0.036998685 0.11684062
0002c0 8b 82 89 bd d0 a8 2f 3e 79 ca 5f be 9e 4d 12 be
       -0.06714352 0.1715424 -0.21854581 -0.14287421
0002d0 07 b4 44 be ec 86 67 be b6 eb 24 3e 59 ba 49 bd
       -0.192093 -0.22610062 0.16105542 -0.04924998
0002e0 4a 18 49 be 30 63 54 3d 0c 45 39 be 71 10 a0 3b
       -0.19638172 0.051852405 -0.18092746 0.0048847725
0002f0 04 9b f7 3d 18 88 58 bd da 05 11 3e 23 b5 87 3d
       0.12090114 -0.052864164 0.14162388 0.06626346
000300 1d cd 49 be a8 8a 49 3d 42 c3 2d 3e 8f 7e 6c bd
       -0.19707151 0.0492045 0.16969016 -0.057737883
000310 ae 97 66 3d 3e 39 6c 3b 1f 86 9f 3c 04 18 85 3d
       0.056296997 0.0036044861 0.019473134 0.06498721
000320 0c 1c 75 be 91 18 3c 3e 64 4e df 3d a0 e8 fc 3c
       -0.2393648 0.18368746 0.10903624 0.030872643
000330 ee 58 68 3d 8a 79 47 be 9f d0 ab bd d6 ff 40 bc
       0.056725435 -0.19479957 -0.08389401 -0.011779746
000340 10 6a 73 3d 90 93 10 be 40 4d d9 3c ae 46 0e bd
       0.05942732 -0.1411879 0.026526093 -0.034735374
000350 1a 71 42 3e 90 bd 5b be 50 15 d6 3c 29 23 33 3e
       0.18988457 -0.21459031 0.02613321 0.17493881
000360 c5 d9 40 be 40 cb ea bb 68 97 ec 3d 33 57 bb 3d
       -0.18833072 -0.0071653426 0.11552316 0.09147491
000370 60 d8 f0 3c 72 00 e0 3d f0 74 32 be e0 58 54 3e
       0.02940005 0.10937585 -0.1742742 0.20737028
000380 40 b5 b6 3b 9c 35 85 3e 11 a7 d8 3c 26 df 3f bd
       0.005575806 0.26017463 0.026446851 -0.04684367
000390 21 1f c1 3d 31 74 68 3e a0 74 81 3e e6 1e 50 be
       0.094297655 0.22700574 0.2528429 -0.20324287
0003a0 07 6b 32 bc cc 1b 3b be b1 c5 12 3e 73 df 3f 3e
       -0.010889775 -0.18272322 0.14333226 0.18737583
0003b0 07 07 31 be ae a4 8c bb ac fa 2a 3e c6 ed 53 3e
       -0.17287837 -0.0042920923 0.16697186 0.20696172
0003c0 32 07 36 be cb 80 35 3e d1 27 05 bd 90 0f 66 be
       -0.17776182 0.17724912 -0.032508675 -0.22466874
0003d0 d8 fa 4b 3d 7c 85 ee 3d ef d0 09 3e 1f 5c 2e be
       0.04979977 0.11646554 0.13458608 -0.17027329
0003e0 bd 59 44 be 07 3b 24 be fa 1c 0b 3e 64 1b 6f be
       -0.19174857 -0.16038142 0.13585272 -0.23350292
0003f0 06 64 9b bb 88 94 87 bd 83 c5 e3 3d e0 18 49 3d
       -0.0047421483 -0.06620127 0.11121657 0.04909599

weight f4 [256, 256]
000000 14 46 01 bd c8 df 90 3b 47 7e 50 3d 67 35 09 bb
       -0.031560972 0.004421208 0.050901677 -0.0020936371
000010 f4 b7 fd bc 40 22 09 3b bf 01 90 bd a4 3f 24 bd
       -0.030971505 0.0020924956 -0.07031583 -0.040099755
000020 b8 34 3e bc de 86 1f bd 07 2d 3b 3d 76 8a bc 3b
       -0.011609249 -0.03894698 0.04569724 0.0057538105
000030 31 d3 12 3d 65 6e 80 bc 15 fb 48 bc d9 57 58 3c
       0.03584594 -0.01567764 -0.012266894 0.013204538
000040 e4 3c 98 bc 08 e9 da bc 77 81 7e bd 56 db 40 3d
       -0.018583722 -0.026722446 -0.062135186 0.047084175
000050 4d 4d 29 3d 43 bf 80 bd 48 66 a9 bc be 66 47 bd
       0.041333485 -0.0628648 -0.020678654 -0.048681967
000060 1d 41 0f bd 5a 01 2b 3d b3 70 d2 3c 90 e8 9e bb
       -0.034974206 0.041749336 0.025688505 -0.004849501
000070 14 ad da 3c 95 ee 48 3c 5c ce 0b 3d 94 ee 58 bd
       0.026693858 0.012263914 0.034132347 -0.0529619
000080 4c 43 9e 3c b2 74 72 bd c4 5c 28 bd 84 cc be bc
       0.019319199 -0.05919332 -0.041104093 -0.02329088
000090 10 89 c7 bb a2 96 71 bd 40 e0 cb 3a 1f 40 19 3c
       -0.006089337 -0.058981545 0.0015554503 0.009353667
0000a0 08 32 cb bc a0 11 a6 3c e2 b2 5f 3d 08 ea 2e bc
       -0.02480413 0.020272076 0.054613955 -0.010675915
0000b0 2c ca 1d bd 74 4c 73 bd 92 ee 3a bd b8 d7 30 bd
       -0.038522884 -0.059399083 -0.045637675 -0.043174475
0000c0 14 41 3d bd 00 4b c9 bc 83 01 d2 3c 9d 3d 8e 3c
       -0.04620464 -0.024571896 0.025635486 0.017363364
0000d0 4b b0 4f 3d a8 27 69 3d 67 6e da bc 21 f9 f4 bc
       0.050705235 0.056922585 -0.026663972 -0.02990395
0000e0 39 9b ad b9 26 d9 4b bd f2 4c fb 3c 20 4c 38 bc
       -0.0003311278 -0.049767636 0.030676339 -0.011248618
0000f0 11 eb 60 bd 45 e7 6e bd c8 66 30 bd 8a fd 1f 3c
       -0.054911677 -0.058326025 -0.04306677 0.009765038
000100 b3 59 3c 3d 11 9e 27 3d 11 cc ce bc fa b2 14 bd
       0.04598398 0.04092223 -0.02524379 -0.036303498
000110 6d e8 0f bd 75 50 4d bd 34 01 84 bc 54 34 67 bd
       -0.035133768 -0.050125558 -0.016113855 -0.05644639
000120 d4 d4 08 3d 2c f2 70 bd 50 44 2e bd 3a cd 2b 3d
       0.033406094 -0.058824703 -0.042545617 0.041943766
000130 62 df 69 bd 60 cd 74 3c 04 c0 3f 3d 9a f8 4a 3d
       -0.0570978 0.014941543 0.04681398 0.04955349
000140 8a 88 01 3d 12 1f 8f bc 98 49 12 3d 83 33 d1 bb
       0.031624354 -0.01747087 0.035714716 -0.0063843145
000150 c4 de 9d bc 00 70 55 39 21 3a 8a 3b 30 a7 2b 3d
       -0.019271262 0.00020354986 0.0042183553 0.04190749
000160 54 eb d6 3c a6 52 91 3c 18 30 19 3c 80 28 4e bb
       0.02623526 0.017739605 0.009349845 -0.0031457245
000170 94 32 b5 3c 80 4b 76 3c 90 17 80 bd 30 8e 25 3c
       0.022118844 0.015032649 -0.06254494 0.010104701
000180 e7 06 09 bd dc 96 0f bd d7 d3 be 3c 78 65 51 3c
       -0.03345385 -0.03505598 0.023294372 0.01278054
000190 c9 eb 0f 3c 64 e2 f2 bc 68 97 80 3c 10 3d 70 3d
       0.008784243 -0.029648967 0.015697196 0.058651984
0001a0 e0 8b fa 3b a6 5a ab 3c ca e8 6b bd d6 30 18 3d
       0.007646069 0.020917248 -0.05759505 0.03715595
0001b0 d8 dc b1 3c ca 8e b6 3c 2e e7 6e 3c 26 93 dd bc
       0.021711752 0.022284884 0.014581485 -0.027047705
0001c0 e0 dc 75 bb da 9e 77 3d ba 21 06 3d 6b d2 51 bd
       -0.0037515685 0.060454227 0.032747008 -0.05122606
0001d0 d0 1d 4b 3d ac e7 76 3d e8 aa 06 3c 41 c3 4a bd
       0.04958898 0.060279533 0.008219458 -0.049502615
0001e0 f0 a2 11 3b d0 ce 4e bc 86 0f 38 3d 65 27 7f bd
       0.0022222362 -0.01262255 0.04493668 -0.06229343
0001f0 ea b2 1a 3c ac 40 06 bb 0e 27 0d bb b0 19 30 3d
       0.0094420705 -0.0020485325 -0.002153817 0.042993248
000200 d3 e2 bf bb c6 19 4e bd 8e 80 3a bd ed e1 e8 bc
       -0.005855897 -0.05031755 -0.045532756 -0.028428042
000210 4f 90 48 bb ac 94 c5 3c d0 e2 45 bc f4 40 1e bd
       -0.0030603593 0.024118744 -0.012078002 -0.038636163
000220 6a af d1 3c 2c e9 78 bd af 12 11 3d 30 30 7a bc
       0.02559634 -0.060769245 0.03541821 -0.015270278
000230 de 21 32 3d ea 6f 41 3d 66 de a8 3a e3 ac 7f 3c
       0.04348933 0.04722587 0.0012883663 0.015605184
000240 b6 dd 17 bd a6 dd 33 3d 16 78 00 3d 08 d4 20 bc
       -0.037076674 0.043912552 0.031364523 -0.009816177
000250 e0 90 c7 3c 00 4f 18 bc a0 02 48 3d 62 4a 83 3c
       0.024361074 -0.009296179 0.04883063 0.01602668
000260 fa 6e 32 3d d8 b2 68 bd c7 5d 5e 3d 93 4a 80 3c
       0.043562867 -0.056811184 0.05428865 0.01566056
000270 d8 ec f8 3c 77 d8 59 3c 32 23 28 3d 00 01 71 3d
       0.030386373 0.013296238 0.04104919 0.058838844
000280 c7 de 0d bc 9e 0d 52 bd 05 f6 69 3d f0 f3 57 bc
       -0.008659071 -0.051282518 0.057119388 -0.013180718
000290 e8 ec f6 bc 06 97 1d 3d ae d9 05 3d 68 18 09 3c
       -0.030142263 0.038474105 0.0326783 0.008367635
0002a0 c0 8e 80 bb ed 4e 66 bc fd c7 59 3d a1 d5 09 3d
       -0.003923267 -0.014056903 0.05316924 0.033650998
0002b0 ef 71 e1 3c d6 1d 23 3d e0 fa 05 bd 68 ce 55 3c
       0.027520148 0.039823376 -0.032709956 0.013049699
0002c0 09 f3 6a bd a9 6e db 3c ca bf 7d bd f4 d8 7f bd
       -0.057360683 0.026786165 -0.061950482 -0.062462762
0002d0 78 1f 85 bd ec dd 1d 3d c0 43 0f 3b 00 08 15 39
       -0.06500143 0.03854172 0.002186045 0.00014212728
0002e0 40 df 22 3c 5c c4 c1 bc f8 4a d0 bc 70 06 39 bd
       0.009940922 -0.023653202 -0.025426373 -0.045172155
0002f0 00 14 7a bc b2 86 1d bd 4b f8 30 ba 36 70 30 3d
       -0.015263557 -0.038458534 -0.0006750866 0.043075763
000300 1a a2 53 bd 74 c9 fb 3c 8c 69 3e bd d7 98 16 bd
       -0.051668264 0.030735709 -0.046487376 -0.036766853
000310 c8 3c 48 3c 60 32 30 3c ff 83 35 3d 00 20 c4 b7
       0.012221523 0.010754198 0.044315334 -2.3379922e-05
000320 30 01 c3 bc 38 bf d3 bc 40 2c f0 3a c8 f4 3f bd
       -0.023804277 -0.025848016 0.0018323734 -0.0468643
000330 f2 86 6a bd e4 10 db bc 51 68 43 bc 28 e3 2c bd
       -0.0572576 -0.026741453 -0.011926726 -0.04220882
000340 20 22 12 bd 64 c8 36 3d 0e 93 6c 3d 60 60 a0 bc
       -0.035677075 0.0446247 0.05775743 -0.019577205
000350 b4 a1 8e bd 60 05 c4 bc f4 a4 ce 3c 4d 4e 11 3c
       -0.06964436 -0.023928344 0.02522514 0.008868766
000360 38 b4 cf bc d4 76 61 bd c8 f3 99 bc 08 f6 64 bc
       -0.02535449 -0.055044964 -0.018793002 -0.013974674
000370 be 6b 13 3d 3c ed 0a bd 68 a4 19 3d 38 0c 0e 3c
       0.035991423 -0.03391765 0.037510306 0.008669905
000380 e0 9e 2b bc 07 b9 7c bd 2f 26 7c 3d b0 98 36 bc
       -0.0104748905 -0.061699893 0.061559852 -0.011144802
000390 28 13 21 3d 51 42 1e bd 03 79 98 bd e0 0e 4c bd
       0.03932491 -0.038637463 -0.07444956 -0.049818873
0003a0 a4 ff 08 bd 2e 79 b7 bc 36 3b 2d bc 36 6f 55 3d
       -0.033446923 -0.02239665 -0.010573199 0.052108012
0003b0 92 47 71 bd 2b 38 a1 3c 8a 0a 2c 3d 5c 45 26 bc
       -0.058906145 0.019680103 0.04200224 -0.0101483725
0003c0 36 52 28 bd f0 2a 09 bb c0 ee 72 3c 03 9a 74 3c
       -0.041094027 -0.0020930134 0.01482743 0.014929297
0003d0 d8 a1 9b bc 28 b4 af bc 69 57 02 bd 58 9b 77 bd
       -0.018998072 -0.02144821 -0.031821642 -0.06045088
0003e0 5e b9 4b 3c 30 8a 41 bd cf dd 28 bd 80 9a 28 ba
       0.012434332 -0.047250926 -0.04122716 -0.00064317137
0003f0 89 3e 3c 3d 3f df 4b 3d 6d 02 68 bd 86 06 5e 3d
       0.045958076 0.04977345 -0.05664294 0.05420544

bias f4 [256]
000000 5e 56 4c 3c 24 34 21 3c 90 c8 e0 3b 41 4f 8b 3d
       0.012471763 0.009839091 0.0068598464 0.06802226
000010 b3 ff 53 3d 39 f0 ee bc 12 0e d9 bc d1 91 1f 3d
       0.051757526 -0.029167281 -0.026495967 0.03895742
000020 e9 6f 00 bd 41 26 51 bd 89 61 2b 3d fc 48 4f bd
       -0.031356726 -0.051061872 0.041841064 -0.050606713
000030 7c de a5 3d 2b 95 aa 3c 3c e6 e8 3c d2 23 d7 bc
       0.08099076 0.020823082 0.028430097 -0.026262198
000040 0a 25 22 3d 8b 92 2a 3d df 8d 60 bd bf 50 3e 3d
       0.039586104 0.04164366 -0.0548228 0.046463724
000050 87 a4 4e bd 7a 28 52 3d 54 66 de bc 4b 2a 4c bd
       -0.050449874 0.051308133 -0.027148403 -0.04984502
000060 9d fb ac 3d 4b 3d 4c bc 58 90 53 bd 99 83 04 bd
       0.08446429 -0.012465785 -0.05165133 -0.032352064
000070 7c 0a 26 3d 1a 37 54 b9 f2 8c 03 bd 43 87 c7 3d
       0.040537342 -0.00020238422 -0.032116838 0.09742596
000080 98 27 98 ba e8 f5 a4 3b 41 69 99 bc bf 64 82 bc
       -0.001160848 0.005034197 -0.018726947 -0.01591718
000090 a6 05 88 3c c0 64 03 bd ef 6a fe bc 66 6c 56 3d
       0.016604256 -0.032078505 -0.03105685 0.05234947
0000a0 64 09 bf 3c 48 92 dc 3a 23 56 b2 ba 3f 6e 8b bd
       0.023319907 0.0016828263 -0.0013605993 -0.06808137
0000b0 81 e1 84 3c 86 96 fd 3c f8 73 fc bc 47 93 72 3c
       0.01622081 0.030955564 -0.030817017 0.0148056215
0000c0 49 15 80 3d b6 0d 1a bd 25 41 65 3d 30 25 e7 bb
       0.0625406 -0.037610732 0.05597033 -0.0070539936
0000d0 de e7 91 bc 82 b9 78 3c 5b d8 3e 3c 03 d6 a4 3c
       -0.017810758 0.015180947 0.011648263 0.02012158
0000e0 f5 e8 68 bd ab fa c6 bb 28 3d 4c bc e0 ce 8a 3b
       -0.05686279 -0.0060723624 -0.012465753 0.004236087
0000f0 7e 37 b7 bc a6 f2 b9 3b 59 e7 05 3d 8f 4b b6 bb
       -0.022365328 0.005674678 0.032691333 -0.0055632065
000100 0a 9d d4 3c 15 e5 53 3d 26 83 3f bd 00 a8 47 3d
       0.025953788 0.05173214 -0.046755932 0.0487442
000110 50 7c 0b bc 80 f9 a8 3c 93 80 f0 bc ca 5c 17 3d
       -0.008513525 0.020626783 -0.029358184 0.036953725
000120 99 6e 2e bd 0c ba d0 3c eb 2a 80 bd 3b 8e 82 3d
       -0.042585943 0.025479339 -0.06258186 0.063747846
000130 39 22 29 bc 79 4e 5d bd 43 3b bb 3c 1d 04 4b 3d
       -0.010323101 -0.054029915 0.022855407 0.04956447
000140 15 ba 3a 3c 61 4d 3e 3d 01 f8 47 3c 91 2f 3c bb
       0.0113969045 0.046460513 0.012205125 -0.0028714875
000150 fa 03 0b 3d b3 3f 3f 3d b4 3d ef 3b 37 cb 86 bc
       0.03393934 0.046691608 0.0073010568 -0.016454322
000160 01 57 4e bc 33 98 32 bd 59 c0 4b bd 30 63 41 bc
       -0.012593986 -0.04360218 -0.049743984 -0.011803433
000170 06 e3 8d 3c 74 02 3f 3d f6 ba cc 3d f2 6a c5 bb
       0.017320167 0.0466332 0.099965975 -0.0060247118
000180 df c1 84 3c c0 90 cf 3c 75 00 40 bd ce 39 43 3d
       0.016205726 0.025337577 -0.046875436 0.04766255
000190 1b 2a 8a bb 40 71 6f bc 0a 02 a1 3d 9a f9 d2 3c
       -0.004216445 -0.014614403 0.07861717 0.025753785
0001a0 18 cc 73 bd 08 58 a9 bc de 4a d2 bb 60 6d 61 bc
       -0.05952081 -0.02067186 -0.0064176163 -0.013758987
0001b0 7a 84 37 3d 05 29 40 bd 36 84 0f bd 39 22 ed bc
       0.044804074 -0.04691412 -0.035038196 -0.028946983
0001c0 66 b6 ae bc da a8 5b 3d 94 f0 b7 bc 11 34 46 3d
       -0.021327209 0.053627826 -0.022453584 0.0483895
0001d0 e1 f3 32 bd 60 5c 27 3c 76 65 01 bd f6 af b8 3c
       -0.043689612 0.010214895 -0.0315909 0.022544842
0001e0 a1 ef 02 bd 15 45 4e 3d b8 1d 1e 3d d8 3c 7c bd
       -0.03196681 0.05035885 0.03860256 -0.061581463
0001f0 9c 90 06 bd d8 61 20 bd b0 0d 75 bd b2 c1 d3 39
       -0.032852754 -0.03915581 -0.059827507 0.0004038937
000200 8a a1 23 bd 01 dd 84 bd e9 fe 12 bd 54 ee c9 bc
       -0.039948978 -0.06487466 -0.035887633 -0.024649777
000210 54 2e 90 3c 84 bf 28 39 1a 1e 4b 3d 7d 40 05 bd
       0.017600216 0.00016093074 0.049589254 -0.032532204
000220 30 a5 37 bc 77 6d 86 ba fe fd e4 bc 20 c0 ae bb
       -0.011208817 -0.0010256012 -0.027953144 -0.0053329617
000230 da 9e 85 3c f4 ff eb bc 88 bc 03 3c 12 bd 47 3d
       0.016311098 -0.028808571 0.008040555 0.048764296
000240 60 1c 00 bc b6 e0 47 bd ed bd 43 bc 83 f6 1a 3c
       -0.007819265 -0.048798285 -0.011947137 0.009458187
000250 58 6e 1e 3d b1 e5 65 3d 09 a8 84 bd 14 e6 6e bc
       0.03867945 0.056127254 -0.06477363 -0.014581222
000260 c8 64 20 3d 67 e4 85 bc ff c8 a5 bc 71 9b 51 bd
       0.039158612 -0.016344262 -0.020237444 -0.05117363
000270 48 ad 57 bd 75 82 fd 3b 80 80 63 3a 3b 93 f2 bb
       -0.05265549 0.007736499 0.0008678511 -0.007402805
000280 de 72 25 3c 86 e4 16 bd a4 2d a4 bc 18 5a 60 bc
       0.010098187 -0.03683903 -0.020041294 -0.013693355
000290 3e 94 4b bd e8 7f 5a 3d 67 7d b7 3c 54 fd 6e 3d
       -0.04970192 0.053344637 0.022398664 0.05834706
0002a0 b1 bd 7a 3b 68 3f 2d 3d ee eb 08 3d 9b f2 2d bd
       0.0038260038 0.042296797 0.033428125 -0.042467695
0002b0 c4 9e fd bc 27 06 23 bd 9c 9a 8c 3c eb 7c a9 3a
       -0.030959494 -0.03980079 0.017163567 0.0012930905
0002c0 85 b3 c3 bc 28 a7 cf bb 30 7c 95 bb 8e 5e da bc
       -0.023889313 -0.0063370652 -0.0045619234 -0.026656415
0002d0 c8 b4 e9 3a d3 02 81 3d 0c e0 dc bc 34 a0 bb 3c
       0.0017830366 0.06299367 -0.026962303 0.02290354
0002e0 6e 86 dc 3c 12 57 67 3d 98 6d 76 bb 58 42 57 3d
       0.02691957 0.05647952 -0.0037601944 0.052553505
0002f0 97 4f 22 3d 66 3d ff bc 1e e4 93 3d ee 1a 2a 3d
       0.039626684 -0.031157207 0.07221244 0.04152959
000300 f1 c3 41 bd 57 93 fa bc 03 13 5d 3c 53 55 f5 3b
       -0.047306005 -0.030587835 0.013493302 0.007486978
000310 1c b9 0f 3d a8 4a 30 3c c2 73 ed 3a 34 38 4a bd
       0.035088643 0.010759987 0.0018116164 -0.049370006
000320 94 3e 90 3c 42 8f d9 bb 3e f0 b5 3c e2 53 79 3d
       0.017607965 -0.006639392 0.022209283 0.060871013
000330 90 3d 25 3d a0 07 f9 3b 20 1e 49 3b 25 94 b9 3c
       0.040341914 0.007599786 0.0030688122 0.022653649
000340 9f 85 21 bd fc 47 d3 3c 61 b0 5f bd 54 84 ff bc
       -0.03943407 0.02579116 -0.054611567 -0.031191029
000350 37 da aa 3c 45 69 7b 3d 14 8d f9 bc 70 9d 55 bc
       0.020856006 0.06137969 -0.03046278 -0.013038024
000360 81 d2 42 bd 87 c1 50 bd f0 6e 5a bc 2a f5 0f 3d
       -0.047564033 -0.050965812 -0.013332114 0.035145916
000370 53 60 32 3d af 73 c1 3c 32 ff 19 3d ac ac b7 bc
       0.043548893 0.023614733 0.03759689 -0.022421204
000380 a0 6b 73 bc 80 bd 6e 3c 3b fe dc 3c 0c d6 4c 3d
       -0.014857203 0.0145715475 0.026976695 0.05000882
000390 46 7d 13 3d 26 08 21 bd 8c 33 8d 3c 78 c0 f4 bc
       0.036008142 -0.03931441 0.017236494 -0.029876933
0003a0 fc fa 86 3c bc 92 42 bd 0f 63 ad 3c 9c 25 43 3d
       0.0164771 -0.047503218 0.021165399 0.04764329
0003b0 f0 f7 18 bd c3 68 57 bd 5a 16 41 3d ea ad bc 3c
       -0.037345827 -0.052590143 0.047140457 0.023032147
0003c0 20 06 45 3d 08 ca 9d 3d 0a 53 67 3d fa c4 16 3d
       0.048101544 0.0770455 0.056475677 0.036808945
0003d0 34 49 e4 bb c4 16 dd 3c 82 14 f3 bb a9 82 61 3d
       -0.0069667343 0.026988395 -0.007418216 0.055056248
0003e0 98 19 91 bc b3 12 a3 bc 80 17 40 bd 0e d6 f8 bc
       -0.0177124 -0.019906377 -0.04689741 -0.030375507
0003f0 d0 56 09 bd 22 61 4b bd 3e 6f 86 3c a5 2d a5 3c
       -0.033530056 -0.04965318 0.016410466 0.020163367

weight f4 [3, 256]
000000 78 4b 2f bd 00 14 f0 38 bc d1 6b 3d 22 44 a6 bd
       -0.042796582 0.00011447817 0.057573065 -0.08118464
000010 90 11 e3 3a 57 e7 c1 3c 51 a1 62 3d c8 38 06 bd
       0.001732396 0.023669882 0.055329625 -0.032768995
000020 91 76 c3 3a 0c e3 2f bc d1 a2 50 bc 42 f2 8e bc
       0.0014912655 -0.010735285 -0.012734131 -0.017449502
000030 b2 f8 05 be c8 1c 55 3d 9c e5 3b 3d d1 0b 22 3d
       -0.13083151 0.0520294 0.04587327 0.03956205
000040 3b 6c e3 bc 8e c8 f3 3c 53 38 b6 bd 7f bc 49 3a
       -0.02776157 0.029758718 -0.08897462 0.00076956296
000050 d6 d7 6d bc 6e 01 01 bb 18 3d 53 bd 7c 21 55 bd
       -0.014516791 -0.001968469 -0.051571935 -0.052033886
000060 53 85 09 bd 2a d8 1e bc 20 06 3b bc f2 b0 52 bd
       -0.033574414 -0.009695092 -0.0114150345 -0.05143828
000070 78 3b 4b bd fd c7 b3 bc a1 d7 91 bd de b1 23 be
       -0.04961726 -0.021945948 -0.07121206 -0.1598582
000080 bf 03 42 bd 42 a3 ed 3c 15 8f aa 3c df d3 6b bc
       -0.047366854 0.029008511 0.02082018 -0.014393776
000090 48 1b 20 bd 6a 57 32 bb 5c b3 4b bc 2e 61 66 3d
       -0.039088517 -0.0027212747 -0.012432899 0.05624502
0000a0 30 2c 1e 3c eb 8d 2f 3d ab e3 3b bb b2 f8 4b 3d
       0.00965409 0.042859953 -0.0028669636 0.04979772
0000b0 58 db 64 3d 77 3d a7 bb 47 2d 69 bc df cd f0 bc
       0.055873245 -0.0051037627 -0.014231986 -0.029395042
0000c0 f9 86 8f bd 4c 87 c0 bc d5 16 cd bc 1e 52 1b bd
       -0.07008166 -0.023502015 -0.025035301 -0.03792011
0000d0 7f e3 10 3d 8e a4 b6 3c 6e 79 0c 3d cc af 04 bc
       0.035373207 0.022295263 0.034295492 -0.008098554
0000e0 1c 09 f8 bc 32 96 27 bd ce ab 44 3d f0 21 f1 bb
       -0.030277781 -0.04091472 0.04801541 -0.007358782
0000f0 d2 37 01 bd 16 93 52 bd 85 29 dd bb d1 e1 15 bc
       -0.031547375 -0.051409803 -0.0067493343 -0.009148077
000100 0c 6a be bc 0a 56 37 ba 7a 16 47 3d 70 7b 5b bd
       -0.023243926 -0.0006993717 0.04860542 -0.053584516
000110 06 66 4a bd 40 17 83 bc 51 76 90 bd dc 6d f4 3c
       -0.049413703 -0.016002297 -0.07053817 0.029837541
000120 9d a6 8e bd af 58 bd 3c da 2a aa bc e4 8f 31 bc
       -0.06965373 0.023113577 -0.020772386 -0.010837529
000130 5c bc 3a bd e7 79 ae bc 72 c0 00 3d 9c 22 f1 3c
       -0.04558979 -0.021298362 0.03143353 0.029435448
000140 e1 27 92 3c f5 c9 d4 3b 7c 4e 66 bb 7f 48 c1 3c
       0.017841281 0.0064938017 -0.0035141995 0.02359414
000150 b7 c6 6e bd 2f cd 62 bd cf 6e 33 3c 1b 41 a0 bd
       -0.058294978 -0.05537146 0.010951712 -0.07824918
000160 59 5c 51 bd 67 86 16 bc 3f 64 9c 3c 8e 6e d9 bb
       -0.05111346 -0.009187317 0.01909077 -0.0066354936
000170 c6 5b 9f 3c 2a 16 72 3d 59 a8 89 be 7f 87 c4 3b
       0.01945294 0.05910317 -0.26886252 0.0059975977
000180 22 72 78 bd 63 48 03 bd 58 95 44 3d 93 a5 32 3d
       -0.06065572 -0.032051455 0.047993988 0.043614935
000190 f5 6d 9f bc 73 31 51 39 10 30 66 3d 90 9a 66 bc
       -0.019461611 0.00019950214 0.05619818 -0.0140749365
0001a0 3e 26 19 bd 74 08 69 bd 44 a7 47 bd a8 ce ec 3c
       -0.037389986 -0.056892827 -0.0487435 0.028907135
0001b0 04 29 ec bc c1 f9 97 bc 1a 32 f2 bc d0 1d 0b bd
       -0.028828152 -0.01855171 -0.029564906 -0.03396398
0001c0 4c 48 06 bb 1d 1d a8 3c 80 17 34 bd ae 1f 91 bc
       -0.002048987 0.020521695 -0.043967724 -0.017715301
0001d0 8d 28 aa bc 68 57 05 bd e0 bb be 3c 9c 5e e9 bb
       -0.02077129 -0.03255406 0.023282945 -0.007121874
0001e0 17 99 2f bd e5 77 0d 3d c4 b3 a7 3c 8d 08 c0 bc
       -0.042870607 0.03453817 0.020471461 -0.023441577
0001f0 40 67 6b bd e7 d5 a2 bc ab 1f a9 3b 1d 7b 4f bc
       -0.057471514 -0.019877387 0.005161246 -0.01266363
000200 c0 08 a2 3b 4b 50 62 bd 10 6f 1c bb fd 18 2b bc
       0.0049448907 -0.055252355 -0.002386991 -0.010442969
000210 82 1a 34 3d 6e ab ee bb 14 85 99 3b ba 58 3c bd
       0.043970592 -0.0072836196 0.0046850536 -0.045983054
000220 6a 89 50 bd 4c f6 63 bd a1 2f ca ba 54 6f 8f 3c
       -0.0509123 -0.05565481 -0.0015425571 0.01750914
000230 6f ad 5e 3d f7 cd d8 3a 74 24 dd bc 52 0c 1e 3d
       0.054364618 0.0016540874 -0.026994921 0.03858597
000240 f6 a5 42 bd a8 91 27 3d 75 92 b8 3c 3e e5 87 bc
       -0.047521554 0.040910393 0.022530774 -0.016588803
000250 16 79 9a 3c 7f 4f ec bc 69 2b 5f bd 27 6d 4f bd
       0.018856566 -0.0288465 -0.05448476 -0.050641205
000260 a8 8f 0d bd 9e bc 36 3c a1 0a 15 3c 80 19 ae bb
       -0.03456083 0.011153368 0.009096772 -0.0053130984
000270 e0 2e 52 3b 91 33 21 bd 80 fe 46 3d ae 12 79 bd
       0.0032071397 -0.03935582 0.048582554 -0.06080883
000280 93 08 97 3c 1c f0 cd bc eb de 8e 3c d6 38 0f bd
       0.018436706 -0.025138907 0.01744028 -0.034966312
000290 63 5d 5a bd c0 d7 20 3d e1 1f ab 3c 00 70 4c bd
       -0.053311717 0.039268255 0.020889224 -0.0499115
0002a0 98 73 38 3d c5 07 c3 bc 5c a2 1d 3d 9c 31 70 3d
       0.045032114 -0.023807416 0.038484916 0.05864106
0002b0 1b 8d c4 bc 51 59 22 3d 68 70 97 3c 6e cd bb bd
       -0.023993066 0.03963596 0.018486217 -0.09170042
0002c0 61 d3 8b 3b 1c e3 f8 bc b0 ce e5 bb b0 c3 1a bd
       0.0042671417 -0.030381732 -0.0070131645 -0.03778428
0002d0 63 1a 25 bd a4 ef 8c bd 84 a2 3a bd 8f ad 46 3d
       -0.040308367 -0.06881645 -0.045565143 0.048505362
0002e0 d5 b4 88 3d d0 59 a3 bc 86 9a 98 bd 0b 3c 84 bb
       0.06675116 -0.019940287 -0.07451348 -0.004035478
0002f0 1f e3 ef bb 99 34 3e 3d b4 fc c5 bd 20 68 1a bd
       -0.007320776 0.04643688 -0.0966734 -0.037696958
000300 fd 1e d4 3b cc 1b 0b 3d af 0b 68 bd 80 79 f9 3b
       0.0064734207 0.033962056 -0.056651767 0.007613361
000310 48 d6 49 3c d8 5b 76 3d 74 c4 57 bd c5 3d 3a 3c
       0.012319155 0.060146183 -0.052677587 0.011367266
000320 d0 7f 02 3d 3e ca 8f bc 30 18 7e bc 6e b9 7a 3d
       0.031860173 -0.017552491 -0.015508696 0.061211996
000330 10 f9 00 bc 5a 1a 68 bd 60 dd 79 bb 9b de 32 3d
       -0.007871881 -0.056665756 -0.0038126335 0.043669324
000340 ec 1f 30 3d 66 e1 13 bd f7 72 59 bc 44 a0 71 3d
       0.042999193 -0.03610363 -0.013272039 0.05899073
000350 4a 94 95 3b f1 dd c6 bc 1a 5f 9a 3b a9 dc e3 3c
       0.0045647966 -0.024275752 0.004711044 0.02781518
000360 0e 91 18 3b 94 32 63 bd 52 a0 58 bd 8a 6f d6 bc
       0.0023279819 -0.055468157 -0.05288727 -0.026176233
000370 5a b7 63 3b 47 cb d1 3c c0 c3 c3 3c a0 bc 85 bc
       0.0034746737 0.025609626 0.023897052 -0.016325295
000380 88 cd b7 3c 52 9a 6c bd 50 4c 06 bb 54 de c7 3c
       0.022436872 -0.05776436 -0.0020492263 0.024398006
000390 c0 9d 95 3c 33 73 01 3d 80 8f fc 3b 7f b6 55 bb
       0.018263698 0.031604003 0.007707536 -0.0032609997
0003a0 dd 71 45 3c 66 8b f6 3c 34 68 18 3d 20 c9 1f bd
       0.012051073 0.030095767 0.03720875 -0.039010167
0003b0 4c ef ca bc a8 c1 49 bd 0e 72 32 bd 5a 1f c8 3c
       -0.024772309 -0.04925695 -0.043565802 0.024429012
0003c0 71 23 8e bd b0 34 a3 3c f0 7c 4b 3d 7f 73 00 bd
       -0.06940354 0.019922584 0.049679697 -0.031360146
0003d0 a0 40 4e bd 00 40 5f 37 c7 e0 72 3b 45 89 14 3d
       -0.0503546 1.3306737e-05 0.0037060247 0.036263723
0003e0 10 05 49 3c e6 a4 14 3d 74 13 49 bd 66 03 4f bd
       0.012269273 0.036290072 -0.049090818 -0.05054035
0003f0 a2 d1 02 3d d0 0e 3f 3c 67 31 e2 bc 47 06 4c bc
       0.031938203 0.011661246 -0.027611447 -0.0124526685

bias f4 [3]
000000 09 3a 06 3d a0 f7 00 3d f0 72 f8 bc
       0.03277019 0.031486154 -0.030328244

weight f4 [256, 19]
000000 8f bd df bf 7c bf 3a 3f 70 74 da bc e2 fd 8b be
       -1.7479724 0.7294843 -0.02666685 -0.27342135
000010 35 82 3a be 15 6a c1 bf 9e df 35 3d 10 a3 53 40
       -0.18213733 -1.5110499 0.04440271 3.3068275
000020 d0 f6 89 40 93 ab 07 be 4a 1e cf bd 7a 1c 2b be
       4.3113785 -0.13249044 -0.10113199 -0.16710082
000030 45 e4 13 bd 4f 5d 07 3e 93 4f e2 3c 24 08 93 be
       -0.036106367 0.13219188 0.027625835 -0.28717148
000040 d1 86 16 be 31 70 ac be 1d d0 8d 3c fb 0d 4c 3e
       -0.14699866 -0.33679345 0.01731115 0.19927208
000050 b4 c2 07 be 10 97 10 3c bc 4d 04 3d 9c 61 5e 3d
       -0.13257867 0.008825079 0.032300696 0.054292306
000060 6c 11 3c 3d f2 94 f8 3d c0 bf 02 3b ed fd 68 be
       0.045915052 0.12137784 0.0019950718 -0.22753115
000070 63 be 4e 3e 48 b2 f3 bc 0f c2 35 3e 8f 0e 5d be
       0.20189814 -0.029748097 0.17749809 -0.21587585
000080 57 a6 da bd 3f b5 17 3e 84 ff 40 bd 90 c0 8e bd
       -0.10676258 0.14815234 -0.04711868 -0.06970322
000090 82 c3 4c be e2 74 26 be 53 8c 53 be 67 90 10 3d
       -0.19996455 -0.16255525 -0.20658998 0.035293963
0000a0 48 0a f6 3d fe ae e1 bd 34 6a e4 3d 71 82 65 bb
       0.1201368 -0.11019705 0.11153069 -0.0035020376
0000b0 28 28 65 be 6e ed cf 3d 1f a4 32 3e fe 59 7e 3d
       -0.223786 0.10152708 0.1744542 0.062097542
0000c0 cc 12 8a 3d 9e 7e 04 3e 43 10 ab bd 90 20 7b be
       0.067418665 0.12938926 -0.08352711 -0.2452414
0000d0 c3 c3 9c 3d fb 0f 4a ba e5 0b d0 bc 63 32 e7 bd
       0.07654526 -0.000770807 -0.025396297 -0.112889074
0000e0 84 9a 3a be 44 0d 9a 40 e3 45 07 41 b6 83 2b 3e
       -0.18223006 4.8141193 8.454562 0.16749462
0000f0 bf 58 53 3f b5 26 08 c1 55 bd 9c 40 4d e1 ae 3d
       0.8255729 -8.50945 4.898112 0.085390665
000100 bc d2 a3 40 62 ae 2f 41 87 d6 4e bc dc 10 fc bb
       5.1194744 10.980074 -0.0126243895 -0.0076924395
000110 6d c1 62 bc f3 d5 46 be 29 1d a8 3d ae 2c a1 bd
       -0.013840062 -0.19417553 0.08208687 -0.0786985
000120 68 eb 53 3d 0a 18 20 3c 36 a1 c6 bc 93 3f d0 3c
       0.051738173 0.009771356 -0.024246793 0.02542094
000130 44 ef 54 be cc 43 02 be 24 77 38 be cc 7e 14 3d
       -0.20794398 -0.12721175 -0.18014199 0.036253735
000140 aa 13 50 be e7 75 56 be 2d 67 55 be 00 31 ff bc
       -0.20320001 -0.20943414 -0.2084014 -0.031151295
000150 cb 7d 63 be 69 da 03 3e 00 f6 8b 39 a7 58 19 3e
       -0.22215955 0.12876286 0.0002669543 0.14975224
000160 e4 84 07 3d 9e 20 29 be 94 7c 65 be 8d 4f 65 be
       0.03308572 -0.16516349 -0.22410804 -0.22393627
000170 c1 87 24 3e bf 46 4e be 38 78 05 be 59 c8 eb bd
       0.16067411 -0.20144175 -0.13034141 -0.11512823
000180 51 1f 34 3f ef 74 f2 3d 26 41 49 bf 53 18 20 bf
       0.70360285 0.118387096 -0.78615034 -0.62537116
000190 d5 0c f4 bd 74 d6 2d be 55 03 e2 3f 09 37 b7 3f
       -0.1191651 -0.16976339 1.7657267 1.431367
0001a0 e2 0e 28 3d 88 28 e7 3d 41 1b 0b bc 75 bf 59 bd
       0.04102982 0.112870276 -0.008490385 -0.053161103
0001b0 8d 64 af bd 44 ce 97 3c bb cc 31 3d dc 67 a7 3d
       -0.085641004 0.018530972 0.043408137 0.081741065
0001c0 2c 29 41 be ca 1d 1e bd a0 e1 7f bd f2 ef 3e be
       -0.18863362 -0.038602628 -0.062471032 -0.1864622
0001d0 8b 6a 63 3e 29 e7 e0 bd 50 7d 46 bc 7b 55 1f 3e
       0.22208612 -0.1098159 -0.012114838 0.15559952
0001e0 f7 7a 5a 3e 81 74 4c 3e 52 ca a9 bd aa 5a 30 be
       0.2133597 0.19966318 -0.08290543 -0.17222086
0001f0 08 79 b1 3c a0 fc 8b 3b fd 82 51 be 9b 0f 48 be
       0.021664158 0.0042720586 -0.20460124 -0.19537203
000200 00 b9 7d bc cc 2a 7c 3d a7 a6 34 3e 83 35 01 be
       -0.015486002 0.06156425 0.17641698 -0.1261807
000210 98 f4 db bc f2 49 0f be 40 e4 15 bd 86 ab e7 bd
       -0.02685003 -0.13993052 -0.03659463 -0.113120124
000220 71 37 4f be 90 ef 90 bd df 38 2e be 3a 55 a4 bd
       -0.20235993 -0.07076943 -0.17013882 -0.08024068
000230 c3 34 1c 3e 84 0f 69 3d 50 e8 3f be 5c f8 c2 bd
       0.15254502 0.056899562 -0.18740964 -0.09520027
000240 1b a4 62 3e 26 3e 9a 3d 88 16 8d bc 40 18 dd bc
       0.22132914 0.07531385 -0.017222658 -0.026989102
000250 f9 0e 2c be 6c 25 28 3d 40 37 13 3c 94 88 46 3d
       -0.16802587 0.041051313 0.008985341 0.048470095
000260 1e 4b 92 bf 30 0c 8b 3f dd 02 dd bc 86 42 69 bf
       -1.1429174 1.0863094 -0.026978904 -0.9111713
000270 67 d0 7a bf e6 68 85 bf 60 ea 9f be 98 92 37 3f
       -0.97974247 -1.0422637 -0.312335 0.7170806
000280 95 09 4d 3e d9 02 81 3d 09 f8 9c 3c f7 6b 89 bd
       0.20023187 0.06299371 0.019161241 -0.06710046
000290 0c 3a 1a be 7f 82 c6 3c 91 ed ab 3d 08 ec e9 bd
       -0.15061206 0.024232147 0.083949216 -0.114219725
0002a0 53 ab c8 3c dd 13 29 be 69 ce 5b be 08 d2 f6 bf
       0.024495756 -0.16511483 -0.21465458 -1.9282846
0002b0 a9 48 f3 bf ac 43 b3 3c d5 07 42 3f 0b 93 fc 3f
       -1.9006549 0.021882854 0.757932 1.9732374
0002c0 a8 03 d2 bf 32 9b 71 3e 77 67 0a be 96 4f b9 3f
       -1.6407366 0.23594359 -0.13516031 1.4477413
0002d0 d7 2f b6 bd 1f d8 27 3e 6b 50 2c 3f 1f 5f 25 be
       -0.088958435 0.16391037 0.6731021 -0.16149567
0002e0 01 ad bc be 07 b7 bc 3d 07 4d b0 3d e8 9c 13 3e
       -0.36850742 0.09214597 0.08608442 0.14415324
0002f0 a7 bb 2d be 57 15 f0 bd 90 b6 23 bd ec 44 8d 3d
       -0.16966115 -0.1172282 -0.039969027 0.068979114
000300 36 fc e0 3d de 33 02 be ad 8a ac 3d b0 5d 37 be
       0.109856054 -0.12715098 0.08424888 -0.17906833
000310 10 09 d0 3d 23 67 d0 3d 91 66 01 3d a9 df b9 3d
       0.101579785 0.10175922 0.031591956 0.09075863
000320 38 77 74 3d bd 6b aa bc 7a 15 1f 3d 6e 5b fd bb
       0.05968401 -0.020803327 0.03883884 -0.0077318465
000330 ab cb 3b be b8 21 e4 bd 74 d9 56 3d 4a 9c b3 3b
       -0.18339412 -0.11139244 0.052453473 0.0054812776
000340 ca 45 4f be 65 3d 40 bf 5a f1 88 3e bd b6 bc 3e
       -0.20241466 -0.7509368 0.26746637 0.36858168
000350 69 e9 d8 be 2d 4b 02 bd 90 ca 12 bf 21 8f 4f be
       -0.42365578 -0.031809974 -0.57340336 -0.20269443
000360 c4 15 53 3f d0 eb 53 3f cb ab 53 3d aa 95 2d 3d
       0.82455087 0.82781696 0.051677506 0.04237906
000370 a8 39 03 3e 01 a5 80 3d 0e 81 f0 3c f4 b8 6c be
       0.12814963 0.06281472 0.029358413 -0.23117429
000380 37 89 07 bd b1 7c 8f 3e 2b ca cd bd 11 e9 88 3c
       -0.033089843 0.2802482 -0.10048326 0.016712697
000390 1b 4c 8e bf 07 ca 33 3f 6e b9 66 3d 16 12 f9 be
       -1.1116976 0.70230144 0.056329183 -0.4864661
0003a0 e8 ab eb be 25 c6 64 bf 3d 1c 20 be 74 9f 17 40
       -0.46029592 -0.89364845 -0.15635772 2.3691072
0003b0 06 03 1f 40 d6 16 5f 3d 05 ee 6d bb ed 7a 82 3d
       2.4845595 0.054465137 -0.00363052 0.063711025
0003c0 ac 02 a9 be 87 aa bb bc 02 79 17 be a6 79 bc 3d
       -0.3300985 -0.022908462 -0.14792255 0.0920289
0003d0 33 70 f9 bd 7e 47 30 be 32 8f 80 bc 1b 7b fe bf
       -0.121796034 -0.17214772 -0.01569328 -1.9881319
0003e0 f0 f5 d8 3f 6d 50 d8 3d 17 46 8f bf 39 1d ab bf
       1.6950054 0.10562215 -1.1193265 -1.3368293
0003f0 11 b2 f6 bf 6b 34 48 3e 07 d8 9f 3f 01 52 c6 3f
       -1.9273092 0.19551246 1.2487801 1.5493776

bias f4 [256]
000000 af 2d 43 be d5 3d d6 bd ef c5 65 bd d4 47 92 be
       -0.19060396 -0.10461012 -0.056096967 -0.28570426
000010 6f c1 15 3e 62 cc 10 bd 9f a1 20 3e 60 f6 07 3c
       0.1462457 -0.035351165 0.15686654 0.0082984865
000020 be 2d 7d be ba f6 0a bd 74 1a 29 3e a8 5f 30 be
       -0.2472448 -0.033926703 0.16513997 -0.1722399
000030 12 22 d1 bc 17 f8 d4 3c 28 2b 4f bd 02 49 65 be
       -0.025528941 0.025997205 -0.050578266 -0.22391132
000040 ae bc 32 3e 20 d8 0d 3e 5f 56 01 3e 37 b3 0b 3e
       0.17454788 0.13851976 0.12630604 0.13642584
000050 f3 4d 20 be e6 56 1c be 29 17 86 3d dc 58 b1 bd
       -0.15654735 -0.15267524 0.06547386 -0.08659527
000060 0a 69 b4 bd fd 39 95 3d 3e e2 e8 3d 5d ad 5e bd
       -0.08809097 0.07286451 0.11371277 -0.05436455
000070 19 e0 25 be d7 ec cb 3d 13 0d 5f 3e 52 84 8c 3e
       -0.16198768 0.09957283 0.21782331 0.27444702
000080 b4 19 35 be c8 66 f4 3c 32 9e a8 bc 0f 2b cf bc
       -0.17685586 0.029834166 -0.020583246 -0.025289087
000090 d7 d0 fe 3d 03 1c 41 be f2 d0 d3 3e 0f c1 b6 bd
       0.12442177 -0.18858342 0.4137035 -0.08923542
0000a0 d3 84 02 3e 54 b9 df be c6 0c 3f be 4e c6 f0 3d
       0.12745981 -0.43696082 -0.18657216 0.117565736
0000b0 08 7f 9a bc c1 c3 36 be 5e f3 48 be 9c 19 1d bc
       -0.018859401 -0.17848112 -0.19624087 -0.009588625
0000c0 a3 b8 2d 3e ed 09 cf bb 3e d6 b6 bd 9e a8 71 be
       0.16964965 -0.006318322 -0.08927582 -0.23599479
0000d0 6f 33 7c 3e c8 e0 96 be 3c de 40 bc 73 e6 c4 bc
       0.24628995 -0.2946837 -0.011771735 -0.024035668
0000e0 a0 23 b1 bd f9 8e 93 3e 09 44 f7 3d fc 45 7f be
       -0.08649373 0.28820017 0.120735236 -0.2492904
0000f0 6b 67 90 bd 26 f3 ae 3d fa 4c 5a 3d a7 52 6d be
       -0.070509754 0.08542471 0.053296067 -0.2317606
000100 08 3f 99 3d f1 d1 46 be 91 ea 03 be 08 32 51 be
       0.074827254 -0.19416024 -0.12882449 -0.20429242
000110 a2 90 f7 bd 58 32 57 be b1 28 00 be 2f 79 a4 be
       -0.120881334 -0.21015298 -0.12515523 -0.32123706
000120 c8 e8 81 3c b5 0d 1c 3e e9 ce 1d be 7a 1b bc 3b
       0.015858069 0.15239604 -0.15410961 0.00574058
000130 58 14 b6 3c a3 4a de bd ea fc cf 3d 85 7a a2 bd
       0.022226498 -0.108540796 0.101556614 -0.07933525
000140 97 9b 70 3d 9a cb 96 be 20 d8 5a bc a7 bb b4 bc
       0.058742132 -0.2945221 -0.013357192 -0.022062136
000150 59 82 84 be eb cc 7b be 62 b6 aa 3d d6 54 b2 3d
       -0.25880697 -0.24589889 0.08335568 0.087075874
000160 e6 6f 27 be 5e 10 90 bd ce a6 69 be c1 4e 3b 3e
       -0.1635128 -0.07034372 -0.22817537 0.18291761
000170 10 40 00 be 33 92 e2 3d 5d 40 84 bd 7e c8 3f 3c
       -0.12524438 0.110630415 -0.06457589 0.011705516
000180 92 1f 30 bd c3 01 7f be 13 bd 6f 3d 7d a6 09 3e
       -0.042998858 -0.24903016 0.058529925 0.13442416
000190 2f ea 95 be 6d 3a d4 bd d8 fe e8 bd ad 69 6a be
       -0.2928023 -0.10362706 -0.113767326 -0.22891875
0001a0 b7 1e 44 be f3 ef fb bd 83 3b 59 be c9 09 a5 bc
       -0.19152342 -0.12301626 -0.21214108 -0.020146267
0001b0 4e 73 06 3e 2c 9b e0 3d 84 8e 06 be 87 38 d2 bd
       0.13129923 0.10967097 -0.13140303 -0.10264688
0001c0 c8 f4 78 be 98 52 38 be 95 2f a0 bc 7b dd f9 3b
       -0.24312127 -0.18000257 -0.019553939 0.0076252795
0001d0 e8 ca fc 3d 89 0c 64 be c3 97 b2 bd 6d ce 13 be
       0.12343389 -0.22270407 -0.087203525 -0.14434214
0001e0 21 ab 66 be 99 14 24 3e ab e8 3e be b7 3f 04 3d
       -0.22526218 0.16023482 -0.18643443 0.032287326
0001f0 a0 6f 2c 3c 28 2d 88 3e 26 cf f5 bd 59 b6 36 be
       0.01052466 0.2659695 -0.12002401 -0.17842998
000200 a7 59 5c be 92 af 02 bd c0 27 7e bb 7f bf db bd
       -0.21518575 -0.03190572 -0.0038781017 -0.10729884
000210 db 99 67 3d cb 4c 57 bd 4f eb 07 be 80 b5 70 be
       0.056543212 -0.05256347 -0.13273357 -0.23506737
000220 ae a8 0e 3e 37 33 6d be 28 1c c8 3c 65 ed 66 be
       0.13931534 -0.23164068 0.024427488 -0.22551496
000230 ec bd 87 3d bb b7 c9 3d db a9 82 bd 71 e3 26 be
       0.066280216 0.09849497 -0.063800536 -0.162977
000240 99 82 b4 bc b4 6d b1 bd a4 34 72 bd e9 33 67 be
       -0.02203493 -0.08663502 -0.059132233 -0.22578396
000250 50 b2 31 be 8e 65 85 be 48 10 79 bd da 8d d9 bd
       -0.17353177 -0.26054043 -0.060806543 -0.10622759
000260 ac 07 87 be e5 e2 55 3c 7e 93 38 bd b5 fc 15 bd
       -0.2637304 0.013054584 -0.045062535 -0.036617953
000270 4f de ae be 7d c9 8a 3b 19 16 1d be 0e 45 44 be
       -0.34153983 0.004235445 -0.15340461 -0.19166967
000280 e3 5f c1 bd 44 e8 9b bd 6a b5 e7 bd 34 f5 db bd
       -0.09442117 -0.076126605 -0.11313899 -0.10740128
000290 9b 42 8a be 22 72 d9 bc 49 a5 47 bd 3c d7 29 bd
       -0.2700394 -0.02654368 -0.048741613 -0.04146503
0002a0 93 bd 4c 3d 78 88 df 3c b3 0b 27 bc cd a2 86 be
       0.04998548 0.027286753 -0.01019566 -0.26296082
0002b0 fb ea 6d bc 1c 00 7b be 31 7f 49 3e e9 14 92 3d
       -0.014521356 -0.2451176 0.19677426 0.071328945
0002c0 a7 52 8f 3e 45 72 1a 3e cc b2 27 be 6a 47 d5 3d
       0.27992746 0.15082653 -0.163768 0.10414012
0002d0 5b f1 d5 3d 4e a3 47 be 02 14 3d be a1 c3 1a be
       0.104464255 -0.1949589 -0.18464664 -0.15113689
0002e0 4b 82 52 3e e1 f0 5f be 8c 35 53 be 4d dc d9 3d
       0.20557515 -0.21869232 -0.20625895 0.10637722
0002f0 89 8b d1 bd a9 1a 2e 3e 99 27 e4 3d f4 b6 b3 3d
       -0.10231692 0.17002358 0.11140365 0.0877513
000300 47 e5 92 bd a4 eb 58 3e 0c d1 8f be 73 0d c2 bd
       -0.071726374 0.2118364 -0.28089178 -0.094752215
000310 d3 d7 64 be 75 61 13 bf fe 45 1b be 5f 9a be 3d
       -0.22347955 -0.5757058 -0.15163419 0.09306788
000320 c9 c7 c5 be 8a b9 45 be 65 b9 91 bd d4 7f dc be
       -0.38628986 -0.19309059 -0.07115439 -0.43066275
000330 b0 a4 0d 3c eb 90 79 be df 3c 03 3e 22 e9 66 3d
       0.008645222 -0.24371688 0.12816189 0.056374677
000340 17 a9 1a bd f7 57 f3 bd e8 b2 da bd fc dd 3d 3d
       -0.037758913 -0.11882012 -0.10678655 0.04635428
000350 70 7c 44 3e 5b c3 ba bd af 1f 10 bd 10 39 8f bc
       0.19188094 -0.09119292 -0.035186466 -0.017483264
000360 4c 1a a6 ba 09 e0 f6 bd 34 ac 2b be 08 e8 90 be
       -0.0012672632 -0.1205445 -0.16764909 -0.28302026
000370 08 25 42 be 20 bd 51 be bf 71 4f 3e dd 99 18 3e
       -0.18959439 -0.20482302 0.20258234 0.14902444
000380 97 a0 5a be 3c ad 2b be de 20 6b be 8b ff 01 3e
       -0.21350323 -0.16765302 -0.22961757 0.12695138
000390 0a a2 27 3e ff 8e 97 be 73 8c 66 3b 54 ad 47 be
       0.16370407 -0.29601285 0.003517893 -0.19499713
0003a0 51 07 ae 3d 80 c0 ba bd b9 4b d2 3c 69 e6 60 3c
       0.08497489 -0.09118748 0.025670873 0.013726809
0003b0 64 15 50 be eb dc 11 3e b5 4b 28 3e 3a b8 2b be
       -0.2032066 0.1424443 0.1643513 -0.16769496
0003c0 d5 7c 0d be cb 20 2b be 97 20 a7 be ba 9f ec 3d
       -0.13817151 -0.16711728 -0.32642052 0.11553903
0003d0 07 56 2b be 68 9c 0f be cf d3 18 bd 1a 07 47 bd
       -0.16732036 -0.14024508 -0.03731137 -0.048590757
0003e0 af 62 f2 bd 30 11 6e be b0 bc 3e be 46 f8 48 bb
       -0.11835229 -0.23248744 -0.18626666 -0.003066556
0003f0 e1 1d 1c be 3c e4 47 be 94 4d 05 be b3 85 46 bd
       -0.15245773 -0.19520658 -0.13017875 -0.04846735
