output/ppo/2021-12-18_12-33-49-ppo_s0/pyt_save/model.pt (torch_old, 44500 bytes, 12 tensors)

log_std f4 [3]
000000 ff 2a 66 bf 90 11 88 bf bf 64 a8 bf
       -0.89909357 -1.063036 -1.3155745

weight f4 [64, 10]
000000 ff 66 fd bc 33 24 51 3e 91 3e 05 bd 36 1e 16 bf
       -0.030932901 0.20423965 -0.03253037 -0.5863985
000010 4f 66 3e be b3 9d a4 3d ed 8b 64 bd 87 88 96 3e
       -0.18593715 0.08037891 -0.055797506 0.29401037
000020 16 e1 05 bd 45 54 e7 3d b7 2e 93 be 93 7d 9d bc
       -0.03268536 0.1129537 -0.28746578 -0.019224918
000030 73 c5 c9 3e 9e 56 e3 be 11 f7 47 be f7 01 27 be
       0.39408454 -0.4440202 -0.19527842 -0.16309343
000040 87 3d 6b 3d d8 f1 52 3e 89 97 56 be 4f 65 1a be
       0.057431724 0.20600069 -0.20956244 -0.15077709
000050 4c 12 3c 3d f1 57 80 3e 9b 52 01 be 8a f2 e9 3e
       0.045915887 0.25067094 -0.12629168 0.45692855
000060 1a 20 94 bc 90 c0 69 bd c7 21 99 3e 0d be 97 be
       -0.018081713 -0.057068408 0.29908583 -0.29637185
000070 11 f4 55 be ee 6e 0f be 94 0e 65 be d7 1a bb 3e
       -0.20893885 -0.1400716 -0.22368842 0.36543915
000080 fe e8 26 3e 69 78 1e bf 16 11 ad be c2 a3 c0 be
       0.16299817 -0.6190248 -0.33802098 -0.37624937
000090 b0 3c 8d be eb 43 9a 3e 52 0b 03 3e 2b 90 1b 3e
       -0.27585363 0.30129942 0.12797287 0.15191714
0000a0 a4 ee 69 3e 18 a4 0e be 58 5a 1e bf 7a c1 0d be
       0.2284494 -0.13929784 -0.61856604 -0.13843337
0000b0 ac f1 75 be 1d ab 1c 3d 4e cd 94 3e f6 68 41 3e
       -0.24017972 0.038249124 0.29062885 0.18887696
0000c0 f7 52 eb bd 8e 94 51 3d ce 61 25 3e e0 b6 c6 3e
       -0.11490434 0.051167063 0.16150591 0.38811398
0000d0 2b f8 15 3f 8e be e4 be 45 f0 e6 3d e7 2c 55 be
       0.585818 -0.44676632 0.112762965 -0.2081791
0000e0 46 31 83 bd 7a 10 67 be 48 8a 69 be d2 1a 44 be
       -0.064058825 -0.22564879 -0.22806656 -0.19150856
0000f0 a6 8d 80 3e 47 fd c4 3d 0c a6 0f bf 59 d6 fe 3e
       0.2510807 0.09618621 -0.5611274 0.4977291
000100 68 a8 6b 3e 4b 8d 49 3d f0 d8 e9 3d de 29 46 3d
       0.2301346 0.049207013 0.11418331 0.04837977
000110 0b ba 52 3e 32 15 a5 3e 2c 9d 31 be 89 ca 67 be
       0.20578782 0.32242733 -0.17345113 -0.22635855
000120 9f e0 2a be 01 54 f3 3e 9a e0 d2 3e 1f 7e a6 3e
       -0.16687249 0.47525027 0.41186982 0.32518098
000130 d2 31 a7 3d 5e cc a5 be cf 10 2e 3d 65 4b 70 be
       0.08163799 -0.32382482 0.0424965 -0.2346626
000140 d4 cc c0 be e7 3e cb 3e 65 8f 18 3f bb 47 1e bf
       -0.3765627 0.39696428 0.595938 -0.618282
000150 5b 20 a2 bd 4f cb e7 bd 59 0d c4 bd 4d 3c e4 bd
       -0.079163276 -0.11318075 -0.09572858 -0.11144314
000160 d2 44 d7 3d e0 67 29 be 7f 66 5f 3e d2 9e 48 3e
       0.10511173 -0.16543531 0.21816443 0.19591835
000170 d0 e0 a9 bd ca ef c1 3e 74 36 a8 be f4 e9 f2 bd
       -0.08294833 0.37878257 -0.32854044 -0.11861029
000180 63 75 76 3e 67 40 4f 3d 30 e9 71 be d0 e6 24 be
       0.24068217 0.05059853 -0.2362411 -0.16103673
000190 fa ad 34 3e 91 05 7c 3e 6b 04 6e 3e ad 2d ba be
       0.17644492 0.24611498 0.23243873 -0.36362973
0001a0 29 16 b9 be 34 60 d7 bd 1c 1b a3 be 02 f2 47 be
       -0.3614972 -0.10516396 -0.3185662 -0.19525912
0001b0 72 69 dc bc e1 3e a0 3c 96 69 95 be be 6d 7d 3e
       -0.026905749 0.019561233 -0.29182118 0.24748895
0001c0 fa bd df 3e de 8c 7a 3e 6c fe 18 3e 96 74 d5 be
       0.43699628 0.24467799 0.14940804 -0.4169051
0001d0 29 79 be bd b7 8a d7 3c d9 6a f2 3c 39 1a b9 3d
       -0.09300453 0.026311262 0.029591965 0.09038205
0001e0 d7 b4 85 3d 35 63 c0 3d bc 9a 9a 3e d6 03 ba be
       0.06528633 0.09393922 0.30196178 -0.36331052
0001f0 65 42 cf be 24 bf 66 be bd 93 43 be 08 56 05 be
       -0.40480343 -0.22533852 -0.19099326 -0.130211
000200 35 c1 f6 bd 78 db 8f be b9 e0 1b bd d3 7d e7 3d
       -0.1204857 -0.2809713 -0.03805611 0.11303296
000210 8e 02 28 bf 56 01 bd 3e 1f b7 4d 3e fb 7f 77 bc
       -0.656289 0.36915082 0.20089386 -0.0151061965
000220 3d 05 0e 3e 0a 6c f5 bb 6f 00 8c 3d 07 d0 7d 3e
       0.13869186 -0.007489686 0.0683602 0.24786387
000230 25 1e 07 3f ff be aa 3e 9a 65 15 be 23 30 8d bd
       0.5278037 0.33348843 -0.14589539 -0.06893947
000240 d9 22 d5 be b4 49 94 3d f0 14 7b 3e f1 c6 f2 3b
       -0.4162815 0.0724062 0.24519706 0.0074089696
000250 53 0f 0e be e3 37 3d be e7 72 93 be 81 9c b4 be
       -0.13873033 -0.1847835 -0.287986 -0.35275653
000260 50 17 07 bf fe e4 10 3f 98 a8 91 3e e5 d5 a2 be
       -0.5276995 0.56599414 0.2844894 -0.31803814
000270 8b 73 91 3e 7f 32 8d be fe 0f 57 bd 69 eb f5 bd
       0.28408465 -0.27577588 -0.052505486 -0.120077915
000280 07 29 0e be e0 26 6d 3d bf af db 3c bf 3f 50 bf
       -0.13882838 0.057898402 0.0268172 -0.8134727
000290 40 55 48 be a5 79 57 bd cf 34 86 be 6b 38 0f 3e
       -0.1956377 -0.052606244 -0.26212165 0.13986365
0002a0 1a 85 94 be c0 2a 8d bc b0 ea a5 3e d1 ac 11 be
       -0.29007798 -0.017232299 0.32405615 -0.1422608
0002b0 c9 4e fa 3d 65 c5 b9 3d c7 b7 86 be d7 8d 6a 3e
       0.12222058 0.09070853 -0.26312086 0.2290567
0002c0 dd 2f 9a bd 2e 75 56 be b2 8b 65 3e 7d 15 9c be
       -0.075286604 -0.20943138 0.22416571 -0.30485144
0002d0 3a 2a 68 3e 92 0a dc bd e0 ac a0 be 9a f8 ac 3e
       0.22672358 -0.107442036 -0.31381893 0.33783418
0002e0 1a 99 5b 3e 40 d6 92 3e 42 d2 da 3b 6b f1 c1 bd
       0.21445122 0.28679085 0.0066778967 -0.09469875
0002f0 53 c5 7a be ff b9 4f 3e 84 17 04 3e ed 58 91 3e
       -0.24489336 0.20285796 0.12899595 0.28388157
000300 97 62 7d 3e 5b f7 4e be 65 b3 a0 be 89 a6 8d be
       0.2474464 -0.20211546 -0.31386867 -0.2766612
000310 5a 80 75 be ad b4 17 3e 38 07 54 be 32 67 b5 bc
       -0.23974743 0.14815016 -0.20705879 -0.022143934
000320 c2 1b 1b bd 0a 02 b2 3e 9e 7c 54 3d b4 76 14 bf
       -0.03786827 0.3476718 0.051876657 -0.57993627
000330 da 6e b5 be a2 14 46 3e a6 6e 35 be fb d1 99 3e
       -0.35436136 0.19343808 -0.1771799 0.30043015
000340 88 e9 cb 3d c9 e0 53 3d 0b 9d 5d 3e 6d 80 9d bd
       0.09956652 0.051728044 0.21641938 -0.07690511
000350 30 4e 09 bf f6 c2 88 3c 35 09 82 3c 68 05 80 3e
       -0.5363493 0.016694527 0.01587353 0.25004125
000360 85 59 26 be 2d 1e 36 be 89 54 8f 3e a4 ce 41 be
       -0.16245086 -0.17784949 0.27994183 -0.18926483
000370 d3 7a f9 bd 72 08 cb 3e a4 e9 fe 3e bf 3d b6 be
       -0.1218163 0.3965488 0.4978763 -0.35593984
000380 1b 06 c4 be cd 09 9f 3d d0 26 a6 be 19 e2 26 bd
       -0.38285908 0.07765541 -0.32451487 -0.040742967
000390 eb 80 f1 bd 12 29 97 bd 9b 1f 18 be 55 61 bd 3e
       -0.11792167 -0.073808804 -0.14855807 0.3698832
0003a0 80 9f 6a 3f 44 24 53 3e 66 07 a9 3d b5 77 b1 be
       0.9164963 0.20619303 0.08253364 -0.34661642
0003b0 85 aa 11 3e 02 f1 77 be da 2f 20 be 5e a1 01 3e
       0.14225204 -0.24213031 -0.15643254 0.12659213
0003c0 d9 36 af 3d 84 85 2b 3e f4 71 aa be b7 10 d6 3e
       0.08555383 0.16750151 -0.33290064 0.41809627
0003d0 55 8f 85 3e fc 08 b2 be d0 4c 98 3e 30 e2 8e be
       0.26085916 -0.3477248 0.29746103 -0.27906942
0003e0 ae 97 01 3c 0f d8 a3 bd 91 0f 9c be 46 72 6a 3d
       0.007909698 -0.08000194 -0.30480626 0.057237886
0003f0 5d ba 29 3f ec 74 08 bf 06 43 68 be 6e 97 73 be
       0.6629999 -0.5330341 -0.22681817 -0.23788235

bias f4 [64]
000000 33 3c 21 be 80 9b 07 3d aa b1 23 3d 07 cc ae 3c
       -0.1574562 0.03310728 0.039964356 0.021337522
000010 8f 61 11 be 14 8a 8c 3e 81 d0 29 be 07 ba 64 3e
       -0.14197372 0.27449095 -0.16583444 0.22336589
000020 f7 4b 6b be 6c 50 65 bd 15 d1 13 3e c2 6e ea bd
       -0.22978197 -0.0559849 0.14435227 -0.114469066
000030 6e e8 79 3e 47 a4 2f be 8b 32 54 be d4 e9 09 be
       0.24405071 -0.1715251 -0.20722406 -0.13468105
000040 64 2b 64 3d 6e 41 78 3e 7d cb f4 bd 4a da c7 3d
       0.055705443 0.2424371 -0.11952875 0.09758432
000050 53 52 8a bd a4 eb ee b9 b6 7d 52 3e ca e5 58 be
       -0.06753983 -0.00045570463 0.20555767 -0.21181408
000060 35 60 d2 3b 7c d7 8b 3e c6 f5 2f bd c3 62 5b 3e
       0.00642016 0.2731284 -0.042958997 0.21424393
000070 16 12 b6 bd a6 a7 26 3e 1f e7 64 be 23 28 05 bc
       -0.08890168 0.1627489 -0.2235379 -0.008127245
000080 91 43 57 bd e2 e5 a0 3b 2f 03 9f 3d 08 b6 66 3e
       -0.05255467 0.0049102167 0.07764279 0.22530377
000090 67 3a 3d bd 7f 94 e3 bc 3e 6e 3f 3e a5 85 ac bd
       -0.046198275 -0.02778077 0.18694398 -0.08423928
0000a0 77 33 5d 3e 38 d8 40 be 4a c6 e3 bc 8c ac e7 3b
       0.21601664 -0.18832481 -0.027804513 0.0070701297
0000b0 1d f4 05 3e fd f9 44 3e df 9d 8b bc d9 59 46 be
       0.13081403 0.19235988 -0.017043052 -0.19370212
0000c0 4b 75 09 3e 59 9a a5 3d bb 6b ce 3d 16 97 18 be
       0.1342365 0.0808608 0.10079142 -0.14901385
0000d0 8e 3d 27 3e 88 42 85 3e d3 2a cd 3c 53 24 79 be
       0.16332075 0.26027322 0.025044834 -0.24330263
0000e0 c6 8d 1c 3e 41 28 3e be f7 4d 26 3d 0a 26 24 3d
       0.15288457 -0.18570043 0.040601697 0.04007534
0000f0 58 4f 07 be a6 94 c9 3d 6e c8 75 be 04 3f 35 3d
       -0.13213861 0.098428056 -0.24002239 0.04424955

weight f4 [64, 64]
000000 1c fb b0 bd 82 cc 81 be af 24 1c 3d ea 4a 7d be
       -0.08641645 -0.2535134 0.03812092 -0.24735609
000010 24 25 e1 bc ab 24 92 3d f1 45 0d 3e ef 7d 9a bd
       -0.02748353 0.071359 0.13796212 -0.07543551
000020 e8 86 11 be 66 56 96 3d 1d 6c e7 3d cc c3 71 bd
       -0.14211619 0.07340698 0.11299918 -0.059024617
000030 ad ee 5c bc 2b 83 5f 3d f0 fc 43 3e 9c 6a d0 3d
       -0.013484639 0.05456845 0.19139457 0.10176584
000040 e7 ad 6d be 6a 9c 95 bd 93 23 89 3d 35 f8 b4 bd
       -0.2321087 -0.07305224 0.06696238 -0.08836404
000050 16 cb cd bd 77 bf 82 3d ac 08 9b 3d 0e 89 9c bd
       -0.10048501 0.06384175 0.075700134 -0.076433286
000060 f9 a5 cf 3d ca 6a 41 be ff ee 06 be fa 32 9d 3d
       0.10139079 -0.18888393 -0.13177107 0.07675739
000070 05 43 19 3d 18 e8 70 bd b1 3c a0 bd 6c 8d 5a 3d
       0.03741743 -0.05881509 -0.07824076 0.053357527
000080 ca bf 7b 3e ce 6d ff bd 68 f5 5f 3d 44 c4 01 be
       0.2458488 -0.124721155 0.054677397 -0.12672526
000090 05 8b ef bc 80 d8 3c be 1e 8f 08 3e b3 ea c3 3d
       -0.029241094 -0.18441963 0.13335845 0.0956625
0000a0 eb 11 92 3d a1 02 c1 3d 44 c9 e6 3d f4 4f 2f be
       0.07132324 0.094243295 0.11268857 -0.17120343
0000b0 5c 0f b8 bd 4a 61 be bc 40 9c 1d be 8f d4 78 3b
       -0.089873046 -0.02323975 -0.15391636 0.0037968492
0000c0 79 52 bb 3d db ae e0 bd b3 0e e9 bd d4 bd c0 3c
       0.0914659 -0.10970851 -0.11379757 0.023528017
0000d0 56 2d 53 bd d6 3b b1 3d c0 2e d6 be 81 a0 ba bd
       -0.051556908 0.08653991 -0.41832542 -0.09112645
0000e0 76 fa cf bd ac 94 23 3e 74 aa 00 be 79 b3 1b 3e
       -0.101551935 0.15974683 -0.12565023 0.15205182
0000f0 fa 22 4d 3d c7 b0 74 bd 9f ba 4d bd 9d 73 e2 3d
       0.050082184 -0.0597389 -0.050226804 0.11057208
000100 8f 76 0f be 0b a8 5b be b3 22 b7 3d e5 a3 f5 be
       -0.1401007 -0.21450822 0.08942165 -0.47976604
000110 0b 07 93 3d 08 2b 7d 3d 8c ba 41 3e 75 70 5a bd
       0.07179078 0.061808616 0.18918818 -0.053329904
000120 05 82 a7 3d 25 28 c9 3d 79 ec c6 3d ab e6 f7 bd
       0.08179096 0.0982211 0.09713072 -0.12104543
000130 0c d5 01 be 01 44 c8 3d 5f 63 8b 3d e5 36 25 3d
       -0.12678927 0.09778596 0.06806063 0.040335555
000140 3c b4 03 bf 1f 51 1e bd 68 36 61 3c 3f 52 21 be
       -0.5144689 -0.03865158 0.013745882 -0.1575403
000150 96 cd f8 bd 3b dc 20 3c 97 fc 2d bd f4 2e 99 3d
       -0.121485874 0.009818132 -0.042477217 0.07479659
000160 8d 61 47 3e 01 06 8e bd 1c 29 8a bd f8 78 0f bd
       0.19470806 -0.06934739 -0.06746122 -0.035027474
000170 9e f1 9b bc de 60 c7 bd a8 71 3b bc a1 9c 8b bd
       -0.01903611 -0.09735273 -0.011440672 -0.06816984
000180 d6 74 ae 3e b4 e5 45 bd 93 e0 06 3e 1d 00 df bd
       0.34073514 -0.048314765 0.13171606 -0.108886935
000190 52 d6 36 3e af 68 c9 bb f5 2b 29 3e 16 b1 e2 bb
       0.17855194 -0.0061465125 0.16520675 -0.006918083
0001a0 77 d9 50 3d 52 18 0e 3c 5f 8a 02 3d 2a ba 98 bd
       0.05098864 0.008672791 0.031870242 -0.07457383
0001b0 81 16 8b 3d 1b 1c a3 bd 4e 49 97 bc 7c 26 23 3d
       0.06791402 -0.07964345 -0.018467572 0.039831623
0001c0 a9 be ad bb 09 9c e6 bd 7d 0d 5d bd 57 12 ec 3c
       -0.0053022695 -0.1126023 -0.05396794 0.028817339
0001d0 92 65 0e 3e 30 e9 6f bd 3c 83 a0 be a7 c8 33 bd
       0.13905933 -0.058571994 -0.31350124 -0.04389253
0001e0 32 f1 a8 bd ce 1c 40 bc c1 f0 8f 3c 20 f4 fe 3c
       -0.08249129 -0.011725618 0.017570855 0.031122267
0001f0 51 91 9d 3d 38 e1 24 3d bb b8 80 3d 27 87 25 bd
       0.076937325 0.040253848 0.062852345 -0.040412094
000200 2d 2c c2 bc 7b 3d 76 be 8e aa 88 bd b4 61 bc be
       -0.023702705 -0.2404689 -0.06673156 -0.36793292
000210 86 78 0b 3d a9 7c 7c bd f8 ef ad 3d 5b 6c 56 3d
       0.034050487 -0.061642323 0.08493036 0.05234943
000220 cc 4c 88 bd 98 9e 83 3e b8 7e f5 bc 60 c1 29 3d
       -0.06655273 0.25706935 -0.02996765 0.041444182
000230 ad 6e fc 3c 80 04 13 bc b3 6b f6 3d 66 82 03 3e
       0.030814493 -0.008973241 0.12032261 0.12842712
000240 41 1b f6 be 35 82 16 3d 53 28 90 3d 6c b1 27 3d
       -0.48067668 0.03674527 0.07038941 0.040940687
000250 06 dc 30 be f1 1a 89 bd ec bd 00 39 48 c2 a3 bd
       -0.17271432 -0.06694592 0.00012277783 -0.079960406
000260 74 b2 88 3d 6f 34 2f be b1 3b 43 3d fc 9b da bd
       0.06674662 -0.17109846 0.047664348 -0.10674283
000270 5c 44 1d 3e d8 dc bf 3d 82 fc 15 3d 6b 01 49 bd
       0.15358108 0.093682945 0.036617763 -0.049073618
000280 8b 81 de 3e 8d b7 47 bd 18 6b c2 3c 7b 46 ac bd
       0.43458208 -0.048759032 0.023732707 -0.084118806
000290 34 61 2d 3e 22 65 ef bd 26 22 6c 3d b1 f5 56 3d
       0.16931611 -0.116892114 0.057649754 0.052480403
0002a0 9e f0 c7 bd 5b ad e2 3a 16 4f bf 3d ed d9 03 bd
       -0.09762691 0.0017294096 0.09341256 -0.032190252
0002b0 29 e9 07 3e 7e d0 02 3e 3f d8 ea bd d6 07 9f bc
       0.13272537 0.12774846 -0.11467027 -0.019412916
0002c0 8f 3b a0 bb 40 81 b2 be 10 31 1f be 9a 68 c0 3d
       -0.0048899124 -0.34864235 -0.1554606 0.09394951
0002d0 c8 58 af 3d 8e a8 26 3d 52 d0 a9 be 86 dc d1 bd
       0.085618556 0.04068809 -0.33166748 -0.1024714
0002e0 58 22 84 bd 79 41 06 3e 6f 03 42 bd d1 cb 5c 3e
       -0.06451863 0.13110913 -0.047366556 0.21562125
0002f0 4b 14 a0 3d 54 b6 ff 3d 20 3d 92 bd 72 78 2d 3d
       0.078163706 0.12485948 -0.07140565 0.042351194
000300 c4 03 bf bd 83 28 6b bc 53 f7 94 3d 3c bb 1a 3d
       -0.0932689 -0.01435292 0.07273736 0.037776217
000310 b0 be e3 3d 89 77 01 3e ff ca 2d 3e 66 cb 72 3d
       0.11120355 0.12643255 0.16971968 0.059276007
000320 77 ba d3 3d 56 d9 02 3e 5d c6 a1 bd 3f 28 bd bc
       0.103383 0.1277822 -0.07899163 -0.02309048
000330 4a 1e 83 bc 5b bf 4d bd 96 e0 e1 3d a3 9d 73 3c
       -0.016005654 -0.05023132 0.110291645 0.0148691265
000340 da 7b 7d bd 0e a4 d2 3c 7b 05 04 3e de af a8 3d
       -0.061885692 0.025712993 0.12892716 0.08236669
000350 7a 93 82 bd 52 29 cb bd da 27 91 3d 51 75 6d 3d
       -0.06375785 -0.099199906 0.07087679 0.05797321
000360 8e 3e da 3d 07 4a 20 be 47 db 79 bd 72 08 8a 3d
       0.106564626 -0.15653239 -0.061000135 0.06739892
000370 8a 98 97 3d 34 53 ea bd 6e e5 7e 3d 9b ac f1 bd
       0.074021414 -0.11441651 0.06223052 -0.118005
000380 57 08 53 3e e2 57 7c 3b b4 b8 f6 3d 9a 90 f5 bd
       0.2060865 0.003850453 0.12046948 -0.11990471
000390 f2 80 6b be f8 8d a8 3d d7 53 dc 3d c2 3b bd 3d
       -0.22998407 0.082302034 0.10758179 0.092399135
0003a0 e1 d6 a3 3d b6 92 c0 bd 18 ea 12 bc 90 0f a4 bd
       0.07999969 -0.09402983 -0.008966945 -0.08010781
0003b0 82 06 56 bd 77 cf 93 bd 36 fe ac bd 9e 51 40 3d
       -0.0522523 -0.07217305 -0.084469244 0.046952836
0003c0 a7 58 91 bd 44 fe 06 be 47 12 0d be 03 ff e1 bd
       -0.07096987 -0.13182932 -0.13776504 -0.11034968
0003d0 29 f7 2a 3d 36 9f 39 bd f1 33 47 be 9d c9 7c bd
       0.041739617 -0.04531785 -0.19453408 -0.06171571
0003e0 c8 2b 1d be 7f 92 a1 bd 23 1b 82 3c e2 d9 8b bd
       -0.15348732 -0.0788927 0.01588208 -0.06828667
0003f0 90 41 bf 3c 8e 1f fd bd 1f 5a 93 3d ef d0 c9 bc
       0.023346692 -0.12359534 0.071949236 -0.02463576

bias f4 [64]
000000 47 6b de 3d 61 fd eb 3c 86 8d 42 3d 0b d2 5c bd
       0.10860305 0.028807344 0.04749825 -0.05391125
000010 38 62 d8 bd ae 53 4b bd d5 a8 83 3b 6c d9 8d bd
       -0.10565609 -0.04964035 0.004017929 -0.069262356
000020 48 c9 eb 3d 79 e2 ab bd ee ca b2 bd 75 c6 fb bc
       0.11513001 -0.083928056 -0.08730112 -0.03073428
000030 cd 17 cf 3d 3a 14 5d bd 08 34 d6 3d ff 7b 65 3d
       0.101119615 -0.053974368 0.10459143 0.056026455
000040 68 e7 a9 bc 9d 99 84 3d bd 5a 4b 3d 54 2e 70 bd
       -0.020740226 0.06474612 0.04964708 -0.058637932
000050 aa 64 6b bc 86 87 f9 3d 63 08 8c 3d 3e 67 8b bd
       -0.014367262 0.12184052 0.06837537 -0.06806801
000060 6f 01 3c bd c2 f6 a5 3d 9a 00 90 3d 53 e0 32 3b
       -0.045899805 0.08103706 0.07031365 0.0027294352
000070 ba 37 9a bd 2b f9 c3 bd 9a b1 bd bc e5 fb 2c 3d
       -0.0753016 -0.095690094 -0.023155976 0.042232413
000080 d5 3b b0 bc 74 88 d6 bd f5 91 11 bd d8 a3 b0 3d
       -0.021512905 -0.10475245 -0.035539586 0.08625001
000090 47 97 9b bd 08 ae b5 bd e9 d3 8a 3d 96 7f e8 3d
       -0.07597213 -0.088710845 0.067787 0.1135246
0000a0 c0 03 03 be 5f d5 d6 bd b8 d9 1e bd f6 21 f7 3d
       -0.127944 -0.10489916 -0.03878185 0.120670244
0000b0 61 fa 71 bd 5c fc c8 ba 03 6d b8 3d d2 96 1c bd
       -0.05907667 -0.0015333998 0.09005167 -0.03822977
0000c0 d5 0b f1 bc ec 6a 98 bd 18 9e 44 3b 79 b6 d2 3d
       -0.029424587 -0.07442269 0.0030001458 0.1028871
0000d0 af 72 40 3d 06 10 ae 3d 76 f2 7b 3b da bf 77 bb
       0.04698437 0.0849915 0.0038444079 -0.0037803561
0000e0 73 fe b6 bc 9f 31 49 3d 91 ce 9c bc a8 bc c8 bd
       -0.022338128 0.049119588 -0.019141467 -0.09801608
0000f0 d9 bb ff bc 47 73 eb 3c 8f fe 09 3e 2c 45 86 bc
       -0.031217502 0.028741492 0.13476013 -0.016390406

weight f4 [3, 64]
000000 c9 52 30 be 68 ea b8 be eb 08 fb be 92 02 b9 bd
       -0.1721908 -0.36116338 -0.4903024 -0.090336934
000010 a6 3c 89 3e f4 78 53 3e d2 5b d6 3d 55 37 a1 3d
       0.26804084 0.20651609 0.10466732 0.07871882
000020 a0 a5 cd 3d 75 0a 55 3e 63 f0 99 3e 68 0f 84 3e
       0.10041356 0.2080477 0.30066213 0.25793004
000030 b2 cd 44 3e 5e 06 1a be 37 77 2b be f8 cb cb 3c
       0.19219092 -0.15041491 -0.16744696 0.024877533
000040 42 0a 64 3e 45 30 76 be 32 a0 a9 be c8 ae 54 be
       0.22269538 -0.24041851 -0.33130032 -0.20769799
000050 73 9d c9 3e 43 84 fd 3e ea c4 ca be fb 3f 5c be
       0.39377937 0.4951497 -0.39603359 -0.21508782
000060 95 30 81 3e 5f d3 7f 3d 0b aa 00 be 58 df d1 bd
       0.25232378 0.06245744 -0.12564866 -0.102476776
000070 06 68 eb bd f9 7a 81 3e a0 c0 f0 be f3 c6 9d 3e
       -0.1149445 0.25289133 -0.4702196 0.3081585
000080 d5 a3 65 3e 7d 7e b4 be 52 19 6c 3e b7 38 12 3d
       0.22425778 -0.35252753 0.23056534 0.03569862
000090 6d eb 90 3c 28 93 64 bd 7d 75 29 3e 1d ea f0 bd
       0.017690385 -0.0558044 0.16548724 -0.117634036
0000a0 a3 d0 20 be 77 cb 5d be f4 ec ac be 64 62 aa 3e
       -0.15704589 -0.21659647 -0.3377453 0.3327819
0000b0 53 e1 06 be 62 e2 53 3e 55 67 80 be 1e c2 28 be
       -0.13171892 0.20691827 -0.25078836 -0.164803
0000c0 3e 1a 8d bd 5e e0 30 be 28 d9 28 be 39 8d 7b be
       -0.06889771 -0.1727309 -0.16489089 -0.24565591
0000d0 4c df e0 be 90 c2 90 be 7a 80 96 3c ec 40 84 3e
       -0.43920362 -0.2827344 0.01837181 0.2583078
0000e0 c5 50 26 3d 2b 2f be bd 2e d9 aa 3e 98 78 bb 3d
       0.04060437 -0.0928634 0.3336882 0.09153861
0000f0 e5 50 b3 3d ed e4 34 3e 4e 2f 47 3d 54 f5 33 be
       0.08755664 0.17665453 0.048629098 -0.17574054
000100 67 79 46 3d 02 2b 01 3e 4c f0 2f 3d b1 71 4a 3d
       0.048455622 0.12614062 0.042953774 0.04942483
000110 29 d8 11 3c a0 3b 6e bd d6 2b 1d bb c0 16 3a 3c
       0.008901634 -0.05816233 -0.0023982427 0.011357963
000120 6e a5 83 bb 0b 6d 90 bd 72 87 a2 3c d4 2e 85 bd
       -0.0040175235 -0.07052048 0.019839976 -0.065030724
000130 1b 2a 04 bd 18 d5 80 bd 31 47 e7 3d 69 bc bd 3d
       -0.032266717 -0.062906444 0.112928756 0.09264452
000140 7d 0e 23 bc c7 0c d8 3d fc 88 d8 3d a6 82 55 bd
       -0.009952185 0.10549312 0.10573003 -0.05212655
000150 d2 db 7c bd f8 4b 83 bd 9f da 04 3e 5d b6 b4 3d
       -0.061733074 -0.06410974 0.12974022 0.088238455
000160 5b 32 08 3d d5 58 d0 3d 2f 35 97 bd bf f1 14 bd
       0.033251148 0.10173193 -0.07383191 -0.03636336
000170 35 eb be bd f4 f6 e8 3c 13 96 0c 3e 19 a1 e1 bd
       -0.09322206 0.028438069 0.13729124 -0.11017055
000180 e6 e1 b1 bc 15 69 b2 3d b9 55 a4 bd 28 01 a2 3d
       -0.021714162 0.08711449 -0.08024163 0.07910377
000190 da 5d 3d 3d e5 80 10 bd 96 41 62 bd 71 0d a9 3d
       0.046232082 -0.035279173 -0.05523833 0.08254517
0001a0 bd 2b ab 3c c9 12 f9 bc 12 b4 0d 3e 6f d7 9b bd
       0.02089488 -0.030404465 0.13838223 -0.0760945
0001b0 e8 15 ef 3d 90 07 b9 3c 3a 46 5e 3d 8a 69 1b bd
       0.116741 0.022586614 0.054266192 -0.037942447
0001c0 4d f5 85 bd f2 53 19 3e 9f 86 eb bc 04 8f 7e 3d
       -0.06540928 0.14973429 -0.028750716 0.06214811
0001d0 8d 4f 94 3d 7e a6 9f 3d ff 70 12 be 59 a7 3f bc
       0.072417356 0.07795428 -0.14300917 -0.011697614
0001e0 7a 74 f4 3d ea 88 0a 3b e1 7e 85 bb 39 80 7e bd
       0.11936279 0.0021138736 -0.004073963 -0.062134
0001f0 49 a8 eb bc 1b aa 53 bc 07 18 27 3d b5 f3 69 bd
       -0.028766768 -0.012918974 0.0407944 -0.057117183
000200 be eb b6 3d 75 34 44 bd 7a ea 92 bc c4 bf 1e 3d
       0.08931683 -0.04790159 -0.017934073 0.0387571
000210 c1 14 38 be fa 80 bd bd 1b 79 12 3d 46 0f 33 be
       -0.17976667 -0.09253116 0.035760026 -0.17486295
000220 43 55 16 3e a7 23 55 3a 49 33 c7 bd ff ce 85 bc
       0.14680962 0.0008130618 -0.09726579 -0.016334055
000230 c8 c7 68 bd b3 23 10 3b 8e ea 22 be 27 6a df bd
       -0.05683115 0.0021993935 -0.15909788 -0.10908919
000240 15 10 1d 3d 0f 12 37 3d 6c b7 be bb 12 3e e1 3d
       0.038345415 0.044694956 -0.0058202054 0.10998167
000250 12 13 64 3d 21 64 01 3c 39 f6 83 bc cc c9 46 be
       0.05568225 0.007897408 -0.016108619 -0.19412917
000260 da 7d 23 be 5f 10 6c 3d 6e 0c 8a 3d a8 98 e4 bd
       -0.15965977 0.0576328 0.06740652 -0.11161929
000270 06 53 44 3d e7 0a ab bd 99 d8 66 bc b7 a5 70 3d
       0.04793074 -0.08351689 -0.014089727 0.058751788
000280 1a f3 7f 3c 36 bf fc bd 2b 2b 86 3c 71 43 f1 bd
       0.015621925 -0.12341158 0.016378006 -0.117804416
000290 4d da 24 3e 80 94 8a bb 4c 81 c6 bd a6 c6 59 be
       0.160989 -0.0042291284 -0.0969263 -0.21267185
0002a0 c5 61 1f be 9e 84 1e 3e 02 71 16 be de 5e 6b 3c
       -0.1556464 0.15480277 -0.14691547 0.01436588
0002b0 32 9f 18 3d 94 fd 54 bd d2 8a ed bd af 4b 92 3d
       0.037261195 -0.051999643 -0.115987435 0.07143342
0002c0 f0 b8 cc 3d ca e3 de bd 39 9e 55 3d 81 6c e0 bd
       0.099962115 -0.10883291 0.052152846 -0.109581955
0002d0 43 72 07 3e 37 ab 24 be 17 ac 42 3e 82 01 be 3d
       0.13227181 -0.16080938 0.1901096 0.09277631
0002e0 58 66 b4 bd dc 2c 8a bd 56 93 4b be 11 90 1d 3e
       -0.08808583 -0.067468375 -0.19880423 0.15386988
0002f0 6a b5 ee 3c 69 56 1a be 3c 78 23 3e 1d be 7e 3d
       0.02913924 -0.15072025 0.15963835 0.062193025

bias f4 [3]
000000 64 fe 50 3d d0 16 12 3e ed 41 01 3e
       0.051023856 0.14266515 0.12622805

weight f4 [64, 10]
000000 b0 92 aa 3e e8 2c 9e 3e 86 26 c6 3e 87 50 5c bc
       0.3331504 0.30893636 0.38701266 -0.013446934
000010 48 15 f8 bb cf 6a b9 3b 71 45 87 be 8b 9b b8 3f
       -0.0075708963 0.0056584845 -0.26420167 1.4422468
000020 79 01 70 bf 0f f1 b8 bd fa 25 d5 be a6 1e 94 be
       -0.9375225 -0.09030353 -0.41630536 -0.28929633
000030 b5 51 9c 3e 4c f8 57 3e c1 d0 6c 3e 1c bf e2 be
       0.30531088 0.21090811 0.23126508 -0.4428643
000040 64 0e a5 bc 2b da a8 bf 09 6c 90 3f b5 e2 b3 3e
       -0.020148464 -1.319158 1.128297 0.351339
000050 a9 5f 26 3d 81 40 de 3e cf 27 6a be b6 e0 0e be
       0.040618572 0.43408588 -0.22866748 -0.13952908
000060 ff f0 db be 16 d5 66 3e 8d 4e bc be 6b a5 aa bf
       -0.42957303 0.22542223 -0.3677868 -1.3331732
000070 58 78 11 3f bb fa a7 3d 25 b5 e1 bd 9b 59 0f be
       0.56824255 0.0820212 -0.11020879 -0.13999026
000080 c4 d0 b1 be c3 8d 29 3e d1 96 da 3e 7d be 35 3d
       -0.34729588 0.16557984 0.4269319 0.044371117
000090 ef 5a 9a 3e a7 29 90 bf 00 b0 1e 3f 92 3c 44 3e
       0.30147502 -1.1262711 0.61987305 0.1916373
0000a0 48 de 2c 3e 04 28 f0 bd 91 13 61 be f8 61 a3 3e
       0.16881669 -0.117263824 -0.2198012 0.31910682
0000b0 94 cc c4 3c 9e 92 69 be dd 6b 8e 3e 82 2b 82 3f
       0.024023332 -0.22809836 0.27816668 1.0169528
0000c0 bb 96 5d bf 1e ba 1c be 96 29 eb 3e ea 78 de 3e
       -0.8655812 -0.15305373 0.45930165 0.43451625
0000d0 02 4f dd be 53 c4 a5 be da 1e 87 be 55 04 ad 3e
       -0.4322434 -0.32376346 -0.26390725 0.33792368
0000e0 7f 16 d5 be a6 89 61 bf 71 ec 52 3f bb e9 9b 3d
       -0.41618726 -0.8810066 0.8239203 0.0761294
0000f0 1d d0 73 3e 00 6f ad 3d da aa ed be 59 83 1f 3c
       0.23809858 0.08468437 -0.46419412 0.009735906
000100 66 8b 70 3c 60 26 13 3e b8 98 8a be 0d e4 6f bf
       0.014681673 0.14370108 -0.2706964 -0.9370735
000110 bb f8 02 3f 13 82 22 be be 5c 0d 3e cc d0 40 3c
       0.5116078 -0.15869932 0.1380491 0.011768531
000120 b0 7d bb 3c 67 3e dc 3e ab 6d 62 bd 03 02 51 3e
       0.02288708 0.4301636 -0.05528037 0.20410924
000130 e7 ac 7c bd bd df a4 3f 3f f5 24 bf 73 41 8e 3e
       -0.06168833 1.288078 -0.64436716 0.2778431
000140 8a eb 0a 3f fb 49 b2 3e ef 02 1d bc aa 81 75 be
       0.54265654 0.34822068 -0.009583219 -0.23975244
000150 f1 ab dd be 18 e2 19 3f c1 92 9f be a4 38 ad be
       -0.43295243 0.60110617 -0.31166652 -0.33832276
000160 0a 51 e1 3d fe 9e 9c 3e 11 5c 4e 3d 9b 11 ca bd
       0.11001785 0.3059005 0.05038077 -0.09866639
000170 77 3e 67 be cd 39 36 3d 29 54 89 3e 1e e5 82 3e
       -0.22582422 0.044488717 0.26822022 0.25565428
000180 1c c9 8e 3d 96 fe 2f bf db 16 ad 3e b6 91 b2 bd
       0.06971952 -0.6874784 0.338065 -0.087191984
000190 2e 2b 42 3e 9b 70 4c 3e 53 bc b3 bd 39 63 3a be
       0.18961784 0.1996483 -0.08776154 -0.18201913
0001a0 85 95 85 bc 4b e0 52 be e5 b8 c3 be 3f a7 8d bf
       -0.016306648 -0.20593373 -0.38227 -1.1066664
0001b0 3b 5c 77 3f 26 79 c1 3d 5d 03 20 bf 40 14 bd be
       0.9662511 0.09446935 -0.6250513 -0.36929512
0001c0 49 10 5f bc 2e d7 a0 3e e7 a6 f8 3e 9a 65 8a be
       -0.0136147225 0.3141417 0.48564836 -0.2703064
0001d0 c0 e1 1a be 06 52 aa bf 88 d5 5d 3f 9b ee ab bd
       -0.1512518 -1.3306282 0.8665395 -0.0839512
0001e0 29 be dd 3e 2a 5a 27 3e 43 86 45 3b 32 62 82 3e
       0.43309143 0.16342989 0.003013984 0.25465542
0001f0 b4 2e 07 be 2a 72 c9 3e 20 37 82 bd 48 9f ad 3f
       -0.1320141 0.39344913 -0.063581705 1.3564234
000200 a0 09 6c bf e2 a4 8a 3e bb a1 5e 3e a6 3a 94 be
       -0.92202187 0.2707892 0.21741383 -0.28950995
000210 5c b3 5d 3e f1 69 1d 3e f3 8d 7b be 3c 54 3d 3d
       0.21650451 0.15372445 -0.24565868 0.04622291
000220 f6 ad bd be af eb 61 bf 01 3d 88 3f 9c e5 bd be
       -0.37046784 -0.8825025 1.0643617 -0.3708924
000230 db 37 d9 3d 83 6f ed bd f0 1c bf 3e 19 b2 ff 3e
       0.10606357 -0.11593535 0.37326765 0.49940565
000240 01 5b 36 3e f9 2d 4e 3e b7 54 3a 3e 87 68 b2 3f
       0.17808153 0.20134725 0.18196379 1.3938149
000250 16 36 59 bf 6f a8 d1 3d b6 9f 65 3d c0 68 ff 3d
       -0.84848154 0.10237204 0.056060515 0.12471151
000260 15 3d 35 be 12 af aa be 7f 14 8a 3c f6 9a 8f 3e
       -0.17699082 -0.33336693 0.016855476 0.28047913
000270 b4 61 4b be ed d9 ae bf d9 dc 77 3f 78 30 9c be
       -0.1986149 -1.3660256 0.9682136 -0.3050573
000280 10 03 a6 be b1 53 05 bf 04 4c 23 3e 12 93 14 3f
       -0.32424212 -0.5208083 0.15946966 0.5803691
000290 08 38 81 bd 93 55 0e bf 10 95 04 3d 88 30 aa bf
       -0.06309515 -0.55599326 0.03236872 -1.329606
0002a0 11 60 83 3f 10 7e 32 3e 87 6f bf bd ce f2 87 3d
       1.0263692 0.17430902 -0.09347444 0.06638108
0002b0 de cd 01 be 0a 6c 5a bc 58 30 8c be b5 f8 7e bb
       -0.12676188 -0.013331423 -0.27380633 -0.0038905565
0002c0 72 a1 4a 3e f2 c1 a0 bf d4 e9 84 3f 96 b1 14 3e
       0.19788149 -1.2559187 1.0383859 0.14520869
0002d0 78 e4 11 bd 27 1d 4d 3e 45 52 45 bd 3d 81 62 3e
       -0.035618275 0.20030652 -0.04817416 0.22119613
0002e0 f5 70 5a 3d 83 26 97 3e 36 90 55 be 73 0d 79 3f
       0.05333038 0.2952157 -0.20855793 0.97286147
0002f0 39 c8 48 bf bd 8f df be 1b a1 4b 3e 63 c1 08 be
       -0.78430516 -0.4366435 0.19885676 -0.13355021
000300 60 87 98 be 64 87 bc be 17 64 19 be 80 d3 89 3e
       -0.29790783 -0.36822045 -0.14979587 0.26919174
000310 6e 99 8a be 7e 91 82 bf 93 f2 2d 3f 47 ad 32 be
       -0.27070183 -1.0200651 0.67948264 -0.17448913
000320 dc 3c f9 3d 5b 24 2c 3e cf 94 34 be 73 00 d5 3e
       0.12169811 0.16810744 -0.17634891 0.41601905
000330 cd c0 5c 3e 10 51 ae bd 0b 88 d1 3d b2 a2 82 3f
       0.21557923 -0.08511555 0.10231026 1.0205901
000340 a2 03 44 bf d8 b7 51 be 3e 44 ed 3e c8 d4 a0 3e
       -0.76568043 -0.20480287 0.46341127 0.3141234
000350 23 50 c3 be 19 a5 9b be 33 22 3f 3e 82 ac 56 3e
       -0.38147077 -0.30399397 0.1866539 0.20964244
000360 4d f0 b6 bd ef 22 b9 3f d5 8c 77 bf 2d 64 8c 3d
       -0.089325525 1.4463786 -0.9669927 0.068550445
000370 8f 11 36 3f 1a 61 0c 3f 13 5c 35 3e 66 35 14 bf
       0.7112054 0.54835665 0.17710905 -0.5789398
000380 4f e4 46 bf 4c dc 05 3f be c5 f5 bd 73 bf ed be
       -0.7769212 0.5228927 -0.12000607 -0.46435127
000390 10 27 16 3f d1 7a 2f 3d d5 d5 c1 3d 7c c7 d5 3e
       0.58653355 0.042841736 0.09464613 0.41753757
0003a0 af 9d a8 be c7 95 a4 be a8 cf 6e 3c be ba ff 3e
       -0.32932803 -0.3214552 0.014575876 0.4994716
0003b0 06 ae 5e 3e ce de 93 bf 9e a7 e3 3e 23 a5 b7 bd
       0.21746072 -1.155237 0.4446382 -0.08967044
0003c0 47 c3 9a be f5 0c f4 bb df fb 00 3e 6b dc 70 3d
       -0.3022711 -0.0074478337 0.12596081 0.058803957
0003d0 8e d1 17 3e 05 0a 01 be 86 cb 89 3e 6e 7b 78 bf
       0.14826033 -0.12601478 0.2691309 -0.9706334
0003e0 84 a6 89 3f 85 9a e5 bd 15 e5 1e 3e 8a 1a 64 3d
       1.0753942 -0.11211113 0.15517075 0.055689372
0003f0 de ee 80 be 82 10 09 bf 26 7f 9d bd d1 24 e6 ba
       -0.2518224 -0.53540814 -0.07690267 -0.001755858

bias f4 [64]
000000 88 0f 1f 3d 41 04 37 3d 18 c4 7d be 9c 3d 03 bd
       0.03883317 0.04468179 -0.24781835 -0.032041177
000010 20 0b 7f 3e 8a 71 6a be 59 02 37 be 10 34 27 3d
       0.24906588 -0.22894874 -0.1787199 0.040821135
000020 d5 d9 33 be ee 37 21 3d 47 f5 73 be f8 b6 50 3e
       -0.17563565 0.03935998 -0.23824035 0.20382297
000030 50 92 95 bc f7 77 aa bb 90 4b 15 3e 68 07 48 be
       -0.018258244 -0.005202289 0.14579606 -0.19534075
000040 e9 20 26 3e 7a ff 55 be 92 6c fa 3d d9 89 a8 bd
       0.16223492 -0.20898238 0.122277394 -0.08229417
000050 99 d5 d6 3d 02 95 8f 3a 30 34 a2 be 17 bd 67 be
       0.10489959 0.0010954442 -0.3168044 -0.22630726
000060 43 58 1f bc 29 8b 8c be 4a 98 0d 3e f2 17 4d 3e
       -0.009725633 -0.2744992 0.13827625 0.20028666
000070 02 c3 6a 3d e3 5d 6d 3c f8 e3 b3 3d 45 74 0b bc
       0.05731488 0.014487716 0.08783716 -0.008511608
000080 c9 83 d5 3c db 35 1b be 3b 90 33 3c ce 80 1a 3d
       0.026063817 -0.15157263 0.01095968 0.037720494
000090 99 4d 00 3e 25 65 cb bd 98 ca 80 3e a3 a9 f6 3d
       0.12529601 -0.09931401 0.25154567 0.120440744
0000a0 14 59 60 be 7d dd 42 bb 09 20 a6 3e d4 4d 80 3d
       -0.2190898 -0.0029734068 0.32446316 0.062648445
0000b0 5b e7 59 bd f7 5b 65 3d b5 20 09 3e 07 30 37 3e
       -0.053199153 0.055995908 0.13391383 0.17889415
0000c0 e5 2e 97 bd 9b 08 37 3e 84 1c 2d 3e 4d 7e 9b be
       -0.07381991 0.17874376 0.16905409 -0.30369797
0000d0 3c af 3e 3e 55 db f7 bc c0 e9 42 3e 79 9d c1 3e
       0.18621534 -0.030255953 0.19034481 0.37815455
0000e0 06 43 a3 be ba 06 96 be 9a 38 e6 3c e6 fe 21 3e
       -0.31887072 -0.29302007 0.028103162 0.15819892
0000f0 b8 94 36 3e 8d d8 a8 be d8 01 38 3e 60 60 7e be
       0.17830169 -0.32977715 0.17969453 -0.24841452

weight f4 [64, 64]
000000 b5 21 6f be f3 2f 00 3f ed 33 19 be 03 0b 55 3e
       -0.23352702 0.50073165 -0.14961214 0.20804982
000010 83 81 fe 3b 03 36 b0 be 73 c5 92 bd 4b 56 a7 bd
       0.007766904 -0.34416208 -0.07166567 -0.08170756
000020 99 6e 27 be 2f 24 35 bc 73 16 13 3d b4 49 06 3f
       -0.16350783 -0.01105599 0.03591008 0.5245621
000030 26 f6 07 bf d1 33 03 bd b4 9a 4f be 1b 07 81 3d
       -0.5310997 -0.032031838 -0.20273858 0.063001834
000040 f1 08 d8 3e 9c 70 80 3d 9f de 11 be 51 08 03 3d
       0.42194322 0.062714785 -0.1424508 0.031990353
000050 bd a6 64 bd 0a 03 ee be 88 13 cf be 0f e4 98 bd
       -0.055823077 -0.46486694 -0.4044459 -0.07465374
000060 b5 7e ad 3d 98 9e cb bd d1 ce 92 bc 79 0e d4 3d
       0.08471433 -0.09942359 -0.017920883 0.10354323
000070 b4 03 a4 3e f4 03 3e be 37 f8 31 be 40 e9 cc be
       0.32034075 -0.18556195 -0.17379843 -0.40021706
000080 47 9e 91 3e c8 f2 4f be be 74 51 3e 35 d6 ec bd
       0.2844107 -0.20307457 0.2045469 -0.11564294
000090 54 86 95 bd b2 e8 7d bc eb f0 8f 3d 21 8e 09 be
       -0.07301012 -0.015497373 0.07028373 -0.13433124
0000a0 81 ef da be aa ae 35 be 6e ee 15 3f 65 77 60 3e
       -0.42760852 -0.1774241 0.5856694 0.21920545
0000b0 19 52 9c 3e 0e 9a b1 3d 36 74 5c bd 39 33 36 3c
       0.30531386 0.08671962 -0.053821765 0.011120611
0000c0 21 23 84 be 33 a7 34 bd aa 40 4f 3e cc 38 70 be
       -0.2580805 -0.044104766 0.20239511 -0.23459166
0000d0 45 9c 59 be 36 2f 95 bd b5 02 4a 3e 18 8f 0b 3f
       -0.21251018 -0.072843954 0.19727595 0.5451522
0000e0 31 f0 13 bd 5f e5 1f be da a5 96 3e 5c b4 0c 3e
       -0.036117736 -0.15614842 0.2942341 0.13740677
0000f0 14 99 ce 3e 94 a9 42 be 80 e2 0b 3d d7 a6 17 be
       0.40351164 -0.19010001 0.034151554 -0.14809738
000100 b8 2c c5 bd b0 0b 29 3b 14 44 67 be 18 f0 bb 3d
       -0.0962767 0.002579432 -0.22584563 0.091766536
000110 94 c3 ae 3e 58 06 01 be 02 06 7a be ce 43 10 be
       0.3413359 -0.12600076 -0.24416354 -0.14088365
000120 06 46 5f 3c a8 57 b7 3d 9e 26 5e be b6 9d d2 3d
       0.013627535 0.08952266 -0.21694419 0.10283987
000130 c9 a5 db 3d db 47 0d 3c 8a 4f f0 3d 1d 2d bd be
       0.107249804 0.008623089 0.11733921 -0.3694848
000140 07 e4 64 3e f2 21 26 3e 82 3d ef bd ae 06 8e 3d
       0.2235261 0.16223887 -0.116816536 0.06934868
000150 03 7f 7a 3c c6 21 a4 3d 5e bf f4 bd c7 35 26 3d
       0.015289071 0.08014254 -0.11950563 0.04057863
000160 5a 38 63 3d 81 74 71 be da 85 9b 3c e4 81 91 bd
       0.055473663 -0.23579599 0.018984724 -0.07104853
000170 c3 83 a1 3d 5e c2 0e be 6b e5 78 3d 9b d4 55 3d
       0.0788646 -0.13941333 0.060765665 0.05220471
000180 f3 76 1e 3e d3 c6 9c 3d 0b 02 0b 3e a4 8d 3e bc
       0.15475063 0.0765511 0.13574998 -0.011630449
000190 a4 a3 54 3d 40 71 14 3e de 6a b1 3d 47 3f 35 be
       0.051913872 0.14496326 0.086629614 -0.1769992
0001a0 08 d6 a2 be 7d 29 2b be b0 40 93 3e 77 31 85 3e
       -0.31803918 -0.16715045 0.2876029 0.260143
0001b0 5f 1f c7 bd 10 a7 e6 3d 28 0f cd ba 3a a2 05 be
       -0.097227804 0.112623334 -0.0015644776 -0.13050166
0001c0 c3 48 0d bd 45 e1 f4 3d de f5 f7 3d e6 ab 28 be
       -0.03449322 0.11957029 0.12107442 -0.16471824
0001d0 15 b8 6e 3e 28 d8 1b 3d 87 1e bf 3d 2b a6 24 3e
       0.23312409 0.03804794 0.093319945 0.16079013
0001e0 f4 27 a0 be a3 17 5f be b6 9f b0 bc 74 c8 e2 3d
       -0.31280482 -0.2178636 -0.021560531 0.1107339
0001f0 6d d5 98 3d ff e5 dd be a3 d7 ca 3b 39 18 3e bd
       0.07462583 -0.43339536 0.0061902567 -0.04640982
000200 f2 75 28 3d b4 e8 c4 bd 7e a5 cd 3e f6 85 58 be
       0.041128106 -0.09614697 0.40165323 -0.21144852
000210 06 40 85 be 09 3d ae 3e 2b 9b 2d 3e 82 de 8e bd
       -0.26025409 0.3403094 0.16953723 -0.06976034
000220 cb 28 2c 3d b0 ca e7 bd 42 85 92 3e 97 2f 84 bd
       0.04203109 -0.113179564 0.28617293 -0.064543895
000230 39 e4 c2 bd f9 8d e5 bc 8c 5c 75 bd 80 b5 82 3e
       -0.09516186 -0.0280218 -0.059902713 0.255291
000240 e1 fd 46 be 4f 28 08 3d 3c aa 08 3b d6 73 55 bc
       -0.19432785 0.033241566 0.002085342 -0.013028106
000250 c0 dd 66 bc 73 2f ac bc 7a 8c 23 3e fe ec 11 bb
       -0.014090955 -0.02101872 0.15971556 -0.0022266502
000260 52 f2 3f be a9 8f 5f 3e 20 0f 11 3d e6 39 1f 3e
       -0.18744782 0.21832146 0.035414815 0.1554943
000270 03 db 1e 3d e2 8d 49 3e cb 7f 3a bc 26 d4 25 3e
       0.038783085 0.1968303 -0.011383007 0.1619421
000280 c7 18 2a be bd fd 69 bd 69 90 87 bd e4 0c 88 3d
       -0.16611014 -0.05712675 -0.06619341 0.06643084
000290 7f c4 c1 3d 6b d5 c2 3b cc 6f e4 bc 05 7c 27 3e
       0.09461307 0.0059458516 -0.02788534 0.16355903
0002a0 ce 3c e3 3e 66 10 ed 3c 8c f3 6b be 93 b6 1b be
       0.44382328 0.028938483 -0.23042125 -0.15206365
0002b0 05 02 43 bc 2c 00 bb bd 06 77 8c 3d 99 1b 32 3c
       -0.011902337 -0.09130892 0.068586394 0.010870838
0002c0 47 70 9d 3d 6f f0 08 bd c3 99 2d be 6d da 87 3e
       0.07687431 -0.03343242 -0.16953187 0.26533833
0002d0 3e c6 61 be 8c bc d6 bc 40 ac da bd 81 3a 5a be
       -0.2204828 -0.026212953 -0.10677385 -0.2131138
0002e0 fd f7 69 3e 1d d9 aa 3e 81 93 33 be e2 7d ce 3c
       0.22848506 0.3336877 -0.17536737 0.02520651
0002f0 24 05 53 be 53 f2 c9 3e 08 57 1d be c6 77 d1 3b
       -0.2060743 0.3944269 -0.15365231 0.006392452
000300 cd 13 10 bc b7 a8 13 3e 30 fb 84 be 5a 20 21 3e
       -0.008793783 0.14419828 -0.2597289 0.15734997
000310 8d 40 52 3e 5c 87 e0 bc 17 29 95 be 9c ca 8b bd
       0.20532437 -0.027408294 -0.29132912 -0.06825754
000320 d1 81 86 3d 06 aa 84 3d 5d bc a6 be 05 87 2d bd
       0.06567729 0.06477742 -0.32565585 -0.042365093
000330 fe 13 fe 3d db 43 12 3e cd 1e 72 3e 92 ef 65 be
       0.12406157 0.14283697 0.23644562 -0.2245467
000340 28 95 0a 3d 6a 6e 35 3e 07 d5 77 bd d6 3a ec bc
       0.033833653 0.17717901 -0.060505893 -0.028836649
000350 b4 79 4a be 77 e8 53 bd e5 26 a3 bd ba b9 40 bc
       -0.19772989 -0.051735368 -0.07966403 -0.011763031
000360 d0 11 c8 3c c2 b7 b3 be 8b 1e d5 3c 3c ba fa bc
       0.024422556 -0.35101134 0.02601554 -0.030606382
000370 e3 21 87 3d ac 7c df bd a7 ea f1 3d 9b fe ea bd
       0.0659826 -0.10912451 0.118123345 -0.114743434
000380 b7 f6 7d 3c 0e 2d 2b 3e 4f 18 2e 3d 95 74 51 bd
       0.015500716 0.16716406 0.04250365 -0.051136572
000390 96 d8 27 be 4b 0b 24 3e 4b e1 24 bb df 21 74 3c
       -0.16391215 0.16019933 -0.00251587 0.014900654
0003a0 00 52 70 be e1 48 0d be 1a d8 a3 3d 2e 90 20 3e
       -0.2346878 -0.13797332 0.080002025 0.1568
0003b0 ed 46 26 bd 01 91 6c 3e 9e 32 89 bd 16 e8 d6 bd
       -0.040594984 0.2310219 -0.066991076 -0.10493486
0003c0 fe 50 cf 3c 85 e8 e6 3d c9 ca 51 3e fc 56 91 3d
       0.025307175 0.11274818 0.20487513 0.07096669
0003d0 69 f3 8f 3e 5b 07 ab bd 1d 51 1e 3e 7d 50 ea 3d
       0.28115395 -0.08351012 0.1546063 0.11441133
0003e0 51 50 54 be 6f 32 8a be 3a bc a1 3d c1 bb d2 bd
       -0.20733763 -0.26991603 0.078972295 -0.102897175
0003f0 21 45 a0 bd c1 99 d5 be fc c5 13 bd 4b ee 62 bc
       -0.07825685 -0.41718867 -0.036077484 -0.013850759

bias f4 [64]
000000 2d 19 b2 3c a8 6c 99 3e 81 8b de be ca 40 d2 3e
       0.02174052 0.2996571 -0.43465808 0.41065055
000010 59 ab 0d be a3 3f ad 3e b3 ee ae be df 01 a1 be
       -0.13834895 0.33837613 -0.34166488 -0.3144674
000020 76 c1 03 be 9b 85 9d be 39 9e f7 be 35 3b 8d 3e
       -0.12866768 -0.30765995 -0.48362902 0.27584234
000030 30 9b 99 be 4d da bf be 7e cc eb 3e 95 e8 ef 3d
       -0.3000121 -0.37471238 0.46054453 0.117142834
000040 2d f6 bd 3e de a7 af be 41 04 d1 3e 46 f0 b7 be
       0.3710188 -0.3430776 0.40823558 -0.35925502
000050 de 70 ab b9 01 ea 5a 3e 82 dd cd be 7d 8b b7 be
       -0.00032699754 0.21378328 -0.4020806 -0.3584861
000060 7e 37 95 3e c7 5c 92 3c e5 9a 5a 3e 0b ab 06 be
       0.291439 0.017866505 0.2134815 -0.13151185
000070 57 e5 b0 3e db f6 98 3e 6b b5 01 3e 58 db d6 3e
       0.34549972 0.29875836 0.12666862 0.4196422
000080 34 83 b7 3e 27 69 ae be 5f 85 b2 be 4e 9e 95 be
       0.35842288 -0.340646 -0.3486738 -0.2922234
000090 97 d8 70 bd e6 15 c4 be 6d 8e 4f 3e d4 37 64 be
       -0.058800306 -0.38297957 0.20269175 -0.22286922
0000a0 6a 91 5a be 9e 90 2f 3e ac 41 ef be 57 97 9b bd
       -0.21344534 0.17145011 -0.4672979 -0.07597225
0000b0 b5 a0 dd be c6 26 ca be d8 b2 e9 3e 2c 77 41 be
       -0.43286672 -0.39482707 0.4564426 -0.18893117
0000c0 b6 ca e2 3e b4 ac 95 3e 5b bf 6f 3e 54 75 c5 be
       0.4429528 0.29233325 0.2341284 -0.38566077
0000d0 30 b1 41 3e c9 a7 bd 3e b7 71 bd 3d 3d 40 3d be
       0.18915248 0.37042072 0.09250205 -0.18481536
0000e0 dd 08 9a 3e 7d 12 07 bf 50 a1 b6 be 68 ee b3 bd
       0.30084887 -0.52762586 -0.35669947 -0.08785707
0000f0 92 16 fa bd ed d0 10 3d c6 80 f5 3e b5 15 8d 3e
       -0.12211336 0.035355497 0.4794981 0.27555624

weight f4 [1, 64]
000000 15 d8 42 40 56 16 39 c0 9f 16 3a 40 64 67 36 c0
       3.0444386 -2.8919883 2.9076307 -2.8500605
000010 c5 54 4f c0 67 7d 37 c0 e7 ea 39 40 a6 05 38 40
       -3.239549 -2.867029 2.9049623 2.8753448
000020 52 c8 36 40 c0 3f 55 c0 e6 7f 39 40 f9 10 37 c0
       2.8559766 -3.332016 2.8984313 -2.860411
000030 46 01 39 40 30 d6 3a 40 51 31 3c c0 e6 99 41 40
       2.8907027 2.919323 -2.94051 3.0250182
000040 e9 15 3c c0 99 71 38 40 81 e1 35 c0 46 54 39 40
       -2.9388373 2.8819335 -2.8418887 2.8957686
000050 ce 88 3b c0 b0 fb 55 40 f0 af 3c 40 90 de 5e c0
       -2.930225 3.3434868 2.9482384 -3.4823341
000060 e6 35 3c c0 88 38 4a 40 ce e3 3c c0 31 66 39 40
       -2.9407897 3.1597004 -2.951404 2.8968623
000070 1d 56 3a c0 a2 5a 3c c0 ff c5 4b 40 f5 5e 3a c0
       -2.911506 -2.9430318 3.1839597 -2.9120457
000080 a8 e4 3c c0 5f c7 39 40 94 07 39 40 47 62 31 40
       -2.951456 2.9027936 2.8910875 2.7716234
000090 f1 4b 49 40 88 eb 38 40 ce c0 36 c0 23 7b 4e c0
       3.14526 2.8893757 -2.8555179 -3.2262657
0000a0 4a 8a 39 40 3f 09 3a c0 57 8e 3c 40 ec a4 41 40
       2.8990655 -2.9068143 2.9461877 3.025691
0000b0 7c b2 36 40 a9 de 38 40 11 24 40 c0 fc b7 38 40
       2.8546438 2.88859 -3.0022013 2.8862295
0000c0 25 b8 35 c0 cd cd 37 c0 12 ea 39 c0 4a 06 3d 40
       -2.8393643 -2.871936 -2.9049115 2.9535089
0000d0 a7 a5 37 c0 c4 7e 37 c0 3a ff 3c c0 df b3 3a 40
       -2.8694856 -2.8671122 -2.9530778 2.9172285
0000e0 a4 4a 3e c0 a0 2a 3e 40 61 28 3b 40 5e f8 3f 40
       -2.9733057 2.9713516 2.9243395 2.9995341
0000f0 e8 ad 40 c0 08 f0 32 c0 c8 7f 36 c0 3a db 39 c0
       -3.0106144 -2.7959003 -2.8515491 -2.9040055
