output/ppo/2021-12-16_19-17-49-ppo_s3/pyt_save/model.pt (torch_old, 47572 bytes, 12 tensors)

log_std f4 [3]
0	0xbf000000	-0.5
1	0xbf000000	-0.5
2	0xbf000000	-0.5

weight f4 [64, 16]
0	0xbe7dd12c	-0.24786824
1	0xbe49f2d0	-0.19721532
2	0xbddb4c1c	-0.10707876
3	0xbe7232fa	-0.23652259
4	0xbc688900	-0.01419282
5	0xbe613870	-0.21994185
6	0x3e0b3200	0.13593292
7	0x3df98c54	0.121849686
8	0x3d415fe8	0.047210604
9	0x3e469526	0.19392833
10	0xbcc89360	-0.024484336
11	0x3e1956d6	0.14974532
12	0xbe33480e	-0.17507955
13	0xbd49cab8	-0.049265593
14	0xbe6442ec	-0.22291154
15	0xbca646b0	-0.020297378
16	0xbe261712	-0.16219738
17	0x3e65fb4c	0.22459143
18	0x3e31d3c0	0.17365932
19	0x3e3fed28	0.18742812
20	0x3d97deb0	0.07415521
21	0xbe120b46	-0.14262113
22	0x3e660b4e	0.2246525
23	0xbe79cce4	-0.24394566
24	0xbe236410	-0.1595614
25	0xbe1fe3cc	-0.15614241
26	0xbdd43abc	-0.10362765
27	0x3d4c2ed0	0.04984933
28	0xbe41ead4	-0.18937236
29	0xbe45397c	-0.1926021
30	0xbdf4dbf8	-0.11956018
31	0x3e1c3f7e	0.15258595
32	0xbe38a588	-0.18031895
33	0xbe659afe	-0.22422406
34	0xbe5de09a	-0.2166771
35	0xbdfbf298	-0.123021305
36	0xbd8686ec	-0.06568703
37	0xbe7dc930	-0.24783778
38	0xbdefb648	-0.11704689
39	0x3b9d9840	0.0048094094
40	0x3d28cce8	0.04121104
41	0xbd12ccb0	-0.035839736
42	0xbce83680	-0.0283463
43	0xbe268c0a	-0.16264358
44	0x3e03267c	0.1280765
45	0xbd76afc8	-0.06022623
46	0xbe2f0810	-0.1709292
47	0xbd769aa8	-0.060206085
48	0xbd0f0ef8	-0.034926385
49	0x3e6cb2f6	0.23115143
50	0x3e056a9e	0.13028952
51	0xbdcebd40	-0.1009469
52	0xbd1146d8	-0.035467952
53	0x3e623828	0.22091734
54	0x3e2476bc	0.16060919
55	0x3d7f5188	0.062333614
56	0xbdb7a9ac	-0.08967909
57	0x3e5502fe	0.20801923
58	0x3ddb5b38	0.10710758
59	0xbde40830	-0.11134374
60	0x3e35ac38	0.17741477
61	0x3c91f770	0.017818183
62	0xbe3d5394	-0.18488914
63	0xbde2f000	-0.110809326
64	0xbe3fba80	-0.18723488
65	0xbe54082e	-0.20706245
66	0x3bc84480	0.0061116815
67	0xbe377518	-0.17915761
68	0x3e086f7e	0.13323781
69	0x3de4fa94	0.111806065
70	0x3d5c45c0	0.053777456
71	0x3e52ef70	0.2059915
72	0xbde840e4	-0.11340502
73	0x3b745280	0.003728062
74	0x3e1d4dfa	0.15361777
75	0x3db0fab8	0.08641571
76	0x3cf82210	0.03028968
77	0x3e5610e2	0.20904878
78	0x3d696008	0.05697635
79	0x3e2c3eaa	0.1682078
80	0xbe5c9f16	-0.21545061
81	0xbe5c9912	-0.21542767
82	0xbe67106c	-0.22564858
83	0x3c67dd60	0.014151901
84	0x3e593ef8	0.21215427
85	0xbe5f6838	-0.218171
86	0x3dcbb98c	0.099475
87	0xbe61ea4a	-0.2206203
88	0xbe2a20e0	-0.16614103
89	0xbdae9804	-0.085250884
90	0xbdd032c0	-0.1016593
91	0x3d973a80	0.07384205
92	0xbe56a8e0	-0.20962858
93	0x3e7d27e4	0.24722248
94	0x3d154890	0.036446154
95	0x3db27d2c	0.08715281
96	0xbe2cee92	-0.16887882
97	0x3e0d46c0	0.1379652
98	0xbd6f1908	-0.05837348
99	0xbdfebdcc	-0.12438545
100	0x3d2e2d28	0.042523533
101	0x3dd51678	0.10404676
102	0x3cd8e300	0.02647543
103	0xbdb3210c	-0.087465376
104	0x3d3e6908	0.046486884
105	0xbdc61b30	-0.09673154
106	0xbdad583c	-0.08464095
107	0xbdbe3810	-0.09288037
108	0x3e1885e4	0.14894825
109	0xbe32effc	-0.1747436
110	0x3dde5270	0.108555675
111	0x3e04b048	0.12957871
112	0xbe2a194c	-0.16611212
113	0xbe427230	-0.18988872
114	0xbe2a7aa8	-0.16648352
115	0xbe588ea0	-0.21148157
116	0x3e56ee76	0.20989403
117	0x3e61a794	0.22036582
118	0xbd0efa50	-0.034906685
119	0x3e700be0	0.2344203
120	0x3d910790	0.070815206
121	0xbe7b234a	-0.2452518
122	0xbe6a3c1e	-0.22874495
123	0xbdf73bac	-0.120719284
124	0xbe7f5b1e	-0.24937102
125	0xbdeae320	-0.11469102
126	0x3d8a79a0	0.067614794
127	0xbbb7b640	-0.0056064427
128	0xbd3f3718	-0.0466834
129	0x3c7b9400	0.01535511
130	0x3e6a0d60	0.22856665
131	0x3b320480	0.0027163327
132	0x3e00b842	0.12570289
133	0xbd76d088	-0.060257465
134	0xbe400c12	-0.18754604
135	0x3d484de0	0.048902392
136	0x3debcb60	0.115134
137	0x3e14da6e	0.1453645
138	0xbe70ddea	-0.23522153
139	0xbd079960	-0.033105254
140	0xbe76a8ec	-0.24087876
141	0x3b48b800	0.003062725
142	0x3c34da00	0.011038303
143	0x3da6a130	0.08136213
144	0xbdafb2f0	-0.085790515
145	0xbd1596a0	-0.0365206
146	0x3d7b4160	0.061341643
147	0xbe77f80a	-0.24215713
148	0x3dfbd44c	0.12296352
149	0x3e777720	0.24166536
150	0xbe362f10	-0.1779139
151	0x3e79a5c4	0.24379641
152	0x3d1b7538	0.037953585
153	0x3e7d4964	0.24735028
154	0x3e602f82	0.21893123
155	0xbe5b2fba	-0.21404925
156	0x3e40b95a	0.18820706
157	0x3c0c1e40	0.008552134
158	0x3d81c0d0	0.06335604
159	0xbdb9cbfc	-0.0907211
160	0xbe4d31dc	-0.20038551
161	0x3cc3fbf0	0.023923844
162	0x3d8e7008	0.06954962
163	0x3e00bdae	0.12572357
164	0xbe56bc3a	-0.2097024
165	0xbe77b6d8	-0.24190843
166	0x3df3a0f8	0.11895937
167	0xbd4d0178	-0.05005023
168	0xbb71f500	-0.0036919713
169	0xbd84d890	-0.064866185
170	0x3a07d600	0.000518173
171	0x3d291438	0.041279048
172	0xbe6c6c8e	-0.23088285
173	0x3dbcd784	0.09220794
174	0x3ce13ab0	0.027493805
175	0x3dec6880	0.11543369
176	0xbe043608	-0.12911236
177	0x3e3a4cb8	0.18193328
178	0x3e2ab678	0.16671169
179	0xbe0090e0	-0.12555265
180	0x3e602636	0.21889576
181	0x3d03c9a8	0.032174736
182	0x3e6202d6	0.22071394
183	0x3e68b410	0.22724938
184	0x3d2098a0	0.039208055
185	0x3d259840	0.0404284
186	0x3da05a60	0.07829738
187	0x3e24679c	0.16055149
188	0xbe69c368	-0.22828448
189	0x3ace1300	0.0015722215
190	0x3e7490c8	0.23883355
191	0xbe34c0ee	-0.17651722
192	0xbe102fcc	-0.14080733
193	0x3cd62b20	0.02614361
194	0x3db920f0	0.090394855
195	0x3e09810a	0.13428131
196	0x3c671a80	0.014105439
197	0x3d718fb8	0.05897495
198	0xbde80284	-0.11328605
199	0x3e7283d2	0.23683098
200	0xbe28b32c	-0.16474599
201	0x3e267aa2	0.16257718
202	0x3e0af812	0.13571194
203	0x3e5f9440	0.21833897
204	0x3e63391a	0.22189751
205	0xbda9e808	-0.082962096
206	0x3e36e058	0.17859018
207	0xbe3ad372	-0.18244722
208	0x3e3286b8	0.17434204
209	0xbe1d95b8	-0.15389144
210	0xbe2e0106	-0.16992578
211	0xbe2d40ac	-0.16919202
212	0x3e791190	0.24323106
213	0x3d9747f0	0.07386768
214	0xbe3267cc	-0.17422408
215	0xbe400cd0	-0.18754888
216	0x3cd3c940	0.0258528
217	0xbd5cde10	-0.053922713
218	0x3d8562b0	0.06512964
219	0x3e211d3c	0.15733808
220	0xbe21bade	-0.1579394
221	0xbe687d18	-0.2270397
222	0x3cd30200	0.02575779
223	0x3e2aad6a	0.16667715
224	0x3e1bd4ac	0.15217847
225	0xbb6aec80	-0.0035846531
226	0xbd889310	-0.06668675
227	0x3da33d7c	0.079707116
228	0x3e320040	0.17382908
229	0xbe5c8452	-0.21534851
230	0xbcc1ea80	-0.023671389
231	0x3e418f42	0.18902305
232	0x3e453af8	0.19260776
233	0x3e6d12aa	0.23151651
234	0x3dc5b4cc	0.09653625
235	0x3e7cc8b4	0.24685937
236	0xbe778e62	-0.24175408
237	0x3d41cae0	0.047312617
238	0x3d133858	0.035942405
239	0x3e308dec	0.17241639
240	0x3d4bef48	0.049788743
241	0x3e23f5f8	0.16011798
242	0xbe609fde	-0.21935984
243	0xbcdde4d0	-0.027086645
244	0x3dbfed1c	0.09371397
245	0x3e24301a	0.16033974
246	0x3d7292f8	0.05922219
247	0x3e256788	0.16152775
248	0xbd9ff004	-0.07809451
249	0xbcb05220	-0.021523535
250	0x3e70307e	0.23455998
251	0x3e2aba52	0.16672638
252	0x3e33c01a	0.1755375
253	0xbe5de066	-0.21667632
254	0xbb5cd000	-0.0033693314
255	0xbe5e7a50	-0.21726346

bias f4 [64]
0	0xbd34ab70	-0.044108808
1	0x3e205d78	0.15660655
2	0xbdc6977c	-0.09696862
3	0xbcaa0420	-0.02075392
4	0xbe14571e	-0.14486358
5	0xbe70088c	-0.2344076
6	0xbb456e80	-0.0030125678
7	0x3e45290c	0.1925394
8	0x3e5ca92a	0.21548906
9	0x3d9f0c40	0.077660084
10	0x3e0a89ae	0.13529083
11	0x3d9fb3f0	0.07797992
12	0xbe6a89dc	-0.22904152
13	0x3c52ade0	0.012858838
14	0x3dd18dc8	0.10232121
15	0xbe39e5e2	-0.181541
16	0xbe0042ee	-0.12525532
17	0xbe005d66	-0.12535629
18	0xbd43a950	-0.04776889
19	0x3a1fb600	0.0006092489
20	0xbe34d768	-0.17660296
21	0x3da0cb34	0.07851258
22	0x3d2a7110	0.04161173
23	0x3e3e5f88	0.1859113
24	0xbe0c2cda	-0.13688985
25	0xbcddfbc0	-0.027097583
26	0x3e3f78e4	0.1869846
27	0x3e35a3a4	0.17738205
28	0xbdb44550	-0.08802283
29	0xbdca7094	-0.09884754
30	0xbe3bff96	-0.18359217
31	0xbc9a62d0	-0.018845946
32	0x3e4efde8	0.20214045
33	0xbe3f9c3a	-0.1871194
34	0xbb4e8d00	-0.0031517148
35	0x3e7fdde2	0.24986985
36	0x3e3b5ed4	0.18297893
37	0xbe6b450a	-0.22975555
38	0x3e54552e	0.20735618
39	0x3e345fc2	0.17614654
40	0x3e4f9e08	0.20275128
41	0xbd880b48	-0.06642777
42	0x3dae1718	0.085004985
43	0x3dca8198	0.09887999
44	0xbdc0d6cc	-0.09415969
45	0x3d1ac6c8	0.03778723
46	0x3dfc877c	0.12330529
47	0x3e37cc58	0.17949045
48	0x3e609b9c	0.2193436
49	0xbe0534d4	-0.13008434
50	0xbd244388	-0.040103465
51	0x3d63a378	0.055575818
52	0x3d303f50	0.04302913
53	0xbdb78408	-0.0896073
54	0x3e1aeb92	0.15128925
55	0xbe420b26	-0.18949565
56	0xbe3be364	-0.18348461
57	0xbd0ab770	-0.033866346
58	0x3e07edf8	0.13274372
59	0x3e24f91a	0.1611065
60	0xbd73b490	-0.05949837
61	0x3e28de7e	0.16491124
62	0xbe3f64b8	-0.18690765
63	0xbe565290	-0.20929933

weight f4 [64, 64]
0	0x3cba75a8	0.022761181
1	0x3d170764	0.036872283
2	0x3cccd3a0	0.025003254
3	0xbc7991b0	-0.0152324885
4	0x3dcc7834	0.099838644
5	0xbdf4e212	-0.11957182
6	0x3d113aa8	0.03545633
7	0x3cad5078	0.021156535
8	0x3d2b7e0c	0.041868255
9	0xbdd039f0	-0.10167301
10	0xbd180320	-0.037112355
11	0xbdbb9c2a	-0.09160645
12	0x3d63bab8	0.05559799
13	0x3d262964	0.040566817
14	0x3cf6be18	0.03011994
15	0x3de6709e	0.11251949
16	0x3dee8d4c	0.11648044
17	0xbdc797b4	-0.09745732
18	0xbd5b69d4	-0.053567722
19	0x3d2c4134	0.04205437
20	0x3ccc55b8	0.024943218
21	0xbc090fd0	-0.008365586
22	0x3dbbcb34	0.09169617
23	0x3d9723a2	0.07379843
24	0x3dd724d4	0.10505071
25	0x3cf7d968	0.030255035
26	0x3d6a97d4	0.0572737
27	0xbda64ba4	-0.08119896
28	0x3d98ce80	0.07461262
29	0x3d385814	0.045005873
30	0x3d707bd8	0.058711857
31	0x3ca0d6e0	0.01963371
32	0xbd7ee6cc	-0.062231824
33	0x3d4f94a4	0.050678864
34	0x3dcc2d30	0.09969556
35	0x3bf82cc0	0.007573694
36	0xbc852c20	-0.016256392
37	0xbdfdda8c	-0.123952
38	0x3dbe25a6	0.092845246
39	0x3c8a4148	0.016876832
40	0xbde8ec68	-0.11373216
41	0xbdd25618	-0.10270327
42	0xbde86ef2	-0.11349286
43	0x3d832c1e	0.06404899
44	0xbdcac63c	-0.099010915
45	0xbd0aba50	-0.033869088
46	0xbdba10ee	-0.0908526
47	0xbd640f30	-0.055678546
48	0x3df9f180	0.122042656
49	0xbda93b20	-0.0826323
50	0x3db642be	0.08899449
51	0x3d1299a4	0.035791054
52	0xbd426700	-0.04746151
53	0xbcf51038	-0.02991496
54	0x3ad5d080	0.0016312748
55	0xbcb2f870	-0.02184698
56	0x3d06d850	0.032921135
57	0xbc32cbe0	-0.010912865
58	0x3df450ec	0.11929497
59	0xbdb69104	-0.08914378
60	0xbdf87d60	-0.121332884
61	0x3d3da220	0.046297193
62	0x3b8e1620	0.0043361336
63	0x3dc488f8	0.09596437
64	0x3cd334a0	0.02578193
65	0xbd2b33d0	-0.04179746
66	0xbc99f1e0	-0.018792093
67	0x3dd06fd4	0.101775795
68	0x3cf67d58	0.030089065
69	0xbbf7ace0	-0.00755845
70	0x3dcf1c20	0.10112786
71	0x3def875e	0.11695741
72	0x3cdf9fa0	0.027297795
73	0x3bab72c0	0.005232185
74	0xbdb5bfb2	-0.088744536
75	0x3d4eb0d0	0.05046159
76	0xbd254e6c	-0.040357992
77	0xbdfc359e	-0.12314914
78	0xbd6a423c	-0.057192072
79	0x3d03b558	0.032155365
80	0x3dc8480a	0.09779365
81	0xbd90cb36	-0.070700094
82	0x3dcbb66c	0.099469036
83	0xbda4aefe	-0.080411896
84	0x3d5b2000	0.053497314
85	0xbdec8f98	-0.11550826
86	0x3decaa32	0.115559
87	0x3d8534e8	0.06504232
88	0x3da43e12	0.080196515
89	0xbdf0f9cc	-0.11766395
90	0x3d9140b2	0.07092418
91	0xbdbeb3a6	-0.09311609
92	0x3dee3720	0.11631608
93	0xbc2aaf70	-0.010417804
94	0x3db8eeb6	0.090299055
95	0xbd60b550	-0.054860413
96	0x3c965a28	0.018353537
97	0x3dc28e46	0.09499793
98	0x3dd0758e	0.10178672
99	0x3da66844	0.08125356
100	0xbd8fc354	-0.07019678
101	0xbd522ecc	-0.05131416
102	0x3b9c3780	0.0047673583
103	0x3d371e30	0.044706523
104	0x3dccad78	0.09994024
105	0x3dab6302	0.083684936
106	0x3d22deb4	0.039763168
107	0xbc3137b0	-0.0108165
108	0xbd9f6e04	-0.07784656
109	0x3c1bcde0	0.009509534
110	0xbce8fa90	-0.02843979
111	0x3d858ed0	0.0652138
112	0xbd619928	-0.0550777
113	0xbda53ef0	-0.08068645
114	0x3dc44792	0.095839635
115	0xbd001188	-0.03126672
116	0x3c463dc0	0.012099683
117	0x3caa6a28	0.020802572
118	0xbcfcaef0	-0.030845135
119	0x3dcc0f9a	0.09963913
120	0xbdf83c7e	-0.12120913
121	0x3dd5f846	0.10447745
122	0x3c18b280	0.0093199015
123	0x3d88f186	0.06686692
124	0xbdda8c62	-0.10671307
125	0x3d36c228	0.044618756
126	0x3d2080dc	0.03918539
127	0xbc698990	-0.014253989
128	0x3d7b4b58	0.06135115
129	0xbd688e38	-0.056776255
130	0xbdc56348	-0.09638077
131	0xbd1f992c	-0.038964435
132	0xbdf57eaa	-0.1198705
133	0xbc2775b0	-0.01022093
134	0xbbeabea0	-0.0071638376
135	0xbd130b50	-0.03589946
136	0x3d80ebf4	0.062950045
137	0x3d90b310	0.070654035
138	0xbcf17308	-0.029473796
139	0xbc0f3ec0	-0.008742988
140	0x3d084244	0.03326632
141	0xbdc2fa5e	-0.0952041
142	0x3c803508	0.015650287
143	0x3d41810c	0.04724221
144	0xbd55ba78	-0.052179784
145	0xbb94fec0	-0.00454697
146	0x3d2c9dd0	0.04214269
147	0x3d8dd87e	0.06926058
148	0xbddec3b2	-0.1087717
149	0x3c00e750	0.007867649
150	0xbdf9e094	-0.12201038
151	0xbbef89a0	-0.0073101074
152	0x3d9bb166	0.076021954
153	0x3da14df8	0.078761995
154	0x3da4241a	0.08014698
155	0xbd2ac1e0	-0.0416888
156	0xbde92920	-0.11384797
157	0xbdc897c0	-0.09794569
158	0x3dbbeb6a	0.09175761
159	0x3db3ab7a	0.08772941
160	0x3df9afcc	0.12191734
161	0x3d3f7050	0.04673797
162	0x3d8b5d84	0.06804946
163	0x3c640e10	0.013919368
164	0xbdbb8bb2	-0.09157504
165	0x3d13e9d4	0.036111668
166	0xbde80628	-0.11329299
167	0xbdb5b3c4	-0.08872178
168	0xbd060328	-0.032717854
169	0x3ca61b40	0.020276666
170	0xbd5ff008	-0.05467227
171	0xbd601b68	-0.054713637
172	0xbdf0face	-0.11766587
173	0xbdc80ea0	-0.097684145
174	0x3d06226c	0.03274767
175	0xbd9607ce	-0.073257074
176	0x3dff5e38	0.12469143
177	0xbdc30cd4	-0.09523931
178	0xbcf2d048	-0.029640332
179	0xbd9b713e	-0.075899586
180	0x3a370c00	0.0006982684
181	0x3d9cbc16	0.07653062
182	0xbd0e5aa8	-0.034754425
183	0xbc3c6790	-0.011499301
184	0xbddbab72	-0.1072606
185	0xb87e8000	-6.067753e-05
186	0xbd775140	-0.06038022
187	0x3d9f9e8e	0.07793914
188	0x3de5fe1c	0.11230108
189	0x3d0891f4	0.033342317
190	0xbd9df962	-0.077135816
191	0xbb948560	-0.004532501
192	0x3dccc104	0.09997752
193	0x3d28903c	0.041153178
194	0xbde5e9ae	-0.112262115
195	0x3d35f190	0.044419825
196	0x3d2c6544	0.042088762
197	0xbd0bb098	-0.03410396
198	0xbd78a2a8	-0.060701996
199	0x3c6b9d50	0.014380768
200	0xbdb8fcbe	-0.09032582
201	0x3de5a1b2	0.112124816
202	0x3cf8a7b0	0.030353397
203	0xbd93c13c	-0.07214591
204	0x3db21776	0.08695881
205	0xbc1a6810	-0.0094242245
206	0x3debf4ae	0.11521278
207	0xbcb2eb98	-0.021840855
208	0xbdcec0ae	-0.100953445
209	0xbca30968	-0.019901946
210	0x3ded9b9c	0.11601946
211	0xbd9a9ba0	-0.07549214
212	0xbc561360	-0.013066143
213	0x3d378b0c	0.04481034
214	0xbc9c4c00	-0.019079208
215	0xbd0259c8	-0.031823903
216	0xbd738aa0	-0.059458375
217	0x3d86ad1c	0.06575987
218	0x3c1ebec0	0.009689033
219	0x3c89a370	0.016801566
220	0xbd9c59ee	-0.0763434
221	0xbcd18298	-0.025574967
222	0x3d5bb12c	0.05363576
223	0x3d9a448c	0.075326055
224	0xbb92e000	-0.0044822693
225	0x3d87cd64	0.06630972
226	0xbdb2c5e4	-0.08729151
227	0xbd74f164	-0.05980052
228	0xbc9a6fa0	-0.018852055
229	0xbddc4b92	-0.107566014
230	0xbdb50748	-0.088392794
231	0x3d9ee10e	0.077577695
232	0xbb800b00	-0.0039075613
233	0x3b86c800	0.0041131973
234	0xbced3210	-0.028954536
235	0xbda52002	-0.08062746
236	0xbd2586d0	-0.04041177
237	0x3d8eed22	0.06978823
238	0xbdafc490	-0.08582413
239	0x3cda7e10	0.02667144
240	0xbd9375da	-0.07200213
241	0xbdad68a0	-0.08467221
242	0xbd90bfe4	-0.0706785
243	0xbd48000c	-0.04882817
244	0x3dd6a31a	0.10480328
245	0xbccfe0a8	-0.02537568
246	0xbd6bed64	-0.05759944
247	0x3df109c0	0.11769438
248	0x3d9f964e	0.0779234
249	0x3d0ac174	0.033875898
250	0xbd1c5ccc	-0.038174435
251	0xbdfebd48	-0.12438446
252	0x3dbe84a4	0.09302643
253	0x3d4ac8f0	0.049508035
254	0x3c3a2e00	0.011363506
255	0x3df83fce	0.12121545

bias f4 [64]
0	0x3d204a0c	0.039133117
1	0xbcb5be50	-0.022185475
2	0xbdf746a0	-0.120740175
3	0xbddcb684	-0.107769996
4	0xbd0d0714	-0.03443058
5	0xbdae5286	-0.08511834
6	0x3def24de	0.11676954
7	0xbd6083e0	-0.054813266
8	0x3d04e4a8	0.032444626
9	0xbcd78190	-0.026306897
10	0xbacf6b80	-0.0015824884
11	0xbdeb6b32	-0.11495055
12	0x3c9805c8	0.018557444
13	0xbce69668	-0.028147891
14	0x3d8eac4a	0.06966455
15	0x3dc53294	0.09628788
16	0xbdde4b00	-0.10854149
17	0xbd190e7c	-0.03736733
18	0xbdf36f10	-0.11886418
19	0xbdec9cfe	-0.115533814
20	0x3d2d38b8	0.04229042
21	0xbc78f9d0	-0.015196279
22	0xbdfc6d80	-0.12325573
23	0x3db16326	0.08661489
24	0x3de129ae	0.10994278
25	0x3d536700	0.0516119
26	0x3d92b19c	0.071627825
27	0xbdf43fa6	-0.119262025
28	0x3de639dc	0.112415045
29	0xbd93ab9c	-0.07210466
30	0x3da47918	0.08030909
31	0xbd863410	-0.06552899
32	0xbd494e9c	-0.049147233
33	0x3dc35120	0.09536958
34	0x3dad43c0	0.08460188
35	0x3db52812	0.088455334
36	0x3a0c8e00	0.0005361736
37	0xbde8b988	-0.11363512
38	0xbd87257a	-0.06598945
39	0x3c61a920	0.013773233
40	0xba40a200	-0.00073483586
41	0x3df12ad0	0.11775744
42	0x3dec5b5c	0.11540863
43	0x3dd246da	0.1026742
44	0xbd8bbdd6	-0.06823318
45	0xbc6c14c0	-0.014409244
46	0x3d1dcfa0	0.038528085
47	0x3ddf88a6	0.109147355
48	0xbd8c9c7e	-0.06865786
49	0xbd7e6808	-0.06211093
50	0xbddf22fa	-0.10895343
51	0xbd65a298	-0.056063265
52	0xbcf29848	-0.029613629
53	0xbdafc902	-0.08583261
54	0xbc4d17e0	-0.012517899
55	0x3cfb82f8	0.0307021
56	0x3d373ec0	0.044737577
57	0xbdb8602c	-0.09002718
58	0x3db9fd7a	0.0908155
59	0xbda5f4da	-0.08103342
60	0x3dddb348	0.10825211
61	0xbd18511c	-0.037186727
62	0xbdfa47fe	-0.12220763
63	0xbc90e688	-0.01768805

weight f4 [3, 64]
0	0x3d83ccc6	0.06435542
1	0xbddfac04	-0.10921481
2	0xbd886c94	-0.06661335
3	0xbcbe9ed8	-0.023269102
4	0xbd47df48	-0.048796922
5	0x3dc1e73e	0.09467934
6	0x3d8cc0b6	0.06872694
7	0x3de32c4c	0.11092433
8	0x3c2b0a90	0.01043953
9	0xbde3f626	-0.111309335
10	0xbdc2a4d0	-0.09504092
11	0xbc84e2b8	-0.01622139
12	0xbb714480	-0.003681451
13	0x3dd85d26	0.10564642
14	0x3db7e900	0.08979988
15	0xbd27f45c	-0.041004524
16	0xbcd41468	-0.025888637
17	0xbcca96f0	-0.024730176
18	0x3d3a94ac	0.04555194
19	0xbd04ed38	-0.032452792
20	0x3c1428d0	0.009042934
21	0x3d7cf9f4	0.06176181
22	0x3dc09882	0.094040886
23	0xbc717290	-0.0147367865
24	0xbdb0d808	-0.08634955
25	0xbde36860	-0.11103892
26	0x3d805b18	0.06267375
27	0xbd350db0	-0.044202507
28	0x3de8823e	0.11352967
29	0xbbb01260	-0.005373284
30	0x3d9d50aa	0.07681401
31	0xbdf7bc64	-0.120964795
32	0xbdcf4f76	-0.10122578
33	0x3d6d5974	0.057946637
34	0xbc6a82c0	-0.0143134
35	0xbdcb4f88	-0.09927279
36	0xbc3120c0	-0.010811031
37	0xbd28fb24	-0.04125513
38	0xbddaf042	-0.10690357
39	0x3baca120	0.005268231
40	0xbcad4648	-0.021151677
41	0x3d968802	0.0735016
42	0x3bc9d3c0	0.006159276
43	0x3d190104	0.037354484
44	0xbdd78cc0	-0.10524893
45	0xbdf59d8e	-0.11992942
46	0x3dc0a80e	0.09407054
47	0x3d663df0	0.056211412
48	0xbdfe2952	-0.12410225
49	0x3df1f25c	0.118138045
50	0x3d9ddde0	0.07708335
51	0xbd92e482	-0.07172491
52	0x3cb9dce8	0.022688344
53	0xbd81974a	-0.06327684
54	0x3de92a56	0.11385028
55	0x3c8c6f08	0.017142788
56	0x3da0851a	0.07837887
57	0xbde8846e	-0.11353384
58	0x3d8831f4	0.06650153
59	0xbd055968	-0.032555968
60	0x3de9f2ca	0.114232615
61	0x3de6c72e	0.11268459
62	0xbb890460	-0.0041814297
63	0x3dc98bfc	0.09841153
64	0x3d9d9602	0.07694627
65	0xbd5fa4dc	-0.05460058
66	0xbc650c20	-0.013979942
67	0x3cf338c8	0.029690161
68	0xbd8515b6	-0.06498282
69	0x3de66ac6	0.11250834
70	0xbc231160	-0.009952873
71	0x3d8e9a86	0.06963067
72	0xbd999e34	-0.07500878
73	0x3c7f2580	0.015572906
74	0x3ca23e88	0.019805208
75	0x3ca679f8	0.020321831
76	0xbdf4f86c	-0.11961445
77	0xbdb109b6	-0.0864443
78	0x3d89acf6	0.06722443
79	0xbd14f264	-0.036363974
80	0xbda90684	-0.08253196
81	0xbcf304c8	-0.029665366
82	0x3d0a9d98	0.0338417
83	0xbde63006	-0.112396285
84	0xbc994380	-0.018708944
85	0xbd9b0c1e	-0.075706705
86	0xbd52f980	-0.051507473
87	0x3d833378	0.06406301
88	0x3df89e06	0.121395156
89	0x3dd80876	0.10548489
90	0xbc145410	-0.009053245
91	0xbd8b368a	-0.06797512
92	0x3d0b3670	0.033987463
93	0xbd572e7c	-0.052534565
94	0x3d307e10	0.043088973
95	0x3d6f9ff4	0.058502153
96	0x3dff7d7e	0.124751076
97	0xbddd69e4	-0.10811213
98	0x3d830a1a	0.06398411
99	0x3df33e76	0.11877148
100	0xbd91a2b8	-0.07111114
101	0xbdada866	-0.08479385
102	0xbd9be7be	-0.07612561
103	0xbd2d8318	-0.04236135
104	0xbdc830da	-0.09774943
105	0xbde781e8	-0.113040745
106	0x3d47551c	0.04866515
107	0x3d5bcdcc	0.05366306
108	0x3da8d032	0.08242835
109	0x3c9b4ac8	0.018956557
110	0xbd870ef0	-0.06594646
111	0x3d7ad7ec	0.061241075
112	0xbd534294	-0.051577166
113	0x3c4707a0	0.012147814
114	0xbb142e40	-0.0022610575
115	0xbdd788ec	-0.10524163
116	0x3dd59bd2	0.10430111
117	0x3bb98e00	0.0056626797
118	0x3d3830d0	0.044968426
119	0xbd245e20	-0.040128827
120	0xbbb6ea80	-0.005582154
121	0xbdd4b2f8	-0.10385698
122	0x3db9ecb4	0.09078351
123	0xbd3baef0	-0.04582113
124	0xbd378b14	-0.04481037
125	0x3b6a3680	0.003573805
126	0x3d303dc8	0.04302767
127	0xbd3a4cdc	-0.045483455
128	0xbdce6e52	-0.10079636
129	0xbd544570	-0.051824033
130	0x3daed2e6	0.085363194
131	0xbdb99a72	-0.09062661
132	0xbc9dd920	-0.019268572
133	0xbd5b8f54	-0.053603485
134	0xbd5ac0f4	-0.05340667
135	0xbdf37286	-0.11887078
136	0x3cd966d8	0.026538298
137	0xbd8fc4c4	-0.07019952
138	0x3c663780	0.014051318
139	0x3da8f2c4	0.08249429
140	0xbc8feeb8	-0.017569885
141	0xbde290ce	-0.110627756
142	0x3da90a5a	0.082539275
143	0x3d9b3a60	0.075794935
144	0x3d6ef894	0.05834253
145	0x3bd63240	0.006536752
146	0xbcf36050	-0.029709011
147	0xbcb46248	-0.02201952
148	0xbbb79640	-0.005602628
149	0xbde3af2a	-0.11117394
150	0x3ce25ef8	0.027633175
151	0x3dab2a7c	0.083577126
152	0x3d41776c	0.04723303
153	0x3dcd43dc	0.10022709
154	0x3c96e9a8	0.018421963
155	0xbdbb68f4	-0.091508776
156	0x3b610480	0.0034334958
157	0x3c17aa50	0.009256914
158	0xbc29a9a0	-0.010355383
159	0xbd1d2b20	-0.038371205
160	0xbdf09a30	-0.11748159
161	0x3caf9888	0.021435037
162	0xbd21340c	-0.039356276
163	0xbdf32260	-0.11871791
164	0x3dc17f4e	0.094481096
165	0x3daee932	0.08540572
166	0x3dc5a31c	0.09650251
167	0xbd8bf336	-0.06833498
168	0xbd34f2a4	-0.044176713
169	0xbdf71f04	-0.12066463
170	0x3de5a902	0.11213876
171	0x3d4389dc	0.047738895
172	0x3d36f350	0.044665635
173	0x3ddaeb3e	0.106894
174	0xbde373ea	-0.11106093
175	0xbdcb016e	-0.09912382
176	0xbdb45c84	-0.088067085
177	0xbdbb94c6	-0.09159236
178	0x3d086000	0.033294678
179	0xbdba85ce	-0.091075525
180	0xbbbfffc0	-0.005859345
181	0xbbd18ca0	-0.0063949376
182	0x3d2b72e8	0.04185763
183	0xbdc5f004	-0.0966492
184	0xbce7ece0	-0.028311193
185	0xbde95dfa	-0.11394878
186	0xbdbd0202	-0.092288986
187	0x3ddb494e	0.10707341
188	0xbdfb64e4	-0.12275103
189	0x3da316ee	0.07963358
190	0xbc901bc8	-0.017591372
191	0xbd3291ec	-0.043596193

bias f4 [3]
0	0x3dd68b2c	0.10475764
1	0xbde0a75a	-0.1096942
2	0xbd5734a0	-0.05254042

weight f4 [64, 16]
0	0x3e52f3a0	0.20600748
1	0x3db4d4b4	0.088296324
2	0x3accea00	0.0015633702
3	0xbda426d8	-0.08015221
4	0xbe3e1b56	-0.18565115
5	0x3e3b6b8a	0.18302742
6	0x3d8cc834	0.06874123
7	0xbd70f4d0	-0.05882722
8	0x3e6584aa	0.22413889
9	0xbe6ed87c	-0.2332477
10	0x3e6ed5ae	0.233237
11	0xbd236c40	-0.039898157
12	0x3e550d46	0.20805845
13	0x3d829af0	0.06377208
14	0x3e53414a	0.20630375
15	0x3da6476c	0.081190914
16	0x3e3b4fc4	0.18292147
17	0xbd276d20	-0.040875554
18	0xbe3c5148	-0.18390381
19	0x3dacdc40	0.08440447
20	0x3e3cfcaa	0.18455759
21	0x3e060346	0.13087186
22	0xbc682ba0	-0.014170557
23	0x3e757584	0.2397061
24	0xbd0356d8	-0.032065243
25	0x3e11c524	0.1423536
26	0xbe330986	-0.17484102
27	0x3e1ea890	0.15493989
28	0xbe23464e	-0.15944788
29	0x3dbce650	0.09223616
30	0x3e5f62e4	0.21815068
31	0x3e29b130	0.16571498
32	0x3d56bb40	0.05242467
33	0xbe123386	-0.14277467
34	0x3e2d9a64	0.16953427
35	0x3c2116e0	0.009832114
36	0xbe2992e8	-0.16559947
37	0xbe69a702	-0.22817615
38	0xbd6d4798	-0.057929605
39	0xbe634592	-0.22194508
40	0xbcc54190	-0.024079114
41	0xbcb316e0	-0.021861494
42	0xbe3edf8a	-0.18639961
43	0x3e5beb20	0.21476412
44	0xbd968e50	-0.07351363
45	0xbd7b57c8	-0.06136301
46	0xbd674408	-0.056461364
47	0xbd442c08	-0.047893554
48	0xbe6708f4	-0.22562009
49	0x3e2a5c28	0.16636717
50	0xbdb4efa4	-0.0883477
51	0x3d7353b8	0.059406012
52	0x3d7596c8	0.05995825
53	0x3d3456d8	0.044028133
54	0xbdba2b04	-0.09090236
55	0x3e46d496	0.19417033
56	0x3e7747ee	0.24148533
57	0x3dbd3bf0	0.09239948
58	0x3e1925ae	0.1495578
59	0x3e351244	0.17682749
60	0xbe23405a	-0.15942517
61	0x3e04786e	0.12936565
62	0x3e547816	0.20748934
63	0xbe7f8ef0	-0.2495687
64	0x3d4dd5e0	0.050252795
65	0xbe69ec72	-0.22844103
66	0xbdfc0b9c	-0.12306902
67	0xbc579100	-0.013157129
68	0xbde6be64	-0.11266783
69	0x3dbff934	0.093737036
70	0xbe105f1e	-0.14098784
71	0xbe5e8df2	-0.21733835
72	0x3e21cdb8	0.15801132
73	0xbd668480	-0.056278706
74	0xbe5dbd02	-0.21654132
75	0xbd9c485c	-0.07630989
76	0x3cd55760	0.02604264
77	0xbc8876b0	-0.016658157
78	0x3e178036	0.14795002
79	0xbe608ee0	-0.21929502
80	0x3e00060e	0.1250231
81	0xbe1de560	-0.15419531
82	0xbe6cc21a	-0.23120919
83	0xbcec5600	-0.028849602
84	0x3d830a20	0.063984156
85	0xbda1b440	-0.07895708
86	0x3d05e968	0.032693297
87	0x3e58d91a	0.21176568
88	0x3e60812a	0.21924272
89	0x3bbbc940	0.005730778
90	0xbcb0d030	-0.021583647
91	0xbd1a0da0	-0.03761065
92	0x3e3f94be	0.18709084
93	0xbe367bbc	-0.17820638
94	0xbe676182	-0.2259579
95	0xbe4b956c	-0.19881219
96	0x3d13aac8	0.03605154
97	0x3e1fbaba	0.15598574
98	0xbe785ee4	-0.24254948
99	0x3d517420	0.051136136
100	0x3ccc93d0	0.024972826
101	0xbcc26780	-0.023730993
102	0x3a745600	0.00093206763
103	0x3df5ed34	0.120081335
104	0x3e2a87da	0.16653386
105	0xbcbd6da0	-0.023123562
106	0x3e1abe58	0.15111673
107	0x3dae00f4	0.084962755
108	0x3e60fce8	0.21971476
109	0xbd72d898	-0.05928859
110	0xbe0cfd72	-0.13768557
111	0x3e192e40	0.14959049
112	0xbb086b80	-0.0020816028
113	0x3e0b3092	0.13592747
114	0xbe71f7b4	-0.23629647
115	0xbcf56220	-0.029954016
116	0x3e24cad2	0.16092995
117	0x3bad85c0	0.0052954853
118	0xbe3000a8	-0.1718775
119	0xbe3ca3d2	-0.18421867
120	0x3e61cb4e	0.22050211
121	0x3e789992	0.24277332
122	0x3e4422e2	0.19153932
123	0x3df86064	0.1212776
124	0x3dc16930	0.09443891
125	0x3ddb2518	0.107004344
126	0x3e2db4be	0.16963479
127	0xbd9d0ff8	-0.076690614
128	0xbc9aa870	-0.018879145
129	0xbd2b5e50	-0.04183799
130	0x3e21eac6	0.15812215
131	0xbded8f2c	-0.115995735
132	0xbc939870	-0.018017024
133	0x3e29e396	0.16590723
134	0x3e040368	0.12891924
135	0x3c9f4130	0.019440264
136	0xbc3fa880	-0.011697888
137	0xbe259ce2	-0.16173127
138	0xbe23918e	-0.15973493
139	0xbd1216d8	-0.035666317
140	0x3e76caec	0.24100846
141	0xbd6b30f0	-0.057419717
142	0xbe0fa644	-0.14028269
143	0x3cbf1d00	0.023329258
144	0x3e1c4e0e	0.1526415
145	0x3e457bee	0.19285557
146	0xbcd06f90	-0.025443822
147	0xbe58496a	-0.21121755
148	0x3d4b6488	0.04965642
149	0x3da6ac44	0.08138326
150	0x3d527448	0.051380426
151	0x3e2c6568	0.16835558
152	0x3a600e00	0.0008547008
153	0xbdfa4948	-0.122210085
154	0x3c083f80	0.008315921
155	0xbdd37ba8	-0.1032632
156	0xbdc69970	-0.09697235
157	0x3e2aee6c	0.16692513
158	0xbcb52ce0	-0.022116125
159	0xbd89d4ec	-0.06730065
160	0x3d83e700	0.06440544
161	0xbdbfe3a0	-0.09369588
162	0xbe7a7506	-0.24458703
163	0x3dc84374	0.09778491
164	0x3e6362c0	0.22205639
165	0xbdeec690	-0.116589665
166	0x3db2ba24	0.0872691
167	0x3d7136b0	0.058890045
168	0xbb40b300	-0.0029403567
169	0xbd560958	-0.052255005
170	0xbe5d40a0	-0.21606684
171	0x3da3eb68	0.080038846
172	0x3db0840c	0.08618936
173	0xbe48deda	-0.19616261
174	0xbe4c4ba0	-0.19950724
175	0xbd458330	-0.048220813
176	0x3da08e14	0.07839599
177	0xbccfbed0	-0.025359541
178	0x3d174790	0.03693348
179	0xbde17484	-0.11008552
180	0x3d899a6c	0.06718907
181	0xbdc6b950	-0.09703314
182	0x3de5fa10	0.11229336
183	0x3d35af78	0.044356793
184	0x3d54f0e8	0.05198756
185	0xbda889c0	-0.08229399
186	0x3dc4736c	0.095923275
187	0xbc73d480	-0.014882207
188	0xbde90750	-0.11378348
189	0x3e686410	0.22694421
190	0xbe77692a	-0.2416121
191	0xbb07db80	-0.0020730197
192	0x3db38644	0.087658435
193	0x3b86a540	0.004109055
194	0xbdcef650	-0.10105574
195	0x3e2b955e	0.16756198
196	0xbe3d85be	-0.1850805
197	0xbe23613c	-0.1595506
198	0xbcaface0	-0.021444738
199	0x3e4c0ba2	0.19926313
200	0xbe1eb750	-0.15499616
201	0x3dac26a8	0.084058106
202	0x3d8984a8	0.06714755
203	0xbe62594e	-0.2210438
204	0xbdb33eec	-0.08752236
205	0xbcdd1940	-0.02698958
206	0x3d803bc4	0.062613994
207	0x3dd76c68	0.10518724
208	0xbd8354e8	-0.06412679
209	0x3e2e1394	0.16999656
210	0x3e431856	0.19052252
211	0xbd55fe08	-0.052244216
212	0x3cc672b0	0.02422461
213	0x3db43df4	0.08800879
214	0xbe49e280	-0.19715309
215	0x3e0e6dca	0.13909069
216	0xbe3a7234	-0.18207628
217	0xbb1df700	-0.0024103522
218	0xbd5dcb08	-0.054148704
219	0xbe450414	-0.19239837
220	0xbd9a9aac	-0.075490326
221	0xbd9351b8	-0.07193321
222	0x3d172f60	0.036910415
223	0xbe3b1ab2	-0.18271902
224	0x3d0eb980	0.034844875
225	0xbc19bc40	-0.009383261
226	0x3df83454	0.12119356
227	0x3e1dc788	0.15408146
228	0x3e750a40	0.23929691
229	0xbe283d78	-0.16429698
230	0x3cab7b50	0.020932823
231	0xbe64f4f6	-0.2235907
232	0xbe123784	-0.1427899
233	0xbe6e7096	-0.23285136
234	0x3bf14700	0.0073632
235	0x3e0cffd4	0.13769466
236	0xbdb565cc	-0.08857307
237	0x3e5dbeda	0.21654835
238	0x3e09c198	0.13452756
239	0xbd86eef8	-0.065885484
240	0x3dd06a3c	0.101765126
241	0x3e51389c	0.20431751
242	0x3e07cdb8	0.13262069
243	0x3e6152a4	0.22004181
244	0xbe33859c	-0.17531437
245	0x3e50525a	0.20343915
246	0xbe583ee6	-0.21117744
247	0xbcfc85b0	-0.030825466
248	0x3d621c78	0.05520293
249	0x3e009ed0	0.12560582
250	0xbd2837f8	-0.041069
251	0xbd0d78f8	-0.034539193
252	0x3dbaf748	0.091291964
253	0xbd0c1830	-0.034202754
254	0x3e6be10e	0.2303507
255	0xbdc7c724	-0.0975478

bias f4 [64]
0	0xbe0536fe	-0.13009259
1	0x3e7017a0	0.23446512
2	0xbe5d6a40	-0.21622562
3	0xbd102fe8	-0.035201937
4	0x3d0a1cb8	0.033718795
5	0x3e5bbd7e	0.21459004
6	0xbdcda19c	-0.1004059
7	0x3e3ed7a6	0.18636951
8	0x3e12c8fa	0.14334479
9	0xbe7184d8	-0.23585832
10	0x3e745d5c	0.23863739
11	0xbe307664	-0.17232662
12	0xbd6614f0	-0.05617231
13	0xbe354372	-0.1770151
14	0x3e459102	0.19293597
15	0xbe6a0eec	-0.22857255
16	0xbbac3dc0	-0.0052563846
17	0x3e55b4e6	0.20869789
18	0x3e2429c2	0.16031554
19	0x3dafbc20	0.08580804
20	0xbe7e496c	-0.24832696
21	0xbd428eb0	-0.04749936
22	0xbe034e14	-0.12822753
23	0x3bfec780	0.007775247
24	0x3e79e226	0.24402675
25	0x3d123e68	0.035704046
26	0xbd31d900	-0.043419838
27	0xbe08a532	-0.13344267
28	0xbe67ad9c	-0.2262482
29	0xbcfdad80	-0.03096652
30	0xbe3347ce	-0.1750786
31	0xbbd18c40	-0.006394893
32	0xbe62a80a	-0.22134414
33	0x3d6f5ef8	0.05844018
34	0xbd93ee10	-0.07223141
35	0xbe6d1da8	-0.23155844
36	0xbd3682a8	-0.044558197
37	0xbe3d0854	-0.18460208
38	0xbcff3cb0	-0.031156868
39	0x3e2f205c	0.17102188
40	0xbe765910	-0.24057412
41	0xbe545108	-0.20734036
42	0x3e3087d4	0.17239314
43	0x3daef0c8	0.08542019
44	0xbe11054a	-0.14162174
45	0x3e695606	0.22786722
46	0xbe1031d6	-0.14081511
47	0x3e72b304	0.23701102
48	0x3dfd9b08	0.123830855
49	0x3dccd6b8	0.10001892
50	0x3e186274	0.14881307
51	0xbe1d7ce6	-0.15379676
52	0xbe5fa3fc	-0.21839899
53	0xbd42d5b0	-0.04756707
54	0xbc495200	-0.012287617
55	0xbdcc5b70	-0.09978378
56	0xbdd101e8	-0.10205442
57	0x3e58b154	0.21161395
58	0xbe37ef12	-0.17962292
59	0xbcf31aa0	-0.029675782
60	0x3daab51c	0.08335325
61	0xbe756cc8	-0.23967278
62	0xbdcc305c	-0.09970161
63	0xbe3a6d0e	-0.18205664

weight f4 [64, 64]
0	0x3d941f1c	0.07232496
1	0x3cce4070	0.02517721
2	0x3dd6b260	0.10483241
3	0x3d3dea70	0.046366155
4	0x3ddaf900	0.10692024
5	0xbda66788	-0.08125216
6	0x3dcf7da8	0.10131389
7	0xba328000	-0.00068092346
8	0x35ac0000	1.2814999e-06
9	0x3b9e4080	0.0048294663
10	0xbcf9c940	-0.030491471
11	0xbddade8a	-0.10686977
12	0xbd85f0da	-0.065400794
13	0x3d61d0b4	0.055130675
14	0x3bddf8e0	0.006774053
15	0xbd9b7a8c	-0.07591733
16	0xbd9a6396	-0.07538526
17	0x3ddc6150	0.107607484
18	0x3de494c6	0.11161189
19	0xbde71bb0	-0.11284578
20	0xbd862fb6	-0.06552069
21	0xbbfb2340	-0.0076641142
22	0xbc81ed00	-0.01586008
23	0xbd6697c4	-0.05629708
24	0x3d9eef78	0.07760519
25	0x3d0ffac4	0.035151258
26	0xbdba832e	-0.09107052
27	0x3dafa24a	0.08575876
28	0xbccf9300	-0.02533865
29	0x3dd60662	0.10450436
30	0xbdf61346	-0.12015395
31	0xbd86f568	-0.06589776
32	0xbca99318	-0.020700023
33	0xbd8348b0	-0.064103484
34	0x3d406ad0	0.046976864
35	0x3c7183c0	0.014740884
36	0x3d464d30	0.048413455
37	0x3bc5e840	0.0060396492
38	0x3d983bee	0.07433306
39	0xbdeb2086	-0.11480813
40	0xbdc28208	-0.09497458
41	0xbd910512	-0.07081045
42	0x3d480edc	0.048842296
43	0x3da185a4	0.07886818
44	0xbd91541a	-0.07096119
45	0xbd72f8c0	-0.059319258
46	0xbdba76ca	-0.091046885
47	0x3dbdfd1c	0.092767924
48	0xbdc02f68	-0.09384042
49	0xbda2f266	-0.0795639
50	0xbd3f74d8	-0.04674229
51	0xbdd5be0c	-0.10436639
52	0xbc5c3280	-0.0134397745
53	0x3d93ce98	0.07217139
54	0xbde47298	-0.111546695
55	0xbd583e70	-0.05279392
56	0x3d7b1090	0.061295092
57	0x3db7bfe0	0.08972144
58	0xbdeed6a0	-0.1166203
59	0x3d859fbe	0.06524609
60	0xbdf06cee	-0.11739527
61	0x3d195cf4	0.037442163
62	0xbc4e6340	-0.012596905
63	0xbdad45d6	-0.08460586
64	0x3dfcd8ee	0.123460636
65	0xbdb31cce	-0.087457284
66	0x3cf30880	0.029667139
67	0xbdc00960	-0.09376788
68	0x3dee125e	0.11624597
69	0x3d7a9124	0.061173573
70	0xbc3b5790	-0.011434451
71	0xbd4ef2a8	-0.050524384
72	0x3cc748f0	0.024326771
73	0x3d56d554	0.05244954
74	0x3c956718	0.018237635
75	0x3d828f7a	0.06375022
76	0x3d3da30c	0.04629807
77	0xbc743630	-0.014905497
78	0xbdabcd90	-0.08388817
79	0xbd7ef99c	-0.062249765
80	0xbdec332c	-0.11533198
81	0x3dfc0a5a	0.12306662
82	0x3d5e8d88	0.054334193
83	0xbd3a315c	-0.04545723
84	0xbd7a8920	-0.06116593
85	0x3d204cf4	0.03913589
86	0xb8741000	-5.8189034e-05
87	0xbccf3f38	-0.0252987
88	0xbb5c1440	-0.0033581406
89	0x3c9b2e50	0.018942982
90	0xbd7aae7c	-0.061201558
91	0x3d8d9c8e	0.06914626
92	0x3cb96550	0.022631317
93	0xbcd5e5c0	-0.02611053
94	0x3ad9c280	0.0016613752
95	0xbc5c9db0	-0.01346533
96	0x3de6dee0	0.11272979
97	0x3d7e4d80	0.06208563
98	0x3dcafb8a	0.099112585
99	0x3d74baf4	0.059748605
100	0xbda86e46	-0.08224158
101	0x3d6915b4	0.056905463
102	0x3dfedf88	0.12444979
103	0xbde847ec	-0.11341843
104	0xbdb7d108	-0.089754164
105	0xbdca7d88	-0.098872244
106	0xbc87e470	-0.01658842
107	0x3ccc0988	0.024906889
108	0x3d32f97c	0.043694958
109	0xbb5dd300	-0.003384769
110	0xbd8d72e4	-0.06906679
111	0xbbb0ef60	-0.0053996295
112	0xbd2ced1c	-0.042218313
113	0x3b80c0e0	0.0039292425
114	0x3d761fb8	0.060088843
115	0xbd3de8e8	-0.046364695
116	0xbca57d88	-0.02020146
117	0xbcec2d40	-0.02883017
118	0xbdbaba1a	-0.09117527
119	0xbdff16c8	-0.12455517
120	0x3df834d4	0.12119451
121	0x3dc7d4e2	0.09757401
122	0xbddfe072	-0.109314814
123	0x3d07b138	0.033127993
124	0x3d58e8f4	0.052956536
125	0x3d42d4d0	0.047566235
126	0x3d584ea4	0.052809373
127	0xbd951914	-0.07280174
128	0x3dc3bc64	0.09557417
129	0x3c372930	0.011179253
130	0x39ac4e00	0.0003286451
131	0x3cc98510	0.024599582
132	0xbc671c80	-0.014105916
133	0x3c0aa300	0.008461714
134	0xbd8ff02c	-0.07028231
135	0xbd8a2a20	-0.06746316
136	0x3c91fcf0	0.017820805
137	0x3dd73248	0.10507637
138	0x3cdbdd88	0.026839033
139	0x3d0920bc	0.033478484
140	0x3d1a3360	0.03764665
141	0x3d93e16a	0.07220729
142	0x3ddb5be0	0.10710883
143	0xbdf92614	-0.12165466
144	0xbd676074	-0.05648847
145	0xbdfd8bb0	-0.12380159
146	0x3d98be46	0.07458167
147	0x3c830340	0.01599276
148	0x3dfec12a	0.12439187
149	0x3ddbf4b6	0.10740034
150	0x3dfe8506	0.12427716
151	0x3c3d7930	0.011564538
152	0xbdbad936	-0.09123461
153	0x3ddaf372	0.10690965
154	0x3b97daa0	0.0046342164
155	0xbc525dc0	-0.012839735
156	0xbd21b89c	-0.039482698
157	0x3d1f08c0	0.038826704
158	0x3de132f8	0.1099605
159	0x3dc7a656	0.09748523
160	0xbd9c5060	-0.07632518
161	0xbadf3680	-0.0017029792
162	0xbbf159c0	-0.0073654354
163	0xbd0d69bc	-0.034524664
164	0x3d61e7ac	0.05515258
165	0x3d8de3aa	0.06928189
166	0x3d885528	0.06656867
167	0xbd05f558	-0.03270468
168	0xbd90d8b8	-0.07072586
169	0xbd7dafc8	-0.061935216
170	0xbdb07a8a	-0.086171225
171	0xbd87a832	-0.066238776
172	0x3dc18576	0.09449284
173	0xbd82484e	-0.06361447
174	0x3b4ab8c0	0.0030932873
175	0xbd950274	-0.072758585
176	0x3dd0f138	0.10202259
177	0x3cbc21d0	0.022965342
178	0xbaefc300	-0.0018292367
179	0x3c9455b8	0.01810728
180	0xbd99a12a	-0.07501443
181	0x3c441e30	0.011970088
182	0xbd88c5dc	-0.06678364
183	0xbdeae7e4	-0.11470011
184	0x3dad981a	0.08476277
185	0xbdd6b16e	-0.10483061
186	0x3b9d2b80	0.0047964454
187	0xbd6ca4c8	-0.057774335
188	0x3dc7d8bc	0.09758136
189	0x3dcabd0c	0.09899339
190	0x3d08fbac	0.033443138
191	0xbd40dabc	-0.0470836
192	0x3ce23aa8	0.02761586
193	0x3d80084c	0.062515825
194	0x3d77b210	0.060472548
195	0x3d9720a8	0.073792756
196	0x3d8c19c8	0.06840855
197	0x3c816ba0	0.01579839
198	0x3ddf7336	0.109106466
199	0x3cd937d8	0.026515886
200	0x3dd52dc2	0.10409118
201	0x3cc3d148	0.023903504
202	0x3c92c6f8	0.017917141
203	0x3dfa74a2	0.12229277
204	0x3d9ad792	0.07560648
205	0x3cb962a8	0.02263005
206	0x3dc81a02	0.097705856
207	0x3dbec740	0.09315348
208	0xbcec3ae8	-0.028836682
209	0xbd871202	-0.065952316
210	0xbdce4ed0	-0.10073626
211	0xbde79bd6	-0.1130902
212	0xbd6013f0	-0.054706514
213	0x3dab34d8	0.083596885
214	0xbde592c0	-0.11209631
215	0xbd21e1b8	-0.039521903
216	0x3de0b216	0.10971467
217	0xbcc4f498	-0.024042413
218	0xbddd755a	-0.10813399
219	0xbd5d9030	-0.054092586
220	0x3d2f8924	0.042855397
221	0xbd4833e0	-0.048877597
222	0xbd8c0c2e	-0.068382606
223	0x3c445090	0.011982098
224	0xbcdf7bb8	-0.027280673
225	0xbdca26ec	-0.09870705
226	0xbdf48148	-0.11938721
227	0x3d91144a	0.07083948
228	0xbcbda8a0	-0.023151696
229	0x3dffecf4	0.12496367
230	0x3c90e2a8	0.017686203
231	0x3ac2b300	0.0014854372
232	0x3d1322e0	0.03592193
233	0x3d31c25c	0.043398246
234	0xbdf640e0	-0.12024093
235	0x3c026710	0.007959142
236	0x3d677648	0.056509286
237	0xbd268b50	-0.040660203
238	0x3de8fb7e	0.11376093
239	0x3da20024	0.07910183
240	0x3c50fe50	0.012755945
241	0xbd6f80fc	-0.05847262
242	0x3c654470	0.013993368
243	0x3c2e67e0	0.010644883
244	0x3d13fe3c	0.03613113
245	0xbd509c4c	-0.050930306
246	0xbd09f31c	-0.033679113
247	0x3d57d614	0.052694395
248	0xbc1fe360	-0.0097588
249	0x3d4b7554	0.04967244
250	0x3cc61020	0.02417761
251	0x3dc7dd0c	0.09758958
252	0xbd0bf274	-0.03416677
253	0x3d218d28	0.039441258
254	0x3de98448	0.11402184
255	0xbd8ec5c4	-0.069713145

bias f4 [64]
0	0xbd1f081c	-0.038826093
1	0xbce81a38	-0.028332815
2	0xbd99dc0a	-0.07512672
3	0xbd8137ec	-0.063094944
4	0xbd864330	-0.06555784
5	0xbcb638a0	-0.022243798
6	0x3cd7b560	0.026331604
7	0x3d1c4ef4	0.038161233
8	0x3dc96e16	0.0983545
9	0xbc5bf6a0	-0.013425499
10	0x3d8a7108	0.0675984
11	0x3b941b60	0.004519865
12	0x3da8a5d0	0.08234751
13	0x3c973920	0.018459857
14	0xbc6ef920	-0.014585763
15	0x3d4c9488	0.049946338
16	0x3dc742ba	0.09729524
17	0xbdcb22c2	-0.09918739
18	0x3da97a3a	0.08275266
19	0xbddbd9bc	-0.10734889
20	0x3af91d00	0.0019005835
21	0xbdfd4ce4	-0.12368181
22	0x3daea1d4	0.0852696
23	0x3c9f41b0	0.019440502
24	0x3bd98960	0.006638691
25	0x3b316740	0.0027069598
26	0xbd320c84	-0.043468967
27	0x3d0eee94	0.034895495
28	0xbd5a3568	-0.05327359
29	0x3cba2048	0.022720471
30	0x3c600f50	0.013675526
31	0xbd864962	-0.065569654
32	0xbde55ce6	-0.111993596
33	0x3c876638	0.016528234
34	0xbdf0a0e8	-0.117494404
35	0x3d76d520	0.060261846
36	0xbdc179a4	-0.09447029
37	0xbd7b5974	-0.061364606
38	0x3de8523c	0.1134381
39	0x3d8d65d4	0.06904188
40	0xbd85ee80	-0.06539631
41	0xbdc8fda8	-0.09814006
42	0xbd9008c6	-0.070329234
43	0x3dbbb26e	0.09164892
44	0xbde10644	-0.10987523
45	0x3ddd3d0c	0.108026594
46	0xbdab41e4	-0.08362177
47	0xbbf66900	-0.007519841
48	0x3d741f6c	0.05960028
49	0x3d0a062c	0.033697292
50	0x3ab89880	0.0014083534
51	0x3d4352cc	0.047686383
52	0x3c869910	0.016430408
53	0xbdd864a0	-0.10566068
54	0xbdc1f886	-0.0947123
55	0x3ddddbaa	0.10832913
56	0xbd9bc5f4	-0.07606116
57	0x3dae2938	0.085039556
58	0x3d3ef77c	0.04662274
59	0xbdaeb156	-0.08529918
60	0xbde15e70	-0.11004341
61	0x3cdf51b8	0.027260646
62	0x3d61b1f8	0.055101365
63	0xbccea980	-0.025227308

weight f4 [1, 64]
0	0x3de2e5b4	0.11078969
1	0xbdc4791a	-0.09593411
2	0x3d1d3ba0	0.03838694
3	0xbdb00dde	-0.08596395
4	0x3ddac27c	0.10681626
5	0xbda6a58a	-0.08137043
6	0xbb9d77c0	-0.004805535
7	0x3b1d1b40	0.002397254
8	0x3d3c0e78	0.045912236
9	0x3d4c2c5c	0.049846992
10	0x3de74d20	0.11294007
11	0x3d65d0d4	0.056107357
12	0x3d3bb9ac	0.045831367
13	0xbdc203e8	-0.09473401
14	0xbd3a2f9c	-0.04545556
15	0x3d08d3e4	0.0334052
16	0x3ddb9dd8	0.10723466
17	0x3d2c5810	0.04207617
18	0xbd790210	-0.060792983
19	0xbd0cb850	-0.03435546
20	0x3df32acc	0.11873397
21	0x3d07f4d8	0.033192486
22	0x3dbb4d3a	0.09145589
23	0xbdb6517e	-0.08902262
24	0xbdb7e324	-0.089788705
25	0xbdf8794a	-0.12132509
26	0xbcf7b438	-0.030237302
27	0xbdb61252	-0.08890213
28	0x3da9ec68	0.08297044
29	0xbdd3f39a	-0.10349198
30	0xbdb36c5a	-0.08760901
31	0x3d8680d2	0.06567539
32	0xbc966e10	-0.018363029
33	0x3dc567ce	0.0963894
34	0x3c9babd8	0.01900284
35	0xbd5e6d6c	-0.05430357
36	0x3ceb3f58	0.028716728
37	0xbd9a495a	-0.07533522
38	0xbc1ce170	-0.009575233
39	0xbd4d0b9c	-0.0500599
40	0x3df612ac	0.1201528
41	0x3d270488	0.040775806
42	0xbcd780a0	-0.02630645
43	0x3d9aa3a4	0.07550743
44	0x3deb97a0	0.115035295
45	0x3d98f0c8	0.074678004
46	0xbc8ed810	-0.017437011
47	0xbde025c2	-0.10944702
48	0xbca7cee0	-0.020484388
49	0xbcbdbf88	-0.023162618
50	0xb8ca4000	-9.6440315e-05
51	0x3d9f0f8a	0.07766636
52	0xbd8488d8	-0.064714134
53	0x3d899542	0.06717922
54	0xbd9786cc	-0.07398757
55	0xbd3a75d4	-0.045522526
56	0xbd465cc4	-0.048428312
57	0xbd0e89ac	-0.034799263
58	0x3dbaef42	0.09127666
59	0x3c24ce70	0.010058984
60	0xbdc3a42e	-0.09552799
61	0x3cb35598	0.0218914
62	0x3d8a1756	0.06742732
63	0x3da71b4e	0.08159505
