output/2021-12-16_ddpg/2021-12-16_00-16-22-ddpg_s0/pyt_save/model.pt (torch_old, 48415 bytes, 11 tensors)

weight f4 [64, 16]
00000000: 0054 f5ba 5e54 093e 16b3 52be 8066 3cbe
00000010: f432 c5bd ec4b 893d 404f a2bb cefa 4a3e
00000020: 70bf b5bc 4c7b 873d acbb 9abd 7048 49bd
00000030: b891 74be 528b 29be e80e d3bd 00bb 173c
00000040: dfde 66bd a35e 703e b6c6 2bbe ed2e 66bd
00000050: 092e c03b 0ea1 a63d a184 fcbd 3484 373e
00000060: 33fb 8a3d 1fb1 53bd f655 d53e e361 0cbe
00000070: c1f3 87be 330b f2bd 869b 63be c0f9 c63d
00000080: aee8 95be 7baf 7bbe fab0 3bbe b08b 6dbe
00000090: 245b 73bc 813c df3d d82a 3b3d 00b4 5a3d
000000a0: b85a fcbd b7f8 48be 4360 a93e f2f8 adbe
000000b0: f44c 94be e0cb 59be f9fb 87bd 239f 233d
000000c0: 4146 d7bb 4a17 e13d f0a0 223e 690a 3e3e
000000d0: ad18 e73b 65c5 d83d 0f90 973d 58b7 4abe
000000e0: 2a95 4f3d 0260 97be 4aec b8bd a7bb 883d
000000f0: 2c07 86bc 27ad 873b 024e 65be 48bb 57bd
00000100: 6e89 0c3e 203f 01bd 4064 1c3c 0044 6d3d
00000110: 00d1 1e3e 48cf 753e 9647 45be eca1 bbbd
00000120: 9838 c93d d01b 543e e8c5 5e3e 22e2 613e
00000130: 78ca 4b3d f89c 5ebe 9066 bc3c ac27 20be
00000140: 8c94 6ebe 3e74 633e f0a6 423e fe5d 7fbe
00000150: 08aa 3f3d c880 2cbd b882 28bd 1c5f eabd
00000160: 8ce4 c43d 34a1 17be dcb1 bb3d 1676 013e
00000170: 5c43 373e 4871 bf3d 4a5f 7dbe 0011 26be
00000180: 7cb4 1c3e 677a abbe 3e25 4cbe 1e58 86be
00000190: 0b65 263f f24a 293e 4e39 5dbe 2ecd 96be
000001a0: 31b6 80be fb76 05be bfbb 48be 6de1 64be
000001b0: 0e59 22be 5f5b 4abe 2f36 75be fcfe 5e3c
000001c0: 38c9 1bbe 6849 683e d06f 2f3e 64e1 57be
000001d0: 88db 7ebd 80d2 383c 1867 153d d0dd 723d
000001e0: 5cec c83d e059 753c ccd1 f9bd d445 f23d
000001f0: 5691 75be a0bb 17be 3c2b 80bd ec66 f9bd
00000200: 6e9c 02bd 091f c0bd 9921 30bd a795 523e
00000210: 42f2 9abe 64b1 153d a019 bd3e acca 793d
00000220: 36e5 a7bd d5bf 383e 9030 c9bd eaf0 7c3d
00000230: f117 e93e 8472 c13e 634b c13e 9b9d 473e
00000240: eded 68be 48ef e9bd e94e 2e3e 502f cdba
00000250: 15d1 00be 2734 45be 8ad8 71be b516 57be
00000260: 791b 4bbd 8bcd 093e 4813 2b3e 5ee3 56be
00000270: 2411 023e c616 58be 62cb 34bd da8b 09be
00000280: 2b10 18be 75d6 66bc 1b47 69be d316 37be
00000290: d3ff a1bd 4f3a b0bd 400a 4cbe 85a4 3e3c
000002a0: 1b74 36be 90c3 f2bd 8fe0 d73e cf13 e3bc
000002b0: d658 b03d f42b 56bd 4718 c5be 02f0 9f3c
000002c0: f07e 2ebe 1da8 c4be edb6 4c3e 946d 51be
000002d0: 058f 8a3e 9082 1ebe e6d3 b33d fa44 f3bc
000002e0: cf37 f33c 10e2 8bbc 96e3 063b 0da0 21bd
000002f0: 51a9 b4be 4f17 dbbc d096 523d ab20 cc3c
00000300: 4517 8cbe dac9 06be 738d 30be 3fb8 86be
00000310: 37c0 4d3c 27d7 e7bc 7fe0 94be 9ffd 07be
00000320: 8e99 083d 4a5e 5e3c 750e c4b9 0fcc 40be
00000330: 0f4e 98be 973e f1bb ca20 5cbe eeb0 653d
00000340: 93ae e4bd 19fc 793e 5603 443c 04d0 d9bc
00000350: 5004 51be bab4 56be 6172 24bb 1bbb c73e
00000360: fd1d 0bbe 332f c4bd 6b04 d03e a8ba 1dbe
00000370: e7c7 3e3d 216a e23e 44f4 143e 91ec 3e3d
00000380: 8231 49be a599 0a3e 33dd 3bbe 87e5 bbbd
00000390: 6094 b1bd 65dc d7bc 85b2 1fbd b149 263e
000003a0: 0b17 463c 25e8 3b3e 7006 473e cfb4 0abe
000003b0: 04ab 873d 6ddd 63be 7fe5 9cbe 863a d63c
000003c0: ecda 113d d760 863e 1a84 bebd 2f36 c53a
000003d0: ddc1 b23d 39ba 8abe d5a7 093e 3726 1fbe
000003e0: 021e 0b3c a86c c0bd cfa2 9cbd 57ce 993d
000003f0: 436e 1b3e 6a90 f2bd fb54 44be 8a53 19be
-0.001871705 0.1341109 -0.20576128 -0.18398476 -0.09628859 0.06703934 -0.004953295 0.19822237
-0.022186011 0.06615314 -0.07555327 -0.049141347 -0.23883712 -0.16557053 -0.103055775 0.009260893
-0.05636489 0.23473601 -0.16775021 -0.056197096 0.005864863 0.081361875 -0.123299845 0.17921525
0.06786194 -0.051682588 0.41667145 -0.13709216 -0.26553157 -0.11818542 -0.22227296 0.09715605
-0.29279083 -0.24578659 -0.1832923 -0.23197818 -0.014853273 0.10900212 0.045695156 0.053394318
-0.12321991 -0.19626127 0.33081254 -0.33978993 -0.2896496 -0.21269178 -0.06639857 0.039946686
-0.006569654 0.1099077 0.15881705 0.18558659 0.007052502 0.10584525 0.07400524 -0.19796503
0.050679363 -0.29565436 -0.090294436 0.06676417 -0.016360842 0.0041405144 -0.22393039 -0.05266884
0.137243 -0.03155434 0.009545386 0.057926178 0.15509415 0.24004853 -0.19265589 -0.091617435
0.098252475 0.20713735 0.21755183 0.22058919 0.049753636 -0.21739566 0.022998124 -0.15640134
-0.23298854 0.22212312 0.19008994 -0.24938199 0.046793014 -0.042115003 -0.041140288 -0.11443922
0.09613904 -0.14807588 0.09164783 0.12642702 0.1789679 0.093477786 -0.24743381 -0.16217422
0.15303224 -0.33491823 -0.19936082 -0.26239103 0.6499793 0.16532496 -0.21603891 -0.29453415
-0.25139 -0.13033669 -0.1960287 -0.22351618 -0.15854284 -0.19761418 -0.2394645 0.013610598
-0.15213478 0.22684252 0.17132497 -0.21082073 -0.06222108 0.011280656 0.03647527 0.059293568
0.09810707 0.014975041 -0.12198219 0.11829725 -0.23981223 -0.14817667 -0.06258246 -0.12177834
-0.031887464 -0.093809195 -0.04300079 0.205649 -0.30262953 0.036546126 0.36933613 0.0609843
-0.081980154 0.18041928 -0.09823716 0.06175319 0.45526078 0.3778268 0.37752828 0.19493715
-0.22747011 -0.114225924 0.1702229 -0.0015654359 -0.12579758 -0.19258176 -0.2361776 -0.21004756
-0.049586747 0.13457315 0.16706574 -0.20985171 0.12701851 -0.21102437 -0.044139273 -0.13432255
-0.14849918 -0.0140892165 -0.22781031 -0.178798 -0.07910123 -0.086048715 -0.19925785 0.011635904
-0.17817728 -0.11853707 0.42163512 -0.027719406 0.08610694 -0.05228801 -0.38495085 0.019523624
-0.1704061 -0.3840951 0.19991656 -0.20451957 0.2706224 -0.15479493 0.08780651 -0.029695977
0.029689698 -0.017075568 0.002058243 -0.039459277 -0.35285428 -0.026744513 0.051413357 0.024917921
-0.27361503 -0.13162938 -0.17241459 -0.26312444 0.012558035 -0.028300835 -0.29077527 -0.13280343
0.033349566 0.013572285 -0.00037394805 -0.18827842 -0.29747054 -0.0073621976 -0.21496883 0.056076936
-0.1116611 0.24412574 0.011963686 -0.026588447 -0.20411801 -0.20967379 -0.002509259 0.39009938
-0.13585658 -0.09579315 0.4062837 -0.15403235 0.04657736 0.44221595 0.14546305 0.046612326
-0.19647792 0.13535173 -0.183461 -0.09174638 -0.086708784 -0.02635021 -0.03898861 0.16239049
0.012090455 0.18350275 0.1943605 -0.13545536 0.066244155 -0.22252436 -0.30643842 0.026150953
0.03560917 0.26245758 -0.0930254 0.0015046055 0.08728383 -0.27095202 0.13442929 -0.15541922
0.008491041 -0.093957245 -0.07648241 0.07510059 0.1517878 -0.11843951 -0.19173042 -0.14973274

bias f4 [64]
00000000: c07e 8fbc aa37 aabe d5d9 65be 8023 12bc
00000010: 70a8 adbd dab2 303e 66eb ad3d 10f6 143d
00000020: 623a 3c3e b35d b6bd f713 00be 0e72 a6bd
00000030: 71e0 a2be 16dd 39bd c0fb 80be 23c4 ca3d
00000040: b407 23be 500b 973e f21c e0bd 9c0e 47be
00000050: 544e b23d 17ed a23d c1f9 ec3d daad 2f3e
00000060: 6a7a b4be c7d6 603e 0592 1abe 5074 c23b
00000070: e492 223e d41f 933d ffd6 9abe 37a8 aabd
00000080: f586 b53e 744a c63d 5042 363e 0708 0abe
00000090: 7038 0dbe 5482 393e 9875 fd3d 54d3 4b3e
000000a0: 54dc d5bd 7e5e 24be 500d f0bc 1540 85be
000000b0: fe41 9c3e 083b 8f3e 84b1 4d3d 9af1 1fbe
000000c0: dd77 4b3e e9d4 24be 54fd 243e ab46 8abe
000000d0: b1f7 b9bd 0e3b c33d 95b2 823e c8e0 c33d
000000e0: 11d9 a73b ea13 3bbe e08f 643c c0d9 e4bc
000000f0: 3fbb 003e d8f7 d33c 5ed5 a93d 484e a7bd
-0.017516494 -0.33245593 -0.22446378 -0.008919597 -0.084793925 0.17255726 0.08492164 0.036367476
0.18381646 -0.089045905 -0.12507616 -0.08127223 -0.3181186 -0.04537686 -0.2519207 0.09900691
-0.15920907 0.29500818 -0.10943021 -0.19439167 0.08706346 0.079553775 0.11571074 0.17156163
-0.35249645 0.21956931 -0.15094765 0.0059342757 0.15876347 0.07183805 -0.30242154 -0.08332866
0.35454527 0.096821696 0.17798734 -0.13479625 -0.1379106 0.18116122 0.12375945 0.19904834
-0.10442415 -0.16051671 -0.029303223 -0.26025453 0.30519098 0.27974725 0.05021812 -0.15619507
0.19869943 -0.16096844 0.16112262 -0.2700704 -0.090804465 0.09532748 0.25526872 0.09564358
0.005122312 -0.18269315 0.013950318 -0.027935863 0.12571429 0.025875017 0.0829265 -0.08169228

weight f4 [64, 64]
00000000: 604f fcbb 3cd3 2bbd 8872 10bc ca5b a63d
00000010: 6c4f 4dbd 76fc 9e3d 93db 563d 087d eebc
00000020: 7a8c 583e 20ec eabd 5bac 0f3d 015a c83c
00000030: 1f40 8f3d 2527 063e 18d3 c93d baec bc3d
00000040: 8081 adbd 7518 633e 4ccd c8bd 32f0 d9bd
00000050: 3ae8 553e 8428 193e 259c b03c f708 7e3d
00000060: b436 46bd da9f 053e 38f4 ecbd 1ff3 453d
00000070: e0ea 813c 686c b8bd cc46 e0bd 3c44 45bd
00000080: bbbc 273e e8a0 e8bd 34f0 aabd 7048 063c
00000090: 9866 f1bd 80ed 8fbc c64c a5bd 0078 b1bd
000000a0: 5c3b 493d 620a c5bd 6c01 c2bd f8fd 913d
000000b0: 054f 763e 28b4 8e3e f4da 08bd c04d 77bd
000000c0: 9f13 1e3e 00c9 253a 8031 393e 0fb6 a53c
000000d0: a0dd 4c3e 4f97 813e 48c8 d63d 2663 dc3d
000000e0: f6fe a93d 530f 91ba 88a4 f23c 1631 c6bd
000000f0: b46d 643e eee3 dabd d863 9d3d 8456 f2bd
00000100: 622f d7bd 0073 f13a 9cb9 c93d be3c dbbd
00000110: f061 64bd 20d7 e03d e0b8 abbc 1c1d 543d
00000120: 8445 f6bd a403 21bd 4a01 82bd dcd2 d73d
00000130: 1c80 543d 06cc babd b018 a53c 004f bcba
00000140: 885d 52bd 1432 92bd c0e6 29bd 36c9 c93d
00000150: a283 b7bd 225c b6bd 38f6 1dbd c082 0e3b
00000160: 5c5f 0b3d 80d3 753b c880 f6bc c439 9bbd
00000170: 30bd b7bc 781b 4ebd 6cd4 ce3d 5e31 f9bd
00000180: ba4a a3bd 7247 d0bd 9824 bbbc 767e c73d
00000190: e064 e03d b6dc debd 8077 b1bb 6a43 963d
000001a0: 34b0 613d cab0 d13d 403b 63bb 2a01 acbd
000001b0: 105a a93d 8092 2fbd a28d 843d d859 fcbc
000001c0: f0a5 593d c840 e63d 020b ee3d 06fa e8bd
000001d0: c656 a9bd ecb1 53bd 6040 a3bd cca1 f53d
000001e0: 80e0 34bc b0d0 a9bd a8d5 63bd c467 8dbd
000001f0: fce3 503d da4b dfbd f8b1 eebd d85a fcbd
00000200: a86d 5c3d be51 143d 52ca efbd 7c36 c23c
00000210: acf9 bc3d e0c9 943c da0d 61bd a04f 173c
00000220: a5c5 91bd 52e5 803d b83f efbd 346f be3c
00000230: f591 d33c ef8c cabd f33d cb3d 8f6c 0e3e
00000240: 58d8 49bd 3a81 35bd b0fc 8c3d e873 25be
00000250: b924 823b bf69 d53c 7707 a63d bd00 19be
00000260: 6f0e e1bd 337e 583d 5b51 173d b14a 10be
00000270: c6c2 8ebd 8cb7 20be b47a c5bd b7b9 e5bd
00000280: a304 1b3d 00d4 cbbc a3f2 a93d 1e8f 313d
00000290: bc55 693d 822c e5bd bcac cd3d 4a62 233d
000002a0: b26a c63d f486 fcbd b071 9d3d ee8b d13d
000002b0: 8713 24be 66e1 1fbb 528a da3d a49d debd
000002c0: 8780 96bd c03d 623d ebb6 a9ba 2de9 313d
000002d0: bc42 813d 2260 903d ee6f d3bc 6147 9b3d
000002e0: 02fa 0ebe 6ebf b8bd ec38 cfbc d417 18bd
000002f0: 9bc7 a03d 403b 953c eed0 a43d e2d8 b53d
00000300: a03b bfbd d7f6 db3a 4dac ecbd 1b96 f839
00000310: c0a4 833d 70ba 4bbd e7fa 17bd ae34 d63d
00000320: 3cc1 233e bc05 adbd 7ad5 db3d 6197 023e
00000330: 3eef 89bc 5a09 3c3e 8fb1 fdbd 07b3 e9bd
00000340: 9089 403d 1a81 5a3e 71eb 943d af47 9dbd
00000350: 858c e43d 81f2 753e 28e0 283e bee6 933e
00000360: 5a57 743d e52b 2a3e c647 babd 59ea 1f3e
00000370: 5805 e5bd cd22 873d 0f2e c83d a6a5 fe3c
00000380: bd5f 173d 9e08 babd 5e6d 623d 44ea ad3d
00000390: fc64 fcbd be03 c3bd 195f d53d 9b53 c83c
000003a0: a05e ffbb 680c b73c e0b0 9bbc 82d3 aabd
000003b0: b346 a73d 2969 9a3e c367 e3bc c35c 8dbd
000003c0: 6b9d ef3d 56d0 8abd 0117 17bd 9e72 8d3b
000003d0: 9893 8a3e c558 8d3e bc7d 513e 2afa 8d3e
000003e0: cad4 6b3d 7a48 3ebe 7562 c43c 90f9 0c3d
000003f0: ef15 0b3e b284 f13d e19b 533c 0d29 923d
-0.007699892 -0.041949496 -0.008816369 0.08122976 -0.05012457 0.07762997 0.052455496 -0.029112354
0.21147338 -0.114708185 0.03507648 0.02445698 0.06994652 0.1310087 0.09854716 0.092248395
-0.08471966 0.22177298 -0.09804782 -0.10641517 0.20889369 0.14956862 0.02155883 0.06202027
-0.048392013 0.1304926 -0.115700185 0.04832756 0.015859067 -0.09005052 -0.109510034 -0.048160776
0.16380589 -0.113588154 -0.08346596 0.008195981 -0.11787146 -0.017569304 -0.08071284 -0.08665466
0.049128875 -0.09621121 -0.094729275 0.07128519 0.24053581 0.27871823 -0.033411935 -0.060376883
0.15437172 0.0006324202 0.18085289 0.020228414 0.20006418 0.25310752 0.10487419 0.107610986
0.08300583 -0.0011067189 0.02961947 -0.09677331 0.22307473 -0.106880054 0.07685059 -0.11832908
-0.105070844 0.0018421113 0.09849855 -0.10704945 -0.055757463 0.10978532 -0.020962179 0.051785573
-0.12024978 -0.039310113 -0.06347902 0.10538265 0.051879987 -0.09120946 0.020153373 -0.0014366806
-0.05135873 -0.07138458 -0.041479826 0.09852831 -0.08960654 -0.08904292 -0.03856489 0.0021745414
0.03402649 0.0037510097 -0.030090705 -0.07579377 -0.022429079 -0.050319165 0.1009911 -0.12167619
-0.07973237 -0.10169877 -0.022844598 0.097409174 0.109567404 -0.10881941 -0.005415857 0.07337077
0.05509968 0.10238798 -0.0034672767 -0.083986595 0.08269131 -0.042864323 0.06472327 -0.03080456
0.053136766 0.11242825 0.11623193 -0.11375813 -0.08268504 -0.05168335 -0.07971263 0.11993751
-0.011039853 -0.08291757 -0.05562368 -0.06904557 0.050998673 -0.109031394 -0.116550386 -0.123220146
0.053815514 0.036210768 -0.117085114 0.02370762 0.09227309 0.018162668 -0.05494485 0.009235293
-0.07117776 0.062937394 -0.11682075 0.023246385 0.025826434 -0.09890162 0.09923925 0.139086
-0.049278587 -0.044312693 0.06884134 -0.16157496 0.003971663 0.0260514 0.081068926 -0.14941688
-0.10989081 0.052854728 0.03694282 -0.14090993 -0.06970744 -0.15695018 -0.096425444 -0.11217063
0.03784622 -0.024881363 0.082982324 0.043349378 0.05696653 -0.1119013 0.10042712 0.039888658
0.09688319 -0.12330428 0.076877 0.102317676 -0.16023074 -0.0024395823 0.10670914 -0.10869911
-0.073487334 0.05523467 -0.001294819 0.043435264 0.06311557 0.07049586 -0.025810208 0.07581974
-0.13962558 -0.09020887 -0.025295697 -0.0371321 0.07850572 0.01821673 0.08047663 0.08879258
-0.093375444 0.0016781938 -0.11556301 0.00047414083 0.06427908 -0.049738348 -0.037104513 0.104592666
0.15991682 -0.08448359 0.10734077 0.12753059 -0.016837712 0.18362942 -0.12387382 -0.114111
0.04700619 0.21338311 0.072714694 -0.07679688 0.111596145 0.24018289 0.16491759 0.2888698
0.059653617 0.16618307 -0.09095721 0.1561674 -0.1118266 0.065984346 0.0977441 0.031084847
0.036956538 -0.09083675 0.055280082 0.08491948 -0.12323949 -0.09522198 0.10418529 0.024453929
-0.0077932626 0.022344783 -0.019005239 -0.08341123 0.08167782 0.30158356 -0.027759438 -0.069024585
0.11699947 -0.06778018 -0.036887173 0.004316642 0.2706573 0.27606788 0.2045812 0.27729923
0.05757598 -0.18582335 0.02397273 0.03441769 0.13582586 0.11792888 0.012915582 0.07136736

bias f4 [64]
00000000: 4d7e 383e 64cf 71bd 1304 213d 0646 223e
00000010: 2d96 9a3c 03c0 f43d 3adb 12be 14a5 eb3d
00000020: 4ef1 c23d 030b 08be f8ec e53b 3a85 11be
00000030: 3edf b53d 76ff a63d d197 f4bd fd72 8bbd
00000040: d354 cebc 234c 4e3d b2d4 bb3d 26b7 e83c
00000050: 231d 9f3e 2cf8 133d 7633 f23d 5796 2e3d
00000060: 316c 453c a16e d0bd 7a5f bcbd 027d e4bc
00000070: 85a8 0dbe 7856 dc3c f511 ca3d d607 b1bd
00000080: 2f77 06be ef93 393d a89c b3bd 2924 12bd
00000090: 42cf bf3c 505b d63d 9c18 c73d 6262 eabd
000000a0: 7279 69be 00ce cfbd 913b 73bd c4ad bebd
000000b0: b73e 0dbd 5dd4 58bd c535 81bc 0fe3 a1bd
000000c0: 80dd 683d 9889 b43d 219b 03bd 51a9 a83d
000000d0: 622b fbbd f2ff 193d de3c 853d 8b7f 98bd
000000e0: 6d66 093e 8af2 acbd dc75 f4bc a9dd f03c
000000f0: 328c 833e 992f ba3c 300c b5bd 79d0 debd
0.1801693 -0.059035674 0.039310526 0.15847024 0.018870438 0.11950686 -0.14341441 0.115060955
0.095186815 -0.1328545 0.0070167743 -0.14210978 0.08880471 0.08154194 -0.11943019 -0.06809042
-0.025186932 0.05036558 0.09171428 0.028407644 0.31076917 0.036125347 0.11826222 0.042623844
0.012049721 -0.10177351 -0.09197898 -0.02789164 -0.13833816 0.0268967 0.09866706 -0.08644073
-0.13131402 0.045307096 -0.08770114 -0.035679016 0.023414258 0.10466635 0.09721491 -0.11444546
-0.22800234 -0.10146713 -0.05938298 -0.09310487 -0.034483638 -0.0529369 -0.01577271 -0.07904636
0.056851864 0.088153064 -0.032130364 0.082354195 -0.12264134 0.037597604 0.0650575 -0.07446202
0.13417979 -0.08444698 -0.029841356 0.02940257 0.25692898 0.022727774 -0.08840215 -0.10879607

weight f4 [3, 64]
00000000: 141e a5be b814 cf3c 1b9f ffbd 9266 94bd
00000010: 3b7e 97bc 0003 e53b 7a1f 2a3e 1208 babd
00000020: 3dcd a8bd ba41 d439 0d7d 70bd 7500 193d
00000030: 0245 603d 182d d5bd f4eb f53d 5273 4b3e
00000040: d4e3 f1bd aec5 a73d 953b e03c a64f 053a
00000050: 4060 0cbe 5601 de3d ecf4 7b3d 8d62 65be
00000060: cded a3bd b8b7 743e 640d 823d 7f3f 33be
00000070: 4f03 1a3e e3bb 09bc 4903 6dbd b85d 113e
00000080: 1798 c2bc d9f7 f83d 1f6d 75be 9d9a 81bd
00000090: d874 a8bc 10a3 78bc 3816 923d 083a 0bbd
000000a0: 097c c23c 3e18 633b 6995 743e 1946 f0bc
000000b0: ff6e 79bd 354e 0e3e e8e3 f83d e78a 9d3d
000000c0: 1c4c fabd 7e82 fabd 6b63 30bd 8c79 86bd
000000d0: e6bc d03d 0baf 3b3d a073 28bc af3b 013c
000000e0: d311 e5bd c0af dc3d d3f1 9d3d 0dac 69bd
000000f0: e7f9 fcbd 9d2e 45bc 88c7 4ebc 6d44 84bd
00000100: b4c6 f7bd b0ad 923c 663c 71bd 9a79 9ebe
00000110: 373c 933c ee49 f93d 85c0 873d 1abb 8d3d
00000120: 60d6 aebd 0d72 693d 5018 953d 824d f93c
00000130: 7564 f0bd c21e 48bd 5793 12be 3d39 98bc
00000140: 7184 91bc e9f9 9cbc 78c8 a7bd b3fb d73c
00000150: 0c0f a6be 645a b0bd c40f 503d 6f0b 46be
00000160: 9c95 f63d 0101 063e 4c9f 12bd 507c b0bc
00000170: 9e2f 05bd 7ca2 e0bc be3a 63bc 8c2d 28be
00000180: c431 923c 5393 2dbc b30e 17bd 86e7 2e3d
00000190: 994c 9ebe ac55 b4bd a33c 043c f5a0 e73d
000001a0: f7aa 36bd f81d a43d 22f7 49bc 3451 48bd
000001b0: 96ec 45bd b04a 533d ad94 efbc 5721 363d
000001c0: b8cc c1bc cd51 8dbe 2dc9 b53d ecd1 45bd
000001d0: 7a5b ed3c 24f1 ad3d e05a b53c 8d53 87bd
000001e0: 4c75 1fbe b010 733d 0c1e 1bbc 3d40 a13d
000001f0: 8aab fcbe 2607 c0be 3b8e bc3d 17ab 393e
00000200: a6be d43d bcfd c83d 01a3 40bc d56f a83b
00000210: bd47 bc3b 8ce3 2d3d 9fd2 823d 00f5 013a
00000220: 2726 263c cfc1 863d fa26 6b3d 3973 703d
00000230: 32b7 ab3d 5286 903d 9538 663d 81ce 70bc
00000240: 8e82 0e3e b25a 75bd 91db cb3d 4f2f 09bd
00000250: bdb8 d53d 9f5c c0bb 8015 e0ba 8086 a2be
00000260: fcd3 babc 169c 3aba ec75 a43c f001 c53d
00000270: 45a4 6d3b d6b8 073e 738d 0b3e a881 b03b
00000280: b9d4 b63c 7900 553d 7869 b93d 8799 3b3c
00000290: f7d5 493e a02c 9a3b 1de1 443d a425 173d
000002a0: d521 04bb 60c8 e0bc 862e 933c b106 b23d
000002b0: 7aaa 463d 9e34 cdbd 56a3 b03d 90cb 153e
000002c0: 5e36 dfbd 150e cb3d 3aa3 623d 4d38 833c
000002d0: 7c61 d33d a130 8b3d a0b6 5e3d d603 e1bd
000002e0: cea8 963d 0eea c9bd d02f d13d 3a44 cb3d
000002f0: 6167 c33c bab9 ad3d fb2c 96bd 588e 273d
-0.3224951 0.025278434 -0.12481519 -0.07246126 -0.018492809 0.006988883 0.1661357 -0.090835705
-0.08242271 0.0004048476 -0.058713008 0.03735395 0.05475331 -0.104089916 0.12007895 0.1986821
-0.11811033 0.08192001 0.02737216 0.0005085416 -0.13708591 0.108400986 0.061512873 -0.22400875
-0.08004341 0.23898208 0.0635021 -0.1750469 0.15040325 -0.008406612 -0.05786446 0.14195907
-0.023754163 0.12156648 -0.23967408 -0.06328318 -0.020563528 -0.015175596 0.07133144 -0.03399089
0.023740785 0.00346519 0.2388512 -0.0293303 -0.06089687 0.13897021 0.12152845 0.07692509
-0.12221548 -0.12231921 -0.043063562 -0.06566152 0.101922795 0.04582123 -0.010281473 0.007887765
-0.1118504 0.10775709 0.0771214 -0.057048846 -0.123523526 -0.012035039 -0.012620814 -0.06458364
-0.120984465 0.017905086 -0.05889549 -0.3095215 0.017973049 0.12172304 0.06628517 0.069204524
-0.085369825 0.056993533 0.07280028 0.030432466 -0.11737911 -0.048857458 -0.14314018 -0.01858198
-0.017763348 -0.019162135 -0.08192533 0.026365137 -0.32433355 -0.08610991 0.050796285 -0.19340299
0.120402545 0.1308632 -0.03579645 -0.021543652 -0.032516114 -0.027421229 -0.013868986 -0.16423625
0.017845996 -0.010594207 -0.036879253 0.042701267 -0.30917814 -0.08805403 0.008071098 0.11309997
-0.04459664 0.080135286 -0.012326987 -0.048905566 -0.04832133 0.0515849 -0.029245699 0.04446539
-0.023657188 -0.27601472 0.08876262 -0.0482959 0.028974283 0.084932595 0.02213806 -0.06607733
-0.15572089 0.059342086 -0.009467613 0.078735806 -0.49349624 -0.37505454 0.09206816 0.18131672
0.10387926 0.09814021 -0.011757613 0.0051402845 0.0057458566 0.042453334 0.06387829 0.00049574673
0.010140932 0.06579935 0.057410218 0.058703635 0.08384551 0.070568696 0.056206305 -0.014697672
0.1391699 -0.059900947 0.09953988 -0.033492383 0.10435627 -0.0058704163 -0.0017096251 -0.3174324
-0.02280616 -0.00071185955 0.02007576 0.0961951 0.0036261242 0.13254103 0.13628177 0.00538655
0.022318231 0.052002404 0.0905332 0.011450178 0.19710527 0.0047050267 0.048066247 0.03690113
-0.0020161767 -0.027439296 0.01796652 0.086926825 0.048502423 -0.100198016 0.08624904 0.14628434
-0.108990416 0.09914795 0.055331446 0.016018057 0.10321328 0.067963846 0.054373384 -0.1098706
0.07356416 -0.098590955 0.10214198 0.099251226 0.023853006 0.0848269 -0.07332798 0.040907234

bias f4 [3]
00000000: a226 12bd ff73 e5bd 3d4d 653e
-0.035681374 -0.11203765 0.22392745

weight f4 [64, 19]
00000000: 2eaa cabd de12 c33d 61d9 59be 1224 ee3d
00000010: dfe5 473e 6068 28be 34c1 6fbd f4f6 5f3d
00000020: 9bdf 60be b2a3 14be 8267 a33d 8136 5d3e
00000030: e65c 8cbd 00ed 08bb 2ac7 62be 2f7d 61be
00000040: 5f4e 4c3e 375b 473e 9831 8fbd b229 7340
00000050: b78d 863f 6117 4abf 8a0f 4b3f 15e3 3bbf
00000060: 2bd8 8340 c754 ba3c 553f 4fc0 af79 0141
00000070: e4d7 1d3c 4042 babd 110a 893e 9021 863e
00000080: 14bd cc3d 6d8b 7abd 7dd6 01bc 2286 a73d
00000090: 5c63 48bd 7677 97bc a8f8 e040 12ca 67c0
000000a0: 88bb 2c3f 7969 0c3f 23b7 7b40 2738 de40
000000b0: f821 e33e 021e 9bc0 668f 693f ad77 8ebe
000000c0: 8ec7 c8bd 9195 05be d6d5 bfbe 2654 1d3c
000000d0: ab7d 6c3d 88e4 c53d 725d ea39 9bcf ca3b
000000e0: 6560 eb3b 4afc 22be b507 5e3e fdab 4b3e
000000f0: 03a0 39be e046 08be d2a7 e03d 868c 10be
00000100: 49bc 1f3e 5d2d e0bd 84d2 91bd 6ae0 86bd
00000110: 711f 603e cae1 9ebd d4b7 36bd 4b25 0e3e
00000120: 6bbb 20be 00d8 90ba 8c75 35be e7d3 58be
00000130: 1bc5 fb3f 97b5 a1c0 a218 8c3f bd53 6ec0
00000140: f93d 9f40 b89c ef3f 68c9 4cbf 1bda a840
00000150: ceec ccc0 0fcd afbd 1e75 813d 4485 30bd
00000160: d822 9c3e ba38 ddbe 414f aabd 66e0 e73c
00000170: acb4 91bc c101 1dbc 443c 963c 964b 25c0
00000180: 2217 08c1 5f54 13be 5fd9 0340 a062 2f41
00000190: 9f23 1dc0 64ba 263f a166 52c0 13cf 8d40
000001a0: 73a1 acbc 7a12 a4be 00d9 f33d 121c 073e
000001b0: 1c50 8fbe 83cf 8b3e 549f 13be f3d7 a4bb
000001c0: 17f0 d4bb 1c9e 3139 bf47 edc0 d3fc 983f
000001d0: 0d18 03be 6ed1 eebe 986e eebf 5861 0cc1
000001e0: f6bc 5dbd da1a 0ec0 3fa8 a63f de81 5c3e
000001f0: c880 4bbd d125 4d3e 2878 2b3e c155 0d3e
00000200: 0812 553e 252b 08be 245d 3a3c 3a29 09bc
00000210: 077a 883b 54d0 26be 007a a4ba 8b44 2a3e
00000220: cbfe 1b3e 19b8 4f3e 3246 a03d 0262 b63d
00000230: 14fe 7b3d 0b8b 2b3e 328d f63d f2a2 8a3d
00000240: a6ef a3bd 1e63 e3bd f052 68bd 3e3a e03d
00000250: 54c1 ffbd 665d 803d 9988 4d3e 51eb 463e
00000260: e0f5 2cbe deeb 853d dd9b 193e 6a62 55be
00000270: 7524 163e a360 12be 20dc 29be d029 c7bd
00000280: 6ab9 b0bd ba40 c2bd 7a44 873d 8e04 b63d
00000290: 629a b63d 5f32 223e 18a3 14be a810 5fbe
000002a0: f875 3cbe 6f1e 01be 1ee9 d6bd 9f7e 63c0
000002b0: 10fb 0441 1339 a9bd 01ca ae3e f88d 20c1
000002c0: 2514 72c0 e589 8ebe 917f 0740 d27f 9b40
000002d0: d79b 04be 6e56 103e e56f 74be 42e0 e1bd
000002e0: 6674 4c3e a859 3dbb d502 fabd 8089 57bc
000002f0: 7902 6abb a1c8 f23b dc44 9ec0 1c28 8fbf
00000300: 27cc 663d 41a9 66c0 4ec5 b03e ccb6 9fc0
00000310: e235 08bf 6688 1040 80ce 2a41 c68c d23d
00000320: 96d8 86be c6f5 57be e32e 003d 3afd 413e
00000330: 77a2 013e d14a 88be f08d eebb b8d3 a93b
00000340: 128e 093c 347a 123d 1699 eb3d 4031 703c
00000350: 40f8 f8bb 1597 0b3e c1ac 3b3e 0eef 82bd
00000360: 1291 48be f8d0 00be 87e1 273e c86b a33c
00000370: 6126 493e b05b a4bd f597 5ebe 56e8 913d
00000380: d637 c8bd 3073 0cbe c175 123e 00b2 823c
00000390: 0300 01be e32e 1c41 45d7 223f 6882 03c0
000003a0: e26d 23c1 61d3 cabe ec2f 65be 2842 32c0
000003b0: ce99 5dbf 8701 48be c1cc ba3d 0939 83be
000003c0: 725b 54be 9123 ff3d 6925 31be deba fcbd
000003d0: 1558 f1bd cd86 513d 6436 53bb ad93 593e
000003e0: 7790 52bc 462b 25be 33d9 b73d 053d 54be
000003f0: 2d91 4a3e 7661 ef3d 679d a23d 11b6 5e3d
-0.098957404 0.09525083 -0.2127433 0.116279736 0.19521283 -0.16446066 -0.058533862 0.054678872
-0.21960299 -0.1451557 0.07978727 0.21602823 -0.068536565 -0.0020893216 -0.22146288 -0.2202041
0.19951771 0.1946839 -0.06991881 3.7994199 1.0511998 -0.78941923 0.79320586 -0.73393375
4.1201377 0.022745503 -3.2382405 8.092208 0.009633992 -0.090946674 0.26765493 0.2619748
0.09997001 -0.061168123 -0.007924673 0.08179881 -0.04892288 -0.01848958 7.0303535 -3.6217084
0.6747365 0.5484844 3.9330528 6.9443545 0.44361854 -4.847413 0.91234434 -0.2782568
-0.09803687 -0.13045336 -0.3746783 0.009602582 0.057737034 0.096627295 0.0004470158 0.0061892993
0.007183122 -0.15916553 0.21682627 0.19889827 -0.18127446 -0.13308287 0.10969509 -0.14116105
0.15599169 -0.10946152 -0.07120231 -0.06585772 0.21886994 -0.077579096 -0.044608906 0.13881414
-0.15696494 -0.0011050701 -0.17720622 -0.21174584 1.9669527 -5.0534167 1.0945017 -3.723861
4.976315 1.8719702 -0.7999482 5.276624 -6.403907 -0.08584034 0.063211665 -0.043095842
0.30495334 -0.4320734 -0.08315898 0.028305244 -0.017786346 -0.009582938 0.018339284 -2.5827384
-8.505648 -0.14387654 2.0601423 10.961578 -2.4552991 0.6512816 -3.287514 4.4315276
-0.021073079 -0.32045346 0.11906624 0.13194302 -0.27990806 0.27306756 -0.14416248 -0.005030626
-0.0064983475 0.00016938936 -7.415008 1.1952156 -0.12802143 -0.46644157 -1.86275 -8.773766
-0.054135285 -2.220389 1.3020095 0.21533915 -0.049683362 0.20033957 0.16745055 0.13802244
0.2080766 -0.13297708 0.0113747455 -0.008371646 0.0041649374 -0.16290408 -0.0012548566 0.1662771
0.15233915 0.20285071 0.07825889 0.08905412 0.061521605 0.1675226 0.120386496 0.067693606
-0.08004694 -0.111028895 -0.05671972 0.10948609 -0.12488046 0.06267814 0.20071639 0.19425704
-0.16890669 0.06539129 0.15000863 -0.20838323 0.14662345 -0.14294676 -0.16587877 -0.09724772
-0.08629115 -0.09485002 0.06604858 0.088875875 0.08916165 0.15839528 -0.1451534 -0.21783698
-0.18404377 -0.12609266 -0.10493682 -3.5546033 8.311295 -0.08262839 0.34138492 -10.03466
-3.7824795 -0.2783958 2.117161 4.859353 -0.12950073 0.1409547 -0.2387081 -0.11029102
0.19966277 -0.002889255 -0.122075714 -0.013155341 -0.003570704 0.0074091707 -4.9459057 -1.1184115
0.05634704 -3.6040804 0.34525532 -4.991064 -0.5320722 2.258325 10.675415 0.10280757
-0.26337117 -0.21089849 0.031294715 0.18944255 0.12659632 -0.2661958 -0.007280104 0.0051827095
0.008395689 0.035761073 0.11503808 0.01466018 -0.007597953 0.13631852 0.18327619 -0.06393252
-0.1958659 -0.12579715 0.16394626 0.019948855 0.19643547 -0.080253005 -0.21737655 0.07124393
-0.09776275 -0.13715816 0.14302732 0.015954018 -0.1259766 9.761447 0.63609725 -2.0548344
-10.214327 -0.39614394 -0.22381562 -2.7852879 -0.8656281 -0.19531833 0.09121085 -0.25629452
-0.20738009 0.12457956 -0.17299427 -0.123403296 -0.117843784 0.051153947 -0.0032228464 0.2124774
-0.012851826 -0.16129789 0.08976974 -0.20726402 0.19781943 0.11688511 0.07940178 0.05437285

bias f4 [64]
00000000: 104a 0bbd fd45 4cbe 4431 0ebd 00f3 4e3b
00000010: 545c a8be 18ff 35be f881 a73d 1190 573e
00000020: 4e1b 9a3d ca0f b3be 7fe0 093e 2436 18bd
00000030: c65b cebd 7660 74be cc15 1d3d 3f2b d6be
00000040: 04b5 053d 82e6 293e e33d 083e d32a 66bb
00000050: 9ae9 973d f16f 34be 5fc1 30be ae75 8dbd
00000060: cbc3 5fbd 7be0 a2be 2969 0d3e dd48 a33e
00000070: 3372 9d3d d2db ca3d 37fc febe 8a1e ac3b
00000080: d8e1 15be 2c8b 0d3d 26b4 c8be fe31 9f3d
00000090: 6e26 5bbe 2e4b 5dbd 6e02 e43d 4b5c 60be
000000a0: 047e 243e 6c3c f0bd c08e e0bd acb4 e73d
000000b0: 1feb 85be 1915 94be 5891 c13c ffa6 b6bd
000000c0: 2031 ffbd 2d61 16bd 485b c5bd 3307 063e
000000d0: 6541 d53c a941 28be 0f5b 8bbe 8f60 1c3e
000000e0: e839 4dbe 0801 e83c 5784 d7be 5db3 d9be
000000f0: 5c6a b4bd b812 56bd 7ad9 43be dc32 013e
-0.03400618 -0.19948573 -0.034714952 0.0031577945 -0.3288294 -0.17773092 0.081790864 0.2105105
0.07524739 -0.34972984 0.13464545 -0.037161008 -0.10076098 -0.23864922 0.038350865 -0.4182987
0.032643333 0.16591838 0.13304858 -0.003512074 0.07417603 -0.17620827 -0.17261265 -0.06907211
-0.054630082 -0.3181189 0.13809647 0.31891528 0.076877974 0.09905209 -0.498018 0.005252664
-0.14636934 0.034556553 -0.39199942 0.07773207 -0.21401379 -0.054026775 0.11133276 -0.21910207
0.16063696 -0.117302746 -0.109647274 0.11313757 -0.26155946 -0.28922346 0.023628876 -0.08918571
-0.12460542 -0.036713768 -0.09636551 0.13088684 0.02603216 -0.16431297 -0.2721791 0.15271209
-0.2004162 0.028320804 -0.42093155 -0.42519656 -0.08809349 -0.052263945 -0.1912593 0.12617058

weight f4 [64, 64]
00000000: b062 d73c d612 263d 8e3f 88bd a4f9 f63d
00000010: 88cd babc 5b78 39bd 60b4 87bd f6d8 c9bd
00000020: 74c2 d03d 334e 963d 30d6 63be 665c 98bd
00000030: 28d4 453d 9cb1 003d 8819 39bd 62df 71bd
00000040: c09f eabc 683f c8bc b851 fc3c d52d 06be
00000050: 42b3 e9bc 67c8 553d 1ea6 b4bd 12f7 2bbc
00000060: 9b64 e9bc 80ae 7f3d b060 c739 eeef a5bd
00000070: 6a90 4bbd 1756 bcbd 7a92 f2bd 5960 a53d
00000080: 9e1a d03d 609d cb3c fca4 3ebe 66d9 213d
00000090: 5504 d1bd 6de9 6f3c 220f 853d d8c3 d63d
000000a0: 9021 153c 46ec 8bbd 007a 6d3a ffda 913d
000000b0: ce6b 9f3c b7ac 2abc d0c1 ccbc 9ed0 f9bd
000000c0: 523b ed3d 6c76 cbbd bc24 7dbd e3a2 13bd
000000d0: 84db 17bd b26b dabd 913f dcbc 404a 6fbb
000000e0: 70ce 3abc 028c 2cbe 66eb 1f3d 9f03 e7bd
000000f0: 569d 81bd 98f0 1c3d b59a 463c 9d3a c2bd
00000100: 9cbd 8dbd 3df2 db3d c8ac 9f3e 02f4 8bbd
00000110: 5749 a03d 720c 313f a863 083f 9648 d73d
00000120: 3047 d1bc 70c8 e93d 32e4 463e 00be 723d
00000130: 94eb 62bc 09c2 c13d 00e6 593a 2324 ca3e
00000140: 2cde bd3d 554b fa3e 97cb 183f f551 e9be
00000150: f867 97bd cadb fdbd 444a 94bd f7cd a8be
00000160: 0b18 df3c 6bbe a83d 7c47 1bbe 4ab7 fe3c
00000170: f736 ff3c 712f 56be d5e2 103f 095c dfbd
00000180: 8771 d03a 98bc 77bd bd37 023c 5a62 5b3d
00000190: 129a 153d ddaa 73bd a8f0 bf3d f27b d73d
000001a0: 6061 abbd 57db 0f3e 4aa5 dcbd 0c37 123d
000001b0: 5f4c 00bd 335c 683e 4c4c 79bd 37de 5b3e
000001c0: d07d a53c 3b1d d8bc b395 67bc d7cc 4e3e
000001d0: d131 d03d 4c9c a3bd 3bdc d2bc 7630 adbd
000001e0: e6fe 8abd 1312 333e e6ee acbc 413a 0ebd
000001f0: 222e 7bbe b404 123d a6db 28bd e592 9c3d
00000200: 806c b7bd dc13 d4bd f42f 21be 809e dc3b
00000210: f57a 2fbe f53c 87bc e442 bdbd e23d c6bd
00000220: ec27 67bd a30e 7ebc 3375 88bd 32f2 e1bd
00000230: 02eb fb3c 0ca1 1fbd 10d5 763c 090c 28bd
00000240: e8f0 7e3d 3a66 57be 3bbe 2f3d a957 debd
00000250: 4aa8 f6bc 160f 833c 7cb6 323d 7cd5 713c
00000260: a38d a4bd 3ee0 983c 411d 483d ebcf 1dbe
00000270: 9169 f9bc 9895 0c3d c6ef 17be e6cc 14be
00000280: 8a1a 9e3d c46a 343d 4ab1 75bd fb70 b93d
00000290: 005a 8abd 3a14 593d 96e2 a9bd 8803 dcbd
000002a0: 30ae debc b366 933d 18e1 dabd 0869 403b
000002b0: eed3 10bd 62a1 fcbd f4f1 d1bd 3139 aabc
000002c0: ac02 403d 4453 8dbd 4035 96bc 3cde 6a3c
000002d0: eafc 9cbd 10fe 17be 325f 86bd 705e 93bc
000002e0: e0a9 44bd db79 63bc 1bfb 38be 7a59 3b3d
000002f0: 1981 99bd c8ff 8ebd 5008 79bd 7840 23be
00000300: a484 ddbd 46df 2cbc aad0 a4bd 18a1 8abd
00000310: bf74 f1bc 6bda 47bc 3da5 aabd d823 7fbd
00000320: e64e 8b3d 683a a2bd f448 01be 98a5 c7bc
00000330: 4a73 fcbc dc23 f73d 10c7 b7bc 60d1 04be
00000340: 549a 22bd 9b39 153d 7712 b3bd 131a 01be
00000350: d0ff 20be 319c 26bd f0f5 023c 917a 16be
00000360: 0cb5 6b3d b323 92bd 565e 813d 0a8e d7bd
00000370: b243 cdbc 87a7 17bd edef 383c 061a afbd
00000380: f0ba 04bd a852 6a3d 889b 1cbe 20dc cbbc
00000390: 9451 86bd d02d d6bd 7862 723d 98a0 7d3d
000003a0: a875 94bc 6f6e e1bd 88cd 773d 3027 bbbd
000003b0: 6578 31be 55c6 353d d403 fc3d e947 2c3d
000003c0: f437 8dbd 074b 5d3d c2f8 26be 6eed 1ebe
000003d0: 3edd ac3d 4fff bebd 540e 573d ace4 fa3d
000003e0: 4a0f acbd db65 7b3c cf42 8fbd b9f4 b8bd
000003f0: 319b 553d 9c61 413d ff42 f6bd c450 b33d
0.026292175 0.040545307 -0.06652747 0.12059334 -0.022803083 -0.045280796 -0.06626201 -0.09855835
0.10193339 0.07339134 -0.22249675 -0.074394986 0.04829803 0.03141938 -0.045190364 -0.059050925
-0.028640628 -0.024444297 0.030800685 -0.13103421 -0.02852786 0.05219307 -0.08820747 -0.010495918
-0.028490355 0.062422276 0.00038028276 -0.081024036 -0.04969827 -0.09196108 -0.118443444 0.080750175
0.10161327 0.024855316 -0.18617624 0.039513968 -0.102059044 0.014643055 0.06497027 0.10486573
0.00910224 -0.06832175 0.0009059012 0.07121848 0.019460585 -0.010417155 -0.02499476 -0.12197994
0.1158358 -0.099346966 -0.06180261 -0.036044013 -0.03707458 -0.106650725 -0.02688578 -0.0036512762
-0.011401758 -0.16850284 0.039042853 -0.112799875 -0.063288376 0.038315386 0.012121846 -0.09483836
-0.06920931 0.10739563 0.3118651 -0.0683365 0.078264885 0.69159615 0.53277063 0.105118915
-0.02554664 0.114151835 0.19422987 0.05926323 -0.0138501115 0.094608374 0.0008312166 0.39480695
0.092708915 0.488856 0.59685653 -0.4557034 -0.07392877 -0.12395437 -0.072407275 -0.3296964
0.027233144 0.08239444 -0.15163988 0.031093258 0.031154139 -0.20916535 0.5659612 -0.10906226
0.0015902974 -0.06048259 0.007947859 0.053560592 0.036523886 -0.05948912 0.093720734 0.105216876
-0.08368182 0.14048515 -0.10773714 0.035697028 -0.031322833 0.22691421 -0.060863778 0.21471487
0.020201594 -0.026381126 -0.014134812 0.20195328 0.10165752 -0.07988796 -0.02573978 -0.08456509
-0.06786899 0.17487364 -0.02111001 -0.034723524 -0.24529317 0.035649016 -0.041225098 0.076452054
-0.089562416 -0.103553504 -0.15740949 0.006732762 -0.17136748 -0.016508559 -0.09241274 -0.09679772
-0.056434557 -0.015506419 -0.06662979 -0.11032523 0.030751709 -0.038971946 0.0150654465 -0.041027103
0.062241465 -0.2103509 0.042906027 -0.108565636 -0.030109543 0.015998404 0.043631062 0.014760371
-0.080348276 0.018661615 0.048856024 -0.15411346 -0.030445846 0.03432235 -0.1483756 -0.14531288
0.07719906 0.044047132 -0.05998353 0.090547524 -0.067554474 0.052997805 -0.08295171 -0.10742861
-0.027182668 0.07197323 -0.106874645 0.0029359479 -0.035358362 -0.12335469 -0.10251227 -0.020779224
0.046877548 -0.06900647 -0.018335938 0.014335211 -0.07665427 -0.14843011 -0.06561126 -0.017989367
-0.048013568 -0.013884033 -0.18064539 0.04573963 -0.074953265 -0.0698238 -0.060798943 -0.15942562
-0.10816315 -0.010551279 -0.08047612 -0.067690074 -0.029474614 -0.012198071 -0.08332298 -0.062290043
0.06802158 -0.07921296 -0.12625486 -0.024370953 -0.030816693 0.120673865 -0.022433788 -0.12970495
-0.03969796 0.03643189 -0.08743756 -0.12607603 -0.15722585 -0.0406763 0.007993206 -0.14695193
0.057545707 -0.07135715 0.06316821 -0.10525139 -0.025056694 -0.037025 0.0112876715 -0.085498855
-0.03240484 0.057207733 -0.15293705 -0.024885237 -0.065585285 -0.10457957 0.05917594 0.061920732
-0.01812251 -0.11007392 0.060498744 -0.09138334 -0.17331083 0.044378597 0.12305418 0.042060766
-0.06895438 0.05402663 -0.16305831 -0.1552026 0.08440636 -0.0932604 0.0525039 0.12250647
-0.08401354 0.015344108 -0.069951646 -0.09031052 0.052149955 0.04721223 -0.12024497 0.08755639

bias f4 [64]
00000000: 1a42 6bbd 0795 ff3e a67d 38be 0f81 a3bd
00000010: b652 123f 5a7e 69bd a4b0 0cbe 7775 1dbe
00000020: b56d c8bd 6a1b dfbd 709d 96bd caa5 06be
00000030: a016 be3e bc31 1a3f 5781 ebbc 24a6 2dbe
00000040: c435 30bd eec9 003e 9019 a4bd 09f5 103f
00000050: 6e21 45be ed0c 02be 867e acbd cdcc 9fbd
00000060: 6507 9b3e 3e22 023d d562 76bd cad6 b13e
00000070: 7614 c1bd 3809 febd c7d5 d93e 9cbe 2fbe
00000080: cbab b4bd 0843 323f fcfa d7ba ff45 203f
00000090: c241 263f 1039 f13e 08cc 23be 6102 06be
000000a0: 84b4 28be 5bd4 d8bd 177f 1cbe ea5c a03e
000000b0: d700 ed3e f0b8 013f 1202 0dbe 529c c83e
000000c0: 1ec4 0a3d e417 353d 424b 98bd b9a4 f6bd
000000d0: 1abd 30be 637d 0cbe 12db eebc 60f5 bcbd
000000e0: b7e3 a8bd 62b8 3abd d209 ca3e 8cbf e3bd
000000f0: a4c0 d1bd ad50 97bc 09a9 493e f52a 633c
-0.057436086 0.49918386 -0.18016681 -0.079836 0.57157457 -0.057005264 -0.13739258 -0.1537684
-0.0978655 -0.10893901 -0.073542476 -0.13149181 0.37126637 0.6023214 -0.028748197 -0.16957909
-0.043020025 0.1257703 -0.08012688 0.56623894 -0.19251034 -0.12700243 -0.0842257 -0.078027345
0.3027908 0.031770937 -0.060152847 0.34734184 -0.09427731 -0.12404102 0.42545912 -0.17162555
-0.088218294 0.6963353 -0.0016477997 0.62606806 0.6494409 0.47113848 -0.159958 -0.13086845
-0.16475111 -0.105873786 -0.15282856 0.31320888 0.46289703 0.5067282 -0.13770321 0.39181763
0.03387844 0.044212237 -0.07436229 -0.12043137 -0.17259637 -0.13719706 -0.029157195 -0.09226489
-0.08246558 -0.045585997 0.39460617 -0.11120519 -0.102418214 -0.018471086 0.19693388 0.013865222

weight f4 [1, 64]
00000000: abf2 a3bc 1656 13be e77e ad3c 4ffd 103c
00000010: 0bae 73be 94c5 14bc 2e51 aabc c6d2 fb3e
00000020: f93c 243d 0cf1 973e 914b bcbc ea4c 07bc
00000030: 042f 753e 67fe 14be 1676 84bc 73ef 563d
00000040: 71e0 303d 48be fdbe 9001 e8bc 2f5d d5bd
00000050: 464e b43c 7b01 95bd e18a 733e 680b ec3c
00000060: 6d82 afbd 732f dc3b d35a 7abc c5e4 1abe
00000070: 8897 03bc 87b6 a83c e082 90bd 5704 e23c
00000080: 4426 12bc 2398 693e 1f79 0ebd f2fc 22be
00000090: dd6a 53be fe5e a7be 44db abbb abb5 e0bc
000000a0: 78e4 223d c5f5 ebba 7f00 cfbc c24a 6d3e
000000b0: 73a6 e2be 3487 a83e 0423 a63c 5466 44be
000000c0: 8c3a d13c cc4d 0d3d f39a 2cbb 121a 513d
000000d0: d159 413d 1d28 71be d420 de3c 4202 813c
000000e0: a3fa df3c 3b98 9dbd 6139 a6be 9e6d 8cbd
000000f0: 3030 173d 30ab 1c3b 3ec3 163e e361 863c
-0.020013174 -0.14388308 0.021178676 0.008849456 -0.23796861 -0.009080309 -0.020790663 0.49184245
0.04009721 0.29676092 -0.022985252 -0.008258084 0.23943716 -0.14550172 -0.016169589 0.05247445
0.043182794 -0.49559236 -0.028321058 -0.10418164 0.02200998 -0.07275673 0.23783447 0.028814033
-0.085697986 0.0067195236 -0.015280443 -0.15126331 -0.008031733 0.020594848 -0.070562124 0.02758996
-0.008920256 0.22811942 -0.03478348 -0.15916803 -0.20646234 -0.3268966 -0.0052446444 -0.027430376
0.039768666 -0.0018002322 -0.025268791 0.23173049 -0.44267616 0.32915652 0.020280369 -0.1917966
0.025540613 0.03449802 -0.0026337474 0.051050253 0.047204796 -0.23550458 0.027115263 0.015748147
0.027341193 -0.07695051 -0.32465652 -0.06856845 0.03691119 0.0023905747 0.14722916 0.016404098
