output/2021-12-13_ppo/2021-12-13_14-47-38-ppo_s0/pyt_save/model.pt (torch_old, 47554 bytes, 12 tensors)

log_std f4 [3]
000000 da dc cb bf eb 90 9b bf 2f cb ae bf
       -1.5926774 -1.21536 -1.3655757

weight f4 [64, 16]
000000 8f 35 1a be af 45 c5 3d 8a c3 08 3e a6 b3 48 be
       -0.15059493 0.09632432 0.13355842 -0.1959978
000010 5d 83 1a bd 92 7c ad bd 71 77 ae 3d 25 0a 5b 3e
       -0.037722934 -0.084710255 0.085188754 0.21390589
000020 d4 49 ec 3d a8 47 0e 3e 6a 62 1b be b0 23 ba bd
       0.11537519 0.13894522 -0.1517426 -0.09088838
000030 7a c5 2b be 32 6f 2b be ac 18 e2 bc 92 f3 a7 3d
       -0.1677455 -0.16741636 -0.027599655 0.08200754
000040 f0 14 83 3e 84 cd 50 3e db 79 02 bf b2 ea 42 bc
       0.25601912 0.20390898 -0.50967187 -0.011896776
000050 b9 0e 0c 3d 10 c7 b6 3e 2f b8 35 3c 1f b2 40 3e
       0.034193728 0.35698748 0.011091276 0.18817948
000060 43 52 88 3b 43 2e 85 3d 4d ae 3e 3e 4b a1 80 be
       0.004160197 0.06502964 0.18621178 -0.25123057
000070 91 42 f2 bd 20 0e 5b bd 1d 01 6d bd 7b 45 82 3e
       -0.11829103 -0.053480268 -0.05786239 0.25443634
000080 14 6c 12 be a9 33 4b be 7d 25 83 be 61 92 4f be
       -0.14299041 -0.19843926 -0.2561454 -0.20270683
000090 aa ea 80 bd 78 05 71 3e 45 99 0c 3e 8b f2 39 3e
       -0.062947586 0.23537242 0.13730343 0.18158929
0000a0 c1 bc ad 3d b1 96 d5 bd 3d b2 3b 3d cd 9c 3d be
       0.084832676 -0.10429133 0.04582428 -0.18516846
0000b0 a8 3d 21 be 51 7b d3 bd 13 a5 39 3e b1 e5 2d 3e
       -0.15746176 -0.10326255 0.18129377 0.16982152
0000c0 c8 74 b5 be dc 9f b1 be ed d7 de 3e 42 3e e5 3e
       -0.3544066 -0.34692276 0.43524113 0.4477406
0000d0 cc 4f ea 3e 49 fb 59 be 8d ae 18 3e ee 22 b9 bd
       0.45764005 -0.21287264 0.14910336 -0.090398654
0000e0 b7 7c 68 bd e2 22 84 be 89 e1 fe bd a5 75 04 be
       -0.056759562 -0.25807863 -0.12445361 -0.12935503
0000f0 80 5b 34 3d d9 a0 ea 3d 68 28 53 be ac 79 64 3c
       0.044032574 0.114564605 -0.20620883 0.013945024
000100 18 27 08 3e f8 66 07 bd 4a ac 1c 3c 3f 4e 6e 3d
       0.13296163 -0.033057183 0.009562561 0.05818009
000110 e7 51 1f 3e 00 70 74 3e 84 06 46 be de ea ba bd
       0.15558587 0.2387085 -0.19338423 -0.091268286
000120 53 e5 c8 3d 2e 72 53 3e 2a 48 73 3e f4 2a 69 3e
       0.09809365 0.20649025 0.23757997 0.22770292
000130 b3 3d 1f 3d 7d ec 57 be da 98 2c 3c d2 5e 2e be
       0.0388772 -0.21086307 0.0105344895 -0.17028359
000140 de ce d2 be 9d 89 2e 3d 86 25 53 3e 1b 54 f7 be
       -0.41173452 0.042611707 0.20619783 -0.48306355
000150 d6 83 71 3e ec 50 58 be 39 33 7d bd 22 0a e9 3d
       0.23585448 -0.21124619 -0.061816428 0.11378886
000160 bb 62 9c 3c 4f 54 b6 bd a9 88 08 3e d9 62 72 3d
       0.019090047 -0.08902799 0.13333382 0.0591763
000170 9c 9a 6f 3e 16 ea 23 3e a3 9d 5a be 79 ba da bd
       0.23398823 0.16007265 -0.21349196 -0.10680098
000180 87 d9 f5 3e 7e a7 17 3f 81 f1 fb be f1 55 3e bf
       0.48017523 0.5923995 -0.4920769 -0.74349886
000190 6f d9 95 be 69 bd 08 3f bf c0 c6 be 12 3e 93 3d
       -0.2926745 0.53414017 -0.3881893 0.07189573
0001a0 0f d2 41 be 3c 05 97 bd 20 19 cd bd ff 66 1c be
       -0.18927787 -0.07374045 -0.10014558 -0.15273665
0001b0 73 8b 9d bd d4 cb f5 3b 65 e9 39 be 83 5f a3 3d
       -0.076926135 0.007501105 -0.18155439 0.07977202
0001c0 2c 5e fd bd e9 a4 04 3e ba e5 34 3e ee 20 a1 be
       -0.123714775 0.12953533 0.17665759 -0.31470436
0001d0 e1 77 04 bc b3 54 0a 3d 54 6d 96 bc 52 ee 96 3d
       -0.008085222 0.03377218 -0.018362679 0.07369675
0001e0 8e ff cf 3d 4a 4c 32 bb e8 d9 d2 bd ad 06 15 3e
       0.10156165 -0.0027206116 -0.102954686 0.14553328
0001f0 7d 5b 84 be 1d 78 0a be cf 90 9b bd 5d f7 0e be
       -0.2585105 -0.13522382 -0.075959794 -0.13961549
000200 35 a7 a6 be af 8f 6d be 04 00 6f 3e b0 03 f4 bd
       -0.32549444 -0.23199342 0.2333985 -0.11914766
000210 a9 27 02 be 52 aa 7f be 4f b0 03 3e 3c c5 ca bd
       -0.12710442 -0.24967316 0.12860225 -0.09900901
000220 bf 26 13 3e c5 8b 38 bd e8 4a 89 3d e1 c3 3c 3e
       0.14370249 -0.04505517 0.0670374 0.18434097
000230 fc 9c 59 3e b2 84 e4 3d cc 6b 76 3e 23 27 25 bd
       0.21251291 0.11158122 0.24064559 -0.040320527
000240 9f 6c 0d bf c2 03 1c be e3 fe 96 bd 3b 0d 99 3e
       -0.5524387 -0.15235808 -0.073728345 0.29892907
000250 ed 31 c1 bd 96 a9 02 bf 78 0c 1a be 2c 98 9b be
       -0.09433351 -0.5104002 -0.15043819 -0.30389535
000260 9a e2 79 be b7 e8 2c 3e 40 1e f7 3d fb 85 8b be
       -0.24402848 0.16885649 0.120663166 -0.27250656
000270 9a 31 40 3e 19 7a 48 be ac 86 ac bc 68 fb 8f bd
       0.18768921 -0.19577827 -0.02106031 -0.07030374
000280 a9 89 07 be 20 c5 df bd dc 16 0b bf 51 98 b9 bd
       -0.13236107 -0.109262705 -0.54331756 -0.09062255
000290 93 93 3a bc 41 07 91 bd 44 93 b8 bd ed c6 c4 3d
       -0.0113877235 -0.07081462 -0.09012464 0.096082546
0002a0 3f 11 38 be 5e af 1e 3c 94 66 49 3e 99 14 0f be
       -0.17975329 0.0096853655 0.19668037 -0.13972701
0002b0 5f ab 7e 3e 90 3e f0 3d 5b 96 4c be a9 91 3c 3e
       0.2487006 0.11730683 -0.19979231 0.1841494
0002c0 6e 81 38 bf 48 1c 39 bf d0 7d fe 3e f9 37 8e 3e
       -0.72072494 -0.7230878 0.49705362 0.2777708
0002d0 e0 e0 18 3f 88 a4 3c bf 78 13 07 3e ce 52 8e 3d
       0.5971813 -0.73688555 0.1319102 0.069493875
0002e0 18 cd e9 3d b7 18 f8 bc e3 87 19 3d fc 79 45 3c
       0.11416072 -0.030285222 0.037483107 0.012053009
0002f0 6a 45 a9 be 4d 93 87 3d 0e ad ee 3d 27 9d 46 3d
       -0.3306077 0.06619892 0.11654101 0.048489716
000300 8c 6f 0a bf 1b 2d 0b be 2c b9 b3 be b9 27 92 3e
       -0.5407646 -0.13591425 -0.35102212 0.2854593
000310 ed 52 8f bc 02 73 67 be 65 ec 14 be 45 63 0b bd
       -0.017495597 -0.22602466 -0.14543302 -0.034030218
000320 1c c7 6e bc 66 d5 f1 3d 1d 2d 45 be 8b 32 01 be
       -0.014573839 0.11808281 -0.1925549 -0.12616937
000330 83 82 51 be 70 4b dc 3d f6 5c 12 be 66 73 1a 3e
       -0.20459943 0.10756576 -0.14293274 0.15083084
000340 94 de 99 bd 3a c9 59 3d 7c 96 15 3f 7e c0 a2 3e
       -0.075131565 0.05317042 0.58432746 0.31787485
000350 53 06 b1 3c d1 a4 61 be 11 16 85 3d 89 3c 28 3e
       0.021609461 -0.22035529 0.064983495 0.16429342
000360 8a 13 3d be 6f 91 19 be 5e c4 5b 3e 3c 59 54 be
       -0.18464485 -0.14996885 0.21461627 -0.20737165
000370 69 54 2f bd 89 c9 4f 3e 30 54 0a 3d 44 15 53 bc
       -0.04280511 0.20291723 0.033771694 -0.012883488
000380 f5 28 88 be 2a e4 13 be e0 8b a0 be fb 47 c9 3d
       -0.26593748 -0.14442506 -0.31356716 0.09828182
000390 03 8d 53 3e 73 4a cc bd ed 09 2f 3d bc cf 89 3e
       0.2065926 -0.099751376 0.042734075 0.269163
0003a0 c2 c9 11 3d f0 37 5a 3e 5c b5 29 3e 36 99 12 be
       0.035592802 0.21310401 0.1657309 -0.14316258
0003b0 e4 18 c9 3d 8e 28 3b be 4c 9a dc bd 36 a1 7c 3d
       0.09819201 -0.18277189 -0.10771617 0.06167718
0003c0 ed 11 75 3e 39 fc c5 3d a4 f3 6a be 49 81 40 3e
       0.2393262 0.09667248 -0.22944504 0.18799318
0003d0 28 45 5d 3e 34 7b bd bd 66 57 80 3e 23 67 27 be
       0.21608412 -0.09252015 0.2506668 -0.16347937
0003e0 64 72 62 bd 90 3a 7f bd a3 b2 e5 bd 19 27 43 3d
       -0.055284873 -0.06231171 -0.11215713 0.04764471
0003f0 3d 74 3e 3e 52 c7 d8 bd b8 21 34 be 21 e8 e8 bd
       0.18599029 -0.10584892 -0.17590988 -0.113724

bias f4 [64]
000000 88 34 5f 3d dc bf 4b be 13 5c f7 bd d0 de 35 3d
       0.054493457 -0.19897407 -0.12078109 0.044401944
000010 32 63 b3 bd 5f f3 5f 3e 89 89 01 3e c8 85 90 3c
       -0.087591544 0.21870182 0.12650122 0.017641917
000020 52 1d 2c bd c5 c3 3f bd f7 47 88 3c fd 80 9f bd
       -0.04202015 -0.04681756 0.016635878 -0.077882744
000030 e8 7c 78 be 41 e2 9c bd ce 64 5f be bc c3 06 3e
       -0.24266398 -0.07660342 -0.21815798 0.13160604
000040 c2 ef 01 be 7c 4e 4f 3e 1a dd 25 bd c7 cc 1e be
       -0.12689117 0.20244783 -0.040494062 -0.15507804
000050 bf 01 e0 3d 25 ca 4a bb 35 71 17 3e 53 54 17 3d
       0.10937833 -0.0030943241 0.14789279 0.036945652
000060 0f 9a 98 be 07 b8 33 3e 92 9d 3a bd 24 e9 06 be
       -0.29805037 0.1755067 -0.045560427 -0.13174874
000070 8c 80 47 3e fc 72 16 3e b8 74 80 be 49 14 6a bb
       0.1948263 0.146923 -0.2508905 -0.0035717657
000080 97 8f 45 3e 63 c4 2a 3e d3 0d 55 3e 30 24 af bd
       0.19293056 0.16676478 0.20806055 -0.08551824
000090 14 0c ee bd 1d 19 54 3e 77 ef 33 3e 58 a1 67 3e
       -0.116233975 0.20712705 0.17571817 0.22620142
0000a0 f3 f0 99 bd 03 85 27 be 5f 5a bb bb b2 49 33 be
       -0.075166605 -0.16359334 -0.00571756 -0.17508581
0000b0 18 0c 3d 3d ae ed 1c 3e 2e 01 29 3d db 23 40 bd
       0.04615411 0.15325043 0.04126089 -0.046909194
0000c0 68 1f f2 3d 97 17 29 be 71 70 66 3e e4 63 66 be
       0.118223965 -0.16512905 0.2250383 -0.22499043
0000d0 2d ca 5e be 64 3c 69 bd 97 ce 5c 3e 0c a3 f4 3b
       -0.21756811 -0.05694236 0.21563183 0.0074657258
0000e0 69 7b f7 3d ec a5 5b be 30 fa ca 3d 78 14 16 3b
       0.120840855 -0.21450013 0.09911001 0.0022900384
0000f0 50 53 ea 3d b1 c4 38 3e ac bd ca 3d 52 af 82 bc
       0.11441672 0.18043782 0.09899458 -0.01595274

weight f4 [64, 64]
000000 ce df 89 3b fe c6 9a bd ac 16 75 bd 7d 41 a9 3d
       0.004207588 -0.07557486 -0.059836075 0.08264444
000010 92 3a 10 bd c8 f4 bd 3d cb cf 95 bd f2 ab 68 bc
       -0.035212107 0.09275204 -0.07315024 -0.014201151
000020 61 6e 75 bc 9b de a1 bd 91 d2 38 bb 54 0a 3f 3d
       -0.01497993 -0.07903787 -0.002820168 0.04664071
000030 2e 80 a3 bc a5 f6 c7 bb e8 33 06 3e 8a 99 dc 3d
       -0.019958582 -0.0061024004 0.13105738 0.10771473
000040 25 a5 34 bd cc 37 32 3d 6b 09 32 bd 1e c1 c3 bd
       -0.044102807 0.043510243 -0.043466013 -0.095583186
000050 b1 e3 be 3c 97 6a 7f 3c f8 a9 90 bd b6 66 0b be
       0.023301931 0.015589378 -0.07063669 -0.136134
000060 a4 fd 98 bd 42 98 a7 3d d0 3b 85 bd 3a 93 0a be
       -0.07470253 0.08183338 -0.06505549 -0.13532725
000070 51 39 13 3d 30 1a 71 bd 4b e1 15 be cc 08 8c bd
       0.035943333 -0.058862865 -0.14636724 -0.06837615
000080 e6 96 7e bc dd e1 08 be 35 48 0a be 1b 46 68 bd
       -0.015538907 -0.1336741 -0.13504107 -0.056707483
000090 8e 00 e1 bd 31 ef ce bc 1d e5 d1 bd 57 dc 8e bd
       -0.10986434 -0.02526054 -0.10248778 -0.0697562
0000a0 cb 67 83 3d e1 52 a7 bd 73 3e 8e bd 62 3c ca 3d
       0.06416281 -0.08170105 -0.06945505 0.09874798
0000b0 45 7b 72 3c 6e a9 1d 3c fd 4a 5d bc c2 56 ca bd
       0.014799898 0.009622915 -0.013506648 -0.09879829
0000c0 7f 68 e1 3c 92 a7 1e 3c 6c 79 a2 3d 81 2d 12 be
       0.027515648 0.009683507 0.07933316 -0.14275171
0000d0 b8 f5 c3 bc db ac 73 3d 81 b6 7d bd bb db a1 bd
       -0.023920879 0.05949102 -0.061941627 -0.079032384
0000e0 2e 2a 3d 3d be c4 0a be 04 83 5c 3d df 3e f4 bd
       0.046182804 -0.13551614 0.053835884 -0.11926054
0000f0 6c 8c 86 3d 39 6e f9 bd 99 11 ca 3d 82 2c c0 bd
       0.06569752 -0.121792264 0.09866638 -0.09383489
000100 f7 7d b7 bd 16 1d 4c 3b 32 2b a5 3d 8b bb 08 be
       -0.08959573 0.0031145266 0.080648795 -0.13352792
000110 ca d5 17 bd a6 58 f2 3d 3e 84 65 bc a7 54 90 3d
       -0.03706912 0.118333146 -0.01400858 0.07047396
000120 a3 1b 0c be 57 cd 82 bd a1 50 a8 bd 12 d3 a8 3d
       -0.13682418 -0.06386822 -0.08218504 0.082433835
000130 51 1b 04 3d b1 9c ca bd 9d 80 ba 3c b9 8b 84 3c
       0.032252613 -0.09893168 0.022766406 0.016179906
000140 6c b8 68 bd 41 11 ec bd e7 1c 81 bd d8 15 ed 3d
       -0.056816503 -0.115267284 -0.06304341 0.11576432
000150 66 cb dd bd ec ab bf bd b1 24 20 bd d4 c2 0d bd
       -0.10829811 -0.09358963 -0.03909749 -0.03460963
000160 c3 61 e9 3c 03 f2 65 3b 69 b8 2a bd 4e 22 97 bd
       0.028489 0.0035086877 -0.041679773 -0.0737959
000170 27 19 96 bc 2c ac 2b bd 30 ce 12 3e 6e d0 15 be
       -0.01832254 -0.041912243 0.14336467 -0.14630291
000180 7e b4 88 bd ad 8b c1 bd bb a1 e0 bc e3 81 c1 3d
       -0.06675051 -0.09450469 -0.02742087 0.09448602
000190 21 dd dd 3d 1c fd cb bd 44 24 b3 bc 8c f0 93 3d
       0.108331926 -0.09960386 -0.021867879 0.07223615
0001a0 b5 20 82 3d ff c2 fe 3d 74 30 87 bc 29 8c c5 bd
       0.063538946 0.12439536 -0.016502596 -0.09645874
0001b0 8f cc 8d 3d 62 66 ea bc 09 b6 90 3d ec 45 3f bd
       0.06923782 -0.028613273 0.070659705 -0.046697542
0001c0 5a ac 34 3d 5e 1f 04 3e 16 80 de 3d 2b 0b 30 be
       0.04410968 0.1290259 0.10864274 -0.1719176
0001d0 bc a4 ce bd d5 5c 9c bd 9f 27 9b bd 72 ca cb 3d
       -0.10090014 -0.07634894 -0.075759165 0.09950723
0001e0 d8 92 f6 bc 16 79 b0 bd 9c 6a 40 bd 3a 01 45 bd
       -0.030099317 -0.08616845 -0.04697667 -0.048096873
0001f0 42 45 30 3d f3 c8 02 be 59 0a d0 bd 85 fe f7 bd
       0.0430348 -0.12771969 -0.10158224 -0.121090926
000200 43 44 58 3d c9 60 81 3d 2c f7 9b bd a1 2d 25 3d
       0.052799474 0.063172884 -0.07615504 0.04032672
000210 92 fe b8 3d c3 c5 95 3c f8 ae 03 bd 9d e7 ee 3b
       0.090329304 0.018282777 -0.032149285 0.007290794
000220 d1 5f a7 bc bb 97 f4 3d f1 f6 a5 bd b5 15 bd 3d
       -0.020431431 0.11943003 -0.08103741 0.09232656
000230 6b 8d 98 3d 97 21 69 bd 64 b2 f8 3d c9 b5 07 3e
       0.07448848 -0.0569168 0.121434 0.1325294
000240 ae 24 0e bd 75 81 60 bd 16 ef ef 3d ae 3f c8 bd
       -0.03470295 -0.05481096 0.11715524 -0.09777771
000250 55 75 52 3d af a0 2c 3d 96 bc 6f 3d d1 05 c0 bd
       0.051381428 0.042145427 0.05852946 -0.093761094
000260 50 79 f0 bd d6 af c4 3d 07 4d 9b 3d 68 28 0d be
       -0.117418885 0.096038505 0.07583051 -0.13784945
000270 65 85 84 bd f0 16 c0 bd 46 09 0a be e4 28 62 bd
       -0.064707555 -0.09379375 -0.134801 -0.055214778
000280 6f 0c d1 3d 9f 46 77 bd b2 78 1f 3d 10 05 b8 3d
       0.1020745 -0.060370084 0.038933463 0.089853406
000290 e8 db 6b 3d cb cb f1 bd 84 c1 59 3d 09 de 60 3d
       0.057582766 -0.118064485 0.053163067 0.05489925
0002a0 36 84 c6 3d 97 ef 02 be 26 f2 e3 3d 29 99 fd 3d
       0.09693186 -0.12786709 0.111301705 0.123827286
0002b0 46 80 d8 bd 6c c5 83 bd f6 67 df 3d 66 50 df bd
       -0.10571341 -0.064341396 0.10908501 -0.10904007
0002c0 97 a2 a1 3d 4f 69 45 3d 42 3d f7 3c 61 b9 16 3e
       0.0789234 0.048196133 0.030180577 0.14719154
0002d0 ed 23 d5 3d 3f 76 f0 3d 0d f5 f5 bb 38 8b d6 3d
       0.10407243 0.11741304 -0.007506019 0.104757726
0002e0 54 d8 e5 bd 5e fe a6 bd 32 d7 84 bc 31 01 75 bd
       -0.11222902 -0.081539854 -0.016215894 -0.05981559
0002f0 9b 11 00 3e 61 74 79 3d ee 29 98 3d 2d ae d4 3d
       0.12506716 0.060902003 0.074298725 0.10384784
000300 26 29 ba bd 5b c1 b1 bc ad 8d c0 3c 7a 00 0e 3d
       -0.0908988 -0.021698644 0.023505056 0.034668423
000310 d1 ec 6e 3d 11 83 4d bd 71 a0 6a bd 34 06 ca 3d
       0.058331314 -0.050173823 -0.057281915 0.098644644
000320 07 e1 d5 bc 6b 4e 07 bd d4 7f 9c 3d a2 39 07 3e
       -0.026108278 -0.03303377 0.07641569 0.13205579
000330 3c 3c f6 bc 5a 6c 99 bc fc da b7 bd 9d 74 d7 bd
       -0.030058019 -0.018728424 -0.08977315 -0.10520289
000340 c7 5d 68 3d c2 88 cf bc 4a 64 14 3e 49 cb d6 bd
       0.056730058 -0.025333766 0.14491382 -0.10487992
000350 a3 97 39 bc 8d 4e f2 bb 51 33 7b 3d b4 fc 0e 3e
       -0.011327657 -0.007394618 0.061328236 0.13963586
000360 c1 cc a3 3d 86 38 95 3d f7 90 68 bd 0f 92 fe bd
       0.07998038 0.072861716 -0.056778874 -0.12430202
000370 a3 4e c8 bd 6e 45 c1 3b 59 84 b2 3d 40 8e 41 bc
       -0.09780624 0.0058981692 0.087166496 -0.0118137
000380 0a 25 48 bb 63 4b c3 bd 6f fe 06 3d ae 8b 8d 3d
       -0.0030539655 -0.09535863 0.03295749 0.069114074
000390 f9 44 fd bd a7 31 9d bd 52 f9 d2 3d 9c a0 56 3d
       -0.12366671 -0.07675486 0.1030146 0.052399263
0003a0 b5 95 03 3c d0 d6 5a 3c 00 d3 a6 b9 eb 76 a2 bd
       0.008031298 0.013356879 -0.00031819195 -0.07932838
0003b0 2f 20 e1 bd e9 e2 c3 3c 20 4b 11 bb 62 c6 68 bd
       -0.10992467 0.02391191 -0.0022170022 -0.056829818
0003c0 01 d9 82 bc a8 6b 97 bd 00 f0 14 bd 66 76 72 bd
       -0.015972616 -0.07393581 -0.036361694 -0.059194945
0003d0 93 a1 ca 3d fa aa 51 3d ef c5 a9 bd dd e8 03 bd
       0.09894099 0.051188447 -0.08289706 -0.032204498
0003e0 bc 72 7f 3d ab 48 ca bc 22 e3 b2 3c fe 77 b9 3c
       0.06236528 -0.024692854 0.021836821 0.022640225
0003f0 5e ef ae bd de 9e 18 3d 5a cf 31 3c cd 54 f0 3d
       -0.085417494 0.037260883 0.010852659 0.117349245

bias f4 [64]
000000 5d 4d 63 3d b2 2d 9f bd 48 e2 92 3d 87 45 33 3c
       0.0554937 -0.077723876 0.07172066 0.01094187
000010 9b 6d b4 3d f7 a9 f2 3d 59 cb a8 bd e6 6d e3 3d
       0.08809968 0.118488245 -0.082419105 0.11104946
000020 2a 5b ac 3d 07 e7 ef bd 9b 47 c9 3c 1a f1 ec bd
       0.08415826 -0.11713987 0.024570277 -0.11569424
000030 c5 5f 55 3d 97 81 70 3c 84 59 dc bd 9e 56 69 3d
       0.052093286 0.014679334 -0.10759261 0.05696737
000040 ec 01 11 bd 8a 5d 0c 3e b0 67 dc 3d 8a 5b 30 3d
       -0.035402223 0.13707557 0.10761964 0.04305605
000050 2a 1c c5 3d f5 e0 4d 3d b0 31 0d 3e e7 ea ff bb
       0.096245125 0.050263364 0.13788486 -0.007809985
000060 68 9b 43 3c 1f 7a be bc c7 d6 cf 3c 03 ed 80 bd
       0.011938907 -0.023251591 0.025370969 -0.062952064
000070 ef 1f 25 bd 3f 3f 8f 3d 98 56 83 3d 10 62 28 bd
       -0.040313657 0.06994485 0.06413001 -0.041109145
000080 4d a7 d6 bd 76 aa 82 3d 2a fd 11 be 50 43 b5 bc
       -0.10481129 0.06380169 -0.1425673 -0.022126824
000090 09 bf f5 bd 44 5e cb 3d 80 2c c4 3d f8 0f d4 bd
       -0.11999328 0.09930089 0.095788 -0.10354608
0000a0 42 6b d8 bd 12 86 87 bd 69 71 3f 3d a9 c1 9a bd
       -0.10567333 -0.06617369 0.046739016 -0.07556469
0000b0 ae a7 5b bd 9b 4f e3 bc fc cd 12 3d dd 89 47 bd
       -0.05362671 -0.02774792 0.035840973 -0.04871546
0000c0 64 b7 60 3d 80 fe c1 bd 18 fb ae bc e3 57 a4 3d
       0.054862395 -0.0947237 -0.021359965 0.080245756
0000d0 a3 3d 77 bd e1 48 b2 3d 07 a6 52 3d e6 5c e4 bc
       -0.060361516 0.08705307 0.051427867 -0.027876329
0000e0 d8 8e fd 3c 9c 27 8c bd f9 e1 6c 3c 47 3e 7c 3c
       0.030951902 -0.068434924 0.014458173 0.015395707
0000f0 77 02 cb 3d 70 9b 80 bd 73 4b 8d bd 0c d6 85 bd
       0.099125795 -0.06279647 -0.068991564 -0.06534967

weight f4 [3, 64]
000000 2a f1 19 be dd 01 2a 3c 7a f0 0c be 60 c3 e6 39
       -0.15033403 0.010376421 -0.1376361 0.00044014584
000010 ee 99 3b bd a1 6e db 3c 41 19 76 3d 6c 79 ea bd
       -0.045801096 0.02678615 0.060082678 -0.11448941
000020 4c e9 7f bd 0f af 23 3b 0d 05 96 bd 45 e2 44 3d
       -0.06247835 0.002497617 -0.07325182 0.04806735
000030 d9 5e 27 3d f7 9e c9 bd a9 24 cb 3d 0f 1a bd 3d
       0.04086194 -0.09844773 0.09919102 0.09233486
000040 5c 9a 9b bd e3 02 c6 ba ce ca 20 3c cf f0 fb bc
       -0.07597801 -0.0015107061 0.009813977 -0.030754475
000050 05 f2 e2 bd cb fa d8 3d 08 5a ae 3d 0e 29 e6 bd
       -0.11081318 0.1059471 0.08513266 -0.11238299
000060 93 bb 63 bd 89 01 17 3e fc 8c 5b 3c c9 53 0b bd
       -0.055598807 0.1474668 0.0134003125 -0.03401545
000070 88 23 ab 3d d0 27 76 3d 3c db 40 3d 3a c7 ad 3d
       0.083563864 0.060096562 0.04708408 0.08485265
000080 9b 8d d8 3c 3f de d5 3d 35 16 a9 bd 0e 66 b7 bd
       0.02643471 0.10442781 -0.08256189 -0.08955012
000090 c6 2f 8c 3b ad ca 20 3b 06 e9 b4 3d 41 0a fa 3b
       0.004278156 0.0024534867 0.08833508 0.007630617
0000a0 c5 46 ad 3c 01 b8 14 bd ee 33 e0 3d 29 37 1e bd
       0.02115191 -0.036308292 0.10947405 -0.038626824
0000b0 aa 7a 45 bc 03 9f ee 3d 2d 60 e3 3d 70 aa 0c 3e
       -0.012053171 0.11651423 0.111023284 0.13736892
0000c0 9c b2 e8 bd 80 c7 ad bd 5b 98 51 bd ec d4 87 bd
       -0.11362192 -0.08485317 -0.051170688 -0.066324085
0000d0 55 c1 51 3d 19 56 7b 3d 71 61 34 3c 12 fd 7c bc
       0.051209766 0.061361406 0.01100956 -0.015441196
0000e0 62 c7 12 3d 36 22 e9 3d c3 0c 95 3d 06 59 a7 bd
       0.035834678 0.11383478 0.07277825 -0.08171277
0000f0 fd 4f d9 bd 9d a9 7d 3d 6b 93 d4 bc d7 c4 cb bd
       -0.1061096 0.061929334 -0.0259492 -0.099496536
000100 06 39 d2 bd 75 4e c9 3c 0c 2c 79 bd 9c d4 97 bd
       -0.102647826 0.024573544 -0.060833022 -0.07413599
000110 13 85 8f 3c e2 2c 9d 3d 4a 5e b1 3d 1f 9b 98 3d
       0.01751951 0.07674576 0.08660562 0.07451462
000120 d8 20 c5 bd 24 fd 95 3d a6 67 97 3d 10 04 58 3d
       -0.09625405 0.07323673 0.07392816 0.05273825
000130 14 14 39 bc d2 de 8c 39 e0 48 70 bd 7c 40 b3 bd
       -0.011296291 0.00026868895 -0.05866325 -0.08752534
000140 e6 54 09 bd 6a 5d 27 bc 2f e3 cf bd 74 21 3e 3b
       -0.03352823 -0.010215143 -0.10150754 0.0029011639
000150 d8 21 02 be 67 7d 93 bd 3b ee 52 3d c9 d3 0b be
       -0.12708223 -0.07201653 0.051496726 -0.13655008
000160 2a b7 d3 3d 27 be e9 3d fa df a0 bc 32 97 b3 bc
       0.1033767 0.11413222 -0.01963805 -0.021922681
000170 61 80 e4 bd bd fb de 3b 19 57 d7 bb da 4b e1 bd
       -0.11157299 0.006804912 -0.006571662 -0.11000796
000180 08 f7 b2 3d 5f 5c c7 bc a6 e2 80 3b c1 e0 44 bb
       0.08738524 -0.024336038 0.0039332686 -0.003004119
000190 89 ac e5 bd 7c 73 a1 bd 89 63 1a 3d e6 74 f8 3d
       -0.11214549 -0.07883355 0.03769258 0.121316716
0001a0 61 30 9e bd 88 ba 4e 3d 0b fa 05 3c 09 07 96 bd
       -0.07724071 0.05047086 0.008177291 -0.073255606
0001b0 cd 2b 24 bc 3f ed b7 3d 26 b1 5c 3d 9d e9 81 3d
       -0.010020209 0.08980798 0.05387988 0.06343386
0001c0 8e a0 0b bd 82 cd 9f bd d4 99 e0 3d d3 a4 15 bd
       -0.034088664 -0.078028694 0.109668404 -0.03653414
0001d0 8d 1b 13 3d fd 45 ce 3d 03 ea b1 3d 08 ac fc bd
       0.035914946 0.10071943 0.08687212 -0.123375
0001e0 54 bc c9 bd 3d 9f 78 3d cc c6 cb 3c d5 e1 2e 3d
       -0.09850374 0.060698736 0.024875067 0.04269584
0001f0 c2 10 ed bd 7f f4 0b bc 75 7f bf 3d 61 92 3a 3d
       -0.11575462 -0.008542179 0.093504824 0.045549754
000200 8b 92 cb 3d 2f 5d d1 3d 89 a6 e8 bc b6 32 3d bd
       0.0994006 0.102228515 -0.028399723 -0.04619094
000210 11 22 58 bd 6b f1 c2 3c 89 7f 5f bd de 7d ee 3b
       -0.052766863 0.023796758 -0.054564986 0.007278188
000220 97 46 55 3c c5 f5 3f 3d f2 0c 23 3d 0e 4d 66 3d
       0.013017318 0.046865243 0.039807267 0.05622583
000230 3a 27 e6 3a 10 26 91 3d 56 d5 2c bd 12 48 7d bd
       0.0017559298 0.07087338 -0.04219564 -0.06183631
000240 7c 01 0e bc 23 b0 68 bd f2 04 a4 3d 32 e3 d0 bc
       -0.008667346 -0.056808602 0.08008756 -0.02549896
000250 24 5a 63 3d 66 28 8d bc 8d 03 70 3b 8e cb 0e bd
       0.055505887 -0.017231178 0.003662321 -0.034862094
000260 81 c0 9b bb 85 1e de bd 2e ef 5b bd c4 93 9d 3d
       -0.004753173 -0.10845665 -0.053694896 0.076942
000270 fe 3e ce bd ff 0f 8c 3c 0c 94 99 3a ca ad 92 bd
       -0.100706086 0.017097471 0.0011717095 -0.07162054
000280 69 6e 53 3d 71 00 50 3d 63 86 fb 3d 84 bf 32 3c
       0.051618967 0.05078167 0.122814916 0.010909919
000290 b9 e2 d7 3d 35 36 c6 3a 29 fd 2c 3d 7d bd 07 3d
       0.10541291 0.0015122356 0.04223362 0.033139694
0002a0 88 da 92 bd 09 51 78 bc 8a 35 cb bd 91 bc d4 3d
       -0.07170588 -0.015156039 -0.09922321 0.10387529
0002b0 e5 1b 37 3d 56 9f 34 bd 2d 2d 2c bd 8a b7 66 3c
       0.044704337 -0.044097267 -0.04203527 0.014081845
0002c0 14 3b 9e bd 05 36 07 3c 8f d9 2e 3d 6b 48 9d 3c
       -0.07726112 0.008252625 0.04268795 0.01919957
0002d0 ce 43 76 bb a8 aa 76 3d aa 5f 20 3d 0d 4e 48 bd
       -0.0037577036 0.060221344 0.039153732 -0.04890256
0002e0 c1 55 95 3d eb 33 84 bd 3a 0d 2b 3d 5a a5 db 3d
       0.07291747 -0.06455215 0.04176066 0.10724898
0002f0 fc 05 b8 3c 6e a1 e3 bc 15 fc 3d bd eb a8 29 bd
       0.022463791 -0.027786937 -0.046382982 -0.04142086

bias f4 [3]
000000 4c 99 51 bc 95 44 53 bd 95 cc d9 3d
       -0.0127928965 -0.051579077 0.10634724

weight f4 [64, 16]
000000 4c d9 dc bd a0 93 d4 3d 46 65 6d be 88 c8 01 3e
       -0.107836336 0.1037972 -0.23183164 0.12674153
000010 57 d5 59 3e 94 84 37 be 2a 77 82 bd fd 29 74 3d
       0.21272789 -0.17921668 -0.06370385 0.059610356
000020 4d 05 75 be df e6 21 be d4 10 b2 3d aa 0f 71 3e
       -0.23927803 -0.15810727 0.08694616 0.23541132
000030 f8 f4 98 bd 76 91 c7 ba 01 14 76 be aa b6 74 be
       -0.07468599 -0.0015225846 -0.24031068 -0.23897806
000040 c5 46 45 40 7f c4 62 3f 6e bd d1 3f c1 3e 26 3f
       3.0824444 0.8858108 1.6385934 0.64939505
000050 ae 7c 31 bf 86 ab 36 40 01 b1 39 be 46 bb 8c be
       -0.6933087 2.854219 -0.18133928 -0.27486628
000060 01 71 b3 be 51 b9 44 be 4c 39 ea 3d 3f 04 8e 3e
       -0.35047153 -0.19211318 0.1143671 0.27737615
000070 83 af 8d bb c4 33 f9 be 3f 83 a6 be 19 2d c7 3d
       -0.004323901 -0.48672307 -0.32522008 0.097253986
000080 e0 2e cd 3f 1b d7 1b c0 6d 80 5f bf 45 19 ad 40
       1.602993 -2.435004 -0.8730534 5.4093347
000090 3e 87 15 40 28 7f af 3f 13 47 43 3f a4 ad a0 be
       2.3363795 1.371068 0.76280326 -0.31382477
0000a0 33 95 69 3c d9 d9 ab be 6e c8 9e be 2e 6c 27 3e
       0.014256763 -0.33564642 -0.3101229 0.16349861
0000b0 9e 12 10 3e 02 ca c2 be 68 f2 0e be 64 53 88 be
       0.14069602 -0.38044745 -0.13959658 -0.26626122
0000c0 16 6f f6 bd 0f bd 57 3c 17 49 6d be ec cb 05 bd
       -0.12032907 0.013167634 -0.23172413 -0.03266518
0000d0 d9 6a 65 3d 47 ca 5b 3e c5 2a bd bd b0 d2 64 3e
       0.0560101 0.21463881 -0.09236673 0.22345996
0000e0 ed 4b 85 bb 74 e8 4c be 1f ed 8f 3e 77 8b 45 3e
       -0.004067889 -0.20010549 0.28110597 0.19291483
0000f0 c2 26 7b be 15 4e 36 be ce 94 ad 3d ab 00 43 be
       -0.24526504 -0.17803223 0.08475648 -0.19043224
000100 37 08 38 bf b0 38 cc be 3d 96 b9 3e 3d 56 b9 3e
       -0.71887535 -0.39887 0.36247435 0.36198607
000110 1d d0 03 3f ce bf 68 bf cc 96 08 bd 56 c3 02 3d
       0.5148943 -0.9091767 -0.033346936 0.031924568
000120 ee 82 f5 3c 13 c7 fd bd 51 51 9f bd 3d 92 1e 3a
       0.029969659 -0.12391486 -0.07779182 0.0006049013
000130 23 00 3a be bc 99 d9 bc 0d 06 48 3e 02 23 ba be
       -0.18164115 -0.026562564 0.19533558 -0.36354834
000140 58 11 f0 3f 68 56 8a 3f 70 aa ef be b6 fc 8a bf
       1.8755293 1.0807619 -0.4680972 -1.0858371
000150 7e 9b 9f bf e3 43 ed 3f 19 57 1f be 2f 78 58 be
       -1.2469327 1.8536342 -0.15560569 -0.21139596
000160 4e 1d c6 3e bb 5c e2 be 23 ce a4 3e d7 86 75 3e
       0.38694233 -0.44211373 0.3218852 0.23977219
000170 2d c7 84 be e8 e3 8d be b7 3a 5c 3e 32 4b 48 bc
       -0.2593321 -0.2771294 0.21506773 -0.012224959
000180 48 97 a5 3e 38 dd 65 3f 57 81 ab be 96 04 6f bf
       0.3234198 0.8979068 -0.33497116 -0.9336637
000190 cb 3c 76 bf f5 ae ac 3e 17 ad 9e be c5 84 ed 3e
       -0.9618651 0.33727232 -0.30991432 0.46390358
0001a0 0b 52 28 3e 00 02 a5 be 6c 57 80 bd 2e d3 55 3f
       0.16437547 -0.32228088 -0.062666744 0.8352536
0001b0 65 64 47 be f8 d1 a8 3d a3 15 dc bd f5 ae 6a be
       -0.19471891 0.08243173 -0.107463144 -0.22918303
0001c0 68 28 dc 3f c6 f9 81 bf f0 09 4a bc 6d ad 5a 3f
       1.7199831 -1.015435 -0.012331471 0.85420877
0001d0 bc fd 8e 3f 4e 4b ac 3f 79 78 de 3d 48 8a 35 3d
       1.1171184 1.3460481 0.10862822 0.04432133
0001e0 85 91 67 be db 44 36 3e 52 f2 d0 bb dd 75 20 bd
       -0.22614105 0.17799704 -0.006376543 -0.039174903
0001f0 a0 07 18 3d ea 9f 8b 3e a6 cc 2b 3e c3 6d 29 3e
       0.037116647 0.27270442 0.16777286 0.16545777
000200 41 3d 34 40 ab 35 e2 3e 7a f5 7d be 6a 98 d3 bf
       2.8162386 0.4418157 -0.24800673 -1.6530888
000210 ed 54 f8 be bb 58 16 40 ee a2 62 3c 9e c9 02 3f
       -0.48502293 2.3491657 0.013832791 0.51088893
000220 44 3d 03 3f 34 f7 0c 3e 3a 72 5d 3e 22 1a 01 3f
       0.5126536 0.13766176 0.21625605 0.504305
000230 8c 57 51 38 d2 c2 2f 3d f6 2e e9 3e 58 06 3f ba
       4.9911017e-05 0.042910405 0.4554364 -0.0007287017
000240 08 d0 bb bf 77 62 bd 3e eb dc f0 3d 56 9a 32 3f
       -1.4672861 0.36989185 0.11760887 0.6976675
000250 34 8b 01 bf af 2f ad bf b0 8b 84 bc d9 97 94 3c
       -0.5060303 -1.3530177 -0.01617989 0.018138813
000260 f9 c7 3a bf a1 f7 9e 3c b6 19 81 3e 76 3d 15 bf
       -0.72961384 0.019405188 0.25214928 -0.58296907
000270 ed 50 ca 3d ee 8f 06 bd 8c 79 df be 01 b1 22 be
       0.098787166 -0.032852106 -0.4364742 -0.15887834
000280 b5 a9 9e bf e9 c5 05 3f 61 6a da be 31 41 1c 3f
       -1.239554 0.5225511 -0.42659286 0.61036974
000290 8c 3d 06 bf f2 c6 77 bf 6d 75 28 3e 3e e7 1a bf
       -0.52437663 -0.9678794 0.16451044 -0.605091
0002a0 f2 b5 ed 3e cf f6 74 3d 9d ab cc be 70 93 c7 3e
       0.46427876 0.059805688 -0.3997468 0.38979673
0002b0 14 f2 e6 3b bb 26 87 bd c4 3d e8 3e 3f d1 13 3d
       0.007047901 -0.06599184 0.45359623 0.036088225
0002c0 c7 6f 59 3f 98 a0 ec bd fa 16 82 3e 30 1a a8 3f
       0.84936184 -0.11554068 0.25408155 1.3132992
0002d0 f6 46 8d be 19 17 4d 3f c5 0a 48 3e 84 b3 1b 3f
       -0.275932 0.8011337 0.19535358 0.60820794
0002e0 5a f3 e1 3e 87 8e 61 bd aa 44 29 bc 6e 15 67 3e
       0.44130975 -0.055067565 -0.010331312 0.22566769
0002f0 70 11 cd 3e 2d b7 d2 3e fd 8b 56 3d c2 30 31 3e
       0.40052366 0.41155377 0.052379597 0.17303756
000300 53 17 9b be c6 2b 30 3f 6a 4e 3e bf 68 aa 85 3e
       -0.30291232 0.6881679 -0.743384 0.26106572
000310 09 67 4f bf f0 e4 d4 be b3 5b 98 be 3f 91 0b 3e
       -0.81016594 -0.41580915 -0.2975746 0.13629626
000320 80 96 81 3d b2 ff 68 be 93 4d cf 3e 12 fb 5f 3e
       0.06327534 -0.2275379 0.40488872 0.2187312
000330 16 1f 4d 3e 50 89 17 3f 36 f3 a8 3d c2 e1 5b 3e
       0.2003139 0.591939 0.08249514 0.21472839
000340 21 5d 4c bf e3 41 e2 3e c3 33 4a be dc 67 ff be
       -0.79829603 0.44190893 -0.19746308 -0.49883926
000350 c6 68 bb be e5 0c 16 bf 62 5a 95 3e 96 c4 58 be
       -0.36603373 -0.58613425 0.2917052 -0.21168742
000360 d6 a7 7d be 45 07 6e 3c 42 5c 58 bd fd 84 7f bd
       -0.24771056 0.0145281 -0.05282236 -0.062382687
000370 ed 9c af 3e a8 95 29 3e 8d 42 ac be e4 0f 75 3e
       0.34299412 0.16560996 -0.33644524 0.23931843
000380 b9 61 9a 3f b5 50 2b c0 73 ba 39 be f9 40 11 40
       1.2061073 -2.676801 -0.18137531 2.2695906
000390 00 08 1a 40 18 32 c5 3f 6e 17 eb 3e cc 72 c3 be
       2.4067383 1.5405912 0.45916313 -0.3817352
0003a0 3f 39 02 bf 12 4e c0 be eb 53 81 bc b3 d5 37 bd
       -0.508686 -0.37559563 -0.015787086 -0.044881534
0003b0 98 af ed bd 56 e6 6f bf cc a7 98 bd a1 2e 3f be
       -0.116057575 -0.9371084 -0.0745388 -0.18670131
0003c0 e8 9a 47 be 57 59 15 bf 69 66 ec 3b 9d d0 18 3f
       -0.19492686 -0.58339447 0.0072143567 0.5969332
0003d0 72 08 89 3e 83 51 52 be 90 de 0a 3f e1 b0 cd 3e
       0.26764256 -0.20538907 0.54245853 0.4017401
0003e0 c3 7a 3b be 0d 5b b2 bd 9e cc 17 3e e9 b0 bb be
       -0.18308549 -0.08708773 0.14824149 -0.3665841
0003f0 da 28 96 3e d0 23 af 3d 1e ce 58 3d 29 4b c5 3d
       0.29328042 0.085517526 0.052930944 0.09633476

bias f4 [64]
000000 94 e0 ed bd d0 ff b8 be e0 2e 3b 3d b5 f7 16 be
       -0.116151005 -0.3613267 0.045699 -0.1474293
000010 b6 53 ba 3d 3d 3c 84 be df a6 34 be a3 8f 34 3e
       0.09097998 -0.25827208 -0.17641781 0.17632918
000020 09 0d dc bd 46 cb 5c be 20 9b 64 3e fe e1 0d 3d
       -0.10744674 -0.21561918 0.223248 0.03463935
000030 61 5b 1d be e8 f8 b2 3c 57 8d 27 be 59 30 af 3d
       -0.1536689 0.021847203 -0.1636251 0.085541435
000040 0a 84 60 be 18 6d 20 3e df cb 80 be 22 74 24 3c
       -0.21925369 0.15666616 -0.2515554 0.010037454
000050 8f b1 49 3e fd d7 bf 3c dc 16 4a be 0a 2e 93 3e
       0.1969664 0.02341842 -0.19735283 0.28746063
000060 bf af 01 3e 21 66 d4 be 48 1f da 3e da 19 10 3e
       0.12664698 -0.41484168 0.4260199 0.14072362
000070 7d cb 60 be 43 0e 43 be 46 01 a9 be 0a f0 43 3c
       -0.21952625 -0.19048409 -0.33008784 0.011959085
000080 80 28 38 bc d1 56 1e bd a3 44 65 bd c2 63 9f 3e
       -0.011240125 -0.038657013 -0.05597366 0.31130797
000090 e5 f5 4b be 73 7d c9 3d b6 d7 c6 3e b1 7a 46 3e
       -0.1991802 0.09838381 0.3883645 0.1938274
0000a0 df eb 67 bd cd 0b 90 bd 6e e5 71 3e 9a 97 dc bd
       -0.05662143 -0.07033501 0.23622677 -0.10771103
0000b0 65 c7 8a 3d 14 58 f5 bd 90 80 27 3e d0 a4 19 3e
       0.06776313 -0.1197969 0.16357636 0.15004277
0000c0 33 d7 a6 3d e3 b9 bf be cc a2 76 3e 67 47 6f be
       0.08146515 -0.37446508 0.2408554 -0.23367082
0000d0 13 13 bf be 8f 81 0c bd 2c 54 12 3e c5 e2 92 be
       -0.3731924 -0.034303244 0.14289922 -0.28688636
0000e0 a3 a6 6c be e2 7c 36 be 10 b3 7d 3e 9d 92 8e bc
       -0.23110442 -0.17821077 0.24775338 -0.017403895
0000f0 9a 79 9a 3e 5b f6 2b be 8a 0e a3 be 37 27 05 bc
       0.301709 -0.16793196 -0.3184703 -0.008127025

weight f4 [64, 64]
000000 8e 30 dd 3d 98 16 1e be 10 3a 31 3e a6 e2 0b bd
       0.10800277 -0.15438306 0.17307305 -0.034151696
000010 9d 38 43 3e 8b ab 42 3f 8c 08 93 3e 8a 9d c1 bd
       0.19064565 0.76043004 0.28717458 -0.09453876
000020 a4 cd 54 3f fc 6d 6b be 84 5a da bd 01 3a 80 3e
       0.8312628 -0.22991174 -0.10661796 0.25044253
000030 68 02 1b 3e 83 f3 74 3c 57 13 8b 3e 64 21 ff bd
       0.15137637 0.014950636 0.27163193 -0.12457541
000040 09 de 23 3f 0f 4e 05 3f 0e 30 fc 3e 9e 19 6c be
       0.64010674 0.5207223 0.49255413 -0.23056647
000050 32 9a be be fe 14 b0 be ae 24 de bc c2 ba 71 3d
       -0.37227017 -0.34391016 -0.0271171 0.059015997
000060 32 c6 a8 bb 06 86 de 3d 7b 5e 99 bd a6 15 21 3e
       -0.00515058 0.10865407 -0.07488724 0.15730914
000070 8d 44 f6 bd 06 e8 81 bd c7 e9 13 3f 8e 15 65 bf
       -0.12024794 -0.06343083 0.5777859 -0.89486015
000080 df b8 03 be 2d 84 36 bd 36 5e 0f bd b0 ee 28 3d
       -0.12863491 -0.044559646 -0.035001956 0.041243255
000090 b8 92 8e be a5 60 56 3d df 5a e7 be c5 fd b0 bd
       -0.27846313 0.05233826 -0.45186517 -0.08642153
0000a0 5b de fb 3d b8 55 09 bd dc f8 e0 be a5 08 4b be
       0.1229827 -0.033529013 -0.43939865 -0.19827516
0000b0 55 59 08 be 84 21 d3 bd dc 66 a9 3d 7e 69 16 bd
       -0.13315327 -0.10309127 0.08271572 -0.0367217
0000c0 f0 b2 9b bd a2 3c 0f bf 01 91 12 3b ba 2b 6e 3d
       -0.07602489 -0.55951893 0.002236426 0.05814717
0000d0 12 28 b9 bc 8e a5 9d be 3b 8f 13 be 11 90 c1 3d
       -0.022602115 -0.3079037 -0.14410107 0.094513066
0000e0 ed 09 92 bd 17 81 77 3e e8 29 ee bd ee b9 91 3e
       -0.071307994 0.24170338 -0.11629087 0.28462166
0000f0 79 b9 30 be 82 e8 68 3d 9c 00 10 3f 6c 35 ce 3d
       -0.17258252 0.05686236 0.5625093 0.10068783
000100 aa 0a a4 be 22 a5 2d 3e ae 66 64 be da 53 f6 bd
       -0.32039386 0.16957524 -0.22304794 -0.12027712
000110 30 13 8c be d9 1c 51 3d bc a2 54 be b9 fa 0a 3e
       -0.2735839 0.051052902 -0.20765203 0.13572206
000120 23 14 a4 3e 4e 7b 9b be 39 5d 8e 3e d7 f4 07 3e
       0.32046613 -0.30367512 0.27805498 0.13276993
000130 2c 20 f9 3c fe de 29 be 29 d9 77 be ce 0d 6a 3e
       0.030410849 -0.16588971 -0.24203934 0.22856829
000140 8d 9a 96 39 56 3c d5 3e 88 ae 6b 3e df 7c 29 bd
       0.0002872538 0.41647595 0.23015797 -0.041378852
000150 de 37 1c bf 03 21 e2 bc 0a 83 a4 be fd 1e 1d 3e
       -0.61022747 -0.027603632 -0.32131225 0.15343852
000160 8d 3e a9 be fa b3 2e bd 6f 82 8c 3e 9f 66 a6 be
       -0.33055535 -0.042652108 0.27443263 -0.3250017
000170 ec f2 6c be b2 cb 91 3e c3 18 96 3d 7f aa 17 bf
       -0.23139542 0.2847572 0.07328942 -0.5924453
000180 43 55 6b 3e 0a cc 2a be 2b 07 b4 be eb 79 fa 3c
       0.22981744 -0.16679397 -0.3516172 0.030575713
000190 c8 b1 6d 3e d9 59 6c bd 1e e1 b6 3e ca 1c 05 3e
       0.2321235 -0.057702873 0.35718626 0.12999263
0001a0 34 6f af bd f2 3c 9e 3d 15 bc b1 3d 21 9e af 3e
       -0.08566132 0.07726468 0.08678452 0.3430033
0001b0 b1 51 b9 3e 0e f1 8d be b1 73 d5 3d d7 10 8b be
       0.36195138 -0.27722973 0.10422457 -0.27161285
0001c0 ce d8 4b be c0 a0 fa 3d d2 97 a2 be a2 f5 38 be
       -0.19906923 0.12237692 -0.31756455 -0.18062451
0001d0 66 bc 67 be f2 a0 2b be b6 9a 53 be 5c 83 a0 3d
       -0.22630462 -0.16760615 -0.20664486 0.07837555
0001e0 cf 92 65 be b7 e8 ec 3d 9e d5 9e bd df 3a 63 be
       -0.22419284 0.11567824 -0.07755588 -0.22190426
0001f0 dd 6a cf 3d 29 01 97 bd f7 12 10 be 2b bd 0e be
       0.101278044 -0.07373268 -0.14069735 -0.1393935
000200 27 b3 9a 3d c8 59 3b be 0b d2 18 bf 87 2b c4 3d
       0.07553702 -0.18295968 -0.596955 0.09578615
000210 78 25 d5 3d ff 5c df be 98 fe fc 3d 86 e9 21 3c
       0.10407537 -0.43625638 0.123532474 0.0098823365
000220 5b 3a a5 be ff a9 5b 3e 52 57 8e bd bb d5 ab bc
       -0.32271084 0.21451567 -0.06950249 -0.020975938
000230 34 a4 23 3e 19 d3 1d be c3 2b a3 be 33 c2 3b be
       0.15980607 -0.15412559 -0.31869325 -0.183358
000240 d1 1a d4 bd 10 5c 7c bf d5 f1 2f 3f ae b0 dc 3d
       -0.10356677 -0.98577976 0.6872838 0.107758865
000250 3a 05 9c 3f 88 6e 2e 3e f1 4a b5 3c 3d 83 d7 bc
       1.2189095 0.17034352 0.022130461 -0.026307696
000260 f7 46 d6 3d 3a c0 74 be b6 bf 18 3e 95 53 5b 3e
       0.10462754 -0.23901454 0.14916882 0.21418603
000270 6e 6c f8 bd 17 af 7c be 50 05 1a bf 6d 11 5a 3e
       -0.12130056 -0.24676166 -0.60164356 0.2129571
000280 7b 7e 24 be 85 57 e9 3d fe 38 4c bc 61 5e 3f 3e
       -0.16063873 0.11393646 -0.01246476 0.18688346
000290 1b 64 40 3e 9b d0 1e 3d f3 83 a3 3e 53 9e 23 be
       0.18788187 0.03877316 0.31936607 -0.15978365
0002a0 83 9e 2d 3c 73 7f bf be b0 17 94 3d b7 17 e4 3c
       0.010596874 -0.37401924 0.072310805 0.02784334
0002b0 fc c8 5e 3c 61 ec de 3e 7e 0f ca bc 83 cb d2 3d
       0.013597723 0.43539718 -0.02466559 0.10292723
0002c0 6b 3c 90 3e d8 78 7b 3e 3b 94 20 bd 5f d8 0f 3e
       0.28171095 0.24557817 -0.039203864 0.14047383
0002d0 09 cc 8a bb 83 13 0d be ba 8c ad 3e cd 5c 25 3d
       -0.0042357487 -0.13776974 0.33896428 0.040371705
0002e0 44 dc 1c 3d 71 1b dd 3c c1 b7 dd 3c 67 c3 aa bd
       0.038296 0.026990624 0.02706516 -0.08338051
0002f0 1b 02 08 3e aa 0e 03 bb 48 00 9b be f3 05 42 3e
       0.13282053 -0.0019997754 -0.30273652 0.18947582
000300 0d cd 48 be 05 78 85 3e 5d d8 6e 3d 74 79 d0 bd
       -0.1960947 0.2606813 0.05831181 -0.10179415
000310 cc df 14 be d9 f3 06 3e b0 d7 1f be 68 ad b5 3e
       -0.14538497 0.13178958 -0.15609622 0.3548386
000320 c5 e6 55 3e 36 64 94 bc 23 f3 97 bc 83 27 0a 3d
       0.20888813 -0.01811419 -0.018548554 0.033729088
000330 7b f9 95 3c b5 95 fa bd 27 f6 45 bd 2f e2 23 3e
       0.018307438 -0.122355856 -0.048330452 0.16004251
000340 a9 4b 31 be 0e d2 40 3f a9 25 7d 3e c8 14 7e bd
       -0.17314018 0.7532052 0.24721397 -0.062031537
000350 a1 8f 8c be cc 23 a4 3d 0f 9f 91 be d7 0d 5a 3e
       -0.2745333 0.0801464 -0.28441665 0.21294342
000360 8c d8 76 be 1b b2 c4 3c 6c a7 4a 3e 9b 20 65 be
       -0.24106044 0.024010709 0.19790429 -0.22375719
000370 d1 18 14 be 11 ef cf 3e 94 f7 f3 3a 43 d8 4d bf
       -0.14462592 0.4061208 0.0018613213 -0.80408114
000380 5b e3 a5 3e 5b 76 4d be 75 fe a3 be 25 5c 78 3d
       0.3240002 -0.2006468 -0.32030073 0.06063475
000390 a9 f7 af 3d cb 5b 31 bc 71 b1 13 3e 7b c8 cd 3e
       0.08592159 -0.010825108 0.14423157 0.40192017
0003a0 b9 4b 98 bd b7 49 d2 bd e6 47 d2 bd 69 26 80 3e
       -0.07436318 -0.10267966 -0.1026762 0.25029305
0003b0 0a 5a 70 be 37 a3 85 be a3 cd 43 3e c2 73 84 be
       -0.23471847 -0.26101086 0.19121413 -0.25869566
0003c0 8c fa cc bd da 5b c8 bd 10 c1 12 bd 16 7b 3b be
       -0.100087255 -0.09783144 -0.03582865 -0.18308672
0003d0 7b 26 07 be c4 f1 71 be e5 17 23 be f2 b3 aa bd
       -0.13198273 -0.23627383 -0.15927084 -0.08335103
0003e0 a3 73 91 be 4c d5 1f be 41 da a8 be 63 87 89 be
       -0.28408536 -0.1560871 -0.32979015 -0.26861104
0003f0 53 3a 12 bd da fb 05 be 55 66 03 3d 1c 7e 7a be
       -0.035700154 -0.13084355 0.032080013 -0.2446217

bias f4 [64]
000000 9d 68 06 be 22 5c a7 3e d2 38 35 3b 90 66 74 3e
       -0.13125844 0.3268748 0.0027652276 0.2386725
000010 92 12 9d bd bf 4e eb 3d f8 f7 44 3e 28 1e 8e be
       -0.07669558 0.11489629 0.19235218 -0.27757382
000020 3e 89 55 3e 20 72 8d be ef 8c b6 3d 7d d0 96 bd
       0.20853135 -0.27626133 0.089136 -0.07363985
000030 2a 30 d0 bd 29 02 83 3e 19 99 46 be 9a 46 12 3d
       -0.101654366 0.25587586 -0.1939434 0.035711862
000040 24 88 a6 be b4 a4 ab 3d 37 e2 2c 3e d3 d1 0f be
       -0.32525742 0.08381024 0.16883169 -0.14044885
000050 77 68 b7 be 8e 5a fe 3c ac 61 d6 bd e4 6d aa bd
       -0.35821888 0.03104904 -0.10467848 -0.08321741
000060 03 ea cc 3d e5 60 53 be b3 94 23 be 93 c3 13 bd
       0.10005572 -0.20642431 -0.15974693 -0.036075186
000070 55 3d 31 3e f9 7b cc bd 72 6f 88 3d d3 d7 6a be
       0.17308553 -0.099845834 0.066618815 -0.22933893
000080 b9 ea aa 3c 75 e0 19 3e db 4a 91 be ee 6b af be
       0.020863878 0.1502703 -0.28377423 -0.3426203
000090 0b 11 19 bd d1 6f b6 3e 10 35 11 be 1c 38 a9 bd
       -0.03736977 0.35632184 -0.14180398 -0.08262655
0000a0 41 00 8d 3c 77 bd 68 3e 79 19 42 3e 3d 08 57 3e
       0.017212035 0.22728525 0.1895503 0.20999236
0000b0 12 08 b6 3c 0b f8 57 3e 32 c4 ba be 37 e8 82 3e
       0.022220645 0.21090715 -0.3647781 0.2556779
0000c0 12 4d 2f be f8 40 ba 3d e8 83 92 be 33 55 2a be
       -0.17119244 0.09094423 -0.2861626 -0.16634063
0000d0 62 90 1c be 6e 53 20 3e e8 f6 1a 3e 78 ab f3 3d
       -0.15289453 0.15656826 0.1513325 0.118979394
0000e0 47 a6 fc bc ea 8c 8c 3e 1f 2d b3 3e c8 ef 03 3e
       -0.030841006 0.2745126 0.34995362 0.12884438
0000f0 6b 99 e6 3e 6c b2 bf bd ed dc ad bd 10 86 70 be
       0.45038924 -0.09360203 -0.08489404 -0.23488641

weight f4 [1, 64]
000000 8b 85 0b bf cf 32 b6 be 1d 8e e1 3e 79 9e 01 bf
       -0.54500645 -0.3558564 0.44053736 -0.50632435
000010 ca 00 b7 3e 32 03 fe be a2 ce 9e bd bf 1d f9 3e
       0.3574279 -0.49611813 -0.07754256 0.48655507
000020 58 ff e5 be a1 50 0d 3f 50 64 51 be 22 e0 7a be
       -0.44921374 0.55201155 -0.20448422 -0.24499562
000030 85 98 2e bd 13 ff 01 bf ad 0e 00 3f 07 21 89 be
       -0.042625923 -0.5077984 0.50022393 -0.2678301
000040 af 23 bd bd e5 7c 92 3e 7c f4 d4 bd a1 c5 09 3f
       -0.09235322 0.28610912 -0.10398194 0.5381718
000050 d0 50 95 3e c7 59 e4 be 1a 05 65 be 40 35 e3 bd
       0.29163218 -0.44599745 -0.22365227 -0.11094141
000060 1c d6 a3 3e 84 46 7a 3e cb 7b 9c 3c fc 41 95 be
       0.3199929 0.24440962 0.019101998 -0.29151905
000070 32 59 1b be 06 14 c5 3d 88 a5 80 3e da 9f 08 3f
       -0.15170744 0.0962296 0.2512629 0.53368914
000080 d9 eb 02 be de 1e fa be 75 39 10 3f 59 7b 19 3f
       -0.12785281 -0.48851675 0.5633767 0.5995384
000090 e6 a7 59 bf 8c c4 ec be 9e 57 e5 3e e9 e6 7a 3e
       -0.8502182 -0.46243703 0.4479341 0.24502148
0000a0 c3 04 2e be 5c c5 01 bf 5a 34 3d bf 9c 61 02 bf
       -0.16994004 -0.5069177 -0.7390801 -0.5093019
0000b0 b6 fa 27 bb 14 a5 9b be b0 09 d0 3e 5e f2 ca 3d
       -0.0025631613 -0.30399382 0.4063239 0.09909509
0000c0 49 e2 10 3f 8c a6 af be 93 16 67 3f e4 4d 46 3e
       0.56595284 -0.34306753 0.9026882 0.1936565
0000d0 0f de c9 3d b6 45 fa be 23 d9 fe be 17 8a 19 3f
       0.098568074 -0.4888131 -0.49775037 0.59976333
0000e0 ae 03 da be 79 61 8c be d3 23 5c be 7d d1 9a be
       -0.42580932 -0.27418116 -0.21498041 -0.30237952
0000f0 52 ee 1a bf b2 b0 08 bf 47 69 f9 be 16 32 b9 3e
       -0.605199 -0.53394616 -0.48713133 0.36171025
