output/2021-12-13_ppo/2021-12-13_14-47-38-ppo_s0/pyt_save/model.pt (torch_old, 47554 bytes, 12 tensors)

log_std f4 [3]
0	0xc01052c0	-2.2550507
1	0xbfea3cfd	-1.8299862
2	0xbfc8d52d	-1.5690056

weight f4 [64, 16]
0	0xbd06a79d	-0.032874692
1	0x3e1f5c51	0.1556256
2	0xbe813e75	-0.25242963
3	0xbc1a542e	-0.009419484
4	0xbdc40bd7	-0.09572571
5	0x3d03d18a	0.032182254
6	0x3d9ea12d	0.077455856
7	0x3e5da8f9	0.21646489
8	0x3d502558	0.050816864
9	0x3de37d0c	0.11107835
10	0xbde82ab8	-0.11336273
11	0xbda5d97e	-0.08098124
12	0xbe49238d	-0.19642468
13	0xbe325294	-0.17414314
14	0xbd825045	-0.063629664
15	0x3d5f5f87	0.05453446
16	0x3e89c84c	0.26910627
17	0x3e1eda61	0.15512992
18	0xbf883eab	-1.0644125
19	0xbe23007f	-0.15918158
20	0x3dae6f6f	0.08517348
21	0x3ebc2fa5	0.367551
22	0xbd618f85	-0.05506851
23	0x3d408fff	0.047012325
24	0xbb892406	-0.0041852025
25	0x3ce998a6	0.028515171
26	0x3e70c861	0.23513938
27	0xbe81159a	-0.25211793
28	0xbe1e6657	-0.15468727
29	0xbd76f6f6	-0.060294114
30	0xbdba1152	-0.09085335
31	0x3e5e41f2	0.21704844
32	0xbdc88693	-0.09791293
33	0xbe6ffa5f	-0.23435353
34	0xbe18c041	-0.14917089
35	0xbce504ec	-0.027956448
36	0xbcf3f9e2	-0.02978224
37	0x3e90a7ac	0.28252923
38	0x3e24a87b	0.16079895
39	0x3e1106b8	0.14162719
40	0x3d9f0f13	0.07766547
41	0xbdbd556a	-0.09244807
42	0x3c8f0347	0.017457617
43	0xbe33cfd9	-0.17559756
44	0xbe12bd0c	-0.14329928
45	0xbdc92d29	-0.09823067
46	0x3e40854d	0.1880085
47	0x3e3b1bcf	0.18272327
48	0xbed620e0	-0.41821957
49	0xbead0346	-0.3379156
50	0x3f767dc9	0.9628568
51	0x3efd3aae	0.49458832
52	0x3ee4c740	0.44683266
53	0xbe8deb59	-0.2771862
54	0x3e20b716	0.15694842
55	0xbd41f885	-0.047356147
56	0xbd66ba1a	-0.056329824
57	0xbe814c5c	-0.2525357
58	0xbe0a4188	-0.1350156
59	0xbe09777c	-0.13424486
60	0x3d503760	0.05083406
61	0x3dee3824	0.11631802
62	0xbe4d80c3	-0.2006865
63	0x3ca61359	0.020272898
64	0x3e0750b4	0.1321438
65	0xbd0d8681	-0.0345521
66	0x3c1cde6c	0.009574514
67	0x3d6ee5f5	0.058324773
68	0x3e1fd2a6	0.156077
69	0x3e742bb1	0.23844792
70	0xbe466712	-0.19375256
71	0xbdbaa0c5	-0.091126956
72	0x3dc8955e	0.097941145
73	0x3e52f535	0.20601352
74	0x3e7bb5f3	0.24581127
75	0x3e646afc	0.22306436
76	0x3ccc0b84	0.024907835
77	0xbe672552	-0.2257283
78	0xbbf5b3e0	-0.0074982494
79	0xbe43c3d2	-0.19117668
80	0xbf122baf	-0.57097906
81	0xbc2679ef	-0.010160907
82	0x3e550d83	0.20805936
83	0xbf7a8413	-0.9785778
84	0x3e95bcbe	0.2924556
85	0xbebec6cb	-0.37261042
86	0xbde69405	-0.11258701
87	0x3ea14a70	0.31502104
88	0xbd2969a6	-0.04136052
89	0xbda1c721	-0.07899309
90	0x3d79038c	0.0607944
91	0x3d561b6e	0.052272253
92	0x3e789a0d	0.24277516
93	0x3e26bb5c	0.1628241
94	0xbe5c4f95	-0.21514733
95	0xbdc7107e	-0.097199425
96	0x3f089172	0.5334693
97	0x3f255b3e	0.6459235
98	0xbeb3dc3d	-0.35128966
99	0xbf349d5b	-0.70552605
100	0xbeb21dd8	-0.34788394
101	0x3f167b44	0.5878184
102	0xbeb911f0	-0.36146498
103	0x3dbce4a9	0.09223301
104	0xbe5a6c52	-0.21330383
105	0xbd6fd594	-0.058553293
106	0xbdf7ce3f	-0.12099885
107	0xbe1de280	-0.15418434
108	0xbd7ae311	-0.061251704
109	0x3c88dfd5	0.016708294
110	0xbe28d823	-0.164887
111	0x3dc23f90	0.0948478
112	0xbe03c22d	-0.12867041
113	0x3dfdab85	0.123862304
114	0x3e351b83	0.17686276
115	0xbea23012	-0.316773
116	0xbbb6b9ce	-0.005576349
117	0x3d0122d3	0.03152735
118	0xbcdb6480	-0.02678132
119	0x3db1eb54	0.086874634
120	0x3dde97bf	0.10868787
121	0xbc4fa96c	-0.012674671
122	0xbdae948a	-0.08524425
123	0x3e217e5b	0.15770857
124	0xbe8bf088	-0.27331948
125	0xbe10354c	-0.14082831
126	0xbdbfae10	-0.09359372
127	0xbe1ea456	-0.15492377
128	0xbea8aea9	-0.32945755
129	0xbe9ddd31	-0.30832818
130	0x3b65570e	0.0034994516
131	0xbe2aa4b6	-0.16664395
132	0xbd37d8f0	-0.044884622
133	0xbe84f398	-0.25967097
134	0x3dccfd10	0.10009205
135	0xbe230bb4	-0.15922433
136	0x3dccfdc3	0.10009339
137	0xbd75591d	-0.05989944
138	0x3dc83c4f	0.09777128
139	0x3e452347	0.19251738
140	0x3e4f77b0	0.20260501
141	0x3de68846	0.11256461
142	0x3e69363e	0.22774598
143	0xbd52619e	-0.051362626
144	0xbf09fc86	-0.53900945
145	0xbe3324c1	-0.17494489
146	0x3e805765	0.25066677
147	0x3e80deb7	0.25169918
148	0xbd93f308	-0.07224089
149	0xbefe7aec	-0.49703157
150	0xbe09ce8c	-0.13457698
151	0xbeccf8ce	-0.40033573
152	0xbe3eb732	-0.18624571
153	0x3e493e93	0.19652776
154	0x3db97d4b	0.09057101
155	0xbe956171	-0.29175904
156	0x3e60fa2c	0.21970433
157	0xbe3778b0	-0.17917132
158	0x3bfc2404	0.007694723
159	0xbd2afa8b	-0.041742843
160	0xbe62da5a	-0.22153607
161	0xbe5f7957	-0.21823631
162	0xbe9e8abe	-0.30965227
163	0xbaf3f06e	-0.0018611082
164	0x3dc12ff9	0.09432978
165	0xbe21f50e	-0.15816137
166	0xbc85baef	-0.016324488
167	0x3dd5a90b	0.10432633
168	0xbdedfef3	-0.11620893
169	0x3d16d8e8	0.03682795
170	0x3e2dae42	0.16961005
171	0xbe287816	-0.16452059
172	0x3e8d5a66	0.2760803
173	0x3dd3a707	0.10334592
174	0xbe2f6774	-0.17129308
175	0x3e57178d	0.21005078
176	0xbf58a5be	-0.846279
177	0xbf52a3cc	-0.82281184
178	0x3e5b8950	0.214391
179	0xbda6956c	-0.08133969
180	0x3f338914	0.7013104
181	0xbf5e38d7	-0.8680548
182	0x3dc88678	0.09791273
183	0x3deca994	0.11555782
184	0x3e20cfe2	0.15704301
185	0xbc925686	-0.017863523
186	0x3ce3b697	0.027797027
187	0xbcc36b91	-0.023855003
188	0xbea4e5af	-0.32206485
189	0x3d9d1552	0.07670082
190	0x3dd85e8e	0.1056491
191	0x3d70ceab	0.058790844
192	0xbf19af4c	-0.60033107
193	0xbe2f3a90	-0.17112184
194	0xbe62fae0	-0.22166014
195	0x3ee4824b	0.44630656
196	0x3c8c40d4	0.017120756
197	0xbe92cb2e	-0.2867064
198	0xbe1ae851	-0.15127684
199	0xbd4fc02e	-0.050720386
200	0xbcf6f5d5	-0.030146519
201	0x3dd4d661	0.10392452
202	0xbe36c379	-0.17848004
203	0xbe1fd85f	-0.15609883
204	0xbe5e7a33	-0.21726303
205	0x3dbe3e10	0.09289181
206	0xbe1fd38d	-0.15608044
207	0x3e0cb821	0.13742115
208	0xbd57041a	-0.052494146
209	0xbdfe95b0	-0.124308944
210	0x3f0ff038	0.5622592
211	0x3f1cc856	0.6124319
212	0x3e4a9de3	0.19786792
213	0xbe47b69f	-0.19503258
214	0x3e0ec416	0.13941988
215	0x3e545320	0.20734835
216	0xbe475379	-0.19465436
217	0xbdfe77c5	-0.12425188
218	0x3e3f5630	0.18685222
219	0xbe6d8f31	-0.23199154
220	0xbc8596ed	-0.016307319
221	0x3e574c0e	0.21025106
222	0x3d97edad	0.0741838
223	0x3c5aa2a4	0.013344441
224	0xbe8415c5	-0.2579786
225	0xbe47efa2	-0.19525006
226	0xbe8e0c88	-0.27743936
227	0x3d0af217	0.03392228
228	0x3e816a16	0.2527625
229	0xbdb15af2	-0.086599246
230	0x3d311004	0.043228164
231	0x3ebe4b74	0.3716694
232	0x3d805792	0.06266703
233	0x3e6b1cb6	0.22960171
234	0x3e1df77b	0.15426438
235	0xbe20ac94	-0.15690833
236	0x3dde5801	0.10856629
237	0xbe325c67	-0.17418061
238	0xbddc32c2	-0.10751869
239	0x3d95c5e8	0.07313138
240	0x3e71fded	0.23632021
241	0x3d1af34b	0.03782968
242	0xbdf77e1c	-0.120846
243	0x3e8c9004	0.27453625
244	0x3e8b18fa	0.27167493
245	0xbdc3ea41	-0.09566165
246	0x3e9384a6	0.2881214
247	0xbda5bdf1	-0.08092869
248	0xbdfdc82c	-0.123916954
249	0xbd232c77	-0.039837327
250	0xbe0bd4eb	-0.1365544
251	0x3cdf0f60	0.027229011
252	0x3e552ecb	0.20818631
253	0xbdb4cbdc	-0.088279456
254	0xbe1e325d	-0.154489
255	0xbdbb4252	-0.09143509

bias f4 [64]
0	0x3ce3da54	0.027814068
1	0xbe709b34	-0.23496705
2	0xbdded52e	-0.108805045
3	0x3d521897	0.051292982
4	0xbdb7a92e	-0.08967815
5	0x3e66be77	0.22533594
6	0x3e0fcb95	0.14042504
7	0x3b4a5b67	0.0030877234
8	0xbd4c6464	-0.049900427
9	0xbc8eb50b	-0.017420312
10	0x3d3874fe	0.045033447
11	0xbd86670f	-0.065626256
12	0xbe83378f	-0.25628325
13	0xbd4e6ab2	-0.05039472
14	0xbe531c0f	-0.20616172
15	0x3e1ea54d	0.15492745
16	0xbe0dc382	-0.13844112
17	0x3e6d5dd1	0.2318032
18	0xbd1be1db	-0.03805719
19	0xbe1e0297	-0.15430675
20	0x3de7d18d	0.113192655
21	0xbb447aeb	-0.0029980491
22	0x3e163423	0.14668326
23	0x3c4a65d4	0.012353379
24	0xbe9bd45d	-0.30435458
25	0x3e363f47	0.17797576
26	0xbd4cbe47	-0.04998615
27	0xbe03a3f8	-0.12855518
28	0x3e4a6864	0.19766384
29	0x3e2788f0	0.16360831
30	0xbe776875	-0.24160941
31	0xbc9b36e5	-0.018947074
32	0x3e4b8800	0.19876099
33	0x3e2c3e40	0.16820621
34	0x3e583b85	0.21116455
35	0xbdb73219	-0.08945102
36	0xbdd598ba	-0.10429521
37	0x3e67f374	0.22651464
38	0x3e503839	0.20333947
39	0x3e7b74ac	0.24556226
40	0xbdb48012	-0.0881349
41	0xbe0c4b11	-0.1370051
42	0xbbeebe26	-0.007285851
43	0xbe392d1d	-0.18083616
44	0x3d251830	0.04030627
45	0x3e135ce5	0.14390905
46	0x3cdbf7e0	0.026851594
47	0xbd4425ea	-0.04788772
48	0x3de794d8	0.113076866
49	0xbe1436ee	-0.14474079
50	0x3e685982	0.22690395
51	0xbe5860dc	-0.21130699
52	0xbe888de4	-0.26670754
53	0xbcfd51c8	-0.030922785
54	0x3e5dca4b	0.216592
55	0x3b7d84c6	0.0038683875
56	0x3dfa9b00	0.12236595
57	0xbe6da366	-0.23206863
58	0x3dd9f8e9	0.10643179
59	0x3bc07b73	0.0058740913
60	0x3defe31a	0.11713238
61	0x3e381747	0.1797763
62	0x3d801bcb	0.06255301
63	0xbd14bb43	-0.0363114

weight f4 [64, 64]
0	0x3c5bbdfe	0.013411997
1	0xbd8b183c	-0.06791732
2	0xbd6d7664	-0.057974234
3	0x3db5441f	0.08850884
4	0xbd17d521	-0.03706849
5	0x3dcabf2e	0.09899746
6	0xbd762d8f	-0.06010204
7	0xbc838b78	-0.016057715
8	0xbcc40e70	-0.023932666
9	0xbd92004a	-0.071289614
10	0x3a618248	0.0008602482
11	0x3d82b2ae	0.06381737
12	0xbc74fe75	-0.014953245
13	0xbc4efe27	-0.012633837
14	0x3e09b39b	0.1344742
15	0x3dddbc0f	0.10826885
16	0xbc5639f3	-0.01307534
17	0x3d6ace1d	0.05732547
18	0xbd322e98	-0.043501467
19	0xbdcf23ff	-0.101142876
20	0x3ccdf1d5	0.025139729
21	0x3c64f23c	0.013973769
22	0xbda646ca	-0.08118971
23	0xbe1069b8	-0.14102829
24	0xbd8289d3	-0.06373944
25	0x3db1c9e3	0.08681085
26	0xbd6a5a38	-0.057214946
27	0xbe0f49e6	-0.13993034
28	0x3d1ebfef	0.03875726
29	0xbd5cc9fe	-0.053903572
30	0xbe1a07cc	-0.15042037
31	0xbd889f93	-0.06671061
32	0xbc74dd40	-0.014945328
33	0xbe00b002	-0.12567142
34	0xbe1cd826	-0.15316829
35	0xbd8d9748	-0.0691362
36	0xbdeae290	-0.114689946
37	0xbccdf1a1	-0.025139632
38	0xbddff8bb	-0.109361134
39	0xbd81cdcb	-0.0633808
40	0x3d80d41b	0.06290456
41	0xbdb20fef	-0.08694445
42	0xbd9402d2	-0.072271004
43	0x3dc8f608	0.09812552
44	0x3c788723	0.015168938
45	0x3c2a6016	0.010398885
46	0xbc83025c	-0.015992336
47	0xbdbf707c	-0.093476266
48	0x3ccc237a	0.02491926
49	0x3c4b41bf	0.012405812
50	0x3dafe079	0.08587737
51	0xbe100e99	-0.14068069
52	0xbca90ad5	-0.020635048
53	0x3d7e8c30	0.062145412
54	0xbd7bd5c3	-0.061483156
55	0xbd870eec	-0.06594643
56	0x3d44db63	0.048060786
57	0xbe0bd18d	-0.13654156
58	0x3d7cc29a	0.061709024
59	0xbe025234	-0.1272667
60	0x3d8b1a31	0.06792105
61	0xbdf5a0da	-0.119935706
62	0x3dbabb26	0.09117727
63	0xbd9d4cf4	-0.07680693
64	0xbd85f7c2	-0.06541397
65	0x3cb3149f	0.021860419
66	0x3d9e1bb5	0.077201284
67	0xbe16cd09	-0.14726652
68	0xbd098aee	-0.03357976
69	0x3e1055b0	0.14095187
70	0x3c4b56e3	0.012410852
71	0x3d977a20	0.0739634
72	0xbe0ea73a	-0.1393098
73	0xbd4c1e33	-0.049833488
74	0xbdaa809b	-0.08325311
75	0x3dce137a	0.100623086
76	0x3cf73699	0.030177401
77	0xbdf02993	-0.1172668
78	0x3ce9fc33	0.02856264
79	0x3cbad54b	0.022806784
80	0xbc96d0b8	-0.018410072
81	0xbdc69f0f	-0.09698307
82	0xbdb28f7c	-0.08718774
83	0x3df08b64	0.11745337
84	0xbde5c9c0	-0.112201214
85	0xbdc0f939	-0.094225354
86	0xbda27ddb	-0.07934161
87	0xbc86da87	-0.016461624
88	0x3d5447a8	0.05182615
89	0x3c8ea38a	0.017411966
90	0xbd3c6e44	-0.046003595
91	0xbd96689e	-0.07344173
92	0xbcee365b	-0.029078653
93	0xbd5922f7	-0.05301186
94	0x3e244842	0.16043189
95	0xbe184b03	-0.14872365
96	0xbd8233f4	-0.063575655
97	0xbd83f3e6	-0.06443004
98	0xbd5638e4	-0.05230035
99	0x3db41f7b	0.08795067
100	0x3dc920bd	0.098206975
101	0xbdb623af	-0.08893525
102	0xbd06d1c6	-0.0329149
103	0x3da47cab	0.08031591
104	0x3d50ed24	0.051007405
105	0x3decca7f	0.115620606
106	0xbbdee22f	-0.0068018655
107	0xbe04f1ec	-0.12982911
108	0x3d84c1f1	0.06482304
109	0xbbb0c731	-0.005394839
110	0x3d9598a2	0.07304503
111	0xbd5e6163	-0.054292094
112	0x3d00da95	0.031458456
113	0x3e17229b	0.14759295
114	0x3de0e33b	0.10980841
115	0xbe338323	-0.17530493
116	0xbdd57233	-0.104221724
117	0xbda3f571	-0.080057986
118	0xbdc93a6a	-0.09825595
119	0x3deeac15	0.11653916
120	0xbd095f6a	-0.03353826
121	0xbdb36ec7	-0.087613635
122	0xbd179d89	-0.03701547
123	0xbd4ee7b3	-0.050513934
124	0x3d31d326	0.043414257
125	0xbe065bbe	-0.13120934
126	0xbdcda700	-0.10041618
127	0xbdb7de97	-0.089780025
128	0x3d731e50	0.05935508
129	0x3d927e7f	0.071530335
130	0xbd9b559f	-0.0758469
131	0x3d5c1b55	0.053737003
132	0x3db85e49	0.090023585
133	0x3c90ba9e	0.017667111
134	0xbcc031a9	-0.02346118
135	0x3be4e370	0.0069851205
136	0xbcfee9ff	-0.031117437
137	0x3dffe74c	0.12495288
138	0xbda2c415	-0.07947556
139	0x3dbe78b4	0.09300366
140	0x3d9f2373	0.07770433
141	0xbd77e05d	-0.060516704
142	0x3e01d084	0.12677199
143	0x3e07b743	0.13253503
144	0xbc8f9421	-0.017526688
145	0xbd5a648f	-0.053318556
146	0x3e06755e	0.1313071
147	0xbdd71180	-0.10501385
148	0x3d53f3b0	0.05174607
149	0x3d16f30f	0.036852892
150	0x3d6e6e0a	0.05821041
151	0xbdd7f8e8	-0.10545522
152	0xbdf78ecf	-0.120877855
153	0x3dc41464	0.09574202
154	0x3dbd82e8	0.09253484
155	0xbe1991dd	-0.14997049
156	0xbd738735	-0.059455115
157	0xbdab0beb	-0.083518825
158	0xbe0ff5d7	-0.14058624
159	0xbd62fe46	-0.055418275
160	0x3dd5a300	0.104314804
161	0xbd82b14e	-0.063814744
162	0x3d09f024	0.03367628
163	0x3da75e85	0.08172325
164	0x3d5813d8	0.0527533
165	0xbdeda634	-0.11603966
166	0x3d316a76	0.04331442
167	0x3d6c800a	0.057739295
168	0x3dc795b5	0.09745351
169	0xbe07b2f3	-0.13251857
170	0x3dc43eaa	0.09582265
171	0x3e01d00e	0.12677023
172	0xbdd85481	-0.10562993
173	0xbda459a4	-0.0802491
174	0x3dde4125	0.10852269
175	0xbdd7790a	-0.10521133
176	0x3db80efb	0.08987232
177	0x3d4795ec	0.04872696
178	0x3d21c08b	0.039490264
179	0x3e1725e8	0.14760554
180	0x3dd98b94	0.106223255
181	0x3df060e6	0.11737232
182	0xbbb0db2f	-0.0053972225
183	0x3dd8248e	0.10553847
184	0xbde52e68	-0.11190492
185	0xbda32fe8	-0.07968122
186	0xbc049318	-0.0080917105
187	0xbd8c6598	-0.06855315
188	0x3dfe3c92	0.124138966
189	0x3d7ab4cc	0.061207578
190	0x3d8fd842	0.0702367
191	0x3de9d757	0.11418026
192	0xbdd4d7b5	-0.10392705
193	0xbd06e439	-0.032932494
194	0x3cc8394a	0.02444138
195	0x3d34516b	0.04402296
196	0x3d6b1199	0.05738983
197	0xbd9040ba	-0.070435956
198	0xbd7f9e62	-0.062406905
199	0x3dc8189b	0.09770318
200	0xbce5b325	-0.028039524
201	0xbd14fedf	-0.036375877
202	0x3d9f25fc	0.07770917
203	0x3e166a7f	0.14689063
204	0xbcf48855	-0.029850164
205	0xbc4c6e31	-0.012477444
206	0xbdc4f438	-0.096168935
207	0xbdfa7592	-0.12229456
208	0x3cb79587	0.022410167
209	0xbd0b7a75	-0.03405233
210	0x3e1ef0d1	0.15521552
211	0xbdd36bda	-0.103233054
212	0xbc28e709	-0.010308989
213	0xbc8a669c	-0.016894631
214	0x3d99e7c7	0.07514911
215	0x3dffed4b	0.12496432
216	0x3d8e710c	0.06955156
217	0x3d7bbcf8	0.06145951
218	0xbd4cd4de	-0.050007693
219	0xbdfd5f8c	-0.1237174
220	0xbdc2451f	-0.0948584
221	0x3c21cddf	0.009875744
222	0x3d98c0b3	0.074586295
223	0xbc3d3899	-0.011549138
224	0xbb7ea16c	-0.003885354
225	0xbdd4e816	-0.103958294
226	0x3d53765b	0.051626544
227	0x3d80f6a0	0.0629704
228	0xbdee6944	-0.116411716
229	0xbd9d9d57	-0.07696026
230	0x3ddd1921	0.107958086
231	0x3d183267	0.037157442
232	0x39240924	0.00015643664
233	0x3c924ad9	0.017857956
234	0x3b685231	0.003544938
235	0xbd8f8601	-0.07007981
236	0xbdc22fbf	-0.09481763
237	0x3c2ceaea	0.010554055
238	0xbb50e3f5	-0.0031874154
239	0xbd1a5a85	-0.037683982
240	0xba01c68e	-0.00049505464
241	0xbdaa8dbd	-0.08327816
242	0xbd2872ee	-0.04112523
243	0xbd6ed231	-0.058305923
244	0x3dce0d7d	0.100611664
245	0x3d6a8178	0.057252377
246	0xbd9311ae	-0.071811065
247	0xbd804966	-0.06264
248	0x3d818d05	0.063257255
249	0xbcdbf32b	-0.02684935
250	0x3ca01785	0.019542465
251	0x3c8e43e3	0.017366355
252	0xbdaaf714	-0.08347908
253	0x3d1c7a22	0.038202412
254	0x3c12f11d	0.008968619
255	0x3de7f16a	0.11325343

bias f4 [64]
0	0x3d6ae7e7	0.057350066
1	0xbda65323	-0.08121326
2	0x3d93828c	0.07202634
3	0x3c42b29c	0.011883404
4	0x3db245cc	0.08704719
5	0x3df786ad	0.12086234
6	0xbda0cdd3	-0.07851758
7	0x3dd8eef8	0.10592455
8	0x3daad355	0.0834109
9	0xbdf31ddc	-0.118709296
10	0x3cbf83ad	0.023378218
11	0xbdf51005	-0.11965946
12	0x3d520e0a	0.05128292
13	0x3c7e22ac	0.015511196
14	0xbdea339e	-0.114356264
15	0x3d67c921	0.056588296
16	0xbcfe4cf9	-0.031042563
17	0x3e091f5a	0.13390866
18	0x3dd23d45	0.102655925
19	0x3d31d126	0.04341235
20	0x3dbb5929	0.09147865
21	0x3d5e3f43	0.05425955
22	0x3e0b1ce3	0.13585238
23	0xbbcf6c6d	-0.006330064
24	0x3c515a57	0.012777886
25	0xbcbdedd8	-0.023184702
26	0x3d22c588	0.03973916
27	0xbd848a12	-0.06471647
28	0xbd14bbca	-0.036311902
29	0x3d8af058	0.06784123
30	0x3d7b4388	0.0613437
31	0xbd1a19b2	-0.03762216
32	0xbde0c746	-0.109755084
33	0x3d7407e0	0.059577823
34	0xbe21f4bb	-0.15816014
35	0xbcc5b98e	-0.024136331
36	0xbdf8fd4d	-0.12157688
37	0x3dc1bf26	0.09460287
38	0x3dc0d366	0.09415321
39	0xbde00351	-0.109381326
40	0xbddc9700	-0.107709885
41	0xbd833b6a	-0.06407817
42	0x3d511ff2	0.051055856
43	0xbd9da048	-0.07696587
44	0xbd888bf6	-0.066673204
45	0xbcb5754e	-0.022150662
46	0x3d1608c4	0.036629453
47	0xbd5923f4	-0.053012803
48	0x3d74148f	0.05958992
49	0xbdc1ee82	-0.0946932
50	0xbcaf3102	-0.021385673
51	0x3d9eab9e	0.07747577
52	0xbd7e7ed3	-0.062132668
53	0x3da36e67	0.07980042
54	0x3d5fa5fc	0.054601654
55	0xbcf68da7	-0.030096842
56	0x3c2636f5	0.010144939
57	0xbd87618b	-0.06610402
58	0x3c63fecf	0.013915732
59	0x3c46fa34	0.012144614
60	0x3dc54864	0.09632948
61	0xbd833580	-0.06406689
62	0xbd7d19a0	-0.061792016
63	0xbd87d2d5	-0.0663201

weight f4 [3, 64]
0	0xbe1bdcd8	-0.15220964
1	0x3c3bb03a	0.01145559
2	0xbe11c42f	-0.14234994
3	0x3b147ca2	0.0022657295
4	0xbcbe2d67	-0.023215009
5	0x3cef1c48	0.02918829
6	0x3d2fca30	0.04291743
7	0xbdf1f2de	-0.11813901
8	0xbd896ddb	-0.067104064
9	0xbc22f7c1	-0.009946764
10	0xbd987749	-0.07444627
11	0x3d44f303	0.048083317
12	0x3d212f9c	0.039352044
13	0xbdcd97bc	-0.10038707
14	0x3dd463d2	0.10370602
15	0x3dc697b1	0.096969016
16	0xbd9df0a8	-0.07711917
17	0xbb2e95bf	-0.0026639549
18	0x3cae7243	0.021294719
19	0xbd0ec912	-0.034859724
20	0xbdeae2e6	-0.11469059
21	0x3de65000	0.112457275
22	0x3da916c4	0.08256295
23	0xbdc75c86	-0.09734444
24	0xbd252cfe	-0.04032611
25	0x3e1cdc3b	0.15318386
26	0x3c286d19	0.010279917
27	0xbcd713fb	-0.026254645
28	0x3da6b9d1	0.081409104
29	0x3d7feaa5	0.062479634
30	0x3d491a24	0.049097195
31	0x3dadcf7f	0.08486842
32	0x3cf118ed	0.02943083
33	0x3de00f07	0.10940366
34	0xbd9fc50d	-0.07801256
35	0xbda85d77	-0.08220952
36	0x3bc19fc8	0.00590894
37	0x3c88b662	0.01668853
38	0x3dbbda1f	0.09172463
39	0x3c8346ee	0.016025033
40	0x3cd0b3ad	0.025476301
41	0xbd02bcd1	-0.03191835
42	0x3ddad665	0.10685424
43	0xbd09dfa4	-0.033660546
44	0xbc1f2874	-0.009714235
45	0x3deb4d0e	0.114893064
46	0x3ddc7603	0.107646964
47	0x3e1064f9	0.14101018
48	0xbde99a64	-0.11406401
49	0xbd8c445d	-0.06848977
50	0xbd4107d7	-0.047126617
51	0xbd88dc21	-0.06682611
52	0x3d1ba3c8	0.03799799
53	0x3d89e9ef	0.067340724
54	0x3c36ba20	0.011152774
55	0xbccbe220	-0.024888098
56	0x3d13526e	0.035967283
57	0x3de10b75	0.109885134
58	0x3d8a84b5	0.06763593
59	0xbd8be9b0	-0.06831682
60	0xbddc18e8	-0.10746938
61	0x3d831fbc	0.06402537
62	0xbd1523f3	-0.036411237
63	0xbdd76504	-0.10517314
64	0xbdbdf089	-0.09274394
65	0x3cd50c4d	0.026006842
66	0xbd5419b0	-0.05178231
67	0xbd618541	-0.05505872
68	0x3c42ac84	0.011881951
69	0x3d5fe964	0.054665938
70	0x3dc6f736	0.097151205
71	0x3d9b6340	0.0758729
72	0xbdac5d4b	-0.08416232
73	0x3d2c380e	0.042045645
74	0x3d71e95a	0.059060432
75	0x3d47cd13	0.04877956
76	0xbca1b129	-0.019737797
77	0x3c664260	0.014053911
78	0xbd5f7990	-0.05455929
79	0xbdbb97a5	-0.09159783
80	0xbcc1fdee	-0.023680653
81	0xbc01b694	-0.007917065
82	0xbddad7f7	-0.10685723
83	0x38a9d4c0	8.098176e-05
84	0xbdef6dfd	-0.116909005
85	0xbda9aaeb	-0.08284553
86	0x3d335f3b	0.04379199
87	0xbe0767f6	-0.13223252
88	0x3dafad17	0.08577936
89	0x3dc7db87	0.097586684
90	0xbc34be3b	-0.011031683
91	0xbcf16b4e	-0.029470112
92	0xbdeaca91	-0.11464418
93	0xbb02f5ab	-0.0019982855
94	0xbc684b48	-0.014178105
95	0xbde6a0bf	-0.11261129
96	0x3da3b129	0.07992775
97	0xbd261173	-0.040543985
98	0x3b078825	0.0020680514
99	0xbc291ef2	-0.010322319
100	0xbdde7652	-0.108624116
101	0xbd7cfe14	-0.061765745
102	0x3cf73287	0.03017546
103	0x3dd5204c	0.10406551
104	0xbd98ed17	-0.07467096
105	0x3d6bb2a8	0.057543427
106	0x3c15eaec	0.009150248
107	0xbd95baf2	-0.073110476
108	0xbbe16fc0	-0.0068797767
109	0x3d97ad40	0.07406092
110	0x3d5e3a16	0.054254614
111	0x3d60d14c	0.0548871
112	0xbc8d3fee	-0.017242398
113	0xbd98c0de	-0.074586615
114	0x3dc1484e	0.09437619
115	0xbcda5ebe	-0.026656505
116	0x3d2e7928	0.042596012
117	0x3db335d5	0.08750502
118	0x3d90f037	0.07077067
119	0xbdca0a6a	-0.098652676
120	0xbdc240cf	-0.094850175
121	0x3d80b7ea	0.06285079
122	0x3d0a61e2	0.033784755
123	0x3d280def	0.041028913
124	0xbdc73efb	-0.097288094
125	0xbcc17822	-0.023616854
126	0x3dab77d2	0.08372463
127	0x3d1fd8eb	0.03902523
128	0x3dbeb3e5	0.09311656
129	0x3dd0505d	0.10171578
130	0xbd16dd09	-0.03683189
131	0xbcbad2f6	-0.022805672
132	0xbd17423a	-0.036928393
133	0x3cceccb7	0.0252441
134	0xbd72d54b	-0.059285443
135	0x3af3a64b	0.0018588988
136	0x3d4d30cf	0.050095376
137	0x3d057054	0.032577828
138	0x3d31a311	0.043368403
139	0x3d7da2f7	0.061922994
140	0x3b61f63d	0.0034479045
141	0x3d9f8dd1	0.07790721
142	0xbc8c92f4	-0.017159916
143	0xbd2efc24	-0.04272093
144	0xbb5b7906	-0.0033488884
145	0xbd6436ec	-0.05571644
146	0x3dc719a0	0.097216845
147	0xbcb900e7	-0.022583438
148	0x3da460de	0.080262884
149	0xbd09fce5	-0.033688445
150	0x3c5e681f	0.013574629
151	0xbc93b721	-0.018031659
152	0x3ba315eb	0.004976978
153	0xbdfec23e	-0.124393925
154	0xbd5965dd	-0.05307566
155	0x3dbfb06b	0.09359821
156	0xbdc092be	-0.09402989
157	0x3ca96492	0.020677838
158	0x3c64ee10	0.013972774
159	0xbd3fcd1f	-0.046826478
160	0x3d54227f	0.05179071
161	0x3d4a8ce4	0.04945077
162	0x3df7ba8d	0.120961286
163	0x3b77003d	0.003768935
164	0x3df09ff4	0.11749259
165	0x3c240f4a	0.010013411
166	0x3c4f76af	0.012662574
167	0x3ca8d7a9	0.020610647
168	0xbd78ddfa	-0.06075857
169	0xbcf0ddc3	-0.02940262
170	0xbdb94ca9	-0.09047825
171	0x3e0502d9	0.12989368
172	0x3d26185f	0.040550586
173	0xbd832eb7	-0.064053945
174	0xbd8c5549	-0.06852204
175	0x3ce5eeeb	0.028068027
176	0xbd89b102	-0.06723215
177	0x3cb525af	0.022112696
178	0x3cc0dc58	0.023542568
179	0x3ca66743	0.02031291
180	0xbcada7f9	-0.02119826
181	0x3d721e32	0.059110828
182	0xbc69c6b1	-0.014268563
183	0xbd328520	-0.04358399
184	0x3d9775f2	0.07395543
185	0xbd6dcc99	-0.058056448
186	0x3cb84d1c	0.022497706
187	0x3df49341	0.11942149
188	0x3d3ab538	0.04558298
189	0xbd1cc8d7	-0.038277473
190	0xbcf80927	-0.030277802
191	0xbda84174	-0.08215609

bias f4 [3]
0	0xbc64650d	-0.013940108
1	0xbd4ba00d	-0.049713183
2	0x3dce35b4	0.10068837

weight f4 [64, 16]
0	0xbddcd94c	-0.107836336
1	0x3dd493a0	0.1037972
2	0xbe6d6546	-0.23183164
3	0x3e01c888	0.12674153
4	0x3e59d557	0.21272789
5	0xbe378494	-0.17921668
6	0xbd82772a	-0.06370385
7	0x3d7429fd	0.059610356
8	0xbe75054d	-0.23927803
9	0xbe21e6df	-0.15810727
10	0x3db210d4	0.08694616
11	0x3e710faa	0.23541132
12	0xbd98f4f8	-0.07468599
13	0xbac79176	-0.0015225846
14	0xbe761401	-0.24031068
15	0xbe74b6aa	-0.23897806
16	0x40406da6	3.0066924
17	0x3f41ac24	0.7565329
18	0x3fd1adc9	1.638116
19	0x3f2a0247	0.66409725
20	0xbf12fd15	-0.5741742
21	0x4031df32	2.7792478
22	0xbe7825b8	-0.24233139
23	0xbe4633d4	-0.19355708
24	0xbe9bca82	-0.3042794
25	0xbe7f06a7	-0.24904881
26	0x3e4b32ab	0.19843547
27	0x3ea5c2b4	0.3237511
28	0xbd8a4df9	-0.06753153
29	0xbede8cbb	-0.43466744
30	0xbecf95ea	-0.40544063
31	0x3cebda47	0.028790606
32	0xbe5b4718	-0.21413839
33	0xc0c4b619	-6.1472287
34	0xbfeb4541	-1.838051
35	0x413ee3ce	11.930616
36	0x40c04d62	6.009446
37	0xbef0101c	-0.4688729
38	0x3fa9a40e	1.325319
39	0x3e36dac0	0.17856884
40	0xbd51afaf	-0.051192936
41	0xbdbc5f19	-0.09197826
42	0xbeabb083	-0.33533105
43	0x3ea1bde2	0.31590182
44	0x3ee83a40	0.4535694
45	0x3e32df7e	0.17468068
46	0xbde48184	-0.11157516
47	0xbd84543c	-0.06461379
48	0xbdf66f16	-0.12032907
49	0x3c57bd0f	0.013167634
50	0xbe6d4917	-0.23172413
51	0xbd05cbec	-0.03266518
52	0x3d656ad9	0.0560101
53	0x3e5bca47	0.21463881
54	0xbdbd2ac5	-0.09236673
55	0x3e64d2b0	0.22345996
56	0xbb854bed	-0.004067889
57	0xbe4ce874	-0.20010549
58	0x3e8fed1f	0.28110597
59	0x3e458b77	0.19291483
60	0xbe7b26c2	-0.24526504
61	0xbe364e15	-0.17803223
62	0x3dad94ce	0.08475648
63	0xbe4300ab	-0.19043224
64	0x3e5c1240	0.21491337
65	0xbfc24641	-1.517769
66	0xbeee47c4	-0.46539128
67	0xc0397fa2	-2.898415
68	0x3fcfd4ba	1.6236794
69	0x3d909e03	0.07061388
70	0xbda5063e	-0.08057831
71	0xbf1f3582	-0.6219102
72	0x3e8ad883	0.2711831
73	0xbb494fe7	-0.0030717792
74	0xbf455138	-0.77077055
75	0xbd332075	-0.043732125
76	0xbdf22bec	-0.11824784
77	0xbe6ec345	-0.23316677
78	0x3f09ae00	0.5378113
79	0xbe5d3ff5	-0.21606429
80	0x3ff4db7a	1.9129479
81	0x3fd99d74	1.7001176
82	0x3d5a7016	0.05332955
83	0xbfbef4d4	-1.4918466
84	0xbfed7fa4	-1.8554578
85	0x3fe9ed5a	1.8275559
86	0xbde99c1e	-0.1140673
87	0xbde994e7	-0.11405354
88	0x3ead60bb	0.33862862
89	0xbefb1e8c	-0.49046743
90	0x3ee3ec80	0.44516373
91	0x3e905868	0.2819245
92	0xbe99f491	-0.30069402
93	0xbe8b9526	-0.2726223
94	0x3e0da780	0.13833427
95	0xbd7e1e17	-0.062040415
96	0x3f23bfc3	0.6396448
97	0x3f954472	1.1661513
98	0xbe427030	-0.18988109
99	0xbfcf2fc4	-1.6186452
100	0xbf9e0084	-1.2343907
101	0x3f2a4190	0.6650629
102	0xbf14b6a8	-0.5809121
103	0x3ecf407b	0.40478882
104	0x3e1e7c8c	0.15477198
105	0xbeb42fc7	-0.351927
106	0xbded3734	-0.11582795
107	0x3f46870e	0.7754983
108	0xbe66b80b	-0.22531144
109	0x3d0a37a9	0.033744488
110	0xbe1573cd	-0.14594956
111	0xbe844aac	-0.2583822
112	0x409b626f	4.855766
113	0xbfb173c2	-1.3863451
114	0x3fc308ce	1.5237062
115	0x40c5dfb5	6.183558
116	0x3fb977bb	1.4489664
117	0x40907eb6	4.5154676
118	0x3f0774e6	0.5291275
119	0xbd22bbf3	-0.039730024
120	0x3e2b021f	0.16700028
121	0x3d691dad	0.056913067
122	0xbe8f6161	-0.28003982
123	0x3eaef402	0.34170538
124	0xbd36c791	-0.044623915
125	0xbc300cf0	-0.010745272
126	0x3eab3673	0.3343998
127	0x3b09f10a	0.0021048211
128	0x40584c88	3.379671
129	0x3ee5673e	0.4480533
130	0x3ef6d1c0	0.48206902
131	0xbf71451d	-0.94246083
132	0xbefcd3f7	-0.49380466
133	0x4039c57b	2.9026783
134	0x3df83e8b	0.12121304
135	0x3f0003c2	0.50005734
136	0x3f581859	0.8441215
137	0x3e18db0e	0.14927313
138	0xbdc03d3b	-0.09386679
139	0x3f0f888c	0.5606773
140	0x3c8bc6a4	0.017062493
141	0x3da86828	0.08222991
142	0x3f1414c2	0.57844174
143	0x3c18b5c8	0.009320684
144	0xbfce7522	-1.6129496
145	0x3f828ab4	1.0198579
146	0xbdfabb89	-0.12242801
147	0x3ee59b0d	0.44844857
148	0xbf93ab66	-1.1536682
149	0xbfc066c1	-1.5031358
150	0x3e7cb2d4	0.24677593
151	0x3c801200	0.015633583
152	0xbf11fd86	-0.5702747
153	0x3ea9f999	0.3319824
154	0x3c604759	0.013688886
155	0xbf336443	-0.7007486
156	0x3ed22b09	0.41048458
157	0x3e9f2976	0.3108632
158	0xbdad2509	-0.084543295
159	0x3e213758	0.15743768
160	0xc0b54389	-5.664494
161	0x3d6a696d	0.057229448
162	0xbf55036e	-0.8320836
163	0x4017bbd5	2.3708394
164	0xbe3b7d3f	-0.18309496
165	0xc0accb7f	-5.399841
166	0x3f9685e2	1.1759608
167	0xbed02bdc	-0.40658462
168	0x3f2ca80c	0.6744392
169	0x3d054c33	0.032543372
170	0x3be2790b	0.006911402
171	0x3eb1e778	0.3474691
172	0xbd08a3a8	-0.0333592
173	0xbd820b2b	-0.06349786
174	0x3ea825f6	0.32841462
175	0x3d5b66df	0.053564902
176	0x3fb99b98	1.4500608
177	0xbeeec686	-0.46635836
178	0x3ef6c28f	0.4819531
179	0x402e0a7a	2.7193894
180	0x3d8d4a2c	0.06898913
181	0x3fb1b215	1.3882471
182	0x3ddf54b2	0.10904826
183	0x3f40509d	0.75123006
184	0x3f1cf538	0.61311674
185	0xbe97626e	-0.29567283
186	0x3e0988d4	0.13431102
187	0x3f752801	0.95764166
188	0x3e2f5564	0.17122418
189	0x3e27c970	0.16385436
190	0xbdc18856	-0.09449832
191	0xbd8fc430	-0.07019842
192	0xbdae42d4	-0.0850884
193	0x3ef60c44	0.48056233
194	0xbfb931f8	-1.4468374
195	0xc002a3cd	-2.0412476
196	0xbf107a82	-0.5643693
197	0xbe663744	-0.2248202
198	0xbf13ebde	-0.5778178
199	0x3f045c08	0.5170293
200	0x3de66c90	0.112511754
201	0xbe7193ab	-0.23591487
202	0x3f254be0	0.645689
203	0x3ef15320	0.47133732
204	0x3e3c7e2d	0.18407507
205	0x3f34b1a8	0.7058358
206	0x3e0c162a	0.1368033
207	0x3e552362	0.20814279
208	0x3f385400	0.72003174
209	0x402bb7ba	2.6830888
210	0xbe14b6e0	-0.14522886
211	0xbfd3e8de	-1.655544
212	0xc0258562	-2.586266
213	0x3f6db73a	0.92857707
214	0x3e6727cb	0.22573774
215	0xbdce5380	-0.1007452
216	0xbe811992	-0.2521482
217	0x3d2e2bce	0.042522244
218	0x3cb1ea33	0.02171812
219	0x3ca881c1	0.020569684
220	0x3ebcefc0	0.36901665
221	0x3eeebe58	0.46629596
222	0xbea02053	-0.3127466
223	0x3e8aa072	0.27075535
224	0x3fcda778	1.6066732
225	0xc0573b20	-3.3629837
226	0xbdba005e	-0.09082101
227	0x407cb4f8	3.9485455
228	0x404541ad	3.0821335
229	0x3ffa3cf2	1.9549849
230	0x3f8bb836	1.0915592
231	0xbea66e67	-0.32506105
232	0xbed84fec	-0.42248476
233	0x3dd32278	0.10309309
234	0xbe8f7b86	-0.28023928
235	0xbed9f8db	-0.42572674
236	0x3eb835e0	0.35978603
237	0xbf1060d2	-0.56397736
238	0x3e831036	0.25598305
239	0x3e923126	0.28553122
240	0xbfc77c8e	-1.5584886
241	0xbfe500a7	-1.7890824
242	0xbf4a5ac1	-0.7904473
243	0x40571535	3.3606694
244	0x3fbbf941	1.4685441
245	0xbfc9a7da	-1.5754349
246	0x3f8f7f11	1.1210653
247	0x3f82c256	1.0215557
248	0xbf100d37	-0.56270164
249	0xbd27d0e8	-0.040970713
250	0x3e520c24	0.20512444
251	0xbebbdeac	-0.36693323
252	0x3eb2ac85	0.34897247
253	0x3dd21da9	0.102595635
254	0x3d1aa7f3	0.037757825
255	0x3de9e35f	0.11420321

bias f4 [64]
0	0xbdede094	-0.116151005
1	0xbed847db	-0.4224232
2	0x3e57078f	0.20998977
3	0xbe16f7b5	-0.1474293
4	0x3e93258e	0.2873959
5	0xbe9fdbc2	-0.3122235
6	0xbe520b15	-0.2051204
7	0x3c8e5f42	0.017379407
8	0xbdcbaf54	-0.099455506
9	0x3dce4abf	0.100728504
10	0x3e4071bf	0.1879339
11	0xbe68ff2c	-0.2275359
12	0xbe150d04	-0.14555746
13	0x3d40111a	0.04689131
14	0x3ea60bc6	0.32430857
15	0x3df56026	0.119812295
16	0xbe98550b	-0.29752383
17	0x3d76b7a5	0.06023373
18	0x3dad6f1c	0.08468458
19	0xbe18445c	-0.14869827
20	0x3e9c0539	0.30472735
21	0xbe05f84f	-0.13083003
22	0xbe4a16dc	-0.19735283
23	0x3e96f00b	0.29480013
24	0x3dcb8835	0.09938089
25	0xbe8184c0	-0.25296593
26	0x3e540537	0.20705114
27	0x3ee30c65	0.44345394
28	0x3df67b85	0.12035278
29	0xbef7dc62	-0.48410326
30	0xbedcc4a5	-0.43118778
31	0x3cd7c10e	0.026337173
32	0xbc382880	-0.011240125
33	0xbcbabe6c	-0.022795878
34	0xbdbe7754	-0.09300104
35	0x3e9f63c2	0.31130797
36	0xbea7f00d	-0.32800332
37	0x3e5f8c18	0.21830785
38	0x3ea12db7	0.3148019
39	0x3e56fe74	0.20995504
40	0x3d9e9e5c	0.077450484
41	0xbe351e79	-0.17687406
42	0x3dfec3ec	0.12439713
43	0xbebd865d	-0.37016574
44	0x3d7b2604	0.06131555
45	0xbe2136b4	-0.15743524
46	0x3d3e0dbe	0.046399824
47	0x3e19a4d0	0.15004277
48	0x3e18fdad	0.1494052
49	0xbeacc808	-0.33746362
50	0x3ebcdb89	0.36886242
51	0xbe6f4767	-0.23367082
52	0xbc97f32b	-0.018548569
53	0xbc1d1ed3	-0.009589869
54	0x3e340435	0.1757973
55	0xbef04ba6	-0.46932715
56	0xbe91f993	-0.28510723
57	0xbe1efb91	-0.15525652
58	0x3e73d840	0.23812962
59	0x3e8a153b	0.26969323
60	0x3ec414a0	0.38296986
61	0xbe67f3e5	-0.22651632
62	0x3caaa6ba	0.020831455
63	0xbc052737	-0.008127025

weight f4 [64, 64]
0	0x3e479ec2	0.19494155
1	0xbd88c0e3	-0.06677415
2	0x3e35c89d	0.17752309
3	0x3d5836fe	0.05278682
4	0xbee2fe75	-0.4433476
5	0x3f59b243	0.8503763
6	0x3eba7a3b	0.3642138
7	0x3ea05a65	0.31318966
8	0x3f85204b	1.040048
9	0xbe933271	-0.2874942
10	0xbebeb85e	-0.37250036
11	0x3e8678fa	0.26264173
12	0x3f1778ed	0.59168893
13	0x3e7357a6	0.23763904
14	0x3e5ebaf7	0.21751009
15	0xbe8149e6	-0.25251693
16	0x3f3a311f	0.727312
17	0x3f38f04e	0.72241676
18	0x3f21cd43	0.6320383
19	0xbedb63bf	-0.42849538
20	0xbedf8275	-0.43654218
21	0xbf34d8fb	-0.70643586
22	0x3d750756	0.05982145
23	0xbce30b30	-0.027715296
24	0x3da9fc99	0.08300132
25	0x3f07ce9c	0.53049636
26	0xbea9897e	-0.3311271
27	0x3ddec3a1	0.10877157
28	0xbede0ccb	-0.43369135
29	0xbd717ed3	-0.05895884
30	0x3f1df183	0.6169664
31	0xbf8a33ed	-1.0797096
32	0xbe5cbf65	-0.21557386
33	0x3e757038	0.2396859
34	0x3cb0dcee	0.021589722
35	0xbd3b2b20	-0.045695424
36	0xbe455d48	-0.19273865
37	0x3f0c9a7a	0.5492321
38	0xbf14b8e8	-0.58094645
39	0xbe31856c	-0.17336053
40	0x3f07fe6a	0.5312258
41	0x3f001607	0.5003361
42	0xbf501432	-0.81280816
43	0xbd92b144	-0.07162717
44	0xbb898cf2	-0.00419771
45	0xbde54d0b	-0.111963354
46	0x3e1d111a	0.15338555
47	0x3d4db016	0.050216757
48	0xbe9214ef	-0.28531596
49	0xbddd5198	-0.108065784
50	0xbe2e8808	-0.1704408
51	0x3e149143	0.14508538
52	0x3e4ed854	0.2019971
53	0xbf099513	-0.53743094
54	0xbf8ccd39	-1.1000129
55	0x3e1ee2f9	0.1551627
56	0xbe225286	-0.15851793
57	0x3e9eac12	0.30990654
58	0xbe54fe84	-0.20800215
59	0x3f19f942	0.6014596
60	0xbe84dfe3	-0.25952062
61	0x3f0a6c87	0.5407185
62	0x3ea84e6d	0.32872334
63	0x3e402139	0.18762673
64	0xbef1b3c8	-0.47207475
65	0x3c96f3ee	0.018426862
66	0xbe2203f9	-0.15821828
67	0xbe8b3ea2	-0.27196223
68	0xbf356ef7	-0.70872444
69	0xbdce0a94	-0.10060611
70	0xbeb7ed35	-0.35923162
71	0x3cc15c08	0.023603454
72	0xbdb0a356	-0.08624904
73	0xbe04836c	-0.12940758
74	0x3f85779d	1.0427128
75	0xbd7a3465	-0.061085124
76	0xbe893e09	-0.26805142
77	0xbe545d31	-0.20738675
78	0x3e88d558	0.26725268
79	0x3ec253b8	0.37954497
80	0xbe1a999a	-0.15097657
81	0x3f125238	0.57156706
82	0x3de9aa75	0.11409465
83	0x3f642038	0.8911166
84	0xbdb9b160	-0.09067035
85	0x3e7938b6	0.2433804
86	0xbef22c28	-0.47299314
87	0x3e9bebdb	0.3045338
88	0xbef3ce3f	-0.4761829
89	0xbe431395	-0.19050439
90	0x3eb73882	0.357853
91	0xbe2aa1dd	-0.16663308
92	0xbec6c148	-0.38819337
93	0x3df30a8e	0.118672475
94	0xbda06c1f	-0.078331225
95	0xbfb3732a	-1.401952
96	0x3ec353d1	0.38149884
97	0xbe8ccd8d	-0.27500573
98	0xbef796c0	-0.483572
99	0x3e3aa267	0.18226014
100	0x3e53d900	0.20688248
101	0xbf05521e	-0.52078426
102	0x3e6b2242	0.22962287
103	0x3e8f2e44	0.27964985
104	0xbf03b33a	-0.51445353
105	0xbe7e510d	-0.24835606
106	0x3e842e5a	0.25816613
107	0x3e893468	0.26797795
108	0x3e212459	0.15736522
109	0xbe67f7ba	-0.22653094
110	0xbd830a32	-0.06398429
111	0xbed8ba02	-0.42329413
112	0xbc676b93	-0.014124769
113	0xbe9447d3	-0.28961048
114	0xbe3f7af4	-0.18699247
115	0xbeaa2455	-0.33230844
116	0xbee6a527	-0.45047876
117	0x3dc49777	0.09599202
118	0x3ee5f3aa	0.44912463
119	0xbd96311c	-0.073335856
120	0xbf075de8	-0.52877665
121	0xbd7d7b4a	-0.061885156
122	0x3d96bce6	0.07360248
123	0xbee44ede	-0.4459142
124	0x3e818454	0.2529627
125	0xbf1ade6b	-0.6049563
126	0xbd8dffa1	-0.06933523
127	0xbe95081a	-0.29107744
128	0x3edd6400	0.43240356
129	0x3e321a01	0.17392732
130	0xbf2a2bda	-0.6647316
131	0x3ee7c216	0.45265263
132	0x3db11972	0.086474314
133	0xbda1627f	-0.07880115
134	0x3ef5e213	0.48024043
135	0xbe391977	-0.1807612
136	0xbe9b15f6	-0.30290192
137	0x3d2f04eb	0.0427293
138	0xbfd3401e	-1.6503942
139	0xbe82c536	-0.25541085
140	0x3e0ead6e	0.13933346
141	0xbf05a065	-0.5219787
142	0xbe73a7ff	-0.23794554
143	0xbef7bfde	-0.4838857
144	0x3e81b166	0.25330657
145	0xbf9396ac	-1.1530356
146	0x3f2fb10d	0.68629533
147	0x3e50d76a	0.20394674
148	0x3f47e51e	0.7808398
149	0x3dc64c61	0.09682537
150	0x3ec20bf4	0.37899745
151	0xbea55c54	-0.32297003
152	0x3eec5666	0.46159667
153	0xbeb91aec	-0.36153352
154	0xbd94b46b	-0.072609745
155	0x3e99c944	0.30036366
156	0xbe94cb55	-0.2906138
157	0x3c774b7d	0.015093681
158	0xbe7bf861	-0.24606468
159	0x3ea22b34	0.31673586
160	0xbf047b42	-0.51750576
161	0x3ef9d35f	0.48794076
162	0x3e94a1df	0.29029748
163	0xbe2e1117	-0.16998707
164	0x3f2797c0	0.6546593
165	0x3f075ea8	0.5287881
166	0x3d84abd1	0.06478084
167	0xbf043319	-0.5164047
168	0x3ea9f8c1	0.33197597
169	0xbd0ae2e7	-0.033907797
170	0xbe89ac8f	-0.26889464
171	0x3d2e0522	0.042485364
172	0x3c198e27	0.009372271
173	0x3f263c2f	0.6493558
174	0x3e68c7c4	0.22732455
175	0x3eeb6a04	0.4597932
176	0x3e3d4c57	0.18486153
177	0x3ddf4f37	0.10903781
178	0xbe82bdcc	-0.2553543
179	0x3efea350	0.49733973
180	0x3e72327d	0.23652072
181	0xbea8cd6a	-0.32969218
182	0x3eebd4f4	0.46060908
183	0x3eb3e768	0.35137486
184	0x3eb66e67	0.35631105
185	0x3eb0c007	0.34521505
186	0xbea8ded8	-0.32982516
187	0xbe16619a	-0.1468567
188	0xbe656dbb	-0.2240514
189	0x3e6b4547	0.22975646
190	0xbe401214	-0.18756896
191	0x3f0bdd42	0.5463449
192	0xbe6dbb0f	-0.23215888
193	0x3e65fff3	0.22460918
194	0x3e6ae43f	0.22938631
195	0xbe0d2a90	-0.13785768
196	0x3e72c062	0.237062
197	0x3dc46444	0.09589437
198	0xbe3f6be3	-0.186935
199	0x3f7a905b	0.9787652
200	0x3f13c02c	0.57715106
201	0x3c7fa2f9	0.015602821
202	0x3e73d4b6	0.23811612
203	0x3e565819	0.20932044
204	0x3e11b6dc	0.14229912
205	0xbe315cc2	-0.1732054
206	0xbe0ad692	-0.13558415
207	0x3e41fc31	0.1894386
208	0xbe563957	-0.20920311
209	0x3f629684	0.8851092
210	0x3dc60da8	0.096705735
211	0x3e24d6f9	0.1609763
212	0xbeaf19a7	-0.3419926
213	0x3e428fe1	0.19000198
214	0xbea41620	-0.3204813
215	0x3e7bccd6	0.24589857
216	0xbe8cf3ff	-0.27529904
217	0xbe2e4d15	-0.17021592
218	0x3e0de31b	0.13856165
219	0xbe41fed7	-0.1894487
220	0xbe18a613	-0.14907102
221	0x3ed198df	0.40936944
222	0xbd0c05fd	-0.0341854
223	0xbf4810d1	-0.7815066
224	0x3eb85a6a	0.3600648
225	0xbeae9aa6	-0.34102362
226	0xbeaf6dc4	-0.34263432
227	0x3dc609ad	0.09669814
228	0x3e1b0cb9	0.15141572
229	0xbe961508	-0.2931292
230	0x3e8b3e43	0.2719594
231	0x3edda659	0.43290976
232	0xbf039ecb	-0.51414174
233	0xbd179710	-0.0370093
234	0xbe4eac2c	-0.20182866
235	0x3e905842	0.28192335
236	0x3d54b042	0.051925905
237	0xbdeb1717	-0.114790134
238	0x3e21552b	0.15755145
239	0xbe96ead0	-0.29476023
240	0xbe65663c	-0.2240228
241	0xbe681ab8	-0.22666442
242	0xbca0ab5d	-0.019612962
243	0xbe60690f	-0.21915077
244	0x3c2b211f	0.010444908
245	0xbeb83ff7	-0.359863
246	0x3e3b92c4	0.18317705
247	0xbdf4833f	-0.11939096
248	0xbe82f18b	-0.25574908
249	0xbe11021e	-0.14160964
250	0xbe96b6a1	-0.2943621
251	0xbeadf849	-0.3397849
252	0x39bee774	0.0003641207
253	0x3c8af79f	0.016963778
254	0xbcac6111	-0.021042379
255	0xbe8fb629	-0.28068665

bias f4 [64]
0	0xbe5f6f41	-0.21819784
1	0x3ef5053a	0.4785555
2	0xbeb54cfa	-0.3541029
3	0x3e8caa4a	0.2747367
4	0xbdb37da4	-0.087641984
5	0x3e91b847	0.28460905
6	0x3e3082c7	0.17237388
7	0xbeaa2066	-0.33227843
8	0x3e84a5ee	0.25907844
9	0xbec59a7c	-0.38594425
10	0xbb8761db	-0.0041315383
11	0xbdf1027d	-0.11768053
12	0x3c89e9c7	0.016835107
13	0x3e8c3e27	0.27391168
14	0xbe930666	-0.2871582
15	0x3decce7d	0.11562822
16	0xbdd25aca	-0.10271223
17	0x3de3b8a9	0.111192055
18	0xbe6377db	-0.2221369
19	0xbc41613a	-0.011802966
20	0xbedb4e8d	-0.42833367
21	0xbe42d876	-0.19027886
22	0x3e6222bb	0.22083561
23	0xbdc47d48	-0.09594208
24	0x3dd6f123	0.10495212
25	0xbe843d78	-0.25828147
26	0xbea2a030	-0.31762838
27	0xbdc88320	-0.09790635
28	0x3da279c1	0.07933379
29	0x3d9befdc	0.07614109
30	0xbe824e1b	-0.25450215
31	0xbe8f4f6d	-0.27990285
32	0x3c82467d	0.015902752
33	0x3e96e315	0.29470125
34	0xbe944582	-0.2895928
35	0x3c967b26	0.018369269
36	0xbe8ceb7b	-0.27523407
37	0x3d4fcb0d	0.050730754
38	0xbe8a0398	-0.26955867
39	0xbe772630	-0.24135661
40	0xbdaf117b	-0.08548256
41	0x3e8cd8d5	0.2750918
42	0x3ec851d4	0.3912493
43	0x3e257e26	0.16161403
44	0x3c089bea	0.008337954
45	0x3eb3b88b	0.35101733
46	0xbebd39c9	-0.3695815
47	0xbd8b97f6	-0.068160936
48	0xbe03b5bb	-0.12862293
49	0x3eb15fb9	0.34643343
50	0xbe35f64d	-0.17769738
51	0xbe9333e2	-0.2875052
52	0x3dc2c720	0.09510636
53	0x3e891e3c	0.2678088
54	0x3e837e42	0.25682265
55	0x3e12f046	0.1434947
56	0x3d86bfdd	0.06579564
57	0x3ece9cc2	0.40353972
58	0x3e9386bb	0.2881373
59	0x3c8b5288	0.017007127
60	0x3effefee	0.4998774
61	0xbe195db2	-0.14977148
62	0x3e39cb61	0.18143989
63	0xbe08e38d	-0.13368054

weight f4 [1, 64]
0	0xbf2c78ad	-0.67371637
1	0xbead164e	-0.3380608
2	0x3f633f06	0.8876804
3	0xbf1143fd	-0.56744367
4	0x3f834b7b	1.025741
5	0xbf3a0521	-0.72664076
6	0xbed0b1be	-0.40760607
7	0x3f081af8	0.5316615
8	0xbf12126e	-0.5705937
9	0x3f10be59	0.5654045
10	0xbf2fb019	-0.6862808
11	0xbe4db352	-0.20087937
12	0x3d8daa55	0.06917254
13	0xbf750468	-0.9570985
14	0x3f08f3fd	0.53497297
15	0xbe6de646	-0.23232374
16	0xbebad2d4	-0.36488974
17	0x3f3c9844	0.7366984
18	0xbf3fe7a3	-0.74962825
19	0x3f35ff79	0.71092945
20	0x3ec1e51b	0.37870106
21	0xbe8e952e	-0.2784819
22	0xbf1a7dc5	-0.6034816
23	0xbe93a71d	-0.28838435
24	0x3e7a4103	0.24438863
25	0x3ecaeb22	0.39632517
26	0x3f04a63c	0.51816154
27	0x3f3540a7	0.70801777
28	0xbe8c8890	-0.2744794
29	0x3dd4dfee	0.10394274
30	0x3eefb98a	0.46821243
31	0x3f1b59d7	0.6068396
32	0xbe6868b8	-0.22696197
33	0xbf1d7169	-0.61501175
34	0x3f0d609b	0.55225533
35	0x3f1b7842	0.60730374
36	0xbf91d8e9	-1.1394321
37	0xbf128fcf	-0.57250684
38	0x3f0fe953	0.562154
39	0x3ec265a9	0.37968186
40	0xbf02c943	-0.5108835
41	0xbefeee98	-0.49791408
42	0xbf2b9597	-0.6702513
43	0xbececeda	-0.4039219
44	0x3ecabe0d	0.39598122
45	0xbee217dc	-0.44158828
46	0x3e7896de	0.24276301
47	0x3e7b2953	0.24527483
48	0x3f06f039	0.527103
49	0xbf0163af	-0.5054273
50	0x3f8c85a2	1.0978281
51	0x3f3cb9a3	0.7372076
52	0xbe31f992	-0.1738036
53	0xbf321e08	-0.69577074
54	0xbf5b258a	-0.85604155
55	0x3f463a24	0.77432466
56	0xbee34728	-0.44390225
57	0xbed3fa03	-0.4140168
58	0x3eaadf52	0.33373505
59	0xbe81544b	-0.25259623
60	0xbf281faf	-0.65673345
61	0xbedc4ad4	-0.4302584
62	0xbf403d15	-0.75093204
63	0x3f59f6c0	0.85142136
