output/ddpg_test_amd/2022-01-08_12-24-37-ddpg_s1/pyt_save/model.pt (torch_old, 48433 bytes, 11 tensors)

weight f4 [64, 16]
00000000: 4ae8 033e 54fc e1bd a083 46bd 2051 f03d
00000010: 0202 71be 1287 193e a8a9 52bd 0a3d 023e
00000020: 785a 0e3d 00c4 fabc 4002 8e3d 2010 4a3c
00000030: 30ff ba3d e486 c7bd 3051 95bc 4060 b8bc
00000040: ea5f 68bc 37da ea3c 771c 5f3e 6401 823b
00000050: fef9 d4bd afa5 34be 8be6 51bd 9a98 c1bd
00000060: 2f4d 6e3c 2f91 e33b 0f72 243e 704a 693e
00000070: 3ab2 7fbe ff92 233e 6960 c83d 6b82 6e3e
00000080: f518 213e b676 6bbe 3f84 73be 9c90 08be
00000090: 60c0 623e 6bbc 3bbd fea9 923d 5b20 0ebe
000000a0: 32d1 883e 65b4 0ebe 1aae 423e a1b5 353d
000000b0: 43e5 31be 17d6 b53d ca9a 32be 44d0 fd3c
000000c0: fc2c babd 359b 3e3d b81f 75be a808 debd
000000d0: 8991 b13d a64f 6bbd 0fb8 973e d703 203e
000000e0: 89ef 003c 4bb8 f3bd c18d dd3d 6bb7 553d
000000f0: 9dd3 ddbd 3645 6e3e bebc 503e a2a2 8d3e
00000100: 7f68 07be fb2d 9ebb b7f5 9fbb 4a03 943d
00000110: b4b6 6abe 215a 20be 4336 553e 2649 75bd
00000120: c602 8b3d 6354 b03d 71f5 f53c a57c 19bd
00000130: 0fa2 283e f3b2 593e 4d7d 45be 5668 4d3e
00000140: 6e68 4fbe 7fd8 2bbe 53d9 833c 1ec2 0cbd
00000150: a707 0e3e 5442 26be d21f 5abe e423 553e
00000160: 4b5e 02bd 3daa 193e 91c6 3d3e e379 57be
00000170: cac5 8a3d 67e5 bc3d d7d2 0bbe ff98 cdbd
00000180: dc4f 863d 0f0a 823d 6d76 debd a1aa 1cbe
00000190: 2845 553e f1f8 49bd 8d76 fd3d c62d 0f3e
000001a0: f3be a6bd de13 67be 05e8 863e 1bfb fa3d
000001b0: 9ad7 203e 7e9d 373d de10 d03d 51b2 313e
000001c0: e1b5 723e 6ee2 29be 420c 003d c54f 3d3e
000001d0: 547d 393e af02 1f3e 218e 3dbe ca66 3abe
000001e0: 589a 19be 077b e13c 2590 733e b0be 14be
000001f0: 5445 f73d cba6 1abe 77c4 7cbe 9df2 86bd
00000200: 66fb 013e a034 3d3e e4ef 1ebe 47b5 143e
00000210: f4d1 643e b8db 233e c8f5 433e 9e41 023e
00000220: f1b0 c63d 42c8 c03d cb58 5cbe 9afb 9dbe
00000230: 90e4 a9bd adf9 cebc 3a2e 07be f9b2 f93d
00000240: 6f56 6a3d 58e9 c9bc 8acb c13d 9017 cb3d
00000250: f3ff 0d3e bea1 203e 12b4 2bbd cbf9 473e
00000260: 98ef c0bc 1032 0b3d 22c5 92be 6f93 50be
00000270: 653c c4bd 7444 b8bd a082 823e e925 00bd
00000280: 751a 3abe 199d 183e 652a 9f3d 2175 be3d
00000290: 5b99 35be c8b1 8f3d 030a 97bd 3e77 04bd
000002a0: dd2d 03be 9ac0 bdbd a0c1 a1bd c55e 4a3e
000002b0: 0ac8 873d 97d1 c93d 7763 953e fd74 883e
000002c0: c204 253e ae9c 6abd af0e 30be 29a8 933e
000002d0: 22e7 3abd 4523 54bc 0cb4 3ebe 638e 54bd
000002e0: 357a 88be dd6d 7f3e 20b2 68be d80d 89be
000002f0: 32ff 3d3c 7927 d8bd 0cbe c03d e293 9dbd
00000300: f8d2 0dbe 29cc 9b3c c225 3a3e de4c 38be
00000310: 0712 f93d 0e1d 153e 463d 4d3e 79c7 2ebe
00000320: dca9 9c3d 33ef 6abe 4c79 873e b4d0 9ebd
00000330: f84c e53d 4ccf e4bc 865f 83bd 2cfd 41bd
00000340: 0813 2e3d d45a f13d a03a 243d 2830 9c3d
00000350: 4047 66be 6e81 3a3e 7a32 5f3e 709c 533e
00000360: b23d 3d3e d6bc 38be 64cc bdbd c0b8 613e
00000370: 0efc 42be a63f 683e ce57 49be 1e54 34be
00000380: 384e fa3d e6ee 37be 6099 6abd e83c 3a3e
00000390: 56c6 4a3e 0c1d 723e 98c9 4fbd 90fa 46be
000003a0: 760f 7c3e 8823 5abd a0a7 d2bd d89f 793d
000003b0: ee06 33be 8443 283e 8e71 203e 9621 4bbe
000003c0: 65b8 56be 3c3f 483d cba9 d93d 0b51 c23b
000003d0: 1eaf 2cbe 566a 973b ae08 11be b31c 42be
000003e0: ee19 acbd b7b8 9e3e a604 333e 2fd9 00be
000003f0: 8300 073e 1852 6a3e d71d 773e 9795 1839
0.1288158 -0.11034456 -0.04846537 0.11734223 -0.23535922 0.14992931 -0.051431328 0.12718597
0.034754246 -0.030611038 0.06934023 0.012332946 0.091307044 -0.09742525 -0.01822719 -0.022506833
-0.014183024 0.028668506 0.21788202 0.003967451 -0.10399245 -0.17641328 -0.051245254 -0.094529346
0.014544769 0.0069447975 0.16059135 0.22782302 -0.24970332 0.15974043 0.09784014 0.23291938
0.15732177 -0.22994503 -0.23780917 -0.13336414 0.22143698 -0.045833986 0.0716133 -0.1387953
0.26722103 -0.13936003 0.19011727 0.044362668 -0.17372613 0.08878725 -0.1744186 0.030983098
-0.09090611 0.046534736 -0.23937881 -0.10841495 0.08670337 -0.057449006 0.29632613 0.15626465
0.00786961 -0.119003855 0.10818053 0.052176874 -0.10831378 0.2326859 0.203845 0.2766314
-0.13223456 -0.0048272586 -0.0048815864 0.0722719 -0.22921258 -0.15659381 0.2082148 -0.059884213
0.06787638 0.086098455 0.030024262 -0.037472386 0.1646807 0.2125967 -0.1928608 0.20059332
-0.2025468 -0.16781805 0.01609484 -0.034364812 0.13870107 -0.1623624 -0.21301201 0.20814472
-0.031828206 0.15006347 0.18532778 -0.2104259 0.067760065 0.092234425 -0.13654648 -0.10038947
0.06558201 0.06349575 -0.10862432 -0.15299465 0.20827162 -0.049309675 0.123761274 0.13982305
-0.081418894 -0.22566172 0.26348892 0.12254926 0.15707245 0.04482793 0.10159467 0.17353179
0.23702194 -0.16590282 0.03126169 0.18487461 0.18114215 0.15528367 -0.18511249 -0.18203273
-0.15000284 0.027524484 0.23785456 -0.14525867 0.1207377 -0.15102689 -0.2468432 -0.065892436
0.12693557 0.18477106 -0.15521199 0.14522277 0.22345716 0.16001785 0.19136727 0.12720343
0.09701718 0.09413196 -0.21518247 -0.3085602 -0.08295548 -0.025265539 -0.13201228 0.121923395
0.057211336 -0.0246474 0.0946265 0.099166036 0.13867168 0.156867 -0.041919775 0.19528882
-0.023551747 0.03398329 -0.28666025 -0.20368741 -0.09581832 -0.089974314 0.25490284 -0.031286154
-0.18174155 0.14903678 0.07771758 0.09299684 -0.17734282 0.07016331 -0.073749565 -0.03234028
-0.12810464 -0.092652515 -0.07898259 0.19762714 0.06629951 0.09854429 0.29177448 0.26651755
0.16115096 -0.057278328 -0.17193101 0.28839234 -0.04563058 -0.012947862 -0.1862337 -0.051893603
-0.26655737 0.24944253 -0.227242 -0.26768374 0.011596488 -0.10554404 0.094112486 -0.07694222
-0.1385001 0.01901825 0.18178466 -0.17998073 0.121616416 0.14561865 0.20042905 -0.1706828
0.076495856 -0.2294281 0.2645973 -0.07754651 0.11196321 -0.027930878 -0.06414704 -0.047360584
0.04249862 0.11784902 0.04009497 0.076263726 -0.22488117 0.18213436 0.21796599 0.20665145
0.18480566 -0.18040785 -0.092675 0.22043133 -0.19041464 0.2268053 -0.19662401 -0.17610213
0.1222195 -0.17962226 -0.057275176 0.18187296 0.19802222 0.23643893 -0.050729364 -0.1943152
0.24615273 -0.05325654 -0.10285878 0.060943455 -0.17483112 0.16432005 0.15668318 -0.19837031
-0.20968778 0.04888843 0.106280886 0.005930071 -0.16863677 0.0046208305 -0.14163467 -0.1895626
-0.08403383 0.310003 0.17482242 -0.12582849 0.13183789 0.22882879 0.24132477 0.00014551576

bias f4 [64]
00000000: b8c0 293d b6f8 d83b 0b83 20bb 3309 b0bd
00000010: d4ab 2ebe a5b5 b33c f6d7 e9bd 6bd5 bebd
00000020: 19f0 593e 0bea b53d 5f87 0d3e f834 51bd
00000030: 8b04 76be a02e 4c3d 0089 29be aa36 1f3e
00000040: 7c3a 38be 6a96 0f3e cc28 0cbe 28ae 653e
00000050: d8d6 343e 2c0d 323e 6a9c 193e c803 6d3d
00000060: 6704 d2bb 6386 303d c904 d4bd c623 6dbe
00000070: 6fe5 5c3e 4039 543c ccac 933d 5cb4 0cbd
00000080: d854 fa3d beba 1dbe 7001 47be 883c 433e
00000090: 06dc 0d3e dbb6 0b3e 5947 3cbe 1076 8a3c
000000a0: f2c8 6ebe f05d eabc 622f 6ebd e419 34be
000000b0: 667f 7dbe 6777 823d 74a7 833e 40d5 713e
000000c0: 232b 4bbe a0e7 35bd c3f4 6ebe d4ed 42be
000000d0: e139 8ebd 9da7 1c3e b892 85bd a0fc 6c3c
000000e0: fe51 1d3e b806 4f3c c6a4 673e 2b8c 413e
000000f0: d20d 703e 43ce a73d 895d 0ebe 363a 5cbe
0.041443557 0.0066214455 -0.002449217 -0.085955046 -0.17057735 0.0219372 -0.114181444 -0.0931805
0.21282996 0.08882531 0.13821171 -0.051075906 -0.2402517 0.049849153 -0.16556168 0.15548196
-0.1799106 0.14022222 -0.13687438 0.22429717 0.17660081 0.17387837 0.15001073 0.057864934
-0.006409216 0.04309691 -0.10352475 -0.23158178 0.21571897 0.012953103 0.07210693 -0.03435169
0.12223214 -0.15403268 -0.19434142 0.1906606 0.13853464 0.13643973 -0.18386592 0.016902
-0.23318842 -0.028609246 -0.058150657 -0.17588001 -0.2475563 0.063704304 0.25713694 0.23616505
-0.19840674 -0.044410348 -0.23335557 -0.19036037 -0.06944633 0.15298314 -0.06522125 0.014464527
0.15363309 0.012635879 0.2262145 0.18901126 0.23442772 0.08193638 -0.13902868 -0.2150658

weight f4 [64, 64]
00000000: fe44 84bd 5144 b53d e96a 8e3c 2cf0 3a38
00000010: fb98 d0bc bc6d 03be bbf8 d93d 5bf8 61bc
00000020: e4b1 b0bd 272c 9cbd a566 4cbd 380d c0bb
00000030: 87ba 9c3c c802 453d c0e2 c3bd ded2 fbbd
00000040: a7a6 b2bd b991 603d 4c2c 5d3d 3469 873d
00000050: a0bd e83d d28e 2b3d 98d1 ffbd 6431 013d
00000060: 557e f2bd adb4 3ebd d9cf 873e dce1 0e3e
00000070: 08d5 b7bd a2d1 fabd e519 18bd af6a 953d
00000080: 8c62 563d b290 cf3d 4c28 c53d e89f 213d
00000090: 3b6d 34bd 6c19 84bd 58af 19bd 683e c83c
000000a0: 6608 b2bd 6007 303d 2681 4c3d b43b d93d
000000b0: 5a54 fcbd 63d7 aa3d 48e1 00be 8fee 3e3e
000000c0: 44d4 493e 4aba 8a3d 16d1 6e3b 7e5a 083d
000000d0: f617 cd3d 90d6 0e3e fe80 f83d a001 babb
000000e0: a579 4d3e 7b06 58bd 7085 d2bd a24a 7fbd
000000f0: b001 08bc 8ed6 22be c96e 0dbe 20c3 603c
00000100: 9c92 a6bd f893 ad3b ee30 4fbc 3499 493c
00000110: 31d0 5f3e 4a00 8ebd d6a4 1d3c 7c66 08bd
00000120: b71d 04be 5ac7 88bc 8eef 3d3e afaf 06be
00000130: a547 f4b9 a2ea ee3d 5c30 b9bd 252e 903e
00000140: 9dce 7dbd a0f3 b8bd 69e1 46bd b5a3 dd3a
00000150: 5ca5 8a3d faf5 6fbd 806d a13a eea6 85bd
00000160: 54f5 fa3d 09ad 193e 1cca 8f3d 6cdf ff3a
00000170: 86f4 cfbd be50 f53d 596e a33d 6ee6 19bc
00000180: 6b5a 423d fa74 803d 00d1 353d 48ff 793d
00000190: 90b5 213e b7ea a73d 79d2 413e 9c2f 9f3d
000001a0: c0c5 7abb f0ae 64bd 60c3 073c 3260 c73d
000001b0: a62b a23d 363c 283d 0d97 463d 445a 6e3e
000001c0: c9c3 773d 10c6 f33d f795 df3d 2d72 a23d
000001d0: 5a21 0fbd 2147 3fbd 3ca1 3cbd b0c0 583c
000001e0: ec9e 2ebd a09a a5bd ac8b 293e 9884 e93d
000001f0: 5095 cebd d41c 8e3d 0b7d 1c3e a479 933d
00000200: 0ac8 e93d 962d 8abd a8fa 633d c2e1 01be
00000210: a1e2 3dbd 9ad0 a2bd bca6 46bd 92bc 913d
00000220: 28b5 023d 668c b6bd 83c7 63bd fbbc 64bd
00000230: 4cc7 42bd 423c 8cbd fafa bb3d 68f4 b03d
00000240: 173a a53d 9492 8cbd 3fe5 6d3d d4e9 7ebd
00000250: 8894 f0bc 865d 83bd 002b c7bb 3c34 60bd
00000260: 11ef 8fbb 94a2 d0bd 5bef da3c f12d 07be
00000270: 9f9c 8cbd fecd b2bd 383a 6e3d a20b 6c3d
00000280: 729c cbbd 20b1 8bbd ae1d e53d 3431 153d
00000290: dc05 7b3d 6649 ccbd 0014 673d 54f4 a23d
000002a0: c896 edbc a0bf bcbb 937d a63d ac9c 0b3d
000002b0: d4e8 123d 0056 c739 00cf 9abd 6d1e e9bd
000002c0: 1534 cc3d f0c9 21bc cbdf ac3d c153 a03d
000002d0: 9880 b4bd 09cb 9abc 94f6 02bd c0be 14bb
000002e0: e485 653d 4b7f 3c3d 0ba4 c6bd c856 b3bd
000002f0: fadc b5bd ce21 fbbd 6660 683d e62f 9ebd
00000300: 801d d63a afe5 a83c c02d af3c 31d9 403c
00000310: 1351 933d 30a1 8c3c 827f db3d 300a dd3c
00000320: 85d4 03bd d3f0 aabc c52d ca3d 9778 08bd
00000330: 4220 813d 5034 42bc 800f 8e3a 0718 1f3e
00000340: 2419 ffbd eafd f4ba 687c 653d 0460 5bbd
00000350: 90e2 bcbc ed80 73bd 48ad 283d b084 413d
00000360: af49 3d3d 9004 833d d529 aebd 0890 713d
00000370: 7154 a7bc a8da a03d 9360 8bbd 61a2 1cbe
00000380: 3d4b c73c 8a35 853d c087 a0bb 80ac d43a
00000390: a9cb 6a3c 8d74 ba3d 52bb e43c deb1 e4bd
000003a0: f691 b6bd a01d f23b d679 69bc 14b3 f43d
000003b0: 10b8 f0bc 6572 f33d 076d b0bd 9201 41be
000003c0: cbd4 62bd f217 a2bd 6a85 55bd 46b1 c53c
000003d0: 4554 14be 866a a83d 805d 9bbd 0e6c c43d
000003e0: 850c 1a3d 275c 43bc cba5 b8bd 5999 e03c
000003f0: 3a04 8fbd f60f f93d 9ea0 9bbd 243f 07bd
-0.06458472 0.08850921 0.017384963 4.4569533e-05 -0.025463572 -0.12834829 0.10643145 -0.013792123
-0.0862768 -0.07625609 -0.049902577 -0.005860951 0.019131912 0.048098356 -0.095647335 -0.12296079
-0.08723193 0.054826472 0.053997323 0.06611863 0.11364293 0.04188425 -0.12491149 0.031541243
-0.11840502 -0.046559025 0.26525763 0.13953346 -0.08976179 -0.122470155 -0.03713407 0.07295739
0.052340075 0.1013502 0.09626827 0.03945914 -0.044049483 -0.06450161 -0.037520736 0.02444382
-0.08693008 0.042975783 0.049927853 0.106070906 -0.12320776 0.08341863 -0.12585938 0.1864569
0.19709879 0.06773813 0.0036440543 0.033289425 0.10014336 0.13949037 0.12133978 -0.0056764632
0.20065935 -0.052740555 -0.102793574 -0.062327035 -0.008301184 -0.15902159 -0.13811792 0.013718396
-0.08133432 0.0052971803 -0.012645943 0.012304593 0.21856762 -0.06933649 0.0096218195 -0.03330086
-0.1290196 -0.01669662 0.18548414 -0.13152955 -0.00046592686 0.116658464 -0.09042427 0.28160205
-0.06196462 -0.09030843 -0.04855481 0.001690975 0.06769821 -0.05858419 0.0012315959 -0.0652598
0.12253824 0.15007414 0.07020971 0.0019521541 -0.10154061 0.11978291 0.079800315 -0.009393318
0.04744951 0.062723115 0.04438877 0.06103447 0.15791917 0.08199065 0.18927945 0.07772753
-0.003826484 -0.055830896 0.008286327 0.09735145 0.079184815 0.041073047 0.048483897 0.23276621
0.06048945 0.11903012 0.109172754 0.079319336 -0.034943916 -0.046698693 -0.046052203 0.013229534
-0.04263203 -0.08086133 0.16557187 0.114022434 -0.10087073 0.06939092 0.15282075 0.072009355
0.114151075 -0.06746976 0.055658966 -0.12683776 -0.04635871 -0.07949944 -0.048498854 0.07116045
0.031911045 -0.089134976 -0.05561019 -0.05584429 -0.047553346 -0.06847431 0.09178729 0.08640367
0.080677204 -0.06863895 0.058079954 -0.062234715 -0.0293677 -0.064143226 -0.006078124 -0.054737315
-0.0043925126 -0.10187259 0.026725462 -0.13201119 -0.068658106 -0.08730696 0.05816099 0.05762828
-0.09941949 -0.06820893 0.111873016 0.036423877 0.061284885 -0.09974937 0.056415558 0.07956758
-0.029002562 -0.005760148 0.0812942 0.03408496 0.035866573 0.00038020313 -0.07559013 -0.113827564
0.09970871 -0.009874806 0.084411226 0.07828475 -0.0881359 -0.018895643 -0.031973436 -0.0022696704
0.05603589 0.046019834 -0.096992575 -0.087567866 -0.088800386 -0.12262307 0.056732558 -0.0772398
0.0016335696 0.020617334 0.02138412 0.0117705325 0.07193198 0.017166704 0.107176796 0.026982397
-0.032185096 -0.020866787 0.09872011 -0.03331813 0.06304981 -0.011853293 0.001083836 0.1553651
-0.12455967 -0.0018691395 0.056026846 -0.053558365 -0.023057252 -0.059449125 0.04118088 0.04724568
0.04621285 0.063973546 -0.085040726 0.05897525 -0.020426007 0.07854205 -0.068055294 -0.15296318
0.024327869 0.065043524 -0.004898995 0.0016225725 0.014330783 0.091042615 0.027921353 -0.11166738
-0.089145586 0.0073887855 -0.014250239 0.11948219 -0.029384643 0.118870534 -0.08614545 -0.18848255
-0.055378716 -0.079147235 -0.052129187 0.024132382 -0.14485271 0.08223443 -0.07586193 0.09590922
0.037609596 -0.011923826 -0.090159975 0.027416872 -0.06983228 0.121612474 -0.07598995 -0.0330192

bias f4 [64]
00000000: e9ab 82bd 9d09 f23d 6ed8 e3bd 59af 1bbd
00000010: 55a3 c83d 7c63 583d 413d aa3d e861 a1bc
00000020: 3ee9 cf3d 1732 9d3d a394 573d b9c5 1b3e
00000030: 115a f5bd ae67 8abd a095 0a3d ebf9 b13c
00000040: 9987 ff3d 1381 d63d 549d 8bbd 42d8 b33d
00000050: c9f7 8e3d d0ee 7cbd c611 febd 96c7 273d
00000060: 533b 003c b317 a93c 7898 9d3d 5472 22bd
00000070: 6192 4ebd b0bc a93c 3867 77bd 0096 01bd
00000080: 6167 13be c6e0 d5bd 7392 023d 2e1d af3d
00000090: cf24 763d 40c2 c63c 90af 843d 0bbc 0d3e
000000a0: 770e 01bb 7f8f ad3d 40cb 09bd 2037 d53d
000000b0: faab c63d 1eda d63d d710 cd3d 1107 f73b
000000c0: 8450 ccbd c41b a3bd 6e0b dbbd 26ea 6fbd
000000d0: 83be bbbd 23c0 953d 8044 ec3d 3488 98bd
000000e0: b932 bd3d 2dcc 323d 6cb6 a53c 4b7c 973d
000000f0: 041f 603d 995c fcbd ce77 e93d 4466 4abd
-0.063804455 0.1181824 -0.11125265 -0.03800902 0.09796778 0.05282925 0.083124645 -0.019700006
0.10151909 0.076755695 0.052631985 0.15212144 -0.119800694 -0.067580566 0.0338341 0.021725615
0.12477035 0.10473838 -0.06817117 0.08781482 0.06980855 -0.061751187 -0.12405734 0.040961824
0.007826644 0.020641183 0.07695097 -0.039659813 -0.050432567 0.020719856 -0.06040117 -0.03163719
-0.14394905 -0.10443263 0.031877946 0.085504875 0.060093697 0.024262547 0.064787984 0.13841264
-0.001969246 0.08474635 -0.0336411 0.10410905 0.09700771 0.10490821 0.100129776 0.007538684
-0.09976295 -0.0796428 -0.106955394 -0.05857291 -0.091671966 0.07312038 0.11536503 -0.07447854
0.0923819 0.04365175 0.020228587 0.07396754 0.05471708 -0.12322349 0.11399804 -0.049413934

weight f4 [3, 64]
00000000: 96a2 abbd 5954 203e 963a 80bd c60d 24bd
00000010: d19a c43c b069 f4bd e787 ba3d 20c2 c83d
00000020: a418 f3bd fcec 10bd 547d 1f3d 7bdb b33d
00000030: 8173 513d b01f 3dbc f42f 363e 6fba febc
00000040: 1117 40bd 4613 d4bd d7d1 a2bd ec42 35bd
00000050: 47a7 00be d8e9 88bc b062 d73c 18b2 abbd
00000060: 3f09 e0bd 89b4 d73d 0f5e b5bd a49d bcbd
00000070: 1897 00bd 64c1 70bd 66ac 02be 27e4 72bd
00000080: 4b20 923c df16 1ebd 2e2a 023e 1e59 f5bb
00000090: 2c29 74bc 101d ffbd 681e e03d 8982 003d
000000a0: fee7 45bd 5a14 b13d f2ed 4a3e f02c 4b3c
000000b0: 9ecd 543d f462 09bd d788 2d3d a117 87bd
000000c0: 44b1 81bd 4c73 ac3c 585b 5abd d882 873d
000000d0: 7c64 d53d 06e4 bbbd 46dc e93d be3e 873d
000000e0: 114a 3f3e 6655 56be 9c33 1f3e 26c5 233d
000000f0: a0aa 20bc eee5 94bd 94c0 1b3d 5860 433d
00000100: 57f0 883d 5675 77bb 94fc d6bd 46a6 07be
00000110: e519 ac3d aa84 323d 3faa 38bc 8a0a 8e3d
00000120: 65d5 8d3d bf04 a73d bc81 afbd 722a c1bd
00000130: 210f a3bd 4837 0cbd d0ff 133e b4a6 2ebd
00000140: 056b 3bbe 5816 963d 8722 a73c 1edf 04bd
00000150: 8a5d f2bd 3e0e b93d ce5f d0bd 60c1 5b3d
00000160: cb69 dabc ba85 6dbd 15fd 99be a841 8c3c
00000170: 56a6 6dbd e805 4bbd 2568 2c3d e821 15be
00000180: 1fbc 113e 538f cf3d 8d30 cd3d 974f 863c
00000190: d264 6ebe 50d0 ebbc 9863 77bd 7915 32be
000001a0: d666 03be 7d6a 5cbd 60b5 4bbe 0000 e836
000001b0: 826c 42bd 46a7 e43c 6926 a2bd 47fc 04be
000001c0: a47d babd 1d0e ec3d 80d6 973d 3ae8 e1bd
000001d0: 9c62 afbc ded9 c8bc a1dc f0bd 90fa 243d
000001e0: 4bc3 1bbe 8406 a53c 3253 82bd 9790 bcbd
000001f0: e024 40bc 3810 c83d 2f65 1f3d c895 aebd
00000200: 1669 6cbd 1f91 9a3e a53b 643b a664 8c3c
00000210: 710a 643e 1856 cf3d 774e b9bc 5c4c ec3d
00000220: 8a26 913d d7e2 45bd 3ff6 bcbc b6dc 2c3e
00000230: a374 ae3d a038 72bd 7514 d4bd aecf d83d
00000240: 245f e33d 7310 41bd 8748 033e 782c dc3d
00000250: ea04 bf3d 2058 14bd 60f2 85bc 51ca 243d
00000260: e71f 063d a63f 8d3d 82c1 5cbe 0491 34bd
00000270: 00f2 6bbc 3c71 4f3d d23d fa3d 85d1 1d3e
00000280: 69ae 00be 7377 b4bc c3c8 8b3b 7125 2fbd
00000290: 28b6 713e 1070 b43d 00da 8d3d 277e 453e
000002a0: 5cd0 d53d dcd8 d8bd d4e8 4e3d 56db bf3d
000002b0: 9a75 aabd 3e2f 433c 14ca 98bd b7f4 cbbb
000002c0: 1032 b0bc c3e2 12bd 20bd b53c 18c9 083e
000002d0: 4afd 0abe aa66 6dbd 03cd 263e 280d c2bd
000002e0: 66bb f43d a09c 49be d8cc 91bb e3b8 893d
000002f0: 8895 073d 98c5 4b3b 83a5 c53d b888 943c
-0.0838062 0.15657176 -0.062611744 -0.040052198 0.023999603 -0.11934221 0.091079526 0.098026514
-0.11869934 -0.035382256 0.03893788 0.08782097 0.051135544 -0.011543199 0.1779173 -0.031094758
-0.046896998 -0.103552386 -0.0795018 -0.044253275 -0.12563811 -0.016713068 0.026292175 -0.08383578
-0.109392636 0.10532481 -0.08855831 -0.09209755 -0.031394094 -0.05877818 -0.12761077 -0.059299614
0.017837664 -0.03859603 0.12711403 -0.0074874302 -0.014902394 -0.12456715 0.109432995 0.031374488
-0.048316948 0.0864646 0.19817331 0.012400851 0.051953904 -0.033541635 0.04236683 -0.06596304
-0.06332639 0.021051072 -0.05330977 0.06616753 0.104195565 -0.091743514 0.11418967 0.06603764
0.18680598 -0.20931014 0.15547031 0.039982937 -0.009806305 -0.07270418 0.038025454 0.047699302
0.06686466 -0.0037759147 -0.10497394 -0.13247022 0.084033765 0.04358355 -0.011271059 0.06935604
0.069254674 0.08155202 -0.08569667 -0.09431924 -0.0796187 -0.034232408 0.14453053 -0.04263945
-0.18302543 0.073284805 0.020402206 -0.032439344 -0.118342474 0.090359196 -0.10174523 0.053651214
-0.026661774 -0.05798886 -0.300759 0.017121151 -0.05801996 -0.04956618 0.042091507 -0.14563715
0.14231919 0.10134759 0.10019026 0.016395373 -0.23280647 -0.028785855 -0.060397714 -0.17391004
-0.12832198 -0.053812493 -0.19893408 6.914139e-06 -0.047466762 0.027911793 -0.079174824 -0.12986861
-0.09105995 0.115261294 0.074139595 -0.11030622 -0.021409325 -0.02451795 -0.117608316 0.040278018
-0.15211217 0.020144708 -0.063635245 -0.09207266 -0.011727542 0.097687185 0.038914856 -0.08524662
-0.057717405 0.30188844 0.003482559 0.017137837 0.22269608 0.10123843 -0.022620423 0.11538002
0.07087429 -0.048312034 -0.023066638 0.1688107 0.085183404 -0.059136033 -0.10355464 0.10586487
0.11102131 -0.047134828 0.12820636 0.10750669 0.09327109 -0.036216855 -0.016350925 0.040232006
0.03274527 0.068969056 -0.21558192 -0.04408361 -0.014400959 0.050645098 0.122188225 0.15411957
-0.12566532 -0.022029614 0.004265876 -0.042760316 0.23604643 0.08810437 0.06926346 0.19286405
0.10440132 -0.10588238 0.05051501 0.09368007 -0.08323212 0.011913119 -0.07460418 -0.0062242406
-0.021508247 -0.035860788 0.022184908 0.13357961 -0.13573185 -0.057959236 0.16289143 -0.094751656
0.11949806 -0.19688654 -0.004449468 0.067247175 0.03310159 0.0031093117 0.096507095 0.018131599

bias f4 [3]
00000000: 9da0 38bc 8d30 2bbc a8a5 2abd
-0.011268762 -0.010448587 -0.04166189

weight f4 [64, 19]
00000000: cef9 853e 8a33 eabe 00d8 213e dd2e a93e
00000010: 4542 763e 7e49 433d fd7c 263e 3d2a 18be
00000020: d9e7 453e bc63 eb3d f0de 40bd 254e 713d
00000030: 9df3 0dbe f61b 0a3e 5ae2 33be f06e b3bc
00000040: 8489 76bd dcf8 adbd dd6c 553e 6965 a8bd
00000050: 103f a13e fbf5 5b3d f551 f8be 139d 85be
00000060: c661 afbe d27c c9bc b5d9 103e bff7 15be
00000070: 1969 553d d55f 5cbc 7f88 093e dc88 1cbe
00000080: 829b 56bd 63b3 adbd 4c73 f93d dd6f 5c3d
00000090: ba24 db3d 5496 f6bd 7d01 6abe d0d6 d0bd
000000a0: dee7 9fbd b202 b03d 604d 88bc fe30 933d
000000b0: 37bb f3bd 5fd6 69be ea23 ac3d aaa0 fd3d
000000c0: 6647 f83d 9dc7 423e 581f 65be deb9 8b3d
000000d0: 958b 3a3e 1b0a f0bd adf6 023e 5ee8 f23d
000000e0: c408 483d a1b1 60be 7a45 dc3d 29f7 523e
000000f0: fcde 00bd 9a55 bb3d ed01 333e c965 2fbe
00000100: eb92 5abe 3a35 b73d d0b1 1dbc 48e0 dcbd
00000110: f37d 5bbe 1ac3 11be bced 7d3d bce2 2cbd
00000120: 5225 4cbe 8821 bebc 3016 3ebc 0c36 5bbe
00000130: 405f c53d cf3c 5a3e aa37 1e3e 948c 78be
00000140: 7afb d1bd e4de 5abe c15b 0c3e 6d89 1cbe
00000150: b2e1 f23d c0ab 1cbe 77ec 2a3e db73 c03d
00000160: a184 39be 66a4 073d a0f5 2e3d 7b81 8ebc
00000170: c8c3 53be 2e12 28be a163 c73a ec91 54be
00000180: f6e9 9abd 8406 183d 73e9 103e 677a 333e
00000190: 020a 45be 7219 d0bd 30e7 a8bc 40e4 92bb
000001a0: b054 61bd 8eef 14be f498 50bd bc97 43bd
000001b0: b17c 0ebe be2b 983d e496 28be d25c 49be
000001c0: a451 2a3d 608f e8bd 09ac 153e 5bcc 103f
000001d0: 9cad 67bf 281a e9bd 3079 16bf aac7 523d
000001e0: b175 113e 6d29 bb3e f433 163e 02e7 eb3c
000001f0: 0a78 5cbd 1998 79bd 3565 4fbe 6ecf 1d3d
00000200: 56bc c33d 5bcc e9bc 4baa e6bc aba5 cbbc
00000210: bd6d c9bc 415c 91be 33ad 0340 c1ed eebe
00000220: 6b75 21bf 772d dbbf f87e abbe f687 a9be
00000230: ffc3 15bf d23c dc3e aee4 dcbe 5113 2e3d
00000240: f866 bcbd 9481 97be 631c 353d 24f6 9f3d
00000250: 45bc 18bd 7a62 26be 9cdf 403e 7b88 55be
00000260: d3ff 563e 9144 043e d8f5 12be d6fa c93d
00000270: d47b 513d d484 12be 38f7 4dbe 6e37 04be
00000280: 7fc3 36be fe8b 9cbd d837 b13c 2382 edbd
00000290: a40f 7bbd 1aab 9ebd ce2d d43d 1527 3abe
000002a0: 8bc6 5f3e d37a 653e 7f95 483e 2e2e 6ebe
000002b0: 3e9d 073e 011a b53d 0224 683d 1740 48be
000002c0: e0e3 29bf 3ce6 d73d 2d4f 893d 9ffb 763e
000002d0: efc6 56be 46f7 9f3d b873 e7bd c5d6 d0bd
000002e0: d468 02bb 6428 aebd e902 f2bc 75f3 bebd
000002f0: 0e67 933d fa5f b9bd ae1d e23e a97c 963d
00000300: 0a60 15bc 6a59 e3bd 3bb8 ab3e bd6f 153f
00000310: a54c 0abe 5bef aa3e 167a 343e 3a90 873c
00000320: 35e2 193e 4061 6fbc 0e9e b0be 7be5 ab3e
00000330: 6648 21bf 4bf8 7dbd fdce 2c3e cc4d a2bd
00000340: d31c 873d f100 ffbe 9e3d 20be 5a63 8fbe
00000350: d2dc e93c 7687 0e3f 2c32 07bf 4f60 27be
00000360: 1aed 29be 76b9 493c 12d4 943d 8c24 783d
00000370: 5f56 6e3e 00ad 14bc 3c35 1cbe d6e1 23bc
00000380: 2499 4c3d 390b 2ebe d7b9 a13b 712a 00be
00000390: 6c59 18be b9df 01be ea52 38be 2326 323e
000003a0: dc9a c1bc f379 b4bd c685 af3d c88a 59be
000003b0: 457c 873e 1835 f7bc bb01 003e d4bc 63bd
000003c0: a7cd 9cbd 807c 213d 51ca 913d c98f aebd
000003d0: 328a 0e3e f835 8dbd 77db 333e c3b5 8abe
000003e0: b6dd 3e3b 79dc 7e3e 73c0 06be 7654 303e
000003f0: fa09 f83d e26c 543d 1e61 19be b1ac 083e
0.26167148 -0.45742446 0.15805054 0.33043566 0.24048717 0.04767751 0.16258617 -0.14859863
0.19326724 0.11493632 -0.04708761 0.058912415 -0.13862462 0.13487229 -0.17566815 -0.021903485
-0.06018974 -0.08494732 0.2084231 -0.082224675 0.31493425 0.053701382 -0.48500028 -0.260964
-0.34254283 -0.024595652 0.14145549 -0.14645289 0.052102182 -0.0134505825 0.13430975 -0.15286583
-0.052394398 -0.08481481 0.12180194 0.05381762 0.107003644 -0.120403916 -0.2285213 -0.10197222
-0.07807897 0.08594264 -0.016638458 0.07187079 -0.11900943 -0.22835682 0.084052876 0.1238416
0.12122993 0.19021459 -0.22375238 0.06822561 0.18217309 -0.117206775 0.12789412 0.11860727
0.048836485 -0.2194276 0.10755439 0.20602097 -0.031462654 0.091471866 0.17481203 -0.17128672
-0.21345107 0.08945699 -0.009624913 -0.10784966 -0.21434765 -0.14234582 0.0619943 -0.04220842
-0.19936112 -0.023209348 -0.01160197 -0.21407336 0.09637308 0.21312259 0.15450922 -0.24272376
-0.102530435 -0.21374089 0.13706876 -0.15286799 0.11859454 -0.15299892 0.16691767 0.09397098
-0.18117 0.033115767 0.042714715 -0.017395725 -0.20680153 -0.16413185 0.0015212187 -0.2075879
-0.07564156 0.03711559 0.14151554 0.17527162 -0.19242099 -0.10161103 -0.020618051 -0.004482776
-0.055012405 -0.14544508 -0.050927117 -0.047752127 -0.13914753 0.07430218 -0.1646381 -0.19664314
0.041581765 -0.113554716 0.14616407 0.5656182 -0.9049928 -0.11381942 -0.5877867 0.051459946
0.14205052 0.36555043 0.14668256 0.028796677 -0.053825416 -0.060936067 -0.20253451 0.0385279
0.095574066 -0.028539827 -0.028157374 -0.02485927 -0.02458846 -0.28390697 2.0574462 -0.46665767
-0.6306979 -1.712325 -0.33495307 -0.33111542 -0.5850219 0.43015152 -0.4314322 0.04249889
-0.09199327 -0.29591048 0.044216525 0.078106195 -0.037288923 -0.16248503 0.188353 -0.20852844
0.20996027 0.12916781 -0.14351594 0.09862296 0.051143482 -0.14308482 -0.20113838 -0.1291177
-0.17848013 -0.07643889 0.021633074 -0.11597087 -0.061294213 -0.07747479 0.10360299 -0.18178971
0.21853082 0.22410135 0.19588278 -0.23259804 0.13243577 0.088428505 0.056674965 -0.19555698
-0.66363335 0.105419606 0.06704555 0.24119423 -0.20974325 0.078108355 -0.113013685 -0.10197214
-0.0019898908 -0.08503798 -0.029542403 -0.093237795 0.071973905 -0.09051509 0.4416327 0.07347996
-0.009117136 -0.11101039 0.33538994 0.58373624 -0.135058 0.3338574 0.17624697 0.016548265
0.15027697 -0.014610589 -0.34495586 0.33573517 -0.63001096 -0.06200437 0.16875835 -0.07924995
0.06597295 -0.49805406 -0.15648505 -0.28005487 0.028547678 0.55675447 -0.5281093 -0.16345333
-0.16594353 0.012312284 0.07267012 0.06058173 0.23275135 -0.00907445 -0.15254682 -0.010002574
0.049950734 -0.16996469 0.004935484 -0.1251619 -0.14877862 -0.12683 -0.18000379 0.1739736
-0.023633413 -0.088123225 0.08570437 -0.21244347 0.26461998 -0.030176684 0.1250066 -0.055600002
-0.076564126 0.039425373 0.07118667 -0.085235186 0.13919905 -0.06895059 0.17564188 -0.27091798
0.002912385 0.24888791 -0.13159351 0.1721972 0.12111278 0.05186165 -0.14978454 0.13347127

bias f4 [64]
00000000: 6b1e 33be 0f94 4abd 7cc3 14be b22f 65be
00000010: fe13 16be 04b1 6e3d 8c8f 68be 60cd 0e3e
00000020: 349d 7e3d 0c52 2bbe 6ce8 15be aa8e 3ebe
00000030: 31e5 c23d ca9a 93be fbc2 1d3e 58f2 3fbe
00000040: 901d 383e c8e9 17be fc32 1dbf 33dc 10be
00000050: bd76 b8bd 9bbc 80be 848a 82be af50 46be
00000060: a7c0 113e 3db0 5dbe fc95 1d3d 26f2 86be
00000070: 49d4 013e 1b2a 423e e281 2e3e 8218 043e
00000080: 741c 93be 24ca 54be fc27 cfbd 7252 983d
00000090: 3db4 19be 7d78 b3bb b29e ddbd d2c6 2bbd
000000a0: cba5 283e b750 a4be 204c 3c3c ccdb 4b3d
000000b0: 58e3 a6bd 0a1c a63d bd7d 98bd d901 dcbd
000000c0: 1fb5 273e de42 d8bc e75d 273d befd 6ebe
000000d0: 3c67 7ebe e4b8 c7bd f567 313e bb9c 283e
000000e0: 1252 0f3e b009 61be 28c5 9a3e ee5a 403f
000000f0: 8870 cdbc fde9 9fbd a1a4 383e 1451 0cbe
-0.17492072 -0.049457606 -0.14527696 -0.22381476 -0.14656064 0.058274284 -0.22711009 0.13945532
0.06216164 -0.16730517 -0.14639443 -0.1860911 0.09516371 -0.28829032 0.1540641 -0.1874479
0.17980027 -0.14835274 -0.6140592 -0.141465 -0.090070225 -0.25143895 -0.25496304 -0.19366716
0.14233647 -0.21649261 0.038473114 -0.2635662 0.12678637 0.18961374 0.17041734 0.12899974
-0.28732646 -0.20780236 -0.10115048 0.074376 -0.15010162 -0.00547701 -0.10821284 -0.041937657
0.16469495 -0.3209283 0.011492759 0.04977016 -0.08148831 0.08110817 -0.07445858 -0.1074254
0.16377686 -0.026399072 0.040861037 -0.23338982 -0.24844068 -0.09752062 0.17324813 0.16466038
0.13996151 -0.21976352 0.30228543 0.7513875 -0.025078073 -0.078083016 0.18031551 -0.13702804

weight f4 [64, 64]
00000000: b9af a5bd f867 6bbd 40a3 713b 3810 89bc
00000010: ffc5 b43d 5c2f b33d ede1 25bd e12b 073d
00000020: 08dd 6c3d 75c6 c73c 4b8c cabc 4d67 9ebd
00000030: 85a9 a23d 87dd e33d 7d7f 89bd 2962 c43d
00000040: 3b82 8dbc 9014 a73c e434 fbbc 7059 163b
00000050: e9aa 7b3b 02fa 9abd 28ab 083d c8f3 593d
00000060: 2ec5 bf3d 26a9 973d 88f1 46bd 3d32 06be
00000070: f447 c93c ce69 b1bc 4804 0f3e 592a e73d
00000080: a671 c43d 1b52 dd3d 40d4 bb3c eb7e 853b
00000090: 0821 d2bd d14b c1bc 6c7a 123d 54ec 05be
000000a0: d0c0 923d 2a9a 643d 92e2 cfbd 909b 423c
000000b0: 63c9 6a3d 5627 ec3d 1a4c da3c 5c92 5fbd
000000c0: 7c58 a93d fd5a c8bd 9c23 7cbd e627 9c3c
000000d0: 4e66 83bd 2e56 9b3d 2988 253d 4814 48bd
000000e0: 5d7a f9bd 2edf d5bd b584 cb3b d960 b53b
000000f0: 396c 713c 4772 d1bd 74ef 4f3d 2ad8 cbbd
00000100: 9089 bd3c e805 c8bc 1c57 88bd 1476 4abd
00000110: f885 02bd f080 e1bc 561b 81bd 73e9 12be
00000120: 9050 a8bd 48d6 3c3d 1860 9e3d d0b3 babd
00000130: b63f 9ebd ec58 35bd 0059 26bd 40e7 983b
00000140: 007e 2b3d 80ae ac3d 73c7 a7bd d6d7 a7bd
00000150: b6b8 a8bd 8895 003d e8fb aa3c c8df 6dbd
00000160: 0093 4eba 2274 d53d b454 e63d 38c1 86bc
00000170: 2cdc b13d 94ec 86bd 20e9 b5bd a094 be3c
00000180: 8053 33bb 407e 8d3c a0d1 aabd 8022 5c3b
00000190: d201 aabd c0e9 f43d 309e b5bd ed61 30be
000001a0: 3080 473d 002d a63b 609b d7bc aab7 843d
000001b0: 2a06 c73d 5c5b dd3d 0a23 8bbd ec03 8dbd
000001c0: 4453 9e3d dc40 fe3d 2f75 39bd 905c c6bc
000001d0: 80f8 05bc d09d ac3c 1cdf 9dbd e2e5 f23d
000001e0: 60aa 3fbc 481f 563d 7905 f93c 3c6e 66bd
000001f0: 6c8e 2fbd 9eaa d73d c073 023d 7038 4abd
00000200: f03e d93d 27d7 0ebe 9c73 833d 2aca b3bd
00000210: 7c01 cc3d ce06 dfbd 7d29 d0bd 6e57 033d
00000220: 44c2 003d 12aa 18be 94e0 e9bd dc6e 05be
00000230: 0076 923d 6ec9 06be 0056 b3bb 864e 93bd
00000240: aab7 1a3d 0620 9b3d 7788 11be c03f 43bd
00000250: 8345 c8bd f002 b9bd b0fc adbd 404b 8fbc
00000260: f40e ad3d 802f d7bd 4c5c 2f3d 720e fdbd
00000270: 0861 3bbd 4f91 c7bd 088e 873d a8f5 293d
00000280: f051 22bd d990 0cbe 5af7 9cbd 787d 1ebe
00000290: e059 8d3b 78b0 923d a0a0 8ebc bea6 b83b
000002a0: 2ccf 2ebd 4419 d33a 527c 8fbd e8db 1dbd
000002b0: 716f 623d 50cb d83d 6b5c bcbc c4ae 42bd
000002c0: e88b 88bc ea31 d9bd 4892 86bd f43c 36bd
000002d0: e33c 0e3d 22f8 cfbd 2c63 443d 70c9 a43c
000002e0: e055 f8bd 0441 47bd 0141 2b3d b432 94bd
000002f0: 3b69 1e3d 1f44 a33d b6e7 acbd c819 2e3d
00000300: ef6b 8f3d a771 6dbd 1e2e 9fbd e8ca 6c3d
00000310: 0915 293b 10b3 6ebc b8a0 d5bc cbff 17be
00000320: d063 d63c 5c4a 0cbd da43 b9bd 1979 60bd
00000330: f035 e83d c70e a4bd be46 ed3a 0fb0 d23d
00000340: d81f 1f3d 4018 a13c 2962 a0be 21df 86bc
00000350: 662b e33d 08f6 93bd 006d f7bc 0851 bdbd
00000360: 78d1 273d be54 8cbd a2c6 c9bd 5631 c83d
00000370: 3c76 73bc 39ff 323b ea64 d63c a14d c63d
00000380: 2b7c a3bd 6f1d 2fbd aa55 cfbc 0364 f73d
00000390: d8b8 83be 400c e0bd 18f6 e5bd 94f9 e43d
000003a0: f8f9 b93d c5e7 86bd 0c94 c73d 1909 1bbe
000003b0: 781b 9e3d f293 dfbd 6918 e13d e022 84be
000003c0: 340a 9b3d 2ed3 633d e312 c0be 6982 0cbd
000003d0: 7431 903e 84ea 79bd df9a 9eb9 9a41 c83d
000003e0: e42f fabc 40ff c9bb b0ac 033d 2185 25be
000003f0: ecc2 9b3d c0db d33d e649 c0bd 5a0d bfbd
-0.08090157 -0.0574722 0.0036870986 -0.016731367 0.08826827 0.087492675 -0.040498663 0.03300083
0.05782798 0.024386624 -0.0247251 -0.07734547 0.079424895 0.11126237 -0.067137696 0.09589035
-0.017274013 0.020395547 -0.030664869 0.0022941492 0.003840143 -0.075672165 0.033366352 0.053211004
0.09363781 0.074053094 -0.048570186 -0.13105102 0.024570443 -0.021656897 0.13966477 0.11287374
0.09591989 0.10806676 0.022928357 0.0040739677 -0.102602065 -0.023595722 0.03576128 -0.13078433
0.07165682 0.055811085 -0.10150637 0.011877909 0.057320964 0.1153094 0.026647616 -0.05458294
0.0826883 -0.0978298 -0.061557397 0.019061994 -0.064159974 0.07584797 0.040413056 -0.048847467
-0.12181542 -0.10442959 0.0062108883 0.005535227 0.014735275 -0.10226875 0.05076547 -0.099533394
0.023136884 -0.024416879 -0.0665724 -0.049429014 -0.031866044 -0.027527303 -0.06304042 -0.14346866
-0.08218491 0.046102792 0.07733172 -0.09116328 -0.07726996 -0.044274256 -0.04061222 0.004666239
0.04186821 0.08431721 -0.08192339 -0.08195464 -0.08238356 0.031392604 0.020872071 -0.058074743
-0.0007880181 0.10422541 0.112466246 -0.016449556 0.086845726 -0.065880924 -0.08882356 0.02326423
-0.0027363002 0.017272115 -0.08340764 0.00335899 -0.083011284 0.11958647 -0.088680625 -0.17224856
0.048706234 0.0050712824 -0.026319206 0.06480344 0.097179726 0.10808441 -0.067937925 -0.06885514
0.077307254 0.12414715 -0.04527777 -0.02421406 -0.008176923 0.021071345 -0.0770857 0.11860253
-0.011698335 0.052275926 0.030398117 -0.05625747 -0.042860433 0.105305895 0.03184867 -0.04937023
0.106077075 -0.13949262 0.06418535 -0.08778794 0.099612206 -0.1088997 -0.10164163 0.0320658
0.031435266 -0.14908627 -0.11419788 -0.13030571 0.07151413 -0.13162777 -0.0054728985 -0.071927115
0.037772812 0.07574467 -0.14212213 -0.04766822 -0.09778883 -0.090337634 -0.08495462 -0.017491937
0.08450118 -0.10507107 0.04281263 -0.12356271 -0.045746833 -0.09744512 0.06618887 0.04149404
-0.039628923 -0.1372713 -0.07664366 -0.1547755 0.0043136925 0.07162565 -0.017410576 0.0056351116
-0.042678043 0.0016105552 -0.07006134 -0.038539797 0.05528206 0.10585654 -0.022993287 -0.04752995
-0.016668275 -0.106052235 -0.0657087 -0.044491723 0.034726035 -0.101547495 0.04794614 0.020115584
-0.12125754 -0.048645988 0.04181004 -0.07236233 0.038674574 0.079719774 -0.08442633 0.042505056
0.070030086 -0.057969715 -0.07772468 0.057810694 0.0025799891 -0.014569059 -0.026077613 -0.14843671
0.026170641 -0.034250602 -0.09046145 -0.054802988 0.11338413 -0.08010631 0.0018102748 0.10287487
0.038848728 0.019664884 -0.3132489 -0.016463818 0.11092262 -0.07224661 -0.030203342 -0.09243971
0.04097125 -0.06852101 -0.09852339 0.09775035 -0.014859732 0.002731277 0.026171166 0.09682775
-0.079826675 -0.04275268 -0.025309402 0.120796226 -0.25726962 -0.109398365 -0.11228579 0.11180416
0.09080881 -0.06587175 0.097450346 -0.15140189 0.07720083 -0.1091689 0.10990984 -0.25807858
0.075703055 0.05562132 -0.3751441 -0.034304056 0.2816273 -0.061014667 -0.00030251496 0.097781375
-0.030540414 -0.0061644614 0.03214711 -0.16164066 0.07605538 0.10344648 -0.09389095 -0.093287185

bias f4 [64]
00000000: 5eab 76bd bdac 23bd 8648 c2bd b6a1 8cbd
00000010: e91d 8bba e8d5 22be 5985 18be f106 a2bc
00000020: abcc 06be 740e 12be 05f4 4bbd 16b1 24be
00000030: 02b0 debb 5383 78bc 892b 22bd 6f43 e1bc
00000040: d47c 2ebe 641d 35be 9342 aebd f21a d4bc
00000050: 782f d7bc 86c4 1ebe 202c d7bc 7373 1abe
00000060: 3dd3 ddbd 54d2 68bd 690e 02be 69ad 04be
00000070: 0d4d e4b9 d9a1 6cbe dc75 21bc 9545 983d
00000080: 706a e0bd 5131 bdbd 7b92 4abe 6c07 7a3e
00000090: d2ee 73be 1dfb a3bd 554b cdbd 26c4 5abd
000000a0: fad4 45be 05f1 cabd d11e 46bd ec54 b0bc
000000b0: a79f 45be f4ca 0cbe 9d1f d9bd 2361 07be
000000c0: 23ed 19be 19ff 7cbc c380 dabe f4f5 60bd
000000d0: 811e ebbd 2090 a9bc e97e fbbc ee77 05be
000000e0: 744e aebd 53f3 e6bd 2b04 98bd ad22 84bc
000000f0: 656c c6bd df52 edbd 4829 5fbe 6931 04bd
-0.060222022 -0.039959658 -0.09486489 -0.068667814 -0.0010613772 -0.15901911 -0.14894618 -0.0197787
-0.13164012 -0.14263326 -0.049793262 -0.16083178 -0.006795884 -0.015168029 -0.0395923 -0.027497975
-0.17039806 -0.17686993 -0.08508792 -0.025891755 -0.026267752 -0.15504655 -0.026266158 -0.15083103
-0.10831306 -0.05684121 -0.1270081 -0.12956776 -0.00043544956 -0.23108615 -0.00985476 0.07435147
-0.10957801 -0.09237922 -0.1978244 0.24416894 -0.23821571 -0.080068804 -0.10024134 -0.053409718
-0.19319525 -0.09909252 -0.048369233 -0.021524869 -0.19299184 -0.13749295 -0.10601733 -0.13220648
-0.15031867 -0.015441679 -0.42676362 -0.05492206 -0.114804275 -0.020698607 -0.030700164 -0.13034031
-0.085110575 -0.11276879 -0.0742267 -0.016129816 -0.09688643 -0.11588072 -0.21793091 -0.032273684

weight f4 [1, 64]
00000000: d516 f2bc 6c09 5a3c f7a4 f3ba 53da 15bc
00000010: 677e 0dbd abc5 bd39 6b78 13bd a3db db3b
00000020: 3157 6cbc 6030 0dbd 9728 96bc bb11 883a
00000030: 53ee a43c 3857 a8bc 9c47 8f3b 498a 14bd
00000040: 028d 28bd f680 dc3c 5b9d ac3c fa45 6bbc
00000050: 483f 06bd 92ab fa3b 7925 a8bc 3497 3f3b
00000060: fc58 1dbc f5ac 73bc 7bab 463d e167 24bc
00000070: 3b4d 33bc aed1 98be 8688 a8bc fa13 a2bd
00000080: aa57 853c 605f 7a3d 0d27 65bc c5c0 073e
00000090: f2e1 b5bc 43b1 b2bc 9e49 c0bb 23b3 7cbc
000000a0: 2c63 87bb 6593 d4ba 6ca6 b9bc dfaa aa3b
000000b0: 1405 393c c01f fb3c 0435 8a3c dd55 2cbd
000000c0: 3917 6a3d 3787 9d3b 767c 89be 06f2 523a
000000d0: 4cd6 66bc c5fb 1cbc 069d 773c e108 a4ba
000000e0: 59b4 71bc 08ac 443c 1f7f 2fbd cc39 e5bc
000000f0: ba9d 503c d684 38bc 6290 dbbc 134f 5fbc
-0.029551903 0.01330791 -0.0018588592 -0.009146291 -0.034544375 0.00036196163 -0.03600351 0.0067095323
-0.014425085 -0.034469962 -0.018329902 0.0010381261 0.020133173 -0.020549402 0.00437255 -0.03626469
-0.0411501 0.026916962 0.021071127 -0.014359945 -0.032775193 0.0076498473 -0.02052568 0.0029234411
-0.009603735 -0.014872779 0.04850338 -0.010034532 -0.010943706 -0.29847473 -0.020572912 -0.079139665
0.016277153 0.061126113 -0.013986361 0.1325713 -0.022202466 -0.02181304 -0.005868151 -0.015423569
-0.0041316953 -0.0016218243 -0.022662364 0.0052083577 0.011292715 0.030654788 0.016870983 -0.042074073
0.057151053 0.0048073786 -0.2685277 0.00080469286 -0.014089178 -0.009581511 0.015113121 -0.0012514853
-0.014752471 0.012003906 -0.04284584 -0.027981661 0.012732917 -0.011262139 -0.026802246 -0.013629693
