output/ddpg/2021-12-21_11-14-57-ddpg_s1/pyt_save/model.pt (torch_old, 48433 bytes, 11 tensors)

weight f4 [64, 16]
0.1288158 -0.11034456 -0.04846537 0.11734223 -0.23535922 0.14992931 -0.051431328 0.12718597
0.034754246 -0.030611038 0.06934023 0.012332946 0.091307044 -0.09742525 -0.01822719 -0.022506833
0.18261002 -0.16035162 0.20981488 0.022387553 -0.049499966 -0.04261864 -0.017375484 0.0043298285
-0.023253566 0.042893276 0.21060717 0.2607768 -0.2141963 0.22100453 0.10134257 0.26552185
0.12773933 -0.24800281 -0.23705629 -0.11741755 0.23260102 -0.06351954 0.06033437 -0.14409462
0.23263401 -0.16142625 0.24221374 -0.008615752 -0.18747698 0.07544036 -0.20488794 0.01796511
-0.031503614 -0.07444416 -0.24127649 -0.14221296 0.15315838 -0.03454707 0.24492571 0.20980167
-0.043618955 -0.1660936 0.20308922 0.091052145 -0.16098812 0.1663391 0.1272888 0.21970004
-0.25424805 0.048666894 0.0010714877 0.06652588 -0.18622151 -0.2681556 0.09749173 -0.116704404
0.07436244 -0.03317411 0.13071126 -0.013193871 0.045101847 0.07277001 -0.30469826 0.08190749
-0.2285629 -0.24207748 0.016970064 -0.036624704 0.19035165 -0.18989083 -0.23822735 0.17943342
-0.012859735 0.123807944 0.15144216 -0.17547111 0.03685562 0.05311595 -0.1703419 -0.13199584
0.15976273 0.02431292 -0.11067225 -0.11259764 0.21894142 0.0060613146 0.18011741 0.15918957
-0.16973755 -0.16574626 0.21810128 0.06548607 0.22627077 0.11367107 0.122267395 0.24155162
0.20944157 -0.18964392 0.031959094 0.18287925 0.19407082 0.1372986 -0.19177748 -0.19132023
-0.13471079 0.020491138 0.29138285 -0.15160318 0.12644666 -0.14402762 -0.24039428 -0.059728585
0.010530065 0.2952162 -0.1537713 0.1477103 0.17888951 0.10212865 0.20613593 0.045111086
0.11344471 0.10862686 -0.27113116 -0.32104287 -0.06919096 -0.041496735 -0.10351907 0.13954684
0.17128786 -0.07134552 0.09609173 0.103563756 0.123491414 0.2396721 -0.096395046 0.27600536
-0.049508285 -0.017416121 -0.20496498 -0.121617675 -0.16628775 -0.06386416 0.19174917 -0.10004683
-0.09194792 0.06874878 0.07576103 0.1304855 -0.1586191 0.12944353 -0.038654488 -0.0013240376
-0.20901467 -0.054968018 -0.1031985 0.12679178 0.10508599 0.11834355 0.28272218 0.30132872
-0.0714181 0.09865326 -0.16786161 0.2891683 -0.09878214 -0.13241212 -0.14866349 -0.2657848
-0.3481515 0.29562968 -0.3693932 -0.443131 0.062069554 -0.20792527 0.09348071 -0.024537507
-0.15045242 -0.0024866748 0.1816599 -0.19056673 0.13003956 0.13913931 0.20540375 -0.21131755
0.09891173 -0.22532213 0.20318612 -0.05317514 0.10659488 -0.035376634 -0.059988823 -0.05263703
0.04249862 0.11784902 0.04009497 0.076263726 -0.22488117 0.18213436 0.21796599 0.20665145
0.18480566 -0.18040785 -0.092675 0.22043133 -0.19041464 0.2268053 -0.19662401 -0.17610213
0.1222195 -0.17962226 -0.057275176 0.18187296 0.19802222 0.23643893 -0.050729364 -0.1943152
0.24615273 -0.05325654 -0.10285878 0.060943455 -0.17483112 0.16432005 0.15668318 -0.19837031
-0.22739118 -0.041266676 0.10493722 -0.020448724 -0.117393255 -0.0045835716 -0.25614455 -0.19473754
-0.15472609 0.18803354 0.19600534 -0.06965389 -0.002781013 0.09478856 0.0073018805 -0.1405727
00000000: 4ae8 033e 54fc e1bd a083 46bd 2051 f03d
00000010: 0202 71be 1287 193e a8a9 52bd 0a3d 023e
00000020: 785a 0e3d 00c4 fabc 4002 8e3d 2010 4a3c
00000030: 30ff ba3d e486 c7bd 3051 95bc 4060 b8bc
00000040: 1ffe 3a3e 3733 24be b6d9 563e 1a66 b73c
00000050: 7ac0 4abd e290 2ebd 0857 8ebc 3ce1 8d3b
00000060: 437e bebc dcb0 2f3d 68a9 573e 8984 853e
00000070: 4656 5bbe 034f 623e b18c cf3d 7bf2 873e
00000080: 19ce 023e 73f4 7dbe e2be 72be 9d78 f0bd
00000090: f62e 6e3e 8816 82bd 2c21 773d 8a8d 13be
000000a0: 9c37 6e3e ec4c 25be e106 783e 1529 0dbc
000000b0: f7f9 3fbe 7a80 9a3d 25ce 51be 912b 933c
000000c0: ef09 01bd 2e76 98bd 2f11 77be 46a0 11be
000000d0: 8dd5 1c3e 3a81 0dbd cecd 7a3e 40d6 563e
000000e0: caa9 32bd 7114 2abe 9ff6 4f3e 8c79 ba3d
000000f0: 12da 24be cc54 2a3e ff57 023e 0cf9 603e
00000100: cd2c 82be f056 473d 2971 8c3a b83e 883d
00000110: dab0 3ebe b14b 89be bea9 c73d b802 efbd
00000120: 564b 983d 93e1 07bd 2cd9 053e 1b2b 58bc
00000130: b7bc 383d 7108 953d 6901 9cbe 1dbf a73d
00000140: 650c 6abe 29e3 77be ce04 8b3c c903 16bd
00000150: 8beb 423e be72 42be dff1 73be 65bd 373e
00000160: a3b1 52bc 058f fd3d a713 1b3e b3ae 33be
00000170: ebf5 163d 1c90 593d 1b6e 2ebe eb29 07be
00000180: d798 233e e42b c73c 22a8 e2bd 9799 e6bd
00000190: 2e32 603e fe9d c63b b370 383e 9702 233e
000001a0: aecf 2dbe 63b9 29be f155 5f3e 901d 863d
000001b0: 86b3 673e 61cc e83d 5467 fa3d 4f59 773e
000001c0: da77 563e 0432 42be 8ae7 023d b344 3b3e
000001d0: 80ba 463e 0198 0c3e 5161 44be 73e9 43be
000001e0: a0f1 09be 08dd a73c 2230 953e dd3d 1bbe
000001f0: 3c7b 013e fa7b 13be eb29 76be f6a5 74bd
00000200: 4b86 2c3c 9426 973e 3976 1dbe 5e41 173e
00000210: d02e 373e d328 d13d 4c15 533e 67c6 383d
00000220: b355 e83d c277 de3d b4d1 8abe bb5f a4be
00000230: fdb3 8dbd 7bf8 29bd ce01 d4bd 5ee5 0e3e
00000240: 1666 2f3e 9a1d 92bd becb c43d 3c19 d43d
00000250: 11e9 fc3d 9a6c 753e c46a c5bd 9350 8d3e
00000260: 33c9 4abd 41ac 8ebc 57e2 51be b012 f9bd
00000270: 5647 2abe 36cb 82bd e559 443e 5ae5 ccbd
00000280: 314f bcbd 29cc 8c3d 9928 9b3d fe9d 053e
00000290: 0c6d 22be d88c 043e 2b54 1ebd 548b adba
000002a0: f107 56be 2526 61bd bc59 d3bd b4d5 013e
000002b0: 5337 d73d 1a5e f23d f6c0 903e c247 9a3e
000002c0: a743 92bd b80a ca3d eae3 2bbe de0d 943e
000002d0: 4a4e cabd 0b97 07be 3e3b 18be f214 88be
000002e0: ea40 b2be c65c 973e 1b21 bdbe 11e2 e2be
000002f0: a53c 7e3d 5dea 54be d172 bf3d e202 c9bc
00000300: 3310 1abe 7bf7 22bb 0e05 3a3e ed23 43be
00000310: 1729 053e 897a 0e3e 5c55 523e a163 58be
00000320: 3c92 ca3d d8ba 66be 0610 503e 2dce 59bd
00000330: 6b4e da3d 17e7 10bd d7b6 75bd ed99 57bd
00000340: 0813 2e3d d45a f13d a03a 243d 2830 9c3d
00000350: 4047 66be 6e81 3a3e 7a32 5f3e 709c 533e
00000360: b23d 3d3e d6bc 38be 64cc bdbd c0b8 613e
00000370: 0efc 42be a63f 683e ce57 49be 1e54 34be
00000380: 384e fa3d e6ee 37be 6099 6abd e83c 3a3e
00000390: 56c6 4a3e 0c1d 723e 98c9 4fbd 90fa 46be
000003a0: 760f 7c3e 8823 5abd a0a7 d2bd d89f 793d
000003b0: ee06 33be 8443 283e 8e71 203e 9621 4bbe
000003c0: 3cd9 68be 3f07 29bd 53e9 d63d 1584 a7bc
000003d0: e06b f0bd c931 96bb 6125 83be 4769 47be
000003e0: 8470 1ebe dd8b 403e a0b5 483e b3a6 8ebd
000003f0: a841 36bb 8120 c23d 9d44 ef3b 4af2 0fbe

bias f4 [64]
0.041443557 0.037980977 -0.01888785 -0.14294231 -0.288534 -0.008868395 -0.049071386 -0.09204607
0.23266071 0.02584035 0.17116366 0.0009202438 -0.23930728 0.049849153 -0.16556168 0.015238877
-0.28726524 0.1478799 -0.13134861 0.2821277 0.17660081 0.2814326 0.15001073 0.057864934
0.025719125 -0.08862592 0.021488518 -0.1897646 0.29760548 0.012953103 0.16139919 0.039257064
0.071843 -0.15403268 -0.19434142 0.1906606 0.1485761 0.084694676 -0.26970536 0.016902
-0.23318842 -0.028609246 0.07344053 -0.17588001 -0.2475563 -0.033454858 0.24846292 0.45710096
-0.057150964 -0.044410348 -0.15903255 -0.20853747 -0.13173454 0.30169815 -0.06522125 0.014464527
0.35334507 0.08784506 0.18905887 0.22238716 0.23442772 -0.004020148 -0.15532559 -0.2150658
00000000: b8c0 293d f191 1b3d b1ba 9abc 785f 12be
00000010: baba 93be bf4c 11bc 14ff 48bd a682 bcbd
00000020: 9c3e 6e3e 24af d33c 8745 2f3e 843c 713a
00000030: f80c 75be a02e 4c3d 0089 29be 7cac 793c
00000040: 6e14 93be d46d 173e 4080 06be 0b73 903e
00000050: d8d6 343e ef17 903e 6a9c 193e c803 6d3d
00000060: eab0 d23c 8281 b5bd b008 b03c a751 42be
00000070: bf5f 983e 4039 543c d445 253e 04cc 203d
00000080: 6c22 933d beba 1dbe 7001 47be 883c 433e
00000090: 5524 183e 6774 ad3d d216 8abe 1076 8a3c
000000a0: f2c8 6ebe f05d eabc fd67 963d e419 34be
000000b0: 667f 7dbe f607 09bd 106d 7e3e 2309 ea3e
000000c0: 2117 6abd a0e7 35bd 6ed9 22be d98a 55be
000000d0: 6be5 06be 2e78 9a3e b892 85bd a0fc 6c3c
000000e0: a5e9 b43e 1ce8 b33d a698 413e 76b9 633e
000000f0: d20d 703e 72bb 83bb ac0d 1fbe 363a 5cbe

weight f4 [64, 64]
-0.06458472 0.26816016 0.063052304 0.19924816 -0.26692116 -0.084277004 0.27208892 -0.0037976282
0.024662724 0.15990916 0.15440173 0.1652067 0.052976843 0.048098356 -0.095647335 0.0025084498
0.05427593 0.038768765 0.19906557 0.2229525 0.11364293 0.22474182 -0.12491149 0.031541243
0.08784337 0.13977818 0.15592109 0.26030654 0.096026435 -0.122470155 0.11470577 0.17097306
0.09156801 0.1013502 0.09626827 0.03945914 0.13487835 0.065988965 -0.06835911 0.02444382
-0.08693008 0.042975783 0.2737452 0.106070906 -0.12320776 0.13869843 0.10064115 0.15397653
0.26692864 0.06773813 0.07652306 0.24303019 -0.1266585 0.24951605 0.12133978 -0.0056764632
0.059074167 0.15270367 0.08228782 0.11066311 -0.008301184 0.0264391 0.059397765 0.013718396
-0.08133432 -0.06869777 -0.0010809898 -0.06639205 0.11678052 -0.045124933 -0.069685586 -0.03330086
-0.064177535 0.033479862 0.106926456 -0.08916557 -0.046468005 0.116658464 -0.09042427 0.033854946
-0.10383936 -0.11125569 0.031480845 -0.070745565 0.06769821 -0.038870998 0.0012315959 -0.0652598
0.050828703 0.1150071 -0.029434055 -0.076480284 -0.12393153 0.11978291 0.052949127 0.074640326
0.021281794 0.062723115 0.04438877 0.06103447 0.078425735 0.016218225 0.11107592 0.07772753
-0.003826484 -0.055830896 0.008286327 0.09735145 0.079184815 -0.049250595 -0.025982158 -0.18321331
0.047097623 0.11903012 0.061776377 0.039784558 0.028889835 -0.11723936 -0.046052203 0.013229534
-0.08550731 -0.11026343 0.084250465 0.043199785 -0.10087073 0.008753454 0.069419056 0.072009355
0.114151075 -0.07333262 0.09769519 -0.11258531 0.020702327 -0.030213935 -0.017028054 0.11694377
0.09924572 -0.04226582 -0.023280729 0.012453656 -0.0017401464 -0.06847431 0.09178729 0.12421962
0.13839783 -0.06863895 0.13136524 -0.021815151 -0.0293677 -0.00013206991 -0.006078124 -0.054737315
0.016767213 -0.07958341 0.09081788 -0.08765539 -0.04222659 -0.08730696 0.117353514 0.12165318
-0.09941949 -0.06820893 0.111873016 0.036423877 0.0981934 -0.1317518 0.056415558 0.07956758
-0.029002562 -0.005760148 0.1320621 0.03408496 0.035866573 -0.0034335859 -0.078159675 -0.045683257
0.15829018 -0.009874806 0.1428248 0.13017301 -0.04406431 0.036006223 -0.031973436 -0.0022696704
0.10626583 0.0634556 -0.117720544 -0.04559564 -0.088800386 -0.13534035 0.021019192 -0.0772398
0.0016335696 -0.0109389145 0.02138412 -0.018090088 0.05390275 0.017166704 0.07884006 0.026982397
-0.008320689 0.010966074 0.072562344 0.012078924 0.08805972 -0.011853293 0.001083836 0.10501805
-0.1283762 0.012469932 0.10737061 -0.07355999 -0.023057252 -0.014128349 0.04118088 0.04724568
0.017558673 0.03861454 -0.06047223 0.041755196 -0.05007208 0.07854205 -0.047156695 -0.11320117
0.008927166 0.065043524 -0.004898995 0.0016225725 -0.010385877 0.055695437 -0.0013859771 -0.11166738
-0.089145586 0.0073887855 -0.016759703 0.11948219 -0.029384643 0.08465458 -0.116275765 -0.1257854
-0.018252393 -0.079147235 -0.047093153 0.0032598726 -0.11517297 0.07531419 -0.07586193 0.09590922
0.029897569 -0.03411676 -0.120206974 0.009852584 -0.06983228 0.09708002 -0.11495174 -0.0330192
00000000: fe44 84bd 4a4c 893e 9121 813d b607 4c3e
00000010: e4a9 88be 6c99 acbd 3d4f 8b3e a1e1 78bb
00000020: 7b09 ca3c 3abf 233e 7d1b 1e3e f22b 293e
00000030: 3ffe 583d c802 453d c0e2 c3bd ce64 243b
00000040: 7050 5e3d ffcb 1e3d d8d7 4b3e a94d 643e
00000050: a0bd e83d b822 663e 98d1 ffbd 6431 013d
00000060: 3ae7 b33d 0322 0f3e c7a9 1f3e e646 853e
00000070: 82a9 c43d a2d1 fabd dcea ea3d 9013 2f3e
00000080: 0288 bb3d b290 cf3d 4c28 c53d e89f 213d
00000090: 8d1d 0a3e 3925 873d dcff 8bbd 683e c83c
000000a0: 6608 b2bd 6007 303d 5528 8c3e b43b d93d
000000b0: 5a54 fcbd f606 0e3e f21c ce3d 06ac 1d3e
000000c0: dfaa 883e 4aba 8a3d 1fb8 9c3d e8dc 783e
000000d0: c4b2 01be 2381 7f3e fe80 f83d a001 babb
000000e0: c1f7 713d 5a5e 1c3e 8486 a83d 57a3 e23d
000000f0: b001 08bc d096 d83c 124b 733d 20c3 603c
00000100: 9c92 a6bd 6bb1 8cbd 00b0 8dba 8ef8 87bd
00000110: a02a ef3d ecd4 38bd 51b7 8ebd 7c66 08bd
00000120: 836f 83bd 2e22 093d 42fc da3d 709c b6bd
00000130: 3c55 3ebd a2ea ee3d 5c30 b9bd 7cab 0a3d
00000140: bba9 d4bd 06da e3bd 0ff2 003d 0de3 90bd
00000150: 5ca5 8a3d 3237 1fbd 806d a13a eea6 85bd
00000160: c231 503d d888 eb3d b01f f1bc b2a1 9cbd
00000170: d0cf fdbd be50 f53d 2fe1 583d 07dd 983d
00000180: 2857 ae3c fa74 803d 00d1 353d 48ff 793d
00000190: ac9d a03d 15dc 843c c67b e33d 9c2f 9f3d
000001a0: c0c5 7abb f0ae 64bd 60c3 073c 3260 c73d
000001b0: a62b a23d feba 49bd 89d8 d4bc 459c 3bbe
000001c0: 70e9 403d 10c6 f33d 3a09 7d3d 22f5 223d
000001d0: 60aa ec3c 311b f0bd 3ca1 3cbd b0c0 583c
000001e0: 751e afbd cbd1 e1bd 828b ac3d 42f2 303d
000001f0: 5095 cebd a66a 0f3c 942b 8e3d a479 933d
00000200: 0ac8 e93d 6a2f 96bd 6a14 c83d 2193 e6bd
00000210: ed97 a93c 3783 f7bc 6b7e 8bbc 3780 ef3d
00000220: 5741 cb3d ed1e 2dbd 3ab7 bebc 6b0a 4c3c
00000230: a015 e4ba 423c 8cbd fafa bb3d db66 fe3d
00000240: 29b8 0d3e 9492 8cbd 9c84 063e b0b5 b2bc
00000250: 8894 f0bc 3f7c 0ab9 002b c7bb 3c34 60bd
00000260: 655b 893c a0fc a2bd bafe b93d ab84 b3bd
00000270: caf5 2cbd fecd b2bd 0a57 f03d 4d25 f93d
00000280: 729c cbbd 20b1 8bbd ae1d e53d 3431 153d
00000290: 9f19 c93d f2e9 06be 0014 673d 54f4 a23d
000002a0: c896 edbc a0bf bcbb 4a3b 073e ac9c 0b3d
000002b0: d4e8 123d 0306 61bb 2e12 a0bd 5e1e 3bbd
000002c0: d216 223e f0c9 21bc aa40 123e 134c 053e
000002d0: c77c 34bd 437b 133d 94f6 02bd c0be 14bb
000002e0: e6a1 d93d 02f5 813d 7817 f1bd 7ec2 3abd
000002f0: fadc b5bd a996 0abe 7130 ac3c e62f 9ebd
00000300: 801d d63a 2239 33bc c02d af3c aa31 94bc
00000310: 21c9 5c3d 30a1 8c3c e676 a13d 300a dd3c
00000320: 8053 08bc 0cab 333c 919b 943d aee6 453c
00000330: a858 b43d 5034 42bc 800f 8e3a b413 d73d
00000340: 0d75 03be b04e 4c3c 1fe5 db3d 9fa6 96bd
00000350: 90e2 bcbc 977a 67bc 48ad 283d b084 413d
00000360: 35d7 8f3c 482a 1e3d bbb1 77bd 7f07 2b3d
00000370: 6218 4dbd a8da a03d 6127 41bd 04d6 e7bd
00000380: 4043 123c 8a35 853d c087 a0bb 80ac d43a
00000390: 8729 2abc e620 643d ada9 b5ba deb1 e4bd
000003a0: f691 b6bd a01d f23b a54b 89bc 14b3 f43d
000003b0: 10b8 f0bc 615f ad3d fd21 eebd e3cd 00be
000003c0: 0b86 95bc f217 a2bd c0e4 40bd 96a3 553b
000003d0: cedf ebbd 533e 9a3d 805d 9bbd 0e6c c43d
000003e0: bfeb f43c 04be 0bbd 132f f6bd bc6c 213c
000003f0: 3a04 8fbd e4d1 c63d d16b ebbd 243f 07bd

bias f4 [64]
0.071908355 0.03418703 -0.06237836 -0.059276115 0.08600165 0.17984687 0.083000734 -0.019700006
0.10592913 0.09924799 0.04934241 0.055679243 -0.14565435 -0.067580566 -0.001678884 -0.017444776
0.09768421 0.12417217 -0.069665186 0.059824627 0.042778865 -0.061751187 -0.12405734 0.16547586
0.08763431 0.030228943 0.0829036 -0.039659813 -0.024068447 0.020719856 0.058950394 -0.08564283
0.02999212 -0.117642604 -0.017428441 0.10673128 -0.11856504 0.024262547 0.064787984 0.018762156
-0.042591404 0.07217466 -0.1413885 0.10410905 0.15833475 0.102750085 0.14340585 -0.038203523
-0.09976295 -0.09092594 -0.106955394 -0.07751791 -0.1197796 0.08030381 -0.01606942 0.037272617
-0.028851818 0.14421776 -0.072877124 0.06822006 0.05471708 -0.091814086 0.10079207 -0.049413934
00000000: b044 933d b307 0c3d 7480 7fbd 83cb 72bd
00000010: a221 b03d c729 383e 4afc a93d e861 a1bc
00000020: 5ff1 d83d 8842 cb3d 441b 4a3d eb0f 643d
00000030: 6a26 15be ae67 8abd 000e dcba 59e8 8ebc
00000040: a90e c83d fb4d fe3d 9fac 8ebd ab0a 753d
00000050: e438 2f3d d0ee 7cbd c611 febd 8172 293e
00000060: 9e79 b33d b0a2 f73c 5dc9 a93d 5472 22bd
00000070: 312b c5bc b0bc a93c f875 713d 8265 afbd
00000080: 09b2 f53c 9bee f0bd 17c6 8ebc ee95 da3d
00000090: 3ad2 f2bd 40c2 c63c 90af 843d 18b3 993c
000000a0: 5374 2ebd 4fd0 933d 26c8 10be 2037 d53d
000000b0: 8122 223e a36e d23d fcd8 123e 4c7b 1cbd
000000c0: 8450 ccbd 6137 babd 6e0b dbbd b6c1 9ebd
000000d0: 024f f5bd 5376 a43d 04a4 83bc 2cab 183d
000000e0: a65a ecbc d2ad 133e 9a40 95bd f5b6 8b3d
000000f0: 041f 603d 0609 bcbd 136c ce3d 4466 4abd

weight f4 [3, 64]
-0.22887954 0.10315422 -0.1171354 -0.045198496 -0.013315193 -0.27331507 0.09077818 0.098026514
-0.14765228 -0.04484975 0.01615783 0.057559866 -0.09211032 -0.011543199 0.14312457 -0.05843736
-0.06235436 -0.106554896 -0.10476805 -0.06902251 -0.22265428 -0.016713068 0.026292175 -0.22316201
-0.22768511 0.11078955 -0.058508877 -0.09209755 -0.07407926 -0.05877818 -0.29783735 -0.026915886
-0.03436251 -0.038691685 0.054146886 -0.01792147 -0.075435944 -0.12456715 0.109432995 0.068609074
-0.12679088 0.057061926 0.09266997 0.012400851 -0.07188514 -0.030361732 -0.07628642 -0.06067084
-0.06332639 -0.1055026 -0.05330977 0.06379351 0.02579592 -0.0908935 0.049405314 -0.058021914
0.028229577 -0.24099876 0.15969372 0.0161042 -0.009806305 -0.10669566 0.002245505 0.047699302
0.3347385 0.10542649 -0.042483777 -0.0852978 0.11733516 0.06787806 -0.011239263 0.06935604
0.060041714 0.10179853 -0.053413693 -0.033188805 -0.1358436 -0.034232408 0.31985924 -0.018191053
-0.06331988 0.104266964 0.02810586 -0.007137474 -0.106105834 0.090359196 -0.10174523 0.13750586
-0.0049008224 -0.045516804 -0.1147809 0.017121151 0.0030259998 -0.04956618 0.030238865 -0.07009866
0.21907084 0.10082945 0.3233518 0.02577838 -0.17547385 -0.028785855 -0.060397714 -0.01757069
-0.122882344 -0.056144748 -0.02162391 6.914139e-06 0.051078383 0.031146964 -0.042899597 -0.03692818
-0.09105995 0.12436052 0.074139595 -0.11030622 -0.09901759 0.0010321573 -0.07133244 0.14311531
-0.044543087 -0.24414235 0.063217804 -0.087995514 -0.011727542 0.10037834 0.09751165 -0.08524662
0.018435821 0.13932943 -0.015265348 0.005942276 0.14072329 -0.021601005 -0.02262396 0.11538002
0.10414681 -0.031694617 0.04001288 0.11428191 0.23068693 -0.059136033 -0.21462786 0.053556986
0.097775005 -0.0522912 0.12685806 0.0582237 0.074865624 -0.036216855 -0.016350925 -0.025410628
0.028433876 0.09911497 -0.07301307 -0.04408361 -0.014400959 0.050645098 0.02142967 0.07830399
-0.28792405 -0.02217124 -0.12605691 -0.013259807 0.23566483 0.08810437 0.06926346 0.066682205
0.07718615 -0.10588238 -0.03815776 0.09368007 -0.1874868 0.0055477875 -0.16396205 -0.0018073249
-0.021508247 0.18592039 0.022184908 0.114804715 -0.004173762 -0.041890707 0.06624044 -0.20512335
0.032398567 -0.07409119 -0.056161087 0.066500716 0.03310159 0.014632611 0.07373861 0.018131599
00000000: 665f 6abe 8542 d33d afe4 efbd 0f22 39bd
00000010: f827 5abc f4ef 8bbe e9e9 b93d 20c2 c83d
00000020: 2932 17be 5fb4 37bd 6d5d 843c e5c3 6b3d
00000030: 56a4 bcbd b01f 3dbc 3f8f 123e 035c 6fbd
00000040: 4967 7fbd 7439 dabd a290 d6bd ac5b 8dbd
00000050: 7cff 63be d8e9 88bc b062 d73c 9584 64be
00000060: 4926 69be a2e5 e23d 01a7 6fbd a49d bcbd
00000070: deb6 97bd 64c1 70bd 237e 98be b47e dcbc
00000080: b4bf 0cbd 2c7b 1ebd 20c9 5d3d 0cd0 92bc
00000090: 297e 9abd 101d ffbd 681e e03d ea82 8c3d
000000a0: 78d5 01be c4b9 693d c1c9 bd3d f02c 4b3c
000000b0: 8438 93bd 2bb9 f8bc 0e3c 9cbd fd81 78bd
000000c0: 44b1 81bd bf11 d8bd 585b 5abd 2ca6 823d
000000d0: f751 d33c 5f26 babd 3a5d 4a3d 63a8 6dbd
000000e0: b741 e73c 61c8 76be c086 233e f5ec 833c
000000f0: a0aa 20bc 4183 dabd 5329 133b 5860 433d
00000100: d862 ab3e d8e9 d73d 7803 2ebd 9db0 aebd
00000110: 6b4d f03d a703 8b3d e324 38bc 8a0a 8e3d
00000120: 4dee 753d bf7b d03d 51c8 5abd fcf0 07bd
00000130: 961a 0bbe 4837 0cbd 97c4 a33e 6705 95bc
00000140: daad 81bd eb89 d53d 433e e63c 79e1 e9bb
00000150: 044e d9bd 3e0e b93d ce5f d0bd 56ce 0c3e
00000160: 1497 a0bb d46f 3abd 4012 ebbd a841 8c3c
00000170: da4f 463b e805 4bbd 7fb7 f73c e38f 8fbd
00000180: 1b54 603e ac7f ce3d 5e8e a53e 2e2d d33c
00000190: 6baf 33be 50d0 ebbc 9863 77bd 68f0 8fbc
000001a0: bda9 fbbd 09f8 65bd a024 b1bc 0000 e836
000001b0: 9137 513d eb27 ff3c 7db7 2fbd 0142 17bd
000001c0: a47d babd bab0 fe3d 80d6 973d 3ae8 e1bd
000001d0: bcc9 cabd 7449 873a be16 92bd d28c 123e
000001e0: d072 36bd 7400 7abe 5678 813d fe36 b4bd
000001f0: e024 40bc 2993 cd3d 30b4 c73d c895 aebd
00000200: b806 973c 60ac 0e3e 831b 7abc 6db7 c23b
00000210: c419 103e 97f4 b0bc e255 b9bc 5c4c ec3d
00000220: ec4a d53d 37d2 01bd 8ce4 233d a20c ea3d
00000230: 3239 6c3e a038 72bd 68c7 5bbe 925e 5b3d
00000240: 433e c83d 4c2f 56bd 14e7 013e f97b 6e3d
00000250: 2653 993d 2058 14bd 60f2 85bc f329 d0bc
00000260: 29ee e83c cafc ca3d e087 95bd 0491 34bd
00000270: 00f2 6bbc 3c71 4f3d 468d af3c d85d a03d
00000280: c86a 93be 76a0 b5bc 1015 01be a93f 59bc
00000290: 1f52 713e 1070 b43d 00da 8d3d ae90 883d
000002a0: c613 9e3d dcd8 d8bd 504b 1cbd 56db bf3d
000002b0: 8afc 3fbe 37ca b53b abe5 27be c3e3 ecba
000002c0: 1032 b0bc ea61 3e3e 20bd b53c bc1e eb3d
000002d0: 0ec4 88bb 9795 2bbd 11a9 873d db0b 52be
000002e0: 5cb4 043d 1fbd 97bd 2b09 66bd 8731 883d
000002f0: 8895 073d 9ebd 6f3c 4504 973d b888 943c

bias f4 [3]
-0.15130925 0.102612115 -0.14175715
00000000: d0f0 1abe 4d26 d23d c928 11be

weight f4 [64, 19]
0.089057416 -2.657396 0.6404085 1.3974091 2.3981462 -0.13009228 0.08893714 -0.30080947
0.28995806 0.12304368 -0.120008126 0.17170286 -0.16459659 0.18733798 -0.24132054 0.011252778
0.07279271 0.104651555 0.007052471 4.9655724 -7.9453745 -0.32984018 3.664781 7.7469687
4.6801844 -0.15447107 -0.2601599 -0.029364053 0.18878339 -0.080884635 0.7008794 0.12218269
0.096328534 -0.06364052 0.2159979 0.062466048 0.020852229 0.0695427 -0.2285213 -0.10197222
-0.07807897 0.08594264 -0.016638458 0.07187079 -0.11900943 -0.22835682 0.084052876 0.1238416
0.12122993 0.19021459 -0.22375238 0.06822561 0.18217309 -0.117206775 0.12789412 0.11860727
0.048836485 -0.2194276 0.10755439 0.20602097 -0.031462654 0.091471866 0.17481203 -0.17128672
-0.21345107 0.08945699 -0.009624913 -0.10784966 -0.21434765 -0.14234582 0.0619943 -0.04220842
-0.19936112 -0.023209348 -0.01160197 -0.21407336 -4.9084044 2.175596 0.77442884 -2.339705
-2.2019243 -4.8048334 0.08398148 -0.41644368 1.2225586 -0.23874713 0.19417483 0.5362767
-0.17756797 -0.10953654 0.1581256 -0.11243628 0.22118446 -0.16490845 0.1469266 -0.15424955
-0.127277 0.055735085 0.1652987 0.2272829 -0.13860539 -0.12803409 0.010410826 -0.07012112
-0.0850453 -0.115020745 -0.047339216 -0.07966836 -0.13522646 0.038300052 -0.19413018 -0.17037642
0.011106391 -0.086656734 -1.5736337 2.4385056 0.56048393 -4.9201875 -2.8348207 -1.5250753
0.12099672 1.1280347 0.98604673 -0.0052777836 0.70596373 0.13768283 -0.18662591 0.10163358
0.37847134 -0.06393671 -0.039521344 0.042764906 -0.0026211448 0.15438001 1.4948654 -0.17633833
-5.3242054 -1.4496449 0.28854296 -0.28133434 0.14431942 0.997687 -0.19477035 0.027879426
0.15757172 0.14475381 0.24767528 0.46499798 0.16430892 0.03204662 -0.008300711 -0.0059009204
0.20996027 0.12916781 -0.14351594 0.09862296 0.051143482 -0.14308482 -0.20113838 -0.1291177
-0.17848013 -0.07643889 0.021633074 -0.11597087 -0.061294213 -0.07747479 0.10360299 -0.18178971
0.21853082 0.22410135 0.19588278 1.7108372 2.0484781 -0.4102913 -1.2864858 -2.0381584
1.3186368 0.097722806 0.04397859 0.47091562 -0.22562295 0.006007427 -0.050377864 -0.12115822
0.00418218 -0.028086891 -0.04421892 0.19841936 -0.09191027 0.1128703 -3.9865541 -2.5685365
-0.16687457 -1.7862712 2.5017135 -4.216975 -0.16642426 -0.29710475 0.22455898 -0.037494224
-0.15259297 -0.094265625 -0.48416123 0.11233397 0.09350609 -0.032105885 0.006908735 -0.021887373
0.1087852 2.4923146 0.08656549 0.5338344 1.5286129 0.52435404 2.4660294 -0.34308317
0.6343713 1.9673518 -0.040424682 -0.1715014 0.338918 -0.019660229 0.37946936 0.0596417
-0.07302598 0.028919687 -0.04188038 0.035617083 -4.479509 2.14033 0.4053047 -9.634172
-2.5522668 -4.31328 -0.10369353 0.3302861 0.844604 -0.056699567 -0.040913716 -0.16223705
-0.14282118 0.07005202 0.21385229 -0.0787944 -0.025667192 0.023177152 -0.027389655 -6.7298074
1.597199 -0.119990036 -7.4164543 -1.4122431 -6.563042 -0.0129072005 0.45746258 0.6126301
00000000: bc63 b63d c712 2ac0 d0f1 233f 4dde b23f
00000010: 3a7b 1940 e936 05be ad24 b63d b303 9abe
00000020: 6275 943e 53fe fb3d d2c6 f5bd e0d2 2f3e
00000030: 028c 28be 87d5 3f3e bb1c 77be 925d 383c
00000040: 5814 953d 8e53 d63d 6a18 e73b f8e5 9e40
00000050: 8240 fec0 d0e0 a8be c68b 6a40 2be7 f740
00000060: 12c4 9540 aa2d 1ebe ae33 85be e28c f0bc
00000070: 6f50 413e d8a6 a5bd d56c 333f eb3a fa3d
00000080: e547 c53d f655 82bd 8e2e 5d3e 66dc 7f3d
00000090: 4bd2 aa3c 676c 8e3d 7d01 6abe d0d6 d0bd
000000a0: dee7 9fbd b202 b03d 604d 88bc fe30 933d
000000b0: 37bb f3bd 5fd6 69be ea23 ac3d aaa0 fd3d
000000c0: 6647 f83d 9dc7 423e 581f 65be deb9 8b3d
000000d0: 958b 3a3e 1b0a f0bd adf6 023e 5ee8 f23d
000000e0: c408 483d a1b1 60be 7a45 dc3d 29f7 523e
000000f0: fcde 00bd 9a55 bb3d ed01 333e c965 2fbe
00000100: eb92 5abe 3a35 b73d d0b1 1dbc 48e0 dcbd
00000110: f37d 5bbe 1ac3 11be bced 7d3d bce2 2cbd
00000120: 5225 4cbe 8821 bebc 3016 3ebc 0c36 5bbe
00000130: a611 9dc0 f73c 0b40 f840 463f babd 15c0
00000140: 54ec 0cc0 32c1 99c0 7bfe ab3d 1b38 d5be
00000150: cd7c 9c3f 217a 74be c4d5 463e 6e49 093f
00000160: 61d4 35be b254 e0bd adeb 213e fe44 e6bd
00000170: 2e7e 623e c3dd 28be ed73 163e 98f3 1dbe
00000180: e754 02be 794a 643d 1044 293e d9bc 683e
00000190: 92ee 0dbe 5e1b 03be 2b92 2a3c a99b 8fbd
000001a0: 3b2c aebd ff8f ebbd c4e6 41bd 2a29 a3bd
000001b0: ce78 0abe 84e0 1c3d 10ca 46be 2877 2ebe
000001c0: 95f7 353c 1679 b1bd d46c c9bf 7a10 1c40
000001d0: e07b 0f3f 2d72 9dc0 b46d 35c0 ab35 c3bf
000001e0: 21cd f73d 7163 903f 8f6d 7c3f 42f1 acbb
000001f0: 0aba 343f bafc 0c3e dd1a 3fbe 4425 d03d
00000200: ffc6 c13e 40f1 82bd 22e1 21bd 412a 2f3d
00000210: 83c7 2bbb cb15 1e3e c057 bf3f 0992 34be
00000220: e45f aac0 f78d b9bf e7bb 933e 0e0b 90be
00000230: 78c8 133e 6a68 7f3f e171 47be 6563 e43c
00000240: 7b5a 213e 583a 143e 979e 7d3e 3714 ee3e
00000250: 9940 283e 5143 033d b5ff 07bc 825c c1bb
00000260: d3ff 563e 9144 043e d8f5 12be d6fa c93d
00000270: d47b 513d d484 12be 38f7 4dbe 6e37 04be
00000280: 7fc3 36be fe8b 9cbd d837 b13c 2382 edbd
00000290: a40f 7bbd 1aab 9ebd ce2d d43d 1527 3abe
000002a0: 8bc6 5f3e d37a 653e 7f95 483e b7fc da3f
000002b0: 441a 0340 b411 d2be 91ab a4bf 3071 02c0
000002c0: 17c9 a83f e522 c83d e522 343d da1b f13e
000002d0: b409 67be f3d9 c43b 0559 4ebd cd21 f8bd
000002e0: ab0a 893b 7b16 e6bc e61e 35bd 722e 4b3e
000002f0: 743b bcbd 8b28 e73d b423 7fc0 e762 24c0
00000300: 2be1 2abe 89a4 e4bf 131c 2040 76f1 86c0
00000310: 1f6b 2abe 1d1e 98be caf2 653e 8b93 19bd
00000320: 5541 1cbe 560e c1bd fbe3 f7be 5a0f e63d
00000330: 1f80 bf3d 7681 03bd ab62 e23b 264d b3bc
00000340: c6ca de3d 1582 1f40 3f49 b13d 5fa9 083f
00000350: 96a9 c33f 113c 063f 6dd3 1d40 99a8 afbe
00000360: 2866 223f 2fd2 fb3f 5a94 25bd 109e 2fbe
00000370: a986 ad3e 7d0e a1bc cf49 c23e db4a 743d
00000380: a58e 95bd fbe8 ec3c c38a 2bbd 38e3 113d
00000390: 2358 8fc0 2bfb 0840 1984 cf3e 9225 1ac1
000003a0: 5758 23c0 6406 8ac0 465d d4bd 421b a93e
000003b0: f837 583f ce3d 68bd 2495 27bd 7821 26be
000003c0: b73f 12be 6f77 8f3d 18fc 5a3e f55e a1bd
000003d0: 0144 d2bc 03de bd3c 4560 e0bc 955a d7c0
000003e0: 0471 cc3f 56bd f5bd 9853 edc0 62c4 b4bf
000003f0: 7104 d2c0 b978 53bc 8938 ea3e 54d5 1c3f

bias f4 [64]
-0.12146808 -0.07001161 -0.14527696 -0.22381476 -0.31281382 0.030447962 -0.31489998 0.13821605
0.06216164 -0.17982088 -0.06783208 -0.40038887 0.13702193 -0.24768753 0.20273054 -0.19665526
-0.012233293 -0.14835274 -0.31682912 -0.032331962 -0.11531791 -0.23807724 -0.2860789 -0.19366716
0.20829833 -0.21649261 0.038473114 -0.40446526 0.030833779 -0.29389808 0.17520006 0.1868605
-0.28036326 -0.24345635 -0.13003874 0.112555385 -0.17515995 0.031549763 -0.10821284 -0.198415
0.16469495 -0.31377324 0.011492759 0.26427388 -0.13025741 0.08110817 -0.26060492 -0.18665655
0.16377686 -0.2581649 -0.052722044 -0.26329422 -0.290088 -0.09752062 -0.09395116 0.16466038
0.13897392 -0.21976352 -0.016589226 -0.21689983 -0.03440587 -0.14003465 0.15399686 -0.13702804
00000000: 42c4 f8bd 3f62 8fbd 7cc3 14be b22f 65be
00000010: 2229 a0be 016e f93c 923a a1be 8288 0d3e
00000020: 349d 7e3d f722 38be 8ceb 8abd c5ff ccbe
00000030: 7a4f 0c3e cda1 7dbe 9898 4f3e ff5f 49be
00000040: 266e 48bc c8e9 17be 6d37 a2be 856e 04bd
00000050: cc2b ecbd 85ca 73be ef78 92be af50 46be
00000060: 284c 553e 3db0 5dbe fc95 1d3d 1216 cfbe
00000070: 1f97 fc3c cf79 96be a567 333e 5c58 3f3e
00000080: c68b 8fbe 9f4c 79be e028 05be 7083 e63d
00000090: 215d 33be 533a 013d b29e ddbd 4d2d 4bbe
000000a0: cba5 283e e3a6 a0be 204c 3c3c e84e 873e
000000b0: 3362 05be 0a1c a63d 026e 85be e522 3fbe
000000c0: 1fb5 273e 312e 84be 12f3 57bd 80ce 86be
000000d0: 6a86 94be e4b8 c7bd 7769 c0bd bb9c 283e
000000e0: 2e4f 0e3e b009 61be 21e6 87bc fd1a 5ebe
000000f0: 2bed 0cbd 3e65 0fbe 5ab1 1d3e 1451 0cbe

weight f4 [64, 64]
-0.051404342 -0.07904564 0.0036870986 -0.016731367 0.038211655 0.079273194 -0.035929583 0.22714603
0.05782798 0.023963338 0.023019414 -0.13543192 0.15206163 0.16271758 0.13836859 0.10503051
-0.00079096714 0.020395547 -0.011367715 0.3833829 0.050506208 -0.051920928 -0.008157035 0.053211004
0.5533138 0.074053094 -0.048570186 -0.14105742 -0.082463525 -0.06677545 0.14350969 0.15139848
0.12963194 0.2107517 0.06824728 -0.016744876 -0.011845917 -0.17088991 0.03576128 -0.077521235
0.07165682 0.05975307 -0.10150637 -0.230477 0.09479213 0.1153094 0.06530394 -0.10817797
0.0826883 0.2839783 -0.13786857 0.27239367 0.034620784 0.07584797 0.10189413 -0.048847467
-0.46487755 -0.10442959 -0.038909543 -0.005165825 -0.0013251352 -0.3118887 0.045508236 -0.099533394
0.023136884 -0.056174934 -0.0665724 -0.049429014 -0.063625626 -0.027527303 -0.06304042 -0.14459762
-0.08218491 0.046102792 0.07733172 -0.12291397 -0.10902929 -0.044274256 -0.04061222 -0.02709103
0.010106804 0.08431721 -0.018663213 -0.08195464 -0.08238356 0.031392604 0.020872071 -0.058074743
-0.0007880181 0.10422541 0.112466246 -0.016449556 0.086845726 -0.0029011667 -0.08882356 -0.008481587
-0.0027363002 -0.0144860605 -0.08340764 0.00335899 -0.083011284 0.11958647 -0.088680625 -0.10990046
0.048706234 0.0050712824 -0.026319206 0.033094376 0.097179726 0.10808441 -0.037970018 -0.03732072
0.077307254 0.09238522 -0.054083824 -0.02421406 -0.008176923 0.021071345 -0.0770857 0.11860253
-0.011698335 0.052275926 0.08143791 0.05581495 -0.042860433 0.07354337 0.03184867 -0.04937023
0.106077075 -0.14177252 0.06418535 -0.08778794 0.04096239 -0.1088997 -0.10382779 -0.0015102867
0.031435266 -0.1844743 -0.14498378 -0.15702346 -0.021288654 -0.19563383 -0.06381875 -0.13271582
0.034516003 0.07574467 -0.07849019 -0.07939512 -0.09388473 -0.0907574 -0.11620347 -0.017491937
0.052752756 -0.10507107 0.04281263 -0.1290303 -0.045746833 -0.060803577 0.06618887 -0.017904358
-0.039628923 -0.20023663 -0.07664366 -0.18168688 0.0043136925 0.039914295 -0.017410576 0.0046034595
-0.042678043 -0.028989974 -0.07006134 -0.038539797 0.024211528 0.10585654 -0.025355123 -0.11180196
-0.016668275 -0.1680758 -0.110085025 -0.044491723 0.004460541 -0.101547495 0.04794614 0.020115584
-0.15296379 -0.048645988 -0.01367714 -0.05895551 0.0062690233 0.06999192 -0.08442633 0.042505056
-0.00507361 -0.009612213 -0.07772468 0.057810694 0.0018896323 -0.022771517 -0.034591164 0.15106288
0.026170641 0.0021483577 0.13432753 -0.070093185 0.2619145 -0.005804309 0.57813287 -0.07989975
0.06666194 0.019664884 -0.038808983 0.43449885 0.14853808 -0.017214393 0.025271127 -0.09243971
0.5609161 -0.06852101 -0.09852339 0.09071192 -0.1344221 -0.43063107 0.029875388 0.17530304
-0.17647389 0.10844074 -0.6186588 -0.01677959 -0.02066682 -0.0440211 -0.11228579 0.16261545
0.09080881 0.028658058 0.097450346 -2.2359285 0.08852731 -0.1091689 0.15620062 -0.0057995375
0.075703055 0.51396835 -0.085346565 0.25086078 0.19420125 -0.061014667 0.12725802 0.097781375
-0.3065711 -0.0061644614 0.040905666 0.06378922 0.02237383 -0.21217315 -0.099735215 -0.093287185
00000000: 5c8d 52bd aee2 a1bd 40a3 713b 3810 89bc
00000010: d383 1c3d fc59 a23d e62a 13bd f898 683e
00000020: 08dd 6c3d c34e c43c 3693 bc3c aaae 0abe
00000030: 0bb6 1b3e 709f 263e 7fb0 0d3e 3c1a d73d
00000040: e858 4fba 9014 a73c a73f 3abc c34a c43e
00000050: 99df 4e3d 0aab 54bd 16a5 05bc c8f3 593d
00000060: f9a5 0d3f 26a9 973d 88f1 46bd 5b71 10be
00000070: a3e2 a8bd 91c1 88bd 34f4 123e 3408 1b3e
00000080: 3cbe 043e 4bcf 573e 3bc5 8b3d 8d2c 89bc
00000090: 6115 42bc c4fd 2ebe 6c7a 123d 74c3 9ebd
000000a0: d0c0 923d a3bf 743d 92e2 cfbd 2a02 6cbe
000000b0: 6022 c23d 5627 ec3d 12be 853d 698c ddbd
000000c0: 7c58 a93d 9b65 913e 6b2d 0dbe 2f77 8b3e
000000d0: 86ce 0d3d 2e56 9b3d dfad d03d 4814 48bd
000000e0: 6e04 eebe 2edf d5bd 9d5f 1fbd 1546 a9bb
000000f0: 29b0 adba e0af 9fbe d866 3a3d 2ad8 cbbd
00000100: 9089 bd3c b017 66bd 1c57 88bd 1476 4abd
00000110: 274e 82bd f080 e1bc 561b 81bd 6611 14be
00000120: 9050 a8bd 48d6 3c3d 1860 9e3d 52ba fbbd
00000130: c04a dfbd ec58 35bd 0059 26bd 02ee ddbc
00000140: 0297 253c 80ae ac3d 98e3 98bc d6d7 a7bd
00000150: b6b8 a8bd 8895 003d e8fb aa3c c8df 6dbd
00000160: 0093 4eba 2274 d53d b454 e63d 38c1 86bc
00000170: 2cdc b13d 8021 3ebb 20e9 b5bd 5bf6 0abc
00000180: 8053 33bb f156 6dbc a0d1 aabd 8022 5c3b
00000190: d201 aabd c0e9 f43d 309e b5bd 7e13 e1bd
000001a0: 3080 473d 002d a63b 609b d7bc f88d 073d
000001b0: 2a06 c73d 5c5b dd3d 7386 1bbd 9cdd 18bd
000001c0: 4453 9e3d 7634 bd3d 0087 5dbd 905c c6bc
000001d0: 80f8 05bc d09d ac3c 1cdf 9dbd e2e5 f23d
000001e0: 60aa 3fbc 481f 563d ebc8 a63d 389e 643d
000001f0: 6c8e 2fbd e89d 963d c073 023d 7038 4abd
00000200: f03e d93d d12c 11be 9c73 833d 2aca b3bd
00000210: 2ec8 273d ce06 dfbd aaa3 d4bd d0f4 c5ba
00000220: 44c2 003d d5e6 3cbe a176 14be c2ca 20be
00000230: 8b65 aebc 3c54 48be 68b3 82bd a8e6 07be
00000240: a760 0d3d 0620 9b3d 77bf a0bd e999 a2bd
00000250: a346 c0bd 04df b9bd 16fc edbd 404b 8fbc
00000260: 4613 583d 802f d7bd 4c5c 2f3d 8520 04be
00000270: 0861 3bbd 2c0d 79bd 088e 873d 29ac 92bc
00000280: f051 22bd d50a 4dbe 5af7 9cbd 200c 3abe
00000290: e059 8d3b 2c7d 233d a0a0 8ebc 9ed8 963b
000002a0: 2ccf 2ebd 627c edbc 527c 8fbd e8db 1dbd
000002b0: 4157 c63c 50cb d83d 8cb5 cfbc 6df8 e4bd
000002c0: e88b 88bc 101c 2cbe 4274 e1bd f43c 36bd
000002d0: bb29 923b 22f8 cfbd 2c63 443d 70c9 a43c
000002e0: 8aa2 1cbe 0441 47bd 1516 60bc 557b 71bd
000002f0: 616c cd3b ec57 8f3d b6e7 acbd c819 2e3d
00000300: 8740 a6bb 8b7c 1dbc 1e2e 9fbd e8ca 6c3d
00000310: 8aad f73a 558b babc 77af 0dbd 3ab0 1a3e
00000320: d063 d63c 76cb 0c3b 288d 093e 048d 8fbd
00000330: a819 863e 1332 bebb 8400 143f 7ba2 a3bd
00000340: 0e86 883d 4018 a13c 2bf6 1ebd a276 de3e
00000350: 5e1a 183e 3305 8dbc 6505 cf3c 0851 bdbd
00000360: 3398 0f3f be54 8cbd a2c6 c9bd 2cc7 b93d
00000370: f2a5 09be ad7b dcbe 3bbd f43c a482 333e
00000380: 92b5 34be 2e16 de3d 6c60 1ebf 5a75 89bc
00000390: 774d a9bc 784f 34bd 18f6 e5bd aa84 263e
000003a0: f8f9 b93d 4ec4 ea3c 0c94 c73d 7419 0fc0
000003b0: ce4d b53d f293 dfbd 0ef3 1f3e 0c0a bebb
000003c0: 340a 9b3d 6e93 033f 2eca aebd d370 803e
000003d0: b1dc 463e 84ea 79bd ed4f 023e 9a41 c83d
000003e0: e3f6 9cbe 40ff c9bb b38c 273d eca3 823d
000003f0: 5349 b73c eb43 59be fa41 ccbd 5a0d bfbd

bias f4 [64]
0.24677612 0.037645455 -0.092965364 0.4505579 0.5795939 -0.1919158 0.361325 0.029392231
-0.11245799 -0.11782594 -0.12526849 -0.13796458 0.098052524 -0.0152577115 -0.00046704084 -0.05722266
-0.106688134 -0.095466465 -0.05679158 -0.0018600745 0.29550993 -0.19564202 0.06324248 -0.13255358
0.3822865 -0.015957385 -0.027332107 0.087882295 0.022272535 0.24502136 0.026341083 0.33442056
0.27193612 -0.099380165 -0.25124097 -0.01845405 0.14242025 -0.054149415 -0.107355945 0.23122154
0.13083424 -0.19891348 -0.10598984 -0.09290785 0.36692175 -0.20057322 -0.086015865 -0.16578528
-0.1803848 0.31813475 0.34527987 0.05642095 -0.0876602 0.2949121 -0.07192742 -0.09124004
0.4143099 -0.246179 -0.14326575 0.4798126 -0.06733806 -0.08599167 -0.19830103 0.009324417
00000000: e1b2 7c3e 1f32 1a3d a064 bebd 86af e63e
00000010: 4460 143f 9385 44be 97ff b83e fac7 f03c
00000020: 6050 e6bd ba4e f1bd 6246 00be 9646 0dbe
00000030: c3cf c83d 7bfb 79bc 29dd f4b9 4f62 6abd
00000040: 4f7f dabd ec83 c3bd 4a9e 68bd becd f3ba
00000050: 144d 973e 6256 48be 4685 813d 20bc 07be
00000060: 0ebb c33e 10b9 82bc 95e7 dfbc a2fb b33d
00000070: e474 b63c e1e6 7a3e 41c9 d73c 2c39 ab3e
00000080: 363b 8b3e d487 cbbd a8a2 80be f32c 97bc
00000090: 9dd6 113e c7cb 5dbd 6fdd dbbd 57c5 6c3e
000000a0: 69f9 053e faaf 4bbe 3411 d9bd 7946 bebd
000000b0: 2bdd bb3e 1163 4dbe 1629 b0bd 9ec3 29be
000000c0: cbb6 38be 8fe2 a23e 86c8 b03e a719 673d
000000d0: 3187 b3bd b8fe 963e af4e 93bd 0fdc babd
000000e0: 6d20 d43e 5916 7cbe 42b4 12be ffa9 f53e
000000f0: 89e8 89bd 671c b0bd 6d0f 4bbe 71c5 183c

weight f4 [1, 64]
-0.055922087 0.058718435 -0.009869015 -0.10903904 -0.26024416 0.0024325843 -0.2932847 0.01198991
0.011202182 -0.076057546 -0.022584891 -0.04173573 -0.318431 0.019492274 -0.021277733 -0.027735632
-0.0771281 0.1030066 0.029022051 -0.0010725864 -0.3759471 -0.012451895 0.0075698583 0.02019219
-0.21081956 -0.020791199 0.09044958 0.17193826 0.014866012 -0.06864527 -0.046184447 -0.11308117
-0.06752082 0.011677744 0.026295876 0.23218276 0.17385349 -0.022233497 -0.008458794 0.20161454
0.3625935 -0.005960652 0.036360484 -0.01255592 0.5491793 -0.008852956 -0.015848417 0.016857222
0.009468424 -0.26298118 -0.17368428 -0.004428986 -0.02792244 0.08935924 0.021331726 0.052478906
0.36535466 -0.030243238 0.00096174964 -0.21720539 -0.019210905 -0.022955578 -0.020604981 -0.010053993
00000000: 8f0e 65bd be82 703d a6b1 21bc dc4f dfbd
00000010: b93e 85be fe6b 1f3b 6a29 96be 5471 443c
00000020: 5b89 373c 0fc4 9bbd f303 b9bc 16f3 2abd
00000030: 6309 a3be 43ae 9f3c a44e aebc d635 e3bc
00000040: 56f5 9dbd 20f5 d23d a7bf ed3c 0796 8cba
00000050: 237c c0be 0803 4cbc 930c f83b 176a a53c
00000060: 15e1 57be 4e52 aabc a13d b93d 9510 303e
00000070: 9390 733c e495 8cbd e72b 3dbd 1a97 e7bd
00000080: 5b48 8abd 0254 3f3c 736a d73c 51c1 6d3e
00000090: a606 323e 0623 b6bc c196 0abc 0b74 4e3e
000000a0: dba5 b93e 9351 c3bb bbee 143d 58b7 4dbc
000000b0: 0497 0c3f fd0b 11bc 8ad4 81bc 2818 8a3c
000000c0: 7321 1b3c 78a5 86be 4bda 31be 0721 91bb
000000d0: 9abd e4bc fa01 b73d dfbf ae3c 1ff4 563d
000000e0: c40f bb3e abc0 f7bc ed1d 7c3a 176b 5ebe
000000f0: 3060 9dbc 560d bcbc c7cb a8bc 81b9 24bc
