output/ddpg/2021-12-07_19-56-36-ddpg/model.pt (torch, 562241 bytes, 11 tensors)

weight f4 [256, 10]
-0.0023675405 0.16963835 -0.26026973 -0.23272435 -0.1217965 0.084798805 -0.0062654777 0.25073367
-0.02806333 0.083677836 -0.095568165 -0.062159434 -0.30210772 -0.20943199 -0.13035639 0.011714206
0.12501596 0.18974386 -0.2143838 -0.13770543 0.23304868 0.4330037 -0.42720753 -0.1115981
-0.1961593 0.057919707 0.14574362 -0.43762 -0.6313575 -0.21556945 -0.123265564 0.27322105
-0.2049724 -0.14557004 -0.22092952 -0.2961666 -0.18459494 0.27182877 0.14110664 0.15326692
-0.4036361 0.26033247 0.33857894 -0.62363297 -0.6255661 -0.51301223 0.090249464 0.91902125
-0.61910206 -0.07713137 0.67643964 0.55945206 -0.34978363 0.12772402 -0.013507492 0.2768621
0.058916155 -0.6413194 -0.4545074 -0.1834238 0.14308454 0.12717429 -0.18731831 0.09553465
0.1736002 -0.039913435 0.012074064 0.07327146 0.1961803 0.30364004 -0.65417475 0.027440432
-0.302072 0.725394 0.12992464 -0.17085904 0.18837354 -1.1641506 0.19124848 -0.10554057
0.39903963 1.5789653 -0.06645022 -1.0381896 -1.1238941 0.6379993 -0.26310334 -0.11573126
0.47247276 -0.3675256 0.115926355 0.15991893 0.22637847 0.11824109 -0.31298175 -0.20513597
0.15789728 0.0661869 -0.24668422 -0.1820901 1.4439448 0.78088343 -0.33608347 -1.1018777
-0.79943794 1.0938828 -0.34276083 -0.13557991 0.068375 -0.0022571883 -0.122883976 0.18097068
-0.19054295 0.25238815 0.22506635 -0.26186424 -0.11616821 -0.0037283378 0.026212092 0.03808231
1.1585662 1.3564013 -0.2908116 -0.08778464 -1.4823084 0.84788513 -0.2360347 -0.38095492
0.32080376 -0.39984196 -0.110092945 0.11527444 -0.6263426 -1.3956783 0.23039313 -0.082616664
-0.15916796 -0.31956053 0.056868635 0.08126507 0.25329432 1.0274869 0.19511926 -0.7814915
-1.0329536 -0.1939697 0.053999204 0.16102977 -0.48817712 -0.36100322 -0.73136705 -1.1024636
-0.25420558 0.7465455 0.9275535 -0.8284779 0.3392488 -0.7927065 0.22440085 -0.047766693
-0.060910296 -0.062089015 -0.28376696 -0.27304304 -0.049483154 0.0040895147 -0.14365433 0.11912275
-0.28462344 -0.021341339 0.8691844 0.2462892 0.654353 -0.19241835 -0.6105196 0.74575716
-0.110931166 -1.2185211 0.19981591 -0.2856395 0.30749506 -0.21885483 0.58864135 -1.1893607
0.29130372 0.37854916 -0.26402438 0.21818914 -1.1060144 0.06929868 0.25107792 0.2163709
-0.2230602 0.014103724 -0.22291975 -0.17407838 -0.18426766 0.10806926 -0.18844429 -0.006899207
0.0133031085 0.2038477 -0.23904291 -0.21709423 -0.1836213 0.22133838 -0.113672815 0.26673454
0.11435035 0.04004266 0.016952528 0.15590079 -0.29172385 -1.1493926 -0.18390544 0.07320847
-0.3462458 -0.21486644 0.5474124 -0.32481435 -0.022707112 0.31282476 0.11423318 0.008953369
-0.27404612 0.15665224 -0.22524294 -0.08976576 -0.10609958 -0.046829343 0.2473082 0.3425878
-0.42399496 0.4673676 0.09772478 0.016167445 0.14997749 -0.9031218 -0.34033313 0.076495804
0.10441591 0.23724294 -0.101798736 0.00050623686 0.1628015 -0.3058214 0.22862655 -0.26149583
0.0043584094 -0.053764023 -0.50032085 0.4042296 0.32824966 -1.2562361 -0.47369665 -0.42710564
00000000: bd28 1bbb adb5 2d3e 1342 85be 4b4f 6ebe
00000010: 7270 f9bd ffaa ad3d a34e cdbb 2a60 803e
00000020: 12e5 e5bc 495f ab3d 3eb9 c3bd e49a 7ebd
00000030: ddad 9abe 5775 56be 257c 05be f1ec 3f3c
00000040: 2f04 003e 374c 423e 6d87 5bbe a702 0dbe
00000050: 50a4 6e3e a9b2 dd3e f2ba dabe 8b8d e4bd
00000060: fcdd 48be 373d 6d3d d13d 153e bb0f e0be
00000070: a5a0 21bf 3dbe 5cbe a872 fcbd a1e3 8b3e
00000080: 49e4 51be 5010 15be 593b 62be 26a3 97be
00000090: 7506 3dbe 242d 8b3e 427e 103e 01f2 1c3e
000000a0: 64a9 cebe 4c4a 853e 385a ad3e 69a6 1fbf
000000b0: 1a25 20bf c554 03bf b6d4 b83d fa44 6b3f
000000c0: 797d 1ebf 0df7 9dbd 262b 2d3f 4038 0f3f
000000d0: d716 b3be 16ca 023e 874e 5dbc dfc0 8d3e
000000e0: 1152 713d 822d 24bf 32b5 e8be 73d3 3bbe
000000f0: c184 123e fa39 023e 5fd0 3fbe aca7 c33d
00000100: 40c4 313e 457c 23bd 4cd2 453c 590f 963d
00000110: 7de3 483e b576 9b3e ff77 27bf c2ca e03c
00000120: 2ea9 9abe 6cb3 393f f70a 053e acf5 2ebe
00000130: fee4 403e e302 95bf a4d6 433e a825 d8bd
00000140: ec4e cc3e 891b ca3f 0e17 88bd 66e3 84bf
00000150: c3db 8fbf ec53 233f 7bb5 86be 8304 edbd
00000160: f3e7 f13e 512c bcbe cc6a ed3d cac1 233e
00000170: c2cf 673e 6228 f23d 253f a0be 2a0f 52be
00000180: d3af 213e ff8c 873d ca9a 7cbe d475 3abe
00000190: 2fd3 b83f fae7 473f 2213 acbe 540a 8dbf
000001a0: f7a7 4cbf 5a04 8c3f 597e afbe 76d5 0abe
000001b0: 3108 8c3d 56ed 13bb 98aa fbbd 6150 393e
000001c0: b11d 43be 0539 813e cb77 663e 1213 86be
000001d0: 99e9 edbd 2157 74bb beba d63c 32fc 1b3d
000001e0: e64b 943f 8f9e ad3f 42e5 94be 6fc8 b3bd
000001f0: 48bc bdbf 000f 593f 15b3 71be 860c c3be
00000200: 6440 a43e 16b8 ccbe 6978 e1bd 0115 ec3d
00000210: fd57 20bf 96a5 b2bf 2dec 6b3e ed32 a9bd
00000220: edfc 22be 709d a3be 16ef 683d 4d6e a63d
00000230: cbaf 813e b184 833f 58cd 473e d40f 48bf
00000240: d337 84bf fe9f 46be 452e 5d3d fde4 243e
00000250: 5af2 f9be 6ad5 b8be df3a 3bbf 871d 8dbf
00000260: 3c27 82be 9b1d 3f3f 2574 6d3f 2117 54bf
00000270: 05b2 ad3e d0ee 4abf 56c9 653e 02a7 43bd
00000280: 137d 79bd 0d51 7ebd e749 91be 4ccc 8bbe
00000290: d9ae 4abd 5601 863b 1f1a 13be a1f6 f33d
000002a0: 2aba 91be 08d4 aebc de82 5e3f 3c33 7c3e
000002b0: ae83 273f 5109 45be 034b 1cbf f1e9 3e3f
000002c0: e12f e3bd 80f8 9bbf 8b9c 4c3e 573f 92be
000002d0: fe6f 9d3e 7b1b 60be 33b1 163f f93c 98bf
000002e0: c325 953e 32d1 c13e 342e 87be f96c 5f3e
000002f0: e191 8dbf 77ec 8d3d 498d 803e 5590 5d3e
00000300: e569 64be 4e13 673c 1345 64be 9a41 32be
00000310: a9b0 3cbe 6b53 dd3d 8af7 40be be12 e2bb
00000320: 48f5 593c 74bd 503e aac7 74be f34d 5ebe
00000330: 3907 3cbe 87a6 623e 4bcd e8bd 6e91 883e
00000340: 8430 ea3d c603 243d 07e0 8a3c 75a4 1f3e
00000350: d45c 95be 4c1f 93bf b551 3cbe 53ee 953d
00000360: 2147 b1be f305 5cbe 3823 0c3f 114e a6be
00000370: 4404 babc 912a a03e 16f3 e93d 27b1 123c
00000380: c64f 8cbe 7269 203e 16a6 66be 1cd7 b7bd
00000390: bd4a d9bd 20d0 3fbd 5c3e 7d3e ab67 af3e
000003a0: de15 d9be ce4a ef3e ee23 c83d 9771 843c
000003b0: b393 193e fe32 67bf 2540 aebe d5a9 9c3d
000003c0: 02d8 d53d d0ef 723e db7b d0bd fbb4 043a
000003d0: 70b5 263e 9f94 9cbe 141d 6a3e c8e2 85be
000003e0: fdd0 8e3b aa37 5cbd 0715 00bf 2ff7 ce3e
000003f0: 5710 a83e 58cc a0bf 5e88 f2be 97ad dabe

bias f4 [256]
-0.20775722 -0.22003959 0.08010738 -0.102377616 -0.109106354 0.076836035 -0.19409749 0.124470554
0.0024339296 -0.18489464 0.02785452 -0.049572796 0.030312706 0.10653476 -0.0468643 0.116353676
-0.27221856 0.0698948 0.06575313 -0.114861935 -0.31399602 0.20367864 -0.07422754 0.05496184
-0.08889428 0.05749959 0.19420084 0.050642427 -0.10063751 0.08873719 0.124202974 0.07660006
-0.25471535 -0.17272182 -0.31287155 0.082463935 0.06992953 -0.060871784 -0.054406915 0.0024582888
0.036501426 -0.16032083 -0.1061657 -0.2839341 -0.031314004 0.014212239 0.070363775 -0.21999466
0.020609293 -0.260572 -0.25723222 0.0563288 -0.30868647 0.07139098 -0.29130858 -0.22003944
-0.06561601 -0.30177024 0.09998341 0.11354337 -0.16517492 -0.0034398818 -0.042828694 -0.012277662
-0.042360555 -0.29826957 -0.03928312 -0.27736235 -0.07626785 0.015582148 -0.104147084 -0.1156618
-0.2733063 -0.011961591 -0.06633418 0.11978019 -0.10410886 0.13917717 0.015801728 -0.1420755
-0.10409963 -0.040302776 0.021279497 -0.07725057 -0.0005429868 0.17046647 -0.055838186 -0.05584862
-0.009598995 0.039116718 0.07604726 0.101673566 0.094055325 -0.28860646 0.046596467 -0.052476298
-0.089603394 -0.1280872 0.09155021 0.13792765 -0.25807026 -0.05029477 0.08501652 0.046035048
-0.1368929 0.07591607 -0.015048591 -0.0788749 -0.023351697 0.060137086 0.026759408 0.061196543
0.10707513 -0.0014129269 -0.25616312 0.06922172 0.09899955 -0.046828758 -0.028864248 0.06594092
-0.27628225 -0.14433789 -0.14293201 0.06728458 -0.30586237 -0.009442859 -0.3063264 0.0066073244
0.12819912 -0.0739513 0.1591722 0.008363158 -0.16122244 0.0029969504 0.022354228 -0.09256757
0.0016105006 -0.20014565 -0.043133296 0.11168634 0.04578995 0.031032257 -0.030091073 -0.24808426
-0.24816154 -0.074531585 -0.07052642 0.15538628 0.0073901555 0.09222169 -0.14484274 -0.24825051
-0.2966213 0.12882198 -0.28494725 -0.31567705 -0.15981524 -0.26699233 -0.1246215 -0.1990801
-0.16223581 0.09212979 -0.077778615 -0.0027428335 0.0070162946 -0.040664893 -0.092585854 -0.2260482
-0.25407255 0.042537455 -0.09744862 -0.30831563 0.08559579 -0.111327656 -0.21160395 -0.24857195
-0.26556337 -0.27728593 0.097352125 -0.017076733 0.0010666723 -0.2695128 -0.102031626 -0.2970627
0.077946074 -0.032473147 -0.04887197 -0.09866733 -0.053194292 0.0496635 0.0031158435 0.03883137
-0.0312509 0.07643319 -0.23548345 0.028663201 -0.1363835 0.10106025 -0.17727663 -0.03905127
0.039503533 -0.29035416 -0.0012992684 -0.24205488 0.089802764 -0.029095607 0.11437162 0.116425626
0.11612254 -0.07779824 -0.15667339 0.12601776 -0.15220755 0.06439879 -0.13706183 0.05952767
0.06667088 0.037178244 -0.014706735 0.110441536 -0.28815705 0.114687555 -0.08215984 0.010677792
-0.05354956 -0.14480065 -0.14850228 0.024162723 -0.17204349 -0.055765335 0.10679631 0.0033828302
-0.26607385 -0.3144489 -0.1537414 0.032394473 -0.22484611 0.045305315 0.03132153 -0.13107558
-0.13964832 -0.22750573 0.02449293 -0.014594863 -0.02027129 0.11871933 0.0011699668 -0.027061664
-0.0783865 -0.091715135 -0.048788738 0.12150634 -0.12810062 0.14057939 -0.046217315 -0.040459856
00000000: 4fbe 54be 0f52 61be 570f a43d 5bab d1bd
00000010: 2773 dfbd 365c 9d3d 7ec1 46be 6bea fe3d
00000020: 9082 1f3b 0555 3dbe 2a2f e43c d80c 4bbd
00000030: 5a52 f83c e52e da3d c8f4 3fbd d64a ee3d
00000040: 3b60 8bbe 0125 8f3d 94a9 863d bc3c ebbd
00000050: 16c4 a0be 2291 503e 9c04 98bd ab1f 613d
00000060: 340e b6bd b184 6b3d 96dc 463e 6f6e 4f3d
00000070: 0a1b cebd d8bb b53d 215e fe3d 7ee0 9c3d
00000080: 0d6a 82be fddd 30be b330 a0be dae2 a83d
00000090: 3737 8f3d b154 79bd c9d9 5ebd 3e1b 213b
000000a0: 8582 153d 252b 24be 676d d9bd cf5f 91be
000000b0: 1d43 00bd 73da 683c e21a 903d 4846 61be
000000c0: d2d4 a83c b169 85be f1b3 83be 07b9 663d
000000d0: 270c 9ebe 6f35 923d 6626 95be 0552 61be
000000e0: b061 86bd a181 9abe 1ac4 cc3d 6d89 e83d
000000f0: 9d23 29be a46f 61bb 246d 2fbd 3f28 49bc
00000100: 4382 2dbd cab6 98be 56e7 20bd 7002 8ebe
00000110: 5232 9cbd 444c 7f3c 114b d5bd 18e0 ecbd
00000120: ceee 8bbe 8dfa 43bc 37da 87bd 514f f53d
00000130: 0737 d5bd 7684 0e3e a072 813c 3d7c 11be
00000140: 3032 d5bd 8614 25bd 5752 ae3c 8c35 9ebd
00000150: 3a57 0eba c38e 2e3e 95b6 64bd 86c1 64bd
00000160: 1a45 1dbc da38 203d aabe 9b3d 3b3a d03d
00000170: 14a0 c03d 3ac4 93be f0db 3e3d 63f1 56bd
00000180: fc81 b7bd 4a29 03be ad7e bb3d e83c 0d3e
00000190: c921 84be e401 4ebd 241d ae3d 3f8f 3c3d
000001a0: a72d 0cbe e279 9b3d 5e8e 76bc 2a89 a1bd
000001b0: 0f4c bfbc 4e52 763d 8c36 db3c 3aa9 7a3d
000001c0: 354a db3d f631 b9ba d027 83be 1ec4 8d3d
000001d0: 47c0 ca3d 83cf 3fbd b774 ecbc 080c 873d
000001e0: de74 8dbe 50cd 13be c55c 12be 7fcc 893d
000001f0: fe99 9cbe 39b6 1abc d0d6 9cbe 4182 d83b
00000200: a146 033e c773 97bd 0afe 223e a105 093c
00000210: 7f17 25be 7c68 443b 3720 b73c 1194 bdbd
00000220: 6f17 d33a fbf2 4cbe 8aac 30bd cfbb e43d
00000230: 3e8e 3b3d 5c37 fe3c 8e81 f6bc cd09 7ebe
00000240: 0f1e 7ebe 04a4 98bd 2870 90bd 951d 1f3e
00000250: 1e29 f23b bade bc3d a851 14be 6235 7ebe
00000260: bfde 97be e9e9 033e 9be4 91be 6ca0 a1be
00000270: 9ba6 23be 38b3 88be 8f39 ffbd a7db 4bbe
00000280: 2521 26be 8bae bc3d 654a 9fbd 1cc1 33bb
00000290: f2e8 e53b 3b90 26bd a79d bdbd 2e79 67be
000002a0: cc15 82be c13b 2e3d 2493 c7bd 8cdb 9dbe
000002b0: d84c af3d c1ff e3bd b5ae 58be a589 7ebe
000002c0: ecf7 87be 6cf8 8dbe 8d60 c73d 81e4 8bbc
000002d0: 95cf 8b3a 95fd 89be f5f5 d0bd 9a18 98be
000002e0: 31a2 9f3d 9002 05bd fa2d 48bd 1912 cabd
000002f0: 42e2 59bd f46b 4b3d 2e33 4c3b a50d 1f3d
00000300: f200 00bd 0189 9c3d 9322 71be 17cf ea3c
00000310: 1ea8 0bbe adf8 ce3d 0188 35be 39f4 1fbd
00000320: 75ce 213d 4da9 94be 374c aaba 3cdd 77be
00000330: 83ea b73d e959 eebc ab3b ea3d 8f70 ee3d
00000340: a7d1 ed3d af54 9fbd fd6e 20be cd0a 013e
00000350: 4cdc 1bbe 83e3 833d f059 0cbe 49d3 733d
00000360: be8a 883d 3748 183d 84f4 70bc 2c2f e23d
00000370: 5289 93be 4fe1 ea3d 6b43 a8bd e8f1 2e3c
00000380: c956 5bbd 9f46 14be fb10 18be e7f0 c53c
00000390: 2b2c 30be 316a 64bd 06b8 da3d 79b2 5d3b
000003a0: d53a 88be 72ff a0be 636e 1dbe 11b0 043d
000003b0: 0f3e 66be 1192 393d 014b 003d ad38 06be
000003c0: f8ff 0ebe 43f7 68be 66a5 c83c 4b1f 6fbc
000003d0: fa0f a6bc 1f23 f33d 9259 993a 6cb0 ddbc
000003e0: 1a89 a0bd 25d5 bbbd b3d6 47bd 51d8 f83d
000003f0: cf2c 03be 0bf4 0f3e 5e4e 3dbd 3cb9 25bd

weight f4 [256, 256]
-0.056094542 -0.04530426 -0.007924815 -0.009665839 -0.046097994 0.022826334 -0.005595356 0.006598075
0.04230509 -0.028734185 -0.040543273 -0.01742335 -0.015354225 -0.041168634 -0.02427095 -0.014477385
0.028035067 0.048405822 0.03602787 0.006614685 -0.0039385483 0.00562408 -0.0025513545 -0.017410262
0.0214919 -0.060338866 -0.06340439 -0.0098500205 -0.01894363 -0.041157298 -0.06816892 0.028056564
-0.0024902448 -0.0335797 -0.025459006 0.0063279155 -0.05547913 -0.0059583737 -0.010832679 0.010651504
0.014349485 -0.040836208 0.026986927 0.047194876 0.004023716 0.02325208 -0.03409554 0.012414329
0.011728634 -0.02886764 0.03858859 -0.07204828 -0.023477256 -0.046498705 -0.03710232 -0.037871964
-0.058893174 0.01072605 -0.022567924 -0.06324329 -2.5704503e-05 -0.020546563 0.015509051 -0.058733854
-0.017582834 0.012864649 0.016586734 0.004728116 0.01693739 0.05183386 -0.021650754 0.042596556
0.05383677 -0.055288516 0.01511839 0.025442338 -0.0097491965 0.024092909 -0.00639819 0.047580197
0.0013457164 -0.040013902 0.03436595 0.018587768 0.042982798 0.005188734 0.024434384 0.028861148
-0.00016209546 -0.024092514 0.0027633815 -0.05338369 -0.008184552 -0.020088404 -0.0054932907 -0.046243574
0.02789101 -0.06023222 0.016256833 0.03132791 -0.057280995 0.04647582 -0.056950435 -0.021694204
0.022316275 -0.029945549 0.045290273 -0.027572043 -0.008367769 -0.051030766 -0.038534366 0.032984275
0.03694088 -0.004535773 0.005138904 -0.062349103 0.036283277 -0.019794324 -0.026068367 -0.05971826
0.051386327 0.029636718 0.037645556 -0.0032395222 -0.04241065 0.016313298 0.0072080716 0.0121593
-0.025890855 -0.029494703 0.041017998 0.02095104 -0.025366202 -0.0044078375 -0.023895863 -0.00994805
0.024858553 -0.049744897 0.046193764 0.03180703 -0.010227259 -0.036381517 0.002569696 -0.041369274
0.040596925 -0.042232286 0.011942171 -0.071820766 0.020141711 0.032437857 0.04691127 0.005101569
0.03690234 0.012278032 0.041913502 0.035269238 -0.054683007 0.006588809 -0.021307327 -0.02984351
0.04374762 -0.019531533 -0.009961504 0.029402955 0.042070143 0.033354506 -0.010911815 -0.05571217
-0.05999905 0.009822771 -0.00074169785 -0.03948825 0.017428385 0.04741006 0.03614843 -0.008816786
0.008445315 -0.03986653 0.019470306 -0.05878732 0.035482768 -0.028546825 -0.029667098 -0.052350722
-0.025216887 -0.01535404 -0.028808184 0.044490546 0.025469705 -0.06519775 -0.016721481 0.025490314
0.06029983 -0.020636706 0.038370624 -0.01389737 -0.023971438 0.02817475 -0.055693135 0.041716725
0.05237981 -0.01706402 0.014326541 0.06232527 0.009545109 0.022927847 0.012920634 -0.035696674
0.0006042235 -0.042324316 0.053369626 -0.035519343 0.0142878145 -0.028161442 0.031256102 -0.009165018
0.024323452 -0.027405536 -0.03667573 0.01389719 -0.035173826 -0.06125188 0.024147518 -0.047996204
-0.023492165 -0.009938999 0.004437968 -0.031357437 -0.022493869 -0.015708655 0.03340824 0.009079802
-0.03008987 -0.043201886 0.0014481395 0.009757446 -0.0013078749 0.026218016 0.042129837 0.018318184
0.020612389 0.036260225 -0.033915535 0.011002683 0.050395023 -0.038936608 -0.005665434 -0.048776787
-0.058419973 0.023469508 0.041932214 -0.041966565 0.023424186 0.008716541 0.024404041 0.034404002
00000000: 64c3 65bd f690 39bd 15d7 01bc 785d 1ebc
00000010: 40d1 3cbd 4bfe ba3c 4059 b7bb aa34 d83b
00000020: 1a48 2d3d f463 ebbc b410 26bd 6abb 8ebc
00000030: 4a90 7bbc 71a0 28bd dfd3 c6bc 8e32 6dbc
00000040: cca9 e53c 2f45 463d f691 133d 00c0 d83b
00000050: f00e 81bb 344a b83b a034 27bb f79f 8ebc
00000060: c80f b03c e325 77bd 29da 81bd fb61 21bc
00000070: ac2f 9bbc 8e94 28bd 269c 8bbd e1d6 e53c
00000080: 6033 23bb de8a 09bd 688f d0bc 675a cf3b
00000090: 163e 63bd 763e c3bb 8d7b 31bc a583 2e3c
000000a0: 1a1a 6b3c de43 27bd b013 dd3c 6a4f 413d
000000b0: 60d9 833b 257b be3c c4a7 0bbd 7865 4b3c
000000c0: 7529 403c d47b ecbc 120f 1e3d 0c8e 93bd
000000d0: 6053 c0bc 6d75 3ebd 9af8 17bd a21f 1bbd
000000e0: f839 71bd 50bc 2f3c 5ee0 b8bc b385 81bd
000000f0: 00a0 d7b7 4451 a8bc ad19 7e3c e992 70bd
00000100: e009 90bc 40c6 523c e7e0 873c 50ee 9a3b
00000110: 48c0 8a3c be4f 543d ec5c b1bc ba79 2e3d
00000120: f283 5c3d 3676 62bd 20b3 773c 736c d03c
00000130: 18bb 1fbc 7e5e c53c e8a7 d1bb 74e3 423d
00000140: c062 b03a 9ee5 23bd 4fc3 0c3d 6045 983c
00000150: bb0e 303d 4106 aa3b 9e2a c83c 376e ec3c
00000160: 2bf8 29b9 aa5d c5bc d919 353b dba8 5abd
00000170: 8018 06bc 7090 a4bc 1001 b4bb e769 3dbd
00000180: b07b e43c 0fb6 76bd 0d2d 853c b251 003d
00000190: 7a9f 6abd 6e5d 3e3d dc44 69bd 0bb8 b1bc
000001a0: 9fd0 b63c 5e50 f5bc 4b82 393d c4de e1bc
000001b0: f818 09bc a305 51bd 36d6 1dbd 851a 073d
000001c0: 524f 173d d2a0 94bb 4064 a83b c661 7fbd
000001d0: c69d 143d b527 a2bc 548d d5bc 229b 74bd
000001e0: 787a 523d b4c8 f23c 3a32 1a3d 2a4e 54bb
000001f0: cab6 2dbd 77a3 853c b031 ec3b cd37 473c
00000200: 0f19 d4bc e09e f1bc 7d02 283d 84a1 ab3c
00000210: c8cc cfbc 9f6f 90bb 42c1 c3bc 25fd 22bc
00000220: 2aa4 cb3c 4ec1 4bbd ac35 3d3d 1748 023d
00000230: 3c90 27bc c904 15bd 5868 283b d472 29bd
00000240: f648 263d c3fb 2cbd 18a9 433c c416 93bd
00000250: 3b00 a53c 8fdd 043d 0826 403d 102b a73b
00000260: e826 173d cc29 493c 7ead 2b3d 7a76 103d
00000270: 4afb 5fbd f0e6 d73b b48c aebc 607a f4bc
00000280: b430 333d 9800 a0bc 9335 23bc 77de f03c
00000290: be51 2c3d bc9e 083d 78c7 32bc 7232 64bd
000002a0: 90c1 75bd b0ef 203c 806e 42ba 6ebe 21bd
000002b0: f9c5 8e3c 0d31 423d 6010 143d 4874 10bc
000002c0: 385e 0a3c 164b 23bd 3180 9f3c f9ca 70bd
000002d0: 6156 113d 08db e9bc 6a08 f3bc b66d 56bd
000002e0: a593 cebc 838f 7bbc 24ff ebbc b83b 363d
000002f0: d8a5 d03c 6686 85bd 7dfb 88bc 10d1 d03c
00000300: f4fc 763d 4f0e a9bc 842a 1d3d cbb1 63bc
00000310: c05f c4bc bcce e63c 7c1e 64bd 28df 2a3d
00000320: 368c 563d d8c9 8bbc deb9 6a3c c848 7f3d
00000330: 1763 1c3c 2ed3 bb3c 11b1 533c ad36 12bd
00000340: c164 1e3a 435c 2dbd 1c9a 5a3d bb7c 11bd
00000350: 7017 6a3c d3b2 e6bc 6606 003d df28 16bc
00000360: fa41 c73c 9381 e0bc 4a39 16bd 0ab1 633c
00000370: 6e12 10bd 40e3 7abd 04d1 c53c ab97 44bd
00000380: a472 c0bc 2fd7 22bc 606c 913b a870 00bd
00000390: 1045 b8bc 70af 80bc 14d7 083d 73c3 143c
000003a0: 087f f6bc 76f4 30bd 80cf bd3a b2dd 1f3c
000003b0: 006d abba 2ac7 d63c 5690 2c3d 0410 963c
000003c0: 50db a83c 9a85 143d 04eb 0abd 9944 343c
000003d0: 036b 4e3d fe7b 1fbd 1ba5 b9bb 2bca 47bd
000003e0: c849 6fbd 2043 c03c 1dc1 2b3d 22e5 2bbd
000003f0: 14e4 bf3c d3cf 0e3c fcea c73c 36eb 0c3d

bias f4 [256]
-0.036921803 -0.012284082 -0.01332786 -0.02167198 0.024110105 0.03375862 -0.045396067 -0.06982865
-0.047015548 -0.00086032983 0.046325088 -0.09640092 -0.042826496 -0.063820295 0.008391702 0.043138903
-0.010155785 -0.09236965 0.029917754 0.086186 -0.03847913 0.019850148 0.011752017 -0.0351659
-0.0642504 0.082843795 -0.034700707 0.054005176 -0.039962504 -0.044682577 0.007015597 -0.029412044
-0.03267993 -0.03211795 -0.0011986715 -0.06598723 -0.058855675 0.10958905 0.04112796 0.020189628
0.0049966 0.041944526 -0.043281734 0.027343987 0.04885295 -0.030056521 0.026514458 -0.16664317
0.015690394 -0.060260326 -0.032734666 -0.0612923 -0.05478912 -0.055984832 -0.031750128 -0.057589542
-0.05801972 -0.017983763 -0.01876866 -0.0140080815 0.096373744 -0.023818612 -0.025038898 0.045165747
-0.081703804 0.19475642 -0.04873746 -0.04246424 -0.027329141 0.024413072 -0.03619532 -0.05267733
-0.044431597 -0.15970802 0.021938456 -0.03558165 -0.062278062 0.08349332 -0.025941905 -0.057141222
-0.053177122 -0.0056112865 -0.037184834 -0.08226766 0.098042555 -0.0018800325 0.018066501 -0.06289694
-0.041821536 -0.045625202 -0.024330644 0.018177139 -0.039816882 0.013576184 -0.008541652 -0.023030838
-0.06308589 -0.06561434 0.03215021 0.19921462 0.014395675 -0.04027331 0.012452579 0.023031777
-0.014562051 -0.071062066 0.02918471 -0.010916337 0.016249169 0.0032701064 -0.04284166 -0.033109702
-0.0017425204 -0.06210424 -0.040872596 -0.053069703 -0.03239433 0.071398534 0.1384179 -0.04533255
-0.06227759 -0.012836519 -0.03601764 -0.038630903 0.034388453 -0.030538887 -0.025449758 0.0908425
-0.039817043 -0.023098648 -0.053100713 0.00063504465 -0.040073305 0.0016854234 0.0530863 -0.0012168025
-0.010383323 -0.052858647 -0.008364049 0.07702719 -0.020347672 -0.0073391125 -0.041815445 -0.036490392
-0.044522285 0.04342121 -0.03613596 0.049888644 -0.059757493 -0.059896756 -0.03251424 0.025707645
-0.034197602 -0.025882298 0.036222022 0.044621393 -0.014094331 -0.018680757 -0.05304461 0.03460387
0.025121793 0.033135958 0.0871348 0.033660315 -0.05443693 0.0014707431 0.0061470983 -0.018995173
-0.061361894 -0.025092077 0.015524415 -0.01328879 -0.07090825 -0.037034824 -0.052801087 -0.0045933686
-0.0024765169 0.027171746 -0.0593459 -0.043644346 -0.03899397 0.022432445 -0.039548006 -0.056779362
-0.060542844 -0.041443422 -0.052104082 0.026589597 0.09644093 -0.054451875 -0.034080375 -0.014369988
-0.07897338 -0.021826927 0.098160654 0.0050829644 0.022285985 0.024721991 -0.04283101 -0.0665353
-0.04606777 0.013156773 0.020909388 -0.060041644 -0.006098474 0.038284056 -0.044432048 0.0017921048
0.0037168365 -0.051274925 -0.0071955803 0.0021255624 -0.06364532 0.01582016 -0.041586455 -0.015807927
0.108699225 -0.083045155 0.015508401 -0.028106084 0.14560379 -0.00031390134 -0.004558576 0.013526648
-0.0021918803 -0.0036237985 0.030661248 0.058539025 -0.038693216 0.031924874 -0.05494169 -0.0025220022
0.034887902 -0.023179403 -0.026651606 -0.12543228 -0.01979053 0.010964291 -0.045197476 -0.014042102
0.070654266 -0.04817743 -0.050463676 -0.07168358 -0.061522126 0.114261575 -0.04391262 0.03170738
0.012072309 0.0027434141 -0.04189481 -0.041088637 0.027928242 -0.06141158 -0.05030286 -0.0131765045
00000000: 513b 17bd 2d43 49bc 195d 5abc 7089 b1bc
00000010: 8e82 c53c 7b46 0a3d 3af1 39bd 5302 8fbd
00000020: 6093 40bd c287 61ba 60bf 3d3d d86d c5bd
00000030: d66a 2fbd 37b4 82bd 597d 093c 6bb2 303d
00000040: 7364 26bc 4d2c bdbd 1416 f53c 4982 b03d
00000050: 4b9c 1dbd c79c a23c 888b 403c 1e0a 10bd
00000060: b795 83bd 02aa a93d 5422 0ebd 8834 5d3d
00000070: b9af 23bd 1405 37bd 18e3 e53b 87f1 f0bc
00000080: 64db 05bd 1d8e 03bd be1c 9dba 5024 87bd
00000090: a612 71bd 3970 e03d cb75 283d b864 a53c
000000a0: 85ba a33b 06ce 2b3d 3048 31bd 7f00 e03c
000000b0: 081a 483d 1839 f6bc d934 d93c 82a4 2abe
000000c0: 2489 803c 88d3 76bd c914 06bd a20d 7bbd
000000d0: 8e6a 60bd 5a50 65bd 6c0c 02bd 03e3 6bbd
000000e0: 16a6 6dbd af52 93bc bcc0 99bc 2782 65bc
000000f0: 995f c53d 401f c3bc 601e cdbc b8ff 383d
00000100: 5354 a7bd 3a6e 473e eea0 47bd fcee 2dbd
00000110: 5de1 dfbc ecfd c73c 8b41 14bd 2fc4 57bd
00000120: e8fd 35bd 808a 23be 47b8 b33c 10be 11bd
00000130: 4817 7fbd 8cfe aa3d 1e84 d4bc ea0c 6abd
00000140: 41d0 59bd e2de b7bb 204f 18bd f27b a8bd
00000150: 89ca c83d 6c6b f6ba 3300 943c 1cd0 80bd
00000160: 0f4d 2bbd 7ee1 3abd 0f51 c7bc 39e8 943c
00000170: 0717 23bd a56e 5e3c 49f2 0bbc 2bab bcbc
00000180: 2d33 81bd d060 86bd f0af 033d ebfe 4b3e
00000190: d6db 6b3c a0f5 24bd e705 4c3c 23ad bc3c
000001a0: ab95 6ebc fd88 91bd c614 ef3c 70da 32bc
000001b0: fa1c 853c 484f 563b bd7a 2fbd 0a9e 07bd
000001c0: 4865 e4ba 0461 7ebd 066a 27bd 9e5f 59bd
000001d0: ebaf 04bd 6539 923d 6cbd 0d3e a0ae 39bd
000001e0: c916 7fbd 4350 52bc 3c87 13bd 703b 1ebd
000001f0: e8da 0c3d b02c fabc 037c d0bc a20b ba3d
00000200: 3217 23bd 6039 bdbc 2280 59bd 2079 263a
00000210: e823 24bd 6de9 dc3a 0571 593d 1e7d 9fba
00000220: d01e 2abc 4f82 58bd 5d09 09bc 6ec0 9d3d
00000230: 29b0 a6bc f07c f0bb ac46 2bbd f376 15bd
00000240: 005d 36bd 70da 313d 4d03 14bd 0958 4c3d
00000250: 46c4 74bd 4d56 75bd a72d 05bd d798 d23c
00000260: c912 0cbd 1d07 d4bc 8b5d 143d ecc4 363d
00000270: e9eb 66bc 6308 99bc 4e45 59bd cabc 0d3d
00000280: 38cc cd3c 92b9 073d bb73 b23d 66df 093d
00000290: 42f9 5ebd f3c5 c03a 996d c93b c49b 9bbc
000002a0: 9c56 7bbd e68d cdbc 1e5a 7e3c 3ab9 59bc
000002b0: 5838 91bd d4b1 17bd f445 58bd f883 96bb
000002c0: 0f4d 22bb 4897 de3c b014 73bd 6ac4 32bd
000002d0: 24b8 1fbd 3fc4 b73c 17fd 21bd 7a91 68bd
000002e0: c6fb 77bd 94c0 29bd 176b 55bd 6dd2 d93c
000002f0: d382 c53d ee08 5fbd dd97 0bbd 1970 6bbc
00000300: ccbc a1bd 62ce b2bc 7408 c93d ff8e a63b
00000310: 1991 b63c c685 ca3c 926f 2fbd a943 88bd
00000320: 8fb1 3cbd 818f 573c 2a4a ab3c 3aee 75bd
00000330: b5d5 c7bb becf 1c3d 61fe 35bd 0fe5 ea3a
00000340: 2b96 733b a805 52bd e7c8 ebbb 054d 0b3b
00000350: 7a58 82bd 4899 813c 8f56 2abd a07f 81bc
00000360: b39d de3d 9413 aabd f316 7e3c bb3e e6bc
00000370: 2919 153e 2093 a4b9 1b60 95bb e09e 5d3c
00000380: a6a5 0fbb 407d 6dbb 4c2d fb3c 9ec6 6f3d
00000390: c77c 1ebd a8c3 023d 8a0a 61bd 2d48 25bb
000003a0: 9ee6 0e3d bbe2 bdbc 7854 dabc 5271 00be
000003b0: c01f a2bc 92a3 333c fd20 39bd d810 66bc
000003c0: 2fb3 903d b255 45bd 00b3 4ebd d7ce 92bd
000003d0: a0fe 7bbd f901 ea3d b8dd 33bd 99df 013d
000003e0: efca 453c daca 333b e499 2bbd 8f4c 28bd
000003f0: c5c9 e43c b58a 7bbd 5f0a 4ebd 44e2 57bc

weight f4 [3, 256]
0.050412484 -0.08279332 -0.013411664 -0.033191923 -0.030823397 0.0026505312 0.031980716 0.025485376
-0.019518718 -0.028642934 -0.042474773 0.11236355 0.010237232 0.12606847 -0.4181508 -0.20537187
-0.041277952 0.093883514 0.025965864 -0.12291215 0.04305467 -0.03755254 0.011219786 -0.0094408365
0.017574796 0.31929433 -0.02649629 0.39139232 0.01799994 0.0073287264 0.061977684 0.047567096
0.023502862 0.0243065 0.030488342 0.12391547 0.028612137 1.5203911 0.0060715643 -0.14196442
-0.011196569 -0.6712826 0.016629633 -0.5331301 0.06986756 -0.057025835 -0.0027489387 0.22140369
0.070567496 -0.04232119 0.1373086 -0.046737056 0.031181121 -0.004776869 0.05535453 -0.0030403745
-0.013320982 0.025044926 0.42496338 0.0042005796 1.8476951 0.047638174 0.13351546 0.051929593
0.045879606 0.7758895 0.04486162 -0.050837494 -0.008501162 0.01604156 -0.0056492263 -0.0016858033
-0.062180333 0.17317718 -0.009262416 -0.058904797 -0.027708694 -0.80062765 -0.053333238 -0.008838584
-0.016871803 -0.0056935013 -0.003741836 -0.011957195 -0.20783018 0.04092373 -0.5717464 -0.032136817
-0.059790127 -0.18849805 0.009519715 -0.0049945377 -0.00163089 -0.008246801 -0.0053954828 0.025382197
-0.048444975 -0.03396818 0.1649416 1.6409649 -0.03481618 -0.061758235 0.01795064 -0.0052143736
0.051595174 0.057609376 -0.084010236 0.061668444 0.03251576 0.08161885 -0.020834228 0.045537136
-0.35712704 -0.06024205 0.0031801462 0.019113213 -0.0042528724 0.40638858 0.84513587 0.014467358
-0.04023353 -0.43962738 -0.0025480036 -0.020232752 0.2369264 0.01109238 0.047406927 0.36473572
-0.045244217 -0.024316717 0.046998322 -0.013985213 -0.053556327 -0.019470012 0.40324318 0.023431046
-0.48415494 -0.037120424 0.029400598 0.3035848 -0.0804408 0.04796329 -0.00590759 0.0032018635
9.7258904e-05 0.088953204 0.025070203 -0.2602451 0.05172438 0.031638306 -0.04083962 -0.01816299
0.053531382 0.032111406 0.2839911 -0.04413968 0.01832684 0.04806494 0.027680747 0.05267241
0.04428704 0.046786785 -0.06809472 -0.12677081 0.0124397725 0.009406778 -0.0021461085 -0.0543409
0.05688139 -0.11861675 0.073022 -0.01886098 -0.017882662 0.0034236535 0.04119871 -0.23361227
-0.032435197 -0.5101813 -0.058944635 -0.008580767 -0.007710591 0.22851157 -0.029464982 0.00038892048
-0.08140512 -0.045803614 -0.032229327 0.03519122 -0.14731039 0.052730918 0.5314879 0.009861785
-0.0038223674 0.013612952 -0.110214576 0.051792305 -0.029173601 -0.24793394 0.12633517 -0.016008673
-0.011423039 -0.17621157 -0.00034672293 -0.033427265 0.5066083 -0.0069980025 -0.057362344 0.0057730377
0.027772801 0.042689066 0.035512105 -0.036611665 0.18244869 -0.041720003 0.0077728904 -0.02631303
0.32901913 -0.06094837 -0.28539985 -0.013687092 1.8746159 -0.026521146 -0.016576001 -0.036921263
0.0083254315 -0.05669164 0.06644704 -0.1806252 0.051809788 -0.22686496 0.061502654 0.046966072
-0.22564264 -0.023028238 0.013194673 0.16220306 -0.0276561 0.066488616 -0.014749184 -0.037717164
-0.6077871 -0.033057757 -0.05399563 -0.053303953 0.022957692 -0.26414615 -0.00517115 0.051013913
0.035473637 -0.059511308 -0.04220735 -0.03968846 -0.027517729 0.010605254 0.0032888544 0.005296634
00000000: 527d 4e3d 8b8f a9bd 99bc 5bbc 41f4 07bd
00000010: 5981 fcbc 89b4 2d3b 36fe 023d b5c6 d03c
00000020: b8e5 9fbc 96a4 eabc 07fa 2dbd dc1e e63d
00000030: 10ba 273c 1818 013e dd17 d6be 014d 52be
00000040: 1213 29bd 0046 c03d 5db6 d43c 5eb9 fbbd
00000050: 185a 303d b1d0 19bd 31d3 373c bdad 1abc
00000060: 05f9 8f3c 8c7a a33e bf0e d9bc 9364 c83e
00000070: 9c74 933c d025 f03b 50dc 7d3d b7d5 423d
00000080: 1389 c03c 6d1e c73c b0c2 f93c 65c7 fd3d
00000090: 0064 ea3c 2d9c c23f f9f3 c63b 1f5f 11be
000000a0: d071 37bc 2dd9 2bbf de3a 883c 377b 08bf
000000b0: b916 8f3d ec93 69bd 8a27 34bb a6b7 623e
000000c0: b185 903d fc58 2dbd a09a 0c3e 5b6f 3fbd
000000d0: 8d6f ff3c 4887 9cbb 6fbb 623d 0541 47bb
000000e0: 4040 5abc 042b cd3c cd94 d93e 04a5 893b
000000f0: 4681 ec3f 3f20 433d 47b8 083e 20b4 543d
00000100: 41ec 3b3d b2a0 463f d1c0 373d fa3a 50bd
00000110: 7548 0bbc 9769 833c 251d b9bb 2cf6 dcba
00000120: ceb0 7ebd 5c55 313e 63c1 17bc 2846 71bd
00000130: 58fd e2bc eff5 4cbf f473 5abd b5cf 10bc
00000140: bc36 8abc 8d90 babb 9739 75bb 1ce8 43bc
00000150: 6fd1 54be a49f 273d f95d 12bf e5a1 03bd
00000160: 7ee6 74bd a205 41be 94f8 1b3c 38a9 a3bb
00000170: 96c3 d5ba 971d 07bc 97cc b0bb 53ee cf3c
00000180: 3d6e 46bd 3822 0bbd 73e6 283e 230b d23f
00000190: 699b 0ebd 34f6 7cbd 380d 933c 56dd aabb
000001a0: 7655 533d cff7 6b3d 8f0d acbd 0d98 7c3d
000001b0: 3f2f 053d c927 a73d 8bac aabc 2685 3a3d
000001c0: 5bd9 b6be 5ec0 76bd 006a 503b 5093 9c3c
000001d0: ae5b 8bbb 2a12 d03e d35a 583f 7f08 6d3c
000001e0: eacb 24bd d716 e1be 68fc 26bb 28bf a5bc
000001f0: d69c 723e d0bc 353c c42d 423d a4be ba3e
00000200: 0052 39bd da33 c7bc 5081 403d 3c22 65bc
00000210: e15d 5bbd 937f 9fbc e475 ce3e 77f2 bf3c
00000220: 28e3 f7be 960b 18bd 86d9 f03c 786f 9b3e
00000230: 25be a4bd 2875 443d 7594 c1bb 5bd6 513b
00000240: 7af7 cb38 192d b63d 0760 cd3c d93e 85be
00000250: f2dc 533d 2b97 013d 7247 27bd 8dca 94bc
00000260: b943 5b3d 4087 033d 4867 913e cfcb 34bd
00000270: 2b22 963c bedf 443d bcc2 e23c 06bf 573d
00000280: 5466 353d 80a3 3f3d 3f75 8bbd 35d0 01be
00000290: 30d0 4b3c e31e 1a3c baa5 0cbb 9094 5ebd
000002a0: 76fc 683d 57ed f2bd 8f8c 953d 5882 9abc
000002b0: a97e 92bc 605f 603b fbbf 283d 0e38 6fbe
000002c0: c5da 04bd 3e9b 02bf ee6f 71bd 5896 0cbc
000002d0: 20a9 fcbb f0fe 693e 8c60 f1bc 06e8 cb39
000002e0: bab7 a6bd 929c 3bbd e602 04bd ab24 103d
000002f0: 89d8 16be 60fc 573d 970f 083f 5393 213c
00000300: af80 7abb dc08 5f3c 2eb8 e1bd 2b24 543d
00000310: 7afd eebc 65e2 7dbe 025e 013e 9f24 83bc
00000320: b327 3bbc ce70 34be 5dc8 b5b9 07eb 08bd
00000330: 15b1 013f 804f e5bb c7f4 6abd c02b bd3b
00000340: c983 e33c bbda 2e3d 2475 113d 1df6 15bd
00000350: d4d3 3a3e 98e2 2abd bbb3 fe3b 6c8e d7bc
00000360: 3275 a83e ffa4 79bd ee1f 92be d33f 60bc
00000370: 6af3 ef3f e042 d9bc 65ca 87bc c03a 17bd
00000380: 6467 083c 7e35 68bd 6315 883d d0f5 38be
00000390: 8036 543d 4a4f 68be 35ea 7b3d 7f5f 403d
000003a0: dd0e 67be b7a5 bcbc 782e 583c 8f18 263e
000003b0: 0c8f e2bc 2f2b 883d 90a6 71bc 507d 1abd
000003c0: ef97 1bbf 9267 07bd 862a 5dbd 3f55 5abd
000003d0: c511 bc3c 2a3e 87be c072 a9bb f7f3 503d
000003e0: ce4c 113d 21c2 73bd 9de1 2cbd 5e90 22bd
000003f0: dc6c e1bc a9c1 2d3c d289 573b 638f ad3b

bias f4 [3]
-0.089837804 0.09097144 -0.011796972
00000000: e2fc b7bd 3c4f ba3d 1648 41bc

weight f4 [256, 13]
0.18037106 0.38209236 0.11465406 -0.37937838 -0.6683891 -0.056839522 -0.2641064 0.7463011
-0.5031227 -0.02565367 0.0015672692 0.0026493736 -0.0017392859 0.30350593 -0.30952677 -0.14420882
-0.6017557 0.14504454 0.27967566 -0.25533047 -0.5316125 -0.64163065 0.0022031772 0.034834344
-0.07519532 0.0111638615 0.44503072 -0.22027315 -0.034414615 -0.16816816 -0.022951374 0.22169231
0.040962275 -0.21613458 -0.5052891 -0.10989682 -0.21117724 -0.15966675 0.07424326 0.06636286
-0.05093515 -0.123349994 -0.43530032 -0.132674 0.21715377 -0.13011806 0.24583358 -0.5356754
-0.10853385 -0.089701325 -0.13564721 -0.16336572 0.23219205 -0.1399141 -0.12113634 0.028273633
0.118711375 -0.06009815 -0.032867447 -0.22034454 0.17404409 -0.09382997 0.068303995 -0.1032364
0.14961042 0.015857559 0.13714659 0.13684128 0.171218 -0.24257003 -0.09878803 -0.263798
0.07357749 -0.077337034 0.06205745 -0.06441985 0.16330814 0.05027314 -0.035518177 0.043437354
-0.00872105 -0.2578717 -0.10920771 0.24625525 -0.16953069 -0.10039488 0.16061153 -0.2357187
0.22433993 0.20835805 -0.10102764 -0.58320785 0.38840112 0.31725615 -0.027358638 -0.0028862907
-0.32948568 0.2938114 -0.18241161 0.3162873 -0.26627207 -0.11773874 -0.14639513 0.13598354
0.077468425 -0.6633712 -0.31369153 -0.5532676 0.25619867 0.38355646 -0.071108975 -0.6139463
0.031123292 -0.2595108 0.013937601 -0.015504553 0.10043007 -0.25254992 0.2280277 0.15087213
0.091674946 -0.23168416 -0.1539333 0.28203082 -0.10390448 0.24018665 0.05671193 -0.18498884
-0.120090306 -0.049568 0.32430926 -0.0959256 0.10329613 -0.5676522 0.088066444 0.18314393
0.04477332 0.3465682 -0.33218652 -0.033166636 0.16071334 0.18793498 -0.168097 -0.2243392
-0.5787214 0.1735424 0.53501 0.64508474 0.050523456 0.06438305 0.2661544 1.048542
0.21241564 -0.012603439 -0.06971468 0.016052336 0.0029368943 0.24214992 0.13835134 -0.08637064
-0.22623499 0.0861756 -0.14931278 -0.07400003 0.12915243 0.24808858 -0.042092927 -0.012886918
-0.08182409 0.31763408 0.11673296 -0.26419532 0.22442824 0.09996234 0.22333041 0.14496967
0.46718657 -0.55068207 -0.064986326 0.04352308 -0.057433855 -0.11578059 -0.60450524 0.62586
-0.14827749 0.25939763 -0.6778501 -0.45371863 -0.02502558 -0.3416238 -0.044369556 0.17820202
-0.03322224 0.015716016 -0.20157059 -0.8896689 0.14198484 0.0117492145 -0.20969418 -0.12621076
-0.9123478 -0.1756695 -0.4676263 -0.013944341 0.2106723 0.0051436257 0.002839934 -0.041164637
0.113424316 -0.06295921 -0.15922806 -0.10714289 0.08837724 0.22293924 0.0652161 0.2844964
-0.49564624 0.108139224 0.06504969 -0.075013846 -0.18924779 -0.24428433 -0.28603092 0.16245915
0.25343597 -0.04053465 0.20999144 0.0021996656 -0.012981469 0.17364775 0.16163817 0.16177694
-0.03295956 -0.0232786 0.15157938 -0.18811508 -0.07782002 -0.12172237 -0.040244583 0.2027071
-0.091086194 -0.06462498 -0.012069882 -0.16922276 -0.2310508 -0.16094051 0.08842222 -0.37774011
0.27615425 0.33447355 0.22757648 0.003659051 -0.44980466 -0.12631159 -0.10205934 0.21648914
00000000: 31b3 383e 9ca1 c33e bfcf ea3d e23d c2be
00000010: 8c1b 2bbf 8fd0 68bd f438 87be 970d 3f3f
00000020: a6cc 00bf a527 d2bc d46c cd3a 1da1 2d3b
00000030: c0f8 e3ba 2165 9b3e 4b7a 9ebe 7aab 13be
00000040: a90c 1abf 8e86 143e a631 8f3e adba 82be
00000050: c217 08bf e841 24bf 2e63 103b 75ae 0e3d
00000060: 0100 9abd a1e8 363c 11db e33e 498f 61be
00000070: 57f6 0cbd 4634 2cbe 8504 bcbc 4f03 633e
00000080: 0fc8 273d 6252 5dbe a05a 01bf 9511 e1bd
00000090: d93e 58be ae7f 23be da0c 983d 40e9 873d
000000a0: 60a1 50bd ec9e fcbd afdf debe b1db 07be
000000b0: 8f5d 5e3e ab3d 05be ccbb 7b3e 0622 09bf
000000c0: ff46 debd 54b5 b7bd 1ae7 0abe 5849 27be
000000d0: c1c3 6d3e a445 0fbe 5416 f8bd 1b9e e73c
000000e0: f31e f33d 7a29 76bd 04a0 06bd 00a2 61be
000000f0: 9d38 323e ed29 c0bd f7e2 8b3d 9b6d d3bd
00000100: 7933 193e b6e7 813c 2870 0c3e 1f20 0c3e
00000110: c553 2f3e 4764 78be 6151 cabd 8810 87be
00000120: ccaf 963d e162 9ebd f42f 7e3d 8eee 83bd
00000130: 403a 273e 35eb 4d3d 827b 11bd 5eeb 313d
00000140: bce2 0ebc c207 84be 4ba8 dfbd 562a 7c3e
00000150: 7499 2dbe d59b cdbd 5977 243e 3e60 71be
00000160: 5eb9 653e d05b 553e 94e7 cebd 1c4d 15bf
00000170: 83dc c63e 666f a23e 391f e0bc ec27 3dbb
00000180: 59b2 a8be 736e 963e 1cca 3abe 69f0 a13e
00000190: d054 88be 0221 f1bd 9be8 15be 453f 0b3e
000001a0: c4a7 9e3d b2d2 29bf 2d9c a0be f2a2 0dbf
000001b0: 792c 833e 8361 c43e 95a1 91bd 962b 1dbf
000001c0: 46f6 fe3c 99de 84be 895a 643c cf06 7ebc
000001d0: 48ae cd3d 394e 81be 1880 693e 397e 1a3e
000001e0: 13c0 bb3d 9d3e 6dbe b1a0 1dbe 5866 903e
000001f0: dfcb d4bd 7df3 753e c54a 683d b76d 3dbe
00000200: e8f1 f5bd d107 4bbd dd0b a63e a474 c4bd
00000210: ec8c d33d a851 11bf 2e5c b43d 158a 3b3e
00000220: 3b64 373d 6371 b13e 5a14 aabe bdd9 07bd
00000230: 0a92 243e 0772 403e 9f21 2cbe 2db9 65be
00000240: 1627 14bf 19b5 313e 6af6 083f 4624 253f
00000250: aff1 4e3d 43db 833d 6445 883e a036 863f
00000260: 7c83 593e a87e 4ebc 92c6 8ebd 3080 833c
00000270: e978 403b 26f6 773e f9ab 0d3e 17e3 b0bd
00000280: 25aa 67be d57c b03d 73e5 18be 548d 97bd
00000290: 8940 043e ef0a 7e3e a269 2cbd a723 53bc
000002a0: 6393 a7bd efa0 a23e b111 ef3d 9c44 87be
000002b0: 84d0 653e 0eb9 cc3d bab0 643e ee72 143e
000002c0: 1433 ef3e 80f9 0cbf 8d17 85bd 4245 323d
000002d0: c33f 6bbd 601e edbd dbc0 1abf 5c38 203f
000002e0: 0ed6 17be c4cf 843e 9687 2dbf cf4d e8be
000002f0: 7202 cdbc 51e9 aebe dabc 35bd 977a 363e
00000300: 0b14 08bd e0be 803c 8568 4ebe 57c1 63bf
00000310: 7964 113e c77f 403c 12ba 56be 653d 01be
00000320: a08f 69bf b5e2 33be b76c efbe ce76 64bc
00000330: 7bba 573e dc8b a83b 301e 3a3b 409c 28bd
00000340: 024b e83d c2f0 80bd ae0c 23be bb6d dbbd
00000350: 20ff b43d 2f4a 643e 0590 853d 83a9 913e
00000360: 58c5 fdbe 1978 dd3d c638 853d dca0 99bd
00000370: 2cca 41be ac25 7abe a572 92be b15b 263e
00000380: 5cc2 813e a907 26bd ff07 573e 4428 103b
00000390: 3ab0 54bc b7d0 313e 7a84 253e dba8 253e
000003a0: 9b00 07bd c3b2 bebc a037 1b3e 3da1 40be
000003b0: 1a60 9fbd 9449 f9bd 81d7 24bd 7392 4f3e
000003c0: 668b babd 1a5a 84bd c1c0 45bc bb48 2dbe
000003d0: 9598 6cbe 97cd 24be b516 b53d 2767 c1be
000003e0: 1764 8d3e 1e40 ab3e cf09 693e b0cc 6f3b
000003f0: cc4c e6be d357 01be 7d04 d1bd 54af 5d3e

bias f4 [256]
0.00020341597 0.04399288 0.25001913 0.10315589 -0.17398976 0.22348279 -0.25261003 0.01464331
0.15625282 -0.11476902 -0.01391127 -0.020408444 -0.14563237 0.030107925 -0.11547379 0.027118307
0.07438134 -0.22355765 -0.21092388 -0.08451415 -0.016169403 -0.20232867 0.0841335 0.1404572
-0.1532303 0.15437505 0.07017077 0.08239705 -0.16351876 0.025434839 -0.20618269 -0.054136734
-0.26181546 0.20764929 0.2836355 0.24909094 0.15608157 -0.04527666 -0.24628194 -0.13037835
-0.17280929 0.24227074 -0.26047388 0.22406304 0.083468854 -0.024844129 -0.23019613 -0.11236558
0.1661137 -0.06795956 0.07094312 0.1192996 0.21489713 0.14573963 -0.13571595 -0.019833865
0.16058621 0.07675007 -0.1507005 0.040172737 -0.026873706 -0.18764049 -0.1754164 0.16307907
-0.12666942 -0.17147227 0.00919605 0.06912883 -0.26013365 0.20425071 -0.087681234 0.19730571
0.21114488 -0.20975035 -0.20421967 0.06664917 -0.09520568 0.11571024 -0.13169809 -0.24211253
-0.072563045 -0.1660431 -0.16178232 0.18130817 -0.04190478 0.086115465 -0.24784036 -0.16524868
-0.026909655 -0.11050364 0.209652 -0.21795784 -0.25849876 -0.18637832 0.029749367 -0.15501662
0.062099297 0.16423254 -0.20468904 0.19367266 0.16965303 -0.036608774 -0.13455676 -0.035442036
-0.13245636 0.034131058 0.21986337 0.21248652 0.24863748 -0.046180192 0.14508037 -0.23278287
-0.10918977 0.24122329 -0.15240498 -0.11103633 -0.040559165 0.18530923 0.2604576 0.19878703
0.035713576 0.06200049 0.15424253 -0.09816473 0.14332366 0.18511537 0.11879637 -0.24837933
-0.19533588 -0.2150295 -0.102470726 0.24665661 0.16337562 0.080880545 0.09619817 0.15651709
0.25155306 -0.25528893 0.066154175 0.1120761 0.042170715 -0.24516052 -0.06986319 -0.15456693
-0.12712471 -0.1286918 0.041320283 0.15428697 -0.02786895 -0.19082135 -0.2337756 -0.2572414
-0.23128413 -0.09668788 -0.20356044 0.1441564 0.037091337 -0.04145461 0.015105953 -0.035887506
0.022490872 -0.2636383 0.106100105 -0.18100624 0.039673187 0.05630234 -0.2561141 0.053927395
-0.13254641 0.032879107 0.2601842 -0.058197815 0.093901016 0.07349033 0.2412941 0.041079022
0.26544935 0.20791845 0.12950754 -0.21714555 -0.18210058 -0.16016887 0.07358972 -0.18835117
0.14801921 -0.19511561 -0.23009269 -0.22199708 -0.1422742 0.26439086 -0.24507158 0.08737226
0.028473638 0.24270804 0.063628234 0.13731286 -0.24444784 0.23969509 0.14875513 -0.29391667
-0.026479606 -0.1375332 0.020579688 0.20912373 0.20483558 0.14211735 -0.045582484 0.14011127
-0.19167572 0.004992975 0.006507654 0.21474957 0.21392028 0.0873016 -0.15375976 0.16536859
-0.038531583 -0.09877022 -0.027892364 -0.012694101 0.08260148 -0.13129395 0.12972283 0.18043762
0.09360986 0.2403555 -0.045431584 0.17755614 0.24610884 0.1061051 0.2495845 0.014594655
0.23476215 -0.029240798 0.03156125 0.055206213 -0.2203765 -0.066553436 0.06333423 -0.17088152
-0.024520796 0.24097143 0.029141523 -0.14134388 0.0028899887 -0.11908792 0.19598329 -0.18004152
0.17733039 -0.078641854 -0.07490439 -0.27145937 0.15462156 -0.26491618 -0.21863459 0.11172122
00000000: 0f4c 5539 e131 343d 8202 803e 6543 d33d
00000010: 5f2a 32be acd8 643e 1a56 81be 7eea 6f3c
00000020: bd00 203e 050c ebbd 18ec 63bc 9c2f a7bc
00000030: a720 15be e5a4 f63c 867d ecbd 3627 de3c
00000040: 3e55 983d 4cec 64be 6efc 57be c115 adbd
00000050: b275 84bc 3f2f 4fbe 2f4e ac3d 03d4 0f3e
00000060: 67e8 1cbe 7e14 1e3e b1b5 8f3d c9bf a83d
00000070: 7671 27be b95c d03c 8e21 53be 7bbe 5dbd
00000080: ad0c 86be 04a2 543e ac38 913e b211 7f3e
00000090: d9d3 1f3e 0574 39bd 5531 7cbe e781 05be
000000a0: ebf4 30be d215 783e d55c 85be c870 653e
000000b0: b8f1 aa3d ea85 cbbc 89b8 6bbe ed1f e6bd
000000c0: b619 2a3e 622e 8bbd a04a 913d 5953 f43d
000000d0: fe0d 5c3e c53c 153e 1ff9 0abe a17a a2bc
000000e0: b670 243e 242f 9d3d 3b51 1abe 2b8c 243d
000000f0: 3f26 dcbc d424 40be 5ba0 33be 33fe 263e
00000100: a1b5 01be 6d96 2fbe 08ab 163c 6b93 8d3d
00000110: 3d30 85be 1927 513e 3892 b3bd 820a 4a3e
00000120: 5d36 583e ccc8 56be f61e 51be 5c7f 883d
00000130: 32fb c2bd 7ef9 ec3d dddb 06be 59ec 77be
00000140: ef9b 94bd 3407 2abe 44aa 25be d9a8 393e
00000150: 59a4 2bbd 4e5d b03d ddc9 7dbe f336 29be
00000160: a371 dcbc bb4f e2bd 04af 563e 5730 5fbe
00000170: f359 84be f5d9 3ebe f2b4 f33c adbc 1ebe
00000180: d55b 7e3d 932c 283e 019a 51be 2052 463e
00000190: 86b9 2d3e 15f3 15bd 3fc9 09be ab2b 11bd
000001a0: a4a2 07be 02cd 0b3d dd23 613e 1196 593e
000001b0: d39a 7e3e 7127 3dbd f38f 143e a25e 6ebe
000001c0: e39e dfbd 3d03 773e 0d10 1cbe 0467 e3bd
000001d0: 5e21 26bd b4c1 3d3e b35a 853e d48e 4b3e
000001e0: 6648 123d 3af4 7d3d c1f1 1d3e 970a c9bd
000001f0: 70c3 123e e28e 3d3e 834b f33d 2757 7ebe
00000200: 2106 48be b130 5cbe 2cdc d1bd 8d93 7c3e
00000210: f04b 273e b3a4 a53d 8c03 c53d 0446 203e
00000220: 90cb 803e 3bb5 82be d77b 873d 2888 e53d
00000230: 33bb 2c3d 5c0b 7bbe 6f14 8fbd cb46 1ebe
00000240: fb2c 02be c9c7 03be 753f 293d 67fd 1d3e
00000250: 6d4d e4bc ac66 43be df62 6fbe 25b5 83be
00000260: bfd5 6cbe 4c04 c6bd 2672 50be bc9d 133e
00000270: 16ed 173d 4fcc 29bd f67e 773c c7fe 12bd
00000280: c73e b83c 99fb 86be 034b d93d b359 39be
00000290: 5a80 223d 489d 663d 6321 83be f9e2 5c3d
000002a0: 3fba 07be 3eac 063d dd36 853e d560 6ebd
000002b0: 2d4f c03d 1982 963d cd15 773e 7a42 283d
000002c0: fae8 873e 93e8 543e a09d 043e 675b 5ebe
000002d0: 9378 3abe 4f03 24be 35b6 963d 21df 40be
000002e0: 5992 173e 63cc 47be 6b9d 6bbe 3453 63be
000002f0: 54b0 11be 3d5e 873e 0bf4 7abe 3af0 b23d
00000300: 8c41 e93c 7588 783e 854f 823d be9b 0c3e
00000310: 8950 7abe a172 753e 4453 183e 3f7c 96be
00000320: c2eb d8bc 81d5 0cbe bc96 a83c 8824 563e
00000330: 6bc0 513e 3687 113e b3b4 3abd 5479 0f3e
00000340: a446 44be 1c9c a33b 293e d53b 50e7 5b3e
00000350: eb0d 5b3e 2ecb b23d 3373 1dbe 6256 293e
00000360: 4bd3 1dbd 0b48 cabd 877e e4bc ebfa 4fbc
00000370: f72a a93d ec71 06be 10d6 043e a4c4 383e
00000380: 87b6 bf3d c11f 763e 7816 3abd 47d1 353e
00000390: f503 7c3e a14d d93d 1493 7f3e 6b1e 6f3c
000003a0: 7d65 703e 668a efbc 5f46 013d e91f 623d
000003b0: 61aa 61be 2b4d 88bd 60b5 813d 91fb 2ebe
000003c0: d6df c8bc 37c1 763e 34ba ee3c 73bc 10be
000003d0: f765 3d3b 5ee4 f3bd d8af 483e ce5c 38be
000003e0: 1996 353e fb0e a1bd 7967 99bd b9fc 8abe
000003f0: 1d55 1e3e 18a3 87be bfe1 5fbe 18ce e43d
