output/2021-12-20_ddpg/2021-12-20_12-42-06-ddpg_s0/pyt_save/model.pt (torch_old, 48433 bytes, 11 tensors)

weight f4 [64, 16]
0	0xbaf55400	-0.001871705
1	0x3e09545e	0.1341109
2	0xbe52b316	-0.20576128
3	0xbe3c6680	-0.18398476
4	0xbdc532f4	-0.09628859
5	0x3d894bec	0.06703934
6	0xbba24f40	-0.004953295
7	0x3e4aface	0.19822237
8	0xbcb5bf70	-0.022186011
9	0x3d877b4c	0.06615314
10	0xbd9abbac	-0.07555327
11	0xbd494870	-0.049141347
12	0xbe7491b8	-0.23883712
13	0xbe298b52	-0.16557053
14	0xbdd30ee8	-0.103055775
15	0x3c17bb00	0.009260893
16	0x3de9fc65	0.114250936
17	0x3e34a70d	0.1764185
18	0xbe2c517c	-0.16827959
19	0xbda867a7	-0.08222895
20	0x3d888690	0.06666291
21	0x3e64f19c	0.22357792
22	0xbc8725ee	-0.016497578
23	0x3e593a52	0.21213654
24	0xbc9ae1c9	-0.01890649
25	0x3d79d5ec	0.060995027
26	0x3e4cf4aa	0.20015207
27	0xbe80a587	-0.25126287
28	0xbdfb1d91	-0.12261499
29	0xbcfc7635	-0.030818084
30	0xbd8ab150	-0.06772101
31	0x3e806741	0.25078776
32	0xbe0b3349	-0.13593782
33	0xbdb1cbd4	-0.08681455
34	0xbe32db63	-0.17466502
35	0xbe6e4ac1	-0.23270704
36	0xbe319be4	-0.17344624
37	0x3e755e06	0.23961648
38	0x3e160abd	0.14652534
39	0x3e17d507	0.14827357
40	0x3d1f3bb9	0.038875315
41	0xbdc148d5	-0.0943772
42	0x3d1173b1	0.035510723
43	0xbe685e02	-0.22692111
44	0xbe164915	-0.14676316
45	0xbdc8e51d	-0.09809325
46	0x3e3f4645	0.1867915
47	0x3e38da39	0.18051995
48	0xbdcccfc1	-0.100005634
49	0x3cc156a5	0.023600886
50	0x3e24efa5	0.16107042
51	0x3e93b5ae	0.28849548
52	0x3d9198bb	0.07109209
53	0x3d3c89b2	0.046029754
54	0x3e7639cc	0.24045485
55	0xbe047e41	-0.12938787
56	0x3d6163b4	0.055026725
57	0xbdf8fcac	-0.12157568
58	0xbe5e5e02	-0.21715549
59	0xbe26ace8	-0.16276896
60	0x3e3eb9d7	0.1862558
61	0x3e1b1d0f	0.15147804
62	0xbde94b65	-0.113913335
63	0x3e186dbf	0.14885615
64	0x3e0c896e	0.137243
65	0xbd013f20	-0.03155434
66	0x3c1c6440	0.009545386
67	0x3d6d4400	0.057926178
68	0x3e1ed100	0.15509415
69	0x3e75cf48	0.24004853
70	0xbe454796	-0.19265589
71	0xbdbba1ec	-0.091617435
72	0x3dc93898	0.098252475
73	0x3e541bd0	0.20713735
74	0x3e5ec5e8	0.21755183
75	0x3e61e222	0.22058919
76	0x3d4bca78	0.049753636
77	0xbe5e9cf8	-0.21739566
78	0x3cbc6690	0.022998124
79	0xbe2027ac	-0.15640134
80	0xbe6e948c	-0.23298854
81	0x3e63743e	0.22212312
82	0x3e42a6f0	0.19008994
83	0xbe7f5dfe	-0.24938199
84	0x3d3faa08	0.046793014
85	0xbd2c80c8	-0.042115003
86	0xbd2882b8	-0.041140288
87	0xbdea5f1c	-0.11443922
88	0x3dc4e48c	0.09613904
89	0xbe17a134	-0.14807588
90	0x3dbbb1dc	0.09164783
91	0x3e017616	0.12642702
92	0x3e37435c	0.1789679
93	0x3dbf7148	0.093477786
94	0xbe7d5f4a	-0.24743381
95	0xbe261100	-0.16217422
96	0x3e1d260b	0.15346543
97	0x3daf4205	0.08557514
98	0xbe4917ec	-0.19638032
99	0xbe244978	-0.16043651
100	0x3e51d34d	0.20490761
101	0x3e44f571	0.19234253
102	0xbdd6db15	-0.10491005
103	0xbd070801	-0.032966617
104	0xbe5726ef	-0.21010946
105	0x3c5d0f1d	0.013492373
106	0xbe312db8	-0.17302597
107	0xbe33681d	-0.17520185
108	0x3ba403e6	0.0050053475
109	0x3d98aab4	0.07454434
110	0xbd8d155d	-0.0688884
111	0x3e2a72b6	0.16645321
112	0xbe1bc938	-0.15213478
113	0x3e684968	0.22684252
114	0x3e2f6fd0	0.17132497
115	0xbe57e164	-0.21082073
116	0xbd7edb88	-0.06222108
117	0x3c38d280	0.011280656
118	0x3d156718	0.03647527
119	0x3d72ddd0	0.059293568
120	0x3dc8ec5c	0.09810707
121	0x3c7559e0	0.014975041
122	0xbdf9d1cc	-0.12198219
123	0x3df245d4	0.11829725
124	0xbe759156	-0.23981223
125	0xbe17bba0	-0.14817667
126	0xbd802b3c	-0.06258246
127	0xbdf966ec	-0.12177834
128	0xbdb3ad7d	-0.08773325
129	0xbe5ed5cd	-0.21761246
130	0xbd506685	-0.05087902
131	0x3d36b09e	0.04460203
132	0xbe1dd54b	-0.15413396
133	0xbc3834a3	-0.011243018
134	0x3e1fe61e	0.15615126
135	0xbd0f8bc1	-0.03504539
136	0x3af8c176	0.0018978554
137	0xbd35b614	-0.044363096
138	0x3d7c393b	0.061578017
139	0x3e26a907	0.16275416
140	0x3e5acaee	0.21366474
141	0x3e0ea896	0.13931498
142	0x3e63393c	0.22189802
143	0xbd28fdda	-0.041257717
144	0xbe65f866	-0.22458038
145	0xbdf2ba40	-0.118519306
146	0x3e2e4fce	0.1702263
147	0xbad46b00	-0.0016206205
148	0xbdfe7cdc	-0.12426159
149	0xbe442d02	-0.19157794
150	0xbe6f9400	-0.23396301
151	0xbe5810ec	-0.21100205
152	0xbd4fb470	-0.050709188
153	0x3e0c6456	0.1371015
154	0x3e0a6774	0.13516027
155	0xbe76e502	-0.24110797
156	0x3e1fb02e	0.15594551
157	0xbe48528a	-0.19562736
158	0xbd587bf0	-0.05285257
159	0xbdcf9a1c	-0.10136816
160	0xbcda6023	-0.02665717
161	0xbc845b8c	-0.016156934
162	0xbe649e65	-0.22326048
163	0xbe3ff0c7	-0.18744193
164	0xbd8ace5d	-0.06777642
165	0x3cbb7bca	0.022886176
166	0xbd983bff	-0.07433318
167	0x3e07e293	0.13270025
168	0xbe3f7d61	-0.18700172
169	0x3cb90de4	0.022589631
170	0x3e43575a	0.1907629
171	0xbdeefa89	-0.116688795
172	0x3e88017e	0.26563638
173	0x3e060f5f	0.13091801
174	0xbe3dbc7d	-0.18528934
175	0x3e4accf9	0.19804753
176	0xbca90ad9	-0.020635055
177	0xbdcfbd16	-0.10143487
178	0x3e4d60ff	0.20056532
179	0xbe48f33b	-0.19624035
180	0x3c88f5ea	0.016718823
181	0xbd31ff8f	-0.04345661
182	0x3e3f9afe	0.18711469
183	0x3da713a3	0.08158042
184	0x3e07c12e	0.13257286
185	0x3dc729fe	0.09724806
186	0xbd84197a	-0.06450172
187	0xbd5df88c	-0.05419211
188	0xbe49ca0b	-0.1970598
189	0x3e15260d	0.14565296
190	0x3e5677cf	0.20944141
191	0x3e384ff6	0.17999253
192	0xbe220946	-0.1582385
193	0x3d5eb520	0.054371953
194	0xbe35ffe9	-0.17773403
195	0xbe0fa709	-0.14028563
196	0xbe309ad5	-0.17246564
197	0x3dc4c8fc	0.09608647
198	0xbe029769	-0.12753071
199	0x3d0677d8	0.032829136
200	0x3d24c9c1	0.04023147
201	0x3e47d34d	0.19514199
202	0xbe3eecfe	-0.18645093
203	0xbe287297	-0.16449963
204	0xbddfd0b9	-0.109284826
205	0x3e87b895	0.26508012
206	0xbcd07702	-0.025447372
207	0x3e7bf506	0.24605188
208	0x3d9ba2d7	0.075994186
209	0xbbc25a05	-0.0059311413
210	0xbb4de190	-0.0031414963
211	0xbd98d7e7	-0.07463055
212	0x3d76847b	0.060184937
213	0xbd921ee4	-0.07134798
214	0xbd554992	-0.052072115
215	0xba25af1f	-0.00063203456
216	0xbe60c078	-0.21948421
217	0xbe3ea6a1	-0.18618251
218	0x3e6b8534	0.23000032
219	0xbe3b3eaa	-0.18285623
220	0xbd9801bc	-0.07422206
221	0x3e42078d	0.18948193
222	0x3d2a00ea	0.041504778
223	0xbd48d624	-0.049032345
224	0xbe5e59b0	-0.217139
225	0x3de01fe1	0.109435804
226	0xbe387f19	-0.18017234
227	0xbdadeb3e	-0.084921345
228	0xbd92b616	-0.071636364
229	0xbd3bb7f3	-0.045829725
230	0xbc46d50e	-0.012135757
231	0x3e6279a3	0.22116713
232	0x3d3dc6c7	0.046332147
233	0x3e55b325	0.2086912
234	0x3e2c436f	0.16822599
235	0xbe122e88	-0.14275563
236	0x3dc64dff	0.09682845
237	0xbe44a0ea	-0.19202009
238	0xbdb9aeb2	-0.090665236
239	0x3d6e8512	0.058232374
240	0x3d9ebf35	0.077513136
241	0x3e544cdb	0.20732443
242	0xbda0c8f3	-0.07850828
243	0x3cde09f9	0.027104365
244	0x3ddaee26	0.106899545
245	0xbe6555fc	-0.22396082
246	0x3e53f1ff	0.20697783
247	0xbe6e312c	-0.23260945
248	0xbcb848fb	-0.022495737
249	0xbc8758b3	-0.016521787
250	0xbe217557	-0.15767418
251	0x3be69411	0.007036694
252	0x3e6e5232	0.23273543
253	0xbd40d11e	-0.04707443
254	0xbe329d26	-0.1744276
255	0xbd8818c4	-0.06645349

bias f4 [64]
0	0xbc8f7ec0	-0.017516494
1	0xbe4e3555	-0.20137532
2	0xbde1ab43	-0.11018994
3	0x3e32d18b	0.17462747
4	0xbdada870	-0.084793925
5	0x3e30b2da	0.17255726
6	0x3e5c5e38	0.21520317
7	0x3d14f610	0.036367476
8	0xbd2fac8d	-0.042889167
9	0xbda285d0	-0.07935679
10	0x3cde4bf9	0.027135836
11	0x3d5eefe4	0.054427996
12	0xbe2051ec	-0.1565625
13	0xbdec9c99	-0.11553306
14	0xbe6497bb	-0.22323506
15	0x3e37bf37	0.17944036
16	0xbe2307b4	-0.15920907
17	0x3e58e715	0.21181901
18	0xbd95d42d	-0.0731586
19	0xbe1e63f3	-0.15467815
20	0x3e2e9b16	0.17051348
21	0x3c31bde2	0.010848494
22	0x3de26b85	0.11055664
23	0x3d66cd7a	0.0563483
24	0xbe55e7d9	-0.20889224
25	0x3e3bbe54	0.18334323
26	0x3d55c7ca	0.052192487
27	0xbe07209d	-0.13196035
28	0x3e2292e4	0.15876347
29	0x3e40619e	0.18787238
30	0xbe71f2c7	-0.23627768
31	0xbd40a62f	-0.047033485
32	0x3e523a98	0.20530164
33	0x3dc64a74	0.096821696
34	0x3e279c0a	0.16368118
35	0xbdf95e8b	-0.12176236
36	0xbe0d3870	-0.1379106
37	0x3e5c230a	0.21497741
38	0x3dd569d0	0.10420573
39	0x3e8a18ca	0.26972038
40	0xbdd5dc54	-0.10442415
41	0xbe245e7e	-0.16051671
42	0xbcf00d50	-0.029303223
43	0xbe710b62	-0.23539498
44	0x3d1d089e	0.038338296
45	0x3e3b661d	0.18300672
46	0x3d75d178	0.060014218
47	0xbc345eb8	-0.011008911
48	0x3ddfb3b0	0.109229445
49	0xbe227f10	-0.15868783
50	0x3eb2b9eb	0.3490747
51	0xbe5854db	-0.2112612
52	0xbe6b29ac	-0.22965115
53	0xbcb33f7e	-0.021880861
54	0x3e3cb705	0.18429191
55	0x3d64e7cd	0.055885125
56	0x3dc3342f	0.095314376
57	0xbe3ba656	-0.18325171
58	0x3df58b38	0.119894445
59	0xbce4d9c0	-0.027935863
60	0x3d917f93	0.07104411
61	0x3e443a80	0.19162941
62	0x3dde8e68	0.108670056
63	0xba198d0c	-0.00058575044

weight f4 [64, 64]
0	0xbbfc4f60	-0.007699892
1	0xbda08ee2	-0.07839753
2	0xbd393104	-0.04521276
3	0x3da65bca	0.08122976
4	0xbd4d4f6c	-0.05012457
5	0x3d9efc76	0.07762997
6	0xbd4b063c	-0.049566492
7	0xbcee7d08	-0.029112354
8	0x3b2e5800	0.0026602745
9	0xbdeaec20	-0.114708185
10	0xbaa39800	-0.0012481213
11	0xbc4e6e00	-0.012599468
12	0xbc37fc20	-0.011229545
13	0xbcccb3b0	-0.024988025
14	0x3dc9d318	0.09854716
15	0x3dbcecba	0.092248395
16	0xbdad8180	-0.08471966
17	0x3d6dd674	0.058065847
18	0xbdc8cd4c	-0.09804782
19	0xbdd9f032	-0.10641517
20	0x3d1c8258	0.038210243
21	0x3af0c980	0.0018370599
22	0xbd6ed9ec	-0.058313295
23	0xbdf6e9b8	-0.12056297
24	0xbd4636b4	-0.048392013
25	0x3d2b01fc	0.04174994
26	0xbdecf438	-0.115700185
27	0xbdf8b1f6	-0.12143318
28	0x3c81eae0	0.015859067
29	0xbdb86c68	-0.09005052
30	0xbde046cc	-0.109510034
31	0xbd45443c	-0.048160776
32	0xbca4dd68	-0.020125106
33	0xbde8a0e8	-0.113588154
34	0xbdaaf034	-0.08346596
35	0x3c064870	0.008195981
36	0xbdf16698	-0.11787146
37	0xbc8fed80	-0.017569304
38	0xbda54cc6	-0.08071284
39	0xbdb17800	-0.08665466
40	0x3d493b5c	0.049128875
41	0xbdc50a62	-0.09621121
42	0xbdc2016c	-0.094729275
43	0x3d91fdf8	0.07128519
44	0x3cbf7418	0.023370788
45	0x3de9247a	0.113839105
46	0xbd08daf4	-0.033411935
47	0xbd774dc0	-0.060376883
48	0xbc3d8900	-0.011568308
49	0x3a25c900	0.0006324202
50	0x3dc33ca8	0.09533054
51	0xbdfeff18	-0.12450999
52	0xbc11d1b0	-0.008900091
53	0x3d627bfc	0.055294022
54	0xbd8cf990	-0.06883538
55	0xbd821584	-0.0635176
56	0x3d776ee0	0.060408473
57	0xbdf54ba0	-0.11977315
58	0x3cf2a488	0.02961947
59	0xbdc63116	-0.09677331
60	0x3d7e7ee4	0.06213273
61	0xbddae3ee	-0.106880054
62	0x3d9d63d8	0.07685059
63	0xbdf25684	-0.11832908
64	0xbdd72f62	-0.105070844
65	0x3af17300	0.0018421113
66	0x3dc9b99c	0.09849855
67	0xbddb3cbe	-0.10704945
68	0xbd6461f0	-0.055757463
69	0x3de0d720	0.10978532
70	0xbcabb8e0	-0.020962179
71	0x3d541d1c	0.051785573
72	0xbdf64584	-0.12024978
73	0xbd2103a4	-0.039310113
74	0xbd82014a	-0.06347902
75	0x3dd7d2dc	0.10538265
76	0x3d54801c	0.051879987
77	0xbdbacc06	-0.09120946
78	0x3ca518b0	0.020153373
79	0xbabc4f00	-0.0014366806
80	0xbd525d88	-0.05135873
81	0xbd923214	-0.07138458
82	0xbd29e6c0	-0.041479826
83	0x3dc9c936	0.09852831
84	0xbdb783a2	-0.08960654
85	0xbdb65c22	-0.08904292
86	0xbd1df638	-0.03856489
87	0x3b0e82c0	0.0021745414
88	0x3d0b5f5c	0.03402649
89	0x3b75d380	0.0037510097
90	0xbcf680c8	-0.030090705
91	0xbd9b39c4	-0.07579377
92	0xbcb7bd30	-0.022429079
93	0xbd4e1b78	-0.050319165
94	0x3dced46c	0.1009911
95	0xbdf9315e	-0.12167619
96	0xbda34aba	-0.07973237
97	0xbdd04772	-0.10169877
98	0xbcbb2498	-0.022844598
99	0x3dc77e76	0.097409174
100	0x3de064e0	0.109567404
101	0xbddedcb6	-0.10881941
102	0xbbb17780	-0.005415857
103	0x3d96436a	0.07337077
104	0x3d61b034	0.05509968
105	0x3dd1b0ca	0.10238798
106	0xbb633b40	-0.0034672767
107	0xbdac012a	-0.083986595
108	0x3da95a10	0.08269131
109	0xbd2f9280	-0.042864323
110	0x3d848da2	0.06472327
111	0xbcfc59d8	-0.03080456
112	0x3d59a5f0	0.053136766
113	0x3de640c8	0.11242825
114	0x3dee0b02	0.11623193
115	0xbde8fa06	-0.11375813
116	0xbda956c6	-0.08268504
117	0xbd53b1ec	-0.05168335
118	0xbda34060	-0.07971263
119	0x3df5a1cc	0.11993751
120	0xbc34e080	-0.011039853
121	0xbda9d0b0	-0.08291757
122	0xbd63d5a8	-0.05562368
123	0xbd8d67c4	-0.06904557
124	0x3d50e3fc	0.050998673
125	0xbddf4bda	-0.109031394
126	0xbdeeb1f8	-0.116550386
127	0xbdfc5ad8	-0.123220146
128	0x3d5c6da8	0.053815514
129	0x3dd6fc89	0.10497386
130	0xbc73251e	-0.014840392
131	0x3da0784a	0.07835443
132	0x3dbcf9ac	0.09227309
133	0x3c94c9e0	0.018162668
134	0x3c9f3477	0.019434197
135	0x3c174fa0	0.009235293
136	0x3c070d36	0.008242896
137	0x3d80e552	0.062937394
138	0xbcab7e08	-0.02093412
139	0x3e09095a	0.13382474
140	0x3dfb2c4e	0.1226431
141	0xbd60e4c6	-0.054905675
142	0x3e05443a	0.13014308
143	0x3e24ba1a	0.16086617
144	0xbd49d858	-0.049278587
145	0x3d06fd73	0.03295655
146	0x3d90a774	0.07063189
147	0xbde27e4d	-0.11059246
148	0x3dca4b19	0.09877605
149	0x3d56b075	0.052414376
150	0x3d8fc7df	0.07020544
151	0xbd9a729f	-0.075413935
152	0xbd4c97d1	-0.04994947
153	0x3dba3747	0.090925746
154	0x3dd4518d	0.10367117
155	0xbdd879e5	-0.105701245
156	0xbd8ec2c6	-0.06970744
157	0xbda81bd1	-0.082084306
158	0xbdd963b1	-0.10614718
159	0xbd0627e7	-0.032752898
160	0x3dd3d990	0.10344231
161	0xbccbd400	-0.024881363
162	0x3d57a751	0.0526498
163	0x3dfa3fd9	0.12219209
164	0x3d6955bc	0.05696653
165	0xbde52c82	-0.1119013
166	0x3d80d334	0.06290284
167	0x3db766af	0.08955132
168	0x3dc66ab2	0.09688319
169	0xbdfc86f4	-0.12330428
170	0x3d9d71b0	0.076877
171	0x3dd18bee	0.102317676
172	0xbd984f0e	-0.074369535
173	0x3dacae80	0.08431721
174	0x3dda8a52	0.10670914
175	0xbd4528f1	-0.048134748
176	0x3cb2b60c	0.021815322
177	0x3d623dc0	0.05523467
178	0x3dafe3f2	0.08588399
179	0x3e44ebbe	0.19230554
180	0x3e321783	0.17391782
181	0x3e3b9a30	0.18320537
182	0x3d34730b	0.044055026
183	0x3e3831ba	0.17987719
184	0xbda2de83	-0.07952597
185	0xbd8a2526	-0.06745367
186	0x3c0d13c8	0.008610673
187	0xbd1817d4	-0.0371321
188	0x3e2fd950	0.17172742
189	0x3df89968	0.12138635
190	0x3da4d0ee	0.08047663
191	0x3df437c4	0.11924699
192	0xbdbf3ba0	-0.093375444
193	0x3c3602fc	0.01110911
194	0x3d301357	0.042987194
195	0x3d7090c0	0.058731794
196	0x3d83a4c0	0.06427908
197	0xbd4bba70	-0.049738348
198	0xbc64c5a0	-0.013963133
199	0x3dd634ae	0.104592666
200	0xbd1590ea	-0.036515154
201	0xbdb1d404	-0.08683017
202	0x3dde7a64	0.10863188
203	0x3dce5af7	0.10075944
204	0xbc7f352d	-0.015576643
205	0xbce52d5b	-0.027975729
206	0xbd93fc34	-0.07225838
207	0xbdaab42f	-0.083351485
208	0x3d408990	0.04700619
209	0xbd18d6b4	-0.03731413
210	0x3ddd4cf1	0.10805691
211	0xbe1e6d70	-0.15471435
212	0x3bbb2262	0.005710886
213	0xbb9c32f4	-0.0047668163
214	0x3d385d61	0.045010928
215	0x3dd2b2e4	0.10288027
216	0x3ddf22b2	0.108952895
217	0x3d9b873f	0.075941555
218	0xbcb569d4	-0.02214519
219	0xbdc1f7f8	-0.094711244
220	0xbde50558	-0.1118266
221	0x3ce2cb01	0.02768469
222	0x3e01c593	0.12673025
223	0xbcabc027	-0.020965649
224	0xbbac6f80	-0.0052623153
225	0xbdba089e	-0.09083675
226	0x3c1529dc	0.009104218
227	0x3d0a7d8c	0.033811137
228	0xbdfc64fc	-0.12323949
229	0xbdb4415a	-0.08801527
230	0x3dbd9f06	0.09258847
231	0x3d25a948	0.040444642
232	0xbbff5ea0	-0.0077932626
233	0x3cb70c68	0.022344783
234	0xbc9bb0e0	-0.019005239
235	0xbdb2ef5e	-0.08737062
236	0xbde4c643	-0.11170628
237	0x3dd2f214	0.10300079
238	0xbc739510	-0.014867082
239	0xbcc10e10	-0.023566276
240	0xbcf482ea	-0.029847581
241	0xbd8ba0d8	-0.06817788
242	0xbb82b1b5	-0.0039884695
243	0xbdbfb69a	-0.09361
244	0x3ddffd81	0.10937024
245	0x3d9097ee	0.07060228
246	0xbd3d7c47	-0.0462611
247	0xbcb8730b	-0.022515794
248	0x3d9f00e0	0.07763839
249	0xbd3d98ac	-0.046288177
250	0x3d558055	0.05212434
251	0x3d0cf990	0.03441769
252	0xbd8f1aec	-0.06987557
253	0x3d5266f0	0.0513677
254	0x3bfa9c40	0.007648021
255	0x3e05135a	0.12995663

bias f4 [64]
0	0x3d903110	0.07040608
1	0xbd71cf64	-0.059035674
2	0x3e05e3e5	0.13075216
3	0x3cc8265e	0.024432357
4	0x3dacd901	0.08439828
5	0x3df4c050	0.11950743
6	0xbde3cd7c	-0.111231774
7	0x3df306b2	0.118665114
8	0x3e1bcac3	0.15214066
9	0xbdd8b8d0	-0.10582125
10	0x3d1e3893	0.038628172
11	0xbdfe9bbc	-0.12432048
12	0x3cc17bc5	0.023618588
13	0x3c9e59f0	0.019329995
14	0xbe0e7172	-0.13910463
15	0x3ce62395	0.028093139
16	0xbd0ca2e4	-0.034335032
17	0x3e09e251	0.13465239
18	0x3dd63431	0.104591735
19	0x3cf3eb0d	0.029775167
20	0x3dc9ca4a	0.09853037
21	0x3d38ecac	0.045147583
22	0x3df23376	0.11826222
23	0xbc3d15c0	-0.01154083
24	0x3d2bd996	0.041955553
25	0xbd0e1259	-0.034685466
26	0x3c62559a	0.013814354
27	0xbd1a7404	-0.037708297
28	0xbd45c5b8	-0.048284262
29	0x3d29463a	0.04132674
30	0x3c63625f	0.013878434
31	0xbd6f816b	-0.058473032
32	0xbe00ac96	-0.12565836
33	0x3d57c71d	0.052680124
34	0xbdeb7cb6	-0.11498396
35	0xbc9d5671	-0.019206258
36	0xbded8966	-0.11598472
37	0x3dd65b50	0.10466635
38	0x3dd07474	0.10178462
39	0xbdd2643a	-0.10273023
40	0xbdfa927a	-0.122349694
41	0xbd975bfa	-0.0739059
42	0x3cdde4d1	0.027086647
43	0xbd2d9f69	-0.042388353
44	0x3e16858f	0.14699386
45	0xbd188af0	-0.037241876
46	0x3c27c597	0.01023998
47	0xbd94ee00	-0.072719574
48	0x3d68dd80	0.056851864
49	0xbdb730b2	-0.08944835
50	0xbce27300	-0.027642727
51	0x3e3df4a7	0.18550359
52	0xbdc8e002	-0.09808351
53	0x3d8998fb	0.06718632
54	0x3d853cde	0.0650575
55	0xbca20202	-0.019776348
56	0x3d318b1c	0.043345556
57	0xbdacf28a	-0.08444698
58	0xbbe9d9f7	-0.007136579
59	0x3cf0de44	0.02940286
60	0x3ddd6e1a	0.10812016
61	0xbd8f4090	-0.06994736
62	0xbd95dc9e	-0.0731747
63	0xbd28b7ac	-0.04119079

weight f4 [3, 64]
0	0xbdf9635e	-0.12177156
1	0x3ccf14b8	0.025278434
2	0xbe2d9826	-0.16952571
3	0xbd8155e8	-0.063152134
4	0xbd929f45	-0.071592845
5	0x3be50300	0.006988883
6	0x3c23b02c	0.009990733
7	0xbdba0812	-0.090835705
8	0xbdd140b3	-0.102174185
9	0xbd85751d	-0.06516478
10	0xbdf617b6	-0.12016241
11	0xbbab66d2	-0.005230763
12	0x3c5ce4ad	0.013482255
13	0xbdb67246	-0.08908515
14	0x3dd0ba4c	0.10191783
15	0x3da7c75d	0.081923224
16	0xbd19d140	-0.037553072
17	0xbca542e5	-0.0201735
18	0x3ce85173	0.02835915
19	0xbcf96fd3	-0.03044883
20	0xbdabcfb4	-0.083892256
21	0x3dd2f300	0.10300255
22	0x3d7bf4ec	0.061512873
23	0xbdd5ee64	-0.1044586
24	0xbdf9f486	-0.12204842
25	0x3da799c2	0.08183624
26	0xbc970e41	-0.018439414
27	0xbceb4270	-0.028718203
28	0x3d63ab8e	0.05558353
29	0xba03d1df	-0.00050285266
30	0x3cc4d599	0.024027633
31	0x3dafd35c	0.085852355
32	0xbca33ed6	-0.019927423
33	0x3e0028bd	0.1251554
34	0xbdb3d2c2	-0.08780433
35	0xbd805069	-0.06265337
36	0x3ce97b4f	0.028501181
37	0xbc78a310	-0.015175596
38	0x3d921638	0.07133144
39	0xbd0b3a08	-0.03399089
40	0x3c6e1384	0.01453102
41	0xbcd4c660	-0.025973499
42	0x3d9ef89f	0.077622645
43	0xbd8d58ba	-0.06901689
44	0xbdeda661	-0.11604
45	0x3db02b85	0.08602051
46	0x3dd84b2e	0.105612144
47	0x3dcf3c7d	0.10118959
48	0xbdfa4c1c	-0.12221548
49	0xbd90a7d2	-0.07063259
50	0xbd196bbb	-0.037456255
51	0xbdd82f67	-0.10555916
52	0x3d564e79	0.05232093
53	0x3d0142ec	0.031557962
54	0xbc2873a0	-0.010281473
55	0xbd2bd22f	-0.041948494
56	0x3cdb6658	0.0267822
57	0x3ddcafc0	0.10775709
58	0x3cc15a05	0.023602495
59	0xbd69ac99	-0.057049368
60	0xbd83240c	-0.0640336
61	0x3d21eb28	0.039530903
62	0xbd6be032	-0.057586856
63	0xbe07c027	-0.13256894
64	0xbdf7c6b4	-0.120984465
65	0x3c92adb0	0.017905086
66	0xbdea95aa	-0.114543274
67	0xbdc6b951	-0.09703315
68	0x3d0b3c98	0.033993334
69	0x3df949ee	0.12172304
70	0x3ddc75b5	0.10764638
71	0x3d91f612	0.07127012
72	0xbe175fd4	-0.1478265
73	0x3d0879cd	0.033319283
74	0x3cfc26d6	0.030780237
75	0x3d2de432	0.042453952
76	0xbd551b93	-0.05202825
77	0xbb0ea5c0	-0.0021766275
78	0xbd3311d8	-0.04371819
79	0xb9dc53fc	-0.00042024243
80	0xbca890b8	-0.02057682
81	0xbd43bb5d	-0.047786105
82	0xbddc4d94	-0.10756984
83	0x3d73cf48	0.05952385
84	0xbdd174f8	-0.10227388
85	0xbdbf720a	-0.09347923
86	0x3d500fc4	0.050796285
87	0xbdd18e6a	-0.102322415
88	0x3decabcd	0.11556206
89	0x3dfcdc78	0.123467386
90	0xbd942119	-0.072328754
91	0xbcb07a10	-0.021542579
92	0xbdd47c41	-0.10375262
93	0x3c8c0098	0.017090127
94	0x3d3f7734	0.04674454
95	0xbd7b8f95	-0.061416227
96	0x3cd8814b	0.02642884
97	0x3aa34523	0.0012456517
98	0xbd16ed44	-0.036847368
99	0x3c8c81b2	0.017151687
100	0xbde8b4b9	-0.11362595
101	0xbdb455ac	-0.08805403
102	0x3c878b60	0.016545951
103	0x3df73994	0.12071529
104	0xbd5cbaf5	-0.053889234
105	0x3da41df8	0.080135286
106	0x3d225e05	0.039640445
107	0xbdc9420a	-0.09827049
108	0xbdb86121	-0.09002901
109	0x3d5eb496	0.05437144
110	0x3d3eb93e	0.04656338
111	0x3e078b93	0.13236837
112	0xbcc1ccb8	-0.023657188
113	0xbdaaf3b0	-0.08347261
114	0x3dccbdd2	0.09997143
115	0xbdd8cce1	-0.105859526
116	0x3dd0c264	0.10193327
117	0x3dc64571	0.09681214
118	0x3cb55ae0	0.02213806
119	0xbe0ab60a	-0.13546005
120	0xbdfb5382	-0.12271787
121	0x3d7310b0	0.059342086
122	0x3cfe0666	0.03100891
123	0x3da14096	0.07873647
124	0xbde1a3d4	-0.11017576
125	0xbc8d1420	-0.01722151
126	0x3d9d60d3	0.076844834
127	0x3ca701bf	0.020386575
128	0x3dd4bea6	0.10387926
129	0x3dc8fdbc	0.09814021
130	0x3cc52020	0.02406317
131	0xbd888509	-0.066659994
132	0xbd997881	-0.074936874
133	0x3d2de38c	0.042453334
134	0xbd4dd353	-0.050250363
135	0x3a01f500	0.00049574673
136	0x3def4181	0.11682416
137	0x3d962be1	0.07332588
138	0x3d8728bd	0.06599567
139	0x3d835c41	0.064140804
140	0x3c521370	0.012822017
141	0x3d908652	0.070568696
142	0xbd84a002	-0.064758316
143	0xbd587264	-0.052843466
144	0xbca22218	-0.019791648
145	0xbd66b9e8	-0.056329638
146	0x3dcb5c72	0.09929742
147	0xbc48845d	-0.012238589
148	0x3d14d9d4	0.03634055
149	0xbb7eb240	-0.003886357
150	0xbae01580	-0.0017096251
151	0xbd887218	-0.06662387
152	0x3a776f8f	0.0009438926
153	0xbde3232b	-0.11090692
154	0xbd2b8056	-0.041870438
155	0x3dc501f0	0.0961951
156	0xbdeb59d7	-0.11491745
157	0x3c828d79	0.0159366
158	0x3ca503b2	0.020143364
159	0xbdf8d436	-0.12149851
160	0x3caa732f	0.020806877
161	0x3d54eae4	0.05198182
162	0x3db96a8c	0.09053525
163	0x3c375713	0.011190194
164	0x3db8a128	0.09015113
165	0x3b9a2ca0	0.0047050267
166	0x3d431558	0.047627777
167	0x3d1725a4	0.03690113
168	0xbdbc38cc	-0.09190521
169	0xbce0c860	-0.027439296
170	0xbdb67c75	-0.08910457
171	0x3e04270e	0.12905523
172	0x3e5d6c5e	0.2162337
173	0xbd42835c	-0.047488555
174	0xbc9a5fd4	-0.018844523
175	0x3d20089e	0.039070718
176	0xbddf365e	-0.108990416
177	0x3b675140	0.0035296232
178	0x3d6559de	0.055993907
179	0x3dfa533e	0.122229084
180	0xbc62bedd	-0.013839451
181	0x3d9b716c	0.07589993
182	0x3d5eb6a0	0.054373384
183	0xbd3b3734	-0.045706943
184	0x3d96a8ce	0.07356416
185	0xbdc9ea0e	-0.098590955
186	0x3d9f46ef	0.077772014
187	0x3dcb445e	0.099251494
188	0x3c3cbe50	0.011519983
189	0xbd2d0a88	-0.04224637
190	0xbd1e7e92	-0.038694926
191	0xbc94a558	-0.018145248

bias f4 [3]
0	0xbd81ad4f	-0.06331884
1	0xbd8feda0	-0.07027745
2	0x3dfac779	0.12245078

weight f4 [64, 19]
0	0xbdcaaa2e	-0.098957404
1	0x3dc312de	0.09525083
2	0xbe59d961	-0.2127433
3	0x3dee2412	0.116279736
4	0x3e47e5df	0.19521283
5	0xbe286860	-0.16446066
6	0xbd6fc134	-0.058533862
7	0x3d5ff6f4	0.054678872
8	0xbe60df9b	-0.21960299
9	0xbe14a3b2	-0.1451557
10	0x3da36782	0.07978727
11	0x3e5d3681	0.21602823
12	0xbd8c5ce6	-0.068536565
13	0xbb08ed00	-0.0020893216
14	0xbe62c72a	-0.22146288
15	0xbe617d2f	-0.2202041
16	0x3e4c4e5f	0.19951771
17	0x3e475b37	0.1946839
18	0xbd8f3198	-0.06991881
19	0xbe65e80a	-0.22451797
20	0xbe2ce081	-0.16882516
21	0x3e141508	0.14461148
22	0x3e66dc16	0.22544894
23	0x3b22dd14	0.002485101
24	0xbe2374fa	-0.15962592
25	0xbd9e2f4b	-0.07723864
26	0xbc2404f9	-0.010010951
27	0x3e27dc02	0.1639252
28	0x3d3af987	0.045648124
29	0xbe4f2900	-0.20230484
30	0x3e5f6f92	0.21819904
31	0x3e38a91a	0.18033257
32	0x3d8b393a	0.067980245
33	0x3dde2901	0.108476646
34	0x3da68317	0.08130472
35	0x3e310625	0.172875
36	0xbe652136	-0.2237595
37	0xbe014066	-0.12622222
38	0xbd11411d	-0.035462487
39	0xbe49467d	-0.19655795
40	0xbdff0b34	-0.12453309
41	0x3e4d8496	0.20070109
42	0xbd3f2662	-0.046667464
43	0xbd382af2	-0.04496283
44	0x3e59acd5	0.21257336
45	0x3e17e6d9	0.14834155
46	0x3d80b618	0.062847316
47	0xbe158caf	-0.14604448
48	0xbda98344	-0.0827699
49	0x3d2068b9	0.03916237
50	0xbe5efd84	-0.21776396
51	0xbc759e79	-0.014991396
52	0x3d2e653e	0.04257702
53	0x3e4f1e0b	0.20226304
54	0xbda72658	-0.0816161
55	0x3e4f1923	0.20224433
56	0x3ce993ba	0.028512824
57	0xbe22fc4a	-0.15916553
58	0x3e5e07b5	0.21682627
59	0x3e4babfd	0.19889827
60	0xbe39a003	-0.18127446
61	0xbe0846e0	-0.13308287
62	0x3de0a7d2	0.10969509
63	0xbe108c86	-0.14116105
64	0x3e1fbc49	0.15599169
65	0xbde02d5d	-0.10946152
66	0xbd91d284	-0.07120231
67	0xbd86e06a	-0.06585772
68	0x3e601f71	0.21886994
69	0xbd9ee1ca	-0.077579096
70	0xbd36b7d4	-0.044608906
71	0x3e0e254b	0.13881414
72	0xbe20bb6b	-0.15696494
73	0xba90d800	-0.0011050701
74	0xbe35758c	-0.17720622
75	0xbe58d3e7	-0.21174584
76	0x3f0d655f	0.55232805
77	0xbd17873a	-0.036994196
78	0x3e295804	0.16537482
79	0xbf12d280	-0.5735245
80	0xbc6ec018	-0.014572166
81	0x3ef62ede	0.48082632
82	0x3d748faa	0.05970732
83	0x3e067bbb	0.13133137
84	0xbe408329	-0.18800034
85	0xbd7ab8bf	-0.061211344
86	0x3d6ae38f	0.057345923
87	0xbe39ac90	-0.18132234
88	0x3de1c107	0.11023145
89	0xbe64aa9b	-0.22330706
90	0x3e0d1ace	0.13779756
91	0x3d8e66ab	0.06953176
92	0xbde1e93b	-0.11030813
93	0xbd39ffdc	-0.045410022
94	0x3e69ede9	0.22844662
95	0xbefbbc79	-0.4916723
96	0xbc1467d8	-0.009057961
97	0xbddb4356	-0.10706203
98	0x3f003d85	0.5009387
99	0x3e998c3d	0.29989806
100	0xbee62c1d	-0.4495553
101	0x3e47ba84	0.19504744
102	0xbe06b85f	-0.1315627
103	0x3e325b1f	0.17417572
104	0xbc9dd697	-0.019267363
105	0xbe468653	-0.19387178
106	0xbd40f9b3	-0.04711313
107	0x3e43f629	0.19136871
108	0xbdbdcda8	-0.092677414
109	0xbc8c3c42	-0.017118577
110	0xbdd3fe43	-0.10351231
111	0xbd289b45	-0.0411637
112	0x3e4f622c	0.20252293
113	0x3e05d59b	0.13069765
114	0xbcea526f	-0.02860376
115	0x3e1f2c0a	0.15544143
116	0xbc7a3c6c	-0.015273195
117	0xbf241df8	-0.6410823
118	0xbe869098	-0.2628219
119	0xbc7cb0e5	-0.015423034
120	0xbe5251bb	-0.2053899
121	0x3ded425e	0.11584924
122	0x3d185135	0.03718682
123	0x3b97e5d9	0.0046355543
124	0xbc8acb25	-0.01694257
125	0x3e442434	0.19154435
126	0x3e58ab2e	0.2115905
127	0x3de9f58d	0.11423788
128	0x3dede781	0.116164215
129	0xbddf452b	-0.109018646
130	0x3ddd51dd	0.1080663
131	0xbde8612d	-0.1134666
132	0x3d9936d1	0.074811585
133	0xbe26d054	-0.16290408
134	0xbaa47a00	-0.0012548566
135	0x3e2a448b	0.1662771
136	0x3e1bfecb	0.15233915
137	0x3e4fb819	0.20285071
138	0x3da04632	0.07825889
139	0x3db66202	0.08905412
140	0x3d7bfe14	0.061521605
141	0x3e2b8b0b	0.1675226
142	0x3df68d32	0.120386496
143	0x3d8aa2f2	0.067693606
144	0xbda3efa6	-0.08004694
145	0xbde3631e	-0.111028895
146	0xbd6852f0	-0.05671972
147	0x3de03a3e	0.10948609
148	0xbdffc154	-0.12488046
149	0x3d805d66	0.06267814
150	0x3e4d8899	0.20071639
151	0x3e46eb51	0.19425704
152	0xbe2cf5e0	-0.16890669
153	0x3d85ebde	0.06539129
154	0x3e199bdd	0.15000863
155	0xbe55626a	-0.20838323
156	0x3e162475	0.14662345
157	0xbe1260a3	-0.14294676
158	0xbe29dc20	-0.16587877
159	0xbdc729d0	-0.09724772
160	0xbdb0b96a	-0.08629115
161	0xbdc240ba	-0.09485002
162	0x3d87447a	0.06604858
163	0x3db6048e	0.088875875
164	0x3db69a62	0.08916165
165	0x3e22325f	0.15839528
166	0xbe14a318	-0.1451534
167	0xbe5f10a8	-0.21783698
168	0xbe3c75f8	-0.18404377
169	0xbe011e6f	-0.12609266
170	0xbdd6e91e	-0.10493682
171	0xbea0d6e9	-0.31413963
172	0xbe9277cc	-0.28607023
173	0xbe04236a	-0.12904134
174	0x3f2226b7	0.63340324
175	0xbd32dab5	-0.043665607
176	0xbe6f602e	-0.23376533
177	0xbe147bf9	-0.14500417
178	0x3db10383	0.08643248
179	0x3e13e6bc	0.14443487
180	0xbe4abd42	-0.19798759
181	0x3db05461	0.08609844
182	0xbde2b018	-0.110687435
183	0x3e1021e5	0.1407543
184	0x3e4fabca	0.20280376
185	0xbe477a84	-0.1948033
186	0x3da55f00	0.080747604
187	0x3e0b9459	0.13630809
188	0x3e6c975a	0.23104611
189	0x3e1322cf	0.14368747
190	0x3eebdd8a	0.46067458
191	0x3e39cec8	0.18145287
192	0x3ac0960f	0.0014693158
193	0xbf34bcfa	-0.70600855
194	0xbe3f7f2d	-0.18700857
195	0x3e8b488c	0.27203786
196	0xbe3dc5f9	-0.18532552
197	0xbbd41c90	-0.0064731315
198	0xbce6296c	-0.028095923
199	0xbda048e0	-0.078264
200	0xbd91253f	-0.07087182
201	0xbe6a27e4	-0.2286678
202	0x3e61d19c	0.22052616
203	0x3ded85fa	0.115978196
204	0x3e2bf28e	0.16791746
205	0xbe45d3dc	-0.19319099
206	0xbe5bbef9	-0.21459569
207	0x3df8ef93	0.1215507
208	0xbcc87b53	-0.024472868
209	0x3d127a34	0.035761073
210	0x3deb9916	0.11503808
211	0x3c703140	0.01466018
212	0xbbf8f840	-0.007597953
213	0x3e0b9715	0.13631852
214	0x3e3bacc1	0.18327619
215	0xbd82ef0e	-0.06393252
216	0xbe489112	-0.1958659
217	0xbe00d0f8	-0.12579715
218	0x3e27e187	0.16394626
219	0x3ca36bc8	0.019948855
220	0x3e492661	0.19643547
221	0xbda45bb0	-0.080253005
222	0xbe5e97f5	-0.21737655
223	0x3d91e856	0.07124393
224	0xbdc837d6	-0.09776275
225	0xbe0c7330	-0.13715816
226	0x3e1275c1	0.14302732
227	0x3c82b200	0.015954018
228	0xbe19b607	-0.15010844
229	0x3f14521a	0.5793778
230	0x3e342446	0.17591962
231	0xbf8656a0	-1.0495186
232	0xbf0201de	-0.507841
233	0xbe361c5a	-0.17784253
234	0xbe670342	-0.22559837
235	0xbdefaa3a	-0.1170239
236	0x3e222683	0.15835004
237	0xbe18a61b	-0.14907114
238	0x3e53c984	0.20682341
239	0x3d8b4528	0.068003
240	0x3c5e02f1	0.013550506
241	0x3d2f6bd7	0.042827453
242	0x3d550782	0.052009113
243	0x3d9e84e1	0.077401884
244	0xbe3c7b4b	-0.18406408
245	0xb8f51a04	-0.00011687356
246	0x3d946789	0.0724631
247	0x3e696555	0.22792561
248	0xbc46d800	-0.012136459
249	0xbe27d1f6	-0.16388687
250	0x3dd7ee3e	0.10543488
251	0xbe56f0ef	-0.20990346
252	0x3e51645b	0.20448439
253	0x3e1062fd	0.14100261
254	0x3dd39fc2	0.10333206
255	0x3d005b7c	0.031337246

bias f4 [64]
0	0xbd0b4a10	-0.03400618
1	0x3d01e1c0	0.031709433
2	0x3b163126	0.0022917478
3	0x3b4ef300	0.0031577945
4	0xbcb95515	-0.022623578
5	0xbe6397b0	-0.22225833
6	0x3cb5b530	0.022181123
7	0x3e579011	0.2105105
8	0x3d9a1b4e	0.07524739
9	0xbe5e6b6c	-0.21720666
10	0x3d389c97	0.04507121
11	0xbd183624	-0.037161008
12	0x3d91d711	0.07121099
13	0xbe57bdde	-0.21068522
14	0x3d1d15cc	0.038350865
15	0xbe30b530	-0.17256618
16	0x3d05b504	0.032643333
17	0x3e08cb90	0.13358903
18	0x3e1f7e8e	0.1557562
19	0xbd1723aa	-0.036899246
20	0x3e512cbb	0.2042722
21	0xbc7742ca	-0.015091607
22	0xbe073528	-0.13203871
23	0x3dc94d15	0.09829155
24	0x3b50f91e	0.0031886767
25	0xbe37f54b	-0.17964666
26	0x3e10d01c	0.14141887
27	0x3e5f6b89	0.21818365
28	0x3e00a2fb	0.12562172
29	0xbd125e87	-0.03573468
30	0xbe496ffb	-0.19671623
31	0x3e443186	0.19159517
32	0xbdfa3b99	-0.122183986
33	0x3d0d8b2c	0.034556553
34	0xbe599456	-0.21247992
35	0x3e07afde	0.13250682
36	0x3d451b0e	0.048121504
37	0x3e5ac558	0.21364343
38	0x3de4026e	0.11133276
39	0xbe605c4b	-0.21910207
40	0x3e39a377	0.18128763
41	0xbe491438	-0.19636619
42	0xbde08ec0	-0.109647274
43	0x3de667f9	0.112503
44	0xbe009f5f	-0.12560795
45	0x3d781328	0.060565144
46	0x3cc19158	0.023628876
47	0x3c3535ba	0.011060173
48	0xbdff3120	-0.12460542
49	0x3e1e0cd9	0.15434588
50	0x3cc95b26	0.024579596
51	0x3d902c41	0.07039691
52	0x3cdad478	0.026712641
53	0xbde3b497	-0.11118429
54	0xbdbb8dd9	-0.09157915
55	0x3e1c608f	0.15271209
56	0xbe4d39e8	-0.2004162
57	0xbda9f218	-0.08298129
58	0xbe5f6660	-0.21816397
59	0xbe16a2e6	-0.14710578
60	0x3cd86d02	0.026419166
61	0xbd5612b8	-0.052263945
62	0x3d93b0ac	0.07211432
63	0x3e22f2cb	0.1591293

weight f4 [64, 64]
0	0x3cd762b0	0.026292175
1	0x3dea3fef	0.114379756
2	0xbb9b4909	-0.004738931
3	0x3df6f9a4	0.12059334
4	0x3c7e0152	0.0155032445
5	0xbbd056cc	-0.0063580032
6	0x3cfc09ac	0.03076633
7	0xbdc9d8f6	-0.09855835
8	0x3dd0c274	0.10193339
9	0x3de0054a	0.10938509
10	0xbdeba384	-0.115057975
11	0xbd985c66	-0.074394986
12	0x3dc15750	0.09440482
13	0x3d00b19c	0.03141938
14	0xbd391988	-0.045190364
15	0xbd83a9e2	-0.06428887
16	0xbcea9fc0	-0.028640628
17	0xbcd84a17	-0.026402516
18	0x3de44a21	0.111469515
19	0xbda5753b	-0.080790006
20	0x3c560f4d	0.013065171
21	0x3d02b806	0.03191378
22	0xbd7df738	-0.062003344
23	0xbc51ec84	-0.012812737
24	0xbcfd7401	-0.030939104
25	0x3db98647	0.090588145
26	0x3dae3d7d	0.08507822
27	0xbc2132bf	-0.009838759
28	0xbd833074	-0.06405726
29	0xbd9d7e8e	-0.07690154
30	0xbd6a742f	-0.057239708
31	0x3dd4cd29	0.10390694
32	0x3dd01a9e	0.10161327
33	0x3ccb9d60	0.024855316
34	0xbdf6719b	-0.12033387
35	0x3d0edfa1	0.034881238
36	0xbce8c23e	-0.028412934
37	0x3d8502fb	0.06494709
38	0x3d850f22	0.06497027
39	0x3dd6c3d8	0.10486573
40	0x3c152190	0.00910224
41	0x3b9c898a	0.004777138
42	0x3a6d7a00	0.0009059012
43	0x3dac0bc1	0.084006794
44	0x3db880d5	0.09008948
45	0x3d6007b2	0.05469484
46	0xbcccc1d0	-0.02499476
47	0xbd27a746	-0.04093101
48	0x3ded3b52	0.1158358
49	0xbd8f374a	-0.069929674
50	0x3c8e5f8d	0.017379547
51	0x3d0f140b	0.034931224
52	0x3d8490c6	0.06472926
53	0xbda28587	-0.079356246
54	0xbcf184dc	-0.029482298
55	0xbb6f4a40	-0.0036512762
56	0xbc3ace70	-0.011401758
57	0xbde30698	-0.11085242
58	0x3d473c77	0.04864165
59	0xbdcac6d0	-0.09901202
60	0xbd110b6c	-0.035411283
61	0x3d1cf098	0.038315386
62	0x3dc2ebae	0.095176086
63	0xbcceafaf	-0.025230257
64	0xbd8dbd9c	-0.06920931
65	0xbd574637	-0.052557196
66	0x3adea3cc	0.0016986071
67	0xbd8bf402	-0.0683365
68	0x3d080209	0.033205066
69	0x3d68154a	0.056660928
70	0x3df969c5	0.12178377
71	0x3dd74896	0.105118915
72	0xbcd14730	-0.02554664
73	0x3d677509	0.056508098
74	0x3ca57777	0.020198567
75	0x3d72be00	0.05926323
76	0xbd581f00	-0.05276394
77	0x3df07072	0.11740197
78	0x3a59e600	0.0008312166
79	0x3dafd9fa	0.085864976
80	0x3dbdde2c	0.092708915
81	0xbcc9ef4d	-0.02465024
82	0x3dcaa944	0.09895566
83	0xbcec02b8	-0.02880989
84	0x3d84fc44	0.06493428
85	0xbc859108	-0.016304508
86	0xbdca7384	-0.09885314
87	0xbceab47f	-0.02865052
88	0x3d5a2fe4	0.05326833
89	0x3dd3c697	0.103406124
90	0xbdc9f87c	-0.09861848
91	0xbd8d8af7	-0.06911271
92	0x3d856c86	0.0651484
93	0xbd78cb17	-0.060740557
94	0x3c1b5d50	0.009482697
95	0xbdaca81e	-0.08430503
96	0x3c016050	0.007896498
97	0xbd77bc98	-0.06048259
98	0x3cfc0904	0.030766018
99	0x3d541767	0.05178013
100	0x3ce023b3	0.027360773
101	0xbdc18907	-0.09449964
102	0x3dbff0a8	0.093720734
103	0x3dd77bf2	0.105216876
104	0xbde58a86	-0.11208062
105	0x3dd79b41	0.10527659
106	0xbddca54a	-0.10773714
107	0x3d6fb31a	0.058520414
108	0xbb896804	-0.004193308
109	0xbbd9e19d	-0.0066492097
110	0xbd794c4c	-0.060863778
111	0x3dd02602	0.101634994
112	0x3ca57dd0	0.020201594
113	0xbbb5afff	-0.005544662
114	0xbac755fa	-0.0015208118
115	0x3dbfae73	0.093594454
116	0x3dfdab14	0.12386146
117	0xbd8b5cfb	-0.06804844
118	0xbddd35b4	-0.10801259
119	0xbdad3076	-0.08456509
120	0xbd8afee6	-0.06786899
121	0xbdcaa2e4	-0.0989435
122	0xbd2d2832	-0.04227466
123	0xbd435f67	-0.047698405
124	0x3b103e98	0.0022009965
125	0x3d1204b4	0.035649016
126	0x3da9fc03	0.083000205
127	0xbda28548	-0.07935578
128	0xbdb76c80	-0.089562416
129	0xbd68fa06	-0.056879066
130	0xbdc35df8	-0.095394075
131	0x3bdc9e80	0.006732762
132	0xbdcd2ec5	-0.10018686
133	0xbc702411	-0.014657036
134	0xbc959f4d	-0.018264437
135	0xbdc63de2	-0.09679772
136	0xbd6727ec	-0.056434557
137	0x3d4e64c5	0.05038907
138	0xbd205f13	-0.03915317
139	0xbde1f232	-0.11032523
140	0x3dce0fc1	0.100615986
141	0xbd1fa10c	-0.038971946
142	0x3c76d510	0.0150654465
143	0x3db8ff47	0.09033065
144	0x3d7ef0e8	0.062241465
145	0xbde3d048	-0.11123711
146	0x3ddebe74	0.1087617
147	0xbd1b7b16	-0.03795918
148	0x3ce5cd52	0.028052006
149	0x3d5a24d9	0.053257797
150	0x3d32b67c	0.043631062
151	0x3da425aa	0.08014996
152	0xbd8f9a2f	-0.0701183
153	0x3db7dbcf	0.08977472
154	0x3d9d9642	0.07694675
155	0xbde382a1	-0.111089
156	0xbd3ee430	-0.046604335
157	0x3dd0daf5	0.10198013
158	0xbdc28507	-0.09498029
159	0xbdef02bf	-0.11670446
160	0x3d9e1a8a	0.07719906
161	0x3d346ac4	0.044047132
162	0x3c411e4a	0.011787007
163	0x3db8d758	0.090254486
164	0x3adf74af	0.0017048324
165	0x3df35bf8	0.11882776
166	0xbda9e296	-0.08295171
167	0xbddc0388	-0.10742861
168	0xbcdeae30	-0.027182668
169	0x3df01f6e	0.11724745
170	0xbddae118	-0.106874645
171	0x3d2f90b1	0.042862598
172	0x3cf24d8b	0.029577991
173	0xbd61166f	-0.054953035
174	0xbdd1f1f4	-0.10251227
175	0x3d4891ea	0.04896728
176	0x3d4002ac	0.046877548
177	0xbc0f957d	-0.008763668
178	0x3d403b41	0.04693151
179	0x3d861e3e	0.06548737
180	0xbdb44e52	-0.08804001
181	0xbddf9230	-0.10916555
182	0xbce4ff81	-0.027953865
183	0xbc935e70	-0.017989367
184	0xbd44a9e0	-0.048013568
185	0x3d0075fb	0.031362515
186	0xbdd4f554	-0.10398355
187	0x3de5ac9c	0.11214563
188	0xbcddae6f	-0.027060715
189	0xbd8effc8	-0.0698238
190	0xbcb05d35	-0.02152882
191	0xbdcd50fa	-0.10025211
192	0xbddd84a4	-0.10816315
193	0x3d142cac	0.036175415
194	0xbd0c827c	-0.034304127
195	0xbd8aa118	-0.067690074
196	0x3d6c2034	0.0576479
197	0x3dc7fa5a	0.09764548
198	0x3c65a210	0.0140156895
199	0xbd7f23d8	-0.062290043
200	0x3d8b4ee6	0.06802158
201	0xbd3052a4	-0.043047562
202	0xbd6d020c	-0.05786328
203	0xbcc7a598	-0.024370953
204	0xbcf8d468	-0.03037472
205	0x3df723dc	0.120673865
206	0xbcb7c710	-0.022433788
207	0xbde67f80	-0.112547874
208	0xbd229a54	-0.03969796
209	0x3d3bd31c	0.045855626
210	0x3d5d650c	0.054051444
211	0xbdabbb04	-0.0838528
212	0xbdb45524	-0.08805302
213	0xbd11ae00	-0.03556633
214	0x3c02f5f0	0.007993206
215	0xbdd2acf0	-0.102868915
216	0x3d6bb50c	0.057545707
217	0xbcc02fa8	-0.023460224
218	0x3d94eb2e	0.072714195
219	0x3d189850	0.03725463
220	0xbca367f8	-0.019947037
221	0xbc38d3a0	-0.011280924
222	0x3d1d63b8	0.038425177
223	0xbd850808	-0.064956725
224	0xbd04baf0	-0.03240484
225	0x3d6a52a8	0.057207733
226	0xbde47d3a	-0.111566976
227	0xbccbdc20	-0.024885237
228	0x3cd52778	0.026019797
229	0xbd8405d4	-0.06446424
230	0x3d726278	0.05917594
231	0x3d7da098	0.061920732
232	0xbc9475a8	-0.01812251
233	0xbd248330	-0.040164173
234	0x3d77cd88	0.060498744
235	0x3be6bee0	0.007041797
236	0xbdc5f27a	-0.09665389
237	0x3d938ae2	0.07204224
238	0x3dfc03d4	0.12305418
239	0x3ddb1980	0.10698223
240	0xbd8d37f4	-0.06895438
241	0x3dedac42	0.11605121
242	0xbd556008	-0.052093536
243	0xbdc1fdc6	-0.094722316
244	0x3db752aa	0.08951314
245	0xbdb487e4	-0.088149816
246	0x3deb4e68	0.11489564
247	0x3dfae4ac	0.12250647
248	0xbdac0f4a	-0.08401354
249	0x3da98986	0.08278184
250	0xbcc34478	-0.02383636
251	0xbd052004	-0.032501236
252	0x3c9b5af0	0.01896426
253	0x3d41619c	0.04721223
254	0xbdae3ca4	-0.0850766
255	0x3dfb0aae	0.12257896

bias f4 [64]
0	0x3c1ddebc	0.009635624
1	0xbd80e4ac	-0.06293616
2	0xbde41a4d	-0.11137829
3	0xbcac9740	-0.021068215
4	0x3da6fd4e	0.08153783
5	0x3b95bd40	0.0045696795
6	0xbdb8a62c	-0.0901607
7	0x3dbf8d63	0.09353139
8	0xbcbcb0e1	-0.023033561
9	0xbde8ee3b	-0.11373564
10	0x3d188ebe	0.037245505
11	0xbdd1adba	-0.10238214
12	0x3d9e626e	0.07733618
13	0x3cea1429	0.028574066
14	0x3d04178a	0.03224901
15	0xbde102cc	-0.109868616
16	0x3d00119d	0.031266797
17	0xbc795793	-0.015218633
18	0xbcf418c9	-0.029796975
19	0x3d1da0df	0.038483497
20	0xbde677e2	-0.112533346
21	0xbdb700ba	-0.089356855
22	0xbdf0ea20	-0.11763406
23	0xbd34618c	-0.04403834
24	0x3d4eadd8	0.05045876
25	0x3d80dba2	0.06291892
26	0x3cf482d5	0.029847542
27	0xbd3b35ba	-0.045705535
28	0xbc96bcf5	-0.018400649
29	0x3d39cf14	0.0453635
30	0xbd58040b	-0.05273823
31	0xbdf82f43	-0.121183895
32	0xbccef938	-0.025265321
33	0xbd56f7e6	-0.052482508
34	0x3da6b874	0.081406504
35	0x3d385a8d	0.04500823
36	0x3caee274	0.021348216
37	0x3d57b451	0.052662198
38	0xbde25688	-0.11051661
39	0xbd8cf39e	-0.06882404
40	0xbdd15dd2	-0.10222973
41	0xbcf72be8	-0.030172303
42	0xbdb4b152	-0.08822884
43	0xbb5856f9	-0.0033010824
44	0xbd6aef34	-0.057357028
45	0x3d0e82f0	0.03479284
46	0xbdd92cc4	-0.106042415
47	0xbd868374	-0.065680414
48	0x3db12500	0.08649635
49	0x3db68b9e	0.089133486
50	0x3b8e6a57	0.004346173
51	0xbd6b9b98	-0.057521433
52	0xbde08386	-0.10962586
53	0x3daad3b6	0.08341162
54	0x3b1f6bc0	0.0024325699
55	0xbcae5618	-0.021281287
56	0xbc8b7d6c	-0.01702758
57	0xbcfaac70	-0.030599803
58	0x3d81427a	0.063115075
59	0xbda4366e	-0.08018194
60	0xbc016870	-0.007898435
61	0x3d9ee4ed	0.07758508
62	0xbd0071ac	-0.031358406
63	0x3d84da2f	0.06486928

weight f4 [1, 64]
0	0x3cda8700	0.026675701
1	0xbdca4752	-0.098768845
2	0x3bb9c7d4	0.0056695733
3	0xbc29fe30	-0.010375544
4	0xbd0b9114	-0.034073904
5	0xbd6f6eb0	-0.05845517
6	0x3db6e430	0.08930242
7	0x3d8df3f3	0.06931295
8	0x3de80cfa	0.113306
9	0x3de43376	0.11142628
10	0x3cba12c4	0.022714026
11	0xbd229c00	-0.039699554
12	0x3d62adca	0.05534152
13	0xbd8d6b5a	-0.06905241
14	0x3dbb6d87	0.0915175
15	0x3de51d94	0.11187282
16	0x3dbd565a	0.09244986
17	0x3da0baa3	0.07848098
18	0xbd3004e3	-0.04297341
19	0xbd4ce8b5	-0.050026614
20	0xbd38a9d0	-0.04508382
21	0xbde56b88	-0.112021506
22	0x3de72096	0.11285512
23	0xbd863a8e	-0.06554137
24	0xbb4e3c2d	-0.0031468973
25	0xbcef111b	-0.029182961
26	0x3cbcbfa4	0.0230406
27	0xbddc8d39	-0.107691236
28	0x393fa334	0.00018275977
29	0x3dcd731e	0.100317225
30	0xbd3decf6	-0.04636856
31	0x3c987637	0.018611057
32	0x3d56d1bc	0.052446112
33	0x3dbd1881	0.092331894
34	0xbdf60212	-0.12012114
35	0xbd646968	-0.055764586
36	0xbdc1850d	-0.094492055
37	0xbd892afd	-0.066976525
38	0xbd95271a	-0.07282849
39	0x3d00e2e5	0.031466383
40	0x3dc5ea46	0.09663825
41	0x3c065e90	0.008201256
42	0x3c2d2050	0.010566786
43	0xbc4de569	-0.012566903
44	0xbddd130b	-0.10794648
45	0x3df51a7e	0.119679436
46	0x3d4aef14	0.04954441
47	0xbdc315b0	-0.09525621
48	0x3cedec48	0.029043332
49	0x3db010ca	0.08596952
50	0x3d9b57cf	0.075851075
51	0x3de55ed6	0.11199729
52	0x3de0467a	0.10950942
53	0x3dc6c1d2	0.09704937
54	0xbcd57d10	-0.026060611
55	0x3d0a977c	0.033835873
56	0x3d17cf77	0.03706309
57	0xbdd9a47e	-0.106270775
58	0x3d0d3f11	0.034483973
59	0xbd9bda04	-0.076099426
60	0x3df8596e	0.12126432
61	0x3da59c1d	0.08086417
62	0x3ddd4d8e	0.10805808
63	0x3daf8c0b	0.08571633
