output/2021-12-21_ppo/2021-12-21_11-09-31-ppo_s0/pyt_save/model.pt (torch_old, 47572 bytes, 12 tensors)

log_std f4 [3]
00000000: 403e cdbf ac27 c9bf e4d2 9ebf
-1.6034622 -1.5715232 -1.2408109

weight f4 [64, 16]
00000000: 2b18 733d e2cb 373e 948d 0c3d 1ecd da3d
00000010: c093 04be 1305 f63d 7fd9 cd3d 9274 c83d
00000020: 34fc b23b 6f03 ff3d aa4c 18be ccca a2bd
00000030: 4c83 3abe ac92 4dbe 0c50 4fbd d933 8b3d
00000040: 532b 383e 5bde 5c3d c0b0 b3bd e99e fcbd
00000050: 7772 443e 7f44 8c3e e696 9bbd 1993 633e
00000060: 566b 71bd fe94 da3b fae0 8e3e bb79 80be
00000070: a168 30be 5d55 90bd ff7d f8bd c4b8 473e
00000080: 0669 e0bd 821a fabe 336e 60be 1fef 7abe
00000090: 0908 613e e21d 863e 0f11 b93d 156a f13d
000000a0: 448b bcbc f56d 21be 06f0 b83d db2b b0be
000000b0: 6b6e 63be 9382 0fbe 12b5 053e 29bb f83d
000000c0: 7544 5cbe 83c5 53be cca3 703c d2ea 843e
000000d0: 8afd 993e 2184 7fbd 5037 b63d 580f 3dbe
000000e0: 23e3 b1bd 47c1 95be 059c d2bd 5dfa 6cbe
000000f0: f3bf 233c dd03 2aba 1b57 7bbe f185 bfbc
00000100: bb7d 0d3e e8a7 0bbd c316 1c3c 50fc 6f3d
00000110: 54ba 1f3e 50fb 753e 5460 45be 21d5 bbbd
00000120: 923f c83d 3704 533e 20c3 603e b1c3 5b3e
00000130: da53 183d 1a00 5bbe c1d1 633c b0db 27be
00000140: 9267 afbe 6cba b83e 5950 743e f15c f6be
00000150: cac7 8ebd 7b86 20be 5985 2ebd cc0b 8cbd
00000160: c916 27bd 6fbd babd d484 143d bd92 7e3d
00000170: decc 7c3e 2b42 163e e7d7 97be d173 d4bd
00000180: 633d 943d 7239 893b 855e c0be 86aa 9f3d
00000190: cbe5 993e faf1 d33d 4060 49bd 70c7 63bd
000001a0: 1439 75be eb05 a4bb 22e3 36be d17d 3fbe
000001b0: 59eb 88bc f769 213d 738b d2bd 573d 173e
000001c0: 46b5 b7bd 19a9 193e ad81 0a3e b075 a5be
000001d0: 0a0a 27bc da1f 743d 129a 003c 09ab 963d
000001e0: 8bbe a13d 3a35 b23a ab8a d9bd aaec 063e
000001f0: bff6 81be 15d5 07be c2ff 99bd edb3 0bbe
00000200: c075 a43c 9d08 c2be 8773 c6bd ef94 0dbd
00000210: f290 a13c ae3a a63d 6ff2 db3d 3085 d6bc
00000220: 4f91 a53d e179 8dbd bb82 b93d 58fc 5a3e
00000230: 2f90 463e cef9 e43d 5f50 603e d656 89bd
00000240: 1398 abbe db55 eabd 9ee0 123f 9c91 3a3e
00000250: 373f 0dbe 785d 94be 550b 3cbe b9db 96be
00000260: a34b bebd e69f 2d3e fc30 be3c a95c 88be
00000270: f3dd 3e3e 0b4d 59be 7719 8cbd b587 8dbd
00000280: 19aa 7dbe 2c70 923a 12c6 37be 9418 84bc
00000290: 934b 8bbd 3ed7 52be 2f50 f6bd 270e 3c3d
000002a0: 00e7 98be 6365 57bd d653 493e 7950 15be
000002b0: 40ca 453e b700 773c 77a9 8fbe 87fc fb3d
000002c0: 0447 c1bc a5b9 efbd cf6d 4a3e 7c6f 10be
000002d0: 8808 113d 8b15 4abd 7aa9 513e 619f 7a3d
000002e0: d8c3 d93d 6532 ce3d 60dc abbd f4c8 9dbd
000002f0: 6b73 4cbe 4d95 0d3e 8466 303e afc7 3c3e
00000300: f38b 25be 8528 26bd d18c dbbe efd2 89be
00000310: 7150 eabd 1da5 da3d 7327 82be 3776 e5bd
00000320: 866e 92bd e312 a93d 6a4c 3fbe 2470 45be
00000330: 4715 80be f9ba 413d 2c39 40be 87c3 e93d
00000340: acb7 2f3e 6380 333e 8a3f 00bf 59c2 3e3c
00000350: 0032 dfbd 956b 9c3c 63ab a6bb 05ca 983d
00000360: 3422 15be 8e26 17be 8247 673e b882 2cbe
00000370: 888a 11bd 3abc 853e de29 dd3d 2fbf 0bbc
00000380: d34e 8cbe ab5f e13d f913 18bf cb99 fdbc
00000390: 4703 95bd c6f7 b7bd f422 db3c d2db e83d
000003a0: 6a67 e93c 2464 713e bf94 cf3d 6d71 70be
000003b0: cc2c ef3d f59b 60be 38b8 bfbd 9860 b13d
000003c0: 0735 18be 7e1e e13d a632 a1be 0d3f 263e
000003d0: a898 5b3e 3d15 f9be d5d9 553e cfd5 49be
000003e0: 71bd eabc ef3d 41bd f202 f8bd a455 e93c
000003f0: 8903 513e 4132 ecbd 36d9 22be 95a7 c9bd
0.05934922 0.17948869 0.034314707 0.10683654 -0.12946987 0.120126866 0.1005125 0.09787859
0.005462194 0.12451827 -0.14872995 -0.07948837 -0.18214148 -0.20075482 -0.050613448 0.067969985
0.17985277 0.053922992 -0.08773947 -0.12334997 0.1918429 0.27396008 -0.07597141 0.22224082
-0.058940254 0.0066705933 0.27906018 -0.25092873 -0.17227413 -0.07047532 -0.12133407 0.19504076
-0.10957532 -0.4884835 -0.21917038 -0.2450528 0.21975721 0.26194674 0.09036457 0.11787812
-0.023015626 -0.15764602 0.09030156 -0.3440846 -0.2221009 -0.14014654 0.13057354 0.12145073
-0.2151049 -0.20680813 0.01468749 0.25960404 0.30076247 -0.062381867 0.08897269 -0.18462884
-0.08685901 -0.2924902 -0.102836646 -0.23142381 0.009994495 -0.0006485561 -0.24544947 -0.023379298
0.13817494 -0.034095675 0.009526911 0.058590233 0.15598422 0.2402165 -0.19275028 -0.091715105
0.0977775 0.20607077 0.21949434 0.21461369 0.037189342 -0.21386757 0.01390499 -0.16392398
-0.34258705 0.3607973 0.23858775 -0.48117784 -0.069717005 -0.156763 -0.04260764 -0.068381876
-0.040793214 -0.09118163 0.036259487 0.06215166 0.24687526 0.14673679 -0.29656908 -0.10373653
0.07238271 0.004187756 -0.37572113 0.07796197 0.3005813 0.10348888 -0.049164057 -0.05561012
-0.23947555 -0.0050055883 -0.17860082 -0.18700339 -0.016713785 0.039407697 -0.10280504 0.14769493
-0.08970122 0.15005912 0.1352603 -0.3231635 -0.010195265 0.05960069 0.007849233 0.07356841
0.07897671 0.0013596185 -0.10622152 0.13176218 -0.25383565 -0.13264878 -0.07519485 -0.13642855
0.020075679 -0.37897196 -0.09690004 -0.034565862 0.019722436 0.08116661 0.107396 -0.026186556
0.08084356 -0.06908012 0.09058138 0.21385324 0.19390939 0.11180459 0.21905659 -0.06706016
-0.3351446 -0.11442157 0.5737399 0.18219608 -0.13793646 -0.2897756 -0.18363698 -0.2946451
-0.0929177 0.16955528 0.023216717 -0.26633194 0.18639354 -0.21220796 -0.068407945 -0.0691065
-0.24771918 0.0011172346 -0.17946652 -0.016125001 -0.06801524 -0.20589921 -0.120270126 0.045911934
-0.2986374 -0.052586924 0.19660887 -0.14581479 0.19315434 0.015075854 -0.2805898 0.12304025
-0.023593433 -0.11705331 0.19768451 -0.14105028 0.035408527 -0.04933695 0.20474806 0.06118715
0.10633057 0.10068206 -0.083916426 -0.077043444 -0.19965903 0.13826485 0.17226607 0.18435548
-0.16166668 -0.040565986 -0.42880872 -0.26918742 -0.11441124 0.10676024 -0.25420722 -0.11204188
-0.07149987 0.082555555 -0.18681493 -0.1928106 -0.25016233 0.04729745 -0.1877181 0.11414247
0.17159909 0.17529444 -0.5009695 0.011643016 -0.108982086 0.019094268 -0.005086349 0.07460407
-0.14563829 -0.14760801 0.22585872 -0.1684674 -0.035532504 0.26120168 0.10799001 -0.008529468
-0.27403888 0.11004575 -0.59405476 -0.030957123 -0.07276016 -0.08982806 0.026750065 0.113700524
0.028491694 0.23573357 0.10135793 -0.23480769 0.11678466 -0.21934493 -0.09361309 0.08661002
-0.14863978 0.10992144 -0.31483954 0.1623499 0.21444952 -0.48649016 0.20883878 -0.19710468
-0.028654786 -0.047178205 -0.12109937 0.02848322 0.20411505 -0.11533023 -0.15903172 -0.09846417

bias f4 [64]
00000000: 8f2d 313d 45cc 85be f89f 22be 42b1 e03b
00000010: b86e b5bd 513e 643e e656 4b3e 2195 b43c
00000020: cf12 94bd b3e2 36bd d9b9 53bd 7c71 843d
00000030: ed50 8bbe 28a7 99bd fd32 41be f4ab 153e
00000040: bb4b 09be e6c8 5e3e e1f4 d1bc fde1 c8bd
00000050: 7da1 113e beff e23c 7638 333e b88c 173e
00000060: 278b 7fbe 1a93 2f3e ff3d d2bc 86fe bbbd
00000070: ae04 773e 96ca 2d3e d295 6bbe ab21 0d3a
00000080: 11a1 513e c06a 1d3e a294 5d3e 3d8d b1bd
00000090: a34f 27be 31e4 7b3e b228 4f3e 7bca 883e
000000a0: 75d1 c2bd b55a 26be 6eba b23b 21a1 7abe
000000b0: 732e 063e d5b7 373e 9f97 573d 0030 acba
000000c0: dc26 043e 5e3b d2bd 80b5 883e 0e44 91be
000000d0: aa27 93be bcf4 26bd a9ba 493e 3338 aebc
000000e0: 772e 083d e912 6abe 4b04 be3d d282 29bd
000000f0: 38b7 4d3d 398b 383e 18b8 553e 7ecf 21bd
0.04325634 -0.26132408 -0.15881336 0.0068570683 -0.088590086 0.22289397 0.19857368 0.022043766
-0.0723015 -0.04464979 -0.05169091 0.06466958 -0.2721018 -0.07502586 -0.18867107 0.14616376
-0.13407795 0.21756324 -0.025629463 -0.09808729 0.14221759 0.027709838 0.17502007 0.14799774
-0.24955426 0.17145959 -0.025664328 -0.09179406 0.24122879 0.16971812 -0.2300637 0.000538374
0.20471598 0.15372753 0.2163873 -0.08669517 -0.16338973 0.24598767 0.20230368 0.2671698
-0.09512607 -0.1624554 0.005454353 -0.24475528 0.13103656 0.1794122 0.05263483 -0.0013136864
0.12905449 -0.1026523 0.26700974 -0.28372234 -0.287412 -0.04076074 0.19700111 -0.021267032
0.033247437 -0.22858776 0.092781626 -0.041384526 0.05022356 0.18021859 0.20871007 -0.03950452

weight f4 [64, 64]
00000000: e84f 95bc af83 9cbb 2d7e 14bd d529 893d
00000010: ae68 68bd cb87 f93d e01b 15bd 7e79 12bd
00000020: d9d5 f73a c9ab afbd 37a0 253c cb21 c4bb
00000030: f9a6 c1bc 6df9 a0bb 5021 b33d 4f45 c33d
00000040: 9ef4 b0bd ba2b 2f3d 6a95 adbd bdaf 12be
00000050: ca9b 373d 0744 903c 8aee 98bd 55bd e9bd
00000060: e410 2fbd a496 1b3d 62fb 53bd b370 11be
00000070: e930 cbbc 7624 54bd 8d1d 08be c7a3 33bd
00000080: bf8a 4ebc 4fd0 29be 5f4d a5bd 9654 973c
00000090: ae89 01be 793c 18bd 717e 89bd ddcf 77bd
000000a0: d89e 3a3d 9f97 cdbd 9236 bdbd 0644 a93d
000000b0: 0114 f13c de62 ea3d a3de 8dbc 7b94 6bbd
000000c0: b8f9 cb3c 6f9a 22bd bf48 d03d e4f4 eebd
000000d0: 20d8 ebba 9884 663d ff09 a8bd 829a 83bd
000000e0: 3e4a 0d3d 37e9 ebbd 305a 2b3d 0a51 f0bd
000000f0: d541 e43d 6657 cdbd 6d9a c03d 878c 18be
00000100: 6e6b e0bd decd 00bc 78fb 923d 0f6e 2bbe
00000110: a665 78bd c38b d93d f9b4 4dbc 5ea0 3f3d
00000120: 0358 dbbd 820e 17bd e7a3 1bbd ecd4 e13d
00000130: 455d cb3c ceed cbbd 2b80 bbbc 996e 593c
00000140: 150e 4abc fc31 abbd 32c7 98bd da06 e33d
00000150: 0a82 adbd 5fe9 b6bd 74e4 abbb 0030 e53b
00000160: 2894 203d 20d2 273c 8b8f 0bbd 0ecb e4bd
00000170: 18a6 4abd ee58 bbbd 43fe e03d c380 00be
00000180: 0283 aabd 2369 07be f4bb 89bc 096f 013e
00000190: 53d2 f83d 9b91 09be fc3e d63c a56b 7e3d
000001a0: ac2b 613d 726b d33d 1b8e cabb 4afd 9dbd
000001b0: aa67 b13d e22f 1ebd 412c 4c3d 9a46 e9bc
000001c0: 1335 2b3d 4a5b c73d 2f32 f73d 6586 e2bd
000001d0: 9b07 cabd a829 acbd b09a fabd e931 fd3d
000001e0: 1be3 5ebd 4c08 58bd f42d b7bd fdd3 92bd
000001f0: df55 873d f449 d5bd ae75 12be c2cb 1fbe
00000200: 96d7 8d3d 0f5d cf3d 76d5 6bbd 810b 703d
00000210: 1ae8 b63d 34d9 7a3d bd01 afbc 7802 cf3b
00000220: 8b9e 9ebc 6a38 843d 0f62 c4bd 8ee2 873d
00000230: 03e7 9d3d ce0b 6ebd 46bb d43d c7b6 da3d
00000240: 8e98 9ebd 037b 20bd 685e af3d faed 0cbe
00000250: f39c 563d 047b eb3c 976a 593d 8eef d8bd
00000260: fa95 d1bd 7ce5 583d 0378 a43d 8282 fdbd
00000270: 9dcb 98bd 303f 9cbd b22c a2bd 381c 57bd
00000280: f1cc e23d e616 2abd 9f8a ae3d 1d8b c53d
00000290: c44c 273d d3d6 d2bd 910c f43c cb9f aa3d
000002a0: b254 bd3d 0c47 04be 98b1 933d 04e9 ca3d
000002b0: d839 e7bd 3cee 2e3c ec44 ed3d 32e9 aabd
000002c0: fcaf 603d 7621 3d3d 6936 123d db21 1a3e
000002d0: 75ba 053e 7c9e f33d 8bb0 febb 051a 0a3e
000002e0: 39c9 a6bd 78e5 9bbd f470 edbb 6a4e 66bd
000002f0: ab91 ff3d 15a1 7d3d 84d6 c63d 6731 d53d
00000300: aed8 cabd 3ce6 e93b 2721 3b3d a006 5b3d
00000310: 12ba 513d e932 5ebd 6305 d0bc 908d bb3d
00000320: 7f81 99bc 3c6e f5bd 1660 9d3d 101e c83d
00000330: 4f52 83bc 6b40 393c c739 a9bd dc57 18be
00000340: 1404 a03c 435e afbc 41c4 e53d c6d5 d2bd
00000350: 2aac 89bb a7a6 bd3c e6b7 833d e726 e83d
00000360: e654 c43d 706b 1b3d 223d bebc f69d 91bc
00000370: 90ca c2bd 5468 143d 06e7 f23d 1793 2ebc
00000380: 6577 e8bb 17ad 92bd 9956 8c3d 7728 c73d
00000390: 85b8 1bbe 0234 afbd a874 8b3d 1695 a43c
000003a0: af73 eabc 8ba7 bd3b 075c 42bc d79a f8bd
000003b0: 131a d4bd 1992 c23d fa8c d8bc 6bb9 61bc
000003c0: 9fec 1abc 630b 93bd cb75 c1bc 3ca8 edbd
000003d0: 5a57 083e 16b3 aa3d 6c87 f0bc e644 7bbc
000003e0: 5827 b73d 245c 9ebd f7f4 cf3c 962f 5c3c
000003f0: 3fe9 b4bd 4cd1 353d badf f03c dbc6 043e
-0.018226579 -0.00477644 -0.036253143 0.06697432 -0.056740455 0.121841036 -0.036403537 -0.035760395
0.0018908336 -0.08577687 0.010108999 -0.0059854737 -0.02363919 -0.0049125464 0.08746588 0.09534704
-0.08640407 0.04276631 -0.08475764 -0.14324851 0.044826306 0.017610563 -0.07467373 -0.11413065
-0.042740718 0.03798546 -0.05175341 -0.14203148 -0.024803596 -0.051792584 -0.13292523 -0.043857362
-0.012606322 -0.1658337 -0.08071398 0.01847295 -0.12650177 -0.037167046 -0.0671357 -0.06050097
0.04556164 -0.10038685 -0.09238924 0.082649276 0.029428484 0.11444639 -0.017318076 -0.05751465
0.024899349 -0.03969806 0.10170125 -0.11667803 -0.0017993487 0.056278795 -0.082050316 -0.064259544
0.03449463 -0.115190916 0.041834056 -0.11734207 0.11145369 -0.100264356 0.094044544 -0.14897357
-0.109579906 -0.007861583 0.0717687 -0.16741203 -0.060643815 0.106223606 -0.012555354 0.046783797
-0.10710146 -0.03687907 -0.037998106 0.1102694 0.024824748 -0.09957467 -0.022888264 0.013270997
-0.012332459 -0.08359143 -0.074598685 0.11085291 -0.084720686 -0.08931231 -0.0052457396 0.0069942474
0.039203793 0.010242969 -0.03407244 -0.11171542 -0.049474806 -0.09147821 0.109859966 -0.12549119
-0.08325769 -0.132237 -0.016813256 0.12640013 0.12149491 -0.1343445 0.02615308 0.062114377
0.05497329 0.10323228 -0.006181491 -0.07714327 0.086623505 -0.038619883 0.04984689 -0.028476048
0.041798662 0.09734209 0.12070119 -0.1106079 -0.09864732 -0.08406383 -0.122365355 0.12363035
-0.054415803 -0.052742288 -0.08944312 -0.0716934 0.066081755 -0.10414496 -0.14302704 -0.15605071
0.069258854 0.101251714 -0.05757662 0.05860472 0.089309886 0.061242297 -0.021363134 0.006317433
-0.019362709 0.06456073 -0.09589016 0.06635009 0.077100776 -0.058116727 0.10387282 0.10679393
-0.07743941 -0.039179813 0.085629284 -0.13762656 0.052395772 0.028745182 0.053080168 -0.105925664
-0.10233684 0.05295323 0.08030703 -0.12378408 -0.07460711 -0.076292396 -0.07918681 -0.052517146
0.11074246 -0.041525744 0.085225336 0.096456744 0.040844694 -0.10294881 0.029791148 0.08331259
0.0924467 -0.12917727 0.07211608 0.099077255 -0.1129033 0.010676917 0.115854114 -0.0834526
0.05485533 0.04617449 0.03569642 0.15051977 0.13059409 0.11895463 -0.0077725104 0.13486488
-0.08143849 -0.07612127 -0.007246131 -0.056227125 0.12478956 0.061921198 0.09708884 0.104098134
-0.099046096 0.007138042 0.045685913 0.053473115 0.05120284 -0.05424777 -0.025393194 0.0915786
-0.018738506 -0.11983916 0.076843426 0.09771359 -0.016030459 0.011306862 -0.08262973 -0.14877266
0.019533195 -0.021407252 0.11219073 -0.1029468 -0.0042014318 0.023150755 0.0643156 0.11335545
0.095865056 0.037944257 -0.02322251 -0.017775517 -0.09511292 0.036232308 0.118604705 -0.010655186
-0.007094311 -0.071619205 0.06852455 0.09724515 -0.15207107 -0.085548416 0.0680936 0.020090621
-0.028619615 0.005787795 -0.011862761 -0.12138908 -0.10356536 0.09500522 -0.02643441 -0.013777117
-0.009455829 -0.07179906 -0.023615738 -0.11604354 0.13314572 0.08334939 -0.02936145 -0.015336251
0.08943051 -0.07732418 0.025385363 0.01343908 -0.08833551 0.044389054 0.029403556 0.12966482

bias f4 [64]
00000000: 91bd 9d3d 95cb 5dbd c8f8 943d 7d07 943c
00000010: af15 a53d d6b1 e63d e633 ccbd 5821 ee3d
00000020: 6ee8 db3d ddf4 cbbd 0fef 533d 0268 afbd
00000030: ef81 333d d3c7 053d 6217 fcbd 9994 383d
00000040: eb59 dbbc fc9a 063e 52b7 fb3d 475c 223d
00000050: 2a45 d73d 14cc 363d 0a6f 023e 4d28 61bc
00000060: 80a9 003d 03c5 1dbd 251d bcbb 964c f9bc
00000070: eafc 4cbd 63fb 993d 0982 5f3d 7219 4bbd
00000080: 7d7e dbbd 4e85 723d 4866 f7bd 8547 b23b
00000090: 6102 b6bd 33fe e23d 724c c43d 0984 dbbd
000000a0: ec89 ddbd 00d1 91bd 9933 0f3d 30a8 87bd
000000b0: 8a3f 8dbc 0d13 c6bc 040d 1b3d 0259 8abd
000000c0: ad5d 593d 51d2 a9bd 4f43 b3bb df0c e03d
000000d0: 5ec9 9abd 3b96 c83d 8ca4 9c3d e4a9 82bd
000000e0: b360 c63c af99 c6bd 8633 553c 42c6 183d
000000f0: 66c2 f13d 2a96 94bd c4dc 8bbd 569c 78bd
0.077021725 -0.05414923 0.07274014 0.018069977 0.080607764 0.11264388 -0.09970836 0.116274536
0.10737692 -0.09958813 0.051741656 -0.0856476 0.043825086 0.03266127 -0.123091474 0.04506359
-0.026776275 0.1314506 0.12290825 0.039638784 0.10511239 0.044628218 0.1273767 -0.013742519
0.031411648 -0.038517963 -0.005740779 -0.030432027 -0.050045885 0.07518651 0.05456737 -0.049584813
-0.10717485 0.05920916 -0.120800555 0.0054406547 -0.088871725 0.11083641 0.09584893 -0.10718543
-0.10817322 -0.07119942 0.034961317 -0.06623876 -0.017242212 -0.024179006 0.03785421 -0.06755258
0.05306785 -0.08292068 -0.0054706703 0.10939955 -0.07557939 0.09794279 0.07648572 -0.0638006
0.024216032 -0.096972816 0.013012772 0.03729845 0.11804657 -0.07255204 -0.06829217 -0.06069597

weight f4 [3, 64]
00000000: 5101 efbd d45b 163d 0563 e8bd b482 28bd
00000010: d691 c93b e917 fb38 c6e8 d33c a2d4 a8bd
00000020: 1e6e 82bd 324b 06bd f43f 96bd 032e d13c
00000030: 9b3c 243b 894a bbbd 4598 903d 8644 873d
00000040: 5c4e 06bd 7037 c93b 8cd8 c63c 80a1 c8bc
00000050: 0d16 85bd c64b e53d 0f71 883d 5efb bcbd
00000060: 24c1 8bbd 443c f53d 7510 993b 3b4e c23c
00000070: f9b1 933d 5da1 fb3c d1ed b13b 2b04 ca3d
00000080: bd6a dfba 799b 063e 35c3 15bd f7c0 91bd
00000090: 8a24 b83c 7f0d 623b 8280 4e3d 3f7f 8d3b
000000a0: 78bb 283d bfa2 3fbd ce24 a93d be68 1bbc
000000b0: a810 b0bb 8a6e d43d 0905 c63d 4c79 063e
000000c0: 3963 dfbd eef8 16bd 5744 46bd 8bad 28bd
000000d0: 6acf 623d 0e5b 493d c1a6 eeb9 41a2 af3b
000000e0: 4bc5 103d 5e5b cb3d b297 393d 4053 50bd
000000f0: d2f2 9abd ddde 723d ae60 a9bc ad32 9abd
00000100: e357 fcbd 7f3f c43c d05b 5ebd f9b1 81bd
00000110: 0cd2 323c abe2 e93d cd35 953d 49cf a03d
00000120: c165 bebd 3c0c 5f3d f37b 643d ee0c f13c
00000130: c7fe 8abc f6d5 2abc 2b7a dbbc f9fe debc
00000140: 7895 5bbd 01ce fcbc 9c74 fcbd 09ea d33c
00000150: 5d68 b9bd 3dc8 adbd deba 673d c28a e9bd
00000160: 8f90 d93d 3add e53d ca87 33bd 4401 84bd
00000170: 9eca f2bd 59ac a5bc f6ba 4fbc f6ba aabd
00000180: 13c8 323d 51b8 fb3a 25de fabc 36c9 283b
00000190: f6b3 fcbd e4f9 6fbd 7f84 a43c f167 df3d
000001a0: 4332 58bb 9586 d83d a28c ac3b 77c6 6ebd
000001b0: cd4b 9abb 539b 213d 8b81 9c3c 6ba8 aa3d
000001c0: 3d32 73ba a95f f1bd 26d1 ce3d d84c 6dbc
000001d0: 2714 8a3d fe4c 9a3d 08c2 28ba e843 abbd
000001e0: 378f babd 5a9f 8b3d 12a5 d03b 9007 873d
000001f0: 4876 a6bd 51ec 13bc fef6 e13d 7e84 243d
00000200: 37cd c83d 7163 f33d 8829 7e3c ee8d 8fbd
00000210: 6283 26bd 5287 893d cbf3 26bd 1c6f 133b
00000220: 41e7 a53c db23 bf3c 937c 853d 904c 933d
00000230: bd28 0cbd 9459 913d c6a6 1ebd 8ac2 09bd
00000240: 5f49 253a f9a9 fbbc 95f5 c43d 7de7 023b
00000250: 693d 223d 7d74 b03b 8400 a23b 94a1 82bd
00000260: 27f7 0cbc 00ed d3bd 99aa 33bd 35eb fa3d
00000270: 7173 d9bd 8849 eb3c 63f8 633d bd89 15be
00000280: dfc6 85ba 8cd2 4c3d 80b6 803c 0aee 82bb
00000290: dfa5 8f3d cde9 b63b 10d2 be3c 2458 343d
000002a0: 7e91 98bd 830a 03bd 90a7 b3bd 5f21 a23d
000002b0: 92ca 443d fe38 88bd b352 d2bc 266f 413d
000002c0: 520d debd 3cb9 2b3d bbdd 523d de3c debb
000002d0: db12 9dbc b367 8d3d 16e2 8a3d 2dcd cfbd
000002e0: bd13 823d 0c5b c0bd 0a67 9e3d f45c 123e
000002f0: a7bf 143b 6343 21bd 0a00 85bd 0978 b8bd
-0.11670173 0.036708668 -0.113470115 -0.041140273 0.006151418 0.00011973066 0.025867831 -0.082436815
-0.063686594 -0.032786556 -0.07336417 0.025534635 0.0025060538 -0.09145076 0.07060293 0.06604867
-0.032789573 0.006140642 0.02427318 -0.024491072 -0.064983465 0.11196093 0.06662189 -0.09227632
-0.06823948 0.119743854 0.0046711513 0.023718944 0.0721168 0.030716592 0.0054299613 0.09864076
-0.001704536 0.13145246 -0.036563117 -0.07116883 0.02247836 0.0034492908 0.050415523 0.0043181474
0.04119441 -0.046786066 0.08258973 -0.009485422 -0.0053730793 0.10372646 0.09668929 0.13132209
-0.10907597 -0.03685849 -0.048405018 -0.04118113 0.055373587 0.049159102 -0.0004551914 0.0053599183
0.035344403 0.09929536 0.045310684 -0.050860643 -0.075658455 0.05929457 -0.020675983 -0.07529197
-0.123214506 0.023956059 -0.054286778 -0.06332774 0.010914337 0.114201866 0.07285652 0.078520365
-0.09296752 0.054455027 0.05578227 0.02942511 -0.01696719 -0.010426989 -0.026791653 -0.02722119
-0.05360934 -0.030859949 -0.12326929 0.025868433 -0.09053109 -0.08485458 0.056574695 -0.11403419
0.106232755 0.11223836 -0.04383067 -0.06445554 -0.118550524 -0.020223783 -0.012678852 -0.08336441
0.043647837 0.0019204711 -0.030623505 0.0025754697 -0.12339012 -0.058587924 0.02008271 0.10908497
-0.0032988943 0.105725445 0.005265788 -0.05829474 -0.004708743 0.03945477 0.01910474 0.083329044
-0.00092772004 -0.11785824 0.10098486 -0.014483653 0.06742125 0.07534216 -0.00064376043 -0.083625615
-0.09109347 0.06817503 0.006367334 0.06593239 -0.08128029 -0.00902851 0.11033438 0.040165417
0.098047666 0.11884201 0.0155128315 -0.07009493 -0.04065264 0.067152634 -0.040759843 0.0022496646
0.020251872 0.023332527 0.06517901 0.071923375 -0.03421854 0.07097164 -0.038733266 -0.033632793
0.00063051836 -0.030720698 0.096171536 0.0019974404 0.039609347 0.0053849802 0.004943909 -0.06378475
-0.008603848 -0.103479385 -0.043863866 0.122518934 -0.10617722 0.028721586 0.055656802 -0.14603324
-0.0010206363 0.05000548 0.015712023 -0.0039956616 0.07014059 0.0055820704 0.023293525 0.04402937
-0.074496254 -0.031992447 -0.087721944 0.07916521 0.04804475 -0.066514954 -0.0256742 0.04722514
-0.108423844 0.0419247 0.05148099 -0.0067821583 -0.01917403 0.06904545 0.06781404 -0.10146556
0.06351421 -0.09392366 0.07734497 0.14293271 0.0022697242 -0.039370906 -0.06494148 -0.0900727

bias f4 [3]
00000000: 368e dbbc ffe1 63bd 5826 033e
-0.02680121 -0.05563545 0.12807596

weight f4 [64, 16]
00000000: 4cd9 dcbd a093 d43d 4665 6dbe 08c1 013e
00000010: 70d5 593e a084 37be 20a2 82bd 500f 743d
00000020: d80c 75be e0f9 21be d410 b23d aa0f 713e
00000030: f8f4 98bd 0036 15bb 2620 77be 90b8 75be
00000040: e8b3 853e 2b43 c73e 62a1 6dbe e205 06bd
00000050: fc0e 31be ad17 3b3e 639a dbbe 88ba 5abe
00000060: cb37 88be 0f1e adbe d9a3 1abe d716 843e
00000070: 1798 31be e672 d1be e5e4 8abe 8805 e8bc
00000080: 4498 6abe 5daf 013f 73bf bf3e 87dc 1cbe
00000090: 1c70 20bf 149c e3be 5563 b63d ed45 dd3c
000000a0: aad0 17be 1fc7 08be 2f51 76be 4141 09be
000000b0: c176 a13e 980f 6c3e 8eaf 2d3e 9586 3ebd
000000c0: e1ce 8b3e 93fb 0c3f 7424 22be 76eb 50bf
000000d0: ed95 f0be 7c03 1d3f 2ba0 62be bc31 553e
000000e0: afc3 313d 500f 30be 7647 e13d 7399 d63e
000000f0: 6e4c 40be 75b9 05be 1c69 273e a2f4 febd
00000100: 02f1 b93c 557b a4be 3f37 d3bc d84b f8be
00000110: bf75 ed3e e7eb 37be 930c 86be 8485 3dbe
00000120: 6104 05bf 73be abbd 1852 46be b86f 9dbe
00000130: b645 29be f4f3 b0bd 1612 ed3c d35f a1be
00000140: ce2f 6f3f 7c1c 593f 73b5 e93c e25e 56bf
00000150: e422 67bf e950 843f f922 69be 1804 8fbe
00000160: 54aa c03e 3330 08bf 7baf 9c3e adcc d23e
00000170: 9415 b5be 98d8 77be f451 b13e c268 dfbd
00000180: 0fc6 8bbe 44c1 fb3e 4db9 493e c634 263f
00000190: 2821 15bf b07f 6dbe 8629 6abe 9357 813e
000001a0: 1aa8 673d 66da 91be cd2a cbbd 9049 0d3f
000001b0: 47f7 14be e3d3 b73d 9498 27be 9ac0 48be
000001c0: cc4c 0a3f f580 c4bd 3868 22bd c117 c7be
000001d0: f2ab 7b3e a2c1 853e 99d9 e0be 9a54 2d3e
000001e0: 9f7d 0ebe 2844 3bbe 9ee5 b23e a852 3c3e
000001f0: d6d3 a8be 7cbe 96bd 3038 003e 5afe 3abe
00000200: f079 0540 93cd c83d e4bc b8be e8f6 07bf
00000210: 201a dcbc 15df e13f f82b 18be f416 833e
00000220: e90d d03e 5e60 7ebc 7c34 ea3e 312d b93e
00000230: bab5 24be 9c53 13b9 87c3 3f3e 203c 27be
00000240: e015 61bf f5ff e5be 214c eebd 30aa 2d3f
00000250: aaab 8a3d 1ce3 26bf c5a2 d23e a548 ffbd
00000260: 2973 19be 055e da3e 2ced 5dbe 3098 cebe
00000270: 6789 013f 530e 30be 0dc2 64be 7b67 823e
00000280: 2690 9d3f 310c ccbe 7aab dcbe c512 b9bf
00000290: 0090 f93e b367 bb3f 9549 45be 3355 e2be
000002a0: f4b1 a93e a851 083e 5ad3 c0be 9d8b 6a3d
000002b0: 6d12 ac3d 9c49 8ebe b5c8 193f 38c9 f13d
000002c0: a36e f9be d5a0 35c0 2376 d33e 1f9c 6f3f
000002d0: 0ea7 2140 6b2e 17bf a3b2 d6be f795 1cbe
000002e0: aa3f 1a3f 8dd6 cfbe 9014 74bd 2120 113f
000002f0: 4380 073d 8b3c 893c 8946 733d dbbd 36be
00000300: 8b4b 94bf 1da7 803f acf6 98be 823f 8dbf
00000310: d4ad acbf fb83 a2bf ff05 00bd 853e 8ebe
00000320: f3f5 1bbe 5332 09bd a4de 25bc 341e 6fbc
00000330: 476a d23e f890 8cbd 6621 07bf 597e cc3e
00000340: 8903 3abf 6478 59bd 8004 32bf e21f 73bf
00000350: 4f5f 323d d445 1dbf 4ec6 a6bd f182 1bbe
00000360: 69fa 68be 7f41 73be 849f 813e 703f b23d
00000370: 3268 e03d aaaf 44be b2e9 24bf dbf0 afbc
00000380: f3d4 05be 015b e3bd 99d8 273e dfd0 013e
00000390: 5fc3 27bd 8eb1 4c3e 9b3f a53e fb6f f0bd
000003a0: 9ed8 83be d8c4 2fbd 4768 0abe e3a5 41be
000003b0: f60d 753e 1b9c bdbd 6d4c a63e 383c 1b3e
000003c0: 3cb8 9cbf bda4 0740 c910 403f 3c81 ff3e
000003d0: e96b 1bc0 e240 95bf 3991 cb3e d53f ad3e
000003e0: 0593 cbbe 682d b1bd a016 463e 78e4 17bf
000003f0: 6b4d 9a3e f8ed ba3c 9cf9 52bd ec98 043e
-0.107836336 0.1037972 -0.23183164 0.12671292 0.21272826 -0.17921686 -0.06378579 0.059584916
-0.23930681 -0.15817976 0.08694616 0.23541132 -0.07468599 -0.0022767782 -0.24133357 -0.23996186
0.2611382 0.38918433 -0.23206094 -0.032720454 -0.17290872 0.1827075 -0.42891225 -0.21360219
-0.26605067 -0.33811995 -0.15101565 0.25798675 -0.17343174 -0.40907973 -0.27127758 -0.02832295
-0.22909647 0.5065821 0.37450752 -0.153185 -0.62671065 -0.44455016 0.08905665 0.027010882
-0.14825693 -0.13357209 -0.24054407 -0.13403799 0.31535915 0.23052824 0.169615 -0.046515066
0.27306274 0.5507137 -0.15834218 -0.81609285 -0.46989384 0.6133344 -0.22131412 0.20819753
0.04339951 -0.17193341 0.10999958 0.41913947 -0.18779156 -0.13059027 0.1634869 -0.12449004
0.02269793 -0.32125345 -0.02578318 -0.48495364 0.46378896 -0.17961083 -0.26181468 -0.18507963
-0.51959807 -0.08385935 -0.19367254 -0.30749297 -0.16530499 -0.0864028 0.028939288 -0.3151842
0.9343232 0.8480909 0.028528905 -0.8373853 -0.90287614 1.0337192 -0.22767247 -0.2793281
0.3762995 -0.53198546 0.3060263 0.4117178 -0.35368025 -0.24203718 0.34632838 -0.10908653
-0.27299544 0.49170887 0.19699593 0.64924276 -0.5825372 -0.2319324 -0.22867402 0.25262126
0.0565568 -0.28486937 -0.09920273 0.5519037 -0.14547454 0.08975961 -0.16366798 -0.19604722
0.5402343 -0.09594909 -0.039650172 -0.3888531 0.2457731 0.26124293 -0.43916014 0.16926804
-0.13915108 -0.18287718 0.3494081 0.18390906 -0.32974118 -0.07360551 0.12521434 -0.1826109
2.0855675 0.09804835 -0.36081612 -0.53111124 -0.026867926 1.7646204 -0.14860523 0.2560345
0.40635613 -0.015525905 0.45743167 0.3616729 -0.16084948 -0.0001405016 0.18726932 -0.1633153
-0.87924004 -0.44921842 -0.11635614 0.6783781 0.067710236 -0.6519029 0.41139808 -0.12465028
-0.14985336 0.42649856 -0.21672505 -0.40350485 0.50600284 -0.17192964 -0.2233965 0.25469574
1.2309616 -0.3985305 -0.43099576 -1.4458853 0.48742676 1.4641021 -0.1926635 -0.44205627
0.3314358 0.133124 -0.37661248 0.05726205 0.08401952 -0.27790534 0.6007188 0.118059576
-0.48717222 -2.8379414 0.4130107 0.93597597 2.5258212 -0.59055203 -0.41933164 -0.15291582
0.60253394 -0.40593377 -0.059589922 0.5668965 0.033081304 0.016752502 0.05939344 -0.17845862
-1.1585554 1.0050999 -0.29875696 -1.1035006 -1.3490548 -1.2696527 -0.03125572 -0.27782074
-0.15230541 -0.03349526 -0.010123882 -0.014594603 0.41096708 -0.06863588 -0.52785337 0.39940146
-0.72661644 -0.05309333 -0.69538116 -0.94970524 0.043547925 -0.61434674 -0.08143292 -0.15186669
-0.22751774 -0.23755454 0.25317013 0.08703506 0.10957374 -0.19207636 -0.6441909 -0.021477154
-0.13069515 -0.11101342 0.16391219 0.12677334 -0.040957805 0.19989607 0.3227509 -0.117401086
-0.25751203 -0.042912334 -0.13516341 -0.18910937 0.23931107 -0.092582904 0.32480183 0.1515969
-1.2243724 2.1194298 0.7502561 0.49903286 -2.4284613 -1.1660426 0.39759234 0.33837762
-0.39760605 -0.08651239 0.19344568 -0.5933299 0.3013719 0.02281855 -0.051507577 0.1294896

bias f4 [64]
00000000: b886 eebd 367b f3be 9aa6 923e feff b6bd
00000010: 7311 273e 29a8 b6be 0eaa 1dbe 374f 2ebe
00000020: b38c 8bbe 9a11 473e 9fad 9b3e 6302 a0be
00000030: f19c 833c 05b5 81be 21fd 253e 3665 043e
00000040: 9f5a 45be 01fb f43c 9082 b0be 7635 82bd
00000050: e06f b83e 3814 ef3a 9392 033e d9e9 9b3e
00000060: aa87 c63e de99 bcbe ddcf 0f3e e2b5 e33e
00000070: 8358 51be 74c4 94be 5e5e babe 5ccd 743e
00000080: 8028 38bc 88d2 80bd 6d5b b0bc 5d2c 653e
00000090: 9ddb acbd 6de0 8a3d 5707 003e 44a0 5cbe
000000a0: 7d09 cabd 3385 85be 074e 843c 4ec6 84be
000000b0: 7f1b bc3e f8f9 3dbe 1d29 b63e 233d 543e
000000c0: 465f 12be b535 fbbe 1e74 bc3e d713 613d
000000d0: d30d 64be f3a9 ba3c 7035 433e 05c7 1abe
000000e0: e84b 5c3d 0174 0b3e 90e5 973e 8820 083e
000000f0: 1cf6 0d3f 71f0 cdbd 1187 2cbd 9d71 1fbd
-0.11646789 -0.4755494 0.28642732 -0.089355454 0.1631525 -0.3567517 -0.15396902 -0.17022406
-0.27255782 0.19440308 0.304059 -0.3125182 0.016066046 -0.2533342 0.16209842 0.12929234
-0.1927285 0.029904844 -0.3447461 -0.06357853 0.36022854 0.0018240279 0.12848882 0.3045185
0.38775378 -0.3683614 0.14044137 0.44474703 -0.20443921 -0.29056132 -0.3640012 0.23906463
-0.011240125 -0.06290156 -0.02152797 0.22380204 -0.084403254 0.06781087 0.125028 -0.21545511
-0.09865091 -0.26078185 0.016150488 -0.25932544 0.36739728 -0.18552387 0.35578242 0.20726447
-0.14294156 -0.49064413 0.3680734 0.05495056 -0.22270899 0.022786116 0.19063354 -0.15114982
0.053783327 0.1361847 0.2966733 0.1329366 0.5545366 -0.10055626 -0.042120997 -0.03892671

weight f4 [64, 64]
00000000: d0d4 84bd a65e 883e e549 02bb 2d7f 53be
00000010: 9adf 143e af17 8f3e 4c0b 80bc fffe 133c
00000020: b152 cd3e 34b5 2b3c 6b56 0bbe 2b72 7cbd
00000030: 506e 27be 1dfb 5ebe d116 603d facd 1bbe
00000040: f208 7e3d 630a b63b 0d14 d23d a78b 9dbd
00000050: 4e53 16be c6e3 433d 08f8 6dbe fcee 753e
00000060: d22c 07be 52e8 b1bd 7105 0b3e a4fb 01bd
00000070: c8fd 6abe 3c61 e73b b917 c8bd 760e 0bbd
00000080: 0127 353d 4b6f 5dbe 725d efbe 920e 63be
00000090: b491 49be a86a 72be d5d1 cfbb 79ec 023e
000000a0: 9a8f 1dbe 7011 973c 74a1 8c3d 2753 1cbe
000000b0: 29f7 03bc f45f 2ebd 8898 dd3b 98b2 56be
000000c0: 4501 34bc a883 b33c 4d0f 74be 18c5 96bd
000000d0: 88f3 b2bd 4f2e 43be 5abd 2bbd 57ec 843c
000000e0: 6337 03be 8740 033e dde8 603f 3572 573e
000000f0: 5f33 a1be 56d4 e43d 4750 293e a271 93bd
00000100: 1b03 7abe 8108 843e e4f4 c23d ed17 33bd
00000110: 0ab5 3f3d 362b 1a3d bc29 9abe fb7e bcbe
00000120: 4940 2a3d 0c55 383e 8afd f4bb 7946 c8be
00000130: b198 30be fae1 de3d 3318 603e 3c34 cbbd
00000140: acbf 43be f273 243d 7b21 c1bd 5650 3f3b
00000150: dcb8 44bc b965 103e 7697 dd3c 39f2 9d3d
00000160: 10cd 17be 6e20 10be 6c37 63be 9b76 b0bd
00000170: 77a9 c7bd 82f8 323e 2d7e febc b832 a1be
00000180: 0943 1d3e 408f b6bd 555f c7be 5cad a0be
00000190: 9c46 c23d 719d 90bd 51fe a1be c76e 80bb
000001a0: 5e75 e2bd 6581 32be 06e5 b4bd 86e0 bbbe
000001b0: 2f0f 993e 2962 26be e467 683e 12e2 49be
000001c0: 4718 0bbe 8b58 bc3d f72a 28be c4f8 af3d
000001d0: ba76 dcbd bba1 d83d 1d3c 3dbc 3fe4 8f3d
000001e0: aa46 ef3d 87f3 1abc 6fd7 6f3e 5523 1a3f
000001f0: 52d2 173e b3a9 473d 7e24 903e 28de 80bd
00000200: 7821 c13d f756 c1bd 4f22 debd 853b e43d
00000210: 0047 a53d 8aa6 91be 5ffa c63d ba12 e33c
00000220: 7ec5 67bd a931 e3bd 699a b43c a3b7 763e
00000230: 8ce8 513e 08e7 9f39 9c47 bcbd b82d 26bd
00000240: 355a 2c3d 76f3 7d3e 072d b73d b723 163e
00000250: 3025 d33d 3d78 4bbe ac9f b93d 66dd 5fbd
00000260: 3a5a 9f3d 0a0c 96bd bf3b 3a3c b586 ac3d
00000270: e24c 393e cea1 e5bc ee6d 063d 2ccb 343e
00000280: fdb5 37be b50f 073e 0efb af3e 1941 a83e
00000290: 2b00 5dbd 2ceb 703e ec10 293d 2646 f8bd
000002a0: 94e7 613e 8355 00bd 0a48 dcbc 7834 043e
000002b0: 0b95 35be ead2 ae3e 899e cfbd 8859 013e
000002c0: 1511 383d 14d9 a23d aa86 2e3d f7fd 1e3d
000002d0: 7973 52bd 3b86 e7bd 6df6 8cbe a0c8 ba3d
000002e0: c7c8 debd 959a 96bd 1b77 89bf 9a1b 40be
000002f0: 88a6 d33d 68e9 18be 2417 813a da1c 553e
00000300: c2c6 eebd 5d2b 8a3e d62e 0f3e f876 c8bc
00000310: 58f2 9e3d 10cf 783e 0d66 c6bd 88e3 5bbe
00000320: 0b37 4d3e 763a 90bc 27b4 2abe 181f 03bd
00000330: 2531 1cbe b070 59be 6312 c83d 97b3 e4bd
00000340: 4653 853d 2f6d 4d3d 6a23 703d 6fb0 e43d
00000350: 9d01 0b3d dbc6 2c3e e51e fcbd 430f 0b3e
00000360: 39a7 af3d cff7 893d ffbf f03d 7268 dabc
00000370: 4730 5cbe 38d5 d83d e467 7bbe b22e c8bc
00000380: 165d 7a3e 614a f2bd a518 07bf 8f07 04bf
00000390: 8ddb 8bbc 7495 b5bd 6fcb d83e e2da 0a3e
000003a0: 615b 17be 7604 e33d 0ea3 93be 0227 923d
000003b0: 2ea7 7b3e 9a0d ffbd 0ca0 1f3e 5756 5ebe
000003c0: 9891 ddbc 4c18 27bc 3068 b8bd a617 5b3d
000003d0: 1a62 933d 044a adbe ca1e 3e3e 577d 143c
000003e0: 66b1 40bc b531 88bd 3049 873f 7fc2 7ebc
000003f0: 98e2 d6be 3dad 9a3e 8142 8f3e fa9d 28be
-0.06485903 0.2663471 -0.001988047 -0.20653982 0.14538422 0.27947757 -0.015630387 0.009032964
0.4010215 0.010480214 -0.13607185 -0.061632317 -0.16350675 -0.2177548 0.05470926 -0.15215293
0.06202025 0.0055554374 0.10257731 -0.07692652 -0.14680216 0.047824644 -0.23239148 0.24016947
-0.13200691 -0.0868689 0.13576294 -0.031734124 -0.22948372 0.007061152 -0.0977015 -0.033949338
0.04422665 -0.21624486 -0.4675098 -0.22173527 -0.19684488 -0.23673499 -0.0063421526 0.1278552
-0.15386811 0.018440932 0.06866732 -0.15266095 -0.008054533 -0.042571977 0.006762568 -0.20966566
-0.010986631 0.021913365 -0.23833962 -0.073618114 -0.08737856 -0.19060634 -0.041928627 0.016225977
-0.12814097 0.12817584 0.8785532 0.2103966 -0.31484506 0.11173312 0.1653453 -0.07199408
-0.24415247 0.25787738 0.095193654 -0.04372399 0.04680351 0.037638865 -0.30109966 -0.36815628
0.041565213 0.18001193 -0.0074765133 -0.39116266 -0.17245747 0.10882945 0.21884231 -0.09922072
-0.19116086 0.040149637 -0.09430214 0.002919217 -0.012006965 0.14101304 0.027049761 0.07712216
-0.14824319 -0.14074871 -0.2218911 -0.08616372 -0.0974912 0.1747761 -0.031066025 -0.31484008
0.15357603 -0.089140415 -0.3893992 -0.31382263 0.09486124 -0.070612796 -0.3163934 -0.0039194557
-0.11057542 -0.17432173 -0.08832745 -0.36694735 0.29894397 -0.16248383 0.22695881 -0.19715145
-0.1358348 0.09196576 -0.1642264 0.0859237 -0.10764833 0.10577723 -0.011549977 0.07025956
0.116834 -0.0094574755 0.23422025 0.6021016 0.14826325 0.048745822 0.2815284 -0.06292373
0.09430212 -0.09440415 -0.108463876 0.11144165 0.08070183 -0.28447372 0.09715723 0.02771889
-0.056584828 -0.11093456 0.022046285 0.2409349 0.20498866 0.00030498975 -0.09193346 -0.040570945
0.042078216 0.24799904 0.08944135 0.14662062 0.10309827 -0.19870086 0.09063658 -0.0546545
0.07780881 -0.07326515 0.011366784 0.08424131 0.18095735 -0.028031256 0.03281968 0.17655629
-0.17940517 0.13189586 0.34371227 0.32862166 -0.05395524 0.23527211 0.041275904 -0.12122755
0.22060996 -0.03133155 -0.02688982 0.1291064 -0.17732637 0.3414529 -0.1013766 0.1263181
0.044938166 0.079515606 0.042608894 0.03881642 -0.051379655 -0.11304899 -0.27531758 0.091202974
-0.10878139 -0.07353703 -1.0739473 -0.18760529 0.10334498 -0.14932787 0.0009848815 0.20811787
-0.11659004 0.2698621 0.1398271 -0.024470791 0.07761067 0.24297738 -0.096874334 -0.21473515
0.20040528 -0.017606001 -0.16670285 -0.032012075 -0.15253122 -0.21234393 0.09769132 -0.111670665
0.06510024 0.050152954 0.058627523 0.111664645 0.033937085 0.16872732 -0.1231058 0.1358004
0.08576817 0.06736719 0.1175537 -0.026661132 -0.21502791 0.10587543 -0.2455135 -0.024436329
0.24449572 -0.11830593 -0.5277198 -0.51574033 -0.017072463 -0.088663965 0.42342708 0.1356006
-0.14780952 0.11084835 -0.28835338 0.071363464 0.24575493 -0.12453766 0.15588397 -0.21712624
-0.027046964 -0.010198664 -0.09004247 0.05348935 0.07196446 -0.33845532 0.18566433 0.0090630865
-0.011761045 -0.06650106 1.056921 -0.015549301 -0.41969752 0.30210295 0.27980426 -0.16466513

bias f4 [64]
00000000: e467 2a3d e452 803e 2111 83bc 29fd 223e
00000010: 2a27 35be 28e7 a63d 1382 77bd 3a7b 02be
00000020: d324 ac3d 5135 febc a216 643d d83e 0cbe
00000030: 97b9 9cbc fc30 5c3e f20b 1fbe bad3 76bc
00000040: 819e e7bd fa40 39be bff2 093b f9f6 8cbd
00000050: 1853 8abd 15db c63d 9924 783c 003f 4b3e
00000060: ff5b a1bd 5449 c0bd d470 40bd 7dd9 073e
00000070: 382d 42bc 0578 f23c 7b6c 31ba 6a31 a1bd
00000080: 7f7e 383e e3b2 d83d d575 28be 84e8 29be
00000090: 0cb8 033d aeaa 453e d519 cd3d 47a5 93bc
000000a0: 7b46 653e 151d 1e3e 6f16 533e 74ed 1c3e
000000b0: b5c3 8e3c 66b3 233e 628f 8abd b645 093c
000000c0: 921d 92be 564a 943e 28e0 503d b127 10be
000000d0: c0eb b93d 516c 54be 452c b63d 0abb ed3d
000000e0: 7f36 173e 63f9 223e 8ea8 b7bc 3ca1 b13d
000000f0: 0932 593e 7cfa cb3d 292e 3f3e 12e8 51bc
0.041602984 0.2506324 -0.015999379 0.15916885 -0.17690721 0.08149558 -0.060426783 -0.1274232
0.08405461 -0.031031283 0.055685647 -0.13695848 -0.019131465 0.21503061 -0.155319 -0.015065128
-0.11309529 -0.18091193 0.002104923 -0.06883044 -0.0675413 0.09709755 0.015145444 0.19848251
-0.07878875 -0.09388986 -0.0469826 0.13266559 -0.011851601 0.029598245 -0.0006768179 -0.07870753
0.18017004 0.10580995 -0.164512 -0.16592604 0.032157943 0.1930339 0.10014693 -0.018023146
0.22390167 0.15440781 0.20614026 0.15324956 0.017427305 0.15986404 -0.06765629 0.008378437
-0.28538185 0.28962964 0.050995022 -0.14077641 0.09078169 -0.20744444 0.088951625 0.116079405
0.14766882 0.15915446 -0.02241924 0.08673331 0.21210493 0.099598855 0.18669952 -0.0128116775

weight f4 [1, 64]
00000000: 54bc 40bf a415 41be 5e48 083f cbec 65bf
00000010: 2ea5 7a3f 756a 5dbf 8c07 653f e347 623f
00000020: ac91 6dbf 1970 753f 42da 8dbf bc14 2abf
00000030: c122 53bf d071 7cbf 55b8 6b3f 4d6b 27bf
00000040: 98cf 453f a97f 443f 6527 323f 797b 423f
00000050: 4095 223f cb70 95bf c5d3 3ebf a6ee 4dbf
00000060: 6743 763f 7297 5a3f 20d7 1a3f 6981 73bf
00000070: a59c 59bf 2fab 2abf 6fd4 5b3f 6a1b 703f
00000080: 0b6e 75bf b71f 3ebf d7fc 5b3f f4a4 303f
00000090: b1cf 6bbf fbc1 60bf 2e8b 4c3f b5dc ce3e
000000a0: 0e0f 2fbf 32c4 54bf 3ffd 63bf 2677 64bf
000000b0: ea34 4bbf 551b 83bf fabb 323f f897 253f
000000c0: 9139 5b3f 9431 7bbf f97b 32bf 5d3d 5c3f
000000d0: 533d 403f 2e62 a53e 8b83 2bbf 40ad 393f
000000e0: 42fa b5be f20d 5dbf 3776 23bf 8280 26bf
000000f0: d5bb 27bf 32e4 5fbf 67ef 73bf 5e58 393f
-0.75287366 -0.18855911 0.53235424 -0.8981444 0.97908294 -0.86490566 0.8946464 0.8839094
-0.928004 0.9587417 -1.1082232 -0.6643789 -0.82474905 -0.98611164 0.92078143 -0.65398103
0.7726989 0.76757294 0.6959136 0.75969654 0.6350899 -1.1675047 -0.74541885 -0.80442274
0.961966 0.8538734 0.60484505 -0.9511934 -0.85004646 -0.66667455 0.8587102 0.9379183
-0.9587104 -0.74267143 0.8593268 0.690017 -0.92113787 -0.8779599 0.7989987 0.4040276
-0.68382347 -0.8311187 -0.890583 -0.89244306 -0.79377615 -1.0242716 0.6981808 0.6468501
0.85634714 -0.98122525 -0.6972042 0.8603113 0.75093573 0.32301468 -0.66997594 0.72529984
-0.35542494 -0.86349404 -0.63852257 -0.6503984 -0.65520984 -0.87457573 -0.95287174 0.7240046
