output/ppo/2021-12-17_21-36-26-ppo_s0_nocol/pyt_save/model.pt (torch_old, 47572 bytes, 12 tensors)

log_std f4 [3]
0	0xbfa9a138	-1.3252325
1	0xbfa11cc4	-1.2586904
2	0xbfa963dd	-1.3233601

weight f4 [64, 16]
0	0xbeb6ef9b	-0.3572968
1	0xbd924dcd	-0.071437456
2	0xbf1d4166	-0.61427915
3	0xbd45aff2	-0.048263498
4	0x3d7d0d4b	0.061780255
5	0xbe74a6e4	-0.23891789
6	0x3d08a41e	0.03335964
7	0x3e4f8d87	0.20268832
8	0x3db11bdb	0.08647891
9	0x3dbbcc32	0.091698065
10	0xbd9abbac	-0.07555327
11	0xbd494870	-0.049141347
12	0xbe7491b8	-0.23883712
13	0xbe0e6440	-0.1390543
14	0xbd9cc32f	-0.07654416
15	0x3d128709	0.03577331
16	0x3e4317f0	0.190521
17	0x3eeeb0d9	0.466193
18	0x3ee9a994	0.4563719
19	0x3e1bc0cf	0.1521027
20	0xbe73b68b	-0.23800103
21	0x3e8b18b0	0.27167273
22	0x3b500d60	0.0031746253
23	0x3e747b9a	0.23875275
24	0xbe19c117	-0.15015064
25	0x3c8e8f48	0.017402306
26	0x3e67cd4a	0.22636905
27	0xbe6d7bce	-0.23191759
28	0xbe212966	-0.15738449
29	0xbd92515d	-0.07144425
30	0xbdd84658	-0.10560292
31	0x3e54d5bd	0.2078466
32	0xbf1f35e5	-0.6219161
33	0xbeb4c8f7	-0.35309574
34	0xbf2f0954	-0.6837361
35	0xbe889cbc	-0.2668208
36	0x3dc16755	0.09443537
37	0xbe5c9c60	-0.21544027
38	0x3d4ca904	0.049965873
39	0x3de8192f	0.113329284
40	0x3de7bad8	0.113149345
41	0xbe252a34	-0.1612938
42	0x3d2d3ec0	0.04229617
43	0xbe6f069e	-0.23342368
44	0xbe38fa1a	-0.18064156
45	0xbe24fd8e	-0.16112348
46	0x3e008165	0.1254936
47	0x3dea2a32	0.11433829
48	0x3e142672	0.1446779
49	0x3e58c604	0.21169287
50	0x3f865e80	1.0497589
51	0x3e721c8a	0.236437
52	0xbdfe1937	-0.12407153
53	0x3e8a2869	0.26983956
54	0x3e1fd714	0.1560939
55	0xbdd963d6	-0.10614745
56	0xbda9a05b	-0.082825385
57	0xbe5ee2e3	-0.21766238
58	0xbe316e18	-0.17327154
59	0xbe043ed2	-0.12914589
60	0x3de7aa8c	0.11311826
61	0x3d9e34d9	0.07724924
62	0xbe2f7dea	-0.17137876
63	0x3d55f547	0.052235868
64	0x3da22023	0.07916286
65	0xbcd89fb8	-0.026443347
66	0x3a92805f	0.0011177174
67	0x3dc1cd82	0.09463026
68	0x3e1521a2	0.14563611
69	0x3e5a07ec	0.21292084
70	0xbe266040	-0.16247654
71	0xbd90bfd4	-0.07067838
72	0x3e1e0141	0.15430166
73	0x3e66d468	0.22541964
74	0x3e5ec5e8	0.21755183
75	0x3e61e222	0.22058919
76	0x3d4bca78	0.049753636
77	0xbe37a3e0	-0.17933607
78	0x3d79072f	0.060797866
79	0xbdf2c75e	-0.118544325
80	0x3db2a2d7	0.087224655
81	0x3ec57798	0.38567805
82	0x3e9967ae	0.29961914
83	0xbeb36ad1	-0.35042432
84	0xbdb9a62d	-0.09064899
85	0x3e78f774	0.24313146
86	0xbd2bc0f4	-0.04193206
87	0xbdd687fb	-0.10475155
88	0xbc996e21	-0.018729271
89	0xbe0f5176	-0.13995919
90	0x3dbbb1dc	0.09164783
91	0x3e017616	0.12642702
92	0x3e37435c	0.1789679
93	0x3dcf594e	0.101244554
94	0xbe756bbc	-0.23966879
95	0xbe1e1d00	-0.1544075
96	0xbe00d647	-0.1258174
97	0x3d801e68	0.062557995
98	0xbf5f56e1	-0.8724194
99	0xbe1150b9	-0.1419095
100	0x3e6cf8fc	0.23141855
101	0xbd9d1ecc	-0.0767189
102	0xbdda012c	-0.10644755
103	0xbe1d72af	-0.1537578
104	0xbdfc8ea0	-0.12331891
105	0x3b2f9ea4	0.0026797438
106	0xbe40c878	-0.18826473
107	0xbe4577a2	-0.19283918
108	0xbc61b020	-0.013774902
109	0x3d3b1fe7	0.04568472
110	0xbdc0fe19	-0.09423465
111	0x3e203f9a	0.15649262
112	0xbe77aaba	-0.24186221
113	0x3f2a9022	0.6662618
114	0x3e9e6342	0.30935103
115	0x3d15cf7d	0.03657483
116	0xbeeb5d97	-0.4596984
117	0xbe468e15	-0.19390137
118	0x3e39b5be	0.18135735
119	0x3e275290	0.16340089
120	0x3e55a6cc	0.20864409
121	0x3dd2aa9e	0.10286449
122	0xbdf9d1cc	-0.12198219
123	0x3df245d4	0.11829725
124	0xbe759156	-0.23981223
125	0xbd073118	-0.033005804
126	0x3d562faf	0.05229157
127	0xbbe0148b	-0.0068383864
128	0xbe99561d	-0.29948512
129	0xbebcc76f	-0.36870906
130	0xbdc999af	-0.09843766
131	0xbb8b6721	-0.0042542373
132	0xbd4e1248	-0.050310403
133	0xbe0a4525	-0.13502939
134	0x3e0eff88	0.13964665
135	0xbd50292c	-0.050820515
136	0x3db1f84d	0.08689938
137	0xbd26ea0a	-0.04075054
138	0x3d4f3d10	0.050595343
139	0x3e22c660	0.15895987
140	0x3e727eba	0.23681155
141	0x3dfff098	0.124970615
142	0x3e509c76	0.20372185
143	0xbd53f59d	-0.051747907
144	0xbf2dc973	-0.6788551
145	0xbe94c46b	-0.29056105
146	0xbefa0ecc	-0.48839414
147	0x3d281075	0.04103132
148	0x3c280299	0.010254526
149	0xbf166553	-0.5874836
150	0xbe112910	-0.1417582
151	0xbe986785	-0.2976648
152	0x3dc2b408	0.095069945
153	0x3e6ae1ee	0.22937748
154	0x3e0a6774	0.13516027
155	0xbe76e502	-0.24110797
156	0x3e1fb02e	0.15594551
157	0xbda8ac79	-0.082360215
158	0x3d7692ea	0.060198702
159	0x3c4033b8	0.011731081
160	0xbef4ff1b	-0.4785088
161	0xbeadbf1c	-0.33934867
162	0xbf2ea847	-0.6822552
163	0xbe636512	-0.22206524
164	0x3e852167	0.26002046
165	0xbecc39c7	-0.3988783
166	0xbe209f7b	-0.15685837
167	0x3d984f9a	0.07437058
168	0xbe065844	-0.13119608
169	0xbd0c4c2a	-0.034252323
170	0x3e6121a2	0.21985486
171	0xbdd0d738	-0.101973
172	0x3e672b36	0.22575077
173	0x3d94d9a7	0.072680764
174	0xbe7950ae	-0.24347183
175	0x3e0faf6e	0.14031765
176	0xbd0ebfe7	-0.03485098
177	0xbde49041	-0.11160327
178	0x3e4c9679	0.19979276
179	0xbe4f78e5	-0.20260961
180	0x3cdbff2b	0.026855072
181	0xbd5d13e9	-0.053974066
182	0x3e35acd2	0.17741707
183	0x3d8f668e	0.07001983
184	0x3dfaa00c	0.12237558
185	0x3db3e5d7	0.08784073
186	0xbd763f00	-0.060118675
187	0xbd575a50	-0.052576363
188	0xbe52f700	-0.20602036
189	0x3dfab073	0.12240686
190	0x3e3f5a4e	0.18686792
191	0x3e22f739	0.1591462
192	0xbf2b830b	-0.6699683
193	0xbe467f53	-0.19384508
194	0xbf11a171	-0.56886965
195	0xbe99151a	-0.29898912
196	0x3dda3c1e	0.10655998
197	0xbeaa82f8	-0.33303046
198	0xbe95efe0	-0.29284573
199	0x3d1df8ff	0.03856754
200	0x3ddc7b79	0.10765738
201	0x3d944734	0.072401434
202	0xbe4183fa	-0.18898001
203	0xbe2fbf44	-0.17162806
204	0xbe14a63c	-0.14516538
205	0x3da42431	0.080147155
206	0xbe3d1689	-0.18465628
207	0x3dedb718	0.11607188
208	0x3d314ce4	0.04328622
209	0x3d65ace5	0.05607309
210	0xbb8607be	-0.0040902784
211	0xbcba6f94	-0.022758283
212	0x3caa4dbc	0.02078902
213	0xbd9ec7a0	-0.07752919
214	0x3c8383ad	0.016053999
215	0x3d1dff96	0.038573824
216	0xbe3ba2e4	-0.18323857
217	0xbe047f24	-0.12939125
218	0x3e4eb7d8	0.20187318
219	0xbe4fc186	-0.20288667
220	0xbc930f20	-0.017951548
221	0x3e800643	0.25004777
222	0x3dbe98b0	0.093064666
223	0x3c210e23	0.009830031
224	0xbe136e40	-0.14397526
225	0x3d4eadae	0.050458603
226	0xbf34d68e	-0.70639884
227	0x3e8ce771	0.27520326
228	0xbcaf2f28	-0.02138479
229	0xbaf38821	-0.0018579998
230	0x3e246bf9	0.16056813
231	0x3eb225e5	0.34794536
232	0x3dd6af9d	0.10482714
233	0x3e9b278b	0.30303606
234	0x3e1c9930	0.15292811
235	0xbe21d8c6	-0.15805349
236	0x3de5a254	0.11212602
237	0xbdc93a29	-0.09825546
238	0xbce13ae5	-0.027493903
239	0x3e1ba459	0.15199412
240	0x3eb27616	0.34855717
241	0x3ea45432	0.32095486
242	0x3f05f6c5	0.52329665
243	0x3dd3f9fa	0.103504136
244	0xbc76ce53	-0.01506384
245	0x3a9fe327	0.0012198434
246	0x3e774a14	0.24149352
247	0xbda4164d	-0.08012066
248	0xbd80a2c6	-0.062810466
249	0xbb30966f	-0.0026945134
250	0xbe06d40a	-0.13166824
251	0x3d0757d8	0.03304276
252	0x3e53b0f2	0.20672968
253	0xbcfea7da	-0.031085897
254	0xbdd9fe01	-0.106441505
255	0xbd4ebfaf	-0.050475772

bias f4 [64]
0	0x3c0fd65a	0.008779133
1	0xbe7a2406	-0.24427804
2	0xbe349e99	-0.17638625
3	0x3d9fef02	0.07809259
4	0xbd6097ee	-0.05483239
5	0x3e38a2e1	0.18030883
6	0x3e52b8d3	0.20578317
7	0x3e10c853	0.14138918
8	0xbd45bd21	-0.04827607
9	0x3cd29d2c	0.025709711
10	0xbcf9d85c	-0.030498676
11	0x3d317abb	0.043329936
12	0xbe91549d	-0.28384867
13	0xbd68cf10	-0.056838095
14	0xbe04d279	-0.12970914
15	0x3e4789ef	0.19486211
16	0xbe03b5fc	-0.1286239
17	0x3e16986e	0.14706585
18	0xbd785889	-0.06063131
19	0xbe2f70d1	-0.1713288
20	0x3d9bd2f2	0.07608594
21	0xbba50478	-0.005035933
22	0x3e108666	0.14113769
23	0x3d038e52	0.03211815
24	0xbe78540d	-0.24250813
25	0x3e33c9eb	0.17557494
26	0xbd6ff97b	-0.058587532
27	0xbdd4cd38	-0.10390705
28	0x3e558d1e	0.20854613
29	0x3e18b817	0.14913975
30	0xbe48d464	-0.1961227
31	0xbda81312	-0.082067624
32	0x3e5777f0	0.21041846
33	0x3e01f986	0.12692842
34	0x3e3e3066	0.1857315
35	0xbda05f00	-0.0783062
36	0xbe0965aa	-0.13417688
37	0x3e822577	0.25419208
38	0x3d866742	0.065626636
39	0x3eadcc7e	0.33945078
40	0xbdcfeb45	-0.10152296
41	0xbe2493b6	-0.16071972
42	0xbcb60d3a	-0.022223104
43	0xbe618de1	-0.22026779
44	0x3dc181bc	0.09448573
45	0x3e1dac69	0.153978
46	0x3dc3bb1c	0.09557173
47	0xbb226b55	-0.0024783213
48	0x3d52343a	0.05131934
49	0xbe189121	-0.14899112
50	0x3e86187f	0.26190564
51	0xbe8d8647	-0.27641508
52	0xbe976533	-0.29569396
53	0xbe19e374	-0.15028173
54	0x3e432d1c	0.19060177
55	0xb76cb520	-1.4108868e-05
56	0x3dafbb8f	0.08580696
57	0xbe354f49	-0.17706026
58	0x3e2aacb5	0.16667445
59	0x3a444ba7	0.000748808
60	0x3d89cd4e	0.06728612
61	0x3e31391c	0.17306942
62	0x3e15fe37	0.14647757
63	0x3d15fd0a	0.03661827

weight f4 [64, 64]
0	0xbc7116a5	-0.0147148715
1	0xbd7d0385	-0.061770935
2	0xbda9359a	-0.08262177
3	0x3d8fb36d	0.070166446
4	0xbd6a1465	-0.057148356
5	0x3d908e25	0.07058362
6	0xbd29647d	-0.0413556
7	0xbd408c77	-0.047008958
8	0x3c1eb1a0	0.009685904
9	0xbdfe0a21	-0.12404276
10	0x3c0f91ca	0.008762786
11	0xbbb6a9de	-0.005574449
12	0xbba7f0c6	-0.005125138
13	0xbc9326d8	-0.017962858
14	0x3dbb0566	0.09131889
15	0x3dae852b	0.085214935
16	0xbdb9523d	-0.09048889
17	0xbcd7d965	-0.026348779
18	0xbeab0b5f	-0.33407113
19	0xbdc3b97f	-0.09556865
20	0x3d5adec1	0.05343509
21	0x3c211f33	0.009834099
22	0xbd51dd19	-0.051236246
23	0xbe9b24b5	-0.30301443
24	0x3e70bdfb	0.23509972
25	0x3d0ec2fb	0.034853917
26	0xbe824377	-0.25442097
27	0xbdea40d7	-0.114381485
28	0x3c0d968e	0.008641852
29	0xbda65135	-0.08120958
30	0xbddfc028	-0.10925323
31	0xbd39ba98	-0.045343965
32	0xbd60f6f4	-0.054923013
33	0xbde4c460	-0.11170268
34	0xbd9da0d9	-0.07696695
35	0x3c103a25	0.008802925
36	0xbea79cd1	-0.3273683
37	0xbd6a49f3	-0.05719943
38	0xbe1cb606	-0.15303811
39	0xbd8344a4	-0.064095765
40	0x3d2c7525	0.042103905
41	0xbdb3d1e0	-0.08780265
42	0xbe2391ed	-0.15973635
43	0x3dd309af	0.103045814
44	0x3cf90054	0.030395664
45	0x3dea4928	0.11439735
46	0xbd25e530	-0.040501773
47	0xbd85a3ca	-0.06525381
48	0xbcdcd508	-0.02695705
49	0xbbd1a093	-0.0063973158
50	0x3dd5a8f5	0.104326166
51	0xbe846ad9	-0.25862768
52	0xbae6649c	-0.0017577591
53	0x3d785e1b	0.06063662
54	0xbd7b69c2	-0.061380155
55	0xbd674b2b	-0.05646817
56	0xbde9d564	-0.11417654
57	0xbe01d769	-0.12679829
58	0x3d3c8b18	0.046031088
59	0xbdd2f7ac	-0.10301146
60	0x3cc3338b	0.023828289
61	0xbdcc80b8	-0.09985489
62	0x3da643e5	0.081184186
63	0xbe01c27b	-0.12671845
64	0xbdf5ed17	-0.12008112
65	0x3d8ffb83	0.07030394
66	0x3dfb00ac	0.122559875
67	0xbdc6e4bf	-0.097115986
68	0xbd90f7d1	-0.07078517
69	0x3dc21361	0.094763525
70	0xbbb2eecb	-0.0054605952
71	0x3dce5d45	0.100763835
72	0xbdd77ed3	-0.10522237
73	0xbd5e2c8a	-0.054241695
74	0xbc429c84	-0.011878137
75	0x3df699ef	0.12041079
76	0x3d8dc871	0.06922997
77	0xbd9c04e5	-0.07618121
78	0x3c364e75	0.011127104
79	0xbc86a42e	-0.016435709
80	0xbd86c9f0	-0.06581485
81	0x3e1e5769	0.15463032
82	0xbe6611e4	-0.22467762
83	0x3dd1ff9a	0.1025383
84	0xbdb76d6d	-0.08956418
85	0xbd97aab7	-0.07405608
86	0xbcc0586d	-0.023479665
87	0x3dc70fb7	0.09719794
88	0x3e8e8990	0.27839327
89	0xbc37e088	-0.011222966
90	0xbdd3fd1d	-0.10351012
91	0xbd78e4ef	-0.060765203
92	0xbd1e2817	-0.03861245
93	0xbd13dd4d	-0.03609972
94	0x3db5f913	0.08885398
95	0xbe0e4735	-0.13894351
96	0xbd4af217	-0.04954728
97	0xbe0098a8	-0.12558234
98	0xbc98bd2e	-0.018644895
99	0x3cf2e3f2	0.029649708
100	0xbdb8f74f	-0.09031545
101	0xbd724050	-0.059143364
102	0xbd6a4021	-0.057190064
103	0xbd15a513	-0.03653438
104	0x3d2422b5	0.04007216
105	0x3e6a5af9	0.22886266
106	0xbccaf862	-0.024776641
107	0xbe3098ab	-0.17245738
108	0x3dc82118	0.09771937
109	0xbdbe8e6c	-0.093045086
110	0x3d4b7a78	0.049677342
111	0x3ace75e7	0.001575169
112	0x3d22a369	0.03970662
113	0x3dc777c8	0.09739643
114	0xbc51ee34	-0.01281314
115	0xbdb5c0b9	-0.088746496
116	0xbd8bb67d	-0.06821916
117	0xbd10de9e	-0.035368554
118	0xbd84a33b	-0.06476446
119	0x3e09f441	0.13472082
120	0xbcffc05e	-0.031219658
121	0xbdc897c4	-0.09794572
122	0xbcf3548b	-0.0297034
123	0xbd8d0266	-0.06885223
124	0x3dc156c8	0.0944038
125	0xbdc084b0	-0.09400308
126	0xbe30ba17	-0.17258488
127	0xbe09ed57	-0.13469444
128	0x3d381a7a	0.044947125
129	0x3d807153	0.06271615
130	0xbe22c12b	-0.15894
131	0x3ccbeb67	0.024892522
132	0x3daacd8a	0.08339985
133	0x3c17e64f	0.009271218
134	0xbc8b5bdb	-0.017011574
135	0x3c42d086	0.011890536
136	0xbb9462b6	-0.004528369
137	0x3d4ac80a	0.04950718
138	0xbe09dede	-0.13463923
139	0x3d93fe31	0.072262175
140	0x3d98c113	0.07458701
141	0xbd88eded	-0.06686006
142	0x3dbbc8b8	0.091691434
143	0x3de94fdd	0.11392186
144	0xbd662c94	-0.056194857
145	0xbe21afdb	-0.1578974
146	0xbe114280	-0.14185524
147	0xbdb2eef5	-0.08736984
148	0x3d90ca7a	0.07069869
149	0x3d23c06f	0.03997844
150	0x3db39a29	0.08769638
151	0xbea753db	-0.32681164
152	0x3e4778b3	0.19479637
153	0x3d423c7e	0.04742097
154	0xbdb41630	-0.087932944
155	0xbddc0db7	-0.107448034
156	0xbda0fe6b	-0.078610264
157	0xbdd29c63	-0.10283735
158	0xbdac0b18	-0.084005535
159	0xbd0b8b14	-0.034068182
160	0x3df44ec7	0.11929088
161	0xbcedf7e0	-0.02904886
162	0x3d85b8da	0.06529398
163	0x3dfcc59c	0.123423785
164	0xbe3946a2	-0.1809335
165	0xbe048f27	-0.12945233
166	0xbd8ae40f	-0.0678178
167	0x3da0235a	0.07819243
168	0x3db43e15	0.08800904
169	0xbd2d7190	-0.04234463
170	0x3d99e79e	0.075148806
171	0x3e16e7d4	0.14736873
172	0xbddbffbd	-0.107421376
173	0x3ca1f39e	0.019769486
174	0x3dc82832	0.09773292
175	0xbd81e8b7	-0.06343215
176	0x3c119aef	0.008887037
177	0x3d3de0f3	0.046357106
178	0x3d359d70	0.044339597
179	0x3d06df07	0.03292754
180	0x3dd2da41	0.10295535
181	0x3de95062	0.11392285
182	0xbbd0bc84	-0.006370129
183	0x3de90f52	0.11379875
184	0xbe8d5607	-0.27604696
185	0xbd9c51ac	-0.07632765
186	0x3c0fe9b3	0.008783746
187	0xbd7cde57	-0.061735477
188	0x3d3ec85d	0.0465778
189	0x3d8aebce	0.067832574
190	0x3ddace0e	0.10683833
191	0x3d97cce9	0.074121304
192	0xbdab5c42	-0.08367206
193	0xbde9fc56	-0.114250824
194	0x3df106c6	0.1176887
195	0xbaf525ba	-0.001870326
196	0x3d978732	0.07398833
197	0xbd23fc46	-0.04003551
198	0xbd40485f	-0.04694402
199	0xbdc6bfec	-0.09704575
200	0xbd312d90	-0.043256342
201	0xbd9873f5	-0.07443992
202	0x3e461794	0.19344932
203	0x3d9977c5	0.07493547
204	0xbd3eb12c	-0.046555683
205	0xbd0e2185	-0.034699935
206	0xbdcdce86	-0.10049157
207	0xbdc26662	-0.09492184
208	0x3d67293a	0.0564358
209	0xbd8c0789	-0.06837375
210	0x3e37dcfe	0.17955396
211	0xbdc53e84	-0.096310645
212	0xbb211ee9	-0.0024585074
213	0xbbc315fe	-0.0059535494
214	0x3d5f79a9	0.054559384
215	0x3d20c9ac	0.03925483
216	0xbdbf963c	-0.09354827
217	0x3d84a504	0.06476787
218	0x3b306bfd	0.0026919835
219	0xbdcaae66	-0.09896545
220	0xbdce4a22	-0.100727335
221	0xbb6c8ef8	-0.0036095958
222	0x3de3399c	0.110949725
223	0x3dafa3ed	0.08576188
224	0xbe27bc48	-0.16380417
225	0xbd65e287	-0.056124236
226	0x3cd15251	0.025551947
227	0x3e405f4b	0.18786351
228	0x3ce51c9b	0.027967742
229	0xbe04a41f	-0.12953232
230	0x3e7a6b01	0.24454881
231	0x3d4f91a7	0.050676014
232	0x3afb2fc4	0.0019164016
233	0xbe782416	-0.24232516
234	0xbd288026	-0.041137837
235	0xbdaa074f	-0.08302175
236	0xbe018c8d	-0.12651272
237	0x3df112d1	0.11771167
238	0xbba55393	-0.005045363
239	0xbe6d615d	-0.23181672
240	0xbc1b4563	-0.009476992
241	0xbd6f7bfa	-0.058467843
242	0xbd083dcb	-0.033262055
243	0xbe056cce	-0.13029787
244	0x3ded3e83	0.11584189
245	0x3d173571	0.0369162
246	0xbd940094	-0.07226673
247	0xbd55fd64	-0.052243605
248	0x3d9ba710	0.07600224
249	0xbd15d312	-0.036578245
250	0xbd741edb	-0.05959974
251	0x3d464fa8	0.04841581
252	0xbc7f3338	-0.015576176
253	0x3cb0f864	0.021602817
254	0x3dc80565	0.09766654
255	0x3de4403e	0.11145066

bias f4 [64]
0	0x3d9e9442	0.07743122
1	0xbd3441c5	-0.044008035
2	0x3da113d4	0.0786511
3	0xbb9a87de	-0.0047159037
4	0x3db2f19b	0.08737489
5	0x3dfd0779	0.12354941
6	0xbdbce80f	-0.09223949
7	0x3e057e2c	0.13036412
8	0x3dbf306c	0.093354076
9	0xbdbde22d	-0.09271655
10	0x3d11e883	0.03562213
11	0xbdd6918b	-0.10476979
12	0x3d25190c	0.04030709
13	0x3d21919d	0.03944551
14	0xbdd29bf8	-0.10283655
15	0x3d3ea5cc	0.046544835
16	0xbd283a69	-0.04107133
17	0x3deaa3ef	0.11457049
18	0x3e05e190	0.13074327
19	0x3d362e5c	0.044477805
20	0x3dd649d9	0.10463304
21	0x3cf8a67d	0.030352825
22	0x3e067bf3	0.1313322
23	0xbc83f161	-0.01610631
24	0x3cbd2e7c	0.023093455
25	0xbcdef35b	-0.02721565
26	0xbb9761a0	-0.004619792
27	0xbd33ca18	-0.043893903
28	0xbd290176	-0.04126116
29	0x3d7b1f19	0.061308954
30	0x3d669ffe	0.056304924
31	0xbd58aa70	-0.052896917
32	0xbdd85617	-0.10563295
33	0x3d429045	0.047500867
34	0xbdeeeb69	-0.11665995
35	0xbcc424ec	-0.023943387
36	0xbdde00f2	-0.10840024
37	0x3dd6b4b1	0.10483683
38	0x3dae7346	0.085180804
39	0xbdc28f36	-0.094999716
40	0xbddc080d	-0.10743723
41	0xbdb2395c	-0.08702347
42	0x3cd26d87	0.025686992
43	0xbdab9afd	-0.08379171
44	0xbc42f879	-0.011900061
45	0xbd0f24fe	-0.034947388
46	0x3c6e677c	0.01455104
47	0xbd83098e	-0.06398307
48	0x3d1938fa	0.037407853
49	0xbdb0fd52	-0.08642067
50	0xbcaa1b0f	-0.020764856
51	0x3dc8bb65	0.09801368
52	0xbd7ac286	-0.06122067
53	0x3de320bf	0.1109023
54	0x3d94ef9c	0.07272264
55	0xbcb3c61e	-0.021945056
56	0x3d0ac035	0.03387471
57	0xbd97c80e	-0.07411204
58	0x3b9099fe	0.0044128885
59	0x3cca88ad	0.024723375
60	0x3dd80bdd	0.10549138
61	0xbd977704	-0.07395747
62	0xbdabf63e	-0.08396576
63	0xbd84c3af	-0.06482636

weight f4 [3, 64]
0	0xbe7ecca8	-0.24882758
1	0x3af4463c	0.0018636654
2	0xbdca9720	-0.09892106
3	0xbc908a56	-0.017644089
4	0x3c87ac2e	0.016561594
5	0xb945617c	-0.000188237
6	0x3e04bbb3	0.12962227
7	0xbd4e53ab	-0.05037276
8	0xbaaf701b	-0.001338485
9	0x3d097cf2	0.033566423
10	0xbe280e7e	-0.16411778
11	0x3cad2c37	0.021139247
12	0x3d5ed172	0.05439896
13	0xbd9568ca	-0.072953776
14	0x3d8a3184	0.067477256
15	0x3e62ed89	0.22160925
16	0xbdcba248	-0.09943062
17	0x3cb14413	0.021638906
18	0xbc81ca6e	-0.015843596
19	0x3da326be	0.07966374
20	0xbdabad87	-0.08382707
21	0x3de6ae58	0.11263722
22	0x3d2a3ecd	0.041563798
23	0x3c0e161b	0.008672263
24	0xbd734671	-0.05939335
25	0x3e00ae93	0.12566595
26	0x3c7e9e0d	0.015540612
27	0xbe2233c8	-0.15840065
28	0x3de0de47	0.10979896
29	0x3d31daec	0.04342167
30	0x3d05c471	0.032658044
31	0x3e401f52	0.18761948
32	0xbd8105e1	-0.062999494
33	0x3e02edfb	0.12786095
34	0xbe2deb9b	-0.16984408
35	0xbd594a1a	-0.053049184
36	0xbd71a6eb	-0.058997076
37	0xbe13b615	-0.14424928
38	0xbbb19974	-0.0054199044
39	0x3b35afe2	0.0027723243
40	0x3c94d246	0.018166672
41	0xbc9907f8	-0.018680558
42	0x3e2214ae	0.15828201
43	0xbc509c04	-0.0127325095
44	0xbc078654	-0.008271772
45	0x3d9dc2b1	0.0770315
46	0x3dfe73a1	0.12424398
47	0x3e059508	0.13045132
48	0xbdf6fcda	-0.12059946
49	0xbe81e4f0	-0.25369978
50	0xbcbf180d	-0.023326898
51	0xbdf4df76	-0.11956684
52	0x3c0e2caf	0.008677646
53	0x3d81feea	0.06347449
54	0xbe3e2397	-0.18568264
55	0x3c7c99c3	0.015417519
56	0x3c0a31ec	0.008434754
57	0x3dbb2ece	0.09139787
58	0x3d26d403	0.040729534
59	0xbdb46247	-0.088078074
60	0xbd71c580	-0.05902624
61	0x3d938b3c	0.07204291
62	0xbca7f908	-0.02050449
63	0x3c48a48a	0.01224626
64	0xbda7945f	-0.081825964
65	0x3cc792fb	0.024362078
66	0xbd0c2b7a	-0.03422115
67	0xbd808861	-0.06276012
68	0x3d25796b	0.040398996
69	0x3b090308	0.0020906348
70	0x3d9608e1	0.07325912
71	0x3b960cdd	0.00457917
72	0x3bae0355	0.005310456
73	0xbb732b96	-0.0037104837
74	0xbc0b4c3e	-0.008502064
75	0x3d6094ff	0.054829594
76	0x3c8b3146	0.016991269
77	0xbcbd4ed7	-0.023108883
78	0x3c8a1015	0.016853372
79	0x3da70d80	0.08156872
80	0xbbda92cc	-0.0066703316
81	0xbce5088a	-0.027958173
82	0xbdbc28ba	-0.091874555
83	0x3d6cae2a	0.057783283
84	0xbd8b7ca8	-0.06810886
85	0xbc17c830	-0.009264037
86	0x3ce2cedc	0.027686529
87	0x3cc204da	0.023683954
88	0x3c19d548	0.009389229
89	0x3ddd49d1	0.10805095
90	0xbd0d84f9	-0.03455064
91	0xbd55f6dc	-0.052237377
92	0x3bffd196	0.007806967
93	0x3ced89e9	0.028996425
94	0xbb3d40c9	-0.0028877726
95	0x3c25987b	0.010107155
96	0xbcb38e14	-0.021918334
97	0x3cf2edda	0.029654432
98	0xbd201734	-0.03908463
99	0xbc0b3e80	-0.008498788
100	0xbd2369f0	-0.03989595
101	0xbcfa7e16	-0.0305777
102	0xbcd83c27	-0.02639587
103	0x3b17a5a2	0.0023139496
104	0x3ca0fce7	0.019651843
105	0x3d9aef66	0.07565193
106	0x3d593b11	0.053034846
107	0xbd234e04	-0.039869323
108	0xbb9eb305	-0.004843118
109	0x3ce850f3	0.028358912
110	0x3cf9417b	0.030426731
111	0x3d6c121f	0.05763447
112	0xbcb1fd01	-0.021727087
113	0xbd568c0a	-0.052379645
114	0x3d9ecdd8	0.07754105
115	0xbce5682c	-0.028003775
116	0xbd35e2c8	-0.04440573
117	0x3d9535a2	0.0728562
118	0x3cf8c509	0.030367391
119	0x3d1ad09a	0.037796594
120	0xbdbe798d	-0.09300528
121	0x3d04d132	0.032426067
122	0x3b354c75	0.002766398
123	0x3d0de2a0	0.034639955
124	0xbd9ab8ff	-0.075548165
125	0x3ccdbf16	0.025115531
126	0x3db3f3af	0.08786713
127	0x3da3c0e4	0.07995775
128	0x3d92c49e	0.07166408
129	0x3c887788	0.01665856
130	0x3a811ed2	0.0009851104
131	0xbd1c87f9	-0.03821561
132	0x3cd62ed1	0.02614537
133	0x3ca42a2d	0.020039642
134	0xbd4ebf32	-0.050475307
135	0x3d0429e6	0.03226652
136	0x3c4eeb4c	0.012629341
137	0xbcb5da74	-0.022198893
138	0xbcbde5bc	-0.023180835
139	0x3d14a765	0.036292452
140	0xbc29a7c3	-0.010354939
141	0x3d3f71fa	0.046739556
142	0xbd36e4ea	-0.044651903
143	0xbd9eab8b	-0.07747563
144	0xbb59a1ce	-0.0033208015
145	0xbcdd29aa	-0.026997406
146	0x3dda4be7	0.106590085
147	0xbd30d2b2	-0.043169685
148	0x3d22d099	0.039749715
149	0xbc51c96d	-0.012804371
150	0xbc831982	-0.016003374
151	0xbcc1d66c	-0.023661815
152	0x3c68409e	0.014175562
153	0xbdacd8bc	-0.08439776
154	0xbd0f9670	-0.035055578
155	0x3d9d641a	0.076851085
156	0xbd9586d7	-0.07301109
157	0xbc462719	-0.012094283
158	0xbc2e738a	-0.010647664
159	0xbd61c6a7	-0.05512109
160	0x3c919254	0.01776997
161	0x3ccb5971	0.024822922
162	0x3d2d1f50	0.04226619
163	0x3d0a74f8	0.033802956
164	0x3db5fdff	0.088863365
165	0x3c3c59ac	0.011495989
166	0xbc513452	-0.012768822
167	0xbcb66c7f	-0.022268532
168	0x3b862e80	0.0040948987
169	0xbd02ec9f	-0.03196394
170	0xbd251c38	-0.040310115
171	0x3dae7ed5	0.08520285
172	0x3b46cbe9	0.0030333942
173	0xbd278ff8	-0.040908784
174	0xbcbc6a69	-0.022999959
175	0xbb004122	-0.0019570072
176	0xbdc4df3f	-0.09612893
177	0x3cee6474	0.029100634
178	0x3cf8abcb	0.030355355
179	0x3a9a4841	0.0011770801
180	0xbd3d2932	-0.046181865
181	0x3d82b0d4	0.063813835
182	0xbc5447fd	-0.0129566165
183	0x3c96596b	0.018353185
184	0x3d8cb295	0.06869999
185	0xbdb37563	-0.08762624
186	0x3c28d87a	0.010305518
187	0x3d67dd94	0.056607798
188	0x3cac1b71	0.021009179
189	0xbcb4a3c5	-0.022050748
190	0xbd6a9b40	-0.057276964
191	0x3d35d55b	0.044392925

bias f4 [3]
0	0xbc8131bb	-0.015770784
1	0xbd596383	-0.053073417
2	0x3dfc289e	0.123124346

weight f4 [64, 16]
0	0xbe0f13db	-0.13972418
1	0x3e9b8734	0.3037659
2	0xbdf18003	-0.117919944
3	0x3d97e124	0.07415989
4	0xbc909525	-0.017649243
5	0xbe6364c9	-0.22206415
6	0xbde554f1	-0.11197842
7	0x3d78ad2d	0.06071203
8	0x3e29d80f	0.16586326
9	0xbe5342cc	-0.2063095
10	0x3db210d4	0.08694616
11	0x3e710faa	0.23541132
12	0xbd98f4f8	-0.07468599
13	0xbd0ebacf	-0.034846123
14	0xbe8c4536	-0.27396554
15	0xbe8b8fa5	-0.2725803
16	0x3ebea826	0.37237662
17	0x3da64995	0.081195034
18	0xbe5d4bb4	-0.2161091
19	0xbdca6d19	-0.0988409
20	0x3e0aa742	0.13540366
21	0x3e8d4960	0.27595043
22	0xbdb99ae7	-0.090627484
23	0xbe24e687	-0.16103564
24	0xbf2b4e2f	-0.66916174
25	0x3d2f8028	0.04284683
26	0xbbd86940	-0.0066043437
27	0x3e3aba7a	0.18235198
28	0x3d5f9418	0.054584593
29	0xbd9f268d	-0.07771025
30	0x3ec27004	0.37976086
31	0x3eb31dc6	0.34983653
32	0xbe31affd	-0.1735229
33	0x3e3d593a	0.18491068
34	0x3e50465b	0.20339338
35	0xbd834041	-0.0640874
36	0xbeaa746f	-0.33291957
37	0xbecc30e2	-0.39881045
38	0xbe795005	-0.24346931
39	0xbdb3df11	-0.08782781
40	0x3c102116	0.008796951
41	0xbeeb31dd	-0.4593648
42	0xbe438376	-0.19093117
43	0xbd1f0a98	-0.038828462
44	0x3e594fd0	0.21221852
45	0xbd501851	-0.05080444
46	0xbe13f482	-0.14448741
47	0xbebd7c37	-0.3700883
48	0x3db14af3	0.086568736
49	0x3dde50e4	0.108552724
50	0xbf049a71	-0.5179816
51	0xbd1beac2	-0.03806568
52	0xbd5d2063	-0.053985965
53	0x3ed2eb8e	0.4119534
54	0xbde6fbaf	-0.112784736
55	0x3f00378d	0.50084764
56	0x3fcabf47	1.5839623
57	0xbe5dc8ab	-0.2165858
58	0x3e71f3a2	0.23628095
59	0x3e5df23c	0.21674436
60	0xbe4a47bc	-0.19753927
61	0xbe32632e	-0.17420647
62	0x3db90b75	0.090353884
63	0xbe3b66ee	-0.18300983
64	0x3f0acc9c	0.5421846
65	0xbe10236a	-0.1407601
66	0x3eef0139	0.4668062
67	0xbbad5b3f	-0.0052904184
68	0x3e606fad	0.21917601
69	0x3e91ad08	0.28452325
70	0x3d64fd74	0.055905774
71	0x3b8304b0	0.0039983615
72	0xbf943f87	-1.1581887
73	0x3dfa106a	0.12210162
74	0xbe45bd94	-0.193106
75	0xbe6c4856	-0.23074469
76	0xbd69ca88	-0.057077914
77	0x3e0f7da2	0.14012769
78	0x3ea6bf85	0.32567993
79	0xbe024ee3	-0.12725405
80	0xbd23565c	-0.03987728
81	0x3dc77f67	0.09741097
82	0x3dc11128	0.094271004
83	0x3e2a84a8	0.16652167
84	0xbe6c927c	-0.23102754
85	0xbcf4ffe3	-0.029907173
86	0x3db7d939	0.08976979
87	0xbe2d4ab7	-0.16923033
88	0x3e21142d	0.15730353
89	0xbe537096	-0.20648417
90	0x3e1fbd7e	0.1559963
91	0x3da6756c	0.08127865
92	0xbd916ecc	-0.07101211
93	0x3de8bf36	0.113645956
94	0x3e7a256a	0.24428335
95	0x3e5da4d9	0.21644916
96	0x3e995059	0.29944113
97	0xbea6d18e	-0.32581753
98	0xbe935316	-0.28774327
99	0x3e52443c	0.20533842
100	0x3e85eead	0.26158658
101	0x3e9fc185	0.3120233
102	0xbe6219a2	-0.2208009
103	0x3f9288e1	1.1448022
104	0x3fbef7d4	1.4919381
105	0xbe94d6ae	-0.29070038
106	0xbd84b938	-0.0648064
107	0x3e6243ca	0.22096172
108	0xbdb2dd28	-0.087335885
109	0xbdcab040	-0.09896898
110	0xbe1f6a74	-0.15567952
111	0xbe44329e	-0.19159934
112	0x3d3167a0	0.043311715
113	0x3e1b4c50	0.1516583
114	0x3cf22a80	0.029561281
115	0xbc7ca1a0	-0.015419394
116	0x3c6cf0e0	0.014461726
117	0xbe3ff8cc	-0.18747252
118	0xbe06e2c6	-0.13172445
119	0x3c4cf640	0.012509882
120	0xbe4c9e8e	-0.19982359
121	0x3dfd9844	0.12382558
122	0x3d1c13f0	0.03810495
123	0x3b2c8500	0.0026324391
124	0xbc836d50	-0.016043335
125	0x3e58377c	0.21114916
126	0x3e69a1c2	0.22815612
127	0x3df9ff04	0.122068435
128	0xbdab9b91	-0.08379281
129	0x3ef071bd	0.46961775
130	0x3d604903	0.05475713
131	0xbe8ae7b4	-0.271299
132	0xbefdef5f	-0.49596688
133	0xbec93186	-0.39295596
134	0xbe60baeb	-0.21946304
135	0x3d91aa4d	0.071125604
136	0xbf600bab	-0.87517804
137	0xbaec1ab2	-0.0018013327
138	0x3daea7a0	0.08528066
139	0x3dc6bf40	0.09704447
140	0x3d894d1c	0.067041606
141	0xbd970ec4	-0.07375863
142	0xbdfffb74	-0.12499133
143	0xbe3ad1af	-0.1824405
144	0xbe1c14f0	-0.15242362
145	0xbdb49882	-0.08818151
146	0xbd875a05	-0.06608967
147	0x3d8af5c8	0.0678516
148	0xbe25d7d8	-0.16195619
149	0xbb4368c0	-0.0029817075
150	0x3e320d53	0.17387895
151	0x3e2e50b1	0.17022969
152	0xbe0774a7	-0.13228093
153	0x3cf56a16	0.029957812
154	0x3e276430	0.16346812
155	0xbe6887c2	-0.22708037
156	0x3e239d28	0.15977919
157	0xbe40cb7a	-0.1882762
158	0xbe5a743b	-0.21333401
159	0xbe0ddad0	-0.13853002
160	0x3d880877	0.066422395
161	0x3f61734b	0.8806655
162	0x3ea26a86	0.31721896
163	0x3e5f28bb	0.21792881
164	0xbf5e7dc8	-0.86910677
165	0x3ea57d9a	0.3232239
166	0xbbc42ba3	-0.005986647
167	0xbf6706fd	-0.9024504
168	0x3f3e7ee8	0.74412394
169	0x3ccc82fe	0.024964806
170	0xbdea3184	-0.114352256
171	0x3de0fac8	0.10985333
172	0xbe3941dc	-0.1809153
173	0x3ce6eb2e	0.028188314
174	0x3eaf9ec6	0.34300822
175	0x3d4e991a	0.050438978
176	0x3e0b7fdc	0.13622993
177	0xbdaa412d	-0.083132125
178	0x3de0c7d5	0.10975615
179	0x3e312821	0.17300464
180	0xbe9b44ef	-0.3032603
181	0x3e349fac	0.17639035
182	0xbd49ac37	-0.049236502
183	0x3e7220fb	0.23645394
184	0x3e174131	0.14770962
185	0xbe015070	-0.1262834
186	0x3dbf8344	0.09351209
187	0x3e2ce354	0.16883594
188	0x3e68bf68	0.22729266
189	0x3e8d40f3	0.27588615
190	0x3e0b823c	0.13623899
191	0x3dd0413e	0.10168694
192	0xbd296e69	-0.04136506
193	0xbe88a8f0	-0.2669139
194	0xbd76c1d4	-0.060243443
195	0xbd22a59f	-0.03970873
196	0xbdba4041	-0.09094287
197	0xbdd86d4f	-0.10567724
198	0xbde58c99	-0.112084575
199	0xbe334e79	-0.17510404
200	0x3c593f4f	0.013259723
201	0xbea8afe8	-0.32946706
202	0x3e73f782	0.23824885
203	0x3dfc5dc0	0.12322569
204	0x3e391456	0.18074164
205	0xbe9738f3	-0.29535636
206	0xbea79383	-0.3272973
207	0x3dd3b390	0.10336983
208	0x3db066c2	0.086133495
209	0x3ee1b30d	0.44081917
210	0xbd7174f7	-0.058949437
211	0x3e09e3fa	0.13465872
212	0xbeef45fe	-0.46733087
213	0x3e855663	0.2604247
214	0x3e33afed	0.17547579
215	0x3f378166	0.7168182
216	0x3f91b11c	1.1382174
217	0xbe36762a	-0.17818514
218	0x3e36f1ae	0.17865631
219	0x3cb21580	0.021738768
220	0x3e5b32b2	0.21406057
221	0xbe06dd1e	-0.13170287
222	0xbe8ff05e	-0.28113073
223	0x3d08bf87	0.03338578
224	0x3bf9a14c	0.007618105
225	0x3d86e37c	0.06586358
226	0x3ee8d74b	0.45476755
227	0xbe24cb36	-0.16093144
228	0xbe808743	-0.25103197
229	0x3ea6a2d3	0.325461
230	0x3e610028	0.21972716
231	0x3f653f58	0.8954978
232	0xbe44c447	-0.19215499
233	0xbdbdd8f0	-0.09269893
234	0xbe46c380	-0.19410515
235	0xbe0691f0	-0.13141608
236	0x3e2cb630	0.16866374
237	0xbe011668	-0.12606204
238	0x3e8a0547	0.2695715
239	0x3df23f02	0.11828424
240	0x3d8912d3	0.066930436
241	0x3c9a6a7e	0.018849608
242	0x3bef210f	0.007297642
243	0xbcae77f3	-0.02129743
244	0xbe4c50a4	-0.19952637
245	0x3d60614b	0.054780286
246	0x3e76405b	0.24047987
247	0x3e65f499	0.22456588
248	0xbe661d2c	-0.22472066
249	0xbdd151e6	-0.10220699
250	0x3deb4e10	0.114894986
251	0xbe6a3a08	-0.228737
252	0x3e642dfe	0.2228317
253	0x3e6740bd	0.2258329
254	0x3e3d3946	0.1847888
255	0x3dd9c599	0.10633392

bias f4 [64]
0	0xbe1b4f9a	-0.15167084
1	0xbdc40ec7	-0.09573131
2	0xbd23598c	-0.03988032
3	0xbe14ddbe	-0.14537713
4	0x3ea77995	0.32709947
5	0xbc87e997	-0.016590877
6	0xbe179282	-0.14801982
7	0x3e02571e	0.12728545
8	0xbe8cd71f	-0.27507874
9	0xbe51bb54	-0.20481616
10	0x3e57197d	0.21005817
11	0xbcf0d4bb	-0.029398313
12	0xbe86dea9	-0.2634175
13	0xbe4eacb4	-0.20183069
14	0x3e021946	0.12704954
15	0x3dbf8098	0.09350699
16	0xbd3e79ab	-0.04650275
17	0x3e571c20	0.21006823
18	0x3d4ddb5a	0.050258018
19	0xbe8ace2e	-0.27110428
20	0x3eafd4fd	0.34342185
21	0xbe622a54	-0.2208646
22	0xbe4c7d58	-0.1996969
23	0x3dd04be5	0.10170726
24	0x3ec4c4d8	0.3843143
25	0xbec57081	-0.38562396
26	0x3eaf5db1	0.34251168
27	0x3e337a6f	0.17527173
28	0xbe94cb59	-0.29061392
29	0xbe47f344	-0.19526392
30	0xbebff938	-0.37494826
31	0xbe5a9641	-0.2134638
32	0xbc382880	-0.011240125
33	0xbc4aa8e6	-0.01236937
34	0xbe17938a	-0.14802375
35	0xbbcf41c6	-0.0063249795
36	0xbec2e292	-0.38063484
37	0x3e9222b5	0.28542104
38	0x3ed4a39f	0.41531083
39	0x3df97304	0.121801406
40	0xbdcdef24	-0.10055378
41	0xbec12e61	-0.37730697
42	0x3e3c43f3	0.18385296
43	0xbec65c1a	-0.38742143
44	0x3d826e80	0.063687325
45	0x3cb3b6cd	0.021937752
46	0x3c364f60	0.011127323
47	0x3ed23f9c	0.41064155
48	0xbe37a276	-0.17933068
49	0xbefc5d8a	-0.49290115
50	0x3dad6288	0.08466059
51	0xbe5c5829	-0.21518005
52	0xbeabeaa8	-0.33577466
53	0xbe7722b8	-0.24134338
54	0xbd15b426	-0.036548756
55	0xbdc3dbc4	-0.09563401
56	0xbe5ee343	-0.21766381
57	0x3e1428e5	0.14468725
58	0x3d40d344	0.04707648
59	0xbd7dd00a	-0.06196598
60	0x3e9dc16f	0.3081164
61	0x3dc46682	0.09589864
62	0xbe8cbe10	-0.27488756
63	0xbd178a8c	-0.036997363

weight f4 [64, 64]
0	0xbe817233	-0.2528244
1	0x3ed1a953	0.40949497
2	0xbe937f16	-0.28807896
3	0xbe5b503b	-0.21417324
4	0x3e1d5845	0.15365703
5	0x3eabf838	0.33587813
6	0xbd9c61c5	-0.076358356
7	0x3e8b3b64	0.2719375
8	0x3e299e69	0.16564335
9	0xbe826767	-0.25469515
10	0xbdb5252f	-0.08844983
11	0x3e78ff0b	0.24316041
12	0xbe8a99fd	-0.2707061
13	0xbcab1e36	-0.02088843
14	0xbd9a26b4	-0.07526913
15	0x3e723ac5	0.23655231
16	0xbd1ca0cb	-0.03823928
17	0x3ebb0650	0.36528254
18	0x3ec1baa0	0.37837696
19	0x3d894e41	0.06704379
20	0xbe6171bb	-0.22016041
21	0xbec3e16a	-0.38257915
22	0xbec6df24	-0.38842118
23	0x3e0c4b43	0.13700585
24	0xbe3451e8	-0.1760937
25	0x3ccb03cb	0.024782082
26	0x3dfc5503	0.12320902
27	0xbe510b2a	-0.20414415
28	0xbed5fdc6	-0.41795176
29	0x3e945c12	0.28976494
30	0x3e9f1dca	0.31077415
31	0xbdb746db	-0.089490615
32	0x3e6e0f8d	0.2324812
33	0xbeec5195	-0.46155992
34	0xbe126eba	-0.14300051
35	0xbe8618f6	-0.2619092
36	0xbe5a6396	-0.21327052
37	0xbd468b08	-0.048472434
38	0x3db1eaf9	0.086873956
39	0x3eb8bdba	0.3608225
40	0x3e5190eb	0.20465438
41	0xbd17690d	-0.03696542
42	0x3e707cd0	0.23485112
43	0xbd16b0af	-0.036789592
44	0xbe2f019e	-0.1709046
45	0x3e0d7e54	0.13817722
46	0xbd82050b	-0.06348618
47	0xbea7329a	-0.32655793
48	0xbe4c05d1	-0.19924094
49	0x3e158a9e	0.1460366
50	0x3e158314	0.14600784
51	0x3ceb7a6e	0.028744902
52	0xbcc1b1e0	-0.023644388
53	0xbed58646	-0.41704005
54	0x3e14bf0d	0.14526005
55	0xbe62f2de	-0.22162959
56	0xbeb2a4be	-0.34891313
57	0x3db4521b	0.08804723
58	0xbdf781ef	-0.1208533
59	0xbe3a0a96	-0.181681
60	0xbce519a2	-0.027966324
61	0x3e7a1fa9	0.2442614
62	0xbcf185cd	-0.029482746
63	0xbe7a35a5	-0.24434526
64	0xbddc081a	-0.10743733
65	0x3df46577	0.119334154
66	0xbbbf404e	-0.005836523
67	0x3f0d3ed8	0.55174017
68	0xbe5cce1b	-0.21562998
69	0x3db9e2a6	0.09076433
70	0xbdb15bc8	-0.08660084
71	0xbda8639b	-0.08222123
72	0x3e81a545	0.25321403
73	0xbd932526	-0.0718482
74	0x3de51f23	0.111875795
75	0xbc47b264	-0.012188528
76	0xbd5cd567	-0.053914454
77	0x3d938260	0.072026014
78	0x3dbbb2bb	0.091649495
79	0x3c820e62	0.015875999
80	0x3ce456ca	0.027873415
81	0x3d9c9c84	0.076470405
82	0x3d8b9942	0.06816341
83	0x3e80bd38	0.25144362
84	0xbebd2081	-0.3693886
85	0xbdf9f3a8	-0.12204677
86	0xbdddb7f9	-0.108261056
87	0xbe8b7f7f	-0.2724571
88	0xbeaa984f	-0.33319327
89	0xbe4d618a	-0.2005674
90	0x3e3176f3	0.17330532
91	0xbe0db2a6	-0.1383768
92	0x3d1f433f	0.03888249
93	0x3dd3d4b6	0.10343306
94	0x3dac3dac	0.084102005
95	0x3e2986a1	0.16555263
96	0x3c89cbcf	0.016820816
97	0xbc122aa5	-0.0089213
98	0x3cfe30e3	0.03102917
99	0xbc95743c	-0.018243901
100	0xbd383d69	-0.04498044
101	0xbeae9d53	-0.34104404
102	0xbe80468d	-0.25053826
103	0x3c7fb142	0.015606226
104	0x3db631de	0.0889623
105	0x3e576a0a	0.21036544
106	0x3dbfa64e	0.09357892
107	0x3e70eeec	0.23528641
108	0x3e6b9f74	0.23010045
109	0xbe8276ea	-0.2548135
110	0x3e08b7d8	0.13351381
111	0xbef8cc77	-0.48593494
112	0x3a7115ca	0.0009196667
113	0x3ea5b384	0.32363522
114	0x3eab00b0	0.33398962
115	0x3ee56dc0	0.44810295
116	0x3e238918	0.15970266
117	0xbdc60e20	-0.09670663
118	0x3eab20dc	0.33423507
119	0x3de3f39b	0.111304484
120	0x3d335a2c	0.043787166
121	0xbe5540d2	-0.20825508
122	0xbdf1d41c	-0.11808035
123	0x3b739e79	0.0037173314
124	0xbf08bfdf	-0.5341777
125	0x3e148828	0.14505064
126	0x3ee05ca4	0.4382068
127	0x3da80f27	0.08206015
128	0xbd57b439	-0.052662108
129	0x3d66c27f	0.05633783
130	0xbe08f46f	-0.13374494
131	0xbe48e9b6	-0.19620404
132	0x3ed2ddf4	0.41184962
133	0xbda4df8c	-0.08050451
134	0xbe1e1f4a	-0.15441623
135	0x3e1856e3	0.14876895
136	0x3e8dde4c	0.27708662
137	0xbe1928cd	-0.1495697
138	0xbd54b53d	-0.051930655
139	0x3c627470	0.013821706
140	0x3b35f366	0.0027763485
141	0xbf8c4213	-1.0957664
142	0x3efc9e55	0.49339548
143	0xbd62593b	-0.055260878
144	0x3e783801	0.24240114
145	0x3ddfcfd6	0.109283134
146	0xbb4beae5	-0.003111535
147	0x3dddeaca	0.10835798
148	0x3de5659d	0.11201022
149	0xbd29669d	-0.041357625
150	0xbdd917bf	-0.10600232
151	0x3e2ca051	0.16858031
152	0x3e78f385	0.24311645
153	0xbcc54900	-0.02408266
154	0x3ef6b106	0.48181933
155	0x3db0f028	0.08639556
156	0x3d0cd35b	0.03438125
157	0x3c6815cf	0.014165356
158	0xbeb7fc22	-0.3593455
159	0xbe88b2c4	-0.26698887
160	0xbd05222b	-0.03250329
161	0x3da0c01d	0.07849143
162	0x3d64a723	0.055823456
163	0x3d304a43	0.04303957
164	0x3e252dc4	0.1613074
165	0x3f396a2b	0.72427624
166	0xbdcd4b0c	-0.1002408
167	0xbdaeb790	-0.085311055
168	0x3e26d438	0.16291893
169	0xbeb5b4c5	-0.3548948
170	0xbe936ab7	-0.28792354
171	0xbea29585	-0.317547
172	0xbe2d7091	-0.16937472
173	0x3e92e4db	0.28690228
174	0xbe4925fb	-0.19643395
175	0x3e8239b7	0.25434658
176	0xbdd0d0d2	-0.10196079
177	0x3e338840	0.17532444
178	0x3d9324cf	0.07184755
179	0xbe6b8706	-0.23000726
180	0xbec6d49a	-0.38834077
181	0xbdc52031	-0.09625281
182	0xbd455405	-0.04817583
183	0xbcb940cb	-0.022613904
184	0xbe12abc9	-0.14323343
185	0xbde4105c	-0.11135933
186	0x3dd3233a	0.10309453
187	0xbde98739	-0.11402745
188	0x3e334ed6	0.17510542
189	0x3bb26ff9	0.005445477
190	0xbea269f3	-0.31721458
191	0x3d8c027e	0.06836413
192	0x3cc46dbf	0.023978112
193	0x3df6ecd5	0.12056891
194	0x3d81556e	0.063151225
195	0xbf1cd07c	-0.6125562
196	0xbe73862b	-0.2378165
197	0xba718320	-0.00092129596
198	0xbe13d023	-0.14434867
199	0xbdc52a51	-0.09627212
200	0x3e9f9a28	0.311723
201	0x3de58e00	0.11208725
202	0x3e43fc34	0.19139177
203	0xbd93ad67	-0.07210808
204	0x3dc5a54b	0.09650668
205	0x3ec02cc9	0.37534168
206	0xbf0b5c81	-0.54438025
207	0xbd75bc57	-0.059994068
208	0xbcc1a985	-0.023640404
209	0xbcade88e	-0.021229055
210	0xbe21ee3c	-0.15813535
211	0x3c6cb53b	0.014447506
212	0x3d6fbc75	0.058529336
213	0x3d081b69	0.033229265
214	0xbd83babb	-0.064321004
215	0x3ed3b6d3	0.4135042
216	0xbea0d342	-0.31411177
217	0x3e920e27	0.28526422
218	0x3d47ec5c	0.048809394
219	0xbc084356	-0.008316835
220	0xbd87e121	-0.06634737
221	0xbd8e49be	-0.06947659
222	0xbd58b356	-0.052905403
223	0xbde74b37	-0.11293643
224	0x3dd4c9fa	0.103900865
225	0x3dea90fb	0.11453434
226	0x3d508362	0.050906546
227	0x3d1a2542	0.037633188
228	0x3da8611a	0.08221646
229	0x3f117bfd	0.56829816
230	0x3d17531f	0.036944505
231	0x3ddb7326	0.10715322
232	0xbd531753	-0.051535916
233	0xbdb8f719	-0.09031505
234	0xbea2749e	-0.31729597
235	0x3e441f13	0.19152479
236	0x3eee9273	0.46596107
237	0x3e22948e	0.15876982
238	0x3e5ab7ad	0.21359129
239	0xbea50853	-0.32232913
240	0x3de88b92	0.11354746
241	0x3e73a9f2	0.23795298
242	0x3e9130dd	0.28357592
243	0x3f2f96ef	0.6858968
244	0x3f23c6ff	0.6397552
245	0xbd9ff41a	-0.078102306
246	0x3e6378d6	0.22214064
247	0x3d9a1ba5	0.07524804
248	0xbc60395b	-0.01368555
249	0x3dabb16f	0.08383452
250	0x3eaddc4b	0.33957133
251	0xbdbc0421	-0.09180475
252	0xbe89c4d2	-0.26907974
253	0x3d26e095	0.040741522
254	0x3e1f54d4	0.15559703
255	0xbcd5c249	-0.026093619

bias f4 [64]
0	0x3e6b5fd5	0.22985776
1	0x3de93ba6	0.1138833
2	0x3e060ab9	0.13090028
3	0x3c982741	0.018573405
4	0xbcebf8a5	-0.028805086
5	0x3e4f340c	0.20234698
6	0xbe48f6ff	-0.19625472
7	0xbddcd7fb	-0.107833825
8	0x3d171344	0.036883608
9	0xbe9c2070	-0.30493498
10	0x3dcd4a01	0.10023881
11	0x3e677aa1	0.22605373
12	0x3dfc8291	0.12329591
13	0xbd35a169	-0.044343386
14	0x3d2dbf24	0.042418614
15	0x3ef3745f	0.47549722
16	0xbe414a57	-0.18876015
17	0xbd280617	-0.041021433
18	0xbdcd30f3	-0.10019102
19	0xbe23edea	-0.16008726
20	0x3b301743	0.0026869334
21	0xbdea7363	-0.114477895
22	0x3e098c6b	0.13432471
23	0x3e3e9a22	0.18613485
24	0xbe14ca1b	-0.14530222
25	0xbd684f92	-0.05671651
26	0x3d0acecd	0.033888627
27	0x3c44e9e1	0.012018652
28	0x3deae2a6	0.11469011
29	0xbe347309	-0.17622007
30	0xbdd8356f	-0.10557067
31	0xbd7b021d	-0.061281312
32	0x3edc8fd6	0.43078488
33	0x3e91db27	0.28487512
34	0xbebcd3d1	-0.36880353
35	0xbeb0ad01	-0.34506992
36	0x3c7b6929	0.015344896
37	0x3e9aef03	0.30260476
38	0xbd9e4deb	-0.077297054
39	0x3d23fb3a	0.04003451
40	0x3e565e68	0.2093445
41	0x3ea5ba85	0.32368866
42	0x3e50aaa7	0.20377599
43	0x3e321783	0.17391782
44	0x3db7331e	0.08945297
45	0x3e15cb86	0.1462842
46	0xbe2cae4f	-0.16863368
47	0xbdd9d2fd	-0.10635946
48	0xbf0443d4	-0.51666
49	0x3e8d0ef4	0.2755047
50	0xbdd0d759	-0.10197324
51	0x3d7016b3	0.058615398
52	0xbd2bf95b	-0.04198585
53	0xbe8fd8b8	-0.2809503
54	0xbbb8f752	-0.0056447173
55	0xbdebb4a0	-0.11509061
56	0xbe710b03	-0.23539357
57	0x3e1afd78	0.15135753
58	0x3e538230	0.20655131
59	0x3ed8668e	0.42265743
60	0x3e31bcf8	0.17357242
61	0x3d385037	0.044998374
62	0x3e1ba132	0.1519821
63	0xbe29680c	-0.16543597

weight f4 [1, 64]
0	0xc0a59cc3	-5.175386
1	0xc04cd515	-3.2005055
2	0x401fffae	2.4999804
3	0xbff532d5	-1.9156138
4	0x4051603a	3.2714982
5	0xc07206c7	-3.7816637
6	0x40a34eed	5.1033845
7	0x4024a587	2.572603
8	0x3d96c95f	0.07362627
9	0x40a5e3b7	5.184047
10	0xc0444ca7	-3.0671785
11	0xc07bae01	-3.9324954
12	0xc05d3c43	-3.456803
13	0x3da94a4b	0.082661234
14	0x4011f0e5	2.280328
15	0xc09df3eb	-4.936025
16	0x403815f2	2.8763394
17	0x406beda8	3.6863804
18	0x3f880054	1.06251
19	0x402989a0	2.649025
20	0x4049699f	3.1470716
21	0xbeecb6ff	-0.46233365
22	0xbfb8c9f2	-1.4436629
23	0xc02ff70e	-2.749454
24	0x40387ed7	2.8827417
25	0x40002098	2.0019894
26	0x3fa4d66d	1.2877938
27	0xbfef3b25	-1.8689924
28	0xbf857902	-1.0427554
29	0xc0154a21	-2.3326495
30	0x3f9ea22b	1.239324
31	0x3ee36b39	0.44417742
32	0xc0a6cd29	-5.212544
33	0xc09a66c3	-4.825044
34	0x40a63393	5.1937957
35	0x4097163a	4.721463
36	0xbe8158c5	-0.25263038
37	0xc06705bd	-3.6097252
38	0x409b4315	4.8519387
39	0x3e9c976a	0.3058427
40	0xbf239ad4	-0.63908124
41	0xc06ea54e	-3.7288394
42	0xbe97d4c2	-0.2965451
43	0xc051d0be	-3.2783656
44	0xc00819a3	-2.1265647
45	0xc042a598	-3.041357
46	0x3fbafc85	1.4608313
47	0x408d71fc	4.420164
48	0x40a3fdc9	5.1247296
49	0xc01469f8	-2.3189678
50	0x3fd1e1f1	1.6397077
51	0x3f653d56	0.89546716
52	0x3ff22cc4	1.8919911
53	0x4069d98b	3.6539028
54	0xbfe010ab	-1.7505087
55	0x3fbdc8ac	1.4826865
56	0x3d8e3bb5	0.06944982
57	0xbf8ba0d0	-1.0908451
58	0xc099c676	-4.805476
59	0xc0a3f27b	-5.1233497
60	0xbe7efe01	-0.24901582
61	0xbfc02f05	-1.5014349
62	0xbf56914c	-0.83815455
63	0x3fb7bdfb	1.4354852
