output/ddpg/2021-12-20_12-55-42-ddpg_s0/pyt_save/model.pt (torch_old, 48433 bytes, 11 tensors)

weight f4 [64, 16]
000000 00 54 f5 ba 5e 54 09 3e 16 b3 52 be 80 66 3c be
       -0.001871705 0.1341109 -0.20576128 -0.18398476
000010 f4 32 c5 bd ec 4b 89 3d 40 4f a2 bb ce fa 4a 3e
       -0.09628859 0.06703934 -0.004953295 0.19822237
000020 70 bf b5 bc 4c 7b 87 3d ac bb 9a bd 70 48 49 bd
       -0.022186011 0.06615314 -0.07555327 -0.049141347
000030 b8 91 74 be 52 8b 29 be e8 0e d3 bd 00 bb 17 3c
       -0.23883712 -0.16557053 -0.103055775 0.009260893
000040 22 7c f2 3d 39 a7 0e 3e e8 11 2a be 73 1f ae bd
       0.11840083 0.13930978 -0.16608393 -0.08502092
000050 21 18 96 3d 9d b0 67 3e 55 41 54 bc 71 4f 58 3e
       0.07328821 0.22625966 -0.0129550295 0.21124054
000060 f5 e8 ae bc f5 81 86 3d ba 09 47 3e d0 a7 83 be
       -0.021351317 0.06567756 0.19437304 -0.25713968
000070 b9 74 f1 bd e3 29 e5 bc 1c 53 88 bd b0 d4 82 3e
       -0.11789841 -0.027974075 -0.06656477 0.25552893
000080 a0 6d 12 be a7 a3 05 be c7 e6 36 be 96 89 71 be
       -0.14299631 -0.1305071 -0.17861472 -0.23587641
000090 d6 71 14 be 8a 64 6e 3e 11 0e 07 3e bf 6c 0f 3e
       -0.1449655 0.2328054 0.1318896 0.14006327
0000a0 51 a1 00 3d 22 2f dc bd 96 ff 32 3d 07 40 67 be
       0.031403843 -0.10751177 0.043700777 -0.22583018
0000b0 65 b5 23 be 82 1f de bd c2 ce 35 3e 28 5b 2b 3e
       -0.15987165 -0.108458534 0.17754653 0.16733992
0000c0 3b 67 d5 bd 6d 99 15 3b 96 61 2d 3e 74 f7 94 3e
       -0.1042008 0.0022827045 0.16931757 0.29095042
0000d0 81 4c 93 3d 6c c1 20 3d d6 41 6b 3e 1a e0 0c be
       0.07192326 0.03924696 0.22974333 -0.13757363
0000e0 ea bd 44 3d e3 f3 0a be e3 c9 63 be e4 b7 2c be
       0.04803268 -0.13569598 -0.22244982 -0.16867024
0000f0 16 ff 2f 3e c3 46 0d 3e 33 f4 fe bd 8a cf 09 3e
       0.17187151 0.13796525 -0.12448921 0.13458076
000100 6e 89 0c 3e 20 3f 01 bd 40 64 1c 3c 00 44 6d 3d
       0.137243 -0.03155434 0.009545386 0.057926178
000110 00 d1 1e 3e 48 cf 75 3e 96 47 45 be ec a1 bb bd
       0.15509415 0.24004853 -0.19265589 -0.091617435
000120 98 38 c9 3d d0 1b 54 3e e8 c5 5e 3e 22 e2 61 3e
       0.098252475 0.20713735 0.21755183 0.22058919
000130 78 ca 4b 3d f8 9c 5e be 90 66 bc 3c ac 27 20 be
       0.049753636 -0.21739566 0.022998124 -0.15640134
000140 8c 94 6e be 3e 74 63 3e f0 a6 42 3e fe 5d 7f be
       -0.23298854 0.22212312 0.19008994 -0.24938199
000150 08 aa 3f 3d c8 80 2c bd b8 82 28 bd 1c 5f ea bd
       0.046793014 -0.042115003 -0.041140288 -0.11443922
000160 8c e4 c4 3d 34 a1 17 be dc b1 bb 3d 16 76 01 3e
       0.09613904 -0.14807588 0.09164783 0.12642702
000170 5c 43 37 3e 48 71 bf 3d 4a 5f 7d be 00 11 26 be
       0.1789679 0.093477786 -0.24743381 -0.16217422
000180 07 ff 14 3e 3e 23 07 3d 65 46 4e be e0 9d 23 be
       0.1455041 0.032992594 -0.20144041 -0.15978193
000190 63 d5 7f 3e 04 16 3e 3e 8e bc ef bd 65 19 25 bd
       0.24983744 0.18563086 -0.11705886 -0.04030742
0001a0 aa f8 5c be 33 68 dc bb d9 a4 2f be 8e 59 33 be
       -0.21579233 -0.0067262887 -0.17152728 -0.17514631
0001b0 5b c6 7f bc 82 54 68 3d bd 28 a3 bd a7 ae 15 3e
       -0.0156112565 0.056721218 -0.079667546 0.14617406
0001c0 38 c9 1b be 68 49 68 3e d0 6f 2f 3e 64 e1 57 be
       -0.15213478 0.22684252 0.17132497 -0.21082073
0001d0 88 db 7e bd 80 d2 38 3c 18 67 15 3d d0 dd 72 3d
       -0.06222108 0.011280656 0.03647527 0.059293568
0001e0 5c ec c8 3d e0 59 75 3c cc d1 f9 bd d4 45 f2 3d
       0.09810707 0.014975041 -0.12198219 0.11829725
0001f0 56 91 75 be a0 bb 17 be 3c 2b 80 bd ec 66 f9 bd
       -0.23981223 -0.14817667 -0.06258246 -0.12177834
000200 ae fe b0 bd 7b dd 5e be de 3d 58 bd 03 2a 2f 3d
       -0.08642326 -0.21764176 -0.052793376 0.042764675
000210 d3 fb 24 be 0c 3e fd bb 3c f7 29 3e b0 fc de bc
       -0.16111688 -0.007728344 0.16598219 -0.0272201
000220 d1 d1 03 3c b7 4f 06 bd 15 d5 73 3d 1e 10 26 3e
       0.00804563 -0.032790866 0.059529383 0.16217086
000230 48 aa 66 3e 1a 26 1a 3e 83 42 6d 3e 0a 33 f3 bc
       0.22525895 0.15053597 0.23169903 -0.029687423
000240 66 f8 65 be 40 ba f2 bd ce 4f 2e 3e 00 6b d4 ba
       -0.22458038 -0.118519306 0.1702263 -0.0016206205
000250 dc 7c fe bd 02 2d 44 be 00 94 6f be ec 10 58 be
       -0.12426159 -0.19157794 -0.23396301 -0.21100205
000260 70 b4 4f bd 56 64 0c 3e 74 67 0a 3e 02 e5 76 be
       -0.050709188 0.1371015 0.13516027 -0.24110797
000270 2e b0 1f 3e 8a 52 48 be f0 7b 58 bd 1c 9a cf bd
       0.15594551 -0.19562736 -0.05285257 -0.10136816
000280 c4 de f1 bc fb ce 8f bd 1b af 65 be d6 45 3b be
       -0.029525168 -0.070219 -0.22430079 -0.18288359
000290 23 c3 53 bd 6a dd af 3c 8c 09 82 bd a1 05 ff 3d
       -0.05169977 0.021467883 -0.06349477 0.124522455
0002a0 09 e0 4c be 52 ef 08 3d 1b 95 19 3e 66 12 2a be
       -0.20007338 0.03343136 0.14998285 -0.16608581
0002b0 8f a5 8d 3e 7e df 08 3e ec 16 40 be 9f 40 56 3e
       0.27665374 0.13366506 -0.18758744 0.20923088
0002c0 aa b3 dd bc 14 ba fc bd 54 02 4c 3e 5e 7a 49 be
       -0.02706321 -0.12340179 0.19922763 -0.19675586
0002d0 3f 45 9d 3c 3a 70 3d bd c5 b5 44 3e 25 a2 97 3d
       0.019198058 -0.046249606 0.19209965 0.074039735
0002e0 d7 2b f8 3d 6f aa d2 3d 0f 80 ab bd 7e 08 9e bd
       0.12117737 0.10286414 -0.083740346 -0.077164635
0002f0 8d 14 44 be 8e 56 15 3e 91 e9 52 3e 69 1f 3e 3e
       -0.19148465 0.14583799 0.20596911 0.1856667
000300 5d 3f 1b be 60 96 3a bc 05 0e 39 be 9d e7 0a be
       -0.1516089 -0.011388391 -0.18071754 -0.13564916
000310 8a 74 12 be ea 3b d8 3d e6 19 cf bd 3f 07 1f 3d
       -0.14302269 0.10558303 -0.101123616 0.03882527
000320 ba fb 2d 3d 6f a4 69 3e 34 c9 52 be 04 88 38 be
       0.042476393 0.22816633 -0.20584565 -0.18020636
000330 db ab 9a bd af f8 93 3e 83 44 6a bc 1b 44 8f 3e
       -0.0755231 0.28900668 -0.014298561 0.27981648
000340 46 20 9c 3d 13 f9 e3 3c a4 0c db bb fd 4c 8f bd
       0.07623343 0.027828729 -0.0066848565 -0.06997106
000350 ba 0b 2e 3d bd dc 86 bd d7 01 0a bd 1d 7a 42 3c
       0.042491652 -0.06585071 -0.03369316 0.011869934
000360 d4 69 59 be 47 9b 27 be ce 19 5f 3e 3b de 44 be
       -0.21231776 -0.16367827 0.21787187 -0.19225399
000370 a4 b9 52 bd 93 56 5a 3e 52 5d 7a 3d e2 ab d7 bc
       -0.051446572 0.21322088 0.061124153 -0.026327077
000380 2f b6 59 be 17 ae e2 3d 66 3f 3c be a8 aa ab bd
       -0.21260904 0.11068361 -0.1838356 -0.083821595
000390 e8 5e 96 bd ad df 2f bd 56 51 db bb 7d 78 5b 3e
       -0.07342321 -0.042937923 -0.0066930456 0.21432681
0003a0 3c 85 20 3d 8d 3c 5d 3e 86 97 24 3e 70 da 19 be
       0.039189562 0.2160513 0.16073427 -0.15024734
0003b0 a2 a5 d5 3d fc f5 3c be 4f fe c8 bd f8 9a 86 3d
       0.104319826 -0.1845321 -0.098141305 0.06572527
0003c0 e1 20 75 3d 71 c1 57 3e 55 4b 94 bd 4c c1 d0 3c
       0.05984581 0.21069886 -0.07240931 0.025482796
0003d0 eb f1 d8 3d 70 ec 6d be 24 22 54 3e 02 1a 6f be
       0.10593017 -0.23234725 0.20716149 -0.23349765
0003e0 54 0d c0 bc fe 77 7e bc 81 7f 22 be fa 51 c5 3b
       -0.023443855 -0.015531538 -0.15868951 0.0060217353
0003f0 67 5c 6f 3e 97 a9 3c bd e5 a5 33 be 94 04 86 bd
       0.23375092 -0.04606017 -0.17543752 -0.06543842

bias f4 [64]
000000 c0 7e 8f bc b5 58 49 be b7 c1 fc bd ab 52 24 3e
       -0.017516494 -0.19662745 -0.12341636 0.1604716
000010 70 a8 ad bd da b2 30 3e f7 e1 47 3e 10 f6 14 3d
       -0.084793925 0.17255726 0.19519792 0.036367476
000020 10 5b 00 bd d0 85 a2 bd a1 2f 1d 3d 21 70 76 3d
       -0.031336844 -0.07935679 0.0383755 0.06016553
000030 89 d0 fb bd fb 4e be bd ab f2 5c be ff c7 38 3e
       -0.12295634 -0.09292408 -0.21576945 0.18045042
000040 b4 07 23 be 52 ff 66 3e 8b 26 96 bd 3c 2b 21 be
       -0.15920907 0.22558334 -0.0733157 -0.15739149
000050 55 41 ee 3d 8f 7d 7b 3d b6 5f 35 3e cb 25 a0 3d
       0.11633555 0.06139904 0.17712292 0.078197084
000060 5d f9 57 be b6 5c 36 3e de 15 42 bd 36 fc 0f be
       -0.21091218 0.17808804 -0.047384135 -0.14061055
000070 e4 92 22 3e c6 68 44 3e 66 a1 70 be 52 ad 46 bd
       0.15876347 0.19180593 -0.23499069 -0.048505135
000080 98 3a 52 3e 74 4a c6 3d 91 c7 36 3e c4 31 30 3d
       0.20530164 0.096821696 0.17849566 0.04301621
000090 70 38 0d be 0a 23 5c 3e d0 69 d5 3d 1f 42 87 3e
       -0.1379106 0.21497741 0.10420573 0.26417634
0000a0 54 dc d5 bd 7e 5e 24 be 50 0d f0 bc 62 0b 71 be
       -0.10442415 -0.16051671 -0.029303223 -0.23539498
0000b0 ed c0 31 3d 13 63 17 3e 78 d1 75 3d d3 18 19 bd
       0.04339688 0.14783888 0.060014218 -0.03737719
0000c0 74 53 dd 3d 10 7f 22 be 47 de 65 3e 6c 05 8a be
       0.10806933 -0.15868783 0.22448073 -0.26957262
0000d0 bd d4 70 be e3 a6 90 bc 64 6a 26 3e 8b e9 00 3d
       -0.23518653 -0.017657703 0.16251522 0.031472724
0000e0 34 c1 f2 3d 56 a6 3b be 75 af ed 3d c0 d9 e4 bc
       0.11853257 -0.18325171 0.116057314 -0.027935863
0000f0 05 de ac 3d c8 c0 56 3e 68 8e de 3d 77 17 6b 3d
       0.08440784 0.20971978 0.108670056 0.057395425

weight f4 [64, 64]
000000 60 4f fc bb e2 8e a0 bd 04 31 39 bd ca 5b a6 3d
       -0.007699892 -0.07839753 -0.04521276 0.08122976
000010 6c 4f 4d bd 76 fc 9e 3d 3c 06 4b bd 08 7d ee bc
       -0.05012457 0.07762997 -0.049566492 -0.029112354
000020 00 58 2e 3b 20 ec ea bd 00 98 a3 ba 00 6e 4e bc
       0.0026602745 -0.114708185 -0.0012481213 -0.012599468
000030 20 fc 37 bc b0 b3 cc bc 18 d3 c9 3d ba ec bc 3d
       -0.011229545 -0.024988025 0.09854716 0.092248395
000040 80 81 ad bd 74 d6 6d 3d 4c cd c8 bd 32 f0 d9 bd
       -0.08471966 0.058065847 -0.09804782 -0.10641517
000050 58 82 1c 3d 80 c9 f0 3a ec d9 6e bd b8 e9 f6 bd
       0.038210243 0.0018370599 -0.058313295 -0.12056297
000060 b4 36 46 bd fc 01 2b 3d 38 f4 ec bd f6 b1 f8 bd
       -0.048392013 0.04174994 -0.115700185 -0.12143318
000070 e0 ea 81 3c 68 6c b8 bd cc 46 e0 bd 3c 44 45 bd
       0.015859067 -0.09005052 -0.109510034 -0.048160776
000080 68 dd a4 bc e8 a0 e8 bd 34 f0 aa bd 70 48 06 3c
       -0.020125106 -0.113588154 -0.08346596 0.008195981
000090 98 66 f1 bd 80 ed 8f bc c6 4c a5 bd 00 78 b1 bd
       -0.11787146 -0.017569304 -0.08071284 -0.08665466
0000a0 5c 3b 49 3d 62 0a c5 bd 6c 01 c2 bd f8 fd 91 3d
       0.049128875 -0.09621121 -0.094729275 0.07128519
0000b0 18 74 bf 3c 7a 24 e9 3d f4 da 08 bd c0 4d 77 bd
       0.023370788 0.113839105 -0.033411935 -0.060376883
0000c0 00 89 3d bc 00 c9 25 3a a8 3c c3 3d 18 ff fe bd
       -0.011568308 0.0006324202 0.09533054 -0.12450999
0000d0 b0 d1 11 bc fc 7b 62 3d 90 f9 8c bd 84 15 82 bd
       -0.008900091 0.055294022 -0.06883538 -0.0635176
0000e0 e0 6e 77 3d a0 4b f5 bd 88 a4 f2 3c 16 31 c6 bd
       0.060408473 -0.11977315 0.02961947 -0.09677331
0000f0 e4 7e 7e 3d ee e3 da bd d8 63 9d 3d 84 56 f2 bd
       0.06213273 -0.106880054 0.07685059 -0.11832908
000100 62 2f d7 bd 00 73 f1 3a 9c b9 c9 3d be 3c db bd
       -0.105070844 0.0018421113 0.09849855 -0.10704945
000110 f0 61 64 bd 20 d7 e0 3d e0 b8 ab bc 1c 1d 54 3d
       -0.055757463 0.10978532 -0.020962179 0.051785573
000120 84 45 f6 bd a4 03 21 bd 4a 01 82 bd dc d2 d7 3d
       -0.12024978 -0.039310113 -0.06347902 0.10538265
000130 1c 80 54 3d 06 cc ba bd b0 18 a5 3c 00 4f bc ba
       0.051879987 -0.09120946 0.020153373 -0.0014366806
000140 88 5d 52 bd 14 32 92 bd c0 e6 29 bd 36 c9 c9 3d
       -0.05135873 -0.07138458 -0.041479826 0.09852831
000150 a2 83 b7 bd 22 5c b6 bd 38 f6 1d bd c0 82 0e 3b
       -0.08960654 -0.08904292 -0.03856489 0.0021745414
000160 5c 5f 0b 3d 80 d3 75 3b c8 80 f6 bc c4 39 9b bd
       0.03402649 0.0037510097 -0.030090705 -0.07579377
000170 30 bd b7 bc 78 1b 4e bd 6c d4 ce 3d 5e 31 f9 bd
       -0.022429079 -0.050319165 0.1009911 -0.12167619
000180 ba 4a a3 bd 72 47 d0 bd 98 24 bb bc 76 7e c7 3d
       -0.07973237 -0.10169877 -0.022844598 0.097409174
000190 e0 64 e0 3d b6 dc de bd 80 77 b1 bb 6a 43 96 3d
       0.109567404 -0.10881941 -0.005415857 0.07337077
0001a0 34 b0 61 3d ca b0 d1 3d 40 3b 63 bb 2a 01 ac bd
       0.05509968 0.10238798 -0.0034672767 -0.083986595
0001b0 10 5a a9 3d 80 92 2f bd a2 8d 84 3d d8 59 fc bc
       0.08269131 -0.042864323 0.06472327 -0.03080456
0001c0 f0 a5 59 3d c8 40 e6 3d 02 0b ee 3d 06 fa e8 bd
       0.053136766 0.11242825 0.11623193 -0.11375813
0001d0 c6 56 a9 bd ec b1 53 bd 60 40 a3 bd cc a1 f5 3d
       -0.08268504 -0.05168335 -0.07971263 0.11993751
0001e0 80 e0 34 bc b0 d0 a9 bd a8 d5 63 bd c4 67 8d bd
       -0.011039853 -0.08291757 -0.05562368 -0.06904557
0001f0 fc e3 50 3d da 4b df bd f8 b1 ee bd d8 5a fc bd
       0.050998673 -0.109031394 -0.116550386 -0.123220146
000200 a8 6d 5c 3d 03 f7 07 3e 94 3e 87 bb 1c 4c c2 3d
       0.053815514 0.13277821 -0.004127333 0.09487173
000210 ac f9 bc 3d e0 c9 94 3c d3 f9 e8 3c a0 4f 17 3c
       0.09227309 0.018162668 0.028439438 0.009235293
000220 0f 0c 67 3c 52 e5 80 3d 19 1e 42 ba 71 92 0e 3e
       0.014101996 0.062937394 -0.00074049976 0.1392305
000230 53 76 17 3e ca a0 18 bd 86 65 0e 3e 33 9a 38 3e
       0.14791231 -0.037262715 0.13905916 0.18027572
000240 58 d8 49 bd 06 d3 1d 3d 74 a9 90 3d b5 7c 7f bd
       -0.049278587 0.038531326 0.070635706 -0.06237479
000250 68 a9 e8 3d fb 5f 8e 3d 00 53 a9 3d 16 0e 83 bd
       0.11360437 0.069519006 0.08267784 -0.06399171
000260 02 f2 0e bd a7 5f d9 3d 31 fb b6 3d 01 3a d0 bd
       -0.034898765 0.10613947 0.0893463 -0.10167313
000270 c6 c2 8e bd d2 a0 8a bd 3e fe d5 bd fc 41 03 bd
       -0.06970744 -0.06768955 -0.104488835 -0.03204535
000280 90 d9 d3 3d 00 d4 cb bc e2 9d 6a 3d b6 51 82 3e
       0.10344231 -0.024881363 0.057279475 0.25452965
000290 bc 55 69 3d 82 2c e5 bd 34 d3 80 3d d2 4d 00 3e
       0.05696653 -0.1119013 0.06290284 0.12529686
0002a0 b2 6a c6 3d f4 86 fc bd b0 71 9d 3d ee 8b d1 3d
       0.09688319 -0.12330428 0.076877 0.102317676
0002b0 78 da 8e bd 2a a5 93 3d 52 8a da 3d 95 21 10 bd
       -0.06975263 0.07209237 0.10670914 -0.035188276
0002c0 2a 94 d8 3c c0 3d 62 3d 82 92 9b 3d 17 fb 3f 3e
       0.026437838 0.05523467 0.075963035 0.18748127
0002d0 11 99 35 3e 0f bd 37 3e 66 46 27 3d 42 33 38 3e
       0.17734171 0.17943214 0.04083862 0.17988303
0002e0 af 9e 49 bd 26 25 8a bd c5 17 f0 3c d4 17 18 bd
       -0.049223598 -0.06745367 0.02930821 -0.0371321
0002f0 7c 40 3d 3e aa 5c 0d 3e ee d0 a4 3d f0 3e 22 3e
       0.1848163 0.1380488 0.08047663 0.15844321
000300 a0 3b bf bd e8 c9 24 3d fb ac 9e 3d 97 ba a7 3d
       -0.093375444 0.040231615 0.07747837 0.08189886
000310 c0 a4 83 3d 70 ba 4b bd 23 65 d8 3b ae 34 d6 3d
       0.06427908 -0.049738348 0.0066038533 0.104592666
000320 10 fe 8b 3c 04 d4 b1 bd 88 c6 1c 3e 38 6b 24 3e
       0.01708892 -0.08683017 0.15310109 0.16056526
000330 c8 de a9 3c f9 a5 0d 3d 3b c3 81 bd 8e 8d 67 bd
       0.020736113 0.034582112 -0.063360654 -0.05653148
000340 90 89 40 3d 49 81 76 3c 08 6d dd 3d b6 a5 9b bc
       0.04700619 0.015045472 0.10811812 -0.018999916
000350 57 04 09 3d 80 ec 92 3d c7 fb be 3d 7e 47 2b 3e
       0.033451404 0.07174015 0.093253665 0.16726491
000360 b3 c6 0d 3e d7 ec c3 3d 9c 81 a2 bc f8 6c 75 bd
       0.13845329 0.09566658 -0.019837193 -0.059918374
000370 58 05 e5 bd cf 32 3a 3d a4 0d fd 3d 45 7c 8a 3c
       -0.1118266 0.04545861 0.12356117 0.01690496
000380 80 6f ac bb 9e 08 ba bd 1a b2 6f 3d 92 05 7a 3e
       -0.0052623153 -0.09083675 0.05851946 0.24416187
000390 fc 64 fc bd 5a 41 b4 bd 06 9f bd 3d 7b 44 b1 3d
       -0.12323949 -0.08801527 0.09258847 0.0865564
0003a0 a0 5e ff bb 68 0c b7 3c e0 b0 9b bc 5e ef b2 bd
       -0.0077932626 0.022344783 -0.019005239 -0.08737062
0003b0 a6 80 5c bd 12 f0 07 3e 10 95 73 bc e7 84 63 bb
       -0.053833626 0.13275173 -0.014867082 -0.0034716667
0003c0 9e 8b f0 bc d8 a0 8b bd ae 9b d8 b8 bb 48 b0 bc
       -0.02936345 -0.06817788 -0.0001032868 -0.021519056
0003d0 d2 4a 2e 3e 52 6a 00 3e 82 22 70 bc 98 8d d1 3c
       0.17020729 0.12540558 -0.014656665 0.025580212
0003e0 24 70 db 3d ac 98 3d bd 21 d1 aa 3d 90 f9 0c 3d
       0.107147485 -0.046288177 0.083406694 0.03441769
0003f0 21 e3 06 bc 12 08 c6 3d 40 9c fa 3b 75 6d 26 3e
       -0.008232863 0.09669508 0.007648021 0.16252692

bias f4 [64]
000000 10 31 90 3d 64 cf 71 bd c0 d5 14 3e 53 b6 89 3d
       0.07040608 -0.059035674 0.14534664 0.06724229
000010 db 43 bd 3d 50 c0 f4 3d 60 9a dd bd b2 06 f3 3d
       0.09241458 0.11950743 -0.1082046 0.118665114
000020 ac 31 ee 3d 6f 3d fa bd 75 d5 8d 3c 8d 05 0a be
       0.11630568 -0.12218749 0.017313698 -0.1347868
000030 d6 f2 17 3d f0 59 9e 3c aa 80 05 be 4a 13 0c 3d
       0.03709682 0.019329995 -0.13037363 0.034198083
000040 e4 a2 0c bd 4c c4 20 3e 35 6a d4 3d 27 9c 20 3d
       -0.034335032 0.15699881 0.1037182 0.03921142
000050 19 fd bc 3d ac ec 38 3d 76 33 f2 3d ea 5a c3 3d
       0.09227962 0.045147583 0.11826222 0.09538825
000060 35 ab 48 3d 54 60 f9 bc 77 40 29 3d 04 74 1a bd
       0.0489914 -0.03044144 0.041321244 -0.037708297
000070 c1 dd f5 bc a2 71 85 3c bc d7 75 3a b0 34 3e bd
       -0.030012967 0.016289536 0.0009378155 -0.046436965
000080 fa e8 00 be 18 f9 58 3d b6 7c eb bd 56 15 ac bc
       -0.12588874 0.05297193 -0.11498396 -0.021006268
000090 8f 1d ea bd 50 5b d6 3d 74 74 d0 3d 3a 64 d2 bd
       -0.11431419 0.10466635 0.10178462 -0.10273023
0000a0 06 44 ab bd fa 5b 97 bd 58 71 cc 3c d3 52 70 bd
       -0.08362584 -0.0739059 0.02495639 -0.058672737
0000b0 a7 17 0f bd ef 8a 18 bd 74 6b 91 3b 01 6a a7 bd
       -0.034934666 -0.037241872 0.0044378582 -0.081745155
0000c0 80 dd 68 3d b2 30 b7 bd a0 37 dd bc 3f b5 04 3e
       0.056851864 -0.08944835 -0.027004063 0.12959765
0000d0 21 4f c8 bd 8a 7d 81 3d de 3c 85 3d c3 75 60 3c
       -0.09780718 0.06322773 0.0650575 0.013699952
0000e0 1c 8b 31 3d 8a f2 ac bd da 4e 3f bc 30 de f0 3c
       0.043345556 -0.08444698 -0.0116765145 0.029402822
0000f0 1a 6e dd 3d 90 40 8f bd 27 7e 85 bd 33 3c ae bc
       0.10812016 -0.06994736 -0.06518202 -0.02126894

weight f4 [3, 64]
000000 5e 63 f9 bd b8 14 cf 3c f2 66 5d be ad de 03 be
       -0.12177156 0.025278434 -0.21621302 -0.12877913
000010 e2 2b 70 bd 00 03 e5 3b 49 3b a8 3c 12 08 ba bd
       -0.0586356 0.006988883 0.020536082 -0.090835705
000020 0a 3a be bd 50 ff 04 bd 6b 72 8e bd 08 9a 03 3d
       -0.09288414 -0.032470047 -0.06955417 0.032129318
000030 04 f3 8b bb 46 72 b6 bd 21 1f 86 3d 07 7d 7f 3d
       -0.004270913 -0.08908515 0.06548906 0.062375095
000040 40 d1 19 bd 04 6d 81 bd 8f a0 b5 3c af d9 9e 3c
       -0.037553072 -0.06319621 0.022171287 0.019390909
000050 df 38 a8 bd 00 f3 d2 3d ec f4 7b 3d 11 7d 10 be
       -0.08213972 0.10300255 0.061512873 -0.14110209
000060 09 7e d8 bd bb f4 a6 3d a3 63 95 bd 70 42 eb bc
       -0.10570914 0.081521474 -0.07294395 -0.028718203
000070 14 3c 49 3c 38 77 2a 3c 84 51 3a 3d eb a9 fa 3c
       0.01228239 0.0104044005 0.045487896 0.030598601
000080 f4 79 9f bc 27 2a 00 3e c2 d2 b3 bd a7 84 80 bd
       -0.019467331 0.1251608 -0.08780433 -0.062753014
000090 68 b2 8a 3c 10 a3 78 bc 38 16 92 3d 08 3a 0b bd
       0.016930774 -0.015175596 0.07133144 -0.03399089
0000a0 4c c4 38 bd 60 c6 d4 bc 82 b7 a1 3d 5e 04 94 bd
       -0.04510908 -0.025973499 0.078963295 -0.072273955
0000b0 8b b5 59 bd a8 2b b0 3d 95 be f3 3d b5 cb fc 3d
       -0.05315165 0.08602077 0.11901585 0.123435415
0000c0 1c 4c fa bd d2 a7 90 bd 48 10 17 bd a0 50 ae bd
       -0.12221548 -0.07063259 -0.03688076 -0.08511472
0000d0 62 27 86 3d fe 6c 9d 3d a0 73 28 bc b2 18 e2 bd
       0.065504804 0.07686804 -0.010281473 -0.110398665
0000e0 58 66 db 3c c0 af dc 3d af 70 b5 3d 1a ac 69 bd
       0.0267822 0.10775709 0.08859383 -0.057048894
0000f0 0c 24 83 bd 28 eb 21 3d 7f 1d 88 bd 66 c1 26 be
       -0.0640336 0.039530903 -0.06646251 -0.16284713
000100 b4 c6 f7 bd b0 ad 92 3c e8 9d b7 bd b1 98 0a be
       -0.120984465 0.017905086 -0.08965665 -0.1353481
000110 7d 2a 8d 3c ee 49 f9 3d e6 d9 a4 3d 12 f6 91 3d
       0.017232174 0.12172304 0.08049373 0.07127012
000120 e6 08 fb bd 12 ec 64 3d 51 7b 85 3d c0 15 10 3d
       -0.122575566 0.055889197 0.06517661 0.035176992
000130 1a d6 56 bd c0 a5 0e bb b1 c5 95 bd d5 90 1c bd
       -0.052450277 -0.0021766275 -0.07313097 -0.03822406
000140 b8 90 a8 bc 6a 96 53 bd b0 81 de bd 1c 6d 2e 3d
       -0.02057682 -0.051657118 -0.1086458 0.042584524
000150 0d 9d d1 bd 0a 72 bf bd c4 0f 50 3d 08 73 29 be
       -0.10235033 -0.09347923 0.050796285 -0.16547787
000160 9e 42 da 3d 08 15 ad 3d ff f9 b2 bd 10 7a b0 bc
       0.106572375 0.08451277 -0.08739089 -0.021542579
000170 0a 31 0a be d0 9c 17 bc 56 8a ba 3c 05 be ee bd
       -0.1349527 -0.009253696 0.022771042 -0.11657337
000180 ed bb d6 3c 7f 3d a4 3a 44 ed 16 bd 2d de 7c 3c
       0.026212657 0.0012530534 -0.036847368 0.01543383
000190 33 87 2c be ac 55 b4 bd 60 8b 87 3c 94 39 f7 3d
       -0.1684845 -0.08805403 0.016545951 0.12071529
0001a0 58 e1 d3 bd f8 1d a4 3d e8 4a d5 bb 37 f4 a0 bd
       -0.10345715 0.080135286 -0.0065091737 -0.0785908
0001b0 a1 92 25 bd 92 b4 5e 3d 06 2d 59 3c 24 6b e0 3d
       -0.04042304 0.054371424 0.013255363 0.109579355
0001c0 b8 cc c1 bc b0 f3 aa bd 59 a5 cc 3d 33 c4 87 bd
       -0.023657188 -0.08347261 0.09992475 -0.06629219
0001d0 3e 25 91 3d de 48 a6 3d e0 5a b5 3c e9 b7 32 be
       0.070871815 0.08119367 0.02213806 -0.17452969
0001e0 82 53 fb bd b0 10 73 3d 82 4b e5 3c 96 40 a1 3d
       -0.12271787 0.059342086 0.027990106 0.07873647
0001f0 d4 a3 e1 bd 20 14 8d bc da c2 a4 3d 82 ca e8 3c
       -0.11017576 -0.01722151 0.080449775 0.028416876
000200 a6 be d4 3d bc fd c8 3d 54 3c 33 bd 3f f2 ef bd
       0.10387926 0.09814021 -0.043758705 -0.11716127
000210 a0 bb b6 bd 8c e3 2d 3d cc f7 8a bd 00 f5 01 3a
       -0.089225054 0.042453334 -0.06785545 0.00049574673
000220 92 ca 35 3d 0b 47 86 3d 06 50 65 3d 2e 4a 6f 3d
       0.04438264 0.06556519 0.05598452 0.058420353
000230 c7 9c c0 bc 52 86 90 3d ec f8 95 bd 16 c7 8b bd
       -0.023512257 0.070568696 -0.07322869 -0.06825082
000240 18 22 a2 bc 25 a3 c2 bd 54 87 cd 3d bc 47 1b bd
       -0.019791648 -0.095037736 0.100355774 -0.037910208
000250 d8 d9 14 3d 40 b2 7e bb 80 15 e0 ba a1 e0 8f bd
       0.036340564 -0.003886357 -0.0017096251 -0.070252664
000260 40 03 fd bc 92 2b 0a be 42 fa ba bd f0 01 c5 3d
       -0.030885339 -0.13493183 -0.09129764 0.0961951
000270 4f dc 0f be 0c f5 f0 3b 9d 94 83 3b 07 f6 0d be
       -0.14048885 0.0073534306 0.004015519 -0.13863383
000280 d0 43 06 3d a4 ef 54 3d 8c 6a b9 3d 2a b6 49 3c
       0.032779515 0.05198635 0.09053525 0.012311498
000290 60 27 b9 3d a0 2c 9a 3b 58 15 43 3d a4 25 17 3d
       0.09040713 0.0047050267 0.047627777 0.03690113
0002a0 c8 f7 e3 bd 60 c8 e0 bc a1 f0 d4 bd 7e 0f 8f 3d
       -0.11131245 -0.027439296 -0.10397459 0.06985377
0002b0 e6 fb b2 3d 19 7d 42 bd c6 39 22 bd 32 e9 59 3c
       0.08739452 -0.047482584 -0.03960588 0.013300227
0002c0 5e 36 df bd 40 51 67 3b cf 46 8b 3d e4 54 30 3d
       -0.108990416 0.0035296232 0.06800615 0.043049708
0002d0 8a c0 e3 bc ca 16 89 3d a0 b6 5e 3d ef cd c5 bd
       -0.02780177 0.066938 0.054373384 -0.09658419
0002e0 ce a8 96 3d 0e ea c9 bd 91 77 49 3d 5e 44 cb 3d
       0.07356416 -0.098590955 0.049186293 0.099251494
0002f0 50 be 3c 3c 88 0a 2d bd 1f a6 b6 bd 40 93 ac bd
       0.011519983 -0.04224637 -0.08918404 -0.08426523

bias f4 [3]
000000 a3 46 92 bd d8 09 98 bd 30 01 da 3d
       -0.07142379 -0.074237525 0.10644758

weight f4 [64, 19]
000000 2e aa ca bd de 12 c3 3d 61 d9 59 be 12 24 ee 3d
       -0.098957404 0.09525083 -0.2127433 0.116279736
000010 df e5 47 3e 60 68 28 be 34 c1 6f bd f4 f6 5f 3d
       0.19521283 -0.16446066 -0.058533862 0.054678872
000020 9b df 60 be b2 a3 14 be 82 67 a3 3d 81 36 5d 3e
       -0.21960299 -0.1451557 0.07978727 0.21602823
000030 e6 5c 8c bd 00 ed 08 bb 2a c7 62 be 2f 7d 61 be
       -0.068536565 -0.0020893216 -0.22146288 -0.2202041
000040 5f 4e 4c 3e 37 5b 47 3e 98 31 8f bd 95 8e 8f bf
       0.19951771 0.1946839 -0.06991881 -1.1215388
000050 75 5c 33 c0 f5 20 4e 3e 4e 06 90 bf d4 f0 37 40
       -2.8025181 0.2012976 -1.1251924 2.874074
000060 4a 69 91 bf 7f 34 b4 bd 66 d3 b4 bd 1c d4 4e 3e
       -1.1360257 -0.08799075 -0.088293836 0.20198101
000070 e1 d6 85 3b ab cb 42 be 5f 9e 80 3e 97 8c 03 3e
       0.0040844535 -0.19023006 0.25120828 0.128466
000080 13 e5 58 bb b1 54 e4 3d e1 4a 2d 3d ea da ea 3d
       -0.0033095523 0.11148966 0.04230774 0.11467536
000090 d9 a6 90 bc cc e9 24 be 43 d8 13 3f f4 8c 0e c0
       -0.017657684 -0.16104811 0.57751864 -2.227353
0000a0 6a 3c 06 be d2 c6 a4 bf 25 63 21 40 c3 cf ce 3e
       -0.13108984 -1.2873175 2.5216763 0.40392885
0000b0 5c 2d 48 3e 1b cf 76 3c 36 99 94 3d 3c 65 25 be
       0.19548553 0.015064026 0.07255785 -0.16151899
0000c0 0d cd dc bd 86 af 70 3d a0 1e 74 be 99 38 9f bd
       -0.10781298 0.058761142 -0.23839808 -0.07774467
0000d0 d6 e6 7a 3d 5b 90 40 3e b3 f9 43 bd 2b 41 11 3e
       0.0612553 0.18805067 -0.047845554 0.14185016
0000e0 8a d8 f8 bd 4a fc 22 be b5 07 5e 3e fd ab 4b 3e
       -0.121506765 -0.15916553 0.21682627 0.19889827
0000f0 03 a0 39 be e0 46 08 be d2 a7 e0 3d 86 8c 10 be
       -0.18127446 -0.13308287 0.10969509 -0.14116105
000100 49 bc 1f 3e 5d 2d e0 bd 84 d2 91 bd 6a e0 86 bd
       0.15599169 -0.10946152 -0.07120231 -0.06585772
000110 71 1f 60 3e ca e1 9e bd d4 b7 36 bd 4b 25 0e 3e
       0.21886994 -0.077579096 -0.044608906 0.13881414
000120 6b bb 20 be 00 d8 90 ba 8c 75 35 be e7 d3 58 be
       -0.15696494 -0.0011050701 -0.17720622 -0.21174584
000130 8d c2 d0 3f 02 35 a5 bf 9b 5f 3e 3e a0 cd 09 c0
       1.6309372 -1.2906802 0.18591158 -2.1531754
000140 5c 6e b7 3f 7a c5 bf 3f d4 71 3c 3b 7a 5a 99 bc
       1.4330554 1.498214 0.002875437 -0.0187199
000150 01 f3 77 be d4 8c 8d bd 55 93 8b 3c bb f6 4a be
       -0.24213792 -0.069116265 0.017038027 -0.19820683
000160 bc 9d dd 3d 64 be 98 be 33 e4 09 3e 4f 54 72 3d
       0.10821101 -0.29832757 0.13465957 0.059162434
000170 c4 1d b0 bd 8a 79 8c bd 42 38 54 3e 27 b1 45 c0
       -0.08599427 -0.06859119 0.20724586 -3.0889375
000180 2b a8 1c c0 23 77 07 be f9 a5 b6 bf 49 23 3a 40
       -2.4477642 -0.13229041 -1.4269401 2.9084036
000190 b0 46 39 c0 38 1e 69 3e e8 7d 8a be 6e 65 ab 3e
       -2.8949394 0.22765434 -0.27049184 0.33475822
0001a0 84 63 68 bd 19 6e 5b be de 25 94 3c ce 89 0e 3e
       -0.05673553 -0.21428718 0.018084463 0.13919756
0001b0 fa 32 8a be 84 c0 fa 3d 42 26 0c be de 24 80 3d
       -0.26992017 0.12243751 -0.13686469 0.06257032
0001c0 da d1 5e 3c 73 c7 86 bc b8 2a 99 c0 67 42 c3 bd
       0.013599837 -0.016452527 -4.7864647 -0.095341496
0001d0 d5 cd 3e 3d c2 14 98 c0 f1 b1 c8 be 15 ca 75 c0
       0.046583015 -4.752534 -0.3919826 -3.840459
0001e0 9a 06 ba be 71 82 ee 3d 52 3a 31 3e 18 a7 d2 ba
       -0.36333162 0.116459735 0.17307404 -0.0016071526
0001f0 95 2b 16 bd 50 1f 70 3e d9 5d 3f 3e 4f 74 34 3e
       -0.036662657 0.23449445 0.18688144 0.17622493
000200 b7 d0 1b 3e 4f d9 e1 bd cd 35 3c 3c e6 43 ef 3c
       0.15216337 -0.110277764 0.0114874365 0.029207181
000210 18 1b d1 3c 54 d0 26 be 00 7a a4 ba 8b 44 2a 3e
       0.025525615 -0.16290408 -0.0012548566 0.1662771
000220 cb fe 1b 3e 19 b8 4f 3e 32 46 a0 3d 02 62 b6 3d
       0.15233915 0.20285071 0.07825889 0.08905412
000230 14 fe 7b 3d 0b 8b 2b 3e 32 8d f6 3d f2 a2 8a 3d
       0.061521605 0.1675226 0.120386496 0.067693606
000240 a6 ef a3 bd 1e 63 e3 bd f0 52 68 bd 3e 3a e0 3d
       -0.08004694 -0.111028895 -0.05671972 0.10948609
000250 54 c1 ff bd 66 5d 80 3d 99 88 4d 3e 51 eb 46 3e
       -0.12488046 0.06267814 0.20071639 0.19425704
000260 e0 f5 2c be de eb 85 3d dd 9b 19 3e 6a 62 55 be
       -0.16890669 0.06539129 0.15000863 -0.20838323
000270 75 24 16 3e a3 60 12 be 20 dc 29 be d0 29 c7 bd
       0.14662345 -0.14294676 -0.16587877 -0.09724772
000280 6a b9 b0 bd ba 40 c2 bd 7a 44 87 3d 8e 04 b6 3d
       -0.08629115 -0.09485002 0.06604858 0.088875875
000290 62 9a b6 3d 5f 32 22 3e 18 a3 14 be a8 10 5f be
       0.08916165 0.15839528 -0.1451534 -0.21783698
0002a0 f8 75 3c be 6f 1e 01 be 1e e9 d6 bd f3 d7 09 c0
       -0.18404377 -0.12609266 -0.10493682 -2.1538055
0002b0 bf f2 4d 3f d8 18 6d 3d e4 fd 81 3f 25 5c 67 bf
       0.80448526 0.05788502 1.0155606 -0.90374976
0002c0 57 df f1 bf 46 e9 48 be 89 fb d9 3e 1d 85 8b 3e
       -1.8896283 -0.19620237 0.4257472 0.27249995
0002d0 39 d2 83 be 51 5e 24 3e a2 b8 14 bd 6f 40 47 3d
       -0.25746325 0.16051604 -0.036308892 0.048645433
0002e0 c6 be 9b 3e c4 d7 ee be 8b 85 02 3d d2 1f d5 3d
       0.30418986 -0.4664899 0.031865638 0.1040646
0002f0 39 f0 22 3e 58 01 29 3e 99 6b 15 3f 62 b2 55 bf
       0.1591195 0.16504419 0.58367306 -0.83475316
000300 3e a1 41 3c 14 a6 1f c0 5f 44 52 3f ee 2f ea 3e
       0.011818228 -2.4945116 0.82135576 0.45739692
000310 f1 59 85 be bc 6b c2 bd 99 23 5e bc 45 2b e0 bd
       -0.26045182 -0.09493205 -0.013558292 -0.10945753
000320 3b 46 95 bd bc 51 5a be 7d 00 42 3e d7 fe 41 3d
       -0.07288786 -0.21320242 0.18945499 0.047362175
000330 a6 61 31 3e 8a 25 66 be 36 e3 21 be ec 86 31 3e
       0.17322406 -0.22475258 -0.1580933 0.17336625
000340 e7 a4 c0 3d 34 7a 12 3d 16 99 eb 3d 40 31 70 3c
       0.094064526 0.035761073 0.11503808 0.01466018
000350 40 f8 f8 bb 15 97 0b 3e c1 ac 3b 3e 0e ef 82 bd
       -0.007597953 0.13631852 0.18327619 -0.06393252
000360 12 91 48 be f8 d0 00 be 87 e1 27 3e c8 6b a3 3c
       -0.1958659 -0.12579715 0.16394626 0.019948855
000370 61 26 49 3e b0 5b a4 bd f5 97 5e be 56 e8 91 3d
       0.19643547 -0.080253005 -0.21737655 0.07124393
000380 d6 37 c8 bd 30 73 0c be c1 75 12 3e 00 b2 82 3c
       -0.09776275 -0.13715816 0.14302732 0.015954018
000390 60 fd 9c bf ca fe c2 40 7f 10 45 3f 83 9d 8d 3f
       -1.2264824 6.093602 0.76978296 1.1063694
0003a0 cc 07 c9 c0 03 02 2c bf e0 8b 38 be 49 44 1a bd
       -6.282202 -0.6719057 -0.18022108 -0.037662778
0003b0 70 9a 36 3e 17 e1 ea bd a7 85 06 3f b4 2f 59 3d
       0.1783235 -0.11468714 0.5254769 0.05302401
0003c0 95 bb cf 3d 14 22 83 3d 69 79 ba bc 75 12 be 3d
       0.101432 0.06402984 -0.022762971 0.09280864
0003d0 34 43 ce 3b 6b 1c 45 bd d9 9b a0 3b 72 25 84 3d
       0.0062946323 -0.048122805 0.004901391 0.064524546
0003e0 d2 63 3b be 91 99 34 be ec e9 81 3c 83 e3 8a bc
       -0.18299797 -0.17636706 0.015858613 -0.01695419
0003f0 25 07 e5 3c 11 a2 fd 3d 83 19 cb 3d 84 f5 36 3d
       0.027957508 0.12384427 0.09916975 0.044667736

bias f4 [64]
000000 10 4a 0b bd 97 42 1a 3b 42 dc b7 bb 00 f3 4e 3b
       -0.03400618 0.0023538226 -0.0056109736 0.0031577945
000010 2f 2a 0e bd c2 f7 77 be 9b c7 1a 3d 11 90 57 3e
       -0.0347082 -0.24215606 0.037788015 0.2105105
000020 4e 1b 9a 3d d7 a2 77 be 01 0f 7d 3c 24 36 18 bd
       0.07524739 -0.24183212 0.015445472 -0.037161008
000030 d8 75 48 3d 89 09 60 be cc 15 1d 3d 70 f7 48 be
       0.04894051 -0.21878637 0.038350865 -0.1962564
000040 04 b5 05 3d 51 05 0a 3e 77 4d 0e 3e 0a 26 d9 bd
       0.032643333 0.1347859 0.13896738 -0.106029585
000050 81 16 96 3d e3 ec 5f bd 19 27 3b be 3f 75 0c 3d
       0.07328511 -0.054669272 -0.18276633 0.034291502
000060 ee 07 f5 3c c1 3c 43 be 37 c9 11 3e 18 86 5f 3e
       0.029911008 -0.19066145 0.14236914 0.21828496
000070 fb 08 9a 3d 29 42 95 bd 75 24 79 be 9a e3 11 3e
       0.07521244 -0.0728801 -0.24330314 0.1424698
000080 99 3b fa bd 2c 8b 0d 3d 49 8b 50 be a7 bd cf 3d
       -0.122183986 0.034556553 -0.20365633 0.10143595
000090 67 58 94 ba 52 59 13 3e 6e 02 e4 3d 4b 5c 60 be
       -0.001131785 0.14389542 0.11133276 -0.21910207
0000a0 77 a3 39 3e c5 b3 55 be c0 8e e0 bd 0d 42 01 3e
       0.18128763 -0.20869358 -0.109647274 0.12622853
0000b0 a3 44 e7 bd cd 23 80 3c 58 91 c1 3c b8 36 3a 3c
       -0.11292388 0.015642071 0.023628876 0.011365585
0000c0 20 31 ff bd fc db 11 3e c9 6a 35 bd 26 52 09 3d
       -0.12460542 0.14244074 -0.04429129 0.03352561
0000d0 78 d4 da 3c 5e 61 71 bd 94 89 3c be 8f 60 1c 3e
       0.026712641 -0.058930747 -0.18411857 0.15271209
0000e0 e8 39 4d be ac 56 9d bd f8 b5 6d be b3 81 0b be
       -0.2004162 -0.07682547 -0.23213947 -0.13623695
0000f0 51 54 fb 3c b8 12 56 bd 10 47 31 3d da fc 03 3e
       0.030679854 -0.052263945 0.04328066 0.12889424

weight f4 [64, 64]
000000 b0 62 d7 3c 82 d3 d4 3d 8c 7d 4a bc a4 f9 f6 3d
       0.026292175 0.103919044 -0.012359034 0.12059334
000010 b9 b6 ab 3b 54 36 dd bb 3d 64 72 3c f6 d8 c9 bd
       0.005240288 -0.006750861 0.0147944065 -0.09855835
000020 74 c2 d0 3d 63 82 cd 3d a4 6f 05 be 66 5c 98 bd
       0.10193339 0.10034635 -0.13030869 -0.074394986
000030 84 14 9a 3d 9c b1 00 3d 88 19 39 bd 64 49 83 bd
       0.07523444 0.03141938 -0.045190364 -0.064104825
000040 c0 9f ea bc 07 1c d0 bc 7a 78 cf 3d 07 ce bf bd
       -0.028640628 -0.02540399 0.10130401 -0.093654685
000050 63 9b db 3a 60 d1 06 3d ae ab 97 bd 37 12 53 bc
       0.0016754683 0.03291452 -0.07405792 -0.012882761
000060 d3 0c ed bc d1 d3 9e 3d cc 4a 9b 3d 15 00 ae bc
       -0.02893678 0.077552445 0.07582626 -0.021240273
000070 74 30 83 bd fb 5b ac bd 24 3b 8a bd 22 0f c1 3d
       -0.06405726 -0.084159814 -0.067495614 0.094267145
000080 9e 1a d0 3d 60 9d cb 3c 05 e7 06 be 29 0f f5 3c
       0.10161327 0.024855316 -0.13174064 0.029914455
000090 14 e8 23 bd 49 0d 5f 3d 22 0f 85 3d d8 c3 d6 3d
       -0.04001625 0.05445603 0.06497027 0.10486573
0000a0 90 21 15 3c 54 c6 83 bb 00 7a 6d 3a 55 a0 ac 3d
       0.00910224 -0.0040214453 0.0009059012 0.084290184
0000b0 7d 19 9a 3d 29 5c 2e 3d d0 c1 cc bc ae 46 51 bd
       0.07524393 0.04256836 -0.02499476 -0.051092796
0000c0 52 3b ed 3d f1 82 9f bd 70 5c ca 3b cc da d1 3c
       0.1158358 -0.07788647 0.00617557 0.025617026
0000d0 c6 90 84 3d 48 49 c2 bd c6 6b 06 bd 40 4a 6f bb
       0.06472926 -0.094866335 -0.032817625 -0.0036512762
0000e0 70 ce 3a bc f4 9c f0 bd bb 56 4a 3d eb 65 d3 bd
       -0.011401758 -0.117486864 0.04939912 -0.10322174
0000f0 26 14 3b bd 98 f0 1c 3d cf 28 b9 3d a2 8a 1b bd
       -0.045673512 0.038315386 0.09040987 -0.037974007
000100 9c bd 8d bd 40 f1 af 3d 1d 66 ad 3d 02 f4 8b bd
       -0.06920931 0.08590937 0.08466742 -0.0683365
000110 5f 19 d4 3d 18 d2 cc 3e 4d 05 ab 3e 96 48 d7 3d
       0.10356402 0.4000404 0.33402482 0.105118915
000120 30 47 d1 bc f5 ae 1f 3d fa bf 40 3d 00 be 72 3d
       -0.02554664 0.03898521 0.047058083 0.05926323
000130 f4 77 68 3e b4 24 2d 3e 00 e6 59 3a a4 73 15 3f
       0.22702008 0.16908532 0.0008312166 0.5837958
000140 2c de bd 3d 2e f7 80 3e 77 5f 5d 3e 2b 36 89 bc
       0.092708915 0.25188583 0.21618448 -0.016749462
000150 05 f4 95 3d a6 ed 4a bd 89 53 c3 bd a2 fe 25 bd
       0.07321934 -0.049543045 -0.095374174 -0.04052604
000160 1d 35 23 bd 4c 91 09 3e 69 81 9a bd 97 01 1a 3e
       -0.039845575 0.13434333 -0.07544214 0.15039669
000170 e4 24 2c 3d a5 58 f1 3b a9 f7 0d 3e d9 05 a2 3c
       0.04202737 0.0073653036 0.13864006 0.019778179
000180 50 60 01 3c 98 bc 77 bd f0 40 65 3d f5 26 87 3d
       0.007896498 -0.06048259 0.055970132 0.06599227
000190 07 53 91 3d 92 93 0c bd a8 f0 bf 3d f2 7b d7 3d
       0.07095914 -0.03432042 0.093720734 0.105216876
0001a0 86 8a e5 bd 46 98 64 3e 4a a5 dc bd ce 3c 27 3e
       -0.11208062 0.22323713 -0.10773714 0.16331789
0001b0 ac 6d 83 3d 84 b3 e5 3c 4c 4c 79 bd 17 7b 3b 3e
       0.064174026 0.028039701 -0.060863778 0.18308674
0001c0 d0 7d a5 3c 9e 3b d3 3d e2 d7 9b 3d 21 2b 24 3d
       0.020201594 0.103141055 0.07609536 0.040080193
0001d0 14 ab fd 3d c5 fd 34 3d 81 7c 4b bd 76 30 ad bd
       0.12386146 0.044187326 -0.049679283 -0.08456509
0001e0 e6 fe 8a bd 00 4f 3d be 9b 07 30 bd 8a 4c 4a 3b
       -0.06786899 -0.18487167 -0.042976003 0.0030868375
0001f0 3e b5 76 3d b4 04 12 3d 3b 6a 94 3d 78 17 4a 3b
       0.06023144 0.035649016 0.07246824 0.0030836742
000200 80 6c b7 bd 8e 67 74 bd e9 bd d7 bd 80 9e dc 3b
       -0.089562416 -0.05966907 -0.10534269 0.006732762
000210 1a 28 01 be 15 da b4 bc 97 8f 96 bc e2 3d c6 bd
       -0.12612954 -0.022076646 -0.018379016 -0.09679772
000220 ec 27 67 bd 8b 7a d7 3c fc ed 86 bd 32 f2 e1 bd
       -0.056434557 0.02630355 -0.06588361 -0.11032523
000230 aa 09 9d 3d 51 6e d3 bd 10 d5 76 3c 22 c8 a7 bd
       0.07667859 -0.103237756 0.0150654465 -0.08192469
000240 e8 f0 7e 3d 5d 86 28 be 87 dc db 3d 55 be 79 bd
       0.062241465 -0.16457506 0.10735422 -0.06097253
000250 00 38 d2 3b b3 53 5a 3d 21 42 54 3d 26 00 6f 3d
       0.006415367 0.053302478 0.051820878 0.05834975
000260 37 40 87 bd 7c 98 8c 3d 93 3e a5 3d 1f be e3 bd
       -0.06604045 0.068650216 0.08068576 -0.11120247
000270 b5 83 26 bd 16 40 99 3d 60 47 cb bd a5 ed 0a be
       -0.04065295 0.074829265 -0.09925723 -0.13567217
000280 8a 1a 9e 3d c4 6a 34 3d 60 a7 43 38 9f 20 b9 3d
       0.07719906 0.044047132 4.6647503e-05 0.09039425
000290 26 18 99 bc 26 3e c5 3d 96 e2 a9 bd 88 03 dc bd
       -0.018688273 0.096309945 -0.08295171 -0.10742861
0002a0 30 ae de bc 24 c2 d7 3d 18 e1 da bd 57 0f 94 3c
       -0.027182668 0.10535076 -0.106874645 0.01807372
0002b0 31 31 63 3c e4 d0 7d bd f4 f1 d1 bd 30 53 f7 3c
       0.013866709 -0.06196679 -0.10251227 0.030191034
0002c0 ac 02 40 3d 4a d2 e6 bc c2 e2 04 3d be 2d 85 3d
       0.046877548 -0.028176446 0.032442816 0.06502865
0002d0 52 4e b4 bd 87 70 ee bd 2b a8 48 bd 70 5e 93 bc
       -0.08804001 -0.11642557 -0.048988502 -0.017989367
0002e0 e0 a9 44 bd b4 f7 ff 3c fd 10 01 be bc ac b9 3d
       -0.048013568 0.031246044 -0.12604137 0.090661496
0002f0 88 63 53 bd c8 ff 8e bd c6 4b b1 bc c7 57 ee bd
       -0.051608592 -0.0698238 -0.021642577 -0.11637836
000300 a4 84 dd bd 48 4d f5 3b d7 3b 81 bd 18 a1 8a bd
       -0.10816315 0.0074860193 -0.06310242 -0.067690074
000310 86 d7 ed 3c a3 8a 8c 3d 10 a2 65 3c d8 23 7f bd
       0.029033434 0.0686238 0.0140156895 -0.062290043
000320 e6 4e 8b 3d 0d 94 92 bd bb 5f b1 bd 98 a5 c7 bc
       0.06802158 -0.07157145 -0.08660837 -0.024370953
000330 68 d4 f8 bc dc 23 f7 3d 10 c7 b7 bc 89 db 11 be
       -0.03037472 0.120673865 -0.022433788 -0.14243902
000340 54 9a 22 bd fa 50 8a 3c 0c 65 5d 3d 3e 3c e6 bd
       -0.03969796 0.016884316 0.054051444 -0.11241959
000350 c6 8c ee bd 00 ae 11 bd f0 f5 02 3c f3 cd 06 be
       -0.11647944 -0.03556633 0.007993206 -0.13164501
000360 4f f3 ed 3c da cd 54 bd eb 38 33 3d 50 98 18 3d
       0.029046683 -0.051954128 0.043755453 0.03725463
000370 f8 67 a3 bc 27 d2 22 bd 8e e3 1d 3c 0d 42 bf bd
       -0.019947037 -0.0397512 0.009636773 -0.0933877
000380 f0 ba 04 bd a8 52 6a 3d 44 44 10 be 20 dc cb bc
       -0.03240484 0.057207733 -0.14088541 -0.024885237
000390 0d 4d 1a bb 07 92 be bd 78 62 72 3d 98 a0 7d 3d
       -0.002354446 -0.09305196 0.05917594 0.061920732
0003a0 a8 75 94 bc 60 a0 8c bd 88 cd 77 3d 1f 2a b0 bc
       -0.01812251 -0.068665266 0.060498744 -0.02150446
0003b0 9d 92 00 be a8 74 30 3d d4 03 fc 3d c7 ee a0 3d
       -0.12555929 0.043080002 0.12305418 0.07858043
0003c0 f4 37 8d bd 69 82 b3 3d 20 03 a5 bd 39 03 fd bd
       -0.06895438 0.08765108 -0.08057237 -0.1235413
0003d0 aa 52 b7 3d d5 b3 ca bd e9 1a b1 3d ac e4 fa 3d
       0.08951314 -0.098975815 0.08647711 0.12250647
0003e0 4a 0f ac bd 86 89 a9 3d 04 6a 56 bd e9 7a 79 bd
       -0.08401354 0.08278184 -0.052347198 -0.060908232
0003f0 2f b5 24 bc 9c 61 41 3d a4 3c ae bd ae 0a fb 3d
       -0.010052963 0.04721223 -0.0850766 0.12257896

bias f4 [64]
000000 ba 96 ee ba 41 52 7d 3c e8 5b 05 be b3 a6 4d bd
       -0.0018202879 0.015461505 -0.1302334 -0.050207805
000010 2f 52 ee 3d 75 07 cf bc ff 6e 63 bd 29 fe 68 3d
       0.11636769 -0.02527211 -0.055525776 0.05688301
000020 f8 1a 49 bd 81 90 b0 bd a3 cb 9e 3d 68 01 06 be
       -0.049097985 -0.08621312 0.07753684 -0.13086474
000030 66 f8 d3 3c f5 3c db 3d ca b4 4f 3c 34 3c 0d be
       0.025875282 0.10704986 0.012677381 -0.13792497
000040 7b 4c 90 3d ff ce 27 bd d7 81 82 bd ba 19 e2 3d
       0.070458375 -0.04096889 -0.06372421 0.11040063
000050 5b f0 2d be a9 83 f1 bd 48 b5 06 be 53 f6 9a bd
       -0.1698622 -0.1179269 -0.13155091 -0.07566514
000060 2c b1 01 3c 66 49 4c 3d 40 67 02 3c ff 6f 24 bd
       0.007915776 0.049874686 0.007959187 -0.04014587
000070 96 a2 61 bd 49 97 0d 3d c5 04 89 3c 34 f4 27 be
       -0.055086695 0.034568105 0.016725907 -0.1640175
000080 38 f9 ce bc 96 e8 77 bd 6e 62 4c 3d 1b 8a f6 3d
       -0.025265321 -0.060524546 0.049898557 0.1203806
000090 3e d7 cd 3d 16 9d c1 3d 32 a9 ef bd 69 bc cd bd
       0.1005082 0.0945379 -0.11702193 -0.10045702
0000a0 d2 5d d1 bd 3b 8c 64 bd 41 a8 e8 bd c2 bd 22 bd
       -0.10222973 -0.055797797 -0.11360217 -0.03973175
0000b0 1c 8b f3 bc d7 3e 36 3d c4 2c d9 bd b6 53 a8 bc
       -0.029729418 0.044493522 -0.106042415 -0.020547729
0000c0 00 25 b1 3d fc 9d 84 3d ed fe b3 bc 2f 6f 71 bd
       0.08649635 0.06475446 -0.021972144 -0.058943924
0000d0 86 83 e0 bd 04 f7 c0 3d c0 6b 1f 3b 89 5a 5b bd
       -0.10962586 0.094221145 0.0024325699 -0.053553138
0000e0 66 ef 57 bd 70 ac fa bc 20 2d 56 bc 3a 63 df bd
       -0.052718543 -0.030599803 -0.013072282 -0.10907598
0000f0 8f 38 8b bd 70 d5 24 3b 08 6f 91 bd ec 4d e9 3c
       -0.06797897 0.0025151633 -0.07101256 0.028479539

weight f4 [1, 64]
000000 82 be 8b 3c f5 4a 3e be 27 98 a0 3a 3f d4 a2 3c
       0.017058615 -0.18583281 0.0012252376 0.019876597
000010 bb 4c a1 be fa 29 10 bd 41 6a 64 3e 84 d3 f5 3c
       -0.31503853 -0.035196282 0.22306158 0.030008085
000020 85 f7 b1 3d e2 62 be 3e 90 8e b8 3e 79 fc 0b bc
       0.08689789 0.37184817 0.36046267 -0.008544081
000030 6d 09 b0 bc 87 8d 37 be e6 24 77 3c 10 58 a6 3d
       -0.02148887 -0.17925082 0.015084481 0.08122265
000040 20 69 09 3f e0 51 92 3d 15 24 c9 bc e0 86 16 be
       0.53676033 0.07144523 -0.024553338 -0.14699888
000050 ff 82 60 3c 24 d6 a7 bd b0 bf 9f 3d 8e 85 16 bd
       0.013703107 -0.08195141 0.07800233 -0.03674846
000060 1e 3d 65 3b 70 f9 20 3c 92 e5 77 3c 46 fb 34 be
       0.0034979056 0.0098250955 0.015130417 -0.17673978
000070 fe 32 1e bb 08 7e 7c 3e 78 74 04 be 0a dc 15 bc
       -0.002413928 0.24657452 -0.12935054 -0.0091467
000080 bc d1 56 3d f5 f0 2d 3f b4 ec cd bd 80 e5 2b be
       0.052446112 0.67945796 -0.10054913 -0.16786766
000090 64 57 3f be fd ce 46 be d9 01 e3 bb 04 b1 b6 38
       -0.1868568 -0.19414897 -0.0069277105 8.711408e-05
0000a0 46 ea c5 3d d7 51 b7 bc a5 2d ff bb 22 d2 99 bb
       0.09663825 -0.022377891 -0.0077874237 -0.0046942392
0000b0 26 a9 93 be 8c 4d d9 3e 14 ef 4a 3d 99 68 85 be
       -0.28839988 0.42441976 0.04954441 -0.26056364
0000c0 48 ec ed 3c a6 3b 61 3d 56 97 85 3d 39 b5 dd 3c
       0.029043332 0.054988526 0.06523006 0.027063953
0000d0 7a 46 e0 3d ad be 58 3e 10 7d d5 bc d7 c4 50 bb
       0.10950942 0.21166487 -0.026060611 -0.0031855607
0000e0 57 3a 20 3c 7e a4 d9 bd 1d bd 8b bc eb c1 92 bd
       0.009779534 -0.106270775 -0.01705795 -0.07165893
0000f0 69 9e 73 3d df c5 90 ba 49 31 9c 3d 26 6b 12 3d
       0.059477244 -0.0011045298 0.07626588 0.035746716
