output/ppo/2021-12-19_15-06-52-ppo_s0/model.pt (torch_old, 156135 bytes, 12 tensors)

log_std f4 [3]
0	0xbfcbe1b8	-1.5928259
1	0xbfc9f32d	-1.5777336
2	0xbf8bb4b3	-1.091452

weight f4 [128, 16]
0	0x3df9fbc4	0.122062236
1	0x3e363c7c	0.1779651
2	0xbf1013f7	-0.56280464
3	0x3d894979	0.06703467
4	0xbe056a1f	-0.13028763
5	0x3e4c22e7	0.19935189
6	0x3d67c8dd	0.056588043
7	0x3e324356	0.17408499
8	0xbc4216dc	-0.01184627
9	0x3d964752	0.07337822
10	0xbdb3a035	-0.087707914
11	0xbd6a9486	-0.05727055
12	0xbe6f9827	-0.23397885
13	0xbe506673	-0.20351581
14	0xbd432bd3	-0.047649216
15	0x3c995700	0.018718243
16	0x3dd0a823	0.101883195
17	0x3e04b68d	0.12960263
18	0xbe85754c	-0.26066053
19	0xbe39dab3	-0.18149833
20	0x3dde3815	0.108505405
21	0x3e5e5241	0.21711065
22	0xbd7892e9	-0.06068698
23	0x3e0fef13	0.14056043
24	0xbd57242c	-0.05252473
25	0x3d0e486c	0.034737036
26	0x3e490c45	0.19633587
27	0xbe8eee72	-0.27916294
28	0xbe15ba8a	-0.1462194
29	0xbdaf5fed	-0.08563218
30	0xbdc27a0d	-0.094959356
31	0x3e64c768	0.22341692
32	0xbe2e442c	-0.17018193
33	0xbd52021d	-0.051271547
34	0xbeddcff1	-0.4332271
35	0xbe0be552	-0.13661698
36	0xbe50c0a4	-0.20385987
37	0x3e51e96a	0.20499197
38	0x3d82574b	0.06364306
39	0x3dffd13a	0.12491079
40	0xbd8fab90	-0.07015145
41	0xbe49f828	-0.1972357
42	0x3e04d532	0.12971953
43	0xbea1f3c6	-0.31631297
44	0xbe8168b6	-0.252752
45	0xbe2c27dc	-0.1681208
46	0x3db2541d	0.087074496
47	0x3d9e3712	0.077253476
48	0xbe517d49	-0.20457949
49	0x3d3e0bd0	0.046397984
50	0x3c5901c5	0.013245051
51	0x3e987591	0.29777196
52	0x3d51520d	0.05110364
53	0xbd513c42	-0.051082857
54	0x3e138727	0.14407025
55	0xbe4c8c6c	-0.19975442
56	0x3cecb07d	0.02889275
57	0xbe50ca84	-0.20389754
58	0xbe4ccc43	-0.19999795
59	0xbe1532d1	-0.14570166
60	0x3dd4e817	0.1039583
61	0x3d9ef2ff	0.077611916
62	0xbe26c5c1	-0.16286375
63	0x3d841309	0.06448943
64	0x3e81f2a3	0.2538043
65	0xbd6dd8cd	-0.058068085
66	0x3c52ee36	0.012874177
67	0xbd2a4f78	-0.041579694
68	0x3e37c4ec	0.17946213
69	0x3ea5ef91	0.32409337
70	0xbe4e5e8c	-0.20153254
71	0xbdd3de37	-0.103451185
72	0x3dba6687	0.09101587
73	0x3e4e557b	0.20149796
74	0x3e4fa9b4	0.2027958
75	0x3e85250f	0.26004836
76	0x3d894644	0.06702855
77	0xbe35d123	-0.1775556
78	0x3d7d83ba	0.061893202
79	0xbdf99fe2	-0.12188698
80	0xbe66b04a	-0.22528186
81	0x3e94580a	0.28973418
82	0x3e3b7f16	0.18310198
83	0xbe439663	-0.19100337
84	0xbbebd3a4	-0.0071968604
85	0xbd26b55a	-0.040700294
86	0xbce34d05	-0.027746687
87	0xbdf798d4	-0.120896965
88	0x3dc4846c	0.0959557
89	0xbe1ff049	-0.15619005
90	0x3da15595	0.078776516
91	0x3e046c45	0.12931927
92	0x3e2c67c4	0.16836458
93	0x3db30ea0	0.08743024
94	0xbe890a31	-0.26765588
95	0xbe2d0799	-0.1689743
96	0x3dda3766	0.10655098
97	0x3dd9f66c	0.10642704
98	0xbd080108	-0.03320411
99	0xbdc86254	-0.097843796
100	0x3e3ae322	0.18250707
101	0x3e2014d0	0.1563294
102	0xbdfda4ac	-0.12384924
103	0xbddc2410	-0.10749066
104	0xbe87273d	-0.26397124
105	0xbca32865	-0.019916723
106	0xbe46ce81	-0.19414712
107	0xbe372035	-0.1788338
108	0xbcc8f322	-0.024529997
109	0x3c3388b0	0.010957882
110	0xbe030435	-0.12794574
111	0x3e062fcb	0.13104169
112	0xbeaacf77	-0.33361408
113	0x3dddb570	0.10825622
114	0x3e69823b	0.22803585
115	0x3dfead06	0.12435345
116	0x3d8ad941	0.06779719
117	0xbe2a8e6a	-0.16655889
118	0x3e3125aa	0.17299524
119	0xbd373717	-0.044730272
120	0xbd3ca949	-0.04605988
121	0x3d95894c	0.07301578
122	0xbe70eac1	-0.23527052
123	0xbd00df1c	-0.031462774
124	0xbe3539fd	-0.17697902
125	0xbe2ba980	-0.16763878
126	0xbdaf9262	-0.08572842
127	0xbd28d8ed	-0.0412225
128	0xbce5eb21	-0.02806622
129	0xbdd4daa8	-0.10393268
130	0xbe8a1e8e	-0.26976436
131	0x3e2f30c4	0.17108446
132	0xbe8531be	-0.26014513
133	0x3d64b072	0.055832334
134	0x3e46e383	0.19422726
135	0xbd1dfe86	-0.03857281
136	0x3bcc59dc	0.006236298
137	0xbc4e075d	-0.012574998
138	0x3d388d99	0.045056913
139	0x3e1f34bd	0.15547462
140	0x3e80c58f	0.25150725
141	0x3e18c0ea	0.14917341
142	0x3e923386	0.28554934
143	0xbc1b781c	-0.0094890855
144	0xbe88bac5	-0.26704994
145	0xbed7efb4	-0.42175066
146	0x3eba7686	0.3641855
147	0xbe822696	-0.25420064
148	0x3e341558	0.17586267
149	0xbe7fed08	-0.24992764
150	0xbe89479e	-0.26812452
151	0xbe7c334f	-0.24628948
152	0xbd9764ed	-0.07392297
153	0x3e13ab4a	0.1442081
154	0x3dd03c4a	0.10167749
155	0xbe7c17ae	-0.24618408
156	0x3e2a6b60	0.16642523
157	0xbe545078	-0.20733821
158	0xbd8cedc4	-0.06881288
159	0xbdc6d39c	-0.0970833
160	0xbd6009d6	-0.05469688
161	0xbd423652	-0.047415085
162	0xbebd2354	-0.36941016
163	0xbe9878fb	-0.297798
164	0xbd43806d	-0.0477299
165	0x3af677fb	0.0018804068
166	0xbdf218c0	-0.11821127
167	0x3db0e451	0.08637298
168	0xbe4709ce	-0.19437334
169	0x3c31f30f	0.010861172
170	0x3e57ce9e	0.21074912
171	0xbdb29e36	-0.087215826
172	0x3e881f11	0.26586202
173	0x3e3e718f	0.18598007
174	0xbe58d715	-0.21175797
175	0x3e3ab1a1	0.18231823
176	0xbc677ad1	-0.014128403
177	0xbdf7318f	-0.120699994
178	0x3e4cb711	0.1999171
179	0xbe3f52a0	-0.18683863
180	0x3cefdca9	0.029280024
181	0xbd3ec9ea	-0.04657928
182	0x3e46d548	0.19417298
183	0x3d682c47	0.05668285
184	0x3de2e53a	0.11078878
185	0x3dd0aca6	0.1018918
186	0xbd939b6b	-0.07207378
187	0xbd70f397	-0.058826055
188	0xbe450677	-0.19240747
189	0x3df8fd22	0.12157656
190	0x3e549064	0.20758206
191	0x3e37bda5	0.17943437
192	0xbe387313	-0.18012647
193	0x3b231134	0.002488208
194	0xbe347242	-0.17621711
195	0xbe0c1104	-0.13678366
196	0xbe11c6c9	-0.14235987
197	0x3dab550e	0.08365832
198	0xbe14bb57	-0.1452459
199	0xbbd70851	-0.0065622707
200	0x3c69b5ce	0.014264537
201	0x3e2b546d	0.16731425
202	0xbe3a97e9	-0.18222012
203	0xbe085a04	-0.13315588
204	0xbdfb23db	-0.12262698
205	0x3e4fbbdd	0.20286508
206	0xbda0901f	-0.07839989
207	0x3e6588ec	0.22415513
208	0xbe173add	-0.14768548
209	0x3e4b5829	0.19857849
210	0xbc360fea	-0.011112193
211	0xbd6c2b8a	-0.05765871
212	0xbe063bff	-0.13108824
213	0xbe988267	-0.2978699
214	0xbc2e299e	-0.0106300395
215	0x3d557496	0.05211314
216	0xbe855cf4	-0.2604748
217	0xbe129480	-0.14314461
218	0x3e59c93a	0.21268168
219	0xbe5d9600	-0.21639252
220	0xbd05763d	-0.032583464
221	0x3e766ce7	0.2406498
222	0x3d1f468b	0.038885634
223	0xbb18c9ac	-0.0023313565
224	0xbe4b5259	-0.19855632
225	0x3dd7cb0b	0.10536774
226	0xbedcb7a9	-0.43108872
227	0xbe5f0151	-0.21777846
228	0xbd9d8209	-0.07690818
229	0xbc50a118	-0.01273372
230	0xbd302e4f	-0.043012913
231	0x3e571d8f	0.2100737
232	0xbd5089cb	-0.05091266
233	0x3e5b611c	0.21423763
234	0x3e29eb40	0.16593647
235	0xbe2b19aa	-0.16709009
236	0x3ddcc158	0.10779065
237	0xbe382fce	-0.17986986
238	0xbe081605	-0.1328965
239	0x3d7f3d3d	0.06231426
240	0xbdf34463	-0.11878278
241	0x3e1fe83f	0.15615939
242	0x3da5f2bf	0.08102941
243	0xbe3f6243	-0.18689828
244	0x3e232ca1	0.15934993
245	0xbee27f3c	-0.44237697
246	0x3e31fc2c	0.17381352
247	0xbe2b644d	-0.1673748
248	0xbd2dac6d	-0.042400766
249	0xbc82607c	-0.015915148
250	0xbe0c5040	-0.13702488
251	0xbabfe8ef	-0.0014641563
252	0x3e72ef05	0.23723991
253	0x3be80876	0.0070810867
254	0xbe22d8d4	-0.15903026
255	0xbd8c79e9	-0.0685919

bias f4 [128]
0	0xbdf7e653	-0.12104478
1	0xbd88f1a0	-0.06686711
2	0xbe6966c0	-0.22793102
3	0x3dc38592	0.09546961
4	0x3d051f3d	0.032500494
5	0xbdba1a9a	-0.09087105
6	0xbd4008a5	-0.046883244
7	0x3d9eed62	0.07760121
8	0x3e5ddd3b	0.21666424
9	0x3e683f6e	0.22680447
10	0xbe371f6c	-0.1788308
11	0x3dcfcd09	0.10146529
12	0x3dd87694	0.10569492
13	0x3db08094	0.08618274
14	0xbd4cd568	-0.050008208
15	0x3dac4736	0.0841202
16	0x3db2deab	0.08733877
17	0x3e6e275c	0.23257202
18	0xbe7b3bd9	-0.24534549
19	0xbd9747e1	-0.07386757
20	0xbe1cf044	-0.15326029
21	0xbe162d77	-0.14665781
22	0x3d39b160	0.045335174
23	0x3dbaffcb	0.0913082
24	0xbe329980	-0.17441368
25	0x3e1bada3	0.15202956
26	0x3e407507	0.18794642
27	0xbdff97ba	-0.124801114
28	0x3da73965	0.08165244
29	0xbe1ad9ef	-0.15122198
30	0x3cbac670	0.0227997
31	0xbde33aa7	-0.110951714
32	0xbdde2a1e	-0.10847877
33	0xbe2dea01	-0.16983797
34	0xbe569a7f	-0.20957373
35	0x3e554e21	0.20830585
36	0xbbd45856	-0.006480257
37	0xbc0d85a4	-0.008637819
38	0xbe01bed3	-0.1267045
39	0x3e2b9367	0.16755448
40	0xbdd69c8c	-0.10479078
41	0xbda35f41	-0.079771526
42	0xbe17fbf0	-0.148422
43	0xbe55a934	-0.20865327
44	0x3e4a7b88	0.19773686
45	0xbe537615	-0.20650513
46	0xbd58a1f3	-0.05288882
47	0xbe18b7c4	-0.14913851
48	0x3da46982	0.080279365
49	0x3d666f57	0.056258526
50	0xbe45c3a4	-0.19312912
51	0x3e5dcc31	0.21659924
52	0xbe8d4894	-0.27594435
53	0xbbd9c23a	-0.006645468
54	0xbc607dcb	-0.013701866
55	0xbcebc32d	-0.02877959
56	0x3e3503ea	0.17677274
57	0x3e8d3381	0.27578357
58	0x3d035c21	0.032070283
59	0xbdd462be	-0.10370396
60	0x3e4cf803	0.20016484
61	0x3e28eb90	0.1649611
62	0x3d5e2040	0.054229975
63	0xbdcb7d2c	-0.09935984
64	0x3c3478ca	0.0110151265
65	0x3e74e25b	0.23914473
66	0xb99648d7	-0.000286645
67	0xbda104f6	-0.07862274
68	0xbe82c56d	-0.2554125
69	0xbe13c18b	-0.144293
70	0x3e37329d	0.17890401
71	0x3c495e1e	0.012290506
72	0x3c4a0107	0.0123293465
73	0x3df873ab	0.12131437
74	0xbe17017c	-0.1474666
75	0x3d91d3cf	0.071204774
76	0xbe1a566a	-0.15072027
77	0x3e2d9b34	0.16953737
78	0x3e810507	0.25199148
79	0x3e20c1dd	0.15698953
80	0x3e3edcbc	0.18638891
81	0xbe62d227	-0.2215048
82	0xbda7dc16	-0.08196275
83	0x3d4f0101	0.050538067
84	0xbe6b6380	-0.22987175
85	0x3dccc689	0.09998805
86	0xbe466552	-0.19374588
87	0x3d9374a8	0.07199985
88	0x3e3f900f	0.18707298
89	0xbe6cd277	-0.23127161
90	0x3e84b9b8	0.25922942
91	0x3df63516	0.12021844
92	0xbe3551a5	-0.17706926
93	0x3e75f946	0.24020872
94	0xbe613884	-0.21994215
95	0xbe1df0d2	-0.15423897
96	0xbdec8542	-0.115488544
97	0x3c346025	0.011009251
98	0x3d41fe8b	0.04736189
99	0xbce3602f	-0.027755825
100	0xbe69ab2d	-0.22819205
101	0xbd2cd586	-0.04219582
102	0x3e401e45	0.18761547
103	0x3e3e468e	0.18581602
104	0x3df6b77d	0.12046716
105	0xbc0351fc	-0.008015152
106	0x3d71870d	0.058966685
107	0xbe406877	-0.1878985
108	0x3e0fd431	0.14045788
109	0xbe859690	-0.26091433
110	0xbe300cb3	-0.17192344
111	0xbda77040	-0.08175707
112	0x3e6aa498	0.2291435
113	0x3c2c20ed	0.010505897
114	0xbe4c51c4	-0.19953066
115	0xbab01a1c	-0.0013435516
116	0xbe53f683	-0.20699506
117	0xbcf26b22	-0.0295921
118	0x3d87099d	0.065936305
119	0xbc96a277	-0.018388016
120	0xbc5d1d58	-0.013495766
121	0x3dd6f207	0.10495382
122	0xbe28b819	-0.16476478
123	0xbdfdf08d	-0.12399397
124	0x3e5eb443	0.21748452
125	0x3c9c57ff	0.019084929
126	0xbd6f6fe6	-0.058456324
127	0x3e26b5f3	0.16280346

weight f4 [128, 128]
0	0x3d4819bd	0.04885267
1	0xbc7f1e82	-0.0155712385
2	0xbccc7884	-0.02495981
3	0xbc258946	-0.010103529
4	0x3ce29fe6	0.027664136
5	0xbc80ebaf	-0.015737383
6	0x3d7525e4	0.05985059
7	0xbd7eafb1	-0.06217927
8	0xbd33fd57	-0.043942776
9	0x3d363c4f	0.04449111
10	0x3c5e3350	0.013562039
11	0x3cb62275	0.022233227
12	0x3d093a59	0.03350291
13	0x3b8f0ebb	0.0043657697
14	0xbd106fbd	-0.035262812
15	0xbb6e2be5	-0.003634208
16	0xbd5389e3	-0.05164517
17	0xbd190333	-0.037356567
18	0x3ca06929	0.019581394
19	0x3ccc9da2	0.024977509
20	0xbb68d4c7	-0.0035527216
21	0xbcb08cca	-0.021551508
22	0xbc727fb7	-0.014800957
23	0xbc7297bb	-0.014806683
24	0x3d509604	0.050924316
25	0xbdd9504e	-0.1061102
26	0x3dc3e398	0.095648944
27	0x3d633b83	0.055476677
28	0xbda1b0c6	-0.07895045
29	0x3d9cd194	0.07657161
30	0xbdeddb00	-0.116140366
31	0x3c2ee78d	0.010675323
32	0xbd42d5b3	-0.04756708
33	0xbda48647	-0.08033424
34	0x3cc0a6fb	0.023517122
35	0x3b54a859	0.0032448976
36	0x3d6d16fa	0.05788324
37	0xbd9f7cc9	-0.07787473
38	0x3d3a31ee	0.045457773
39	0x3d570345	0.052493352
40	0x3d43c332	0.047793575
41	0xbd1dedf1	-0.038556997
42	0xbd3e4dba	-0.046460845
43	0xbd969840	-0.07353258
44	0x3da4008d	0.080079176
45	0xbd20c50d	-0.039250422
46	0xbd03374e	-0.032035165
47	0xbd03a693	-0.03214128
48	0x3d612502	0.054966934
49	0xbd9f06a1	-0.07764936
50	0x3d9d9001	0.07693482
51	0xbd7bfcba	-0.061520316
52	0x3db61404	0.088905364
53	0xbc89df11	-0.01683
54	0xbd4c7e83	-0.04992534
55	0xbc015a29	-0.007895031
56	0x3d0cff32	0.03442306
57	0xbcf65b71	-0.0300729
58	0xbda50135	-0.08056871
59	0x3d79d14d	0.06099062
60	0x3daddcfa	0.084894136
61	0x3d48cfd0	0.04902631
62	0x3d88ccd2	0.066796914
63	0xbc6d4931	-0.014482782
64	0xbcca88e8	-0.024723485
65	0xbd865cbd	-0.06560657
66	0xbd945180	-0.072421074
67	0xbd30b689	-0.04314283
68	0xbc97bf71	-0.018523904
69	0x3d145159	0.03621039
70	0xbcb508a0	-0.02209884
71	0xbbd27bf4	-0.006423468
72	0xbd099e46	-0.033598207
73	0xbd6de08d	-0.058075476
74	0x3aeca6ba	0.001805506
75	0x3db865a6	0.09003763
76	0x3d9fcad2	0.07802357
77	0x3d89176d	0.06693921
78	0xbba18031	-0.0049286117
79	0x3bc49ac7	0.005999896
80	0x3d33c486	0.04388859
81	0xbc09f2ae	-0.008419676
82	0xbd094a2e	-0.03351801
83	0x3da489ab	0.080340706
84	0x3c1b977c	0.009496566
85	0xbd67df4f	-0.056609448
86	0x3da1f431	0.07907904
87	0x3be90e6f	0.0071123163
88	0x3d30eb60	0.04319322
89	0xbdd3805d	-0.10327218
90	0x3cbea825	0.023273537
91	0x3da17601	0.078838356
92	0xbc5960ec	-0.013267737
93	0xbd64c63d	-0.055853117
94	0x3d4ce91c	0.050026998
95	0x3d1a7014	0.037704542
96	0x3d038e9c	0.032118425
97	0x3c397dff	0.011321544
98	0x3cc800cc	0.024414442
99	0x3d0e5ca1	0.034756307
100	0xbc0ec75b	-0.008714522
101	0xbcad5bc5	-0.021161923
102	0x3d3369c1	0.043802027
103	0x3d0c7e71	0.03430027
104	0x3ca5d178	0.020241484
105	0xbc9da3f8	-0.019243225
106	0xbbe7de57	-0.0070760655
107	0xbc201f56	-0.009773096
108	0x3d84eef9	0.06490893
109	0xbd9c5252	-0.07632889
110	0xbdaafab6	-0.083486006
111	0x3d111b3d	0.035426367
112	0xbd5bfdc1	-0.053708795
113	0x3b815883	0.003947319
114	0x3d1bbe5d	0.03802334
115	0x3c7d4f83	0.015460852
116	0x3dbcbb95	0.09215466
117	0xbc6d0e6a	-0.014468769
118	0x3ca5347b	0.020166626
119	0xbc720bf2	-0.014773356
120	0x3c8f3058	0.017479107
121	0x3cf1d749	0.029521601
122	0x3d607258	0.054796547
123	0xbdbf3567	-0.093363576
124	0xbcf028d2	-0.02931634
125	0xbd98ee6e	-0.07467352
126	0xbd11cd51	-0.035596196
127	0x3dcc56ca	0.09977491
128	0xbdb8ca5d	-0.09022973
129	0xbda9cac3	-0.08290627
130	0x3d56a0d1	0.05239946
131	0xbd63ec25	-0.055645127
132	0x3d871db5	0.06597463
133	0x3ced26be	0.028949138
134	0x3cc5beb4	0.024138786
135	0x3d585b25	0.052821297
136	0xbd8a27c1	-0.06745864
137	0x3d256de8	0.040388018
138	0x3b9ca66a	0.0047805803
139	0xbd78483b	-0.06061576
140	0x3ca4d2db	0.020120075
141	0xbce868ac	-0.028370224
142	0xbd4afde8	-0.04955855
143	0xbca48e8b	-0.020087501
144	0xbce09821	-0.02741629
145	0x3d9e3751	0.077253945
146	0x3d50ae9e	0.050947778
147	0xbc04d7a5	-0.008108054
148	0xbda35c7f	-0.079766266
149	0xbc6dc1f2	-0.014511572
150	0x3c8c2b2f	0.017110435
151	0x3d78b9c3	0.06072403
152	0x3ad03ca6	0.0015887215
153	0x3cc545e6	0.024081182
154	0x3c52764b	0.012845586
155	0xbd14fc2e	-0.03637331
156	0xbd5ff02d	-0.05467241
157	0xbd85d917	-0.06535547
158	0x3b30b837	0.002696527
159	0x3cb38561	0.021914186
160	0x3bbfbb02	0.0058511505
161	0x3db27a30	0.08714712
162	0xbd016a8f	-0.031595763
163	0xbd9694c1	-0.07352591
164	0x3c810510	0.015749484
165	0xbc089f24	-0.008338723
166	0x3b06acba	0.002054973
167	0x3d957b73	0.07298937
168	0x3a78f341	0.0009496697
169	0x3da7e312	0.08197607
170	0x3c83ac76	0.016073447
171	0xbd1577ac	-0.03649108
172	0x3d835ed2	0.0641457
173	0xbd4dc9aa	-0.05024115
174	0xbb9ca6f2	-0.0047806436
175	0x3cd92623	0.026507443
176	0x3c3f5e55	0.011680205
177	0xbdaaf949	-0.083483286
178	0x3b7fe640	0.0039047152
179	0xbcc7e21e	-0.024399813
180	0x3d6757e9	0.056480322
181	0x3ca7f700	0.020503521
182	0x3cf71d16	0.030165236
183	0x3d546fa7	0.051864292
184	0xbcc56e59	-0.02410047
185	0x3b52a0ce	0.0032139304
186	0x3d69dfd2	0.057098217
187	0xbd9d6673	-0.07685556
188	0xbd8cbc0c	-0.068718046
189	0x3ba67837	0.0050802487
190	0xbd57e5be	-0.052709334
191	0x3caa0a0b	0.020756742
192	0x3db059de	0.08610891
193	0xbcaab288	-0.020837083
194	0xbd9cdf75	-0.076598085
195	0xbd62a779	-0.055335496
196	0x3da227c7	0.07917743
197	0x3b824e58	0.0039766245
198	0xbc2c5247	-0.010517663
199	0x3d264db9	0.040601466
200	0x3d24e43b	0.04025672
201	0xbd95e399	-0.073188014
202	0x3d87ce7b	0.0663118
203	0x3d6b3e37	0.05743238
204	0x3daf3b72	0.0855626
205	0x3cfdeb28	0.03099592
206	0xbc8626c8	-0.016375914
207	0xbcf7b9d9	-0.030239986
208	0x3d352101	0.044220928
209	0xbcf4b353	-0.029870665
210	0xbc4f66ca	-0.012658784
211	0xbdb2a14e	-0.08722173
212	0xbd6064ca	-0.05478362
213	0x3d321006	0.043472312
214	0xbbb1209a	-0.0054054977
215	0xbd05bec7	-0.032652643
216	0xbd95d95d	-0.073168494
217	0x3d636787	0.055518653
218	0xbc2f92f1	-0.010716186
219	0xbdad0a19	-0.084491916
220	0x3dbb43cc	0.091437906
221	0x3d3a070f	0.045416888
222	0xbd8ace47	-0.067776255
223	0xbd658b22	-0.05604089
224	0x3dc57a71	0.096424945
225	0x3bcedc59	0.0063128886
226	0xbd696598	-0.056981653
227	0x3d61bec0	0.055113554
228	0xbc6c9616	-0.01444008
229	0xbcbc3c5d	-0.022978002
230	0xbd5931ce	-0.053026013
231	0xbda3741c	-0.079811305
232	0xbd563543	-0.052296888
233	0xbb7495b9	-0.0037320687
234	0xbd85a4ba	-0.0652556
235	0x3de67a99	0.112538524
236	0xbc866351	-0.01640478
237	0xbcfd08cb	-0.030887982
238	0x3cfe02ed	0.031007254
239	0xbd9f5994	-0.077807575
240	0xbca32656	-0.019915741
241	0x3cab4709	0.020907896
242	0xbdc2c87c	-0.095108956
243	0x3d338a4f	0.043833073
244	0x3c0b5c2a	0.00850586
245	0xbdc1198b	-0.094287
246	0xbdbfaa22	-0.09358622
247	0x3d2298c6	0.039696477
248	0x3d257287	0.040392425
249	0xbcd3d8f9	-0.025860297
250	0xbd97f638	-0.074200094
251	0xbd920d19	-0.071314044
252	0x3b9d9d0d	0.0048099817
253	0x3d13e470	0.036106527
254	0x3cafa773	0.02144215
255	0x3c29f811	0.010374085

bias f4 [128]
0	0xbc44d67b	-0.012014027
1	0xbd555c0a	-0.05208973
2	0x3d0e8d44	0.03480269
3	0x3d6c4d05	0.05769064
4	0x3d3a83ca	0.04553584
5	0x3c93c2ec	0.018037282
6	0xbd7d73ff	-0.0618782
7	0x3d9c2235	0.07623712
8	0x3d86828b	0.06567868
9	0x3d6d2185	0.057893295
10	0x3d0dbc48	0.034603387
11	0x3bcd654f	0.0062681804
12	0x3d48c019	0.049011324
13	0xbc84b19d	-0.016197974
14	0xbdb8c4f2	-0.09021939
15	0x3a52f9f9	0.0008048113
16	0xbd97c186	-0.074099585
17	0x3d8f4b1a	0.06996746
18	0xbd9d7488	-0.07688242
19	0xbd1139c5	-0.035455484
20	0x3ce5441a	0.027986575
21	0x3d391bf1	0.045192663
22	0x3da6b0a4	0.0813916
23	0x3d8ff68b	0.07029446
24	0x3ccadb66	0.02476282
25	0x3d861a32	0.06547965
26	0xbc2c479d	-0.010515121
27	0xbd1975ac	-0.037465736
28	0x3b2f5a11	0.0026756565
29	0x3b3d9709	0.0028929135
30	0x3bb7299d	0.0055896775
31	0xbac1190f	-0.00147322
32	0xbd3952ae	-0.045244865
33	0x3d15fcf5	0.03661819
34	0x3d089734	0.033347324
35	0x3d5dc06e	0.054138593
36	0xbcc6e8d2	-0.02428094
37	0x3cb0af23	0.021567887
38	0x3d6fa251	0.058504406
39	0xbd257474	-0.04039426
40	0xbc787bba	-0.015166217
41	0x3d4fb005	0.050704975
42	0xbd7906c2	-0.06079746
43	0x3cd412f3	0.025887942
44	0xbd07e850	-0.033180535
45	0xbcf25e16	-0.02958588
46	0xbdad4360	-0.084601164
47	0x3ceb4504	0.028719433
48	0x3bab3248	0.0052245
49	0xbda20439	-0.07910962
50	0xbbbe759c	-0.00581236
51	0x3c960d20	0.018316805
52	0x3c69f16d	0.014278752
53	0xbd92fc73	-0.07177057
54	0xbc26e501	-0.010186435
55	0x3d839a39	0.064259
56	0xbda8b9eb	-0.08238586
57	0xbd84501a	-0.06460591
58	0x3d5c73f2	0.05382151
59	0xbd2e0b78	-0.042491406
60	0xbd14e7d7	-0.036353912
61	0xbd660533	-0.056157302
62	0x3cb59300	0.022164822
63	0x3c34edcf	0.011043026
64	0x3c2b2655	0.010446151
65	0x3d1fe7db	0.039039474
66	0x3cd55b90	0.026044637
67	0xbd6d6194	-0.057954386
68	0x3cb53fb8	0.02212511
69	0xbd9a4a38	-0.07533687
70	0xbd957fef	-0.07299792
71	0x3d1f7933	0.038933944
72	0x3c2193a1	0.009861858
73	0xbd6abd4a	-0.057309426
74	0xbd5ef86a	-0.054436125
75	0x3d73d21a	0.05952654
76	0xbd98b783	-0.07456877
77	0xbd63719b	-0.055528264
78	0x3d8c1a2c	0.068409294
79	0xbd9a0ab0	-0.0752157
80	0xbd5c4c8a	-0.05378393
81	0x3d4295d3	0.047506165
82	0xbd7dd94d	-0.061974812
83	0x3cbc6a1e	0.02299982
84	0x3d67ceca	0.056593694
85	0x3c2eb692	0.010663645
86	0xbd35aa9a	-0.04435215
87	0xbd6423b2	-0.055698104
88	0xbda1cf71	-0.079008944
89	0x3d2bd3a3	0.04194988
90	0x3a0bd14d	0.00053336174
91	0xb8809e8c	-6.133047e-05
92	0xbd53b1f3	-0.051683377
93	0xbd95de8a	-0.073178366
94	0xbc0e7d77	-0.008696905
95	0x3cce59dc	0.025189333
96	0x3d595295	0.053057272
97	0x3d89552e	0.067057
98	0xbac88f26	-0.0015301451
99	0xbdd15efb	-0.10223194
100	0x3d8909b8	0.06691307
101	0xbd0f2bb9	-0.034953807
102	0x3a9f2bc0	0.0012143776
103	0x3bf7893f	0.007554203
104	0xbd46fde3	-0.04858197
105	0xbcf664fc	-0.03007745
106	0xbcd6c6d4	-0.026217856
107	0xbd8144e5	-0.06311969
108	0xbd64222b	-0.055696648
109	0x3ab8f4f4	0.0014111088
110	0x3cc10272	0.023560736
111	0x3db33f21	0.08752275
112	0x3d59a061	0.053131465
113	0x3d68c9ec	0.056833193
114	0x3b0bc42e	0.002132665
115	0x3c5039b7	0.012709073
116	0xbce08990	-0.027409345
117	0xbd89ba5f	-0.067250006
118	0x3d8e47a6	0.069472596
119	0x3d159dac	0.03652732
120	0x3da01da3	0.07818153
121	0x3d2b4d50	0.041821778
122	0xbd6220a6	-0.055206917
123	0xbd9b1c44	-0.075737506
124	0x3da9c527	0.08289557
125	0xbd986b5c	-0.07442352
126	0xbcb3f2ec	-0.02196642
127	0xbd3bffc6	-0.04589822

weight f4 [3, 128]
0	0x3c8429db	0.01613324
1	0x3cc0daea	0.023541886
2	0xbbb34d91	-0.005471893
3	0x3a8e4010	0.0010852832
4	0xba54d801	-0.00081193453
5	0xbd009707	-0.03139403
6	0x3dcddf8c	0.10052404
7	0x3ccbfca6	0.024900746
8	0xbb3e3005	-0.002902032
9	0xbcfeeed7	-0.031119747
10	0xbcdb7bbd	-0.026792401
11	0x3c36b61e	0.011151819
12	0x3d979d87	0.07403093
13	0xbd915a1e	-0.070972666
14	0x3d090d69	0.033460055
15	0x3c9b9698	0.018992707
16	0xbad5828f	-0.001628952
17	0x3c85cbcf	0.016332535
18	0xbce0b43f	-0.027429698
19	0xbbd64ed0	-0.006540157
20	0x3c38b8c3	0.011274519
21	0x3cf6752c	0.030085169
22	0x3da24c0c	0.07924661
23	0xbd89257d	-0.066966034
24	0xbcfbfcc9	-0.030760186
25	0xbd42405c	-0.04742466
26	0x3da25a7a	0.07927413
27	0x3d891987	0.06694322
28	0x3d363d90	0.044492304
29	0x3cbb9246	0.022896897
30	0xbc80ea89	-0.015736835
31	0x3d161f1c	0.036650762
32	0xbd65a9a2	-0.056069978
33	0xbc8fe0e6	-0.017563295
34	0xbc4dd245	-0.012562339
35	0xbd710de6	-0.058851145
36	0xbdb9734b	-0.090551935
37	0x3cf83f88	0.030303732
38	0x3d9e512f	0.07730328
39	0x3c74aed5	0.014934261
40	0xbdbb04e1	-0.0913179
41	0xbc08564f	-0.008321359
42	0x3d2c8f27	0.04212871
43	0x3d91fdff	0.07128524
44	0x3d2d89b0	0.042367637
45	0xbcacd307	-0.02109672
46	0x3d98e564	0.07465628
47	0x3d017b02	0.03161145
48	0x3b33cf35	0.0027436737
49	0x3d950bd8	0.0727765
50	0xbd359e41	-0.044340376
51	0x3b9a60fd	0.004711269
52	0xbcbf7bb1	-0.02337441
53	0xbc741486	-0.014897471
54	0x3d623602	0.055227287
55	0x3d2cb2de	0.04216277
56	0xbb1868a8	-0.002325574
57	0x3c9116f3	0.017711138
58	0xbc082e21	-0.008311779
59	0x3d9fe8eb	0.078080975
60	0xbd036366	-0.032077216
61	0xbcf482d6	-0.029847544
62	0x3cde1631	0.027110191
63	0xbd1dd2aa	-0.038530983
64	0x3bd057ea	0.0063581364
65	0x3b14cbe6	0.002270454
66	0x3bf5d5e7	0.007502306
67	0x3d52a914	0.051430777
68	0x3d466888	0.048439533
69	0x3d4e1c62	0.050320037
70	0xbd5092fd	-0.05092143
71	0x3bcdca61	0.006280229
72	0xbcd16c0f	-0.025564222
73	0xbd19d15d	-0.03755318
74	0xbdc498f4	-0.09599486
75	0x3d36679b	0.0445324
76	0xbc00dbd9	-0.007864916
77	0x3d86a4ec	0.06574425
78	0x3d8bcaca	0.06825788
79	0x3d10b055	0.035324413
80	0xbd2a4f1f	-0.041579362
81	0x3daa7e87	0.083249144
82	0x3d44966d	0.04799502
83	0x3d486c04	0.048931137
84	0xbbf3f8c6	-0.0074454276
85	0x3ccbcedf	0.024878917
86	0xbdc194a9	-0.09452183
87	0x3d8e7cd1	0.069574006
88	0x3d3efe22	0.04662908
89	0x3d26d6da	0.040732242
90	0x3cb091f8	0.021553978
91	0xbc2a9710	-0.010411993
92	0x3d6216fb	0.055197697
93	0x3938dc2e	0.00017629631
94	0xbd92cda2	-0.071681276
95	0xba145f79	-0.00056599785
96	0xbce9adf6	-0.028525334
97	0x3c8cd194	0.017189778
98	0xbd4a616c	-0.049409315
99	0xbd6c3d46	-0.057675622
100	0x3da4b010	0.08041394
101	0xbd547df1	-0.05187792
102	0x3d734b80	0.059398174
103	0xbc53d9e0	-0.012930363
104	0xbd8f3700	-0.06992912
105	0xbd3b326e	-0.04570239
106	0x3a761476	0.0009387204
107	0xbbd59522	-0.006518022
108	0xbb6a4aad	-0.0035750077
109	0x3c9e65e4	0.019335695
110	0xbcf8fe37	-0.030394657
111	0x3d9f4add	0.07777951
112	0x3d538b03	0.051646244
113	0x3bc15747	0.005900297
114	0xbcf27651	-0.029597433
115	0xbc8fc9fd	-0.01755237
116	0xbccbb311	-0.024865659
117	0xbd5e6ed7	-0.054304924
118	0xbd87741f	-0.06613945
119	0x3d43cdb7	0.047803607
120	0x3d1e2dd5	0.038617928
121	0x3d94dcb1	0.07268656
122	0xbdb69d1a	-0.089166835
123	0x3c10a5d5	0.0088286
124	0xbd693202	-0.056932457
125	0xbd0870b8	-0.033310622
126	0x3b195f15	0.002340262
127	0x3d0e1170	0.0346846
128	0xbcd1184e	-0.025524285
129	0x3d4169f3	0.04722018
130	0x3cbd4e81	0.023108723
131	0x3cae483c	0.021274678
132	0x3dbad896	0.09123342
133	0xbc72cbbe	-0.014819084
134	0x3c6cdca0	0.014456898
135	0xbcb1ce2c	-0.021704756
136	0xbc5ad90f	-0.013357415
137	0x3c820c2e	0.015874948
138	0xbd4d067d	-0.050055016
139	0x3cf6edcb	0.030142685
140	0x3d288cda	0.04114995
141	0xbcafe718	-0.021472499
142	0xbc9eda8f	-0.019391326
143	0xbc421e77	-0.011848084
144	0x3cab9420	0.020944655
145	0xbd042e41	-0.032270674
146	0xbd017027	-0.031601097
147	0xbd7e352f	-0.06206244
148	0x3dac9a12	0.08427824
149	0x3d2f7aa3	0.042841565
150	0xbd8bdd30	-0.068292975
151	0xbd963771	-0.07334793
152	0xbcf283d4	-0.029603876
153	0x3d53cf8e	0.05171161
154	0x3d773063	0.06034888
155	0x3d211339	0.039324973
156	0x3d08c549	0.03339127
157	0xbd662d1f	-0.056195375
158	0xba686288	-0.000886478
159	0x3d7167b4	0.05893679
160	0xbd278a23	-0.04090322
161	0xbc30ab1d	-0.010782984
162	0x3c9d094b	0.01916947
163	0xbc86d9ed	-0.016461337
164	0xbd60b84a	-0.05486325
165	0xbc4e3dd6	-0.012587985
166	0xbd3f47d1	-0.04669935
167	0xbcd4f95e	-0.025997814
168	0xbca0e949	-0.019642489
169	0xbb5020bb	-0.003175779
170	0x3d2e384f	0.04253417
171	0xbd1cf40a	-0.03831867
172	0xbc91e2c4	-0.017808326
173	0xbd8e0951	-0.06935371
174	0x3d4ab4fb	0.049489003
175	0x3b8fcf8e	0.004388756
176	0xbd973cc7	-0.07384639
177	0x3cbcbd5c	0.023039512
178	0x3cfe28a6	0.031025242
179	0x3d592612	0.053014822
180	0x3d2b0693	0.041754317
181	0xbca9e945	-0.020741114
182	0x3c9df0c4	0.019279845
183	0x3d689438	0.056781977
184	0x3c44eedc	0.012019839
185	0xbba63484	-0.0050721783
186	0x3caa8912	0.020817313
187	0xbcff550d	-0.031168485
188	0x3d41a1f2	0.047273584
189	0x3d18d49e	0.037312143
190	0x3ceb675d	0.02873581
191	0x3d02b7d8	0.03191361
192	0x3c9225df	0.017840324
193	0x3caad42d	0.020853126
194	0xbd2e3ec2	-0.04254032
195	0x38d72cc5	0.00010260338
196	0x3d04679a	0.032325365
197	0xbd613f68	-0.05499211
198	0x3dc40c86	0.09572701
199	0x3d951e73	0.07281198
200	0xbd562bf8	-0.052288026
201	0xbd21b7c4	-0.039481893
202	0x3ce27387	0.027642978
203	0xbd93ff6d	-0.07226453
204	0x3cacb7b3	0.021083688
205	0x3d15cf6b	0.036574762
206	0x3c8ebd8a	0.017424364
207	0x3bf51632	0.0074794525
208	0xbceb59d3	-0.028729355
209	0xbd887a11	-0.06663907
210	0x3c214513	0.009843129
211	0x3d69d22b	0.057085197
212	0xbc306256	-0.010765633
213	0x3b17a2a5	0.0023137715
214	0xbd01e78f	-0.031714972
215	0x3c5e8835	0.013582279
216	0xbd028088	-0.03186086
217	0xbcee0b2f	-0.029058067
218	0x3d2cfe19	0.042234514
219	0x3c0190ee	0.007908089
220	0xbd18e3a7	-0.03732648
221	0xbd67a520	-0.05655396
222	0xbcc79c39	-0.024366485
223	0x39ea3b79	0.0004467627
224	0xbd753d62	-0.059872992
225	0x3ce07410	0.027399093
226	0xbcc4ddaa	-0.024031479
227	0x3d0996b3	0.033590984
228	0x3d27cf1b	0.040968996
229	0xbba3ed12	-0.005002626
230	0xbd96e96e	-0.07368742
231	0xbc889c5d	-0.016676122
232	0xbd9f65f0	-0.07783115
233	0x3c97836c	0.018495284
234	0xbd94a4dc	-0.07258007
235	0xbd47bc1b	-0.048763376
236	0x3c71e927	0.0147650605
237	0xbd2edddf	-0.04269206
238	0x3cb5210c	0.022110485
239	0x3d9d6240	0.07684755
240	0xbc7a7b61	-0.015288205
241	0xbd74c771	-0.059760515
242	0xbd7b663d	-0.0613768
243	0x3cde982a	0.027172167
244	0x3db1c6c2	0.08680488
245	0x3c656e65	0.014003371
246	0xbd81d9a7	-0.06340342
247	0xbd5190de	-0.051163547
248	0xbcfc5bb8	-0.030805454
249	0xbd99c9e6	-0.07509212
250	0x3c5af461	0.0133639285
251	0x3d6fc36e	0.058535986
252	0x3d90eea2	0.070767656
253	0xbda5f603	-0.08103564
254	0x3d165683	0.036703598
255	0xbab030de	-0.0013442298

bias f4 [3]
0	0x3d462613	0.048376154
1	0x3da6de8d	0.08147917
2	0xbdb46965	-0.08809165

weight f4 [128, 16]
0	0xc0031f1c	-2.0487738
1	0x3d06c2ea	0.03290073
2	0x3ea9950a	0.3312152
3	0xbfeb108e	-1.8364427
4	0xbd15fd53	-0.036618542
5	0xbffcb323	-1.9742168
6	0xbcb28e5d	-0.0217964
7	0xbe115cbd	-0.14195533
8	0xbdebe7ac	-0.11518797
9	0x3e0e40ea	0.1389195
10	0x3e454d56	0.19267783
11	0xbda9f473	-0.08298578
12	0x3e09077c	0.13381761
13	0xbeca7931	-0.39545587
14	0xbef6d194	-0.4820677
15	0xbcd06520	-0.025438845
16	0x3e577836	0.2104195
17	0x3c3e44e0	0.011613101
18	0x3e3f50e6	0.18683204
19	0x3e18fbba	0.14939776
20	0x3e201629	0.15633453
21	0x3db27d84	0.087153465
22	0xbe77868a	-0.24172416
23	0xbe43c850	-0.19119382
24	0xbe52ca09	-0.20584883
25	0x3d6e6cb9	0.058209155
26	0x3d14434a	0.036196984
27	0x3d3d5d8d	0.046231795
28	0xbe7968fb	-0.24356453
29	0x3d5f7a91	0.054560248
30	0xbe1cad85	-0.15300567
31	0xbe82b847	-0.25531217
32	0x3d8728e0	0.06599593
33	0x3f30a284	0.6899798
34	0xbd40af2d	-0.04704206
35	0x3aa6c6e6	0.0012724071
36	0xbf114f51	-0.5676165
37	0xbe6953e7	-0.22785912
38	0xbe6c3a3f	-0.23069094
39	0x3e2a0205	0.16602333
40	0x3dccea02	0.10005571
41	0xbeaff8e6	-0.34369582
42	0xbd705f5a	-0.058684684
43	0x39e79106	0.00044167804
44	0xbee49629	-0.44645813
45	0xbec0bd2f	-0.37644336
46	0xbd6e5112	-0.058182783
47	0xbd7c7070	-0.061630666
48	0xbfca541d	-1.5806919
49	0xbf79ff60	-0.97655296
50	0xbf50443c	-0.8135412
51	0xc0123d4f	-2.284992
52	0x3f9a603b	1.2060617
53	0xbfb07914	-1.378695
54	0xbe7a03e3	-0.24415545
55	0x3b7d09ff	0.0038610694
56	0x3ee6d2d2	0.45082718
57	0x3c8c4404	0.017122276
58	0x3d1c336c	0.038134977
59	0x3ed6540c	0.41860998
60	0x3df2b3a1	0.11850668
61	0x3e01ac0c	0.12663287
62	0x3e526653	0.20546846
63	0x3e0d385f	0.13791035
64	0x3f28ee84	0.65988946
65	0xbf0dcc48	-0.55389833
66	0x3df0e83b	0.117630444
67	0xbd843aba	-0.06456514
68	0x3ecda06c	0.40161455
69	0x3f595970	0.84902096
70	0xbe8ea7f8	-0.27862525
71	0x3e98d5b4	0.29850543
72	0x3eb89ddb	0.36057934
73	0xbe925b15	-0.28585115
74	0x3e940944	0.2891332
75	0x3e7b0034	0.24511796
76	0xbeb03fd4	-0.34423697
77	0x3e7543ed	0.23951693
78	0x3e2388ba	0.15970126
79	0xbd8d2ac8	-0.068929255
80	0x4020f8e6	2.5151916
81	0xbf96fe0a	-1.1796277
82	0xbed56f45	-0.41686454
83	0x4027d213	2.622197
84	0x3fbceefa	1.476043
85	0x40192b4c	2.3932676
86	0x3ea5fa8f	0.32417724
87	0x3e2f96cd	0.1714737
88	0x3c93760d	0.018000627
89	0xbdd1602c	-0.102234215
90	0xbd8476e7	-0.06467991
91	0x3ec3b491	0.382237
92	0xbdf31b24	-0.11870411
93	0x3cb6b7fb	0.022304526
94	0x3eb53ff4	0.35400355
95	0x3cecd084	0.028908022
96	0xbf335bad	-0.7006176
97	0x4085075e	4.1571493
98	0x3e7ab7df	0.24484204
99	0x4023d5af	2.5599172
100	0xc0869eaf	-4.2068706
101	0xbf591e6d	-0.8481205
102	0x3f00e8a5	0.5035499
103	0x3e796efb	0.24358742
104	0x3e304ab6	0.17216
105	0x3cbc483b	0.02298366
106	0x3e411497	0.1885551
107	0x3e4c4898	0.19949567
108	0xbd366088	-0.044525653
109	0x3e16ced9	0.14727344
110	0xbe452964	-0.1925407
111	0x3d9783ab	0.073981605
112	0x3f54e545	0.8316234
113	0x3f2f035f	0.6836452
114	0xbe2b59ca	-0.1673347
115	0x3f137d8f	0.5761346
116	0xbefa5fe4	-0.48901284
117	0x3efdce38	0.49571395
118	0xbcc666fb	-0.024219027
119	0xbdebc3ca	-0.11511953
120	0xbda21def	-0.07915866
121	0xbd025f18	-0.03182897
122	0xbe7c4488	-0.24635518
123	0x3e79078f	0.2431929
124	0xbeeefe8a	-0.46678573
125	0xbe4db684	-0.20089155
126	0xbe370ecf	-0.17876743
127	0xbd477929	-0.04869953
128	0x3fbb9cf4	1.4657273
129	0x3fc1db13	1.5144981
130	0xbde5dbe2	-0.1122358
131	0xc01c3515	-2.4407399
132	0xbfbc3474	-1.4703507
133	0x3fb89839	1.4421455
134	0xbec85030	-0.39123678
135	0x3e9d5986	0.30732363
136	0x3f0987f0	0.5372305
137	0xbd17fe9c	-0.03710805
138	0x3d70786b	0.05870859
139	0x3e89d0e3	0.2691718
140	0xbd62523b	-0.055254202
141	0x3e4026f7	0.18764864
142	0x3e5fa633	0.21840744
143	0xbd71a594	-0.0589958
144	0x3d8c5bfa	0.06853481
145	0x3f62f819	0.88659817
146	0xbdf036f6	-0.11729233
147	0xbf89d5f2	-1.0768416
148	0xbf25cde4	-0.6476729
149	0x3eb2be92	0.3491102
150	0x3e69880a	0.22805801
151	0x3d888005	0.06665043
152	0x3df49c2f	0.11943852
153	0x3edea312	0.43483788
154	0xbe8203ea	-0.2539361
155	0xbe2e56f4	-0.17025357
156	0x3eba0a31	0.363359
157	0xbe53e4d1	-0.20692755
158	0x3e9f21c4	0.3108045
159	0xbcb48595	-0.022036353
160	0xbf868a1e	-1.05109
161	0x3f695d95	0.9115842
162	0xbdf6c81d	-0.12049887
163	0xbff8a163	-1.9424251
164	0xbf6ba361	-0.9204617
165	0xbf94d1fa	-1.162658
166	0xbe85ccf6	-0.26132935
167	0xbe0a4903	-0.13504414
168	0xbbd2b61c	-0.0064304005
169	0x3e1f9d37	0.15587316
170	0x3bf3c0c2	0.00743875
171	0xbe6af6bd	-0.22945686
172	0x3e58789e	0.21139762
173	0x3f198058	0.5996146
174	0x3da03aa7	0.07823687
175	0x3dda8902	0.106706634
176	0x3fb042f2	1.377043
177	0x3f0bfada	0.54679644
178	0xbf1a4b53	-0.60271186
179	0xbfde26db	-1.7355608
180	0xbf00aa2f	-0.5025968
181	0x3fbd58f4	1.4792771
182	0xbe78a48c	-0.2428152
183	0x3ea44707	0.3208544
184	0x3e333b8d	0.17503186
185	0xbe3f3b5e	-0.1867499
186	0x3eb0ceca	0.34532768
187	0x3e475d68	0.19469225
188	0xbcb33018	-0.021873519
189	0xbe0548a6	-0.13015994
190	0xbd9f938f	-0.077918164
191	0x3c88472d	0.016635502
192	0xbfc7b334	-1.5601563
193	0x3fa13d6d	1.2596871
194	0x3e7fc135	0.24976046
195	0x3f03ecd1	0.5153323
196	0xbf6940ae	-0.9111432
197	0xbfc1cc52	-1.5140479
198	0x3e881397	0.26577446
199	0xbe72a88c	-0.23697108
200	0x3cb7db9c	0.022443585
201	0x3def4183	0.11682417
202	0xbe5b1540	-0.21394825
203	0xbd61040f	-0.05493551
204	0x3d3b549a	0.04573498
205	0x3ef7617e	0.48316568
206	0x3e3b52b4	0.18293267
207	0xbd8ba40c	-0.06818399
208	0xbec1f9a7	-0.37885782
209	0xbf3174ba	-0.69318736
210	0xbdfe7e23	-0.124264024
211	0x3fe3619d	1.7764164
212	0x3f19f046	0.60132253
213	0xbf3de79c	-0.7418153
214	0x3e169012	0.14703396
215	0xbda1f30e	-0.07907687
216	0x3f0cccdf	0.5500011
217	0xbda6bfbd	-0.0814204
218	0xbe09f2b3	-0.13471489
219	0x3e6fb898	0.2341026
220	0x3e841be0	0.25802517
221	0xbd330642	-0.04370714
222	0x3da85049	0.08218438
223	0xb98c8e04	-0.0002680869
224	0x3fbb8566	1.4650085
225	0xbf0f1764	-0.55895066
226	0x3f520b82	0.8204881
227	0x3ec3b7db	0.38226208
228	0x3eb0078a	0.34380752
229	0x3fa9dfc5	1.3271414
230	0xbe579745	-0.21053798
231	0x3ecaa85e	0.3958158
232	0xbf2ca98c	-0.6744621
233	0x3de3a689	0.111157484
234	0x3d1e918b	0.03871302
235	0xbf01d19d	-0.5071047
236	0xbbb9e4dd	-0.0056730346
237	0x3e655c6a	0.22398534
238	0xbe90d986	-0.28290957
239	0x3e3f5a37	0.18686758
240	0x3da7d059	0.08194036
241	0xbe10f705	-0.1415673
242	0x3da1b5a3	0.078959726
243	0xbe1653b5	-0.14680369
244	0x3e3dd5cc	0.18538588
245	0xbdf5ae72	-0.119961634
246	0x3d6c33de	0.057666652
247	0x3d756910	0.05991465
248	0xbd17fae5	-0.037104506
249	0xbe2afe26	-0.16698512
250	0x3e17a782	0.14809993
251	0x3da2c689	0.07948024
252	0xbe27619d	-0.1634583
253	0xbda51e48	-0.08062416
254	0x3d564b75	0.052318055
255	0xbe843d31	-0.25827935

bias f4 [128]
0	0xbe0398ae	-0.12851211
1	0xbcbb0625	-0.022830078
2	0xbe0acbe7	-0.13554345
3	0x3d500952	0.05079014
4	0xbeda872b	-0.4268125
5	0xbe1c60ce	-0.15271303
6	0x3e15c0c3	0.14624314
7	0xbe2ed5a8	-0.17073691
8	0x3e4017e2	0.1875911
9	0x3edb40b6	0.42822808
10	0x3e190efe	0.14947125
11	0xbca599e0	-0.020214975
12	0x3da73fc5	0.0816646
13	0xbded87a1	-0.11598135
14	0x3d8b5095	0.06802479
15	0xbe51014c	-0.20410651
16	0xbd88c512	-0.06678213
17	0xbe1583dd	-0.14601083
18	0x3e7499c4	0.23886782
19	0x3d914045	0.070923366
20	0xbea3ebe6	-0.32015914
21	0x3d1e5e79	0.038664315
22	0x3de36255	0.1110274
23	0xbe5aef17	-0.21380268
24	0xbe1dfd42	-0.15428641
25	0x3e2ff4aa	0.17183176
26	0x3e763126	0.24042186
27	0x3e45179b	0.19247286
28	0xbda7244d	-0.08161221
29	0x3e2036f7	0.15645967
30	0xbd601598	-0.054708093
31	0xbe01f16b	-0.1268975
32	0xbd152624	-0.036413327
33	0xbbc6c68d	-0.0060661496
34	0x3e7edc1d	0.24888654
35	0xbdd141cc	-0.10217628
36	0xbdc64ac7	-0.096822314
37	0x3ddf9d05	0.10918621
38	0x3d6c6c35	0.05772038
39	0xbe08d503	-0.13362508
40	0x3e8fd6dc	0.28093612
41	0xbdddf15d	-0.10837052
42	0x3eb5f8cd	0.35541382
43	0x3ec02d9b	0.37534794
44	0xbe86f18a	-0.26356155
45	0x3e858d85	0.26084533
46	0xbe32468f	-0.17409728
47	0xbd893dbb	-0.06701227
48	0xbe6f2503	-0.23353963
49	0xbdfe040f	-0.12403118
50	0xbe58be15	-0.2116626
51	0xbe355f9a	-0.1771225
52	0xbc955c46	-0.018232476
53	0x3da18b9d	0.07887957
54	0xbdf179e7	-0.11790829
55	0xbe4c8264	-0.19971615
56	0xbe06abd8	-0.1315149
57	0x3e0a017d	0.1347713
58	0x3ec001df	0.37501428
59	0x3e5d960c	0.2163927
60	0x3e263a4a	0.16233173
61	0xbeb21271	-0.34779695
62	0xbedb54e2	-0.42838198
63	0x3e6e3c3d	0.23265167
64	0xb7984ac4	-1.8154627e-05
65	0xbc07d231	-0.00828986
66	0xbb52272b	-0.0032066803
67	0xbe939d67	-0.28831026
68	0x3e02548a	0.12727562
69	0xbc79e4f5	-0.0152523415
70	0xbeb072eb	-0.34462675
71	0xbe5d564f	-0.21614955
72	0x3dc8cfe5	0.09805278
73	0xbd06e4ec	-0.03293316
74	0xbe643b24	-0.22288185
75	0xbe8ef0ed	-0.27918187
76	0xbd18c25c	-0.03729473
77	0x3e3049b8	0.17215621
78	0x3e1d2134	0.15344697
79	0xbe7ab71f	-0.24483918
80	0x3e4981a5	0.19678362
81	0x3ed27988	0.41108346
82	0xbdd418ee	-0.103563175
83	0xbe342fda	-0.17596379
84	0xbcdbaa59	-0.026814627
85	0x3ca0404e	0.019561913
86	0x3e4d8a44	0.20072275
87	0xbe70ab59	-0.23502864
88	0xbcffb629	-0.03121479
89	0x3ebd7902	0.37006384
90	0x3eb29a4f	0.34883353
91	0x3e530ad5	0.20609601
92	0x3e1735b7	0.14766584
93	0xbd2cb655	-0.042166073
94	0x3dc158b2	0.094407454
95	0xbdc76b63	-0.09737279
96	0x3d20766d	0.03917544
97	0xbdf42825	-0.119217195
98	0xbe78af90	-0.24285722
99	0xbe9307f2	-0.28717
100	0x3e9b39cf	0.30317542
101	0x3eb0a3a8	0.3449986
102	0x3e9ef10a	0.31043273
103	0x3de408d5	0.11134497
104	0xbb8c3283	-0.0042784824
105	0x3d8781ec	0.066165775
106	0xbe504fe4	-0.20342976
107	0x3e082c79	0.13298215
108	0xbdb4b089	-0.08822734
109	0xbe81063d	-0.25200072
110	0xbe111191	-0.14166857
111	0xbd23a797	-0.039954748
112	0xbe990f44	-0.2989446
113	0x3e8bf526	0.2733547
114	0x3cb7ea73	0.022450661
115	0xbd420367	-0.047366526
116	0xbe418e63	-0.18901972
117	0x3e95dbb4	0.29269183
118	0x3dc0cdb3	0.09414234
119	0x3d8f7d91	0.07006372
120	0xbe8c198e	-0.27363247
121	0xbeb2e3ec	-0.34939516
122	0x3e21275e	0.15737674
123	0x3d66c190	0.05633694
124	0xbe59afce	-0.2125847
125	0x3d737527	0.059437897
126	0x3d81d2e8	0.06339055
127	0xbeca34c0	-0.3949337

weight f4 [128, 128]
0	0x3d03a387	0.032138374
1	0xbe36986e	-0.17831585
2	0x3e4ac0a8	0.19800055
3	0xbd0c035c	-0.03418289
4	0xbdd9b4be	-0.10630177
5	0x3d5b8ca8	0.053600937
6	0x3e477a00	0.19480133
7	0x3dd9b488	0.10630137
8	0x3de3a90a	0.11116226
9	0x3c3d2a34	0.011545707
10	0xbe4c4935	-0.19949801
11	0x3c771402	0.015080454
12	0xbdf9faa5	-0.1220601
13	0x3d4023da	0.04690919
14	0xbd76e549	-0.060277257
15	0xbe2ae8fc	-0.16690439
16	0xbb39262d	-0.0028251514
17	0xbdd0b4b5	-0.10190717
18	0xbdb08c5f	-0.08620524
19	0xbe6b7ab1	-0.22996022
20	0x3d7368ab	0.05942599
21	0xbcfead0e	-0.031088378
22	0xbe20f8b4	-0.15719873
23	0xbd927fd1	-0.07153285
24	0xbd2703ec	-0.040775225
25	0x3e265dc4	0.16246706
26	0x3d3550b7	0.04426643
27	0xbe42718e	-0.1898863
28	0x3df4e664	0.11958006
29	0x3db611ec	0.08890137
30	0x3d8e27dc	0.06941196
31	0x3e0f83e6	0.14015159
32	0xbdfe0faa	-0.124053314
33	0xbdc2ddf6	-0.09514992
34	0xbdaca0fa	-0.08429141
35	0xbdf3ae8b	-0.11898526
36	0xbdec41d9	-0.11535997
37	0xbd3b9fc0	-0.045806646
38	0x3e88d900	0.26728058
39	0xbcc98230	-0.024598211
40	0xbdb16fcb	-0.08663901
41	0x3ccb0849	0.024784224
42	0xbe4ea551	-0.2018025
43	0xbe1ecda2	-0.1550813
44	0x3e1d0b21	0.15336277
45	0xbd825d54	-0.06365457
46	0xbc6fb5ae	-0.014630718
47	0xbb7e1c37	-0.0038774142
48	0xbdcb771b	-0.09934827
49	0x3e1600d1	0.14648749
50	0x3d1d1f6f	0.038360056
51	0xbd85072d	-0.06495509
52	0x3e23c134	0.1599167
53	0xbe41001b	-0.18847696
54	0x3deed469	0.11661608
55	0xbeafc64e	-0.34330982
56	0xbd3dc4aa	-0.04633013
57	0x3e557df6	0.20848832
58	0xbe071943	-0.1319323
59	0xbdf6517d	-0.120272614
60	0x3d617e14	0.055051878
61	0x3e9da05b	0.30786404
62	0x3cadba7e	0.02120709
63	0xbe52e65b	-0.20595686
64	0xbdb0a84a	-0.086258486
65	0x3e0695b7	0.13143049
66	0xbd77e79a	-0.060523607
67	0x3d4ff3d6	0.05076965
68	0x3d5c5855	0.053795177
69	0xbdfe64f4	-0.12421599
70	0xbd8541ff	-0.065067284
71	0x3e80b32b	0.25136694
72	0x3df9d36b	0.12198528
73	0x3eaf5c50	0.34250116
74	0xbde715be	-0.11283444
75	0x3d72daac	0.059290573
76	0xbe18fac9	-0.14939417
77	0x3c87bfcf	0.016570954
78	0xbd74e8fb	-0.0597925
79	0x3c563564	0.013074253
80	0xbe252970	-0.16129088
81	0xbdddde83	-0.10833456
82	0xbd7e9f40	-0.06216359
83	0xbd0be45a	-0.03415332
84	0xbe21b148	-0.15790284
85	0x3db500a0	0.0883801
86	0xbcd70757	-0.026248617
87	0x3e459191	0.1929381
88	0xbd3f77b6	-0.046745025
89	0xbd9b0c3e	-0.075706944
90	0xbdf5e2bb	-0.12006136
91	0x3cda788b	0.026668807
92	0xbe169b36	-0.14707646
93	0xbd5dc1f3	-0.054140043
94	0x3db90e30	0.09035909
95	0x3c92fd7b	0.017943135
96	0x3e0676bc	0.13131231
97	0x3d15ded6	0.036589466
98	0x3e67556e	0.22591183
99	0xbe3077d1	-0.17233206
100	0xbb20db00	-0.0024544597
101	0x3d8655d3	0.065593384
102	0x3bb408ec	0.0054942276
103	0xbdcc485d	-0.0997474
104	0xbec128fe	-0.37726587
105	0xbdc82943	-0.09773495
106	0x3c369990	0.011145011
107	0xbd11fe40	-0.035642862
108	0x3e703563	0.23457865
109	0xbe063776	-0.13107094
110	0x3cb90d6b	0.022589406
111	0x3e309943	0.17245965
112	0x3e86189e	0.26190656
113	0x3e16f100	0.14740372
114	0x3d394c96	0.045239054
115	0x3e469084	0.19391066
116	0x3e5c45a6	0.21510944
117	0xbd1181df	-0.035524245
118	0xbdf56187	-0.119814925
119	0xbd9dfd04	-0.077142745
120	0x3e61e390	0.22059464
121	0xbc85c569	-0.016329484
122	0x3b632811	0.0034661333
123	0xbcad3a09	-0.021145837
124	0xbdd98607	-0.10621267
125	0x3e5c900c	0.21539325
126	0xbc94a454	-0.018144764
127	0x3dd717da	0.10502596
128	0xbd900c8a	-0.07033642
129	0xbd4161d0	-0.047212422
130	0x3dd12ec9	0.10214002
131	0xbdc47368	-0.095923245
132	0x3c35286f	0.011057003
133	0x3e02949b	0.12752001
134	0x3b858342	0.004074485
135	0xbd7e929f	-0.062151548
136	0xbe1a8c39	-0.15092553
137	0x3cc33bbd	0.023832196
138	0xbd3487a8	-0.044074684
139	0xbe51564a	-0.20443073
140	0xbd6b327f	-0.057421204
141	0x3d8eeb91	0.069785245
142	0xbbe39b15	-0.0069459775
143	0xbe30a1b9	-0.17249192
144	0x3e0f6aff	0.1400566
145	0xbdcb0ed7	-0.0991494
146	0x3c9c8b0d	0.019109273
147	0xbd588628	-0.052862316
148	0x3dab1a32	0.08354606
149	0xbca44911	-0.020054372
150	0xbd4cd879	-0.050011132
151	0xbd4644dd	-0.048405517
152	0xbd408391	-0.04700047
153	0x3e2837d3	0.16427545
154	0xbd10890c	-0.035286948
155	0xbe2b5aa8	-0.16733801
156	0xbdc01008	-0.09378058
157	0x3dbba238	0.091618
158	0x3d94d0dc	0.07266399
159	0x3d7d7068	0.061874777
160	0xbdc0ea26	-0.0941966
161	0xbd247a06	-0.040155433
162	0xbdd66bf1	-0.10469807
163	0xbe4d330f	-0.20039009
164	0xbdcf678f	-0.10127174
165	0x3db234ff	0.087015145
166	0x3d056a6b	0.03257219
167	0xbe2e65d4	-0.17031032
168	0xbd9300e9	-0.07177908
169	0x3e363538	0.17793739
170	0xbe9b4fa8	-0.3033421
171	0xbd9546c6	-0.072888896
172	0x3d9eefd5	0.07760588
173	0x3d02fac6	0.031977437
174	0xbdfdceca	-0.123929575
175	0xbdc988f0	-0.09840572
176	0xbe13818a	-0.14404884
177	0xbd04376a	-0.03227941
178	0x3d2569b3	0.040384006
179	0xbd23c98d	-0.039987136
180	0x3e3e9aa2	0.18613675
181	0xbd4c8741	-0.049933676
182	0x3d2336e0	0.039847255
183	0xbe99b619	-0.30021742
184	0xbe2a0f59	-0.16607417
185	0xbc4a0fd9	-0.01233288
186	0x3d91cb89	0.071188994
187	0xbe028433	-0.12745742
188	0x3d416875	0.04721876
189	0x3d49734a	0.049182214
190	0xbd32ada0	-0.043622613
191	0xbdfcfecf	-0.123532884
192	0x3dbd143b	0.09232374
193	0x3e684f4f	0.22686504
194	0xbe4ae4f9	-0.19813909
195	0xbd48a5b7	-0.048986163
196	0xbaffc36d	-0.0019513197
197	0xbdfd9311	-0.12381566
198	0xbd60898c	-0.054818675
199	0xbdc517c2	-0.09623672
200	0x3dbd2816	0.092361614
201	0x3d36c011	0.044616763
202	0xbdc67e9a	-0.09692116
203	0xbc9fa3e7	-0.019487334
204	0xbe390543	-0.18068413
205	0x3e2c9b8e	0.16856214
206	0xbdbfa689	-0.09357936
207	0xbd42de34	-0.04757519
208	0xbddfc492	-0.10926165
209	0x3d8b8f39	0.06814427
210	0x3d107b98	0.03527412
211	0x3dafa436	0.085762426
212	0xbdd658e8	-0.10466176
213	0x3e20dddc	0.15709633
214	0xbe2a6b9c	-0.16642612
215	0x3da66791	0.081252225
216	0xbe341fe9	-0.17590298
217	0x3df3ed48	0.11910492
218	0xbce43348	-0.027856484
219	0x3d72e465	0.059299845
220	0xbe420038	-0.18945396
221	0xbd27f0d6	-0.041001163
222	0x3dd8a2be	0.105779156
223	0x3c232cfb	0.009959455
224	0x3dcb98ad	0.0994123
225	0x3e0e20d3	0.13879709
226	0xbdd07389	-0.101782866
227	0x399a5bd1	0.00029441577
228	0xbd3a3bf4	-0.045467332
229	0x3e083c06	0.13304147
230	0x3aca77fc	0.0015447135
231	0x397434d0	0.00023289328
232	0xbe1a039d	-0.15040441
233	0xbd234c2a	-0.039867558
234	0x3e121a38	0.14267814
235	0xbb895c6d	-0.004191926
236	0x3d8f0e0f	0.06985103
237	0xbd302e6d	-0.043013025
238	0xbde189d9	-0.110126205
239	0x3e2c751c	0.16841549
240	0x3c9b6c33	0.018972492
241	0xbdce2703	-0.10066035
242	0x3dd0e4b7	0.10199874
243	0xbd4bc686	-0.049749874
244	0xbd8084f7	-0.06275361
245	0x3bd53c96	0.0065074665
246	0xbe0b2196	-0.13587031
247	0xbde18fe1	-0.11013771
248	0x3e0938e2	0.13400605
249	0xbc0b4a46	-0.008501595
250	0xbe2de597	-0.16982113
251	0xbe35462f	-0.17702554
252	0xbe1ee7e5	-0.15518148
253	0x3e051183	0.12994961
254	0x3d86a5e7	0.06574612
255	0xbd82db50	-0.06389487

bias f4 [128]
0	0x3d828b48	0.06374222
1	0x3e291402	0.16511539
2	0xbd7ca977	-0.06168505
3	0x3b9a2b96	0.004704903
4	0x3e408a14	0.18802673
5	0x3cc5ccb6	0.024145465
6	0x3d13b609	0.036062274
7	0xbc428cc1	-0.011874379
8	0xbb3b68be	-0.0028596367
9	0x3dd5c66e	0.10438238
10	0xbde48dfe	-0.11159895
11	0x3dc590e7	0.096467786
12	0x3e01bc93	0.12669592
13	0xbdc9feef	-0.09863078
14	0x3b8352f4	0.0040076915
15	0xbdab5cf9	-0.083673425
16	0x3d5ba111	0.0536204
17	0x3cd0b2cd	0.025475884
18	0x3e16c4bb	0.14723484
19	0x3e0a6ddc	0.1351847
20	0xbdd7d48e	-0.105385885
21	0x3e342cda	0.17595235
22	0x3dada714	0.08479133
23	0xbc88bd4c	-0.016691826
24	0xbdd995a8	-0.10624248
25	0xbc913cbc	-0.017729156
26	0xbd68be65	-0.0568222
27	0xbd83fe3d	-0.064449765
28	0xbd936fab	-0.07199033
29	0xbd8514d8	-0.06498116
30	0x3e0b9608	0.13631451
31	0x3da52471	0.08063591
32	0x3d2f30fc	0.042771325
33	0x3c77066d	0.015077216
34	0x3d5f5f29	0.05453411
35	0xbd5c7369	-0.053821
36	0xbe45f313	-0.19331007
37	0xbdfcfe66	-0.1235321
38	0x3da4a621	0.08039499
39	0x3e0487b1	0.12942387
40	0x3db0ce58	0.08633107
41	0x3e147d6c	0.1450097
42	0xbc912624	-0.017718382
43	0x3d17f176	0.03709551
44	0xbd859d88	-0.06524187
45	0xbdda9f1d	-0.1067488
46	0x3c932e8e	0.017966535
47	0xbc56aacb	-0.013102244
48	0xbdbdec7c	-0.092736214
49	0x3ccbbf64	0.024871536
50	0x3dca424d	0.09875927
51	0xbc88893a	-0.016666997
52	0xbd9377b4	-0.07200566
53	0xbd903700	-0.070417404
54	0x3ce490fb	0.027901163
55	0xbd92a34e	-0.07160054
56	0xbb756d32	-0.0037449119
57	0xbd00fbaf	-0.031490024
58	0x3e28da23	0.16489463
59	0xbde87d13	-0.11351981
60	0x3da785cb	0.08179816
61	0x3df775a9	0.12082989
62	0xbd8e176d	-0.06938062
63	0x3dddc491	0.10828508
64	0xbd6731ce	-0.05644398
65	0xbd07ecc6	-0.03318479
66	0x3e033d07	0.12816249
67	0xbc91819f	-0.017762003
68	0xbd24a035	-0.040191848
69	0x3e096a02	0.13419345
70	0xbd09b4eb	-0.033619802
71	0x3d958755	0.07301203
72	0x3e40379a	0.1877121
73	0x3e534f3e	0.20635697
74	0xbd35cec5	-0.044386644
75	0x3da385fd	0.079845406
76	0xbde3d451	-0.111244805
77	0xbc86c44e	-0.016451027
78	0xbcf8f4b8	-0.030390128
79	0xbd0f3576	-0.034963094
80	0x3d88608e	0.06659041
81	0x3c6661ef	0.014061435
82	0x3e366530	0.17812037
83	0xbe15f049	-0.14642443
84	0xbd013c7d	-0.031551827
85	0xbd2ac904	-0.04169561
86	0x3c4cbefb	0.012496705
87	0x3d092677	0.03348395
88	0x3e65979c	0.22421116
89	0xbd5d4abf	-0.05402636
90	0x3db0beae	0.08630119
91	0x3df149be	0.11781643
92	0xbdc2b5ee	-0.095073566
93	0x3d94c0fd	0.07263372
94	0x3dd5ec48	0.10445458
95	0xbd7c4c3b	-0.061596137
96	0xbd6a2efd	-0.057173718
97	0xbd05816d	-0.032594133
98	0xbc913d63	-0.017729467
99	0x3dbeac33	0.09310188
100	0xbd77fab1	-0.060541812
101	0x3d280780	0.041022778
102	0xbe0f2f01	-0.13982774
103	0x3e62016a	0.22070852
104	0x3ddc40a5	0.107545175
105	0xbe3a0702	-0.18166736
106	0x3da9c9e5	0.082904615
107	0x3d2ad01f	0.041702386
108	0xbc1328fb	-0.0089819385
109	0x3e08aed5	0.13347943
110	0xbcb19442	-0.02167714
111	0x3d155205	0.036455173
112	0x3c94df99	0.018173026
113	0x3db93134	0.09042588
114	0xbd29123a	-0.041277148
115	0xbe099f7d	-0.13439746
116	0xbca0ecfd	-0.019644255
117	0xbc66307f	-0.014049648
118	0x3e3bddb5	0.18346293
119	0xbe3849a8	-0.17996848
120	0x3d58b321	0.052905206
121	0x3daefef9	0.08544726
122	0xbe014821	-0.12625171
123	0x3dd804c8	0.10547787
124	0x3dc135ac	0.09434065
125	0x3e0020c4	0.12512499
126	0x3d4e2cd1	0.05033571
127	0xbcbbd736	-0.022929769
