output/2021-12-15_ddpg/2021-12-15_16-15-19-ddpg_s0/pyt_save/model.pt (torch_old, 48415 bytes, 11 tensors)

weight f4 [64, 16]
000000 00 54 f5 ba 5e 54 09 3e 16 b3 52 be 80 66 3c be
       -0.001871705 0.1341109 -0.20576128 -0.18398476
000010 f4 32 c5 bd ec 4b 89 3d 40 4f a2 bb ce fa 4a 3e
       -0.09628859 0.06703934 -0.004953295 0.19822237
000020 70 bf b5 bc 4c 7b 87 3d ac bb 9a bd 70 48 49 bd
       -0.022186011 0.06615314 -0.07555327 -0.049141347
000030 b8 91 74 be 52 8b 29 be e8 0e d3 bd 00 bb 17 3c
       -0.23883712 -0.16557053 -0.103055775 0.009260893
000040 4d f4 00 be d4 47 b0 bd a1 2e 3b be 3f cd 34 3d
       -0.12593193 -0.0860745 -0.18279506 0.04414105
000050 42 30 82 3e 14 d4 f1 3c 0b 30 ff 3c 62 33 a5 3e
       0.25427443 0.029520072 0.031150838 0.32265764
000060 a4 0b 5a 3d 68 bf 99 3d 89 2c c8 3e 59 9b af be
       0.053233758 0.07507211 0.39096478 -0.34298208
000070 5e 8d de bd 84 5c 73 3c 8e 46 16 3c f1 0a 86 3e
       -0.108668074 0.0148536 0.009172095 0.26180223
000080 4e 28 88 bd ea bb 8d bd 19 4a 2e be f4 95 99 be
       -0.066483125 -0.069206074 -0.17020454 -0.29997218
000090 e5 7e 39 be da 9e 94 3e dc 20 0a 3d 7b f7 2c 3e
       -0.18114813 0.29027444 0.033722743 0.16891281
0000a0 8a 93 ab 3d bb dc 41 be 69 04 f8 3d 69 af f2 bd
       0.0837775 -0.18931858 0.12110216 -0.11849863
0000b0 36 ac 84 be b6 bc 32 be ef b7 fd 3d 80 83 7f 3d
       -0.25912637 -0.174548 0.12388598 0.062381268
0000c0 91 27 10 be 97 a7 d7 bc 44 de 20 3e 31 64 4b 3e
       -0.14077593 -0.02632503 0.15709788 0.19862439
0000d0 bf d2 d2 3d 27 bc 1f 3d 01 92 11 3d 7d db 08 be
       0.10294103 0.038997795 0.03553963 -0.13364978
0000e0 28 14 0e 3e 8e 0e a6 be 5c f7 bd 3c 84 fb 47 bd
       0.13874876 -0.3243298 0.02318924 -0.04882385
0000f0 d6 18 fb bc 50 4e bf b9 82 cd 57 be 7d 17 9a bd
       -0.030651491 -0.00036488706 -0.21074489 -0.07524011
000100 6e 89 0c 3e 20 3f 01 bd 40 64 1c 3c 00 44 6d 3d
       0.137243 -0.03155434 0.009545386 0.057926178
000110 00 d1 1e 3e 48 cf 75 3e 96 47 45 be ec a1 bb bd
       0.15509415 0.24004853 -0.19265589 -0.091617435
000120 98 38 c9 3d d0 1b 54 3e e8 c5 5e 3e 22 e2 61 3e
       0.098252475 0.20713735 0.21755183 0.22058919
000130 78 ca 4b 3d f8 9c 5e be 90 66 bc 3c ac 27 20 be
       0.049753636 -0.21739566 0.022998124 -0.15640134
000140 8c 94 6e be 3e 74 63 3e f0 a6 42 3e fe 5d 7f be
       -0.23298854 0.22212312 0.19008994 -0.24938199
000150 08 aa 3f 3d c8 80 2c bd b8 82 28 bd 1c 5f ea bd
       0.046793014 -0.042115003 -0.041140288 -0.11443922
000160 8c e4 c4 3d 34 a1 17 be dc b1 bb 3d 16 76 01 3e
       0.09613904 -0.14807588 0.09164783 0.12642702
000170 5c 43 37 3e 48 71 bf 3d 4a 5f 7d be 00 11 26 be
       0.1789679 0.093477786 -0.24743381 -0.16217422
000180 25 50 cb 3e 35 09 76 3e 38 03 37 be 6a e3 ae be
       0.39709583 0.2402695 -0.17872322 -0.34157878
000190 48 dd 3e 3d 74 b8 d2 3e e7 74 5c be c5 84 36 be
       0.04659775 0.41156352 -0.2152897 -0.17824085
0001a0 ac 9b 68 be 02 ec 85 bd 7c e1 c1 be 33 f4 e9 bd
       -0.22715634 -0.065391555 -0.37867343 -0.114235304
0001b0 b6 67 93 bd c1 91 36 bd cd ec 44 be 4d ad ba 3d
       -0.07197516 -0.044572596 -0.19230957 0.09115086
0001c0 38 c9 1b be 68 49 68 3e d0 6f 2f 3e 64 e1 57 be
       -0.15213478 0.22684252 0.17132497 -0.21082073
0001d0 88 db 7e bd 80 d2 38 3c 18 67 15 3d d0 dd 72 3d
       -0.06222108 0.011280656 0.03647527 0.059293568
0001e0 5c ec c8 3d e0 59 75 3c cc d1 f9 bd d4 45 f2 3d
       0.09810707 0.014975041 -0.12198219 0.11829725
0001f0 56 91 75 be a0 bb 17 be 3c 2b 80 bd ec 66 f9 bd
       -0.23981223 -0.14817667 -0.06258246 -0.12177834
000200 80 cc a1 bd aa aa 22 be 14 ed 4a bd 77 af c9 bc
       -0.079003334 -0.15885416 -0.0495425 -0.024619801
000210 4f 1c 2e be c5 bc 5e bc 37 4f 47 3d 62 e5 22 be
       -0.17002986 -0.013594811 0.04865953 -0.15907815
000220 c0 8d b2 bd ce 06 1e be 76 0c 7b 3d 81 dc 7d 3e
       -0.08718443 -0.15432283 0.06129118 0.24791147
000230 cd aa a1 3d b0 0b fd bb 2f 76 b8 3d 27 35 2e be
       0.07893906 -0.0077223405 0.09006917 -0.17012464
000240 66 f8 65 be 40 ba f2 bd ce 4f 2e 3e 00 6b d4 ba
       -0.22458038 -0.118519306 0.1702263 -0.0016206205
000250 dc 7c fe bd 02 2d 44 be 00 94 6f be ec 10 58 be
       -0.12426159 -0.19157794 -0.23396301 -0.21100205
000260 70 b4 4f bd 56 64 0c 3e 74 67 0a 3e 02 e5 76 be
       -0.050709188 0.1371015 0.13516027 -0.24110797
000270 2e b0 1f 3e 8a 52 48 be f0 7b 58 bd 1c 9a cf bd
       0.15594551 -0.19562736 -0.05285257 -0.10136816
000280 3d cb 90 be 8a a8 95 be 60 e9 67 be d5 95 4d bd
       -0.28280059 -0.29230148 -0.22647619 -0.05019172
000290 6e 33 06 3e 31 9a 34 be 8a 33 13 3d 72 69 84 3e
       0.13105556 -0.17636944 0.035937823 0.25861698
0002a0 72 d8 22 be 05 f9 c4 3d c8 91 cd 3e 52 44 70 be
       -0.1590288 0.09617809 0.40150285 -0.23463562
0002b0 5e b4 ae 3e 36 3e 81 3e 98 6a 2b bd 45 6a 89 3e
       0.34121984 0.25242776 -0.041849703 0.2683889
0002c0 37 77 53 3e 6c 02 de 3d 9e 27 50 3e e4 1b b3 be
       0.20650946 0.10840306 0.20327613 -0.34982216
0002d0 b7 82 24 be 54 b3 27 3e 88 64 16 3e 4f 0d 4e 3c
       -0.16065489 0.16377002 0.14686787 0.012576415
0002e0 9e ab 93 3d 1a e0 ea 3d aa 7b c1 be 61 8e ae bd
       0.07210468 0.11468525 -0.3778966 -0.0852325
0002f0 45 68 2f be dc 5c 11 3e f6 ef 22 3e 08 e5 4d 3e
       -0.1712962 0.1419558 0.1591185 0.201069
000300 e9 fc 8c 3c d7 9d 3a 3e a8 94 2b be be 1c a0 be
       0.01721044 0.18224274 -0.16755927 -0.3127193
000310 29 a6 92 be 6c 75 8b 3e a1 42 66 be 81 e8 92 3d
       -0.28642395 0.27238023 -0.22486354 0.07173253
000320 a4 eb 3f 3d a9 f3 17 3e 5d 4c ba be 83 88 05 be
       0.046855584 0.14839043 -0.36386386 -0.13040356
000330 1d ff 19 be ef 6d 4a 3e 3b 90 f4 bd 62 17 47 3e
       -0.15038724 0.19768499 -0.11941572 0.19442514
000340 27 9c 32 be 1a 37 2d be 7a f3 c6 bb 30 47 d9 3d
       -0.1744238 -0.16915551 -0.006071505 0.10609281
000350 8d d0 66 3e 21 b5 93 be 0d 6d b1 3d 0f 8f ca 3d
       0.22540493 -0.28849128 0.08663378 0.098905675
000360 f4 1f 1f be 76 fc b0 bd 54 26 ca 3e 6e 2c a4 be
       -0.15539533 -0.08641903 0.39482367 -0.32065147
000370 0e 0e cf 3c a2 f8 96 3e de e1 32 3e ec b4 50 3d
       0.025275256 0.29486567 0.17468974 0.05095379
000380 ed a8 75 be c4 ae db 3d 6f a0 3b be 0e c6 87 bd
       -0.23990221 0.10726693 -0.1832292 -0.06629573
000390 7c be 9c bd 6c 9e 3b bd b3 ba 0a bd ed fc 84 3e
       -0.076535195 -0.04580538 -0.033869456 0.25974217
0003a0 63 07 65 3d 7b 8c 3b 3e 13 97 52 3e 90 15 fe bd
       0.055915248 0.18315308 0.20565443 -0.124064565
0003b0 0b ed 8d 3d 60 99 47 be e7 3f f7 bd d2 86 e5 3c
       0.06929978 -0.19492102 -0.12072735 0.028018389
0003c0 5a 56 a9 3d 5b 92 47 3e a0 90 b6 bd b5 a9 c1 3c
       0.082684234 0.19489424 -0.08914304 0.023640493
0003d0 21 2e ff 3d 4c 72 74 be 90 ad 13 3e f6 b4 27 be
       0.1245997 -0.23871726 0.14421678 -0.16377625
0003e0 94 20 dd 3c 8f 6e a8 bd d9 ea bb bd 80 53 88 3d
       0.026993074 -0.082242124 -0.09175653 0.06656551
0003f0 33 b2 2c 3e 7c 83 d0 bd 88 90 90 be ab 06 07 be
       0.16864853 -0.10181329 -0.2823527 -0.13186137

bias f4 [64]
000000 c0 7e 8f bc f1 d9 44 be dc 66 68 be c8 66 4d bd
       -0.017516494 -0.19223763 -0.22695488 -0.050146848
000010 70 a8 ad bd da b2 30 3e 73 c9 0f 3e 10 f6 14 3d
       -0.084793925 0.17255726 0.1404169 0.036367476
000020 a4 5d 26 be d0 85 a2 bd bf 63 c0 3d 46 8f 91 3d
       -0.16246659 -0.07935679 0.09394025 0.07107405
000030 4b f4 5b be 07 00 7a bc 41 4e 82 be 9b e6 e5 3d
       -0.21479909 -0.015258796 -0.25450328 0.11225625
000040 b4 07 23 be 21 29 25 3e 24 f5 b7 bd 74 12 26 be
       -0.15920907 0.1612897 -0.08982304 -0.16217977
000050 35 46 1e 3e 19 c2 94 bc ff 72 98 3e 15 86 1c 3e
       0.1545647 -0.01815896 0.29775235 0.15285523
000060 9d 7e 86 be 9b c8 ea 3d 0d 94 c1 bd bf d5 29 be
       -0.26268473 0.11464044 -0.094520666 -0.16585444
000070 e4 92 22 3e 7d 07 7e 3e ae 5b 93 be 54 35 79 3d
       0.15876347 0.24807544 -0.28780884 0.060841873
000080 07 f6 51 3e 74 4a c6 3d a0 96 29 3e 1f eb e4 bd
       0.20504008 0.096821696 0.16561365 -0.11177658
000090 70 38 0d be 0a 23 5c 3e 02 5b 87 3e df 29 6b 3e
       -0.1379106 0.21497741 0.2643662 0.22965191
0000a0 54 dc d5 bd 7e 5e 24 be 50 0d f0 bc 62 0b 71 be
       -0.10442415 -0.16051671 -0.029303223 -0.23539498
0000b0 12 fd b4 3d dc 49 1a 3e 78 d1 75 3d da df e2 ba
       0.08837332 0.15067238 0.060014218 -0.0017309145
0000c0 11 68 84 3d 10 7f 22 be a6 a4 48 3e e8 30 95 be
       0.064651616 -0.15868783 0.19594058 -0.29138875
0000d0 be 6e a6 be b3 c0 56 3c ab db 99 3e dc 5f 40 bb
       -0.32506365 0.0131074665 0.30050406 -0.0029354012
0000e0 a5 f6 3d 3d 5c d0 08 be 48 ca 80 3e c0 d9 e4 bc
       0.046377797 -0.13360733 0.25154328 -0.027935863
0000f0 c1 9e bb 3d f3 f5 97 3c 3a e3 ae 3d fc 39 34 bc
       0.09161139 0.018549895 0.08539434 -0.011000153

weight f4 [64, 64]
000000 60 4f fc bb e2 8e a0 bd 04 31 39 bd ca 5b a6 3d
       -0.007699892 -0.07839753 -0.04521276 0.08122976
000010 6c 4f 4d bd 76 fc 9e 3d 3c 06 4b bd 08 7d ee bc
       -0.05012457 0.07762997 -0.049566492 -0.029112354
000020 00 58 2e 3b 20 ec ea bd 00 98 a3 ba 00 6e 4e bc
       0.0026602745 -0.114708185 -0.0012481213 -0.012599468
000030 20 fc 37 bc b0 b3 cc bc 18 d3 c9 3d ba ec bc 3d
       -0.011229545 -0.024988025 0.09854716 0.092248395
000040 80 81 ad bd 74 d6 6d 3d 4c cd c8 bd 32 f0 d9 bd
       -0.08471966 0.058065847 -0.09804782 -0.10641517
000050 58 82 1c 3d 80 c9 f0 3a ec d9 6e bd b8 e9 f6 bd
       0.038210243 0.0018370599 -0.058313295 -0.12056297
000060 b4 36 46 bd fc 01 2b 3d 38 f4 ec bd f6 b1 f8 bd
       -0.048392013 0.04174994 -0.115700185 -0.12143318
000070 e0 ea 81 3c 68 6c b8 bd cc 46 e0 bd 3c 44 45 bd
       0.015859067 -0.09005052 -0.109510034 -0.048160776
000080 68 dd a4 bc e8 a0 e8 bd 34 f0 aa bd 70 48 06 3c
       -0.020125106 -0.113588154 -0.08346596 0.008195981
000090 98 66 f1 bd 80 ed 8f bc c6 4c a5 bd 00 78 b1 bd
       -0.11787146 -0.017569304 -0.08071284 -0.08665466
0000a0 5c 3b 49 3d 62 0a c5 bd 6c 01 c2 bd f8 fd 91 3d
       0.049128875 -0.09621121 -0.094729275 0.07128519
0000b0 18 74 bf 3c 7a 24 e9 3d f4 da 08 bd c0 4d 77 bd
       0.023370788 0.113839105 -0.033411935 -0.060376883
0000c0 00 89 3d bc 00 c9 25 3a a8 3c c3 3d 18 ff fe bd
       -0.011568308 0.0006324202 0.09533054 -0.12450999
0000d0 b0 d1 11 bc fc 7b 62 3d 90 f9 8c bd 84 15 82 bd
       -0.008900091 0.055294022 -0.06883538 -0.0635176
0000e0 e0 6e 77 3d a0 4b f5 bd 88 a4 f2 3c 16 31 c6 bd
       0.060408473 -0.11977315 0.02961947 -0.09677331
0000f0 e4 7e 7e 3d ee e3 da bd d8 63 9d 3d 84 56 f2 bd
       0.06213273 -0.106880054 0.07685059 -0.11832908
000100 62 2f d7 bd 00 73 f1 3a 9c b9 c9 3d be 3c db bd
       -0.105070844 0.0018421113 0.09849855 -0.10704945
000110 f0 61 64 bd 20 d7 e0 3d e0 b8 ab bc 1c 1d 54 3d
       -0.055757463 0.10978532 -0.020962179 0.051785573
000120 84 45 f6 bd a4 03 21 bd 4a 01 82 bd dc d2 d7 3d
       -0.12024978 -0.039310113 -0.06347902 0.10538265
000130 1c 80 54 3d 06 cc ba bd b0 18 a5 3c 00 4f bc ba
       0.051879987 -0.09120946 0.020153373 -0.0014366806
000140 88 5d 52 bd 14 32 92 bd c0 e6 29 bd 36 c9 c9 3d
       -0.05135873 -0.07138458 -0.041479826 0.09852831
000150 a2 83 b7 bd 22 5c b6 bd 38 f6 1d bd c0 82 0e 3b
       -0.08960654 -0.08904292 -0.03856489 0.0021745414
000160 5c 5f 0b 3d 80 d3 75 3b c8 80 f6 bc c4 39 9b bd
       0.03402649 0.0037510097 -0.030090705 -0.07579377
000170 30 bd b7 bc 78 1b 4e bd 6c d4 ce 3d 5e 31 f9 bd
       -0.022429079 -0.050319165 0.1009911 -0.12167619
000180 ba 4a a3 bd 72 47 d0 bd 98 24 bb bc 76 7e c7 3d
       -0.07973237 -0.10169877 -0.022844598 0.097409174
000190 e0 64 e0 3d b6 dc de bd 80 77 b1 bb 6a 43 96 3d
       0.109567404 -0.10881941 -0.005415857 0.07337077
0001a0 34 b0 61 3d ca b0 d1 3d 40 3b 63 bb 2a 01 ac bd
       0.05509968 0.10238798 -0.0034672767 -0.083986595
0001b0 10 5a a9 3d 80 92 2f bd a2 8d 84 3d d8 59 fc bc
       0.08269131 -0.042864323 0.06472327 -0.03080456
0001c0 f0 a5 59 3d c8 40 e6 3d 02 0b ee 3d 06 fa e8 bd
       0.053136766 0.11242825 0.11623193 -0.11375813
0001d0 c6 56 a9 bd ec b1 53 bd 60 40 a3 bd cc a1 f5 3d
       -0.08268504 -0.05168335 -0.07971263 0.11993751
0001e0 80 e0 34 bc b0 d0 a9 bd a8 d5 63 bd c4 67 8d bd
       -0.011039853 -0.08291757 -0.05562368 -0.06904557
0001f0 fc e3 50 3d da 4b df bd f8 b1 ee bd d8 5a fc bd
       0.050998673 -0.109031394 -0.116550386 -0.123220146
000200 a8 6d 5c 3d 63 a1 28 3e 21 4e 88 bd f7 50 c4 3c
       0.053815514 0.16467814 -0.06655527 0.023964388
000210 ac f9 bc 3d e0 c9 94 3c 1e 31 2a 3c a0 4f 17 3c
       0.09227309 0.018162668 0.010387687 0.009235293
000220 9f 7e 72 bc 52 e5 80 3d b7 d1 88 3c 21 d9 0a 3e
       -0.014800697 0.062937394 0.016701562 0.1355939
000230 f7 82 fb 3d 69 de df 3c 3d af 31 3e 93 b5 31 3e
       0.12280839 0.027327733 0.17352004 0.17354421
000240 58 d8 49 bd 1e 5d 44 3c fc 6d b3 3d f7 3e b5 bd
       -0.049278587 0.0119850915 0.08761212 -0.088499
000250 53 4e e8 3d 35 16 32 3d 60 b2 59 3e 15 1e b8 bc
       0.11343064 0.04347821 0.21259451 -0.022475282
000260 29 c6 c6 bd fe 63 f4 3d d9 ab f5 3d f3 4d 50 be
       -0.09705765 0.119331345 0.11995668 -0.20342235
000270 c6 c2 8e bd 44 ac 12 bc a1 36 92 be 4a f8 4c 3d
       -0.06970744 -0.008952204 -0.28557304 0.050041474
000280 c1 72 d3 3d 00 d4 cb bc 68 2c 1d bd 6c f4 e7 3d
       0.10324622 -0.024881363 -0.038372427 0.11325917
000290 bc 55 69 3d 82 2c e5 bd 19 3c b4 3e 34 c7 7b 3d
       0.05696653 -0.1119013 0.352021 0.06146927
0002a0 b2 6a c6 3d f4 86 fc bd b0 71 9d 3d ee 8b d1 3d
       0.09688319 -0.12330428 0.076877 0.102317676
0002b0 f1 e1 0e bd 51 9f 6e 3d 52 8a da 3d f0 3d d5 bd
       -0.034883443 0.058257405 0.10670914 -0.10412204
0002c0 6b d9 87 3d c0 3d 62 3d 74 3c e9 3c 34 66 06 3e
       0.06633266 0.05523467 0.02847121 0.13124925
0002d0 36 2e 00 3e f8 2b 53 3e b6 7b 8f 3d b6 0e 0e 3e
       0.12517628 0.20622241 0.07006018 0.138728
0002e0 9c 7c 05 be 4d 96 6e be a6 27 06 3e d4 17 18 bd
       -0.13035816 -0.23299523 0.13101062 -0.0371321
0002f0 fa a5 40 3e 4d 28 52 3d ee 1c 53 3d 62 2d f4 3d
       0.18813315 0.051307965 0.05154126 0.119227186
000300 a0 3b bf bd ce 0f b3 bb 80 b5 9c 3b 36 f1 ea bb
       -0.093375444 -0.0054645305 0.0047823787 -0.007169868
000310 c0 a4 83 3d 70 ba 4b bd 5c 1b c3 bd ae 34 d6 3d
       0.06427908 -0.049738348 -0.09526703 0.104592666
000320 e7 a3 99 bd 04 d4 b1 bd 08 3e 9a 3d f9 e3 2c 3d
       -0.07501965 -0.08683017 0.07531363 0.0422096
000330 dd 57 b4 bd 6e 55 33 3c 31 33 89 bd ce 15 d0 bd
       -0.08805821 0.010945661 -0.06699217 -0.10160409
000340 90 89 40 3d 17 a8 da bd 12 c9 ff 3d b6 ed c2 bd
       0.04700619 -0.10676592 0.12489523 -0.09517996
000350 7c 97 8d bd bd b8 7b 3c ab 25 96 3d 7a b1 82 3d
       -0.06913659 0.015363869 0.07331403 0.06381507
000360 74 77 e9 bc 36 f8 6b 3d 6d 62 93 bd 35 6c 52 be
       -0.028499343 0.05760976 -0.071965076 -0.2054909
000370 58 05 e5 bd fa 44 0b 3b 30 7d 7c bd 3b 3d cf bc
       -0.1118266 0.002125083 -0.061642826 -0.025297752
000380 c5 ef ad bb 9e 08 ba bd eb 54 3b bd 06 e6 b0 3d
       -0.005308124 -0.09083675 -0.04573528 0.086376235
000390 fc 64 fc bd 5a 41 b4 bd 1d e0 8f 3e d0 e2 3e 3d
       -0.12323949 -0.08801527 0.28100672 0.046603024
0003a0 a0 5e ff bb 68 0c b7 3c e0 b0 9b bc 5e ef b2 bd
       -0.0077932626 0.022344783 -0.019005239 -0.08737062
0003b0 af 3d 04 be e7 53 f4 3c 10 95 73 bc 18 d1 49 be
       -0.12914155 0.029825164 -0.014867082 -0.19708669
0003c0 5c 4c 2b bd d8 a0 8b bd 12 ba 06 be fd 04 c2 bd
       -0.04182087 -0.06817788 -0.13156918 -0.09473608
0003d0 8c a7 84 3d bc bf 6a 3d b8 9c 9c bd bf cc 00 be
       0.064772695 0.05731176 -0.07647079 -0.12578104
0003e0 8d 82 1e bd b6 1f 9e be 23 0f 48 3c 90 f9 0c 3d
       -0.03869872 -0.3088357 0.01221064 0.03441769
0003f0 14 47 d6 bd 45 66 bf ba e5 7e 7b bc d5 ca 94 3c
       -0.10462776 -0.0014602622 -0.015350078 0.018163124

bias f4 [64]
000000 10 31 90 3d 64 cf 71 bd aa 48 fa 3d 98 d1 77 bd
       0.07040608 -0.059035674 0.12220891 -0.06050262
000010 44 51 8c 3d 50 c0 f4 3d 77 a8 09 be b2 06 f3 3d
       0.06851438 0.11950743 -0.1344317 0.118665114
000020 cc 43 15 3e 6e be 01 be 2c 8d d9 3d 94 79 8e bd
       0.14576644 -0.126703 0.106226295 -0.06956783
000030 0e 27 db 3c f0 59 9e 3c 98 92 1b be 7e 56 fa 3c
       0.026752021 0.019329995 -0.1519264 0.03055882
000040 a6 c9 2a bd 02 e9 9f 3d c9 a6 bb 3d 73 fe 5e 3d
       -0.041696213 0.078081146 0.09162671 0.05444188
000050 4a ca c9 3d 15 db 16 3d 6f 6d 56 3e 13 4b e4 bc
       0.09853037 0.036830027 0.20940183 -0.02786783
000060 58 e4 1f 3e d5 d9 1a bd 20 51 77 bd 04 74 1a bd
       0.1561445 -0.037805397 -0.0603801 -0.037708297
000070 71 78 ea bd aa 6a 65 3c 07 cd 9b 3d 38 6e ea bd
       -0.114487536 0.0140024815 0.07607465 -0.11446804
000080 9d a4 03 be 1d 1d 59 3d b6 7c eb bd 89 81 9b 3d
       -0.12855764 0.05300628 -0.11498396 0.07593066
000090 b1 73 ed bd 50 5b d6 3d 92 96 ca 3d 3a 64 d2 bd
       -0.11594332 0.10466635 0.09892 -0.10273023
0000a0 b5 90 13 be fa 5b 97 bd 5f 9f a7 3d 27 31 fd bd
       -0.1441067 -0.0739059 0.081846945 -0.12362891
0000b0 f7 03 22 3e 5b fc 18 bd 4d 4a 1a 3c cf 23 99 bd
       0.15821825 -0.03735004 0.009417129 -0.07477533
0000c0 80 dd 68 3d b2 30 b7 bd 6b b0 a5 3d 7b 92 5d 3e
       0.056851864 -0.08944835 0.0809029 0.21637909
0000d0 58 65 94 3b 88 4b 2a 3e de 3c 85 3d f3 f6 98 3c
       0.0045286827 0.16630375 0.0650575 0.018672442
0000e0 1c 8b 31 3d 8a f2 ac bd 40 ea 92 bb 9f 11 12 3e
       0.043345556 -0.08444698 -0.004483491 0.14264534
0000f0 cc 39 d6 3d 47 2b 8f bd 26 db 70 3c 45 69 a3 bd
       0.10460243 -0.069906764 0.014700687 -0.07979063

weight f4 [3, 64]
000000 5e 63 f9 bd b8 14 cf 3c bf 54 54 be 13 ce 8d bd
       -0.12177156 0.025278434 -0.20735453 -0.06924071
000010 af 0e 3c bd 00 03 e5 3b 82 e8 13 bc 12 08 ba bd
       -0.04591244 0.006988883 -0.009027602 -0.090835705
000020 f3 67 11 be a8 e8 60 3a 3c cd 61 be 91 9d 95 3c
       -0.1419981 0.00085795904 -0.22050947 0.01826361
000030 d7 92 98 3b 46 72 b6 bd ea 56 49 3d 24 84 a9 3d
       0.0046561765 -0.08908515 0.049155153 0.08277157
000040 c9 bf 9b 3e 92 49 27 bc 37 d1 62 3e f6 a0 97 3d
       0.30419758 -0.010210412 0.22150122 0.07403748
000050 b4 cf ab bd c9 ba df 3d 4a 53 5f 3c 32 2f 01 be
       -0.083892256 0.10924298 0.0136306975 -0.1261566
000060 8b f6 6f be d9 bc fa 3d 3c 0c e4 bb 70 42 eb bc
       -0.23433892 0.12243051 -0.0069594663 -0.028718203
000070 f9 c6 a5 3d 68 e8 aa ba 98 cc fb bc d7 c5 89 3d
       0.08094592 -0.0013039233 -0.030737206 0.06727188
000080 81 20 ba bc c3 5c 00 3e c2 d2 b3 bd a0 81 86 be
       -0.022720577 0.12535386 -0.08780433 -0.2627077
000090 09 6a ea 3c 10 a3 78 bc 38 16 92 3d 08 3a 0b bd
       0.028615015 -0.015175596 0.07133144 -0.03399089
0000a0 66 e8 15 3c 60 c6 d4 bc 16 07 a3 ba b0 37 60 bc
       0.009149646 -0.025973499 -0.0012438025 -0.013685152
0000b0 bd eb f6 bd f9 3e 08 3e c1 73 fd 3d 96 42 f8 3d
       -0.12056682 0.13305272 0.12375594 0.12122075
0000c0 1c 4c fa bd d2 a7 90 bd 5c 60 0a be ff 91 18 be
       -0.12221548 -0.07063259 -0.1351332 -0.14899443
0000d0 15 2c 24 bd 39 c3 ea bc a0 73 28 bc 41 62 43 be
       -0.040081102 -0.028657543 -0.010281473 -0.1908045
0000e0 58 66 db 3c c0 af dc 3d 7f 70 9f 3d ee bd 04 be
       0.0267822 0.10775709 0.07785129 -0.12963077
0000f0 23 16 83 bd 28 eb 21 3d 8f 0a 98 be f4 8a 3f bd
       -0.064007066 0.039530903 -0.29695556 -0.046763375
000100 b4 c6 f7 bd b0 ad 92 3c 7f 06 b0 3c c3 9c b0 bc
       -0.120984465 0.017905086 0.021487473 -0.021559125
000110 e1 85 8b 3c ee 49 f9 3d b0 17 c2 3d 12 f6 91 3d
       0.017031612 0.12172304 0.09477174 0.07127012
000120 10 37 1d bd b6 23 88 3d 78 63 fe 3d 9e 07 f7 3d
       -0.03838259 0.06647436 0.12421316 0.12062
000130 99 15 54 3d c0 a5 0e bb 0d f6 ba bb 33 2a 18 bd
       0.05177841 -0.0021766275 -0.005705601 -0.03714962
000140 36 63 e4 bd c2 1d b0 3c d0 50 95 bc eb 27 ef 3d
       -0.111517355 0.021498565 -0.018227011 0.116775356
000150 f8 74 d1 bd 62 2e b2 bd 7f ca 45 3e 8f 53 bc bd
       -0.10227388 -0.08700253 0.19315527 -0.09195625
000160 e8 f3 fb 3d 5a cb df 3d 92 4c 55 bd 10 7a b0 bc
       0.12302381 0.10927458 -0.052074976 -0.021542579
000170 d2 57 1f bd b0 ee 6b 3d 78 30 be 3d ac 7c bb bb
       -0.03890211 0.057600677 0.092865884 -0.005721649
000180 40 06 9a 3c bb 21 08 3b 44 ed 16 bd a7 d1 c3 3d
       0.018801808 0.0020772058 -0.036847368 0.095614724
000190 1e 9f e8 bd ac 55 b4 bd e9 b4 25 bb 94 39 f7 3d
       -0.11358474 -0.08805403 -0.0025284833 0.12071529
0001a0 f8 a4 b4 bd f8 1d a4 3d 1d 32 e1 3d 2d 71 32 bb
       -0.08820528 0.080135286 0.109958865 -0.0027228103
0001b0 42 83 6c 3d e8 8e 8f 3d 16 d7 02 3c 4b ff e6 3d
       0.057742365 0.07009679 0.007985851 0.11279162
0001c0 b8 cc c1 bc b0 f3 aa bd 3e d3 8c 3e 90 2f 57 3c
       -0.023657188 -0.08347261 0.27504915 0.013133898
0001d0 56 a9 32 3e 18 9a 41 3e e0 5a b5 3c 67 2a e6 3d
       0.17447409 0.18906438 0.02213806 0.11238556
0001e0 82 53 fb bd b0 10 73 3d 6e c8 2a 3d 60 06 5b 3e
       -0.12271787 0.059342086 0.04169505 0.2138915
0001f0 a7 80 e1 bd 95 13 8d bc 53 53 2e 3e ad 11 69 3d
       -0.110108666 -0.017221252 0.17023973 0.056901623
000200 a6 be d4 3d bc fd c8 3d a8 ef 48 3d 91 3b 73 bc
       0.10387926 0.09814021 0.04905668 -0.014845745
000210 05 49 95 bd 8c e3 2d 3d 92 51 3e bd 00 f5 01 3a
       -0.07289318 0.042453334 -0.04646451 0.00049574673
000220 8d 54 5e 3e 66 51 87 3d 90 de 6c 3d 6f 2f ba 3d
       0.21711941 0.066073224 0.05782944 0.090910785
000230 bf 3e 8c 3d 52 86 90 3d f3 0a 8c 3b 6e d5 25 bd
       0.06847905 0.070568696 0.004273766 -0.040486746
000240 ee 6c 83 bd c8 a8 5a bd 48 fe 11 3e 5f eb 8d 3c
       -0.06417261 -0.05338362 0.14257157 0.017324148
000250 d4 d9 14 3d 8a e4 d4 3a 44 22 93 bb 4c 4c 12 bd
       0.03634055 0.0016242426 -0.0044901688 -0.035717294
000260 10 96 ad bc 1b 30 d9 bd 14 72 d3 bc f0 01 c5 3d
       -0.02118972 -0.106048785 -0.025811233 0.0961951
000270 aa 29 63 bd 4b b5 c5 3c f8 0d 64 3d 4d 32 b6 bd
       -0.055459656 0.024134299 0.055677384 -0.08896313
000280 5c 3f 25 3d e9 19 55 3d 8c 6a b9 3d f5 0c c7 ba
       0.040343627 0.052026663 0.09053525 -0.0015186357
000290 d9 18 b9 3d a0 2c 9a 3b 58 15 43 3d a4 25 17 3d
       0.090379424 0.0047050267 0.047627777 0.03690113
0002a0 ad de b3 bc 60 c8 e0 bc 96 29 a0 bd eb 2c 14 3e
       -0.021956766 -0.027439296 -0.07820432 0.1447026
0002b0 3a d0 86 3e f8 c2 37 bd 70 7e 91 bc 43 59 18 3d
       0.2633074 -0.04486367 -0.017760485 0.0371945
0002c0 5e 36 df bd 40 51 67 3b 2d 83 9e 3d 04 65 50 3e
       -0.108990416 0.0035296232 0.077398635 0.20351034
0002d0 14 b7 13 bc 7a 9e a6 3d a0 b6 5e 3d 73 74 a8 bd
       -0.009015817 0.08135696 0.054373384 -0.08225336
0002e0 ce a8 96 3d 0e ea c9 bd e5 75 70 3d 8a 64 ca 3d
       0.07356416 -0.098590955 0.058706183 0.098824576
0002f0 98 5c 3c 3c 10 a8 2d bd 21 d6 b2 bd d1 75 8f bd
       0.011496685 -0.042396605 -0.08732248 -0.070048936

bias f4 [3]
000000 93 5a 7b bd 33 a0 2c 3d 7c 93 27 3e
       -0.061365675 0.042144965 0.16364855

weight f4 [64, 19]
000000 2e aa ca bd de 12 c3 3d 61 d9 59 be 12 24 ee 3d
       -0.098957404 0.09525083 -0.2127433 0.116279736
000010 df e5 47 3e 60 68 28 be 34 c1 6f bd f4 f6 5f 3d
       0.19521283 -0.16446066 -0.058533862 0.054678872
000020 9b df 60 be b2 a3 14 be 82 67 a3 3d 81 36 5d 3e
       -0.21960299 -0.1451557 0.07978727 0.21602823
000030 e6 5c 8c bd 00 ed 08 bb 2a c7 62 be 2f 7d 61 be
       -0.068536565 -0.0020893216 -0.22146288 -0.2202041
000040 5f 4e 4c 3e 37 5b 47 3e 98 31 8f bd 26 d2 a2 bf
       0.19951771 0.1946839 -0.06991881 -1.2720382
000050 13 82 1d c0 9a bc c4 bb 30 63 00 3f a6 5f 20 40
       -2.461064 -0.0060039284 0.5015135 2.505838
000060 60 ea b2 bf 03 0d 57 3d 1a a3 09 40 e9 39 41 40
       -1.3977776 0.052502643 2.15058 3.0191596
000070 35 9c 64 3c b6 d5 69 be c6 c1 8d 3e 35 58 d3 3c
       0.013953258 -0.2283543 0.276869 0.025798896
000080 6c 04 93 bd c9 4e 1e 3e a6 1e 90 3b 6e 2d be bd
       -0.07178578 0.15459742 0.004398185 -0.09286009
000090 f6 58 c9 bd 95 2a 2e 3d 6b 06 33 40 5f 29 a7 c0
       -0.09831421 0.04252108 2.7972667 -5.2238
0000a0 45 e3 21 ba b3 35 c6 bf 7c c6 a5 40 cf eb 2a 40
       -0.00061755284 -1.5485138 5.180479 2.6706426
0000b0 fd 3e b4 3c c0 b6 9b 3f 1a a3 cc 3f 48 09 ad bd
       0.022002691 1.2165146 1.5987275 -0.08449036
0000c0 40 72 a1 bd a5 ef 47 3d e6 a4 8d be 38 1f 74 3d
       -0.078831196 0.048812527 -0.2766487 0.059600085
0000d0 d9 5a f8 3c 3d 74 3e 3e f0 20 c7 bd 57 3b 4d 3b
       0.030316757 0.18599029 -0.09723079 0.0031315887
0000e0 3d aa 04 3e 4a fc 22 be b5 07 5e 3e fd ab 4b 3e
       0.12955566 -0.15916553 0.21682627 0.19889827
0000f0 03 a0 39 be e0 46 08 be d2 a7 e0 3d 86 8c 10 be
       -0.18127446 -0.13308287 0.10969509 -0.14116105
000100 49 bc 1f 3e 5d 2d e0 bd 84 d2 91 bd 6a e0 86 bd
       0.15599169 -0.10946152 -0.07120231 -0.06585772
000110 71 1f 60 3e ca e1 9e bd d4 b7 36 bd 4b 25 0e 3e
       0.21886994 -0.077579096 -0.044608906 0.13881414
000120 6b bb 20 be 00 d8 90 ba 8c 75 35 be e7 d3 58 be
       -0.15696494 -0.0011050701 -0.17720622 -0.21174584
000130 ac 39 a8 3e d8 5a 6c 3d c8 58 70 3e 3c 30 41 c0
       0.328565 0.057703823 0.23471367 -3.018569
000140 71 3b 20 3d ce f5 eb 3e a6 ab 86 be 67 ab 16 40
       0.039119188 0.46085972 -0.26302832 2.3542116
000150 23 65 b8 3f e7 76 8f 3b e7 e5 86 3d 6b d3 58 be
       1.4405864 0.004378188 0.06586819 -0.211744
000160 8f 31 57 3d e7 3d 56 be 4d 4e 25 3e b5 f5 43 3d
       0.052537497 -0.20922051 0.1614315 0.047841746
000170 3e 1b 9d 3d fd 93 16 be 57 4a 6c bc 7a 6d 6d c0
       0.07671212 -0.1470489 -0.014422021 -3.709807
000180 b0 a6 8f c0 f7 fa ba 3d aa 8b 94 3f c1 0a 88 40
       -4.4890976 0.09129899 1.1605122 4.2513127
000190 7a c8 5b c0 ce bb c8 3e ee 8e bb 3f 60 ad 25 40
       -3.434111 0.39205784 1.4652994 2.588707
0001a0 c6 ed 0f 3b ba 3a 6d be b0 c3 d7 3c a7 e2 c1 3d
       0.0021961792 -0.23166934 0.026338428 0.09467059
0001b0 c8 84 f6 bd 21 98 0c 3e 41 66 04 be ed aa 57 bc
       -0.12037045 0.13729908 -0.12929632 -0.0131633105
0001c0 e4 3e aa bc 9d a3 da 3b 64 0b 85 c0 c0 29 13 40
       -0.020781942 0.0066723363 -4.1576405 2.2994232
0001d0 b1 ec 43 3d c2 1f 7a be 33 36 59 c0 2c e5 64 c0
       0.04783315 -0.24426177 -3.393933 -3.5764875
0001e0 53 22 4a be c6 a6 c0 3f f3 9f 77 3f b1 3a 13 3d
       -0.19739656 1.5050895 0.9672844 0.035944644
0001f0 a3 24 14 3d 10 66 31 3e cb 67 2f 3e 4d 45 a1 3d
       0.036167752 0.1732409 0.17129438 0.07874546
000200 0c e6 07 3e da a4 02 be 56 05 1b ba 27 c4 e4 bb
       0.1327135 -0.12758198 -0.0005913576 -0.006981391
000210 01 b7 ec bc 54 d0 26 be 00 7a a4 ba 8b 44 2a 3e
       -0.028895857 -0.16290408 -0.0012548566 0.1662771
000220 cb fe 1b 3e 19 b8 4f 3e 32 46 a0 3d 02 62 b6 3d
       0.15233915 0.20285071 0.07825889 0.08905412
000230 14 fe 7b 3d 0b 8b 2b 3e 32 8d f6 3d f2 a2 8a 3d
       0.061521605 0.1675226 0.120386496 0.067693606
000240 a6 ef a3 bd 1e 63 e3 bd f0 52 68 bd 3e 3a e0 3d
       -0.08004694 -0.111028895 -0.05671972 0.10948609
000250 54 c1 ff bd 66 5d 80 3d 99 88 4d 3e 51 eb 46 3e
       -0.12488046 0.06267814 0.20071639 0.19425704
000260 e0 f5 2c be de eb 85 3d dd 9b 19 3e 6a 62 55 be
       -0.16890669 0.06539129 0.15000863 -0.20838323
000270 75 24 16 3e a3 60 12 be 20 dc 29 be d0 29 c7 bd
       0.14662345 -0.14294676 -0.16587877 -0.09724772
000280 6a b9 b0 bd ba 40 c2 bd 7a 44 87 3d 8e 04 b6 3d
       -0.08629115 -0.09485002 0.06604858 0.088875875
000290 62 9a b6 3d 5f 32 22 3e 18 a3 14 be a8 10 5f be
       0.08916165 0.15839528 -0.1451534 -0.21783698
0002a0 f8 75 3c be 6f 1e 01 be 1e e9 d6 bd 9a 3e c5 bf
       -0.18404377 -0.12609266 -0.10493682 -1.540973
0002b0 d2 2c f2 3f 94 83 7e 3e c3 66 43 3f ed 43 0d c0
       1.8919928 0.2485488 0.76328677 -2.2072709
0002c0 82 17 b9 bf 16 31 42 be 5f b1 a6 3f 17 43 f9 3f
       -1.4460299 -0.18964037 1.3022879 1.9473599
0002d0 fa ca 83 be 8c c7 fa 3d e8 ca f5 bd ab 4f 08 3d
       -0.25740796 0.12245092 -0.12001592 0.033279102
0002e0 e5 87 4d 3e de 0c 65 be 50 84 58 3c 0a 38 ed bc
       0.20071371 -0.2236819 0.0132151395 -0.028957386
0002f0 76 c2 f5 3c 1a f4 28 3c ba 33 bb bf 02 b9 aa 3f
       0.029999953 0.010312105 -1.4625161 1.333771
000300 bf f7 5b 3d 4b 50 c0 bf 79 7a 9f bf 1b 45 af bf
       0.053703066 -1.5024503 -1.2459251 -1.3692964
000310 8c c1 86 be da a1 12 40 91 5c e6 3f c7 ff 5f bd
       -0.2631954 2.2911286 1.7996999 -0.054687288
000320 04 1e b1 bd 7b cd 45 be 6c 0d 17 3e e9 ef ce 3d
       -0.08648303 -0.19316666 0.14751214 0.10104353
000330 db da 3a 3e aa 8f 6a be 53 37 a8 bd f3 00 98 3d
       0.18247549 -0.22906366 -0.08213677 0.07422056
000340 d4 91 00 bc 34 7a 12 3d 16 99 eb 3d 40 31 70 3c
       -0.007847268 0.035761073 0.11503808 0.01466018
000350 40 f8 f8 bb 15 97 0b 3e c1 ac 3b 3e 0e ef 82 bd
       -0.007597953 0.13631852 0.18327619 -0.06393252
000360 12 91 48 be f8 d0 00 be 87 e1 27 3e c8 6b a3 3c
       -0.1958659 -0.12579715 0.16394626 0.019948855
000370 61 26 49 3e b0 5b a4 bd f5 97 5e be 56 e8 91 3d
       0.19643547 -0.080253005 -0.21737655 0.07124393
000380 d6 37 c8 bd 30 73 0c be c1 75 12 3e 00 b2 82 3c
       -0.09776275 -0.13715816 0.14302732 0.015954018
000390 13 f8 d6 bf ea bd be 40 86 0b 48 3f b1 f4 43 bf
       -1.6794456 5.960683 0.78142583 -0.76545244
0003a0 1c 0c d4 c0 98 d2 c4 bf 76 dd 75 be 15 7a 92 3f
       -6.626478 -1.5376768 -0.24010262 1.1443506
0003b0 62 a5 d4 3f c1 ee d5 bd 6b bc 98 3e 53 b2 11 bc
       1.6612971 -0.10445929 0.29831252 -0.008892613
0003c0 73 b7 30 bc 36 5d 81 3d ae 46 47 3d 57 c3 8f 3d
       -0.010785925 0.06316607 0.04865139 0.0701968
0003d0 af cd 4a bd 46 c9 b5 3c 93 38 50 bd 55 65 69 3e
       -0.04951256 0.022190701 -0.050835203 0.22792561
0003e0 00 d8 46 bc f6 d1 27 be 3e ee d7 3d ef f0 56 be
       -0.012136459 -0.16388687 0.10543488 -0.20990346
0003f0 5b 64 51 3e fd 62 10 3e c2 9f d3 3d 7c 5b 00 3d
       0.20448439 0.14100261 0.10333206 0.031337246

bias f4 [64]
000000 10 4a 0b bd 34 e5 7a 3c ad 84 b2 3c 00 f3 4e 3b
       -0.03400618 0.015313435 0.02179178 0.0031577945
000010 28 07 47 bc 3d 43 43 be 8e 45 96 3c 11 90 57 3e
       -0.012147702 -0.19068618 0.018343713 0.2105105
000020 4e 1b 9a 3d a8 01 80 be 69 58 24 3d 24 36 18 bd
       0.07524739 -0.25001264 0.040123377 -0.037161008
000030 fb f7 9a 3d de bd 57 be cc 15 1d 3d 16 e1 2d be
       0.0756683 -0.21068522 0.038350865 -0.16980395
000040 04 b5 05 3d 98 3f 06 3e 63 9f 10 3e 28 85 11 bd
       0.032643333 0.13110197 0.14123301 -0.03552738
000050 1d 4a 0e 3e a4 12 10 bb 7c 38 33 be 75 e1 a7 3d
       0.1389546 -0.0021983767 -0.17502016 0.081972994
000060 35 80 7c bd 6c 42 53 be 17 8a 1b 3e ae 30 7e 3e
       -0.061645705 -0.20630807 0.15189396 0.24823257
000070 b1 1e 9e 3d c2 10 ce bd 11 f9 85 be a0 1d 37 3e
       0.07720698 -0.1006179 -0.26166585 0.17882395
000080 99 3b fa bd 2c 8b 0d 3d c5 0a 5e be fa c0 b3 3d
       -0.122183986 0.034556553 -0.21683796 0.08777042
000090 0e f7 f2 bc a9 d8 00 3e 6e 02 e4 3d 4b 5c 60 be
       -0.02965882 0.1258265 0.11133276 -0.21910207
0000a0 f8 4d 19 3e ea 2e 68 be c0 8e e0 bd b4 e9 d2 3d
       0.14971149 -0.22674146 -0.109647274 0.102984816
0000b0 c1 99 c0 bd f6 95 de 3c 58 91 c1 3c 1e 95 9c bc
       -0.09404326 0.027171116 0.023628876 -0.019114073
0000c0 20 31 ff bd 3d 2e bb 3d 2b a3 81 bd 91 c2 67 3d
       -0.12460542 0.091396786 -0.0632995 0.056582037
0000d0 16 a0 6c 3c 84 ef a3 bd 37 bf 2e be 8f 60 1c 3e
       0.014442464 -0.08004668 -0.1706513 0.15271209
0000e0 e8 39 4d be 84 ae b6 bd 67 c5 94 be 73 bc 54 be
       -0.2004162 -0.08920005 -0.29056856 -0.20775013
0000f0 bd e8 d3 bc b8 12 56 bd 9a 26 4c 3d 52 63 1c 3e
       -0.025867814 -0.052263945 0.0498415 0.15272263

weight f4 [64, 64]
000000 b0 62 d7 3c 23 e2 ad 3d 25 46 10 bd a4 f9 f6 3d
       0.026292175 0.08490398 -0.035223145 0.12059334
000010 98 13 d6 ba 0e 91 da bc 97 38 79 bc f6 d8 c9 bd
       -0.0016332744 -0.026680496 -0.015211246 -0.09855835
000020 74 c2 d0 3d 99 0d 8e 3d fe 4d 1e be 66 5c 98 bd
       0.10193339 0.06936187 -0.15459439 -0.074394986
000030 8f 17 9d 3c 9c b1 00 3d 88 19 39 bd 6b 61 75 bd
       0.019176273 0.03141938 -0.045190364 -0.05990736
000040 c0 9f ea bc 98 16 bc bc 35 81 81 3d d1 33 01 be
       -0.028640628 -0.022959992 0.063234724 -0.12617423
000050 06 7f 92 bc 9f c2 99 3c f0 8b b6 bd 65 b5 a2 bc
       -0.017882835 0.01876956 -0.0891341 -0.019861886
000060 74 13 ed bc 5c 2e 3f 3d 06 2a 3d 3d 36 ce 5b bd
       -0.02893994 0.04667507 0.046182655 -0.053663455
000070 69 4b 43 bd dc 8d bc bd 75 ea c7 bd 3c 12 6c 3d
       -0.04767934 -0.09206745 -0.09761516 0.057634577
000080 9e 1a d0 3d 60 9d cb 3c dd bc 24 be d6 1c ff 3c
       0.10161327 0.024855316 -0.1608767 0.03114168
000090 94 6a 70 bd 7e 97 7f 3b 22 0f 85 3d d8 c3 d6 3d
       -0.05869539 0.0039000208 0.06497027 0.10486573
0000a0 90 21 15 3c 63 eb d3 bc 00 7a 6d 3a fb 9e 82 3d
       0.00910224 -0.025869077 0.0009059012 0.06377979
0000b0 bc ff 69 3d 93 c5 7a 3c d0 c1 cc bc 8e 1f a4 bd
       0.057128653 0.015305894 -0.02499476 -0.08013831
0000c0 52 3b ed 3d 78 e7 ba bd 2a f1 cd bc c0 5d 2d 3c
       0.1158358 -0.091261804 -0.02513941 0.010581434
0000d0 00 b8 9a 3d e3 3e f7 bd 17 4e 6c bd 40 4a 6f bb
       0.075546265 -0.120725416 -0.05769166 -0.0036512762
0000e0 70 ce 3a bc d9 70 48 be 4a b5 39 3d ab 5a f3 bd
       -0.011401758 -0.19574298 0.045338906 -0.11882528
0000f0 6a c7 cd bd 98 f0 1c 3d c7 fc 09 3d 3f d2 bb bd
       -0.10047801 0.038315386 0.033688333 -0.09170961
000100 9c bd 8d bd 64 4a d3 3b ea 60 da 3c 02 f4 8b bd
       -0.06920931 0.006448077 0.02665754 -0.0683365
000110 26 35 8e 3d e3 60 fd 3e bd bf 66 3e 96 48 d7 3d
       0.06943731 0.4948798 0.2253408 0.105118915
000120 30 47 d1 bc 52 01 09 3e c6 e7 d1 3d 00 be 72 3d
       -0.02554664 0.1337941 0.102492854 0.05926323
000130 bf 27 c7 3c 72 70 f0 3d 00 e6 59 3a 04 e4 ce 3e
       0.024310945 0.11740197 0.0008312166 0.40408337
000140 2c de bd 3d 11 00 ff 3e 7c 3a 35 3e 05 67 9b 3c
       0.092708915 0.49804738 0.17698091 0.018970022
000150 f7 2b a7 3d 24 f2 f7 be 4e 99 92 bd 8a 53 dc 3d
       0.081626825 -0.48426926 -0.07158147 0.10758121
000160 a1 3b 20 be 11 8b a5 3d 2a e8 cf bc 00 7d df 3d
       -0.15647747 0.080831654 -0.02537926 0.10912514
000170 e5 8d c0 3d 17 d8 bb bd 00 43 e3 ba 7c 52 05 bd
       0.09402064 -0.09172075 -0.0017338693 -0.032549366
000180 50 60 01 3c 98 bc 77 bd fb c1 22 3d be 4c 31 3d
       0.007896498 -0.06048259 0.039735775 0.043286078
000190 a1 90 89 3b 2d 9a 9e bd a8 f0 bf 3d f2 7b d7 3d
       0.0041981493 -0.077442504 0.093720734 0.105216876
0001a0 c8 1d aa bd 52 d2 5f 3e 4a a5 dc bd 7d 02 47 3c
       -0.083064616 0.21857575 -0.10773714 0.012146589
0001b0 88 0c 13 3d 6a 80 9a bd 4c 4c 79 bd ba 8b 01 3e
       0.035900623 -0.07544024 -0.060863778 0.12650958
0001c0 d0 7d a5 3c 56 d5 27 3c fc b8 0d 3d 47 b4 20 3f
       0.020201594 0.010243734 0.034600243 0.6277508
0001d0 a6 fe 0c 3e c6 64 2e bd 02 6f d5 bd 76 30 ad bd
       0.13769016 -0.042576574 -0.10421564 -0.08456509
0001e0 e6 fe 8a bd e9 a4 a9 be 93 5a f1 bd 51 8f 56 bd
       -0.06786899 -0.3313363 -0.11784854 -0.05238277
0001f0 06 37 21 bb b4 04 12 3d 09 a8 a0 3d 8a f2 99 bd
       -0.0024599447 0.035649016 0.0784455 -0.07516964
000200 80 6c b7 bd 03 65 82 bd 47 d6 e9 bd 80 9e dc 3b
       -0.089562416 -0.06366923 -0.11417823 0.006732762
000210 0a e3 12 be 37 75 52 bd b3 a9 9d bc e2 3d c6 bd
       -0.14344421 -0.051381316 -0.019245958 -0.09679772
000220 ec 27 67 bd 2e 36 a2 3c 4e 61 97 bd 32 f2 e1 bd
       -0.056434557 0.019801226 -0.07391606 -0.11032523
000230 2f 7c 9a 3d 0c a1 1f bd 10 d5 76 3c 1f 8a 06 3d
       0.075432174 -0.038971946 0.0150654465 0.032846566
000240 e8 f0 7e 3d cd 3e 1a be df 3b ad 3d b1 b6 8d bd
       0.062241465 -0.15063019 0.08458685 -0.06919611
000250 a1 4d cc bb f3 db 5b 3d 7c b6 32 3d be 08 5c 3d
       -0.00623484 0.053676557 0.043631062 0.053719275
000260 4a 3f 97 bd b6 0b 73 3d d0 7e 8a 3d b5 5b e8 bd
       -0.07385118 0.05933734 0.06762469 -0.11345617
000270 db 4a ff bc 7e 24 84 3d 79 e6 ea bd 18 bb 17 be
       -0.031163624 0.06452273 -0.114697404 -0.14817464
000280 8a 1a 9e 3d c4 6a 34 3d 7f 3b 75 bc 13 47 ad 3d
       0.07719906 0.044047132 -0.014967798 0.08460822
000290 53 c2 03 bd 88 f8 b8 3d 96 e2 a9 bd 88 03 dc bd
       -0.032167744 0.090317786 -0.08295171 -0.10742861
0002a0 30 ae de bc 39 6c d2 3d 18 e1 da bd 77 96 60 3b
       -0.027182668 0.10274548 -0.106874645 0.0034269372
0002b0 79 18 9c 3b ac f4 94 bd f4 f1 d1 bd 6d 8e 93 3c
       0.0047636596 -0.0727323 -0.10251227 0.01801225
0002c0 ac 02 40 3d 84 6a 33 bd 21 08 b2 3c 73 30 6b 3d
       0.046877548 -0.043802753 0.021732392 0.05741925
0002d0 c8 94 88 bd af 6e 04 be cb 05 87 bd 70 5e 93 bc
       -0.06669003 -0.12932847 -0.06592902 -0.017989367
0002e0 e0 a9 44 bd ad c3 02 3d 2c 3c 13 be 0a f5 90 3d
       -0.048013568 0.031924892 -0.14378422 0.070779875
0002f0 cc 74 55 bd c8 ff 8e bd a1 38 ad bc d7 b9 fc bd
       -0.05211334 -0.0698238 -0.021145167 -0.12340134
000300 a4 84 dd bd c3 ec 28 ba cf 93 91 bd 18 a1 8a bd
       -0.10816315 -0.00064439717 -0.071082704 -0.067690074
000310 03 7e d4 3c 0f 38 87 3d 98 e1 11 3c d8 23 7f bd
       0.025938993 0.06602489 0.008903883 -0.062290043
000320 e6 4e 8b 3d cc 81 a3 bd 2b da c1 bd 98 a5 c7 bc
       0.06802158 -0.07983741 -0.0946544 -0.024370953
000330 8b 5a 11 bd dc 23 f7 3d 10 c7 b7 bc 80 7f e6 bd
       -0.03548674 0.120673865 -0.022433788 -0.112547874
000340 54 9a 22 bd 33 ed 68 3c 22 5e 0f 3d 0a 22 f7 bd
       -0.03969796 0.014216709 0.03500188 -0.12067039
000350 71 cd ff bd 69 9c 26 bd f0 f5 02 3c 84 cd 0e be
       -0.12490357 -0.040676508 0.007993206 -0.13945585
000360 f6 8b d6 3c 87 fe 76 bd ef ed 13 3d 72 a7 03 3d
       0.026189785 -0.06030133 0.036115583 0.03214211
000370 26 43 cd bc 0b 29 30 bd 69 b9 d7 3a 9e 7e d0 bd
       -0.025056433 -0.04300789 0.0016458455 -0.101804
000380 f0 ba 04 bd a8 52 6a 3d 03 bb 17 be 20 dc cb bc
       -0.03240484 0.057207733 -0.14817433 -0.024885237
000390 ba 8a 31 bc 99 5b cf bd 78 62 72 3d 98 a0 7d 3d
       -0.010836298 -0.10124893 0.05917594 0.061920732
0003a0 a8 75 94 bc 3b a9 9d bd 88 cd 77 3d 67 21 ca bc
       -0.01812251 -0.07698294 0.060498744 -0.02467413
0003b0 c0 90 08 be 3e 73 12 3d d4 03 fc 3d 1d a0 8f 3d
       -0.13336468 0.035754435 0.12305418 0.07012961
0003c0 f4 37 8d bd 64 33 a2 3d 1f 0c b6 bd f6 a4 06 be
       -0.06895438 0.07919958 -0.08889031 -0.13148865
0003d0 c7 dd ac 3d 17 ff be bd 0c df 9f 3d ac e4 fa 3d
       0.08440738 -0.09325998 0.07806215 0.12250647
0003e0 4a 0f ac bd 19 11 9f 3d 36 51 78 bd 81 91 83 bd
       -0.08401354 0.07766933 -0.060624324 -0.06424237
0003f0 ae 4f 90 bc 9c 61 41 3d 79 b4 b8 bd 1c 92 f0 3d
       -0.01761612 0.04721223 -0.090187974 0.11746618

bias f4 [64]
000000 a1 b5 f4 bc 68 ac b5 bc e1 e9 11 be de 9e 6c bd
       -0.029871764 -0.022176936 -0.14249374 -0.057768695
000010 39 24 12 3e 04 f0 a3 bc 20 07 04 be bb 3f 81 3d
       0.1427163 -0.02001191 -0.12893343 0.06310984
000020 f4 e3 b1 bd 01 45 b6 bd a0 99 b7 ba fd 96 05 be
       -0.08686057 -0.0889988 -0.0014007576 -0.13045879
000030 05 61 1c 3d 39 a4 e7 3d 69 cc 68 3c c4 df 0d be
       0.038178463 0.1131062 0.014208891 -0.13854891
000040 01 77 5f 3c 4a 97 8e 3d 69 1f 8f bd a3 94 f0 3d
       0.013639213 0.0696245 -0.06988413 0.117471
000050 57 78 fa bd 4f bc 05 be 09 aa 1f be 8c 61 34 bd
       -0.12229984 -0.13060115 -0.15592207 -0.04403834
000060 bc 2d 62 3d c8 3e 01 3d 3a 8c 2e bb ca 37 c6 3c
       0.055219397 0.031554013 -0.0026633875 0.024196524
000070 24 b9 8b bd 3f 13 5a 3c 88 39 d0 3c 4a 72 24 be
       -0.06822422 0.013310253 0.025418058 -0.16059223
000080 38 f9 ce bc 1c 8d d7 bd 60 65 4b 3d 18 53 04 3e
       -0.025265321 -0.10524961 0.049657226 0.12922323
000090 8e 6b e1 3d 9e 32 f0 3d a3 11 01 be 63 60 40 bd
       0.110068426 0.117284045 -0.12604384 -0.04696692
0000a0 d2 5d d1 bd 11 b8 64 bd 1b 87 ed bd dd 3a 5d bd
       -0.10222973 -0.055839602 -0.11598035 -0.054011215
0000b0 19 89 74 bd 72 1c 0c 3d c4 2c d9 bd 38 bf 87 3a
       -0.05970106 0.034206815 -0.106042415 0.001035667
0000c0 04 ef 63 3d ec b9 88 3d ea a3 06 bc c2 d2 a9 bd
       0.055647865 0.06676087 -0.008217791 -0.08292152
0000d0 86 83 e0 bd f5 e5 5b 3d c0 6b 1f 3b 18 56 ae bc
       -0.10962586 0.0536861 0.0024325699 -0.021281287
0000e0 95 cc 67 bd 70 ac fa bc 65 4d dd 3b 6e 36 a4 bd
       -0.05659159 -0.030599803 0.006753611 -0.08018194
0000f0 c2 41 15 bd 5f ec 06 3e da 1d be bc f9 d2 8c 3c
       -0.036439665 0.13176106 -0.023207594 0.017190443

weight f4 [1, 64]
000000 b5 42 cd bc b5 c2 52 be fa 0b cf 3b 8c ae d6 3c
       -0.025056222 -0.20582087 0.0063185664 0.026206277
000010 49 6a 9d be cc 25 81 3c 13 39 05 3d 47 43 9d 3c
       -0.30745152 0.015765093 0.032525133 0.01919712
000020 96 69 f9 3c f4 a6 a0 3e 67 c8 9e 3b 45 45 19 bc
       0.030445855 0.31377375 0.004845667 -0.009354894
000030 39 5c 8d 3c f8 39 25 be 8b 9a 8e 3c 0d 83 a4 3d
       0.01725589 -0.16135395 0.017407676 0.080328085
000040 9f a4 e6 3d 2d 1f 8e be 66 bf 9d bb c3 85 14 be
       0.11261868 -0.2775816 -0.0048140762 -0.14504151
000050 48 0c 37 bd 8c e6 98 bd 27 b0 d4 bb 8e 3a 86 bd
       -0.044689447 -0.07465848 -0.0064907256 -0.06554137
000060 5b 5c 35 be 37 33 b8 3b 61 d1 a8 bb 6d 6e 82 be
       -0.17711012 0.0056213397 -0.005151913 -0.25474873
000070 f9 86 10 3c 98 07 a3 3b db 00 04 be 52 71 99 3c
       0.0088212425 0.0049752705 -0.12890951 0.018730793
000080 bc d1 56 3d dc e4 86 3b c3 fe b5 bd 06 3b 31 be
       0.052446112 0.0041166376 -0.088864826 -0.17307672
000090 63 55 3e be 2a d5 4f be 06 34 2b bd 16 3b 1c be
       -0.1858726 -0.2029616 -0.04179766 -0.15256914
0000a0 46 ea c5 3d b3 2f 45 bc dd 2a a6 bc 29 f5 03 bd
       0.09663825 -0.012035298 -0.02028411 -0.032216225
0000b0 15 56 9a bd 53 4f 28 3e 14 ef 4a 3d 2e 80 d4 be
       -0.0753595 0.1643651 0.04954441 -0.41504043
0000c0 d8 6c bc bb 34 4e 76 3d 55 ab ff bb 6b 6a ae 3d
       -0.00575028 0.060133174 -0.007802407 0.08516391
0000d0 7a 46 e0 3d 7d c7 b7 3e 10 7d d5 bc 7c 97 0a 3d
       0.10950942 0.35894385 -0.026060611 0.033835873
0000e0 2a 51 b4 3b 7e a4 d9 bd 13 ce cc bc 04 da 9b bd
       0.0055028396 -0.106270775 -0.025000608 -0.076099426
0000f0 69 7f ba 3d 5c 91 f7 3e d4 08 8a 3e e0 68 12 3d
       0.09106333 0.48353088 0.2695986 0.035744548
