output/pure_p_to_p/2021-12-18_ppo/2021-12-18_17-52-18-ppo_s0/pyt_save/model.pt (torch_old, 44500 bytes, 12 tensors)

log_std f4 [3]
0	0xbfe069d2	-1.7532294
1	0xbfd2b494	-1.6461358
2	0xbf4e0929	-0.8048273

weight f4 [64, 10]
0	0x3cd20ac9	0.025639908
1	0x3df15a80	0.1178484
2	0xbe93f80a	-0.28900176
3	0xbf3ecc91	-0.74530894
4	0xbd93bc3a	-0.07213636
5	0x3e0ad0db	0.13556235
6	0xbd189d59	-0.037259433
7	0x3ef47875	0.4774815
8	0xbd6f74d0	-0.05846101
9	0x3e513129	0.2042891
10	0xbd4998ee	-0.04921811
11	0xbd8293ed	-0.06375871
12	0xbf257887	-0.64637035
13	0xbed235fc	-0.41056812
14	0xbe2086a3	-0.1567636
15	0x3d49ab30	0.049235523
16	0x3df6ad4f	0.12044775
17	0x3ee5162b	0.44743475
18	0xbf2383b2	-0.63872826
19	0xbe1d0c47	-0.15336715
20	0x3e40e8b2	0.18838766
21	0x3e7dd5ed	0.24788637
22	0xbf04fded	-0.5194996
23	0x3ed6d68a	0.41960555
24	0xbd882037	-0.066467695
25	0x3d957abc	0.072988
26	0x3e998845	0.29986778
27	0xbe5dbaa2	-0.21653226
28	0xbf1f8d98	-0.6232543
29	0xbe4084b8	-0.18800628
30	0xbdd25063	-0.10269239
31	0x3e62f9d7	0.22165619
32	0x3cdcabf8	0.02693747
33	0xbf038d14	-0.51387143
34	0xbe22484f	-0.15847896
35	0xbe75f53a	-0.24019328
36	0xbe653e08	-0.22386944
37	0x3f33f5af	0.7029676
38	0x3e1d93b8	0.15388381
39	0x3e5b8b3e	0.21439835
40	0x3d9a8bda	0.07546206
41	0xbe52f105	-0.20599754
42	0xbeb90167	-0.36133882
43	0xbf0b1ab5	-0.54337627
44	0xbe588f71	-0.21148469
45	0xbde54b46	-0.11195998
46	0x3e4adfcc	0.19811934
47	0x3eab34dc	0.33438766
48	0xbef6f21c	-0.4823159
49	0x3d02827f	0.031862732
50	0x3e88601f	0.26635835
51	0x3e9282f9	0.2861555
52	0xbed5e4c0	-0.41776085
53	0x3e0caf93	0.13738851
54	0x3e58d5cf	0.21175312
55	0xbe290871	-0.16507126
56	0x3c8f100b	0.017463705
57	0xbeb3ad78	-0.35093284
58	0xbf01bc66	-0.506781
59	0xbe867afa	-0.262657
60	0x3dcaaa60	0.09895778
61	0x3e108496	0.14113078
62	0x3e85f80f	0.26165816
63	0x3ebb6a5c	0.36604583
64	0x3e3f950f	0.18709205
65	0xbd8acfcf	-0.067779176
66	0x3d259df2	0.04043383
67	0xbddd36b5	-0.1080145
68	0x3f18e94d	0.5973099
69	0x3e9e6600	0.30937195
70	0xbdeddf99	-0.116149135
71	0xbe522d97	-0.20525204
72	0xbf233f4e	-0.6376847
73	0x3eb31154	0.34974158
74	0x3eaa8fcb	0.3331283
75	0x3ebb3aef	0.365684
76	0x3d350a1a	0.044199087
77	0xbed96a37	-0.42463848
78	0xbebd6345	-0.369898
79	0xbe96321f	-0.29335114
80	0xbed15eb1	-0.40892556
81	0x3ebcdc7a	0.3688696
82	0x3f976a07	1.1829232
83	0xbde838ec	-0.11338982
84	0xbb87c12e	-0.004142902
85	0xbe0d51a7	-0.13800679
86	0x3b6e47bc	0.0036358675
87	0x3de8dc11	0.11370099
88	0x3f031c98	0.51215506
89	0xbe45b8e0	-0.19308805
90	0x3e25a2ba	0.16175357
91	0x3e00b202	0.12567905
92	0xbe56e0ca	-0.20984188
93	0x3ddd4cd5	0.1080567
94	0xbe9f2f69	-0.3109086
95	0xbe3cda19	-0.18442573
96	0x3e36137d	0.17780872
97	0x3dff0952	0.124529496
98	0xbf210608	-0.6289983
99	0xbe607702	-0.21920398
100	0x3e90e593	0.2830015
101	0x3e4a3211	0.19745661
102	0xbf5d9482	-0.8655473
103	0xbec69c19	-0.38790968
104	0xbe9b7108	-0.30359674
105	0xbd4ac80a	-0.04950718
106	0xbea8caed	-0.3296732
107	0xbe8ffcfb	-0.28122696
108	0xbeb29262	-0.34877306
109	0x3da6918b	0.08133229
110	0xbe585076	-0.21124443
111	0x3e85c651	0.26127866
112	0x3f0ed7e3	0.55798167
113	0x3f22e52a	0.63630927
114	0x3e2af727	0.16695844
115	0xbeaae985	-0.33381286
116	0xbcf554c6	-0.02994765
117	0xb9845206	-0.00025238114
118	0x3ee17174	0.4403187
119	0x3d0e79ac	0.034784004
120	0x3e29813f	0.1655321
121	0x3d96c4f2	0.07361783
122	0x3d9f550c	0.07779893
123	0x3ed7a028	0.42114377
124	0xbec1b684	-0.3783456
125	0xbe0ea224	-0.13929039
126	0xbd9df86a	-0.07713397
127	0x3e3aa565	0.18227156
128	0xbe31f5ee	-0.17378971
129	0xbee79aa1	-0.4523516
130	0xbc7b8b46	-0.01535303
131	0x3d1868bf	0.03720927
132	0xbef8f7c3	-0.48626527
133	0x3da5a6b2	0.08088435
134	0x3e646b2f	0.22306512
135	0x3bedaeb5	0.0072534927
136	0x3d7f0328	0.06225887
137	0x3e2e42e9	0.17017712
138	0xbea006e6	-0.31255263
139	0x3e5c1109	0.21490873
140	0x3e808826	0.25103873
141	0x3e65c600	0.22438812
142	0xbe2526aa	-0.1612803
143	0xbbc69915	-0.0060607293
144	0xbeae34bb	-0.34024605
145	0xbe67c5b4	-0.22634012
146	0x3e83f4ad	0.2577261
147	0xbc5d076c	-0.013490539
148	0xbebba997	-0.36652824
149	0xbe7024ae	-0.23451492
150	0xbe4c2c57	-0.1993879
151	0xbe76c57c	-0.24098772
152	0xbecf48e9	-0.40485314
153	0x3ed58d88	0.41709542
154	0x3df7c591	0.1209823
155	0xbe7a9acc	-0.24473113
156	0x3e8346f7	0.2564008
157	0xbe893e28	-0.26805234
158	0xbece3313	-0.40273342
159	0xbe401c68	-0.18760836
160	0xbd2d259c	-0.042272195
161	0xbd77cd2c	-0.0604984
162	0xbf3ab374	-0.72930074
163	0xbf13a818	-0.57678366
164	0xbd9e7d26	-0.07738714
165	0x3c4c2921	0.012460978
166	0xbe28b7b8	-0.16476333
167	0x3ead9af5	0.33907285
168	0xbf37b769	-0.71764237
169	0xbb42e26d	-0.002973701
170	0x3e7f5e6a	0.2493836
171	0xbdc3f988	-0.09569079
172	0x3f320393	0.69536704
173	0x3edcc9c4	0.43122685
174	0xbe984a4a	-0.29744178
175	0x3e3ca8b3	0.18423729
176	0xbc9f7394	-0.019464292
177	0xbe9a39bc	-0.30122173
178	0x3f13dcbd	0.57758695
179	0xbea261d6	-0.31715268
180	0xbb7e4be8	-0.0038802568
181	0xbd65e3d3	-0.056125473
182	0xbeaaf7f4	-0.33392298
183	0x3d877a24	0.06615093
184	0x3e02fd34	0.12791902
185	0x3d18da22	0.037317403
186	0xbdb462e1	-0.08807922
187	0xbf11b789	-0.5692068
188	0xbe72e05c	-0.23718399
189	0x3e83080b	0.25592074
190	0x3e91480b	0.28375277
191	0x3e5697fc	0.20956415
192	0xbee27033	-0.44226226
193	0xbcf3fae7	-0.029782725
194	0xbe7a971d	-0.24471708
195	0xbe1c4d80	-0.15263939
196	0xbe35948e	-0.1773245
197	0x3eb4395f	0.3520002
198	0xbf10d589	-0.5657583
199	0xbd14e670	-0.036352575
200	0x3b933690	0.0044925883
201	0x3e622aaa	0.22086588
202	0x3d97e959	0.074175544
203	0xbeed5b46	-0.463587
204	0xbe5446e6	-0.2073017
205	0x3e7e3e51	0.2482846
206	0xbde987dc	-0.11402866
207	0x3f38d7ba	0.7220417
208	0x3d89b271	0.06723488
209	0x3d8a77cc	0.06761131
210	0xbd1bc9c2	-0.038034208
211	0xbd7ece3d	-0.062208403
212	0x3e398db7	0.18120466
213	0x3ce47651	0.027888449
214	0x3cceee12	0.025260005
215	0x3c3afb9c	0.011412527
216	0xbe72be50	-0.23705411
217	0xbedaaa07	-0.42707846
218	0x3f1aaeec	0.6042316
219	0xbe6a4cc9	-0.22880854
220	0xbb886f8f	-0.0041636894
221	0x3e90a043	0.2824727
222	0xbd8ad3ab	-0.06778654
223	0xbeca62c8	-0.3952849
224	0xbe8708c8	-0.26373887
225	0x3e33788b	0.17526452
226	0xbe90fe8d	-0.28319207
227	0x3e6f720c	0.23383349
228	0xbebe3b93	-0.37154827
229	0xbd2282ad	-0.039675403
230	0xbdb4602c	-0.08807406
231	0x3ea191df	0.31556603
232	0x3edcae8b	0.43101916
233	0x3f4611db	0.77370995
234	0x3e1a3c48	0.15062058
235	0xbe995d20	-0.2995386
236	0x3e567450	0.20942807
237	0xbec37b6f	-0.3818011
238	0x3e043fb6	0.12914929
239	0x3d018ab3	0.031626415
240	0x3dc1afe5	0.09457377
241	0x3e6aa478	0.22914302
242	0xbf24c563	-0.6436369
243	0x3de8b20c	0.11362085
244	0x3e264fb2	0.16241339
245	0xbeba0113	-0.36328945
246	0x3e5d404b	0.21606557
247	0xbf1f9401	-0.6233521
248	0xbe0e788f	-0.13913177
249	0xbdab5c16	-0.083671734
250	0xbdc3f1fb	-0.095676385
251	0xbc97e8d0	-0.01854363
252	0xbd660f0b	-0.05616669
253	0xbeda427b	-0.42628846
254	0xbe1813ad	-0.14851256
255	0xbd3dabdf	-0.046306487

bias f4 [64]
0	0xbe23d32b	-0.15998523
1	0x3d3825cb	0.044957917
2	0x3d9b9b2e	0.075979576
3	0x3cc3736d	0.02385875
4	0xbe3d42aa	-0.18482462
5	0x3e7bca0e	0.24588796
6	0xbe35fe47	-0.1777278
7	0x3e68d81b	0.22738688
8	0xbe61359f	-0.21993111
9	0xbd8b798f	-0.06810295
10	0x3e019905	0.12656029
11	0xbdf0276a	-0.11726268
12	0x3e5c158d	0.21492596
13	0xbe3adc30	-0.18248057
14	0xbe6be4cc	-0.23036498
15	0xbde2a39a	-0.11066361
16	0x3d611d2e	0.05495947
17	0x3e8b3849	0.2719138
18	0xbe0b2cfd	-0.1359138
19	0x3dd32d86	0.10311417
20	0xbd835453	-0.06412568
21	0xbd641cbd	-0.05569147
22	0x3e55bb5f	0.20872258
23	0xbe6ebf18	-0.23315084
24	0x3ca7a161	0.020462694
25	0x3e90d2ae	0.28285736
26	0xbcfb259f	-0.030657588
27	0x3e627e30	0.22118449
28	0xbdae6993	-0.085162304
29	0x3e5b0ec0	0.21392345
30	0xbe828ce9	-0.2549813
31	0xbd21a141	-0.039460424
32	0xbd2ada98	-0.041712373
33	0x3db78b77	0.08962148
34	0x3de1c8fe	0.11024664
35	0x3e53fa4c	0.2070095
36	0xbd472377	-0.048617806
37	0xbc77cf07	-0.015125043
38	0x3e3e8b8c	0.1860792
39	0xbdbe0611	-0.09278501
40	0x3e7f41b7	0.24927412
41	0xbe3f2863	-0.1866775
42	0xbd189a67	-0.037256625
43	0xbc09174b	-0.00836737
44	0x3e04d7de	0.12972972
45	0x3e338c42	0.17533973
46	0xbd2eaaa1	-0.042643193
47	0xbe7ea8bc	-0.24869055
48	0x3de3a353	0.11115136
49	0x3da5012e	0.08056866
50	0x3dd72358	0.10504788
51	0xbe2608a3	-0.16214232
52	0x3e2e204a	0.17004505
53	0x3e5c7cb4	0.21531945
54	0x3c3f19f1	0.0116639
55	0xbe83a059	-0.25708273
56	0x3e3cd065	0.18438871
57	0xbe494e66	-0.19658813
58	0x3d80aefc	0.062833756
59	0x3d3eb216	0.046556555
60	0xbe0b33e0	-0.13594007
61	0x3dc350b1	0.09536875
62	0xbe85de58	-0.26146197
63	0x3d559974	0.052148297

weight f4 [64, 64]
0	0xbd6a1eb9	-0.057158206
1	0x3d4434e1	0.04790199
2	0xbbcdff22	-0.0062865177
3	0x3db57d9b	0.08861848
4	0xbcc38ed2	-0.023871813
5	0x3da86986	0.08223252
6	0xbd15151c	-0.036397085
7	0xbd8a41b4	-0.06750813
8	0xbe03c94f	-0.12869762
9	0xbddd542a	-0.10807069
10	0x3e50eac6	0.20402059
11	0xbdb81cee	-0.08989893
12	0xbd265b8d	-0.040614653
13	0x3d65494d	0.05597811
14	0x3da86afe	0.08223532
15	0x3de11103	0.10989573
16	0x3ecd5fab	0.4011205
17	0xbe0e1abd	-0.13877387
18	0x3da1b266	0.07895355
19	0xbd5ba6e6	-0.053625964
20	0xbdd75572	-0.10514344
21	0x3cc5c6d9	0.02414267
22	0x3dfdb97b	0.12388893
23	0xbde5daa8	-0.11223346
24	0x3db8d78b	0.090254866
25	0xbd614c85	-0.055004615
26	0xbec3712e	-0.38172287
27	0x3dc52b3d	0.09627388
28	0x3ad426d1	0.0016185885
29	0xbc71bcfe	-0.014754532
30	0xbdd6a2be	-0.10480259
31	0x3dfe7563	0.124247335
32	0xbe1fba80	-0.15598488
33	0xbe2c8afa	-0.1684989
34	0x3cdf6a60	0.027272403
35	0xbe00f7a9	-0.12594475
36	0xbce85ec3	-0.028365498
37	0xbdc3fa6c	-0.095692486
38	0x3db71c94	0.08940998
39	0x3e71096c	0.2353875
40	0x3d24f739	0.040274832
41	0x3e20e144	0.15710932
42	0x3ee120ce	0.4397034
43	0xbe6688b8	-0.22513092
44	0xbc991c14	-0.018690147
45	0xbd1301a4	-0.035890236
46	0x3d655a67	0.055994418
47	0x3d29b654	0.041433647
48	0x3d6123eb	0.054965895
49	0x3e160021	0.14648487
50	0xbd34b2d2	-0.04411585
51	0x3d239091	0.03993279
52	0xbd4077d0	-0.046989262
53	0x3e17e319	0.14832725
54	0x3ec0386b	0.37543043
55	0xbd7e6b94	-0.062114313
56	0xbc7f7e42	-0.015594067
57	0x3e1890d7	0.14899002
58	0xbe274631	-0.1633537
59	0x3cd59481	0.026071789
60	0x3bf4fba2	0.007476286
61	0xbe024201	-0.12720491
62	0xb94562ba	-0.00018824163
63	0x3ead090c	0.33795965
64	0xbe064c20	-0.13114977
65	0xbd126a53	-0.03574593
66	0x3db856d1	0.09000934
67	0xbea15c08	-0.31515527
68	0x3d88b09f	0.06674313
69	0x3dbb622c	0.09149584
70	0x3d2c5bf7	0.042079892
71	0xbd4b70b5	-0.049668033
72	0x3dd6c742	0.10487224
73	0xbd0dd170	-0.034623563
74	0x3e279b28	0.16367781
75	0xbe1080ed	-0.14111681
76	0xbdd41136	-0.10354845
77	0x3d9afa32	0.07567252
78	0x3c702361	0.0146568725
79	0x3d41eabc	0.047343
80	0xbc39100e	-0.011295332
81	0xbd68c8cc	-0.05683212
82	0x3cd05b4f	0.025434164
83	0xbdedd3d2	-0.11612667
84	0xbdfcd290	-0.12344849
85	0x3cac1f8e	0.02101114
86	0xba8b880c	-0.0010645404
87	0x3d68e2f0	0.05685705
88	0x3e5558cd	0.20834656
89	0x3d102edb	0.035200935
90	0xbeabfcfe	-0.33591455
91	0xbcefac45	-0.02925695
92	0xbd84a687	-0.06477075
93	0xbda5f4a8	-0.08103305
94	0xbd26f2a6	-0.04075875
95	0xbd2cd9bb	-0.04219983
96	0xba0e9b26	-0.0005439989
97	0xbde7c116	-0.11316125
98	0x3dc19628	0.09452468
99	0xbdcb2a34	-0.09920159
100	0x3e72eafb	0.2372245
101	0xbbe3b129	-0.0069486094
102	0x3e04fde7	0.12987481
103	0x3e08ce3e	0.13359925
104	0x3c8b11e8	0.016976312
105	0x3cb62c93	0.022238052
106	0x3e7fa56c	0.24965447
107	0xbd6012af	-0.054705318
108	0x3d9d3d63	0.07677724
109	0xbd8c4e6c	-0.06850895
110	0x3e0887a3	0.13332991
111	0x3d7da128	0.06192127
112	0xbd5b9818	-0.053611845
113	0x3dc9953e	0.09842919
114	0xbd04f60c	-0.03246121
115	0x3d1b7b90	0.037959635
116	0x3e143689	0.14473929
117	0xbc28c4cd	-0.010300827
118	0x3e2a57b2	0.16635016
119	0xbd0eb62b	-0.034841698
120	0xbd095adc	-0.033533916
121	0xbba031b9	-0.00488874
122	0xbd2ae2af	-0.04172009
123	0xbe38c1ee	-0.18042728
124	0x3d77b7de	0.060478084
125	0xbcdd6dd1	-0.027029904
126	0x3dc492e1	0.095983274
127	0x3e2bb6e4	0.16768986
128	0x3ce19aaf	0.02753958
129	0x3dfdb9ab	0.12388929
130	0xbd8933ab	-0.06699308
131	0xbbd174d8	-0.0063921027
132	0x3d76ce8a	0.060255565
133	0xbd143381	-0.03618193
134	0xbdcb53ce	-0.09928094
135	0x3d0e785f	0.034782764
136	0xbd55b4a3	-0.05217422
137	0x3e35ea31	0.17765118
138	0x3d66ba97	0.05633029
139	0xbc968a3b	-0.01837646
140	0x3d432b73	0.04764886
141	0xbca49d47	-0.020094527
142	0x3d966839	0.07344098
143	0x3dddeaf4	0.108358294
144	0x3e9af7bc	0.3026713
145	0xbc099f9d	-0.008399871
146	0x3d60e33f	0.05490422
147	0x3e23964d	0.15975304
148	0xbdaeeb1a	-0.08540936
149	0xbdd0d81a	-0.10197468
150	0x3d878cf4	0.066186816
151	0xbdf0ed8b	-0.11764058
152	0x3c4b9578	0.012425773
153	0xbd0ea66e	-0.03482669
154	0xbe87d4f2	-0.26529652
155	0xbdf4a2f3	-0.119451426
156	0x3e086503	0.13319783
157	0x3dcc65c9	0.099803515
158	0x3c887f1e	0.016662177
159	0xbdb93dcb	-0.09044989
160	0x3dedf86c	0.11619648
161	0xbdefd2f5	-0.11710159
162	0x3c8bdd1d	0.017073208
163	0xbd849a00	-0.06474686
164	0x3dbbb5a4	0.091655046
165	0xbd464a9e	-0.048411004
166	0x3d07f5d4	0.033193424
167	0x3dfb9078	0.122834146
168	0xbdf71df8	-0.12066263
169	0x3cabb7f3	0.020961737
170	0x3e4d4c5d	0.20048662
171	0xbe30b185	-0.17255218
172	0x3e0adff9	0.13562001
173	0x3e1f0e06	0.15532693
174	0xbc83e1ab	-0.016098818
175	0x3cc29884	0.023754366
176	0xbd72b974	-0.059258893
177	0xbe4d5fbd	-0.20056053
178	0xbe077fda	-0.13232365
179	0x3dd33499	0.103127666
180	0x3db1b4d3	0.086770676
181	0x3db56f81	0.08859158
182	0x3e694d61	0.22783424
183	0xbde1404f	-0.10998594
184	0xbd2b38c0	-0.041802168
185	0x3e0a0e3a	0.1348199
186	0xbe195d37	-0.14976965
187	0x3a9c17e8	0.001190898
188	0x3c0aa6df	0.008462637
189	0x3c9bf7ba	0.019039024
190	0xbcb22ce3	-0.02174992
191	0x3e5e1d6b	0.2169091
192	0xbdb922ff	-0.09039878
193	0x3e5a88e7	0.21341287
194	0x3dea081a	0.114273265
195	0x3c7abe9e	0.015304236
196	0x3e142310	0.144665
197	0x3e0b6ed1	0.13616492
198	0x3d63854e	0.05554705
199	0x3da5d655	0.08097521
200	0x3da1ba96	0.078969166
201	0x3e0bf90e	0.13669226
202	0xbde4e0b3	-0.111756705
203	0xbd9e553d	-0.07731102
204	0x3cc1a41b	0.023637822
205	0xbd836fe4	-0.06417826
206	0x3dd64a8a	0.10463436
207	0x3d71b513	0.059010576
208	0x3e3b6835	0.1830147
209	0x3cae0225	0.021241257
210	0x3d7f4706	0.062323593
211	0x3e1e7919	0.15475883
212	0xbd1cd6f7	-0.038290944
213	0xbe0b6d6e	-0.13615963
214	0x3d8f7c32	0.0700611
215	0x3c70aea4	0.014690075
216	0x3d1e8a81	0.038706306
217	0xbdc507ce	-0.09620629
218	0xbe4c2941	-0.19937612
219	0x3d8153ea	0.063148335
220	0x3e0a8e20	0.13530779
221	0xbe012b97	-0.12614284
222	0x3d89452d	0.06702647
223	0xbe77b17f	-0.24188803
224	0x3e885cfb	0.26633438
225	0x3ce9a240	0.02851975
226	0x3e2f951c	0.17146724
227	0xbdc37c3b	-0.095451795
228	0xbdf1ce8a	-0.11806972
229	0x3dfbc454	0.12293306
230	0x3e0d6181	0.13806726
231	0xbdccbc4b	-0.099968515
232	0x3dd4c8b3	0.10389843
233	0xbe03d326	-0.12873515
234	0xbd76d377	-0.060260262
235	0xbe7e05c6	-0.2480689
236	0x3d9f20b8	0.077699125
237	0xbd2006b5	-0.039068896
238	0xbe34e05a	-0.17663708
239	0x3d1f53a0	0.03889811
240	0xbcc913fe	-0.024545666
241	0xbe5628a5	-0.20913942
242	0xbdf9e4b4	-0.12201825
243	0xbe10306d	-0.14080973
244	0x3d5f8bd7	0.05457672
245	0xbdb5a1f1	-0.088687785
246	0xbea6453b	-0.32474694
247	0xbdba2ea6	-0.09090929
248	0xbe222f9a	-0.15838471
249	0xbe192880	-0.14956856
250	0xba79cc9f	-0.0009529087
251	0x3d1cec37	0.03831121
252	0x3bfbef43	0.0076884343
253	0xbe112c11	-0.14176966
254	0x3d8eabbc	0.069663495
255	0xbd4e436d	-0.05035727

bias f4 [64]
0	0x3de305ed	0.11085115
1	0x3ce6d5d5	0.028178135
2	0x3d3e98cd	0.04653244
3	0xbd518cef	-0.051159795
4	0xbdd596c5	-0.10429148
5	0xbd55b037	-0.052170005
6	0xba74e23f	-0.00093415746
7	0xbd7904a5	-0.060795445
8	0x3de3d6e7	0.11124974
9	0xbda9e767	-0.082960896
10	0xbdac8f9a	-0.08425827
11	0xbd24ac80	-0.04020357
12	0x3dd60d22	0.10451724
13	0xbd536422	-0.051609166
14	0x3dd55645	0.10416845
15	0x3d39e53a	0.045384623
16	0xbc9ac6dc	-0.018893652
17	0x3d85872b	0.06519922
18	0x3d5c5768	0.053794295
19	0xbd65007a	-0.055908658
20	0xbc90f12a	-0.017693121
21	0x3dfec071	0.12439049
22	0x3d94b088	0.07260233
23	0xbd8f8231	-0.07007254
24	0xbd414c09	-0.047191653
25	0x3d76a5d6	0.060216747
26	0x3d8a9dbd	0.067683674
27	0x3c5fe753	0.013665992
28	0xbd8c658e	-0.068553075
29	0xbdba0066	-0.09082107
30	0xbcf3986e	-0.02973577
31	0x3d2e0bf9	0.042491887
32	0xbc9d2a6b	-0.019185266
33	0xbde3bbc7	-0.111198
34	0xbcdb8a94	-0.026799478
35	0x3de98aa0	0.11403394
36	0xbdbc1930	-0.09184492
37	0xbdac5fc0	-0.084167
38	0x3d890fb1	0.06692446
39	0x3dfc13f6	0.12308495
40	0xbe0101df	-0.1259837
41	0xbddbc629	-0.107311554
42	0xbd2d0d33	-0.042248916
43	0x3df86b03	0.12129786
44	0xbd951329	-0.07279045
45	0x3b486971	0.0030580426
46	0x3db7366e	0.089459285
47	0xbd2089e3	-0.039194
48	0xbd292ce8	-0.04130259
49	0xbda1dca0	-0.07903409
50	0x3c0c6af8	0.008570425
51	0x3de552ae	0.111974105
52	0x3d44c9f3	0.048044156
53	0x3da345f3	0.07972326
54	0x3b39cca3	0.0028350733
55	0xbc1ac366	-0.009446001
56	0xbd195049	-0.03743008
57	0x3d81622b	0.06317552
58	0xbcb3e3ed	-0.02195927
59	0xbdbd03b8	-0.09229225
60	0xbd28b683	-0.04118968
61	0x3d1e618c	0.038667247
62	0x3df71e33	0.12066307
63	0xbc9abd92	-0.018889222

weight f4 [3, 64]
0	0xbe157706	-0.14596185
1	0xbe42cad2	-0.19022682
2	0xbeda64d7	-0.4265506
3	0xbe7f2a10	-0.2491839
4	0x3e4c6cdf	0.19963406
5	0x3e365e4c	0.17809409
6	0x3e8ff16a	0.28113872
7	0x3c7ae1c8	0.0153126195
8	0x3e1ad411	0.1511996
9	0x3e0d7797	0.13815151
10	0x3e406109	0.18787016
11	0x3e20e204	0.15711218
12	0x3e2fc7ca	0.17166057
13	0xbe9bd56c	-0.30436265
14	0xbe0d8fa5	-0.13824327
15	0x3da67f01	0.08129693
16	0x3e2a8af4	0.16654569
17	0xbe6a51b9	-0.22882737
18	0xbe3b0d15	-0.18266709
19	0xbe796991	-0.24356677
20	0x3e2f4e51	0.17119719
21	0x3ef86088	0.48511147
22	0xbe690f5d	-0.22759767
23	0xbe082106	-0.13293847
24	0xbe164b20	-0.14677095
25	0x3e375234	0.17902452
26	0xbe7bfb26	-0.24607524
27	0xbe86518d	-0.26234093
28	0xbe4f4586	-0.20241365
29	0x3ec2e836	0.38067788
30	0xbe971163	-0.29505453
31	0x3ea4a5be	0.321577
32	0x3e1d475a	0.1535925
33	0xbe2d0f0c	-0.16900271
34	0xbe3c5135	-0.18390353
35	0xbda91156	-0.0825526
36	0x3d889db3	0.06670704
37	0xbe0f055b	-0.13966887
38	0x3dfe46f7	0.12415879
39	0x3ef22b3b	0.47298607
40	0xbe27c187	-0.16382419
41	0xbd89159f	-0.06693577
42	0xbe6fc01e	-0.2341313
43	0x3e75677b	0.23965256
44	0x3e907220	0.2821207
45	0xbbe42823	-0.0069627925
46	0xbe4bb52a	-0.19893327
47	0xbeb0aaa8	-0.345052
48	0xbee82a14	-0.45344603
49	0xbe1519d5	-0.14560635
50	0xbe005765	-0.12533338
51	0xbe24adb2	-0.16081885
52	0xbe8ecc20	-0.2789011
53	0xbd14e9ac	-0.03635566
54	0x3dfe3f11	0.12414373
55	0x3db33b13	0.08751502
56	0x3d4a614c	0.049409196
57	0xbe317121	-0.17328312
58	0x3e39da17	0.18149601
59	0x3d9bb099	0.07602043
60	0x3dfd4148	0.12365967
61	0xbd93598e	-0.071948156
62	0x3e222b62	0.15836862
63	0xbe872e5c	-0.26402557
64	0x3d2e51fc	0.042558655
65	0x3e44c5b2	0.1921604
66	0xbda5aca1	-0.08089567
67	0xbe9a98a2	-0.30194575
68	0x3d67b40a	0.056568183
69	0xbc951b88	-0.018201604
70	0x3e43635f	0.19080876
71	0x3e6f4c01	0.23368837
72	0x3cf422bd	0.02980172
73	0xbd1d9b01	-0.0384779
74	0x3e21ee5b	0.15813582
75	0x3e16899b	0.1470093
76	0xbe22eec8	-0.159114
77	0xbe7d3bed	-0.24729891
78	0x3df558fc	0.11979863
79	0x3e520f1e	0.20513579
80	0x3e3938ff	0.18088149
81	0x3d533fb3	0.05157442
82	0x3e1a7984	0.15085417
83	0xbe6a236c	-0.22865075
84	0xbdae1cbf	-0.08501577
85	0xbdcc701c	-0.09982321
86	0x3e0739d0	0.13205647
87	0x3e7d67b5	0.24746592
88	0x3dbed282	0.09317495
89	0x3e9a1a34	0.30098116
90	0xbe35e265	-0.17762144
91	0xbe905e0c	-0.28196752
92	0xbe9336bb	-0.28752694
93	0x3ded1acf	0.11577379
94	0x3e6245d8	0.22096956
95	0xbe76b6ef	-0.24093221
96	0xbc056718	-0.008142255
97	0x3e332c83	0.17497449
98	0xbeb350e2	-0.35022646
99	0xbdedc621	-0.11610056
100	0x3e1bacd0	0.15202641
101	0xbe2ce2f2	-0.16883448
102	0xbd8707fe	-0.06593321
103	0x3ead171f	0.33806702
104	0xbd4cae26	-0.04997077
105	0x3e2c624f	0.16834377
106	0x3e75c0fc	0.23999399
107	0xbe23e3af	-0.16004823
108	0x3e9ed39c	0.3102082
109	0xbe8a3f1e	-0.2700128
110	0x3d8e9eca	0.0696388
111	0xbdcf057e	-0.101084694
112	0xbd05b389	-0.03264192
113	0x3e3d1db5	0.18468364
114	0xbe804b04	-0.25057232
115	0xbae6d4b1	-0.0017610994
116	0x3e152e01	0.1456833
117	0x3ed391a9	0.41322067
118	0xbe72e8f6	-0.2372168
119	0xba33d4bb	-0.00068600074
120	0x3e76396c	0.24045342
121	0xbe3a6ccd	-0.18205567
122	0x3ea102b2	0.3144737
123	0xbe175f5e	-0.14782473
124	0x3e09b5cb	0.13448255
125	0xbe30eed3	-0.17278604
126	0xbbe41adc	-0.0069612097
127	0xbde9270a	-0.11384399
128	0x3e56b351	0.20966841
129	0x3d504e4a	0.050855912
130	0x3de81e42	0.11333896
131	0xbef05c6d	-0.46945515
132	0xbf61db97	-0.8822569
133	0xbe9ed9b9	-0.31025484
134	0xbe116be6	-0.14201316
135	0xbf1ae6fa	-0.6050869
136	0x3eb05ba2	0.3444491
137	0xbece43d0	-0.40286112
138	0xbf910063	-1.1328243
139	0xbe0dbcd9	-0.13841571
140	0xbf289919	-0.6585861
141	0xbccf9769	-0.025340753
142	0xbe3581f5	-0.17725356
143	0xbeb06b4d	-0.34456864
144	0x3d01a24d	0.031648923
145	0x3f15de3d	0.58542234
146	0x3dafd29c	0.085850924
147	0x3cb4a935	0.02205334
148	0xbda67a53	-0.081288
149	0xbd743099	-0.05961666
150	0x3e05f183	0.1308041
151	0xbe67e33d	-0.22645278
152	0xbea44d73	-0.3209034
153	0x3ddafc31	0.10692633
154	0x3e464d42	0.19365409
155	0xbe677391	-0.22602679
156	0x3dcfe41e	0.10150932
157	0xbf3f866b	-0.7481448
158	0x3cc02a34	0.023457624
159	0xbe2c4780	-0.1682415
160	0x3d44dbd4	0.048061207
161	0xbeb1fb2d	-0.34761944
162	0xba800f96	-0.000977027
163	0xbe07e89f	-0.13272332
164	0x3e669030	0.2251594
165	0xbd883323	-0.066503786
166	0xbe750282	-0.23926738
167	0xbeea192f	-0.4572234
168	0xbe325703	-0.17416005
169	0x3ef5bc5a	0.47995263
170	0xbe5a870c	-0.21340579
171	0xbd69b62f	-0.05705851
172	0x3d92b05b	0.071625434
173	0xbef70c2e	-0.4825148
174	0xbe5adf34	-0.21374208
175	0x3e71aab3	0.23600273
176	0xbe8d8522	-0.27640635
177	0xbe23d75b	-0.1600012
178	0x3e2d9047	0.16949569
179	0x3d88fe8d	0.06689177
180	0x3ee03273	0.4378849
181	0xbac17e1d	-0.0014762316
182	0x3de96934	0.11397019
183	0xbe137994	-0.14401847
184	0xbe6732ba	-0.22577944
185	0xbdcb1098	-0.099152744
186	0xbdff37ca	-0.12461813
187	0x3eb62601	0.3557587
188	0xbdec044e	-0.115242586
189	0xbedc25b0	-0.42997503
190	0x3f054e2b	0.520724
191	0x3ee9a9b0	0.45637274

bias f4 [3]
0	0x3d5b2c88	0.053509265
1	0x3df174d7	0.117898636
2	0x3dfc65a1	0.12324072

weight f4 [64, 10]
0	0x3f81b358	1.0132856
1	0x3dafb0a6	0.08578615
2	0x3f1d5792	0.61461747
3	0x3f1717ae	0.5902051
4	0x3e4a4ce7	0.19755898
5	0x3f3ae435	0.73004466
6	0xbd8e89cb	-0.06959876
7	0xbdd3e05b	-0.10345527
8	0x3ed0df1a	0.40795213
9	0x3ede0eb4	0.43370593
10	0xbf56bf73	-0.8388588
11	0x3f1ee8a2	0.6207372
12	0x3f31e00e	0.69482505
13	0x3f2153d6	0.6301855
14	0xbf250df1	-0.644744
15	0xbf7061b1	-0.93899065
16	0x3dade1e9	0.084903546
17	0xbed81360	-0.42202282
18	0xbf06c504	-0.5264437
19	0x3f0b9b1c	0.54533553
20	0x3edd3b62	0.43209368
21	0x3f33bfad	0.7021435
22	0x3e1b0dc5	0.15141971
23	0xbec397ea	-0.3820184
24	0xbf2588bd	-0.6466177
25	0x3f0b4cbf	0.5441398
26	0xbeb47f62	-0.35253435
27	0xbff38918	-1.9026213
28	0x3e3c584b	0.18393056
29	0x3ec89abb	0.3918055
30	0xbd4e33ed	-0.05034249
31	0xbdd24d33	-0.10268631
32	0xbdcc59bd	-0.09978054
33	0x3f05ec00	0.5231323
34	0x3ece426c	0.4028505
35	0x3d2418a9	0.04006258
36	0x3e87ec9e	0.26547712
37	0x3e28e564	0.16493756
38	0xbf6c617d	-0.92336255
39	0x3e85763f	0.26066777
40	0xbf130fe2	-0.5744611
41	0x3f1b1936	0.60585344
42	0xbe2d0865	-0.16897734
43	0xbf4aeb9a	-0.7926575
44	0xbf325b91	-0.6967097
45	0xbf617432	-0.88067925
46	0x3e3c8e61	0.18413688
47	0x3f192f2a	0.5983759
48	0xbf09ffb6	-0.5390581
49	0xbf09a1bb	-0.53762406
50	0xbf362041	-0.71142966
51	0xbf32c992	-0.6983882
52	0x3f50b7e4	0.81530595
53	0x3ed79bc0	0.42111015
54	0x3f5e16d1	0.86753565
55	0xbf4ff59b	-0.8123414
56	0xbd5bd236	-0.05366727
57	0x3f9fe136	1.2490604
58	0xbed90f7c	-0.42394626
59	0xbe4ebb2c	-0.20188588
60	0x3ddca591	0.10773767
61	0xbe0e906c	-0.1392228
62	0xbe8263b1	-0.25466684
63	0xbf77dbb6	-0.9681963
64	0x3e8b2e28	0.27183652
65	0x3c1dcb2b	0.009630959
66	0xbf0355cc	-0.5130279
67	0xbf106472	-0.5640327
68	0xbe8151c1	-0.25257686
69	0xbf516560	-0.8179531
70	0x3ce23886	0.027614843
71	0xbe07778e	-0.132292
72	0xbe6571d4	-0.22406703
73	0x4004200e	2.0644565
74	0x3ac7221f	0.0015192664
75	0x3dbed68a	0.09318264
76	0x3e444f67	0.19170915
77	0x3f8e252b	1.1105093
78	0xbed20be3	-0.41024694
79	0x3f900c2f	1.1253718
80	0x3f2d2ec2	0.6764947
81	0xbf222583	-0.6333849
82	0x3e21f1f2	0.15814951
83	0x3da1e2cd	0.07904587
84	0x3f0d5851	0.55212885
85	0x3f324a73	0.6964485
86	0xbea7957a	-0.3273123
87	0xbe42f128	-0.19037306
88	0xbf25e819	-0.6480728
89	0x3ebad5b7	0.36491176
90	0xbf1c3b24	-0.6102774
91	0xbea0274b	-0.31279978
92	0xbfa857cf	-1.3151797
93	0x3f058668	0.5215821
94	0x3f09219c	0.5356691
95	0xbeda4c7e	-0.42636484
96	0x3e9be824	0.30450547
97	0x3f8d4a9d	1.1038395
98	0xbed7aaf8	-0.42122626
99	0xbe309ab2	-0.17246512
100	0x3f3cc6ec	0.7374103
101	0xbf689eb5	-0.9086717
102	0x3b02abcd	0.0019938827
103	0x3f4e0d69	0.8048921
104	0x3f8aa62f	1.0831965
105	0x3e8bf0ae	0.27332062
106	0xbe9159ac	-0.28388727
107	0x3f0ff6f4	0.56236196
108	0x3c185c5d	0.009299365
109	0x3ecca21d	0.39967433
110	0xbf3247ae	-0.69640625
111	0xbd4ae097	-0.04953059
112	0xbca06161	-0.019577684
113	0xbfecd17f	-1.8501433
114	0x3e86e6ff	0.2634811
115	0xbeb04916	-0.3443076
116	0xbf188a81	-0.5958634
117	0xbeef42ef	-0.46730754
118	0xbd7aa145	-0.061188955
119	0xbf9b4360	-1.2129936
120	0xbe4361eb	-0.19080321
121	0xbe1bd2ba	-0.15217105
122	0x3d0d9d2a	0.03457371
123	0x4008ec5d	2.1394265
124	0x3dcb1119	0.099153705
125	0xbe80ca72	-0.25154454
126	0x3e8b0a73	0.2715641
127	0x3dacfc28	0.084465325
128	0x3f40d937	0.75331444
129	0x3f9a9277	1.2075948
130	0xbcb69c37	-0.022291286
131	0xbf5f662c	-0.87265277
132	0xbd11e62f	-0.03561991
133	0x40048317	2.070501
134	0x3eb028dd	0.34406176
135	0xbe863e23	-0.26219282
136	0xbb81814e	-0.003952182
137	0x3f811d4a	1.0087063
138	0x3f2cd1aa	0.6750742
139	0x3ee906f3	0.45513114
140	0xbed73b22	-0.42037302
141	0x3ebbb92b	0.3666471
142	0x3ecb0b97	0.3965728
143	0x3e3ab7f0	0.18234229
144	0xbebda551	-0.3704019
145	0xbe79810a	-0.24365631
146	0x3cfa610f	0.03056386
147	0x401d9baa	2.462626
148	0xbf4f9752	-0.8109027
149	0x3d210230	0.039308727
150	0x3f1b7f98	0.6074157
151	0xbf17467a	-0.59091914
152	0x3d3788e6	0.04480829
153	0xbead2e44	-0.3382436
154	0x3f43899b	0.76381844
155	0x3f475395	0.7786191
156	0xbe691558	-0.22762048
157	0xbfca7d2b	-1.5819448
158	0x3f27426a	0.65335715
159	0xbeef46f5	-0.46733823
160	0xbe2691e2	-0.16266587
161	0x3d36ae70	0.04459995
162	0xbdee03c0	-0.11621809
163	0x3ccc3c1d	0.024931008
164	0xbf0a8395	-0.5410703
165	0xbef633a6	-0.4808628
166	0xbd28101e	-0.041030996
167	0xc0238d59	-2.5555022
168	0xbdb2b4e5	-0.08725909
169	0xbe7c78ec	-0.24655503
170	0xbeae1fed	-0.34008732
171	0x3dcbe5bc	0.09955928
172	0xbe2563c2	-0.16151336
173	0x401d2aee	2.4557452
174	0xbe9d89db	-0.30769238
175	0xbec0400d	-0.37548867
176	0x3f2643fe	0.649475
177	0xbf14eb6b	-0.5817172
178	0x3e0c2972	0.13687685
179	0x3f90ba2a	1.1306813
180	0x3e000a2d	0.12503882
181	0x3e821615	0.25407472
182	0xbf0a80d4	-0.54102826
183	0xc0218f31	-2.5243647
184	0xb94755c5	-0.0001901007
185	0x3f12607c	0.57178473
186	0xbf1301f5	-0.5742486
187	0xbe5e9fc1	-0.21740629
188	0x3ea737b2	0.3265968
189	0xbf9efc0c	-1.2420669
190	0x3d9de924	0.07710484
191	0xbf4f4809	-0.8096929
192	0x3c831b3b	0.016004195
193	0xbfb18b5c	-1.3870654
194	0x3f13c2f7	0.5771937
195	0x3e231d30	0.15929103
196	0xbee83d76	-0.4535939
197	0xbd900d24	-0.070337564
198	0xbdc1f1c2	-0.0946994
199	0xbf6f0ce9	-0.93379074
200	0x3f10ec51	0.5661059
201	0x3f04a832	0.51819146
202	0xbeac6a63	-0.33674917
203	0x3f0697e2	0.52575505
204	0xbe220656	-0.1582273
205	0x3eb7467e	0.3579597
206	0x3e084b32	0.13309935
207	0xbfba5489	-1.4557048
208	0x3f03a252	0.51419556
209	0x3e826819	0.25470045
210	0x3f43503d	0.7629431
211	0xbf151b75	-0.5824502
212	0xbe3532bc	-0.17695135
213	0x3f581292	0.84403336
214	0x3f859aaf	1.0437831
215	0x3f0c54e5	0.5481704
216	0xbd18e378	-0.037326306
217	0x3f64bf6f	0.89354604
218	0x3e84ef4e	0.25963825
219	0x3ec1301d	0.3773202
220	0x3f5bddee	0.8588551
221	0xbf618b6c	-0.88103366
222	0x3f1d554b	0.6145827
223	0xbeefb35c	-0.46816528
224	0x3f20b174	0.6277077
225	0x3f27be4e	0.65524757
226	0xbda2716b	-0.07931789
227	0x3e9bb225	0.3040935
228	0xbe7060a5	-0.23474367
229	0x3da5a6ea	0.08088477
230	0x3eeb1495	0.4591414
231	0x3e65c451	0.2243817
232	0x3e28c0e3	0.1647983
233	0xbf40151b	-0.75032204
234	0x3e835d0f	0.25656936
235	0x3f4bec0c	0.79657054
236	0x3de34bf8	0.11098474
237	0xbfee2320	-1.8604469
238	0x3e82d35b	0.25551876
239	0xbdd901fe	-0.10596083
240	0x3e403551	0.18770339
241	0x3f079df7	0.5297541
242	0x3f04890f	0.51771635
243	0xbfc6dfed	-1.5537087
244	0xbe943b97	-0.28951713
245	0x3ebe0867	0.37115785
246	0x3e4f6f38	0.2025727
247	0xbfa4642f	-1.2843074
248	0xbf04811f	-0.51759523
249	0xbf789d0d	-0.9711464
250	0x3eec5bf3	0.46163902
251	0xbf733406	-0.95001256
252	0xbede2809	-0.4338992
253	0x3e6422bc	0.22278875
254	0x3f6e225e	0.9302119
255	0x3e87bef5	0.26512876

bias f4 [64]
0	0x3eab95cf	0.33512732
1	0xbe6ef645	-0.23336132
2	0xbf0213c9	-0.5081144
3	0xbe8c5a80	-0.27412796
4	0x3ebeb568	0.37247777
5	0x3e94c3d6	0.2905566
6	0xbe826ee5	-0.2547523
7	0x3d977911	0.073961385
8	0xbe7a2983	-0.24429898
9	0x3dd80f5f	0.10549807
10	0xbe578170	-0.2104547
11	0x3c8d51bb	0.017250886
12	0xbd8a55a9	-0.0675462
13	0xbca64c43	-0.020300036
14	0x3ddf284d	0.10896359
15	0xbe5e95ae	-0.21736786
16	0x3b381f9c	0.0028095013
17	0xbecd206d	-0.400638
18	0x3ebd6813	0.36993465
19	0xbcd7bd3c	-0.026335351
20	0xbb987f0c	-0.004653817
21	0x3e237746	0.15963468
22	0xbe66f26f	-0.22553419
23	0xbefaa764	-0.48955834
24	0x3e8aacf7	0.27085087
25	0xbe0b01d9	-0.13574924
26	0x3ea790eb	0.3272775
27	0x3ee6f319	0.45107344
28	0x3e2f4a29	0.17118134
29	0xbe8d8184	-0.27637875
30	0x3ee55f4b	0.44799265
31	0x3ece7a22	0.40327555
32	0xbea0a75c	-0.31377685
33	0x3a2992d8	0.000646872
34	0xbed90108	-0.423836
35	0x3e9e96d8	0.3097446
36	0x3ea3c95a	0.31989557
37	0x3e80ac89	0.25131634
38	0x3eb7ad50	0.35874414
39	0x3eab930a	0.3351062
40	0xbc2d8ffe	-0.010593412
41	0x3cb8f4c7	0.022577656
42	0xbea26d05	-0.317238
43	0xbe8f6d80	-0.2801323
44	0xbdc920e4	-0.098207265
45	0x3de9f16e	0.11423002
46	0x3e38c430	0.1804359
47	0x3f16987d	0.5882643
48	0x3dd01e3a	0.10162015
49	0xbca1d19c	-0.01975327
50	0x3ea36803	0.31915292
51	0xbeaa35d3	-0.3324419
52	0x3eaf7c36	0.34274453
53	0x3e488265	0.19580992
54	0x3f064193	0.5244381
55	0x3eafbf62	0.343257
56	0xbebebefb	-0.37255082
57	0xbee3ac7f	-0.44467542
58	0xbe75de24	-0.24010521
59	0xbe996061	-0.29956344
60	0x3dd47b21	0.103750475
61	0xbe3f6e0c	-0.18694323
62	0xbc53be96	-0.012923857
63	0xbeb06a51	-0.34456113

weight f4 [64, 64]
0	0x3c99a7d9	0.018756794
1	0xbebf3837	-0.37347576
2	0xbdfe8a09	-0.12428672
3	0x3d812e73	0.063076876
4	0x3d60d44b	0.05488996
5	0x3db80371	0.089850314
6	0x3e37a98b	0.1793577
7	0xbe7c38b8	-0.24631011
8	0x3e015cd4	0.12633067
9	0xbe8f7ca7	-0.2802479
10	0x3d8d022e	0.06885181
11	0x3e49129f	0.1963601
12	0xbf7f9aad	-0.9984539
13	0xbebf10f5	-0.37317625
14	0xbe96dc62	-0.29465014
15	0x3e4bc9ed	0.19901247
16	0x3e70955d	0.23494478
17	0xbf4d59d2	-0.8021518
18	0x3f248efc	0.64280677
19	0x3e904df1	0.28184465
20	0x3db5e295	0.08881108
21	0xbd283cd8	-0.04107365
22	0x3df20ce2	0.118188635
23	0x3df52554	0.119700104
24	0x3f4ff276	0.8122934
25	0xbe024358	-0.12721002
26	0x3ea8b9e3	0.3295432
27	0x3eaee9e9	0.34162834
28	0x3ea75179	0.32679346
29	0xbf547669	-0.8299318
30	0x3f38191c	0.71913314
31	0x3d56e670	0.052465856
32	0xbf1c8ff4	-0.61157155
33	0x3e72d71e	0.23714873
34	0x3d959e4e	0.07305585
35	0x3f4c9856	0.79919946
36	0x3cf7b032	0.030235384
37	0x3f2f6080	0.6850662
38	0xbbfe99c1	-0.0077697937
39	0x3f9333fc	1.1500239
40	0x3e04184f	0.12899898
41	0xbe9b6c89	-0.30356243
42	0xbea37dec	-0.31932008
43	0xbf3f7a90	-0.7479639
44	0xbea2d960	-0.3180647
45	0x3eebe163	0.46070394
46	0x3f0baf43	0.54564303
47	0x3de6e94b	0.11274966
48	0x3e7a0cf1	0.24418999
49	0xbdde4f40	-0.108549595
50	0xbd3df2a4	-0.04637398
51	0x3b25b83b	0.0025286812
52	0xbd5d4c75	-0.054027993
53	0x3e82ad68	0.25522923
54	0xbd1f9d46	-0.038968347
55	0x3e81b765	0.2533523
56	0x3e083668	0.13302004
57	0x3dd6c030	0.104858756
58	0xbef653e9	-0.48110893
59	0xbf0cd718	-0.55015707
60	0x3de851ef	0.113437526
61	0x3cbe0822	0.023197237
62	0x3e969dbd	0.2941722
63	0xbf29e50d	-0.6636513
64	0xbf2716d4	-0.6526921
65	0x3f076307	0.5288548
66	0x3ed5c0ba	0.417486
67	0x3f2f401b	0.6845719
68	0xbe630a39	-0.22171868
69	0xbe8ef652	-0.27922302
70	0x3e7a85aa	0.24465051
71	0xbe565346	-0.20930204
72	0x3eaae16b	0.33375105
73	0x3e9aae6f	0.30211207
74	0x3e58f5ee	0.21187565
75	0x3f152dc6	0.5827297
76	0x3e258868	0.16165316
77	0x3c535495	0.012898584
78	0xbd289ffd	-0.0411682
79	0x3c1bea15	0.009516259
80	0x3d7da345	0.061923284
81	0x3f9669ed	1.1751076
82	0xbf4c3ff1	-0.79785067
83	0x3e232be1	0.15934707
84	0xbdcf56f1	-0.10124005
85	0xbebbaa37	-0.366533
86	0x3e5d05f8	0.21584308
87	0x3ea25415	0.31704774
88	0xbf74aac1	-0.9557305
89	0x3ea4c5f9	0.3218229
90	0xbea45027	-0.320924
91	0xbf12db69	-0.57366043
92	0xbcb69eef	-0.022292582
93	0x3f5db64a	0.86606276
94	0xbfab9016	-1.3403347
95	0xbf167297	-0.587686
96	0x3f4f83bc	0.81060386
97	0x3d2b911c	0.041886434
98	0x3ee24e0b	0.44200167
99	0xbf6ca50d	-0.9243935
100	0xbe659d17	-0.22423206
101	0xbf383496	-0.7195524
102	0xbdc87afa	-0.09789081
103	0xbf94155a	-1.1569016
104	0xbe1cdb58	-0.15318048
105	0xbea55cdd	-0.32297412
106	0x3f126d39	0.5719791
107	0x3f27ea56	0.65591943
108	0x3e19e470	0.15028548
109	0x3c295957	0.010336242
110	0xbec5e8c8	-0.3865416
111	0xbf369e05	-0.7133487
112	0xbdd76bdd	-0.1051862
113	0xbe123b84	-0.14280516
114	0xbe6924cf	-0.22767948
115	0x3d7f9a79	0.062403176
116	0xbec2fd72	-0.38083988
117	0xbe48d4e4	-0.19612461
118	0xbe9c4a2d	-0.30525342
119	0xbecb3af7	-0.39693424
120	0x3e50835d	0.20362611
121	0x3e2a7d32	0.1664932
122	0x3f0e0b43	0.55485934
123	0x3f4e6cd0	0.80634785
124	0x3ea122b6	0.31471795
125	0x3d6f919b	0.05848847
126	0xbdba4e75	-0.09096996
127	0x3f63eeeb	0.89036435
128	0xbe9e783a	-0.309511
129	0x3f1a1d57	0.6020102
130	0x3d844448	0.06458336
131	0x3d168a92	0.036753245
132	0x3f7587d4	0.9591038
133	0xbc37c869	-0.011217215
134	0xbe150fde	-0.14556834
135	0xbe0777c4	-0.1322928
136	0xbf08a45e	-0.53375804
137	0xbd8cccf1	-0.06875027
138	0xbf52d6a4	-0.82358766
139	0x3eff87ae	0.49908203
140	0xbf596772	-0.8492347
141	0xbf67f6ca	-0.90610945
142	0x3f71bc67	0.94428104
143	0xbf379a0c	-0.7171943
144	0xbe68d315	-0.22736771
145	0xbe0efb2d	-0.13963003
146	0x3ec97fd8	0.3935535
147	0xbea43d18	-0.3207786
148	0xbe311223	-0.17292075
149	0xbee7139e	-0.45132154
150	0xbf5d4869	-0.86438614
151	0xbe4535e9	-0.19258846
152	0x3f1d012a	0.613299
153	0xbeefc11a	-0.46827012
154	0x3e3c0414	0.1836093
155	0x3df727c3	0.12068131
156	0x3ea9bf6a	0.3315385
157	0x3e9cd34e	0.30629963
158	0xbd827078	-0.06369108
159	0xbdbaa198	-0.09112853
160	0x3de65fdf	0.11248755
161	0xbf442ddb	-0.7663247
162	0x3d520303	0.051272403
163	0xbdd61ce1	-0.10454727
164	0x3f8488f3	1.0354294
165	0xbe0d156a	-0.137777
166	0x3f4c1a07	0.79727215
167	0x3f873c6f	1.0565318
168	0xbefc2900	-0.4925003
169	0xbe4920d5	-0.1964143
170	0x3e8722b5	0.26393667
171	0xbd6f720f	-0.058458384
172	0xbef0b047	-0.4700949
173	0x3e511dd2	0.20421532
174	0x3f2e78ec	0.6815326
175	0xbe0d748d	-0.13813992
176	0xbe65d961	-0.22446205
177	0x3f5ce86c	0.8629215
178	0x3dbdc78e	0.09266578
179	0xbfa5ce88	-1.2953653
180	0xbcd26670	-0.025683612
181	0xbf170c99	-0.590036
182	0x3dd490f0	0.10379207
183	0xbf4158fa	-0.7552639
184	0xbee945ab	-0.45560965
185	0xbf0b6ee7	-0.544661
186	0x3e946ba3	0.2898837
187	0x3e98517f	0.29749677
188	0x3ebc43b9	0.36770418
189	0xbe172d86	-0.1476346
190	0xbeda2774	-0.42608225
191	0xbf034201	-0.5127259
192	0x3e77005f	0.24121235
193	0xbef9f505	-0.48819748
194	0xbdd4b265	-0.103855886
195	0x3dc94c2e	0.09828983
196	0xbeeb4808	-0.45953393
197	0x3e8a2637	0.2698228
198	0xbbbd1d7d	-0.0057713375
199	0x3e948836	0.2901017
200	0x3f1917f4	0.59802175
201	0x3e8bdf88	0.27318978
202	0x3f832e0a	1.0248425
203	0xbf1e5443	-0.61847323
204	0x3f29e6af	0.6636762
205	0x3f886e69	1.0658695
206	0x3eb0e596	0.3455016
207	0x3e371074	0.1787737
208	0xbf811b96	-1.0086544
209	0xbe994ab2	-0.299398
210	0xbf1c49a8	-0.6104989
211	0x3e3534ea	0.17695966
212	0xbf073e90	-0.5282984
213	0x3f1935cd	0.5984772
214	0x3f0fe942	0.562153
215	0xbd87a29d	-0.06622813
216	0xbfabf90b	-1.3435377
217	0x3faf65e7	1.3702973
218	0x3f12718f	0.57204527
219	0x3eb076e4	0.34465706
220	0xbedea479	-0.43484858
221	0xbe703d83	-0.23460965
222	0x3e544c4a	0.20732227
223	0x3eba980f	0.36444137
224	0x3e5626fc	0.20913309
225	0x3fadbd1c	1.3573337
226	0xbdfd9802	-0.12382509
227	0xbea88008	-0.3291018
228	0xbeb0a585	-0.3450128
229	0x3e5458ad	0.20736952
230	0xbdd36f95	-0.10324017
231	0xbf3512dc	-0.707319
232	0x3cd2830c	0.025697254
233	0x3e85a477	0.2610204
234	0xbe49d4f0	-0.19710135
235	0x3f1c28f5	0.60999995
236	0x3e85445f	0.26028726
237	0xbea6e131	-0.32593682
238	0xbede7670	-0.43449736
239	0x3e7e8fe9	0.24859585
240	0x3eee364e	0.46525806
241	0xbed3fc1f	-0.4140329
242	0x3d02317c	0.031785473
243	0x3f89be63	1.0761226
244	0x3cc8d325	0.024514744
245	0x3f719e41	0.943821
246	0x3d81b15f	0.06332659
247	0x3ee1c408	0.44094872
248	0x3e98e07b	0.29858765
249	0x3e1a6b4f	0.15079997
250	0xbe27f051	-0.16400267
251	0x3d562bad	0.052287746
252	0xbf2f0f9e	-0.68383205
253	0xbd72cbb2	-0.05927629
254	0xbcb269a6	-0.021778893
255	0xbeebb5ef	-0.46037242

bias f4 [64]
0	0x3be3e074	0.006954247
1	0xbf05df21	-0.5229359
2	0xbdbc50a4	-0.091950685
3	0x3d11fa80	0.035639286
4	0xbeaa4073	-0.33252296
5	0xbefa8b01	-0.48934177
6	0xbd3bac1a	-0.045818426
7	0xbec6537b	-0.38735566
8	0x3e252e3f	0.16130923
9	0xbf1f0ea5	-0.6213172
10	0x3eb7a7d4	0.3587023
11	0xbe64f8fe	-0.22360608
12	0xbdaf5e19	-0.085628696
13	0xbdbfc23e	-0.09363221
14	0x3e9d13b7	0.30679104
15	0x3ee64541	0.44974712
16	0x3e1d139a	0.15339509
17	0xbed02ac5	-0.4065763
18	0xbeb99b03	-0.36251077
19	0x3daad244	0.08340886
20	0xbe8db072	-0.2767368
21	0x3e5e50e3	0.21710543
22	0xbe45199d	-0.19248052
23	0x3d5a2540	0.05325818
24	0xbe7b1eec	-0.24523515
25	0xbe6b26ed	-0.22964068
26	0xbeb0f7b0	-0.3456397
27	0xbd9fe0ad	-0.078065254
28	0x3e8d30e8	0.27576375
29	0x3d0a87dc	0.03382097
30	0x3dd76381	0.10517026
31	0x3e04e926	0.12979564
32	0x3e937c9c	0.28806007
33	0xbef48ba1	-0.47762778
34	0xbf0c4f43	-0.54808444
35	0xbe2f2b2a	-0.1710631
36	0xbe71b9cd	-0.23606034
37	0xbf14a7e3	-0.58068675
38	0xbebab8c6	-0.36469096
39	0x3e4011f6	0.18756852
40	0x3ecf56f3	0.40496024
41	0x3e5a0e18	0.21294439
42	0xbebb807d	-0.36621466
43	0x3ed274e0	0.41104794
44	0xbec4bb94	-0.3842436
45	0x3bdbef7a	0.0067118974
46	0x3b322cfc	0.0027187457
47	0x3c4965a8	0.012292303
48	0xbe88aa75	-0.26692548
49	0xbf36584b	-0.71228474
50	0xbdb4e7fb	-0.08833309
51	0xbe544ab0	-0.20731616
52	0xbe105110	-0.14093423
53	0x3e98d446	0.29849452
54	0xbdae9552	-0.08524574
55	0x3eab6598	0.33475947
56	0xbd82a20d	-0.06378565
57	0xbeae5a0c	-0.34053075
58	0x3eb5fba8	0.3554356
59	0x3e463ffa	0.19360343
60	0xbad62d75	-0.0016340452
61	0xbe1bf031	-0.15228345
62	0xbee85804	-0.4537965
63	0xbe8256ba	-0.25456792

weight f4 [1, 64]
0	0x3ea76331	0.32692865
1	0xbf18462f	-0.5948209
2	0x3ef86301	0.48513034
3	0xbf393249	-0.72342354
4	0xbeb8f20b	-0.36122164
5	0xbef4c3e6	-0.4780571
6	0x3e142363	0.14466624
7	0x3e87f478	0.26553702
8	0x3f0cfb4c	0.5507095
9	0xbf350f38	-0.70726347
10	0x3f39f470	0.7263861
11	0xbddc09fc	-0.10744092
12	0x3e8cbe3e	0.27488893
13	0x3e24087e	0.16018865
14	0xbe652b0f	-0.22379707
15	0x3f48a886	0.78382146
16	0xbe2a8795	-0.16653283
17	0x3e4e0194	0.2011779
18	0xbec596b8	-0.38591552
19	0x3e747f4c	0.23876685
20	0xbf05632c	-0.5210445
21	0x3f148b7f	0.58025354
22	0x3e3e2f6f	0.18572782
23	0xbf34bc5c	-0.70599914
24	0xbe93c491	-0.28860906
25	0x3e2a5512	0.16634014
26	0x3e684fba	0.22686663
27	0x3e921802	0.28533942
28	0xbe8b12de	-0.27162832
29	0xbe6056db	-0.21908133
30	0x3f48135f	0.7815456
31	0xbf04dc61	-0.5189877
32	0xbe529284	-0.20563704
33	0x3eb32134	0.3498627
34	0x3f30a9a8	0.69008875
35	0x3e434e68	0.19072878
36	0x3e1810dd	0.14850183
37	0x3eace9da	0.33772165
38	0xbe573690	-0.21016908
39	0x3f4e1c66	0.8051208
40	0x3e0bd7b5	0.13656504
41	0xbe32fb5a	-0.17478696
42	0x3e49ba3f	0.19699953
43	0x3eae90c9	0.34094837
44	0x3e38de20	0.18053484
45	0x3f315a12	0.6927806
46	0xbe91c86e	-0.28473228
47	0x3e9ef65d	0.31047335
48	0xbf4c8467	-0.7988953
49	0xbf60289f	-0.8756198
50	0xbf6a2aee	-0.91471756
51	0x3e48bc9e	0.19603202
52	0xbe80f374	-0.2518574
53	0x3e366625	0.17812403
54	0x3dfde2da	0.12396784
55	0xbe4f1f4d	-0.20226784
56	0xbf253f03	-0.64549273
57	0x3e5415f6	0.20711502
58	0x3e1d7960	0.15378332
59	0x3f81a6d5	1.0129038
60	0x3e022a1c	0.12711376
61	0xbe7e335f	-0.24824284
62	0xbf2d4b4d	-0.67693025
63	0xbf24bfc4	-0.6435511
