output/ddpg/2022-01-08_12-39-01-ddpg_s0/pyt_save/model.pt (torch_old, 48433 bytes, 11 tensors)

weight f4 [64, 16]
000000 00 54 f5 ba 5e 54 09 3e 16 b3 52 be 80 66 3c be
       -0.001871705 0.1341109 -0.20576128 -0.18398476
000010 f4 32 c5 bd ec 4b 89 3d 40 4f a2 bb ce fa 4a 3e
       -0.09628859 0.06703934 -0.004953295 0.19822237
000020 70 bf b5 bc 4c 7b 87 3d ac bb 9a bd 70 48 49 bd
       -0.022186011 0.06615314 -0.07555327 -0.049141347
000030 b8 91 74 be 52 8b 29 be e8 0e d3 bd 00 bb 17 3c
       -0.23883712 -0.16557053 -0.103055775 0.009260893
000040 ac f3 5c 3e a7 da 45 3e 87 e6 2c be 1e b5 a4 bd
       0.21577328 0.1932169 -0.16884814 -0.08042358
000050 60 c0 69 3d 6f 44 97 3e 13 1d 35 bd 60 97 4b 3e
       0.05706823 0.29544398 -0.04421718 0.19881964
000060 68 42 d8 bd cb ac b6 3c 14 58 78 3e d3 79 8e be
       -0.10559541 0.022299191 0.24252349 -0.2782732
000070 95 d1 25 be 1b 66 88 bd fd c8 de bd a0 e6 5a 3e
       -0.1619323 -0.066601 -0.10878179 0.21377039
000080 5e f8 07 be 6e 6a 0b be 54 5d 34 be 90 1b 96 be
       -0.13278338 -0.13614818 -0.17613727 -0.29317904
000090 db 6b 08 be 43 dd 78 3e c5 21 9f 3d a8 44 92 3d
       -0.13322394 0.24303155 0.07770113 0.071420014
0000a0 cb 43 a3 bc 97 e6 1a be c5 53 c0 bc 39 27 76 be
       -0.019929787 -0.15127026 -0.023477444 -0.240384
0000b0 5c 87 50 be 8a 58 50 be 89 09 e8 3d 16 69 f9 3d
       -0.20364136 -0.20346275 0.11329944 0.12178247
0000c0 0f a0 07 bd 82 9c 14 bd 95 e7 27 3e 61 13 8a 3e
       -0.03311163 -0.03628207 0.16396935 0.2696791
0000d0 fe b3 f2 3d c7 2e b9 3d 42 aa 04 3e 46 7e 3e be
       0.11850737 0.09042125 0.12955573 -0.18602857
0000e0 61 48 71 bd ce 03 80 be 1d 0f 2c be d3 ae 26 be
       -0.058906917 -0.25002903 -0.1680264 -0.16277628
0000f0 b9 ab 66 3d 5d d3 f8 3c 15 02 78 be 06 ac a2 3c
       0.05631611 0.030374223 -0.24219544 0.019857418
000100 6e 89 0c 3e 20 3f 01 bd 40 64 1c 3c 00 44 6d 3d
       0.137243 -0.03155434 0.009545386 0.057926178
000110 00 d1 1e 3e 48 cf 75 3e 96 47 45 be ec a1 bb bd
       0.15509415 0.24004853 -0.19265589 -0.091617435
000120 98 38 c9 3d d0 1b 54 3e e8 c5 5e 3e 22 e2 61 3e
       0.098252475 0.20713735 0.21755183 0.22058919
000130 78 ca 4b 3d f8 9c 5e be 90 66 bc 3c ac 27 20 be
       0.049753636 -0.21739566 0.022998124 -0.15640134
000140 8c 94 6e be 3e 74 63 3e f0 a6 42 3e fe 5d 7f be
       -0.23298854 0.22212312 0.19008994 -0.24938199
000150 08 aa 3f 3d c8 80 2c bd b8 82 28 bd 1c 5f ea bd
       0.046793014 -0.042115003 -0.041140288 -0.11443922
000160 8c e4 c4 3d 34 a1 17 be dc b1 bb 3d 16 76 01 3e
       0.09613904 -0.14807588 0.09164783 0.12642702
000170 5c 43 37 3e 48 71 bf 3d 4a 5f 7d be 00 11 26 be
       0.1789679 0.093477786 -0.24743381 -0.16217422
000180 8a ce 2d 3e 48 46 a6 3d 97 76 4a be 77 1d 26 be
       0.1697332 0.08118874 -0.19771801 -0.16222177
000190 1c ae 67 3e 76 c6 54 3e ce 0f 0b be 4a 25 39 bd
       0.22625011 0.20778832 -0.13580248 -0.045201577
0001a0 38 47 8a be 0d a6 13 bd 1a 9f 2b be 17 90 46 be
       -0.2700746 -0.03604703 -0.16759911 -0.19390903
0001b0 51 da 3c bd c1 78 8c 3b 02 2f 0b be e5 c6 ee 3d
       -0.04610664 0.004286856 -0.13592151 0.1165903
0001c0 38 c9 1b be 68 49 68 3e d0 6f 2f 3e 64 e1 57 be
       -0.15213478 0.22684252 0.17132497 -0.21082073
0001d0 88 db 7e bd 80 d2 38 3c 18 67 15 3d d0 dd 72 3d
       -0.06222108 0.011280656 0.03647527 0.059293568
0001e0 5c ec c8 3d e0 59 75 3c cc d1 f9 bd d4 45 f2 3d
       0.09810707 0.014975041 -0.12198219 0.11829725
0001f0 56 91 75 be a0 bb 17 be 3c 2b 80 bd ec 66 f9 bd
       -0.23981223 -0.14817667 -0.06258246 -0.12177834
000200 c4 61 26 be bc 9d 68 be 21 dc 59 bd 4a d0 44 3d
       -0.16248232 -0.22716421 -0.053188447 0.048050202
000210 d5 d8 19 be 8a 0b 96 bd dc c5 5a 3e 70 9d 03 bd
       -0.15024121 -0.0732642 0.2136454 -0.032132566
000220 cf 42 be 3d af 72 db 3c 88 4f 6f 3b 98 c9 33 3e
       0.092900865 0.026788084 0.003651591 0.1755737
000230 7e 3d 92 3e 23 a4 43 3e 5a a4 9b 3e a6 04 f0 3c
       0.2856254 0.19105582 0.30398828 0.029299092
000240 66 f8 65 be 40 ba f2 bd ce 4f 2e 3e 00 6b d4 ba
       -0.22458038 -0.118519306 0.1702263 -0.0016206205
000250 dc 7c fe bd 02 2d 44 be 00 94 6f be ec 10 58 be
       -0.12426159 -0.19157794 -0.23396301 -0.21100205
000260 70 b4 4f bd 56 64 0c 3e 74 67 0a 3e 02 e5 76 be
       -0.050709188 0.1371015 0.13516027 -0.24110797
000270 2e b0 1f 3e 8a 52 48 be f0 7b 58 bd 1c 9a cf bd
       0.15594551 -0.19562736 -0.05285257 -0.10136816
000280 d5 be 42 3d b7 5b 2e bd bc 55 63 be 43 73 3b be
       0.047545273 -0.042567935 -0.22200674 -0.18305688
000290 ef bb 5c bd d5 e9 8e 3d 31 19 cf bd 77 e2 12 3d
       -0.053890165 0.06978194 -0.10112227 0.035860505
0002a0 53 ec a5 be e0 6a 39 bc ab 72 32 3e 71 f3 61 be
       -0.32406864 -0.011316985 0.17426555 -0.22065522
0002b0 e3 bc 6c 3e fd 19 3f 3d b9 c4 82 be 22 da 28 3e
       0.2311893 0.046655644 -0.25540712 0.16489461
0002c0 37 b1 83 bd de b0 0c be ec e3 4e 3e 93 68 53 be
       -0.064302854 -0.13739344 0.20204133 -0.2064536
0002d0 ac 18 21 3d 78 16 b2 bd 58 ee 35 3e 43 d2 8a 3c
       0.03933017 -0.08695692 0.17766702 0.016945964
0002e0 4c ba 84 3d 1d e6 c3 3d a7 be e7 bd a4 f8 05 be
       0.06480846 0.09565375 -0.11315661 -0.1308313
0002f0 fa e5 4c be c6 6a e0 3d 66 ee 2a 3e de 25 34 3e
       -0.20009604 0.109578654 0.16692504 0.1759257
000300 99 2d 31 be 0d b7 0a bd 69 e7 34 be 3e 59 51 be
       -0.1730255 -0.033865977 -0.17666401 -0.204442
000310 38 62 f0 bd 9f 67 c1 3d eb 84 55 be 35 bc d5 bd
       -0.11737484 0.09443592 -0.20851485 -0.10436288
000320 b9 66 39 bc 74 69 e5 3d f3 79 82 be 14 8c 0b be
       -0.011315995 0.11201754 -0.25483665 -0.13627654
000330 fb 8f 4c be e6 ec 6d 3d 89 a9 1e be de 97 1d 3e
       -0.19976799 0.058087252 -0.1549436 0.15389964
000340 53 3d 95 3d 28 43 87 3d f4 a0 85 bb 06 ea 86 bd
       0.07287087 0.06604606 -0.004078025 -0.06587605
000350 aa e3 aa 3a 51 f1 71 bd 5b e5 ac 3d 94 93 9d bc
       0.001303782 -0.059068028 0.084421836 -0.01923541
000360 11 44 68 be 3f 3e 95 bc e3 98 57 3d 86 f7 8f be
       -0.22682215 -0.018218158 0.05263604 -0.28118533
000370 1a 4c d1 3d 1d 3b 8b 3e 5b 06 11 3e d6 7b fe 3d
       0.10219593 0.27193537 0.1416258 0.124259636
000380 90 92 12 be 14 cd 37 3e b1 a1 38 be 95 4a ad bd
       -0.14313722 0.17949325 -0.1803043 -0.08461491
000390 1c dc eb bd d9 33 08 3d f5 84 7e 3c 7c 3d 27 3e
       -0.11516592 0.03325257 0.015534629 0.16332048
0003a0 e8 77 c6 bb bf d9 76 3e 6c 7e 03 3e cc 68 3d be
       -0.0060567744 0.24106501 0.12841195 -0.18497008
0003b0 b9 af 03 3e 8d 57 54 be 7e 11 c1 bd 72 2d b9 3d
       0.12860002 -0.20736523 -0.094271645 0.09041871
0003c0 a8 ac ac 3d dd 68 01 3e 71 94 9a bd 8a 0d a6 3c
       0.08431369 0.12637658 -0.07547844 0.020270128
0003d0 d1 a0 07 3e 1d 9b 6a be 4f 31 23 3e 96 d6 43 be
       0.1324494 -0.22910734 0.15936778 -0.19124827
0003e0 87 09 ba 3b 73 c5 8a bd e4 46 ca bd eb ee 5b 3d
       0.0056774053 -0.06775942 -0.098768026 0.053694647
0003f0 66 a8 33 3e 24 49 89 bd 3b d7 44 be de bb fe bd
       0.17544708 -0.067034036 -0.19222729 -0.124381766

bias f4 [64]
000000 c0 7e 8f bc bc d2 72 be 5b ea 2d be 76 f1 3d 3d
       -0.017516494 -0.23713201 -0.16983931 0.046372853
000010 70 a8 ad bd da b2 30 3e e0 4b 2a 3e 10 f6 14 3d
       -0.084793925 0.17255726 0.16630507 0.036367476
000020 10 50 dc 3c d0 85 a2 bd 55 f4 ad bb 09 b6 4d 3d
       0.026893646 -0.07935679 -0.0053086677 0.05022243
000030 c5 86 7d be 3c 69 5e 3d 11 31 43 be d1 2a fb 3d
       -0.24758442 0.054299578 -0.19061686 0.12264026
000040 b4 07 23 be 75 85 7f 3e 76 78 3b bd 2c 46 7a bd
       -0.15920907 0.24953254 -0.045769177 -0.061102077
000050 0f 53 d1 3d 68 46 04 3e 40 71 88 3e e3 e2 08 3e
       0.1022092 0.12917483 0.26648903 0.133678
000060 82 39 90 be 76 15 1f 3e 6e cf 43 bd 29 87 a4 bc
       -0.28168875 0.1553553 -0.047805242 -0.02008398
000070 e4 92 22 3e 50 a0 31 3e 79 7a 77 be c7 39 59 3c
       0.15876347 0.1734631 -0.24167813 0.013258404
000080 d5 e5 3c 3e 74 4a c6 3d 18 19 8a 3e 36 98 eb ba
       0.18447049 0.096821696 0.2697227 -0.001797444
000090 70 38 0d be a8 b3 48 3e d0 69 d5 3d 91 3e 8b 3e
       -0.1379106 0.19599783 0.10420573 0.27196172
0000a0 54 dc d5 bd 7e 5e 24 be 50 0d f0 bc 89 b6 60 be
       -0.10442415 -0.16051671 -0.029303223 -0.21944632
0000b0 76 ce 16 3e 22 44 5c 3e 5d 0e a6 3d 18 ff c6 bc
       0.14727196 0.21510366 0.08108208 -0.02429156
0000c0 19 b5 0b 3e 10 7f 22 be b4 bb 0a 3e ce 7a 23 be
       0.13643302 -0.15868783 0.13548166 -0.15964815
0000d0 07 4d 75 be 8a 43 5c bd a9 5f 6e 3e c7 06 74 3d
       -0.23955165 -0.053775348 0.23278679 0.059576776
0000e0 2e 9a af bb ca 73 42 be c5 77 11 3e c0 d9 e4 bc
       -0.005358956 -0.18989483 0.14205845 -0.027935863
0000f0 65 e4 11 3e 61 52 4a 3e e4 52 13 3e b8 5a af bc
       0.14247282 0.19757988 0.14387089 -0.021405563

weight f4 [64, 64]
000000 60 4f fc bb e2 8e a0 bd 04 31 39 bd ca 5b a6 3d
       -0.007699892 -0.07839753 -0.04521276 0.08122976
000010 6c 4f 4d bd 76 fc 9e 3d 3c 06 4b bd 08 7d ee bc
       -0.05012457 0.07762997 -0.049566492 -0.029112354
000020 00 58 2e 3b 20 ec ea bd 00 98 a3 ba 00 6e 4e bc
       0.0026602745 -0.114708185 -0.0012481213 -0.012599468
000030 20 fc 37 bc b0 b3 cc bc 18 d3 c9 3d ba ec bc 3d
       -0.011229545 -0.024988025 0.09854716 0.092248395
000040 80 81 ad bd 74 d6 6d 3d 4c cd c8 bd 32 f0 d9 bd
       -0.08471966 0.058065847 -0.09804782 -0.10641517
000050 58 82 1c 3d 80 c9 f0 3a ec d9 6e bd b8 e9 f6 bd
       0.038210243 0.0018370599 -0.058313295 -0.12056297
000060 b4 36 46 bd fc 01 2b 3d 38 f4 ec bd f6 b1 f8 bd
       -0.048392013 0.04174994 -0.115700185 -0.12143318
000070 e0 ea 81 3c 68 6c b8 bd cc 46 e0 bd 3c 44 45 bd
       0.015859067 -0.09005052 -0.109510034 -0.048160776
000080 68 dd a4 bc e8 a0 e8 bd 34 f0 aa bd 70 48 06 3c
       -0.020125106 -0.113588154 -0.08346596 0.008195981
000090 98 66 f1 bd 80 ed 8f bc c6 4c a5 bd 00 78 b1 bd
       -0.11787146 -0.017569304 -0.08071284 -0.08665466
0000a0 5c 3b 49 3d 62 0a c5 bd 6c 01 c2 bd f8 fd 91 3d
       0.049128875 -0.09621121 -0.094729275 0.07128519
0000b0 18 74 bf 3c 7a 24 e9 3d f4 da 08 bd c0 4d 77 bd
       0.023370788 0.113839105 -0.033411935 -0.060376883
0000c0 00 89 3d bc 00 c9 25 3a a8 3c c3 3d 18 ff fe bd
       -0.011568308 0.0006324202 0.09533054 -0.12450999
0000d0 b0 d1 11 bc fc 7b 62 3d 90 f9 8c bd 84 15 82 bd
       -0.008900091 0.055294022 -0.06883538 -0.0635176
0000e0 e0 6e 77 3d a0 4b f5 bd 88 a4 f2 3c 16 31 c6 bd
       0.060408473 -0.11977315 0.02961947 -0.09677331
0000f0 e4 7e 7e 3d ee e3 da bd d8 63 9d 3d 84 56 f2 bd
       0.06213273 -0.106880054 0.07685059 -0.11832908
000100 62 2f d7 bd 00 73 f1 3a 9c b9 c9 3d be 3c db bd
       -0.105070844 0.0018421113 0.09849855 -0.10704945
000110 f0 61 64 bd 20 d7 e0 3d e0 b8 ab bc 1c 1d 54 3d
       -0.055757463 0.10978532 -0.020962179 0.051785573
000120 84 45 f6 bd a4 03 21 bd 4a 01 82 bd dc d2 d7 3d
       -0.12024978 -0.039310113 -0.06347902 0.10538265
000130 1c 80 54 3d 06 cc ba bd b0 18 a5 3c 00 4f bc ba
       0.051879987 -0.09120946 0.020153373 -0.0014366806
000140 88 5d 52 bd 14 32 92 bd c0 e6 29 bd 36 c9 c9 3d
       -0.05135873 -0.07138458 -0.041479826 0.09852831
000150 a2 83 b7 bd 22 5c b6 bd 38 f6 1d bd c0 82 0e 3b
       -0.08960654 -0.08904292 -0.03856489 0.0021745414
000160 5c 5f 0b 3d 80 d3 75 3b c8 80 f6 bc c4 39 9b bd
       0.03402649 0.0037510097 -0.030090705 -0.07579377
000170 30 bd b7 bc 78 1b 4e bd 6c d4 ce 3d 5e 31 f9 bd
       -0.022429079 -0.050319165 0.1009911 -0.12167619
000180 ba 4a a3 bd 72 47 d0 bd 98 24 bb bc 76 7e c7 3d
       -0.07973237 -0.10169877 -0.022844598 0.097409174
000190 e0 64 e0 3d b6 dc de bd 80 77 b1 bb 6a 43 96 3d
       0.109567404 -0.10881941 -0.005415857 0.07337077
0001a0 34 b0 61 3d ca b0 d1 3d 40 3b 63 bb 2a 01 ac bd
       0.05509968 0.10238798 -0.0034672767 -0.083986595
0001b0 10 5a a9 3d 80 92 2f bd a2 8d 84 3d d8 59 fc bc
       0.08269131 -0.042864323 0.06472327 -0.03080456
0001c0 f0 a5 59 3d c8 40 e6 3d 02 0b ee 3d 06 fa e8 bd
       0.053136766 0.11242825 0.11623193 -0.11375813
0001d0 c6 56 a9 bd ec b1 53 bd 60 40 a3 bd cc a1 f5 3d
       -0.08268504 -0.05168335 -0.07971263 0.11993751
0001e0 80 e0 34 bc b0 d0 a9 bd a8 d5 63 bd c4 67 8d bd
       -0.011039853 -0.08291757 -0.05562368 -0.06904557
0001f0 fc e3 50 3d da 4b df bd f8 b1 ee bd d8 5a fc bd
       0.050998673 -0.109031394 -0.116550386 -0.123220146
000200 a8 6d 5c 3d c6 d8 be 3d 46 57 a2 bd 19 2b 33 3d
       0.053815514 0.0931869 -0.07926802 0.043742273
000210 ac f9 bc 3d e0 c9 94 3c 20 d2 c8 bc a0 4f 17 3c
       0.09227309 0.018162668 -0.024514258 0.009235293
000220 50 0b 83 bd 52 e5 80 3d 35 87 9b bd 34 d2 27 3d
       -0.06398642 0.062937394 -0.07594148 0.04097195
000230 b5 91 89 3d 0d 02 c1 bd 2d c2 01 3e 1e fd a2 3d
       0.067172445 -0.09424219 0.12671728 0.079584345
000240 58 d8 49 bd 8d 7a b7 bd d7 e8 dc 3d 66 2a 62 be
       -0.049278587 -0.089589216 0.10786598 -0.22086486
000250 f8 47 47 3d 1f 17 ca bb 1c 84 68 bc cc 87 19 be
       0.04865262 -0.006167307 -0.014191654 -0.14993209
000260 80 2d 05 be 0c 38 95 3d cf 91 8c 3d 43 bc 6c be
       -0.13005638 0.07286081 0.06863748 -0.23118691
000270 c6 c2 8e bd 9b 54 a8 bd 77 fc 2d be ff a1 aa bd
       -0.06970744 -0.08219262 -0.16990839 -0.083316796
000280 38 66 39 be 00 d4 cb bc 3d b2 8d 3c 0b c9 8f 3d
       -0.181054 -0.024881363 0.017296905 0.07020768
000290 bc 55 69 3d 82 2c e5 bd 34 d3 80 3d 32 ad 91 3d
       0.05696653 -0.1119013 0.06290284 0.071131125
0002a0 b2 6a c6 3d f4 86 fc bd b0 71 9d 3d 46 d2 10 3e
       0.09688319 -0.12330428 0.076877 0.14142713
0002b0 ff b7 0d be f0 f1 ab bc 93 69 1b 3e a4 b4 1a be
       -0.1383972 -0.020989388 0.15176992 -0.15107971
0002c0 e5 d2 7f 3d c0 3d 62 3d b9 fc 77 3c c5 24 bf 3d
       0.062456984 0.05523467 0.015135937 0.09333185
0002d0 e2 04 83 3d 2b 2d cd 3d 0a 99 b1 bc 22 0d 8a 3d
       0.06397416 0.10018381 -0.02167942 0.06740786
0002e0 59 cc 11 be 6f 11 ca be 75 3c 71 bc d4 17 18 bd
       -0.14238109 -0.39466426 -0.014723887 -0.0371321
0002f0 7c 3e cb 3d 8c 9d 1a 3d 9b 15 02 3e cb 47 99 3d
       0.09924027 0.037747905 0.12703554 0.074843965
000300 a0 3b bf bd 2a 81 89 bc 45 01 0b ba 3f 44 cd 3c
       -0.093375444 -0.016785223 -0.00053026184 0.025056956
000310 c0 a4 83 3d 70 ba 4b bd a9 bf 42 bd ae 34 d6 3d
       0.06427908 -0.049738348 -0.047546063 0.104592666
000320 c3 96 80 bd 04 d4 b1 bd de 6d 95 3d ee 2a 83 3d
       -0.062787555 -0.08683017 0.07296346 0.064046726
000330 55 f7 64 bd 7a 6f 82 bd c0 10 de bd fb 7e d1 bd
       -0.055899937 -0.06368919 -0.108430386 -0.10229298
000340 90 89 40 3d bf 69 9a bd 90 25 b1 3d 8f b5 1c be
       0.04700619 -0.07539701 0.086497426 -0.15303634
000350 2b 6e 0b bd de 9d fd bc 18 23 25 3d c7 3c 96 3d
       -0.03404061 -0.030959066 0.04031667 0.07335811
000360 fc 21 90 3d 3c b4 1f 3d 00 90 71 bd ad 08 e6 bd
       0.07037732 0.038990244 -0.05897522 -0.112321235
000370 58 05 e5 bd b1 a7 35 3b dc d5 cb 3d 89 aa 65 bd
       -0.1118266 0.002771836 0.099529 -0.056070838
000380 aa 3e 04 3e 9e 08 ba bd 96 61 a7 bc 92 f1 32 3d
       0.1291453 -0.09083675 -0.020432275 0.04368741
000390 fc 64 fc bd ac 67 8b bd 06 9f bd 3d 0c c4 18 3d
       -0.12323949 -0.06806883 0.09258847 0.03729634
0003a0 a0 5e ff bb 68 0c b7 3c e0 b0 9b bc fb d6 cb bd
       -0.0077932626 0.022344783 -0.019005239 -0.09953114
0003b0 28 20 14 be 11 7f 6d 3d d5 c6 50 bc 26 08 7d bd
       -0.14465392 0.057982508 -0.012742718 -0.06177535
0003c0 bd 74 5e bd d8 a0 8b bd 94 e7 f6 bc ea 3b 18 be
       -0.05431055 -0.06817788 -0.030139722 -0.14866605
0003d0 38 c0 94 3d 97 8b f0 3c 1c 49 ae bd 46 a4 84 bd
       0.07263225 0.029363437 -0.08510038 -0.06476645
0003e0 4e a9 53 3d ba 60 6a 3d 79 11 04 3d 90 f9 0c 3d
       0.051675133 0.057221152 0.032243226 0.03441769
0003f0 98 19 e2 bd 6f 0d 51 3c d6 10 22 bb 38 50 db 3d
       -0.11040038 0.0127595505 -0.0024729273 0.1070866

bias f4 [64]
000000 10 31 90 3d 64 cf 71 bd a2 c6 50 3d c7 7d 6b bc
       0.07040608 -0.059035674 0.05097068 -0.014373249
000010 05 5f 8b 3d 50 c0 f4 3d 58 05 b2 bd b2 06 f3 3d
       0.06805233 0.11950743 -0.086924255 0.118665114
000020 4f d4 be 3d 62 ec ee bd aa 3c 2d 3d e0 f9 a1 bd
       0.093178384 -0.1166618 0.042294182 -0.07908988
000030 51 5f ca 3c f0 59 9e 3c 7c 70 0d be 68 52 b3 3d
       0.024703654 0.019329995 -0.1381244 0.08755952
000040 b6 16 e8 bc a4 a6 ce 3d 5f 7b cf 3d 86 47 99 3d
       -0.028331142 0.10090378 0.10130953 0.07484345
000050 4a ca c9 3d 32 6e b9 3d 76 33 f2 3d 84 57 a8 bb
       0.09853037 0.09054221 0.11826222 -0.005137386
000060 22 03 58 3d 35 53 c6 3c 66 bc c3 bb 04 74 1a bd
       0.052737363 0.024209598 -0.0059733866 -0.037708297
000070 25 cc b6 bd 97 e9 ef 3d 29 65 e6 3d 6e 80 8b bd
       -0.08925656 0.117144756 0.112497635 -0.068116054
000080 01 c6 f3 bd 7c 61 f9 3d ee a0 ec bd 94 dd a0 bc
       -0.119030006 0.12176797 -0.115541324 -0.019636907
000090 8b af 81 bd 50 5b d6 3d c8 2a 20 3e 3a 64 d2 bd
       -0.0633231 0.10466635 0.1564132 -0.10273023
0000a0 c9 04 13 be a6 29 a8 bd 62 62 24 3d 08 73 65 bd
       -0.14357294 -0.08211069 0.040132888 -0.056017905
0000b0 6f 66 51 bd 5e 49 60 bd b3 c2 9c 3d 2a 1d 6b bc
       -0.05112308 -0.05475747 0.076543234 -0.014350215
0000c0 80 dd 68 3d 17 66 ca bd bd d7 a6 bc 2c 88 f5 3d
       0.056851864 -0.09882753 -0.020366544 0.11988863
0000d0 01 56 3f bd 2b 66 ff 3d de 3c 85 3d 49 96 7a bd
       -0.04671288 0.12470659 0.0650575 -0.06117848
0000e0 1c 8b 31 3d 8a f2 ac bd 45 3c 34 3d 09 1a 06 3d
       0.043345556 -0.08444698 0.04400279 0.032739673
0000f0 1a 6e dd 3d 79 e2 ca bc 70 e7 ae bd 44 5d 91 bd
       0.10812016 -0.024766194 -0.08540237 -0.07097867

weight f4 [3, 64]
000000 5e 63 f9 bd b8 14 cf 3c bd 89 f0 bd af 9f ac bc
       -0.12177156 0.025278434 -0.117450215 -0.021072237
000010 0d 51 e9 bc 00 03 e5 3b 19 d2 8f 3d 12 08 ba bd
       -0.02848103 0.006988883 0.07022495 -0.090835705
000020 c3 cf 52 bd 76 43 0c bd b0 8e 69 bd d4 1d 3c 3d
       -0.05146767 -0.034244023 -0.057020843 0.045926884
000030 7e ac ae 3c 46 72 b6 bd 57 1f e0 3d 60 c7 22 3e
       0.021322485 -0.08908515 0.109434776 0.15896368
000040 02 d7 41 be a0 31 2e 3d e6 34 f5 3c 64 f3 44 3d
       -0.18929675 0.042527795 0.02993245 0.048083678
000050 b4 cf ab bd ee 22 25 3e ec f4 7b 3d 7f db 4a be
       -0.083892256 0.16126606 0.061512873 -0.19810294
000060 da bc 95 bd 07 2c 49 3e 7f 2d 90 3d 70 42 eb bc
       -0.07311411 0.19645701 0.07039928 -0.028718203
000070 a3 97 86 3d 6c 98 4b 3d 6d d9 be 3d a2 3f c5 3d
       0.06571891 0.049705908 0.093188144 0.096312776
000080 27 6b 87 bc 25 74 65 3e d9 1d b2 bd 1a ad 82 bd
       -0.016530586 0.22407587 -0.08697099 -0.06380673
000090 e3 04 a3 3d 10 a3 78 bc c6 b9 1c 3e 08 3a 0b bd
       0.079599164 -0.015175596 0.15305242 -0.03399089
0000a0 da b3 18 3d 17 70 d2 bc 2c 47 f2 3d 2e f8 bb bc
       0.037280895 -0.025688214 0.11829981 -0.02294549
0000b0 2f 5e d5 bb 01 72 b9 3d 0b 62 36 3e 63 f8 5c 3e
       -0.0065114717 0.09054948 0.17810838 0.21579127
0000c0 1c 4c fa bd 42 d4 7c bd d4 bb 0f bd 41 e6 52 bd
       -0.12221548 -0.061725862 -0.035091236 -0.05148912
0000d0 07 3d f5 3d 96 ce b7 3d a0 73 28 bc f1 87 ce bb
       0.11974531 0.0897495 -0.010281473 -0.0063028266
0000e0 58 66 db 3c c0 af dc 3d 1e 17 61 3d 48 3d 79 bd
       0.0267822 0.10775709 0.054953687 -0.060849458
0000f0 0c 24 83 bd 69 58 fc 3d f4 35 b1 bc 30 8b a1 bd
       -0.0640336 0.123215504 -0.021632172 -0.07887876
000100 b4 c6 f7 bd b0 ad 92 3c 17 81 2d bd 7e fe b6 bd
       -0.120984465 0.017905086 -0.042359438 -0.08935259
000110 24 f8 2e 3d ee 49 f9 3d fd db 00 3e 12 f6 91 3d
       0.042717114 0.12172304 0.12583919 0.07127012
000120 4c c3 e3 bd 48 79 6e 3d 93 c6 b3 3d ad f9 81 3d
       -0.11121234 0.05822113 0.087781094 0.0634645
000130 b6 af 32 bd c0 a5 0e bb c2 5a 3e bd 61 19 a7 3b
       -0.043624602 -0.0021766275 -0.046473272 0.005099461
000140 77 c9 09 3e af 9b 1f bd f7 a6 a6 bd f7 08 d1 3d
       0.13455759 -0.03896683 -0.08137315 0.10206788
000150 f8 74 d1 bd 95 c9 7d bc c4 0f 50 3d 95 35 34 3c
       -0.10227388 -0.015489955 0.050796285 0.010999103
000160 e9 fc 50 3e 3e d5 07 3e 45 37 7a bd 10 7a b0 bc
       0.20408978 0.13264939 -0.061087865 -0.021542579
000170 8b 7f c6 bd c7 8a 28 3d 30 64 b4 3d 19 09 70 bd
       -0.09692296 0.041147973 0.08808172 -0.058602426
000180 b1 2b 02 3d c7 ba b0 3d 5c e4 16 bd f0 9e 76 bb
       0.03177995 0.08629375 -0.036838874 -0.0037631355
000190 6d 75 b7 bc ac 55 b4 bd f2 df 1e 3e 94 39 f7 3d
       -0.02239486 -0.08805403 0.15515116 0.12071529
0001a0 6b 6a 91 bd 0b df 92 3d d4 67 0d 3d 1e 8f 29 bd
       -0.07100376 0.07171448 0.034522846 -0.041396253
0001b0 1e 73 20 bd 32 af 06 3d 6b dd 9b 3d c9 a5 d9 3d
       -0.039172284 0.032881923 0.076105915 0.10627324
0001c0 b8 cc c1 bc f7 f2 aa bd da f4 d6 3d cf d2 68 bd
       -0.023657188 -0.08347123 0.104959205 -0.056841668
0001d0 4e b4 ec 3d 7d ab fd 3d e0 5a b5 3c 0e 12 0a be
       0.11557828 0.123862244 0.02213806 -0.1348345
0001e0 82 53 fb bd b0 10 73 3d f6 65 d4 3d d9 18 99 3d
       -0.12271787 0.059342086 0.1037101 0.074754424
0001f0 d4 a3 e1 bd 61 8e 7d 3c 92 d3 b9 3d c1 88 82 3d
       -0.11017576 0.01547584 0.09073557 0.0637374
000200 a6 be d4 3d bc fd c8 3d 09 cc 02 bd 16 9a 84 bd
       0.10387926 0.09814021 -0.031932864 -0.06474702
000210 a7 d0 8b bd 8c e3 2d 3d 91 92 b5 bc 00 f5 01 3a
       -0.06826907 0.042453334 -0.022164615 0.00049574673
000220 81 90 06 3d a9 26 90 3d 95 28 a5 3d 70 34 d7 3d
       0.032852653 0.07038624 0.08064381 0.105080485
000230 a9 a0 2d 3d 52 86 90 3d 4d 85 35 bd 55 da ec bc
       0.042389546 0.070568696 -0.04431658 -0.028912703
000240 e9 c2 09 3e 27 75 3d bd 3c 89 0c 3e 4d 69 12 3d
       0.13453259 -0.046254303 0.13724226 0.035744954
000250 d4 d9 14 3d 7e aa c5 3d 80 15 e0 ba 1b b8 a7 3d
       0.03634055 0.096516594 -0.0017096251 0.08189412
000260 36 50 e5 3c da bc a9 bd b9 8b 0b bd f0 01 c5 3d
       0.02799235 -0.08287974 -0.034068797 0.0961951
000270 c0 71 a2 bd e6 41 9e 3d 57 3e a0 3d 45 c2 e9 bd
       -0.07931852 0.07727413 0.078243904 -0.11414007
000280 98 90 c0 3c 91 59 91 3d 0f 0a bb 3d bb 25 87 3c
       0.023506448 0.070971616 0.09132778 0.016497483
000290 dd 55 eb 3d a0 2c 9a 3b 30 f8 e3 3d a4 25 17 3d
       0.114909865 0.0047050267 0.111313224 0.03690113
0002a0 fc da 75 bd 9f 2d f6 bc d5 e2 32 bd 4e 04 17 3e
       -0.060023293 -0.03005105 -0.043673355 0.14747736
0002b0 4b fd 0f 3d 51 11 02 be 39 ca 69 3d 22 a7 d9 3c
       0.03515367 -0.12701918 0.05707762 0.026568953
0002c0 5e 36 df bd 8b a1 67 3b c9 d4 70 3d f9 49 36 3d
       -0.108990416 0.003534409 0.058796678 0.04450414
0002d0 c5 e6 f6 3c 1d 59 ec 3d a0 b6 5e 3d 58 01 d1 bd
       0.030139336 0.115404345 0.054373384 -0.102053344
0002e0 ce a8 96 3d 0e ea c9 bd 5b 30 fc 3d c3 3c d3 3d
       0.07356416 -0.098590955 0.123139106 0.10314324
0002f0 50 be 3c 3c 8a 88 31 3c 5a 94 a0 bd 4a fe 93 bd
       0.011519983 0.010835776 -0.07840796 -0.07226236

bias f4 [3]
000000 3c 49 04 bc 18 a7 3a bd 4d 7e 16 3e
       -0.008074101 -0.04556951 0.14696617

weight f4 [64, 19]
000000 2e aa ca bd de 12 c3 3d 61 d9 59 be 12 24 ee 3d
       -0.098957404 0.09525083 -0.2127433 0.116279736
000010 df e5 47 3e 60 68 28 be 34 c1 6f bd f4 f6 5f 3d
       0.19521283 -0.16446066 -0.058533862 0.054678872
000020 9b df 60 be b2 a3 14 be 82 67 a3 3d 81 36 5d 3e
       -0.21960299 -0.1451557 0.07978727 0.21602823
000030 e6 5c 8c bd 00 ed 08 bb 2a c7 62 be 2f 7d 61 be
       -0.068536565 -0.0020893216 -0.22146288 -0.2202041
000040 5f 4e 4c 3e 37 5b 47 3e 98 31 8f bd 0d e3 85 40
       0.19951771 0.1946839 -0.06991881 4.183966
000050 de f9 03 c1 8e b3 a5 be 8d 0c 33 3f b9 37 ff 40
       -8.248503 -0.32363552 0.69941026 7.975552
000060 56 29 6e 40 87 cb 9b 3e 4b 62 e2 be 89 80 3c bf
       3.721273 0.30428717 -0.44215617 -0.7363363
000070 da 93 da 3d ab 9b 0a 3e f0 91 46 3e b1 01 b9 3e
       0.10672732 0.13535945 0.19391608 0.36134103
000080 e7 1f 77 be dd 2c da bd 76 ad ee 3d 44 f8 79 bc
       -0.24133264 -0.10653088 0.11654179 -0.015256945
000090 ce 40 d7 bb 07 1a 0d 3c 21 00 48 40 f5 cb df bf
       -0.0065690046 0.008612162 3.1250079 -1.7484118
0000a0 8e c0 42 be e4 20 9c bf 8d e1 c5 3f e3 8e 14 40
       -0.19018766 -1.2197537 1.5459458 2.321221
0000b0 6e 83 8f 3e 0a 20 44 3e 90 02 e4 be b2 f4 a6 be
       0.2802996 0.19152847 -0.44533205 -0.32608563
0000c0 0b 7e 80 bd d2 13 69 bd 9a 78 0d bf 00 e8 a7 bd
       -0.06274041 -0.056903668 -0.5526215 -0.08198547
0000d0 22 f3 d3 3c 98 5f 4c 3d 96 fe 59 bd ba 01 4d 3d
       0.02587277 0.049895853 -0.053221308 0.050050475
0000e0 e3 bf e5 bb 4a fc 22 be b5 07 5e 3e fd ab 4b 3e
       -0.0070114 -0.15916553 0.21682627 0.19889827
0000f0 03 a0 39 be e0 46 08 be d2 a7 e0 3d 86 8c 10 be
       -0.18127446 -0.13308287 0.10969509 -0.14116105
000100 49 bc 1f 3e 5d 2d e0 bd 84 d2 91 bd 6a e0 86 bd
       0.15599169 -0.10946152 -0.07120231 -0.06585772
000110 71 1f 60 3e ca e1 9e bd d4 b7 36 bd 4b 25 0e 3e
       0.21886994 -0.077579096 -0.044608906 0.13881414
000120 6b bb 20 be 00 d8 90 ba 8c 75 35 be e7 d3 58 be
       -0.15696494 -0.0011050701 -0.17720622 -0.21174584
000130 3a d7 19 40 19 55 0b c0 c8 8a 77 3e 18 58 47 c0
       2.4037614 -2.177069 0.24174035 -3.1147518
000140 b6 f1 f3 3f d4 0a 0a 40 82 7b 22 3d ed 03 5e 3e
       1.9058139 2.156911 0.039668567 0.21681185
000150 26 9a 9d be c6 a3 3a be f5 1e 11 3e c3 ba ad bd
       -0.30781668 -0.18226537 0.14171965 -0.084828876
000160 86 d5 3c bd 56 52 d9 bd 58 3e e7 3d 64 48 4e bd
       -0.04610207 -0.106114075 0.11291188 -0.050362006
000170 66 5d cb bd d2 6d 88 bd 6d 00 48 3d 34 d0 64 c0
       -0.09929924 -0.066615716 0.04882853 -3.5752077
000180 19 da 14 c1 ab 17 d2 be d4 ca b4 bf ad 6c 0c 41
       -9.3032465 -0.41033682 -1.4124398 8.776532
000190 39 a1 56 c0 29 64 c2 bd 77 e9 19 bf fa 4f 47 3f
       -3.3535903 -0.0949176 -0.60121864 0.7785641
0001a0 85 e0 05 be 1a c6 e1 be 1f 3d a0 3e db f2 af bd
       -0.13073929 -0.44096452 0.31296632 -0.08591243
0001b0 13 72 17 be b2 7b 85 3e 01 97 44 be 51 03 dc bc
       -0.1478961 0.26070935 -0.19198228 -0.02685705
0001c0 2f b7 8e 3b d3 3d b0 bc e1 77 af c1 a2 3d a2 c1
       0.0043553333 -0.021513855 -21.933535 -20.280094
0001d0 7e d1 5a 3f 30 92 0c c1 fe f1 89 41 c8 12 9c c1
       0.8547591 -8.78569 17.24316 -19.50917
0001e0 35 07 fe bf e9 16 a6 be e2 d3 e2 3e 6c 89 27 bd
       -1.984595 -0.32439354 0.4430228 -0.04090254
0001f0 e1 a4 e3 bd 48 49 d0 3c 14 b7 06 3e 1e c5 49 3d
       -0.111154325 0.025425568 0.13155776 0.04926025
000200 00 19 1a 3e 9f b2 12 be 05 6e 51 3d b4 a6 a5 bc
       0.15048599 -0.14325951 0.051130313 -0.020221092
000210 97 95 04 3d 54 d0 26 be 00 7a a4 ba 8b 44 2a 3e
       0.032369222 -0.16290408 -0.0012548566 0.1662771
000220 cb fe 1b 3e 19 b8 4f 3e 32 46 a0 3d 02 62 b6 3d
       0.15233915 0.20285071 0.07825889 0.08905412
000230 14 fe 7b 3d 0b 8b 2b 3e 32 8d f6 3d f2 a2 8a 3d
       0.061521605 0.1675226 0.120386496 0.067693606
000240 a6 ef a3 bd 1e 63 e3 bd f0 52 68 bd 3e 3a e0 3d
       -0.08004694 -0.111028895 -0.05671972 0.10948609
000250 54 c1 ff bd 66 5d 80 3d 99 88 4d 3e 51 eb 46 3e
       -0.12488046 0.06267814 0.20071639 0.19425704
000260 e0 f5 2c be de eb 85 3d dd 9b 19 3e 6a 62 55 be
       -0.16890669 0.06539129 0.15000863 -0.20838323
000270 75 24 16 3e a3 60 12 be 20 dc 29 be d0 29 c7 bd
       0.14662345 -0.14294676 -0.16587877 -0.09724772
000280 6a b9 b0 bd ba 40 c2 bd 7a 44 87 3d 8e 04 b6 3d
       -0.08629115 -0.09485002 0.06604858 0.088875875
000290 62 9a b6 3d 5f 32 22 3e 18 a3 14 be a8 10 5f be
       0.08916165 0.15839528 -0.1451534 -0.21783698
0002a0 f8 75 3c be 6f 1e 01 be 1e e9 d6 bd 46 5d 11 c0
       -0.18404377 -0.12609266 -0.10493682 -2.271318
0002b0 cd 60 c0 40 fe a7 24 3e d0 8f 1e 40 32 9b ba c0
       6.0118165 0.16079709 2.4775276 -5.8314447
0002c0 94 c4 e9 bf d7 0c 64 be ef 8e 91 3f 6b 46 e2 bd
       -1.8263116 -0.22270523 1.1371745 -0.110485874
0002d0 17 0e 6f be 48 54 8d 3e bc de 8e 3d c9 65 21 3e
       -0.23345219 0.27603364 0.06976077 0.15761484
0002e0 b2 97 e3 3e d2 b6 0e bf 52 17 fa 3c 2c 2c 76 3c
       0.44451672 -0.5574771 0.030528698 0.01502518
0002f0 86 63 8a 3b 0a cc 42 b8 55 df 2b 3f 1a 56 97 be
       0.00422329 -4.644323e-05 0.6713765 -0.29557878
000300 00 8c d4 3e 2f 26 45 c0 13 ef 37 3d e2 15 3e 3f
       0.41513062 -3.0804555 0.044905733 0.7425214
000310 0a 24 85 be 2b d6 2b 3d 85 fb 71 bd b3 d4 24 be
       -0.26004058 0.041952293 -0.05907776 -0.16096763
000320 30 95 8a bd 5d 8f 44 be ff d3 c3 3d 15 a0 d3 3d
       -0.067667365 -0.19195314 0.095619194 0.103332676
000330 28 3e 2a 3e c1 d6 88 be 14 9a 79 be 7d fd 8e bc
       0.16625273 -0.26726344 -0.24375182 -0.017454857
000340 7f 89 81 bd 34 7a 12 3d 16 99 eb 3d 40 31 70 3c
       -0.063250534 0.035761073 0.11503808 0.01466018
000350 40 f8 f8 bb 15 97 0b 3e c1 ac 3b 3e 0e ef 82 bd
       -0.007597953 0.13631852 0.18327619 -0.06393252
000360 12 91 48 be f8 d0 00 be 87 e1 27 3e c8 6b a3 3c
       -0.1958659 -0.12579715 0.16394626 0.019948855
000370 61 26 49 3e b0 5b a4 bd f5 97 5e be 56 e8 91 3d
       0.19643547 -0.080253005 -0.21737655 0.07124393
000380 d6 37 c8 bd 30 73 0c be c1 75 12 3e 00 b2 82 3c
       -0.09776275 -0.13715816 0.14302732 0.015954018
000390 73 16 24 c1 23 fc a7 40 e4 1f ca 3d 1c e6 a9 c0
       -10.255481 5.2495284 0.09869364 -5.3093395
0003a0 21 3c 9e c0 6c 7b 04 c1 d7 1a 50 bf 36 48 44 3f
       -4.94484 -8.280132 -0.81290954 0.76672685
0003b0 61 d2 06 3f 46 0c 24 be 90 48 15 3d ec 37 8a 3d
       0.5266476 -0.16020307 0.036446154 0.067489475
0003c0 63 ce d4 bd ce 72 11 3e de 87 3a bd 77 61 f0 3d
       -0.10390928 0.14203951 -0.04553973 0.1173734
0003d0 5f 8b f3 bb b1 56 f5 bb e0 b3 b4 3b 3f a4 51 3e
       -0.007432386 -0.007487141 0.005514607 0.20472811
0003e0 db fb 0a bd 07 6d 28 be f4 74 b8 3d e4 1c 4b be
       -0.033931594 -0.1644784 0.09006682 -0.1983524
0003f0 c3 f5 43 3e 2d 73 f0 3d 68 6e b6 3d e2 ff 3a 3d
       0.1913672 0.11740718 0.08907777 0.045654185

bias f4 [64]
000000 10 4a 0b bd 6d 77 ab bd 79 51 bc 3c 00 f3 4e 3b
       -0.03400618 -0.08372388 0.022988068 0.0031577945
000010 3d 4e ce bd 91 c2 bb bd b5 14 2c 3c 11 90 57 3e
       -0.100735165 -0.0916797 0.010502984 0.2105105
000020 4e 1b 9a 3d bb 44 a1 be 3f 2d 34 3c 24 36 18 bd
       0.07524739 -0.3149775 0.010997116 -0.037161008
000030 f4 b5 38 3e 60 b8 75 be cc 15 1d 3d a6 37 5b be
       0.1803816 -0.23996115 0.038350865 -0.21407947
000040 04 b5 05 3d fa 73 9f 3e 96 ef 74 be 48 ef af bd
       0.032643333 0.3114317 -0.2391952 -0.08590561
000050 46 26 87 3d 18 f4 75 bd d1 3f 29 be 51 17 e7 3d
       0.06599097 -0.06004724 -0.1652825 0.11283744
000060 66 70 1f 3e 0d 8d 66 be 3a a9 aa 3d 6c f2 7c 3d
       0.1557022 -0.22514744 0.08333059 0.06175463
000070 b4 bc bb 3d 68 89 fc bd c0 c5 ad be 01 54 f2 3d
       0.09166852 -0.12330896 -0.33939934 0.11832429
000080 53 a1 19 be 2c 8b 0d 3d 79 e4 dd be 0b 2a b1 3d
       -0.15002947 0.034556553 -0.43338373 0.08650597
000090 7f 1e 6a bd 4e f4 5f 3e 6e 02 e4 3d 4b 5c 60 be
       -0.05715799 0.21870539 0.11133276 -0.21910207
0000a0 42 4b 22 3e 8c 30 8c be c0 8e e0 bd 88 0e 83 3d
       0.15849021 -0.27380788 -0.109647274 0.06399256
0000b0 4d 1e e1 bd 5d 2d a3 be 58 91 c1 3c 59 ca 8b bc
       -0.109921075 -0.31870547 0.023628876 -0.01706426
0000c0 20 31 ff bd 0f ef 5c 3d 1e b6 13 be 4a 81 1a bf
       -0.12460542 0.05393892 -0.14424941 -0.6035353
0000d0 78 d4 da 3c d1 c8 56 be c2 18 da be 8f 60 1c 3e
       0.026712641 -0.20975043 -0.42597014 0.15271209
0000e0 e8 39 4d be f0 3d ff 3d 70 e6 9e be be 6f 23 be
       -0.2004162 0.124629855 -0.31035185 -0.15960595
0000f0 25 fc 84 bd b8 12 56 bd ca 23 77 3c 22 19 8a 3e
       -0.06493405 -0.052263945 0.015084216 0.269723

weight f4 [64, 64]
000000 b0 62 d7 3c c0 9e 92 3d 70 57 2f bd a4 f9 f6 3d
       0.026292175 0.071591854 -0.042807996 0.12059334
000010 13 97 d1 bc ce f0 16 bd a2 2f a2 bc f6 d8 c9 bd
       -0.025584733 -0.036850743 -0.019798104 -0.09855835
000020 74 c2 d0 3d 0d c0 cb 3d 64 cc 08 be 66 5c 98 bd
       0.10193339 0.0994874 -0.13359219 -0.074394986
000030 c2 ba 8d 3d 9c b1 00 3d 88 19 39 bd b0 06 93 bd
       0.06920387 0.03141938 -0.045190364 -0.0717901
000040 c0 9f ea bc 7b 68 6b bd 6d 94 cc 3d 12 d2 02 be
       -0.028640628 -0.057472687 0.099892475 -0.12775448
000050 0b b7 77 b8 77 2e 0d 3d c6 ae 71 bd 32 d0 3f bc
       -5.905986e-05 0.03446814 -0.059004568 -0.0117073525
000060 f5 03 81 bd 79 75 98 3d f8 d0 3a 3d 80 01 61 bd
       -0.06299583 0.07444281 0.045609444 -0.05493307
000070 74 30 83 bd e1 7d b0 bd ac 69 8b bd 79 2b bf 3d
       -0.06405726 -0.086177595 -0.06807265 0.093344636
000080 9e 1a d0 3d 60 9d cb 3c a0 5f 28 be f8 83 ec 3c
       0.10161327 0.024855316 -0.16442728 0.028871521
000090 19 17 28 bd a2 b5 5b 3d 22 0f 85 3d d8 c3 d6 3d
       -0.041037653 0.053640015 0.06497027 0.10486573
0000a0 90 21 15 3c 4f fe ce ba 00 7a 6d 3a b2 44 60 3d
       0.00910224 -0.0015792343 0.0009059012 0.054753013
0000b0 37 f1 26 3d 57 12 28 3d d0 c1 cc bc b0 d9 ab bd
       0.040757384 0.041033115 -0.02499476 -0.0839113
0000c0 52 3b ed 3d 09 12 df bd b3 fa 9e 3b ec a0 b7 bb
       0.1158358 -0.10892112 0.004851663 -0.0056039
0000d0 c6 90 84 3d 60 82 cb bd d1 da 78 bd 40 4a 6f bb
       0.06472926 -0.099369764 -0.060755555 -0.0036512762
0000e0 70 ce 3a bc a6 32 f1 bd 3e 20 4c 3d c4 49 04 be
       -0.011401758 -0.117772385 0.049835436 -0.12918764
0000f0 96 95 44 bd 98 f0 1c 3d 7a 0f af 3d 68 7c 2c bd
       -0.04799422 0.038315386 0.08547874 -0.04211083
000100 9c bd 8d bd 6d 97 d5 3d c0 96 a5 bb 02 f4 8b bd
       -0.06920931 0.10429273 -0.005053371 -0.0683365
000110 f1 df 19 3d 63 d2 41 3f 5f db 03 3e 96 48 d7 3d
       0.037567083 0.7571165 0.12876652 0.105118915
000120 30 47 d1 bc 8d ea 7f 3e 45 34 44 3d 00 be 72 3d
       -0.02554664 0.24991818 0.04790141 0.05926323
000130 f7 8a 6c 3e f5 bd f8 3d 00 e6 59 3a 73 7b 5f 3e
       0.23099886 0.121456064 0.0008312166 0.21824436
000140 2c de bd 3d 0c 5c b0 3e f4 a9 13 3e bd 91 79 bd
       0.092708915 0.34445226 0.144203 -0.060930002
000150 5d af 61 3d 90 01 47 bd 9b ac d0 bd d1 72 97 3e
       0.05509888 -0.048585474 -0.10189172 0.29579785
000160 00 8e 23 3f 54 e4 05 3e 1a b9 2d 3e 61 be 88 bd
       0.6388855 0.13075382 0.16965142 -0.06676937
000170 e5 4c 84 3d 15 3b 9a bc 58 0c 29 3d 9d 3e 84 3b
       0.06459979 -0.018827 0.041271538 0.0040357844
000180 a8 63 43 3a 98 bc 77 bd 2d 91 11 3f 35 2a 32 b8
       0.00074535096 -0.06048259 0.56862146 -4.2477815e-05
000190 cc 6a d5 3c 68 9b f3 bc a8 f0 bf 3d f2 7b d7 3d
       0.026051901 -0.02973719 0.093720734 0.105216876
0001a0 81 dd a6 bd bb 14 30 3e 4a a5 dc bd d2 c9 53 3e
       -0.08147717 0.17195408 -0.10773714 0.20682457
0001b0 60 7f e4 bc 54 74 45 3d 4c 4c 79 bd 74 42 13 3e
       -0.027892768 0.048206642 -0.060863778 0.14380819
0001c0 d0 7d a5 3c e6 79 34 3e 2c 52 31 3d fa 67 72 3d
       0.020201594 0.17624626 0.043291256 0.05918119
0001d0 14 ab fd 3d b8 e0 90 3d 55 f8 13 be 76 30 ad bd
       0.12386146 0.07074112 -0.144502 -0.08456509
0001e0 e6 fe 8a bd 3f 45 38 3e db c3 25 bd d2 ce 49 ba
       -0.06786899 0.17995165 -0.040469985 -0.000769836
0001f0 9b 52 e4 3c b4 04 12 3d 67 b9 04 3e c9 34 63 3e
       0.02787142 0.035649016 0.1296135 0.22188105
000200 80 6c b7 bd 38 fa 86 bf a6 ec f6 bd 80 9e dc 3b
       -0.089562416 -1.0545111 -0.12056856 0.006732762
000210 da f0 35 be 9b a6 1d bf 20 f1 8d bd e2 3d c6 bd
       -0.17767659 -0.61582345 -0.069307566 -0.09679772
000220 ec 27 67 bd 0a f1 b6 3b 33 05 a1 bd 32 f2 e1 bd
       -0.056434557 0.0055829333 -0.0786232 -0.11032523
000230 5c 81 ac 3d 59 63 20 bd 10 d5 76 3c 60 7b d5 3d
       0.08423111 -0.039157245 0.0150654465 0.104239225
000240 e8 f0 7e 3d 1a 91 00 bf df 17 95 3e a3 46 aa bd
       0.062241465 -0.5022141 0.29119775 -0.08314254
000250 8a 0a e3 bc 46 85 5a 3d 7c b6 32 3d 5e 95 d8 3c
       -0.027714986 0.053349756 0.043631062 0.026438411
000260 56 39 a9 bd 69 43 72 3d 22 e6 4c be 48 52 1c be
       -0.08262889 0.05914632 -0.20009664 -0.15265763
000270 2e 1d 44 bd ce 9b 55 3d ab 9f a6 be 7d d7 cb bd
       -0.04787939 0.05215054 -0.32543692 -0.099532105
000280 8a 1a 9e 3d c4 6a 34 3d ba 5a 6c 3c 2b 34 b4 3d
       0.07719906 0.044047132 0.014425928 0.08799013
000290 75 3b 52 bd 03 ba 0a 3d 96 e2 a9 bd 88 03 dc bd
       -0.051326234 0.0338688 -0.08295171 -0.10742861
0002a0 30 ae de bc 86 07 d7 3d 18 e1 da bd ba 5a 48 3d
       -0.027182668 0.10499482 -0.106874645 0.04891465
0002b0 c7 97 83 bc e2 5f 5a be f4 f1 d1 bd 9e 13 2f bb
       -0.016063584 -0.21325639 -0.10251227 -0.0026714574
0002c0 ac 02 40 3d 57 37 d4 bc be ca fe bc 81 75 bc bd
       0.046877548 -0.025905294 -0.031102534 -0.092020996
0002d0 52 4e b4 bd 37 9e 91 bf c5 ae 32 be 70 5e 93 bc
       -0.08804001 -1.1376408 -0.17449482 -0.017989367
0002e0 e0 a9 44 bd 1d 12 1d bf 55 98 00 bd 47 f6 f0 3d
       -0.048013568 -0.61355764 -0.031395275 0.11765724
0002f0 0c 80 e3 bd c8 ff 8e bd 8f fd 3d bf a3 4e 2c be
       -0.111084074 -0.0698238 -0.74215025 -0.16826873
000300 a4 84 dd bd a3 f4 98 bd 3e fd 11 be 18 a1 8a bd
       -0.10816315 -0.07468536 -0.1425676 -0.067690074
000310 0d d0 9a 3b 22 ec 4a 3d 7d 9c 90 bc d8 23 7f bd
       0.0047245086 0.0495416 -0.017652744 -0.062290043
000320 e6 4e 8b 3d 32 0b 46 bd 87 00 e1 bd 98 a5 c7 bc
       0.06802158 -0.04835052 -0.10986429 -0.024370953
000330 ea 1b ee bd dc 23 f7 3d 10 c7 b7 bc 46 4e e3 bd
       -0.11626418 0.120673865 -0.022433788 -0.11098914
000340 54 9a 22 bd 22 28 48 bc 35 ec 8f bb 52 a9 24 be
       -0.03969796 -0.0122166 -0.0043921717 -0.16080216
000350 53 63 0c be 00 ae 11 bd f0 f5 02 3c 56 d5 1e be
       -0.13709764 -0.03556633 0.007993206 -0.15511069
000360 ba b9 da bc 2b 7e 2e bd fe 81 bd bb 72 25 aa bc
       -0.02669989 -0.042600792 -0.0057833185 -0.020769808
000370 f8 67 a3 bc 55 d0 8c bd da d8 a9 3c cc a7 a1 bd
       -0.019947037 -0.06875674 0.020733286 -0.07893333
000380 f0 ba 04 bd a8 52 6a 3d fd 2b 44 be 20 dc cb bc
       -0.03240484 0.057207733 -0.19157405 -0.024885237
000390 e4 98 b8 bc fc 3d d7 bd 78 62 72 3d 98 a0 7d 3d
       -0.022533841 -0.105098695 0.05917594 0.061920732
0003a0 a8 75 94 bc 07 cd b2 bd 88 cd 77 3d 68 b4 92 bd
       -0.01812251 -0.08730512 0.060498744 -0.07163316
0003b0 69 9d 44 be 53 b1 70 bc d4 03 fc 3d b0 e0 08 bb
       -0.19200672 -0.014690715 0.12305418 -0.0020885877
0003c0 f4 37 8d bd df 5c 15 3c bd 6c c9 bd e7 f5 27 be
       -0.06895438 0.0091163805 -0.09835193 -0.16402398
0003d0 aa 52 b7 3d f6 a7 17 be bf 54 5a 3c ac e4 fa 3d
       0.08951314 -0.14810166 0.013325869 0.12250647
0003e0 4a 0f ac bd 66 20 cf 3c 5c 9e 5a bd c5 f6 a4 bd
       -0.08401354 0.025284003 -0.05337368 -0.0805488
0003f0 3c d3 e9 bc 9c 61 41 3d ed f5 ee bd da 51 84 3d
       -0.028543107 0.04721223 -0.11668 0.064609244

bias f4 [64]
000000 6d a7 0b bd 7c 00 af 3e 87 76 3c be dd 32 04 be
       -0.034095217 0.34180057 -0.1840459 -0.12910028
000010 75 4f 28 3f a4 40 c4 bc 5d 59 b2 3e 22 aa a0 bc
       0.6574624 -0.023956604 0.34833804 -0.019612376
000020 a3 d2 b0 bd 40 a3 0c be a2 b8 4f bd 0d 73 05 be
       -0.08633926 -0.1373415 -0.05071319 -0.1303217
000030 63 af f3 3c e2 a5 ce 3e a4 ac 63 bb 04 4e 2e be
       0.029746717 0.40360934 -0.0034740353 -0.17021948
000040 87 e3 35 be 55 4d be bd 42 8a 57 bd 9f 93 ea 3b
       -0.17762576 -0.09292094 -0.052622087 0.007158711
000050 4f 78 4b be 46 68 36 be 33 c3 45 be 8c 61 34 bd
       -0.19870113 -0.17813215 -0.19312744 -0.04403834
000060 10 f2 f4 3c 68 3c 2b 3d fc 26 82 bc ee 61 6c 3e
       0.02990058 0.041805655 -0.01588773 0.23084232
000070 76 7f 57 bd da 10 1e 3f 6e ba ac 3e be db 1c be
       -0.05261179 0.61744463 0.33735985 -0.153182
000080 eb c5 e7 bd 85 b1 af bd 08 c3 5d 3c 51 c2 f6 3e
       -0.11317047 -0.08578781 0.013535269 0.48195127
000090 f6 86 06 3f d9 db 13 3f fc a4 07 be 37 5b f7 bd
       0.52549684 0.57757336 -0.1324653 -0.12077945
0000a0 36 a6 08 be 8b 3c 01 be 1f 69 f3 bd 90 ed 5a bd
       -0.13344654 -0.12620752 -0.11885285 -0.053449214
0000b0 68 0c 0c 3e bf 79 42 3f b6 74 12 be 42 ff f8 3d
       0.13676608 0.7596702 -0.14302334 0.121580616
0000c0 2a 46 80 3d 74 22 c5 3c 7a 18 2d bd 02 68 b6 bd
       0.06263383 0.02406428 -0.04225967 -0.08906557
0000d0 86 83 e0 bd 25 26 5d 3c d3 64 ca bb 4e 24 58 bd
       -0.10962586 0.013497864 -0.00617657 -0.052768998
0000e0 bb ad 6a bd 67 07 7f bd 3b 61 7a 3c ee a0 d5 bd
       -0.05729459 -0.06226292 0.015281971 -0.104310855
0000f0 a0 ad cc bd 32 24 03 bd b4 ce 9e bd b4 bf 8d 3c
       -0.09994054 -0.03201694 -0.07754269 0.017303325

weight f4 [1, 64]
000000 a1 a6 8c bc c6 ae df bd 0f a3 a8 3c 64 50 c4 bc
       -0.017169299 -0.10922007 0.020585565 -0.023964114
000010 c8 56 4c be 0b ec ec bc 44 55 91 3d 35 b1 95 bc
       -0.1995498 -0.028921148 0.07096341 -0.018272975
000020 15 f0 a9 bc a5 49 97 3d 13 a0 ef bc 7f c0 0f bc
       -0.020744363 0.073870935 -0.029251134 -0.008773922
000030 2d 0b d9 bc 96 f0 b3 bd b7 35 bc 3c 55 bd 37 3d
       -0.026494587 -0.087861225 0.022974832 0.044858295
000040 9a 3c 2e 3e 36 7a 0f 3d ae 42 9d bb 47 db ee bc
       0.17015305 0.03502866 -0.0047992086 -0.029157294
000050 1a 2c d1 3c 91 23 5f bc 7f 58 3b 3d 8e 3a 86 bd
       0.025533725 -0.01361932 0.045738693 -0.06554137
000060 b0 8b 21 3e 66 48 94 3b 88 1c f4 bc aa ab 47 be
       0.15775943 0.004525232 -0.029798761 -0.19499078
000070 63 4e eb 3c 6d b5 8a 3e b1 0a f9 bd b8 2c b0 bc
       0.028723901 0.27091542 -0.12160242 -0.021505699
000080 15 9c b6 bc ac 1a 52 3e ec 38 20 bd 11 b3 19 be
       -0.022291223 0.20517987 -0.039116785 -0.15009715
000090 da d7 70 be 87 c8 8f be e7 d5 b0 bc 5d 2f 9d 3c
       -0.23519841 -0.28082678 -0.021586372 0.019187624
0000a0 dc 96 a7 3d 5c 06 6c bc 2a d2 87 bc 0d 35 d1 bc
       0.08183071 -0.014405813 -0.016579706 -0.025537992
0000b0 36 81 8a be 35 75 49 3e c9 9e 7c 3c 41 b1 cf be
       -0.27051705 0.19673617 0.015418717 -0.40564921
0000c0 47 05 1c ba 96 29 10 3d 6f 6c a5 3c dd 01 b9 3d
       -0.0005951714 0.03519591 0.020193307 0.090335585
0000d0 7a 46 e0 3d cc 88 13 3e 38 ba c9 3a 19 3d 10 3b
       0.10950942 0.14407653 0.001539058 0.0022009073
0000e0 c8 43 6f 3b be 09 ac bd d4 95 cc bb 7b ba 42 bd
       0.0036508907 -0.08400296 -0.006243447 -0.047541123
0000f0 9c 2b 41 3c 61 26 99 3d 37 79 08 3d 20 8f bd 3b
       0.011790182 0.07478023 0.033318724 0.005784884
