output/ppo/2021-12-16_21-06-58-ppo_s3/pyt_save/model.pt (torch_old, 47572 bytes, 12 tensors)

log_std f4 [3]
00000000: 0747 c9bf c04a bfbf c68a bebf
-1.5724801 -1.4944687 -1.48861

weight f4 [64, 16]
00000000: 7a69 c4be f594 8bbe 0bde 5bbd 3eea a8be
00000010: fb4a f13c 4a57 a6be e608 0e3e 2b31 1b3e
00000020: a8e8 c53c 663c 493e ec2f 4ebd 2f14 083e
00000030: ed9d 16be 71f2 25bd 851b dfbd ca2d f13b
00000040: 6fdc e0bd 7574 923d 943a 11be 9480 993e
00000050: 79fd 683e 0edd bbbd ab3d 833e d6b4 86be
00000060: be22 1bbe 1c2b 0fbe 1619 0cbe 94df 153d
00000070: e9d4 2bbe fb78 2dbe c714 d3bd b1b0 2f3e
00000080: e4d7 12bf ccc0 893e 3dea ed3c 02b6 a5be
00000090: 768e 0dbf f1e9 24bf 7c44 0bbe 4fcf b3bb
000000a0: 1319 b5bc 0a01 bcbb ecda 02bd 441e 47be
000000b0: a711 283e 5f67 2fbd f96b 17be 887c dcbc
000000c0: 2d9a dbbe 0d9d 4d3e 10df 603e 6ddd 2ebf
000000d0: 3c08 dcbb 8abc 3fbe dd8f 1d3d f3ee ec3d
000000e0: b9f0 4fbe 351c 503e 6897 cd3d 9b46 e1bd
000000f0: 0d76 353e 7c63 873c dd6c 38be 99ac e1bd
00000100: 17b7 bfbc 801d cdbe 4eb9 e9be 43a4 13be
00000110: 49f1 a53e 0ad2 853e ea55 85bc 4dc4 753e
00000120: 47b6 4bbd b6cd 51bd 8e06 543e c7c8 0d3e
00000130: 3635 edbc 5e64 2b3e 3fa7 1a3d 8463 e63d
00000140: a3a9 95be 03ef 8fbd 088a eebe 7a7f 833d
00000150: 8d8f 873d 0a4d 99be e62c 003e b476 72be
00000160: a616 a6bd 459a 43bd ee8d 01be 7df7 753d
00000170: 6e03 35be 8360 553e 114d a63d 3828 f93d
00000180: fe38 51be 287f 0d3d 51c1 49be 737b 9ebd
00000190: f06a cc3d 044e 653d 9f56 8f3d 605e dbbd
000001a0: a374 ac3d fd4f e1bd 3bf0 14be 28ce 81bd
000001b0: 4652 0f3e 87cf 4abe 7b85 be3d 140e e23d
000001c0: fe11 833d 6d43 56be 85ed 49bf 9712 db3b
000001d0: 8398 643e e91d e93e 3a93 8f3b 8edd 553e
000001e0: 72a7 b63d c110 73be 4108 7cbe 2372 1ebe
000001f0: df01 79be 7645 01be 6c21 523d 0de6 0c3b
00000200: 677b 3a3e 6873 0fbd 3877 003e a3a3 943e
00000210: 59cd 303e 227f 1d3e a47f 12be 61d6 e83c
00000220: 07c0 c73d 540a f63d d302 6ebe 9764 05bc
00000230: f98c 86be 50b6 bbbc f324 2abc 52ac 723d
00000240: 2427 d93d 18cc 4fbe 3d02 0a3f b139 e9be
00000250: 2ac9 943e be83 e43e 01ae 65be 6840 923e
00000260: dc39 2f3d ac96 7c3e c91b 7d3e e5e5 44be
00000270: 6a30 3d3e cdbc f63c a9b9 ad3d 2ed7 b9bd
00000280: f4ee cabe 035a 503d d66b 803b 1398 43bd
00000290: fc59 7dbe 9bfb dabe a200 b43d a0fc 07bd
000002a0: 8be6 2bbd 32e0 c0bd 1157 e63c af6b 4a3d
000002b0: 1364 87be 7e3f 8e3d fae5 07bb 00ba b43d
000002c0: b527 b5be ff4a 1c3f 82bf 163f fdad 2c3d
000002d0: bcc4 5fbe 2563 2bbe 5f01 a63e 0616 443e
000002e0: 3b2a a43d c762 db3d 8c3f 8eba 01f3 1c3e
000002f0: 1fc2 2fbe c0ed 973c a8e8 9b3e dc0c e7bd
00000300: d5ea 0bbd 6cf1 743d 553f fc3b 6c48 4a3e
00000310: 414c 98bc 8984 363e b076 00be bb0f 483e
00000320: 5a89 47be 2606 123e 8564 0c3e 2fc2 543e
00000330: 4761 553e f42c dabd eabe 223e a1cc 4ebe
00000340: ea45 e03e 2f9d debe 24b0 363c 9141 5fbd
00000350: 8b4e 093f e051 bc3e 9f21 a6bd f292 f8bd
00000360: a50b 293e c202 68bc e9a7 563d 73b9 093e
00000370: 044d fcbd abff 2ebe 4550 8e3d 67be 503e
00000380: 5b5f 263f 5881 cebe d281 11bf 7e5e 173e
00000390: c73e 113f 5c8a 8e3e 7e30 16bd 17c0 1f3e
000003a0: 9807 743e 7584 6c3e 14ec 833d e5d2 863e
000003b0: 1884 7fbe 7ae8 8e3b cca3 373d 146a 2b3e
000003c0: f7e2 483d 7caf 233e 18a3 60be e46a debc
000003d0: fc24 c03d 9cf0 233e 94cc 723d d472 253e
000003e0: 542b a0bd c17b b0bc 05ef 703e e7d1 2d3e
000003f0: f81a 343e b206 59be 4f83 d1ba e73a 5cbe
-0.38361722 -0.27262083 -0.053678554 -0.32991213 0.029454699 -0.3248847 0.13870582 0.15155475
0.02415879 0.19651946 -0.05033867 0.1328895 -0.14708681 -0.040514413 -0.10893921 0.007360195
-0.10979544 0.07151119 -0.14182502 0.2998091 0.22752942 -0.09173022 0.25632986 -0.26309842
-0.15149972 -0.13981289 -0.13681445 0.036590174 -0.16780438 -0.16940682 -0.10306697 0.17157246
-0.5736067 0.26904905 0.029042358 -0.32365423 -0.55295503 -0.64419466 -0.13600343 -0.0054873596
-0.022106683 -0.0057374286 -0.03194706 -0.19445139 0.16412984 -0.04282319 -0.14787282 -0.02691485
-0.42891064 0.20079441 0.21960092 -0.6830662 -0.006714849 -0.18724266 0.038467277 0.115690134
-0.20306672 0.2032326 0.10038644 -0.10999795 0.17720814 0.01652693 -0.18010278 -0.110192485
-0.023402734 -0.4006157 -0.4564919 -0.1441813 0.32410648 0.2613681 -0.016276319 0.24000664
-0.04973438 -0.051221572 0.20705625 0.13846122 -0.028956037 0.16737506 0.037757155 0.1124945
-0.29230985 -0.0702801 -0.46589684 0.064207986 0.06619177 -0.2994159 0.12517127 -0.23678094
-0.081097886 -0.047754545 -0.12651798 0.060050476 -0.1767709 0.20837598 0.08120168 0.12165874
-0.20431897 0.034545094 -0.1970265 -0.0773839 0.09981334 0.055982605 0.069989435 -0.1071136
0.08420684 -0.11001585 -0.14544766 -0.06338149 0.13996229 -0.19805728 0.09302803 0.110378414
0.06399916 -0.20924158 -0.7887805 0.0066855657 0.22323804 0.45530632 0.0043815644 0.20885298
0.089186564 -0.2373686 -0.24612524 -0.15473227 -0.2431712 -0.12624153 0.051301405 0.0021499426
0.18211137 -0.03502217 0.12545478 0.29031095 0.17265834 0.15380529 -0.14306504 0.028422536
0.09753423 0.12013689 -0.23243265 -0.008141658 -0.2627943 -0.022914082 -0.010384786 0.05924637
0.106031686 -0.202927 0.53909665 -0.45551828 0.29059726 0.4463176 -0.22429658 0.28564763
0.04277979 0.24666852 0.2471763 -0.19228323 0.184755 0.030119324 0.084826775 -0.090742454
-0.39635432 0.050867092 0.003919105 -0.04775245 -0.24741358 -0.42770085 0.08789183 -0.033199906
-0.04196791 -0.09417762 0.028117688 0.0494191 -0.26443538 0.06945704 -0.0020736442 0.08824539
-0.35381857 0.61051935 0.5888597 0.042158116 -0.21852392 -0.1673704 0.3242292 0.19149026
0.08015867 0.107122 -0.0010852679 0.15327074 -0.17163895 0.018545985 0.3045094 -0.112817496
-0.0341595 0.05980055 0.0076979795 0.19754189 -0.018591048 0.17823996 -0.12545276 0.1953725
-0.19485989 0.14260158 0.1371022 0.207772 0.2083789 -0.106531054 0.1589314 -0.20195247
0.4380334 -0.43479297 0.011150394 -0.05450589 0.5363547 0.36781216 -0.081118815 -0.121374026
0.16508348 -0.014160814 0.052406225 0.1344965 -0.12319377 -0.17089717 0.06948904 0.20385133
0.6498925 -0.40333056 -0.56838715 0.1478214 0.56736416 0.27839935 -0.03666734 0.1560062
0.23831022 0.23097403 0.06441513 0.26332775 -0.24952734 0.0043612095 0.044833943 0.16739684
0.049044576 0.1598491 -0.21937215 -0.027150579 0.09382054 0.16009754 0.059277132 0.16157085
-0.07820764 -0.021543385 0.23528679 0.16974603 0.17588413 -0.2119396 -0.0015984568 -0.21506844

bias f4 [64]
00000000: d770 e3bc 53eb 303e 89f7 86bd 21e3 bbbc
00000010: 0b27 49be 6e89 4fbe 3551 b8bc e1ee 4a3e
00000020: 78a5 443e b8cd a33d 9756 e73d db62 133e
00000030: 9d13 7fbe 4a14 513d 0374 cf3d b7e7 39be
00000040: d535 09be 85a1 29be 1751 f43c 2772 9fbd
00000050: 824e 3fbe 93f6 023e a333 903d 885f 3e3e
00000060: 1fc5 9ebd e4ca 30bd de68 4a3e 0a18 3a3e
00000070: b569 83bd 276c 1abe 61c3 53be 103b 8fbc
00000080: 5178 023e f1d2 66be 5007 08bd 001f 733e
00000090: fbf7 683e 15fa 7dbe f3f3 6e3e 8999 283e
000000a0: 99a5 333e 3dcf 26bd fdfd 303d c957 193e
000000b0: 4acf d4bd df6f 993c 6207 143e 12d7 673e
000000c0: 14c0 5c3e 40ba 05be 7303 5fbd cf48 903d
000000d0: 60a8 5e3c c6ca 2dbd 321f fa3d a25e 56be
000000e0: f08e 42be e1ac 5d3c c084 e93d 84be 1e3e
000000f0: f32e 8fbd b908 2a3e f435 31be de59 4abe
-0.027763767 0.17277269 -0.06590182 -0.022935452 -0.196438 -0.20267269 -0.02249966 0.19817688
0.19203746 0.07998222 0.112958126 0.14393179 -0.24909826 0.05104474 0.10129549 -0.18154798
-0.13399442 -0.16565521 0.029823823 -0.07785445 -0.18682292 0.12789373 0.07041099 0.1859113
-0.077524416 -0.04316224 0.19766566 0.18173233 -0.064166464 -0.1508032 -0.2068 -0.017484218
0.1274121 -0.22541405 -0.0332101 0.23742294 0.22750847 -0.2480243 0.23335247 0.16464819
0.17543639 -0.04072498 0.043210972 0.14974894 -0.103911 0.018730102 0.14455941 0.22640637
0.21557647 -0.1305933 -0.05444665 0.07045137 0.013589948 -0.042429708 0.12212981 -0.20934537
-0.18999839 0.013529987 0.11402273 0.15502363 -0.06991377 0.1660489 -0.17305738 -0.19760844

weight f4 [64, 64]
00000000: 60c6 453a d0a4 bc3c d3a0 9cbb e9d1 74bd
00000010: 4e92 e53d 1a20 c8bd 8f81 6a3d 4614 9f3c
00000020: 9d47 3a3d 9e14 0ebe 5ad9 50bd 48e1 ecbd
00000030: dab7 0d3d 187d 9d3d 84d6 483d f1f2 b83d
00000040: 88ad 283e 7093 b0bd 929d 8bbd f9c9 2a3d
00000050: fb20 8b3d 01b1 f5bc 0f3e e73d 064c 533d
00000060: b07a aa3d dcd7 da3c f123 b13d 7aad 88bd
00000070: b4d5 923d fc49 873d c1f4 113d 81f7 00bc
00000080: b58f 32bd 1d15 b53d 6707 913d d27d 9b3b
00000090: 9566 24bd ce23 ecbd 87f5 ea3d 15de 1f3d
000000a0: c0c5 64bd 4c63 15be a1c8 c1bd eaf3 3f3d
000000b0: 25c1 0dbe f24b 4abc 42c2 cebd 86d7 94bd
000000c0: 5a58 c13d c8b5 d6bd d0d8 cc3d 596d 5e3d
000000d0: 5561 7cbd 8889 8dbc 50ef f0bc 277f 89bc
000000e0: 8c18 cb3c 013b 133d 44fb e53d d7c8 e2bd
000000f0: 3b88 07be 7724 043d 3c27 26bc 0c2b a83d
00000100: ba55 933c 7d7c 98bc 7a08 23bc e2aa b93d
00000110: 5647 903c 2271 853b a455 db3d 09ba 053e
00000120: 1392 463d 1472 b9bb 9e1c 8dbd f648 1f3d
00000130: 6652 3ebd 35bf 15be a4d3 44bd e990 c63c
00000140: 3331 9b3d b05f 3bbd 4c80 bb3d 7b54 89bd
00000150: 8adc 4a3d fc2d d1bd 464d ec3d 55fd 693d
00000160: e930 b03d 2cad f2bd 2503 973d 580b b5bd
00000170: 4cbc fa3d 110c a63b cb87 923d f167 6abd
00000180: fe89 c93c ceed db3d 7598 ca3d 1fda 7e3d
00000190: 7ecd 8cbd 638b 8fbd d489 533c acb5 573d
000001a0: 397f 023e ab47 5b3d 948b d93c 1304 c0bc
000001b0: 2008 85bd f06b 883c cdd3 ebbc 7ef4 573d
000001c0: 114a 5fbd 1b6c b5bd d5b0 d73d d113 41bd
000001d0: 46c3 203d b9cf f33c 1f30 03bc 4d9e b53d
000001e0: 8689 06be f3ed e13d 4924 903c dce6 733d
000001f0: 21a5 d2bd 1159 193d ebb0 183d b409 c4bc
00000200: 4b88 9c3d f050 e9bc 5b78 8fbd 31fa 8bbb
00000210: ec5f 07be 58ea d4bc 50e4 adbc 6c7f b9bc
00000220: 7027 993d 027a 953d 7555 3ebc 8dce a03b
00000230: e509 413d e3f1 e7bd 8a5b 533b 0357 7f3d
00000240: 05a2 d8bd 376f 0cbc be5c 4d3d f4db a93d
00000250: 77b6 02be e613 923c cc7e 07be 1726 ff3b
00000260: e1c2 b33d 9fd7 9b3d 59a7 7e3d 231e 39bd
00000270: 3224 dbbd d5fd e6bd 4a67 de3d ede6 c53d
00000280: f0b5 e53d fd54 713d 442a af3d 9da2 913c
00000290: 647d a0bd eb9e 6d3c 352f 03be e491 d4bd
000002a0: 58dd 94bd 6f61 123d fc6f 8abd b61e 1fbd
000002b0: 6eef aebd 47b6 e4bd a4a8 023d 27db 77bd
000002c0: e83b 0c3e 2b27 a4bd f636 13bd 17fe b6bd
000002d0: 74ff 763b 0704 893d 1351 9fbb 009c 09bd
000002e0: 514a debd b965 5cbd c796 86bd 39ef bc3d
000002f0: 5be4 e33d ecaf 333d 2685 86bd d6ce ef3b
00000300: 0ff6 903d 99d5 343d bd69 1abe 0623 733c
00000310: 9d1b 643d 2247 0fba c621 0dbd a75c 5d3c
00000320: e4b5 9dbd 9bdc c53d 2c4f 113d 3b32 e2bd
00000330: 31a7 773d 3e6d b4bc e75b 193e a75c 50bd
00000340: 6d95 8ebd bb45 46ba 6d19 b13d cbb9 64bd
00000350: 4ca0 b63b df4b a03d 4d0b 54bb cc40 79bd
00000360: 828b a6bd 5683 823d f45d 273d b164 e93c
00000370: 7a5a 7fbd b414 d53b 76f2 b13c 87f6 783d
00000380: 9a4a 1b3d ad29 c43d ddbf f0bd 8916 96bd
00000390: c275 49bd 5074 d1bd a973 75bd b37e da3d
000003a0: 0f9b 143d 67b9 c4bc 55fe 91bc 66ed debd
000003b0: 1c36 9abd e025 c63d b373 9abd 0473 4f3b
000003c0: ce45 b3bd 3ad3 e8bd ea28 57bd fc9f 34bd
000003d0: fa11 f43d 5db2 2ebc ba1c 64bd c1a5 0f3e
000003e0: 89ef 933d fd9b b53d f0c7 bdbc 1963 1bbe
000003f0: cae6 d83d 3d6f b83c cdb1 3bbc 348e ae3d
0.0007544514 0.023027807 -0.004779914 -0.0597705 0.11209546 -0.09771748 0.057252463 0.019418847
0.045478452 -0.13875052 -0.050988533 -0.115664065 0.034599163 0.07689875 0.049032703 0.090307124
0.16472447 -0.086218715 -0.068171635 0.041696522 0.067934 -0.029991629 0.112911336 0.051586173
0.08324182 0.026714258 0.086494334 -0.06673713 0.07169667 0.06605908 0.035633806 -0.0078715095
-0.04359408 0.08841918 0.0708149 0.0047452236 -0.040136892 -0.11530267 0.11472612 0.039030153
-0.05585265 -0.1458866 -0.09462095 0.046863474 -0.1384321 -0.012347208 -0.100956455 -0.0726767
0.0944068 -0.10483891 0.10002291 0.0543035 -0.06161626 -0.017277494 -0.029410988 -0.016784264
0.024791978 0.035944942 0.11229566 -0.110734634 -0.13235562 0.032261338 -0.01014119 0.082113355
0.017985214 -0.018614048 -0.009950751 0.090657964 0.01761214 0.0040723244 0.10709694 0.13059248
0.04847915 -0.005659351 -0.06890224 0.03888794 -0.0464653 -0.14623721 -0.0480534 0.02423902
0.075777434 -0.04574555 0.0915533 -0.067055665 0.04952673 -0.10213849 0.11538176 0.057126362
0.08603079 -0.11849436 0.07373647 -0.08840054 0.12242946 0.0050673564 0.07154807 -0.057228032
0.024601933 0.10738717 0.0989236 0.062219735 -0.06875132 -0.07009008 0.012911279 0.05266349
0.12743844 0.053535145 0.026555814 -0.023439443 -0.0649569 0.016653031 -0.028787518 0.0527234
-0.054513995 -0.0885851 0.10531775 -0.04713804 0.039248727 0.029762136 -0.008007078 0.08868084
-0.13138399 0.11031713 0.017595427 0.059546337 -0.10285402 0.037438456 0.037278097 -0.023930408
0.07643183 -0.028480977 -0.07005378 -0.0042717685 -0.13220185 -0.02599065 -0.021227032 -0.022643767
0.07478225 0.07298662 -0.011617054 0.0049074353 0.047128577 -0.11325433 0.0032250606 0.06233884
-0.10577778 -0.008571438 0.050137274 0.08293906 -0.12764917 0.017831754 -0.13231963 0.007786523
0.087774046 0.07609486 0.062171314 -0.045194756 -0.10700263 -0.11278883 0.108595446 0.09663186
0.112163424 0.05891894 0.085529834 0.017777735 -0.07836416 0.014503221 -0.12810977 -0.10379389
-0.072687805 0.03573745 -0.067596406 -0.038847648 -0.08541761 -0.11167579 0.03189911 -0.060511734
0.13694727 -0.08015283 -0.035941087 -0.089351825 0.0037688883 0.06690221 -0.0048619597 -0.03359604
-0.108540185 -0.053807948 -0.06571727 0.092253156 0.1112754 0.043868944 -0.06568365 0.007318358
0.07078182 0.044149015 -0.15079398 0.014839893 0.055690397 -0.00054656167 -0.034456037 0.01351086
-0.077007085 0.09661218 0.035475895 -0.11044737 0.06046218 -0.022024747 0.14976464 -0.05086961
-0.069620945 -0.0007563491 0.08647428 -0.05584125 0.005573308 0.07826971 -0.0032355369 -0.06085281
-0.08132078 0.063727066 0.040861085 0.028490396 -0.062342145 0.006502712 0.02172206 0.06078198
0.037912942 0.095782615 -0.11755345 -0.07328517 -0.04918457 -0.10227263 -0.059924755 0.10668697
0.036280688 -0.024014188 -0.01782147 -0.10885124 -0.07529852 0.09675193 -0.07541599 0.0031654248
-0.087535486 -0.11368413 -0.052529253 -0.044097885 0.11917491 -0.010662642 -0.05569146 0.14028074
0.07223422 0.08867643 -0.023166627 -0.15174522 0.105908945 0.02251398 -0.011455965 0.08523217

bias f4 [64]
00000000: af45 7b3d 1cc9 69bc c318 0bbe 1543 a1bd
00000010: 99e5 38bd 8736 8fbd f55b d43d 5d4b 5cbd
00000020: 5749 263d 9024 f63a a51a 283c 5a9e f3bd
00000030: c657 a23b 8457 02bd 404d 823d 272a 9b3d
00000040: 0b6e 0abe 2c42 4fbd 62be e7bd f299 03be
00000050: d21d 253d 5941 05bd efce 11be 39a4 b33d
00000060: 8047 043e b5ab 6e3d 1b1d 413d a466 fbbd
00000070: c50f e23d a933 b0bd 14a7 9b3d db0d 47bd
00000080: f496 a9bc f67d 9d3d 260f ef3d baeb d23d
00000090: 3658 aebc a347 10be 66cd 99bd 2450 593c
000000a0: b295 61bc bb61 eb3d e41a ea3d a672 ca3d
000000b0: 0b26 5cbd 8de6 37bc 64fd cc3c 184e 023e
000000c0: 76a9 64bd 4d1a 6ebd d83a dfbd c18f 2cbd
000000d0: 376c 96bc 1f7d a8bd 9c4b b238 a11a 533d
000000e0: 84aa 213d f895 aebd 484e e13d 39c1 c2bd
000000f0: b2ef bb3d 03d3 83bd ee61 d5bd b51a b9bc
0.061345752 -0.01426914 -0.13583665 -0.07874123 -0.045140836 -0.06992822 0.10369102 -0.05378281
0.040597286 0.0018779207 0.010260259 -0.118954375 0.004954311 -0.031821743 0.063623905 0.07576399
-0.1351854 -0.050600216 -0.113156095 -0.12851694 0.040311642 -0.032533024 -0.14239095 0.08771557
0.129179 0.05826922 0.047146898 -0.122754365 0.11038164 -0.086036034 0.07600227 -0.048597198
-0.020701863 0.07690041 0.11672811 0.102988675 -0.021282297 -0.14089827 -0.0750988 0.013263736
-0.0137686 0.1149325 0.1143091 0.09885149 -0.053747218 -0.011224401 0.02502317 0.12725103
-0.055825673 -0.05813055 -0.108998954 -0.042129282 -0.018362148 -0.0822699 8.501785e-05 0.051539067
0.039469257 -0.08524698 0.11001259 -0.095095105 0.09176578 -0.06436732 -0.10419069 -0.022595743

weight f4 [3, 64]
00000000: 9d1c 4b3d 569d a2bd 2802 37bd ca4a 1f3c
00000010: d0cd 2f3b fcf7 613d ea80 903d 4bce 013e
00000020: c076 8b3c d3d7 99bd 027e b9bd 3100 ffbb
00000030: 62cf 583b 2aa1 ec3d 2132 833d 992f 063b
00000040: a368 9cbc 3a7d 1fbd 944e 2d3d 07a6 6bbc
00000050: 320f 91bc ad7e 703d f4e1 b33d 6fc1 63bc
00000060: 91a5 c6bd fa60 debd 309a 5c3d e284 16bd
00000070: ee6b b53d 4abf f53b 5b7e 303d 069c 01be
00000080: 7689 b1bd e8cc 453d e58f b0bc b349 f4bd
00000090: 5a9a 953b ac4e fabc 2110 e7bd 1987 133c
000000a0: 4ed3 bf3b cb88 ba3d bacc 92bc 9fc4 393c
000000b0: 3d0e cbbd 5888 0abe 3501 9d3d 5e74 513d
000000c0: ad87 f4bd dadf dd3d 4684 ec3c e740 16bd
000000d0: d371 873c c34f aebc 4ced d23d 084d c0b9
000000e0: 319c 483d d462 bfbd db61 9d3d f0e1 82bc
000000f0: d9bf df3d e84f cf3d 86fa 4bbc 42c6 dc3d
00000100: 7267 f93d b688 ed3c 8e63 47bd 373b 9bbb
00000110: dd42 c8bd f1a8 ef3d 1429 0dbd a734 923d
00000120: ab7f e9bd 42ad 083c 6117 a43d adef cb3b
00000130: a807 1cbe cc86 00be 4092 9b3d e8b2 febb
00000140: 5f44 a9bd 02dc 3fbc f48a 0a3c aab9 efbd
00000150: aeac 90bb 58c3 a0bd 404b 90bd e3df 543d
00000160: 4cff 0b3e e5f5 fd3d 76ac 64bc 00bb c1bd
00000170: 63e8 cb3c f158 91bd 1767 be3d 9a82 a53d
00000180: a468 c33d 6e2e e7bd afcd 9a3d e3ea 1a3e
00000190: dbd0 ddbd b308 fbbd 0da5 6ebd 9c00 45bd
000001a0: fb8d f6bd 917d 12be 02b7 a73d 8bce 353d
000001b0: 26b2 d93d 57e8 5a3d 6acb 87bd 5bdd be3d
000001c0: 6da5 24bd 3661 2e3d 8799 9cbb 0137 12be
000001d0: e749 b33d 55d8 dabc 7561 9e3d 7d83 823c
000001e0: b34e 433c fa23 11be da86 ce3d 98b4 9ebd
000001f0: 258d 58bd d109 51bc 495d 573d b1e0 95bd
00000200: 1e82 aebd c0fe 0dbd 3b31 a63d 28e2 dfbd
00000210: 9edd 5abc 92fe 32bd addc 34bd 8964 e0bd
00000220: 597a 103d c9c1 b5bd 264b 143b 4d69 cb3d
00000230: d56b 8ab8 80a4 bdbd 46d5 aa3d 9a7b 973d
00000240: 529f 7d3d 8570 9fbc fe8b a6bb 982e 7fbd
00000250: 2669 903a b502 cdbd c51f 863d 598a 663d
00000260: 39f5 df3c 49e3 b53d 77bd e93c 4b9f ecbd
00000270: 7dce f23b df7b 1f3d 1bb6 753b 0aee 40bd
00000280: 13fe 04be 5ecc d73b 3fad 4abd 02ef ecbd
00000290: 6dbf 803d 4dc3 a13d b004 be3d 6f53 8ebd
000002a0: 4f62 39bd ded3 07be 6e46 023e 1c8f 383d
000002b0: d6cc 1f3d 0e63 023e 6656 e5bd fb69 d5bd
000002c0: 2106 aabd 2838 bcbd f613 30bc de8a c6bd
000002d0: 7448 65ba 8fe6 953b 2ab2 b43c ea4c 76bd
000002e0: 3078 883b 03d9 b8bd fd5d b4bd c0a2 013e
000002f0: 2e8b 03be 9a7a dd3d 6af7 12bd e404 b4bc
0.049587835 -0.07940166 -0.04467979 0.009722421 0.0026825555 0.055168137 0.070558384 0.12676351
0.017024398 -0.07511868 -0.09057237 -0.0077820052 0.0033082594 0.11554177 0.06406046 0.0020475148
-0.019092863 -0.038937785 0.042311266 -0.014382846 -0.017707441 0.058714557 0.087833315 -0.013901099
-0.09699548 -0.108583406 0.053857982 -0.03674782 0.088584766 0.00749961 0.043089252 -0.12657174
-0.08668797 0.048291117 -0.02155299 -0.119281195 0.0045655193 -0.030555092 -0.11282373 0.009004378
0.005854047 0.091081224 -0.017919887 0.011338382 -0.09914825 -0.13528574 0.07666246 0.051136367
-0.119399406 0.10833712 0.028871667 -0.03668299 0.016533768 -0.021278268 0.10299167 -0.00036678487
0.04897708 -0.09345022 0.0768468 -0.015976876 0.10925264 0.10122663 -0.012449866 0.10780002
0.12177934 0.028995853 -0.048678927 -0.0047372836 -0.09778378 0.11702145 -0.034463003 0.07138949
-0.11401304 0.008342089 0.08012272 0.00622364 -0.15237296 -0.12551421 0.07596254 -0.007772792
-0.08264994 -0.011710169 0.008455981 -0.117053345 -0.0044151163 -0.07849759 -0.07045603 0.051971328
0.13671607 0.12400416 -0.0139571335 -0.094594955 0.024891084 -0.07097042 0.092970066 0.08081551
0.09541443 -0.11288153 0.07558762 0.15128665 -0.10830852 -0.122575186 -0.058262873 -0.048096284
-0.120387994 -0.14305712 0.08189203 0.044386428 0.10629682 0.053444233 -0.06630595 0.09319564
-0.040196825 0.042573176 -0.004779044 -0.14278795 0.0875433 -0.026714483 0.07733432 0.01593184
0.011920619 -0.1417388 0.10084315 -0.07749289 -0.05286898 -0.012758688 0.052579198 -0.07318247
-0.08520912 -0.034666777 0.08114859 -0.10931808 -0.013358502 -0.04369981 -0.044155765 -0.109566756
0.03527293 -0.08874852 0.00226278 0.09932194 -6.600438e-05 -0.092598915 0.0834146 0.07396622
0.061919518 -0.019462833 -0.0050826063 -0.062300295 0.0011017665 -0.10010282 0.06549028 0.056284282
0.027338611 0.08881242 0.028532727 -0.1155382 0.007409869 0.038936492 0.0037492577 -0.04710201
-0.12987547 0.0065856418 -0.049481627 -0.115690246 0.062865116 0.07898579 0.09278238 -0.069495074
-0.04525977 -0.13264415 0.1272218 0.045058355 0.039013706 0.12733099 -0.1119812 -0.10420605
-0.0830195 -0.091903985 -0.010746947 -0.096944556 -0.0008746453 0.004574604 0.022057611 -0.060131945
0.004164718 -0.09025767 -0.08806989 0.1265974 -0.12846062 0.108144 -0.035880484 -0.021974988

bias f4 [3]
00000000: 8743 be3d ccff b2bd 4e68 8ebd
0.092902236 -0.08740196 -0.06953488

weight f4 [64, 16]
00000000: c72f 643e 0bc5 dabd 77a4 94bb 1432 31bd
00000010: 488e d8bc abd1 3e3e 7cf9 383e d53b 0bbe
00000020: dd26 d73d dc4d dfbd 791d e53d 823c 23be
00000030: 101a aa3e 3064 3a3e dfc1 503e 7ee9 503e
00000040: 1f41 73bf d5ae 483e 630e ccbe 06f6 d9be
00000050: eb81 18bd 98fd 7cbf bb7f 2abe 8ba0 0cbd
00000060: 31ed ac3e c4d4 143e e49a aabe 2d77 813e
00000070: ff2e 08be 942f 8bbe 78cd b83e f122 243e
00000080: cfc7 373e 4a7f 24bf c1e7 143f 8cbd f23d
00000090: eb7d bf3e f0dd 16be 9207 9d3d 72cd 283d
000000a0: c5b4 07bd 10ea 4b3e 111a 84be 73f2 a03e
000000b0: 3d41 1f3e 0cef 4b3e d2d6 123e fba4 3d3e
000000c0: fc04 d0bd d575 34bd 707f 963d c84c 92be
000000d0: 3d5d a33e 2560 f33d aa69 6fbe a292 823e
000000e0: c637 9f3e fbc7 a83c 7ba2 9e3d 0a14 dd3e
000000f0: 5488 11be 25dc c7bc 9002 123e 29a1 9cbe
00000100: 768d ce3d 390c 1dbf 31d1 8abe eff9 8d3e
00000110: d445 8a3e 0609 c63d a520 82be 5fcc 5fbe
00000120: 26e9 bb3e 2e35 2bbe 9db6 c6bd f762 293e
00000130: f95f b9bd ed0b bcbd 4d2e 0f3e d882 a7be
00000140: 16d0 85be 94c9 a93e 112c 95be 41dd aabe
00000150: 4eb0 c0be cd64 d9be 1269 d9bd 4ad8 6bbc
00000160: 43ed fc3d 1e6f 5f3e c156 65be 709d 77be
00000170: da7c cc3e dbb3 523e 3024 7cbd 490f a03c
00000180: 9485 80be 2b1c 5f40 df62 14bf d12f 41c0
00000190: de7f 51c0 b332 93be c3a8 3f3e 2135 f33e
000001a0: 23e9 513e d267 63bd a299 a43e 8b14 753e
000001b0: 388a 363e 9ed0 093d bb9f 52be e060 ba3d
000001c0: 1069 aa3f 0623 843e 7093 9cbf f339 003f
000001d0: 47a4 053d 8f86 a63f be20 7dbe 9d7a 1c3e
000001e0: 18d3 483e c410 eb3d b6b6 0f3f 7a9e b63e
000001f0: 4cac 0fbd 1c86 623d 2e85 2a3d 9b4c 51be
00000200: 29a1 e2bc 4086 8f3e 758e 233d 8875 31be
00000210: 9cd6 9fbe 161b de3d b800 b5bc 3c35 84be
00000220: 7167 943e c059 bfbe 876c 71be 907e b63e
00000230: e131 b43c 4d02 7cbe 5325 42be c724 4ebe
00000240: 1cc9 153f e91d 46be 746b 3a3e 097f 3abe
00000250: 8dab bf3e bb99 f53e 5346 6fbd 93ce 433f
00000260: f630 c0bb 75b7 9dbe 7370 9b3e 2ea9 a9bd
00000270: b446 94be 705e 913e 9eb7 22be d027 83be
00000280: 4cfa ab3f ae3b 79bf 9636 083f fcd9 0c3f
00000290: ead2 8d3f 04ed 8f3f 4509 14be 48fa 05bf
000002a0: 662b d13d 7be9 3fbd 22c6 f5be 8f76 2a3c
000002b0: 0c1a c53d 15a9 08bf 1809 e1bd 855a 30bd
000002c0: f53d c73f 01bd 1a3f 1a03 85bf 1543 8b3f
000002d0: 6b48 19bf e055 b03f 6bdf 5a3e 1be9 953e
000002e0: 4941 8cbe 2e5e afbc 5775 3bbc 5f14 9cbc
000002f0: 63e6 52bd 8f53 e03e 37a4 a8be 5c4d 713d
00000300: 7290 81be 4654 7cbf cb6c af3e fd22 963f
00000310: 7847 4c3f c528 02bf e722 5c3e 0bee 883e
00000320: ca37 05bf 5bae 45bc 2dae ad3e f230 2ebf
00000330: abde 49be 2eb5 84bd ee68 5cbe 48bb 253c
00000340: 458f 683f 1b5a 92bf f9ea 8f3e 066f 5e3f
00000350: 3769 aa3f 4c02 8c3f 697b 48be 1a47 053f
00000360: 0711 27bf 695b 053e 22a3 e6bd d1b9 c5be
00000370: 1ac0 c03b 85fc 003f 0c1e b8bd 5d28 08bd
00000380: 9d79 0540 d89d c2bf 5c37 953d b0ba 0e40
00000390: 14db e03f 9b02 f43f a59d 59bc b6c0 a23e
000003a0: 50aa b53b 944b 80be fe80 953e af32 473e
000003b0: d29b 0abe 483f d03e d710 9d3e 8714 9bbd
000003c0: 360d 86be 9944 f53d 4ae0 0fbe 841d 2cbe
000003d0: 293a a5bd b176 35be b3c9 babe 0e77 7c3e
000003e0: 90ac 6f3e 83f5 52bd 0537 ab3e fcb6 cc3d
000003f0: 8221 d0bd 735f a13c 1ab1 073e cbe3 89be
0.2228385 -0.10682114 -0.0045362073 -0.04326065 -0.026435032 0.1863467 0.1806392 -0.13597043
0.105054595 -0.10903522 0.11187262 -0.1594105 0.3322301 0.18202281 0.20386456 0.2040157
-0.9502124 0.19597943 -0.39854726 -0.42570513 -0.037233274 -0.98824453 -0.16650288 -0.034332793
0.33774713 0.14534289 -0.33321297 0.25286236 -0.13299178 -0.27184737 0.3609426 0.16028954
0.17947315 -0.6425673 0.5816613 0.118525594 0.37400755 -0.147331 0.076674595 0.041211553
-0.03313138 0.19913507 -0.25801137 0.31434974 0.1555223 0.19915408 0.1433976 0.18519966
-0.10157201 -0.044057686 0.073485255 -0.28574204 0.31907073 0.118835725 -0.23380151 0.25502497
0.3109724 0.02060317 0.077458344 0.4317935 -0.14212161 -0.024396965 0.1425879 -0.30591705
0.10085575 -0.61346775 -0.27112725 0.27729747 0.270064 0.0966969 -0.2541553 -0.21855305
0.36701316 -0.16719505 -0.097027995 0.16541658 -0.090515085 -0.09181962 0.13982506 -0.32717013
-0.2613532 0.33161604 -0.29135182 -0.33371928 -0.3763451 -0.42459717 -0.10615744 -0.014394829
0.123499416 0.21819732 -0.22396375 -0.24181151 0.39939004 0.20576422 -0.06155795 0.019538539
-0.25101912 3.4860942 -0.57963365 -3.0185435 -3.2734294 -0.28749618 0.18716721 0.47501472
0.20499091 -0.055518933 0.32148463 0.23933618 0.17826164 0.03364622 -0.20568745 0.09100509
1.3313313 0.2580797 -1.2232494 0.50088423 0.03262737 1.3009814 -0.24719521 0.15281148
0.19611776 0.11477807 0.5613817 0.35667783 -0.035076424 0.055303678 0.041630916 -0.20439379
-0.027664738 0.28032112 0.03993078 -0.17329991 -0.3121842 0.1084501 -0.02209507 -0.25821865
0.2898517 -0.3737316 -0.23576556 0.35643435 0.02199644 -0.24610253 -0.1895955 -0.20131217
0.58509994 -0.19347347 0.18205053 -0.18212523 0.3743557 0.4796885 -0.058416676 0.7648708
-0.0058652116 -0.3080403 0.3035923 -0.082842216 -0.28960192 0.28392363 -0.15890357 -0.25616312
1.343576 -0.9735669 0.5320829 0.5502012 1.1079991 1.1244206 -0.14456661 -0.52335024
0.10213356 -0.046853524 -0.48002726 0.010404243 0.09624109 -0.53383 -0.109880626 -0.043055076
1.5565783 0.6044465 -1.0391572 1.0879847 -0.59876126 1.3776207 0.2137429 0.29279408
-0.2739356 -0.021407213 -0.01144155 -0.019052682 -0.051489245 0.4381375 -0.32937786 0.058911666
-0.25305516 -0.9856609 0.3426269 1.1729428 0.7979655 -0.5084346 0.21497689 0.26744112
-0.5203825 -0.012065495 0.33921948 -0.68043435 -0.19713847 -0.0647987 -0.21524402 0.010115452
0.9084361 -1.1433748 0.28108957 0.8688816 1.3313359 1.0938201 -0.19578327 0.5206162
-0.65260357 0.13023151 -0.11261584 -0.3861833 0.0058822753 0.50385314 -0.08990106 -0.03324162
2.0855477 -1.520442 0.072859496 2.2301445 1.7566857 1.9063295 -0.013282214 0.31787652
0.0055439845 -0.25057662 0.29199976 0.19452928 -0.13536003 0.4067328 0.3067691 -0.07572275
-0.26181954 0.119759746 -0.14050403 -0.16808134 -0.08067734 -0.17721058 -0.3648201 0.24654791
0.23405671 -0.05150367 0.33440414 0.09995839 -0.10162641 0.019698834 0.13251153 -0.26931605

bias f4 [64]
00000000: f668 0dbc 31d1 583e 0cd4 8e3c e2cd d5bd
00000010: dcd8 88bd f94f dd3e 7f1d 28be c41f 7c3d
00000020: e407 acbd 6074 d3be e107 7c3e 6215 e5bd
00000030: c0d8 0dbe c399 553c 12ff 503e 15b4 c6be
00000040: 2518 5b3d 3b75 963e 7f35 393d 6b18 923e
00000050: aeaa 19be 5f8b afbc b02c 773d daec 4c3e
00000060: 2db5 9a3e 0833 5b3e ea7e 46bc 578d 75bd
00000070: 7171 4fbe d6c8 5fbd e8df 153d 8938 02bd
00000080: 9f69 89be 559a b1bc e790 a73c ba00 a0be
00000090: eb06 91bd 2187 89be dc07 65bd a505 7e3e
000000a0: 05d1 afbe 0d0f 29be b0d9 773e ce3b be3c
000000b0: cfab 343e 8af3 583e 611e a73d 4325 de3e
000000c0: 1e26 973e ab21 943e bec4 9d3d 0550 99be
000000d0: e841 93be 28dc 503e a1fd c53d 365d 9cbe
000000e0: ecaa a8be 3b81 3e3a c32c 3abe 46dc 34be
000000f0: 6874 6d3e d171 aebe 3446 5bbe 8aa1 adbe
-0.008630982 0.2117355 0.017435096 -0.1043966 -0.06681988 0.43225077 -0.16417502 0.06155373
-0.083999425 -0.41299725 0.2461238 -0.11185719 -0.13852215 0.013037148 0.20409802 -0.38809267
0.053489823 0.29386315 0.045217033 0.28534254 -0.15006515 -0.021428762 0.06034535 0.20012227
0.3021635 0.21406186 -0.01211522 -0.059949245 -0.20258118 -0.05463489 0.036590487 -0.031792197
-0.26838395 -0.021680037 0.020454837 -0.31250554 -0.070813976 -0.26860908 -0.0559157 0.2480684
-0.34339157 -0.16509648 0.24204135 0.023221876 0.17643665 0.21186653 0.08160091 0.43387803
0.2952127 0.28931937 0.07703541 -0.29943863 -0.2876122 0.20396483 0.096675165 -0.30539864
-0.32942903 0.00072671816 -0.18181138 -0.17662153 0.23188937 -0.3407121 -0.21413499 -0.33912307

weight f4 [64, 64]
00000000: e30f 82be ef86 e9bc 5590 9c3e adee ac3e
00000010: 9988 723e c90e 863c 2963 02bc e15d 2c3e
00000020: b73b 373d a773 bcbd c1a4 a63c b9e3 95be
00000030: ae76 6ebe e034 febd 44cf 803e e710 753d
00000040: aa8f adbe a602 60be 4839 e03e 78e7 d0be
00000050: 8323 5dbd 3789 923e be40 9f3e 2257 d63c
00000060: a407 8a3e 5ed7 5cbe 3c6e a8be 4f58 76be
00000070: 220d b4be 6776 dc3e ed88 55be 864b 61be
00000080: 51ea 89bd f041 863e 8639 8bbe 0223 0abe
00000090: 9c3a d13c 57ff 013e 43ec b8bc a122 c2be
000000a0: 25c4 67be 131f 273e 0912 8ebe 19d4 aa3e
000000b0: 4886 d2bd f5f6 afbd 531a 4ebd 4a19 00be
000000c0: 718f b6be 1e81 10be c653 b5bd 60d8 123e
000000d0: 4e31 a03e 9586 17be e495 80be 6c15 4e3e
000000e0: 8e45 a43e 71e3 883d 8117 a3be 1a23 873e
000000f0: 3427 c3be 39bf cf3d aab1 a03e adbd 5b3d
00000100: a9b5 e13d aa40 683d 1216 913d dec0 9ebd
00000110: 3c34 7d3e 221f 5f3d a721 31bd 6397 f2bc
00000120: 2776 8e3e ab79 23bc 12ff 123e 4e01 69bd
00000130: dbb5 6cbb 92b4 17be a388 22be 2df4 163d
00000140: ddf1 39be 08dd e03d d16e 8a3d 0be5 14be
00000150: 2275 69bf f465 353d b627 293c 33ad adbd
00000160: eb5f 84bd f9b8 dcbd 4563 e1bd a2f1 643d
00000170: 28af 193c 2026 ddbc eb50 98be a2de 703f
00000180: f199 c8bc 434a 9a3d d0bf a53d 7991 0e3d
00000190: 091c 3c3d 50f5 8f3e 6582 603d 8db3 cfbd
000001a0: 5cf8 8ebe 06f8 83bd 9e74 f4bc b411 913d
000001b0: abb6 103d 572e f23e 6d34 803d 343b 53be
000001c0: 8107 38bd fbb1 72be 797d b23e 32b8 ce3c
000001d0: 9f84 e3bb 60e0 a43e da8b 6fbf d0e4 213d
000001e0: a67d 513e ebfa 283f 76dd 49bd 7bd0 5c3d
000001f0: 176e 8bbc dcf8 433f 254e 873d a94b 5bbc
00000200: 2139 91bc deca 063d b51b 343e fb71 073e
00000210: d9fe 9fbd dde5 903e d7ee 21bf 24f0 39bd
00000220: bbf5 0bbd a26c 96be ee38 ac3e 3f46 0e3e
00000230: 07fd 41be 8e02 2f3e 0dfb 253f d638 80be
00000240: d6d4 23be 34cf 74be 6e61 403e 5b67 b1bd
00000250: 9ce1 373e 1804 5f3e edf3 9d3e fc31 9d3e
00000260: c42e c9bd 9248 803e c1a1 a63d d92b 01be
00000270: 4273 1cbe 836f 223e 5377 843e e3f0 a8be
00000280: 8528 cbbc 6e8d e43d a4cb 25be efee bbbe
00000290: caf2 483e f0a2 333f 9244 84be 079a 45be
000002a0: 43aa 8dbe baa4 aa3e 1442 4cbe b6c7 d73b
000002b0: 4acc 983e b485 4c3e 8bed e23e 81a3 4ebe
000002c0: ca5a b1be 1638 383d ab60 dbbe f089 a53d
000002d0: cecf 1c3d db13 053d afdb aa3e 4f58 9cbd
000002e0: c0e7 883e 9ddb 5cbf f4aa e4bc 105b 1bbe
000002f0: e0ca 813d ff68 f1be 7c37 163e fdac 823d
00000300: 5108 793e 400e 983e 50e3 ef3d 20d8 38bd
00000310: 7403 0fbe ad8b db3d a1e9 e03e 2094 b2be
00000320: 5792 9b3e 1580 d9be b3f7 3a3e 943a 203d
00000330: 41e7 f2bb b522 9abe 95c7 84be d1da 3b3e
00000340: 7423 463d 643e 193e 37f2 a1be 22c0 2ebd
00000350: 3b7e eabe c071 b83d ffda bfbe e57e 9a3d
00000360: e1e7 b8bd e688 f3bd 0f63 95be 585b 253e
00000370: f950 843e 1b90 85be 447a 553c ba77 fe3d
00000380: 94a5 cc3d 67e9 a0be bb19 3b3d 619e 933e
00000390: 93de 663e 218c 883e 172e 9ebd fb24 9dbe
000003a0: 5c6e a83d 0fa8 6abe 7f3d c33d ba04 18bd
000003b0: 6bd3 2e3e cb4e 9b3e eef9 2f3f 082e 12be
000003c0: 6d53 4d3e 5afe 03bf b27f acbd 0ec3 00be
000003d0: 24bf 37be 1ad8 5c3f 7788 c4be be51 dd3d
000003e0: cd89 3cbe 414c 7e3f 7588 83bc cf4f 01bd
000003f0: 96fc c23d 3832 063f 0317 d0bd 2c88 3abe
-0.25402746 -0.028506724 0.30578867 0.33775845 0.2368492 0.016364472 -0.007958212 0.16832687
0.044734683 -0.092017464 0.020342233 -0.292753 -0.2328746 -0.12412429 0.2515813 0.059830572
-0.3389867 -0.2187601 0.43793702 -0.40801597 -0.053988945 0.28620312 0.31104082 0.026164595
0.26958954 -0.21566531 -0.32896602 -0.24057125 -0.3516627 0.43059084 -0.20853014 -0.22001466
-0.067341454 0.2622218 -0.27192324 -0.13489917 0.025540642 0.1269506 -0.022573596 -0.37917045
-0.22633417 0.16320448 -0.27748135 0.33364943 -0.10279518 -0.08592025 -0.050318073 -0.12509647
-0.35656312 -0.14111754 -0.08853869 0.14340353 0.31287616 -0.14797433 -0.25114357 0.2012536
0.32084316 0.06684006 -0.3185387 0.26393968 -0.38115847 0.10143895 0.31385547 0.053647686
0.11020977 0.056702293 0.07084288 -0.0775163 0.24726957 0.05447305 -0.043244984 -0.029613202
0.27824518 -0.009977738 0.14355114 -0.05688601 -0.0036119136 -0.14814976 -0.15872435 0.036853958
-0.1815867 0.10979658 0.06759418 -0.14540498 -0.91194355 0.044286683 0.010324409 -0.08480301
-0.064636074 -0.10777468 -0.11005262 0.0558945 0.009380139 -0.026995718 -0.29749236 0.9408971
-0.024487467 0.075336955 0.08093226 0.034806702 0.045925174 0.28116846 0.054811854 -0.101416685
-0.27923858 -0.06443791 -0.029840764 0.07083455 0.035330456 0.4730098 0.062599994 -0.20628053
-0.04492903 -0.23700707 0.34861353 0.025234316 -0.0069433 0.32202435 -0.9357277 0.039524853
0.20458087 0.6600787 -0.049283467 0.05390976 -0.017020268 0.76551604 0.06606702 -0.013384738
-0.017727436 0.032908313 0.17588694 0.13227074 -0.0781228 0.28300372 -0.63255066 -0.04539503
-0.034169894 -0.29379755 0.33637184 0.13893984 -0.18944179 0.17090818 0.648362 -0.25043362
-0.15999159 -0.23907167 0.18787166 -0.086622916 0.17957157 0.21778905 0.30850163 0.30702198
-0.09823373 0.25055367 0.08136321 -0.12614383 -0.15278342 0.15862851 0.25872287 -0.32996282
-0.024799595 0.11159788 -0.16190964 -0.3670573 0.19623867 0.701705 -0.25833565 -0.19297038
-0.27668962 0.333288 -0.19947082 0.0065850867 0.2984336 0.19972879 0.44321856 -0.2017956
-0.3463958 0.044975363 -0.4284719 0.0808295 0.038284115 0.03248964 0.3337073 -0.07634031
0.2673931 -0.86272603 -0.027913548 -0.15171456 0.063375235 -0.47150418 0.14669603 0.06380651
0.24319579 0.29698372 0.11713278 -0.045127988 -0.13966161 0.107200004 0.43928245 -0.34878635
0.30385086 -0.4248053 0.18258552 0.039118364 -0.0074128215 -0.30104604 -0.2593352 0.1834519
0.048373654 0.14965206 -0.31630108 -0.0426637 -0.4579943 0.09006071 -0.37471768 0.075437345
-0.090286024 -0.11891346 -0.29177138 0.16148126 0.25843027 -0.26086506 0.013029639 0.1242518
0.09992519 -0.31428072 0.045678835 0.2883177 0.22545843 0.2666941 -0.07723635 -0.30692276
0.082241744 -0.22915672 0.09533214 -0.037113883 0.17072837 0.30333552 0.6874074 -0.14275372
0.20051356 -0.51559985 -0.084227934 -0.12574407 -0.17944008 0.86267245 -0.38385364 0.10806607
-0.18411942 0.99335104 -0.016056279 -0.031570252 0.09520833 0.5242038 -0.10160639 -0.18216008

bias f4 [64]
00000000: faf4 babe 4954 2abd d7f2 40be 8d23 1c3e
00000010: a4ec 8ebe 9e4d 973e 216b 7c3e 8916 af3e
00000020: a55f 50bc cfb8 993d a223 b63d 673b a0be
00000030: 781c 7abd 41e9 6d3e 8932 74be e75d f5bd
00000040: e597 1b3e 00d1 47be 43db e53e d6db 15be
00000050: 09ea 953d 62f7 45be 3303 d1bb d7df abbd
00000060: 1aba 053d 025e 34be b8e4 7b3e 48ae debd
00000070: b7d6 5ebe 721a 143e b0ba 193e 74c9 5ebe
00000080: 1b02 193e 028d d9bd a287 d73c bf28 783e
00000090: d72c 41be 30ec d5bd e973 143e 3c82 f6bd
000000a0: bc3e b6bd 398c 9abe d710 d03d 1354 533e
000000b0: 2906 5dbe ae99 513e 8e9c 923e 9c3c 033e
000000c0: dee3 343e 0512 e0bd 1b08 023e 4de5 47be
000000d0: b235 9a3e f7dc 94bd 4f7c 3cbd 5b2f 193e
000000e0: 76ed 2dbd b317 cf3e 145a 353d 1670 22be
000000f0: b0f2 0c3c 9bda 98be 8ed4 53be 4b76 d73d
-0.36515027 -0.041584287 -0.18842636 0.15247937 -0.27914917 0.29551405 0.24650241 0.3419688
-0.012718116 0.075059526 0.08893515 -0.3129532 -0.061062306 0.2323351 -0.23847403 -0.11980801
0.15194662 -0.19513321 0.44893846 -0.14634642 0.07320029 -0.1933265 -0.006378555 -0.083923034
0.032648183 -0.17613986 0.24598968 -0.10873085 -0.21761595 0.14463213 0.15012622 -0.21756536
0.1494221 -0.10622598 0.026309792 0.24234293 -0.18864761 -0.1044544 0.14497341 -0.12036559
-0.088986844 -0.30185106 0.10159462 0.2063754 -0.21584381 0.2046878 0.28635067 0.1281609
0.1766505 -0.10940937 0.12698404 -0.19521065 0.3011909 -0.07268708 -0.046016987 0.14959471
-0.04246279 0.4044777 0.04427536 -0.1586307 0.008602783 -0.29854283 -0.20686552 0.105206095

weight f4 [1, 64]
00000000: e3e1 683f 4a43 a0be 9ce2 3e3f 1b52 22be
00000010: d290 543f 531c 60bf 4394 90bf 470e 6fbf
00000020: d8cb 293f 9b4f f4be 7e22 2f3e a8d6 053f
00000030: 579e 163f ed8a 28bf e8ba 4c3f e985 193f
00000040: 882b 653e 1a1c 1e3f d75d 58bf 6fe0 5fbe
00000050: 0edc ee3e 5ee0 6c3f 3950 0c3f 800c ba3c
00000060: 9962 22bf d883 ae3e 1008 6cbf 5f4f abbe
00000070: f99f 6f3e 5b0b 7dbf 80df 573c 9e90 b9be
00000080: f006 56bf 4923 3c3f 6115 8b3f 1f1c 9fbf
00000090: d645 723e ab5f 8ebd 70ee f8bc 435f c03e
000000a0: b071 b63e 3830 073f 3780 4bbf fd6f 4a3e
000000b0: d566 8f3b f0c3 a83e 1c06 56bf 9626 b1be
000000c0: 15d9 20bf 6e13 e3be bd6b f7be ce87 2d3f
000000d0: dc76 76bf 8b4c 8b3d 0876 5ebf 8a32 27bf
000000e0: b799 0c3e cca4 5abf d30c bdbe 41c8 3fbf
000000f0: 98e0 86bf e30c 613f e5aa 143f 8831 d6be
0.90969676 -0.31301337 0.7456453 -0.15851633 0.8303348 -0.8754322 -1.1295246 -0.9338116
0.66326666 -0.47716984 0.17103001 0.52280664 0.5883536 -0.65836984 0.79972696 0.59969956
0.22379887 0.6176163 -0.8451819 -0.21862958 0.46652263 0.9252986 0.5480991 0.022711039
-0.634317 0.34084964 -0.921998 -0.33458993 0.23400868 -0.9884545 0.013175845 -0.36243147
-0.83604336 0.7349134 1.0865899 -1.2430457 0.23659453 -0.06951841 -0.030387133 0.3757268
0.35633612 0.5280795 -0.79492515 0.19769283 0.004376272 0.32961988 -0.8360307 -0.3459975
-0.6283124 -0.4435076 -0.48324385 0.67785347 -0.96275115 0.06801709 -0.8689885 -0.6531149
0.13730513 -0.8540771 -0.36923847 -0.7491494 -1.053729 0.8791029 0.58073264 -0.41834664
