output/liver_p_to_p/2021-12-18_ddpg/2021-12-18_21-14-14-ddpg_s0_t3/pyt_save/model.pt (torch_old, 48433 bytes, 11 tensors)

weight f4 [64, 16]
00000000: 0054 f5ba 5e54 093e 16b3 52be 8066 3cbe
00000010: f432 c5bd ec4b 893d 404f a2bb cefa 4a3e
00000020: 70bf b5bc 4c7b 873d acbb 9abd 7048 49bd
00000030: b891 74be 528b 29be e80e d3bd 00bb 173c
00000040: 99b2 ec40 cea4 3040 3da0 cfbe 188f 1040
00000050: 2d49 36c0 930b fe40 c90e b1bd 125c b0be
00000060: 57fc 35bf 6b7f 8f3d 0f94 e7bd 8034 f6be
00000070: 9d04 953d 5782 77be 8651 18bf 6d11 723e
00000080: e3c7 f1c0 556b 02c1 8797 1fbe b1eb 41c1
00000090: 312e 1141 de7a 03c1 ce13 13c0 4e71 fdbe
000000a0: e61d 943f b8c4 cdbd 7c44 07be 653a 783d
000000b0: 67ca 8cbb 77ed 12be 53c2 4b3e e986 f33d
000000c0: 8f48 5240 532d 2e3e ef2e c73d 633e 6f40
000000d0: cfef 3b3e 7c88 6640 55f1 f33e 15e4 683e
000000e0: 2393 1dbd 8ddf 0dbf 699b 52be 4548 a53d
000000f0: 6ee6 c7be 75ed b63e 3b73 92bf 4ce2 83be
00000100: 6e89 0c3e 203f 01bd 4064 1c3c 0044 6d3d
00000110: 00d1 1e3e 48cf 753e 9647 45be eca1 bbbd
00000120: 9838 c93d d01b 543e e8c5 5e3e 22e2 613e
00000130: 78ca 4b3d f89c 5ebe 9066 bc3c ac27 20be
00000140: 8c94 6ebe 3e74 633e f0a6 423e fe5d 7fbe
00000150: 08aa 3f3d c880 2cbd b882 28bd 1c5f eabd
00000160: 8ce4 c43d 34a1 17be dcb1 bb3d 1676 013e
00000170: 5c43 373e 4871 bf3d 4a5f 7dbe 0011 26be
00000180: 8d58 cc40 86e4 35c0 9cfb 82bf 21a8 f2bf
00000190: 9b6f 2840 024a c040 77c1 8ebf f31a e0be
000001a0: be6f 8fbf 14fd 84be 2dbb b7bd 685e 8fbe
000001b0: 6fb7 77be 707a 61bf 812c 24bf cb6b 02be
000001c0: 38c9 1bbe 6849 683e d06f 2f3e 64e1 57be
000001d0: 88db 7ebd 80d2 383c 1867 153d d0dd 723d
000001e0: 5cec c83d e059 753c ccd1 f9bd d445 f23d
000001f0: 5691 75be a0bb 17be 3c2b 80bd ec66 f9bd
00000200: 04da c8c0 42f0 853f 38e6 e03e bf54 b441
00000210: 7821 b33e 7f3c b9c0 bd89 b540 0f21 783e
00000220: f64c 303f 63e0 5fbe 2a03 14be 0179 343d
00000230: 9b1e 73be b654 823e c021 3c3e 0298 06be
00000240: 5954 49be 3539 eebd 0e40 2e3e 69fe 37bc
00000250: 2b15 04be d1fd 34be fa40 86be 91ae 5ebe
00000260: fd19 57bd 6c8f e13d 7f67 0c3e feb1 54be
00000270: d048 f03d d6ef 5abe 64e2 91bd 2bd2 0ebe
00000280: bdaf aebd f011 bf3f 970d 23be 37aa 60bf
00000290: 0dc2 c9bf 851c f3bd fe53 03bf 34c9 62bd
000002a0: 83f7 e73c 39d9 1abe 4790 013f 2ccd cb3d
000002b0: da7c 0a3e 61bf 80bd ac15 85be bc02 933c
000002c0: 8e0d dec0 4ae5 e8c0 590a 033f 2c03 1f41
000002d0: 33a1 1041 0e30 d3c0 d21d 4140 9631 a3be
000002e0: 9297 3d3f 1d37 1bbe e1f4 22be 75c1 7abe
000002f0: d4d5 1ebf 7fb4 f13d d6cb ce3e 4eb7 09bd
00000300: 8571 3240 76db d63e 1575 08bf 89d4 153f
00000310: b383 40bf 909e 4c40 8753 08bf e2c8 87bd
00000320: 7737 913c 8a08 d2bd 14e3 84be 08f4 163d
00000330: 1fef e2be dfec 3dbe 7dcb 5fbe f831 6bbd
00000340: 9e9f 9ec0 c99d 5340 3783 0b3f 3f0f 1d41
00000350: e090 8cc0 30cd 67c0 63e1 f33f b277 bb3e
00000360: 50e0 f7be 9679 babd ec44 7f3f 6fa0 bcbe
00000370: f1fb c83d a006 573e 36df 9b3d ca70 223d
00000380: 70cd a840 af8f 0041 09ec 18be b310 bc40
00000390: 1d00 03c1 b53b b640 d8de 3d3f b1b8 343f
000003a0: 2726 95bf dd3b 083e 1de9 053e 2ec2 02bf
000003b0: 9275 c23c 31d6 99bf f3e3 7bbe 48ed 01bd
000003c0: fe86 3241 32b4 8040 caa7 24bf 1b84 c5c0
000003d0: 623a aac0 9c08 2a41 b8b6 b4bf 1af2 603f
000003e0: 8946 83bf c77e d4bb c224 78bd 9ce4 04bd
000003f0: bd0f 8c3e f8dc bc3e 0bd8 bbbe a34d 7abd
-0.001871705 0.1341109 -0.20576128 -0.18398476 -0.09628859 0.06703934 -0.004953295 0.19822237
-0.022186011 0.06615314 -0.07555327 -0.049141347 -0.23883712 -0.16557053 -0.103055775 0.009260893
7.3968015 2.7600589 -0.4055194 2.2587337 -2.8482163 7.938913 -0.08645398 -0.34445244
-0.71088165 0.07006725 -0.11307537 -0.4808693 0.072762705 -0.24170814 -0.59499395 0.2363946
-7.55565 -8.151204 -0.15585147 -12.120042 9.073777 -8.217497 -2.2980838 -0.49500507
1.1571624 -0.10047287 -0.13209718 0.060602564 -0.004296589 -0.14348398 0.19898348 0.118909664
3.2856786 0.17009477 0.09725749 3.7381828 0.18353198 3.6020803 0.4764506 0.22743256
-0.0384704 -0.55419236 -0.20567097 0.08070425 -0.3904299 0.3572804 -1.1441416 -0.25758588
0.137243 -0.03155434 0.009545386 0.057926178 0.15509415 0.24004853 -0.19265589 -0.091617435
0.098252475 0.20713735 0.21755183 0.22058919 0.049753636 -0.21739566 0.022998124 -0.15640134
-0.23298854 0.22212312 0.19008994 -0.24938199 0.046793014 -0.042115003 -0.041140288 -0.11443922
0.09613904 -0.14807588 0.09164783 0.12642702 0.1789679 0.093477786 -0.24743381 -0.16217422
6.3858094 -2.842073 -1.0233035 -1.8957559 2.6318119 6.009034 -1.1152791 -0.4377056
-1.1205976 -0.25974333 -0.08971248 -0.28001714 -0.24191068 -0.8807745 -0.6413041 -0.12736432
-0.15213478 0.22684252 0.17132497 -0.21082073 -0.06222108 0.011280656 0.03647527 0.059293568
0.09810707 0.014975041 -0.12198219 0.11829725 -0.23981223 -0.14817667 -0.06258246 -0.12177834
-6.276613 1.0463946 0.43925643 22.54138 0.34986472 -5.788635 5.6730638 0.24231361
0.68867433 -0.2186294 -0.14454332 0.04406071 -0.23742144 0.25455254 0.1837225 -0.13143924
-0.19661082 -0.11632005 0.17016622 -0.01123009 -0.128987 -0.17674948 -0.26221448 -0.2174628
-0.05251502 0.11013684 0.13711356 -0.20771024 0.11732638 -0.21380553 -0.07123259 -0.1394736
-0.08529613 1.4927349 -0.15923153 -0.8775973 -1.5762345 -0.11870674 -0.51300037 -0.055367664
0.028316265 -0.15121926 0.50610775 0.09951243 0.1352419 -0.06286503 -0.25993097 0.01794564
-6.9391546 -7.2779894 0.51187664 9.938274 9.039355 -6.599616 3.017445 -0.3187377
0.740594 -0.15157743 -0.15913726 -0.2448786 -0.62045026 0.11802005 0.4038989 -0.03362208
2.7881787 0.4196431 -0.53303653 0.5852743 -0.7520096 3.197178 -0.5325245 -0.06630112
0.017726643 -0.10255535 -0.25954497 0.03685382 -0.4432306 -0.1854739 -0.21854968 -0.0574207
-4.9569845 3.3065054 0.5449709 9.816222 -4.392685 -3.6218987 1.9053158 0.36614758
-0.48413324 -0.09105222 0.9971454 -0.3684115 0.09813679 0.20998621 0.076109335 0.039658345
5.275078 8.035079 -0.1493379 5.8770385 -8.187528 5.6947885 0.7416816 0.70594317
-1.1652268 0.13304086 0.13077207 -0.51077545 0.023737703 -1.2018491 -0.24598674 -0.03172043
11.157957 4.0219965 -0.64318526 -6.172376 -5.319627 10.627102 -1.4118261 0.8786942
-1.0255901 -0.0064848396 -0.06058193 -0.03244458 0.27355757 0.36887336 -0.36688265 -0.061109196

bias f4 [64]
00000000: c07e 8fbc c88b c2be e633 9abe 6eb4 d0bd
00000010: 70a8 adbd dab2 303e f3dd c5bd 10f6 143d
00000020: 5ff2 db3d 700d e9bd 3b58 44be 31ae 66bb
00000030: 97e1 dbbe 07a3 c4bd 330c a2be 6adc 213e
00000040: b407 23be 4ae7 e53d 1570 97bd ac31 9cbe
00000050: 777e 0bbe 034d c7bd f54b 7c3d 22d7 13be
00000060: fd58 f7be 3e42 863e b313 7dbe 839c 22be
00000070: e492 223e d311 303e 64bd 9bbe 6824 cdbd
00000080: 36e6 1a3e 744a c63d a124 b93d 5404 69be
00000090: 7038 0dbe ba0b 003e d069 d53d aeac de3d
000000a0: 54dc d5bd 7e5e 24be 500d f0bc 4fe9 74be
000000b0: 148d abbd f2ac 603d 1ee1 b23d 320c 80be
000000c0: 4124 863c 0ec8 3bbe a9ab bc3c aea6 cdbe
000000d0: d710 d6be caef 6bbe 174e d53d 555b 43be
000000e0: 35e2 76be 7091 bbbd 83c2 b13d c0d9 e4bc
000000f0: aac7 72bd 0c18 47bd ba42 5c3d 8a2e 543e
-0.017516494 -0.3799727 -0.3011772 -0.10190664 -0.084793925 0.17255726 -0.09661474 0.036367476
0.10739588 -0.11379516 -0.19174282 -0.003519904 -0.4294555 -0.096014075 -0.31649932 0.15806738
-0.15920907 0.112257555 -0.07394425 -0.30506647 -0.13622461 -0.09731486 0.061595876 -0.14437535
-0.4831008 0.26222414 -0.24714546 -0.15880017 0.15876347 0.171943 -0.3041793 -0.100167096
0.15126881 0.096821696 0.090401895 -0.22755557 -0.1379106 0.12504473 0.10420573 0.1087278
-0.10442415 -0.16051671 -0.029303223 -0.23917125 -0.08376518 0.054852434 0.08734344 -0.25009304
0.01637471 -0.18338034 0.023031073 -0.4016623 -0.41809723 -0.23040691 0.10415285 -0.19077809
-0.24109729 -0.091585994 0.08679678 -0.027935863 -0.059272446 -0.048606917 0.053774573 0.20720878

weight f4 [64, 64]
00000000: 604f fcbb b3a4 cdbd 081d a6bd 3348 bd3d
00000010: 6c4f 4dbd 76fc 9e3d ab94 d5bd 087d eebc
00000020: 83c2 49be 20ec eabd 0098 a3ba 3f44 e9bd
00000030: 08a5 90bc c270 27be fd9c 233d f3ab 8b3c
00000040: 8081 adbd 111e a7bc b41c bbbe 31ba 7dbe
00000050: 5ac9 1a3d 80c9 f03a ecd9 6ebd ad6f 97be
00000060: d153 4dbe c61f 6bbc 8693 0fbe f6b1 f8bd
00000070: e0ea 813c 4dc9 a2bd cc46 e0bd 971c 31be
00000080: 68dd a4bc e8a0 e8bd 615b 10be 7048 063c
00000090: 9866 f1bd 5dd6 8fbc c64c a5bd 678a 13be
000000a0: 5c3b 493d 620a c5bd 6c01 c2bd f8fd 913d
000000b0: affa 30bd 78c2 51bd 5067 53be 1973 27be
000000c0: 0089 3dbc 00c9 253a 877f 303d f953 97be
000000d0: 444e a2bd fc7b 623d 90f9 8cbd cb61 b7bd
000000e0: 3a1d 8cbd 62a1 3fbe 487a 1ebd 1631 c6bd
000000f0: 1a43 ccbb a179 18be 3b7e f73d 172d 1abe
00000100: 622f d7bd c218 5d3b bd33 76bc 9c70 153d
00000110: f061 64bd 20d7 e03d b57a 70be 1c1d 543d
00000120: 0bb1 8bbe a403 21bd 4a01 82bd db27 e63d
00000130: 700b 133d 08b3 17be 6a8d 14be df47 a8bd
00000140: 885d 52bd 4fc2 cd3d c742 bdbd 8de1 893d
00000150: 5061 c0bd 225c b6bd 38f6 1dbd 3c07 f0bd
00000160: 5c5f 0b3d 0bb3 a1bd de4a f2bd c439 9bbd
00000170: 30bd b7bc e5a9 b4be 6cd4 ce3d a03a 55be
00000180: ba4a a3bd 7247 d0bd 9824 bbbc 767e c73d
00000190: e064 e03d b6dc debd 8077 b1bb 6a43 963d
000001a0: 34b0 613d cab0 d13d 403b 63bb 2a01 acbd
000001b0: b1e6 14bd b7b7 08be 9ddd d2bc d859 fcbc
000001c0: f0a5 593d c840 e63d 648c 35be 42e7 c3bd
000001d0: b7cc 53be ecb1 53bd 6040 a3bd 7f0f 0f3e
000001e0: 3422 95bd b0d0 a9bd 4bc0 a2be c467 8dbd
000001f0: 1a83 1e3d da4b dfbd 99d8 0bbe 9b2b ccbe
00000200: a86d 5c3d 8b5e 183f a5ac 0fbf 0183 ee3d
00000210: acf9 bc3d e0c9 943c 16bd 8a3f a04f 173c
00000220: 7fe8 97bf d259 d43d 6420 1b3b f289 6bbf
00000230: bd14 0a3e 205e 20bf affe 7e3f 4cf8 6f3f
00000240: 58d8 49bd aedd 96bf 8e9b ae3d 8e38 86be
00000250: 7b4b ba3e 91ba 80bd 261c 943d a6ed 7abf
00000260: 5f47 07be bfaf 783f 7405 aa3e e924 1bbe
00000270: c6c2 8ebd 12c0 463f 86e2 2bbe 27a6 ddbe
00000280: 05ae 843d 00d4 cbbc e1de 853d d2a3 393d
00000290: bc55 693d 924a 90be 34d3 803d 9d69 933e
000002a0: b26a c63d f486 fcbd b071 9d3d a325 de3d
000002b0: 3621 153d 4d1a 83be 0487 6d3e 6188 c9be
000002c0: 4d2c 383b ef57 0e3e b945 1a3f 9806 513f
000002d0: 7319 43bf eabc 473e 7b56 743d 406d a4be
000002e0: f7c2 f2be 610c 27bf 7fb5 813f d417 18bd
000002f0: 16e6 86be e5c4 15be b33b f33e 7690 b73e
00000300: a03b bfbd 0126 823f f183 1e3f df36 e73e
00000310: c0a4 833d 70ba 4bbd 0dad a53f ae34 d63d
00000320: 7f0a d23c b833 8fbd d890 fb3d 0c95 28bf
00000330: 6087 013e f88b 0f3f 5486 ed3e 517b 72bf
00000340: 9089 403d 6537 cbbe ba87 c63e 97b0 e6bd
00000350: 0eaf 303e 4b26 cebd 7734 c33d 6a1b 3dbf
00000360: e56f 1d3d afd8 37bf 998b 8d3e 3113 25bc
00000370: 5805 e5bd 385c a1be 7c9f 703e b703 0ec0
00000380: b6b0 24bd 9e08 babd f8b0 913c c43a 1c3c
00000390: fc64 fcbd b244 78be 069f bd3d da0d 2a3f
000003a0: a05e ffbb 680c b73c e0b0 9bbc 02e9 b2bd
000003b0: a9cc 95bd f19a 7fbe f5b2 f23d 69ea 893a
000003c0: 9923 57bd 2ed2 b63c 6ec4 a23f be18 f3bf
000003d0: 2ed4 be3e a02e ba3d 8bb8 b23b 9cc4 23be
000003e0: 120c 04bd a854 41be 5e99 7dbe 90f9 0c3d
000003f0: 0483 41bf 2a6a a73c d278 18bd 67e6 2c3f
-0.007699892 -0.100411795 -0.08111006 0.092422865 -0.05012457 0.07762997 -0.10428747 -0.029112354
-0.19703107 -0.114708185 -0.0012481213 -0.1138997 -0.017656818 -0.16351607 0.039944638 0.017049765
-0.08471966 -0.020400079 -0.36545336 -0.24778058 0.03778968 0.0018370599 -0.058313295 -0.2957739
-0.20051505 -0.014350837 -0.1402112 -0.12143318 0.015859067 -0.07948551 -0.109510034 -0.17296062
-0.020125106 -0.113588154 -0.14097358 0.008195981 -0.11787146 -0.017558271 -0.08071284 -0.14408265
0.049128875 -0.09621121 -0.094729275 0.07128519 -0.04320782 -0.05121085 -0.2064488 -0.163525
-0.011568308 0.0006324202 0.04309037 -0.29556254 -0.07925084 0.055294022 -0.06883538 -0.089541994
-0.06841512 -0.18713906 -0.038690835 -0.09677331 -0.006233585 -0.14890148 0.120846234 -0.15056263
-0.105070844 0.003373668 -0.015026984 0.036484346 -0.055757463 0.10978532 -0.23484309 0.051785573
-0.2728351 -0.039310113 -0.06347902 0.112380706 0.03589958 -0.14814389 -0.1450707 -0.08216833
-0.05135873 0.10046827 -0.092412524 0.067324735 -0.09393561 -0.08904292 -0.03856489 -0.1172013
0.03402649 -0.07895478 -0.11830686 -0.07579377 -0.022429079 -0.3528587 0.1009911 -0.20823145
-0.07973237 -0.10169877 -0.022844598 0.097409174 0.109567404 -0.10881941 -0.005415857 0.07337077
0.05509968 0.10238798 -0.0034672767 -0.083986595 -0.036352817 -0.13351332 -0.02574044 -0.03080456
0.053136766 0.11242825 -0.17729336 -0.09565593 -0.20683561 -0.05168335 -0.07971263 0.13970755
-0.07281914 -0.08291757 -0.31787333 -0.06904557 0.038699247 -0.109031394 -0.13656844 -0.39877018
0.053815514 0.5951926 -0.5612281 0.11646081 0.09227309 0.018162668 1.0838954 0.009235293
-1.1867827 0.10368694 0.002367043 -0.9200736 0.13484474 -0.62643623 0.99607366 0.93738246
-0.049278587 -1.1786401 0.085257635 -0.26215023 0.36385712 -0.06285585 0.072319314 -0.9801887
-0.1321082 0.9714317 0.33207285 -0.15150799 -0.06970744 0.77636826 -0.1678563 -0.43290827
0.06478504 -0.024881363 0.065366514 0.045322247 0.05696653 -0.28181893 0.06290284 0.28791514
0.09688319 -0.12330428 0.076877 0.108470224 0.036408626 -0.25606003 0.23196036 -0.3936186
0.0028102577 0.13900732 0.6026264 0.81650686 -0.7621071 0.19505659 0.059652787 -0.321146
-0.4741437 -0.65253264 1.0133513 -0.0371321 -0.26347417 -0.1462589 0.47506484 0.35852402
-0.093375444 1.0167848 0.61920077 0.4515905 0.06427908 -0.049738348 1.2943436 0.104592666
0.02563977 -0.069922864 0.12283486 -0.6585243 0.12649298 0.5607295 0.46391547 -0.94719416
0.04700619 -0.396907 0.38775426 -0.112641506 0.17254278 -0.100658976 0.09531491 -0.73869956
0.03843679 -0.7181501 0.27645567 -0.010075376 -0.1118266 -0.3151567 0.23498338 -2.2189767
-0.040207587 -0.09083675 0.01778458 0.009535495 -0.12323949 -0.24244955 0.09258847 0.66427386
-0.0077932626 0.022344783 -0.019005239 -0.08735849 -0.073144265 -0.24961449 0.118505396 0.001052213
-0.052524183 0.022317018 1.2716196 -1.8991926 0.37271255 0.09090924 0.005454128 -0.1599297
-0.032238074 -0.1887995 -0.24765536 0.03441769 -0.7559054 0.020436365 -0.0372246 0.67539066

bias f4 [64]
00000000: 94a6 c1bc 1e76 3abe 1f93 9e3e 459c 2abe
00000010: 6be6 a2be 4f0e 3a3d f996 1dbd 5620 873f
00000020: 75b1 ab3d 4c1a 733e 9fe6 83bf e015 a6be
00000030: 16c5 82bd 7157 cc3d ccae 2f3e ec1d 133f
00000040: f971 8c3e 69d3 263f 22c7 99be 7b08 f7be
00000050: c08c f03d 0f92 83bc 2a5c 84bd 6dbc f33e
00000060: 68ce 68be addd 85be 2757 c23e 0d4d cf3e
00000070: 92e6 3abe 8a5c 643e 23c9 103e bac6 1abe
00000080: 2bbd 1dbe fa11 1cbf ba7d 2ebe e7ef 37be
00000090: 56e3 18bf 3b39 bcbe f49c 1cbf 377c 2ebd
000000a0: 5250 57be b21f c8be db77 8cbc 20b2 073f
000000b0: 4c0c 11bf b085 043e daee 15be d9f4 143f
000000c0: 2d25 483e b3d9 f23e 9334 21be bb88 db3c
000000d0: 6997 b7be 885b a03d 8a32 06bc 8e02 c43e
000000e0: 6fa3 3dbb a031 21bf 2806 4d3e 0fc4 56bd
000000f0: 11af bf3e aa60 3bbc ca08 89be 7d4c 603f
-0.023639001 -0.1820912 0.3097162 -0.16661175 -0.3181642 0.045423802 -0.038474057 1.0556743
0.083834566 0.237405 -1.0304755 -0.32438564 -0.063852474 0.099776156 0.17156523 0.5746753
0.27430704 0.65166336 -0.3003474 -0.48248658 0.11745596 -0.016060857 -0.064628914 0.47604695
-0.22734988 -0.26145688 0.37957117 0.40488473 -0.18252018 0.22300926 0.14139228 -0.1511487
-0.15404193 -0.6096493 -0.17040148 -0.17962609 -0.5972189 -0.36762413 -0.6117699 -0.04259893
-0.21026734 -0.39086682 -0.017146995 0.5300617 -0.5665939 0.12941623 -0.14641896 0.5818611
0.19545431 0.47431716 -0.15742712 0.026798597 -0.35857704 0.07829958 -0.00819076 0.382832
-0.0028936525 -0.62966347 0.2002188 -0.05243307 0.37438253 -0.011436621 -0.26764518 0.8761671

weight f4 [3, 64]
00000000: 84dc f6bd c1ce f6bd 5c57 b4bf 238a 47c0
00000010: 6d0e 983f 7964 7ebc 1e4a 823f 66d6 6fbf
00000020: d760 cabf 5a6a 46bf 47dd dfbf 275b 9d3f
00000030: ed5d 19c0 6f26 10c0 7b4c 2dbe 2e3c d7bf
00000040: ec81 4fbe 38f0 8ebf 6b8e f3bf d639 b4be
00000050: 0f45 68be dbb9 32be 33ab 403f b3a7 59bf
00000060: edbd 04bf 54f6 b63f 2533 19bf e6f3 efbf
00000070: e079 d33c a8f2 bf3f e620 b63f 8821 ff3c
00000080: 0379 05bd 1250 c03f 7fdc a73c f4cf 253f
00000090: a60b 1fc0 f995 cc3f 979a ce3d 2c4b 95bd
000000a0: f708 18bf 585a aebf 7933 c33f 2978 39bf
000000b0: 9a9e cdbd e834 2240 3e42 833f 698e f73f
000000c0: 94b3 0dbf eb1d 733f c521 b03e 24df 5cbf
000000d0: a0a0 3c3f d3e3 073f 0a45 033b 6817 f63e
000000e0: c236 e23d a627 b33f 006c 8c3f a907 c3bc
000000f0: b92e a3bf 60b8 40be abae 2b3d 8f01 99bf
00000100: 1752 3abe fc5f dfbd 7f32 853e a0f4 b93f
00000110: c643 0840 8b2c cf3d 7dbf a63e 8f37 73bf
00000120: 8aa4 a03f a679 c53f e518 943f 4e4f 0340
00000130: 913c e03f f72b 37bf 491b 4ebf 0b89 32bf
00000140: 4328 163f 6484 d43e f441 ab3e fd06 a7bf
00000150: 290f 823e ee8b 10be bf6d b7bf 7cf3 9f3e
00000160: da95 e53f 0d0b 2140 5fc1 a4bf 6b17 4e3f
00000170: 5f6a bbba 0f4c 03bf 1842 653f abf1 e2bc
00000180: bb67 a83d c154 7fbf 4dba 163c 7e27 31c0
00000190: 7a58 6c3f 5696 b8bf 9ca3 39bf 0388 733f
000001a0: 04af 50bf 16fb 1e3e 54ee 30bf 332a 73bf
000001b0: 0de2 fd3f b8db 30bf 3719 38bf 6f49 33bf
000001c0: 1770 92bf 7c82 7ebe e373 76be 29ff 013f
000001d0: 3a98 863f 75b3 41bf fcf0 073d eaaf 6ebf
000001e0: 5fee 98bd 7748 513f 0542 56bf 6253 8c3d
000001f0: aed0 f4be 0328 1e3d f1c9 993e 03bc f1bd
00000200: cfcc fb3d e707 483e d232 343e 0695 a2be
00000210: 2c93 18bf 3e1a 2e3d 792c 643f e9ec a33f
00000220: eb67 ee3e b4c4 69bf c580 8b3f a7a7 133f
00000230: 62ce 2bbf e990 1240 1ae1 a1bf fe67 3b3f
00000240: c710 cebf 5580 973e 7306 923e 0e32 95bf
00000250: 3055 0f3f 5e8e 16bc 3104 62c0 9328 46bf
00000260: 46da 443f 2781 0ec0 a391 4ac0 e653 e2bf
00000270: 57af fc3a fe50 b73e f48e 82bf 6b94 6abd
00000280: 77e4 bebd 92dd 1d40 5895 2d3d 5106 19be
00000290: f661 5140 22a2 0c3e 19e1 c2bf 62b6 5d40
000002a0: 5d6a d3bf efe6 c4bf bef9 98be 2b65 303e
000002b0: 2b4f 49bf 8001 f3bf 67f3 b53f c383 17c0
000002c0: bccd fabf d14a 12c0 4c8f 3140 4124 bd3d
000002d0: dc17 adbf f3a5 ab3f 0cbc 3e3d 715a a33f
000002e0: 067d 3a3c 1ffa f2bf 69a2 573e d838 cb3d
000002f0: e88b 993e 3079 93bf 76d8 cfbd 09fe 1b40
-0.12053779 -0.12051154 -1.408916 -3.1178062 1.1879402 -0.015526884 1.0178869 -0.9368652
-1.5810803 -0.7750603 -1.7489403 1.2293442 -2.3963578 -2.2523458 -0.16923706 -1.681524
-0.20264405 -1.1167059 -1.9027838 -0.35200375 -0.22682594 -0.1745371 0.7526123 -0.85021514
-0.51852304 1.4293923 -0.59843665 -1.8746307 0.02581495 1.4995928 1.422879 0.031143919
-0.03258611 1.5024436 0.020490883 0.64770436 -2.485086 1.5983268 0.100880794 -0.072897285
-0.5938868 -1.3621321 1.5250083 -0.72448975 -0.100400165 2.5344791 1.025459 1.9340335
-0.5535214 0.94967526 0.34400764 -0.86277986 0.73682594 0.5308201 0.0020030164 0.48064733
0.110456005 1.3996475 1.0970459 -0.023807364 -1.2748634 -0.18820333 0.041914623 -1.1953601
-0.18195377 -0.109069794 0.26015088 1.4527779 2.1291366 0.10115918 0.3256797 -0.9500665
1.2550213 1.5427749 1.1570097 2.0517154 1.7518483 -0.7155146 -0.80510384 -0.6974036
0.58655185 0.41507256 0.33448756 -1.3049008 0.2540219 -0.14115879 -1.4330367 0.3124045
1.7936356 2.5162995 -1.2871512 0.80504483 -0.0014298669 -0.5128793 0.89553976 -0.027703127
0.0822291 -0.997387 0.009199691 -2.7680354 0.92322505 -1.4420879 -0.72515273 0.9512941
-0.8151705 0.15525469 -0.6911366 -0.94986266 1.983461 -0.69085264 -0.71913475 -0.70033926
-1.1440457 -0.24854463 -0.24067645 0.5077997 1.0515206 -0.75664455 0.033188805 -0.93237174
-0.07467341 0.817512 -0.8369449 0.068518415 -0.4781546 0.038612377 0.30036882 -0.118034385
0.122949235 0.19534265 0.17597511 -0.3175432 -0.59599566 0.042505495 0.8913036 1.2806674
0.46563658 -0.9131577 1.0898672 0.5767769 -0.6711179 2.2900946 -1.264682 0.73205554
-1.609887 0.29590097 0.28520545 -1.16559 0.5598936 -0.009189216 -3.5315058 -0.7740566
0.7689556 -2.2266328 -3.165139 -1.7681854 0.001927833 0.3580398 -1.0199876 -0.05727045
-0.0932092 2.4666486 0.042378753 -0.14943816 3.271604 0.13733724 -1.5224944 3.4642568
-1.6516834 -1.5382975 -0.29878038 0.17226093 -0.78636426 -1.8984833 1.4214906 -2.367417
-1.9594035 -2.2858164 2.7743711 0.092354305 -1.3522906 1.3410019 0.046566054 1.2761976
0.011382347 -1.8982581 0.21058048 0.099229515 0.29989552 -1.1521358 -0.101487085 2.43738

bias f4 [3]
00000000: 7459 c7be bb0d 5ebf 28ec 493f
-0.38935435 -0.867397 0.7887597

weight f4 [64, 19]
00000000: 2eaa cabd de12 c33d 61d9 59be 1224 ee3d
00000010: dfe5 473e 6068 28be 34c1 6fbd f4f6 5f3d
00000020: 9bdf 60be b2a3 14be 8267 a33d 8136 5d3e
00000030: e65c 8cbd 00ed 08bb 2ac7 62be 2f7d 61be
00000040: 5f4e 4c3e 375b 473e 9831 8fbd 0f22 3e40
00000050: c635 e73f d906 d33e 320d a140 afac 27c0
00000060: b595 4b40 5ac7 533e f9dc e3bc 7f75 fabd
00000070: 3f1a 64bd 46fe c33e e7b7 003e 818c aa3d
00000080: b96b 27bd 263f 3bbe e97b adbc 9f2e 223d
00000090: 733e 0b3d 1b33 18bc aa61 c740 25df 76c0
000000a0: 7aba b13f 9b49 3e3f b36c 4c40 b951 b040
000000b0: 2b54 be3e 1505 a9be 3645 dfbd 0b11 a5be
000000c0: ef04 6dbe 723d e73c 05ac 0abf e55c 15be
000000d0: 4729 453d e132 893d 24f8 1b3d f7b3 8b3d
000000e0: 1bc4 453c 4afc 22be b507 5e3e fdab 4b3e
000000f0: 03a0 39be e046 08be d2a7 e03d 868c 10be
00000100: 49bc 1f3e 5d2d e0bd 84d2 91bd 6ae0 86bd
00000110: 711f 603e cae1 9ebd d4b7 36bd 4b25 0e3e
00000120: 6bbb 20be 00d8 90ba 8c75 35be e7d3 58be
00000130: 41c7 0a40 4200 52bf 6417 19c0 b2ce 23c0
00000140: 68a3 873f 6bd0 fc3f ac30 213e 3f12 96be
00000150: c077 2fbf c46c d6bd b420 843d d0f0 d3be
00000160: 025c 983d 8d6e 83bf aa2f 1f3d 605c c33c
00000170: bb22 e7bc a3cd 9fbc 5b3a a4bc f8f8 8ac0
00000180: e57d c3c0 cd2f d1bd 4c4f a13f ee6f e040
00000190: fee1 abc0 d0fd 223f 6d18 f3be 4793 673f
000001a0: 4cb5 89bd 38d4 91be 76b0 203e 3819 053e
000001b0: 1f42 55bc f60c a93d 6881 17be de74 8f3a
000001c0: 9c2e 32bc 4d9f 243c 28bd adc0 a099 9840
000001d0: ce13 13c0 332d 9fbf 5643 89c0 e5a9 e9c0
000001e0: c783 203e 9f55 163d bc4a ef3e b441 30bd
000001f0: 93b0 8cbd 246f a53e 4902 2c3e e741 b83d
00000200: 9b0d 843e 52a5 21be 4517 95bc 318b 183c
00000210: beea 65bc 54d0 26be 007a a4ba 8b44 2a3e
00000220: cbfe 1b3e 19b8 4f3e 3246 a03d 0262 b63d
00000230: 14fe 7b3d 0b8b 2b3e 328d f63d f2a2 8a3d
00000240: a6ef a3bd 1e63 e3bd f052 68bd 3e3a e03d
00000250: 54c1 ffbd 665d 803d 9988 4d3e 51eb 463e
00000260: e0f5 2cbe deeb 853d dd9b 193e 6a62 55be
00000270: 7524 163e a360 12be 20dc 29be d029 c7bd
00000280: 6ab9 b0bd ba40 c2bd 7a44 873d 8e04 b63d
00000290: 629a b63d 5f32 223e 18a3 14be a810 5fbe
000002a0: f875 3cbe 6f1e 01be 1ee9 d6bd 54d7 78c0
000002b0: bf2a cdbe 4d44 993f 2330 92c0 411a b63d
000002c0: 225a 90c0 00b5 3dbf f493 5a3f b909 c33e
000002d0: fff2 a3be 1fea 75bd 0a91 573e f9e7 41bd
000002e0: 1b15 0a3f b855 39bf bbdd bebc 909c bebc
000002f0: 2b51 98bd 3d5f 893c c3ad 13c0 b199 cbbf
00000300: 60ce a83f 5292 e6c0 7548 0540 73bf 41c0
00000310: 99ee 3ebf 5580 db3e 2761 06bf 8172 5ebe
00000320: fc7c 433e d35e afbe f48b afbd 207e b13e
00000330: 2378 d4be 5c5d 92be 9b9f 8bbc af42 ecbb
00000340: 6c76 e93c 347a 123d 1699 eb3d 4031 703c
00000350: 40f8 f8bb 1597 0b3e c1ac 3b3e 0eef 82bd
00000360: 1291 48be f8d0 00be 87e1 273e c86b a33c
00000370: 6126 493e b05b a4bd f597 5ebe 56e8 913d
00000380: d637 c8bd 3073 0cbe c175 123e 00b2 823c
00000390: d938 83c0 353b 9340 7ddb 85be 9251 80be
000003a0: 4f04 95c0 094e 80c0 e8c3 a93e 74b5 e43e
000003b0: a693 e33e 56ee 13be cb17 403f d8c4 06be
000003c0: e252 493d 9fa3 053e 6de6 fa3d 8cc2 963d
000003d0: f510 f2bc 2423 e13b 3ca6 193d 5902 753e
000003e0: 47b3 9ebb 5624 26be 2599 9d3d 3402 55be
000003f0: 54bd 533e f101 e23d cb49 9b3d a92a 763d
-0.098957404 0.09525083 -0.2127433 0.116279736 0.19521283 -0.16446066 -0.058533862 0.054678872
-0.21960299 -0.1451557 0.07978727 0.21602823 -0.068536565 -0.0020893216 -0.22146288 -0.2202041
0.19951771 0.1946839 -0.06991881 2.9708288 1.8063285 0.41216162 5.0328608 -2.6199148
3.1810124 0.20681515 -0.027815329 -0.12229442 -0.055689093 0.38279933 0.12570153 0.0832758
-0.040874217 -0.18285808 -0.021177249 0.039595243 0.033995103 -0.009289528 6.230672 -3.8573697
1.3885033 0.74331063 3.1941345 5.509976 0.3717359 -0.3301169 -0.10901873 -0.32239565
-0.23146413 0.028227542 -0.5416873 -0.14586218 0.04813507 0.066991575 0.038078442 0.06821435
0.012070681 -0.15916553 0.21682627 0.19889827 -0.18127446 -0.13308287 0.10969509 -0.14116105
0.15599169 -0.10946152 -0.07120231 -0.06585772 0.21886994 -0.077579096 -0.044608906 0.13881414
-0.15696494 -0.0011050701 -0.17720622 -0.21174584 2.1684115 -0.82031643 -2.3920527 -2.5594907
1.0596743 1.9751104 0.15741223 -0.29310796 -0.685421 -0.10469964 0.0645155 -0.41394663
0.07439424 -1.0268112 0.038863815 0.023847759 -0.028214803 -0.019507235 -0.020047357 -4.3428917
-6.109118 -0.102141954 1.2602324 7.0136633 -5.371337 0.6366854 -0.47479573 0.904591
-0.06724033 -0.28482223 0.15692315 0.12997901 -0.013016253 0.08254425 -0.14795458 0.0010944863
-0.01087537 0.010047746 -5.4293404 4.768753 -2.2980838 -1.2435669 -4.2894697 -7.301989
0.15675269 0.03670275 0.46736705 -0.04303141 -0.06869616 0.32311356 0.16797747 0.08996945
0.2579163 -0.15785721 -0.018199572 0.00931053 -0.014033018 -0.16290408 -0.0012548566 0.1662771
0.15233915 0.20285071 0.07825889 0.08905412 0.061521605 0.1675226 0.120386496 0.067693606
-0.08004694 -0.111028895 -0.05671972 0.10948609 -0.12488046 0.06267814 0.20071639 0.19425704
-0.16890669 0.06539129 0.15000863 -0.20838323 0.14662345 -0.14294676 -0.16587877 -0.09724772
-0.08629115 -0.09485002 0.06604858 0.088875875 0.08916165 0.15839528 -0.1451534 -0.21783698
-0.18404377 -0.12609266 -0.10493682 -3.8881426 -0.40071675 1.1973969 -4.568376 0.08891726
-4.5110025 -0.7410431 0.8538201 0.38093355 -0.3202133 -0.06003773 0.21051422 -0.047340367
0.53938454 -0.7239642 -0.023299089 -0.023268014 -0.074373566 0.016769046 -2.3074806 -1.5906278
1.3187981 -7.2053614 2.0825474 -3.0273101 -0.7458282 0.42871347 -0.5249199 -0.21723367
0.19090647 -0.34252033 -0.08571616 0.34666538 -0.41497907 -0.28586853 -0.01704388 -0.0072100977
0.02849885 0.035761073 0.11503808 0.01466018 -0.007597953 0.13631852 0.18327619 -0.06393252
-0.1958659 -0.12579715 0.16394626 0.019948855 0.19643547 -0.080253005 -0.21737655 0.07124393
-0.09776275 -0.13715816 0.14302732 0.015954018 -4.1006894 4.6009774 -0.2614402 -0.25062233
-4.656776 -4.009526 0.33157277 0.44669688 0.44448584 -0.14446387 0.75036305 -0.13161027
0.04915131 0.13050698 0.122509815 0.073613256 -0.029549101 0.006870644 0.03751205 0.23926677
-0.004843149 -0.16224799 0.076952256 -0.20801622 0.20677692 0.110355265 0.07582434 0.060099278

bias f4 [64]
00000000: 104a 0bbd e7e7 97bd 934b 05bb 00f3 4e3b
00000010: cd6e 9abd 1118 83be b804 fabc 1190 573e
00000020: 4e1b 9a3d be0b 87be ee24 cb3d 2436 18bd
00000030: 7381 293d 3001 78be cc15 1d3d 5ab1 7abe
00000040: 04b5 053d 9191 c53d cb09 b23d 12bd 993d
00000050: 41aa e43c df73 1a3d 1422 f4bd 47e1 73bc
00000060: 9c50 79bd aab0 aabe 1bc1 233e b2f8 1a3e
00000070: 4353 c73d 9514 e8bd 0c1c a8be b33b 3b3d
00000080: e32b 1cbe 2c8b 0d3d a0de b1be a6bb 47bc
00000090: 739a d9bd 7800 4b3e 6e02 e43d 4b5c 60be
000000a0: 1a3c 193e f8ab d0be c08e e0bd 18f0 683b
000000b0: 126d a5bd 7790 06be 5891 c13c 81ff 49be
000000c0: 2031 ffbd b753 963d f658 48be 24f1 2d3d
000000d0: 78d4 da3c d7f3 73be 2d7a 22be 8f60 1c3e
000000e0: e839 4dbe 0668 17be b586 89be ab0b 88be
000000f0: c18e aabd b812 56bd 21b0 143e 43e3 a53d
-0.03400618 -0.07417279 -0.0020339235 0.0031577945 -0.07540665 -0.256043 -0.030519828 0.2105105
0.07524739 -0.26376146 0.09919153 -0.037161008 0.041383218 -0.24219203 0.038350865 -0.24481717
0.032643333 0.09646905 0.08693274 0.075067654 0.027913215 0.03770816 -0.119205624 -0.014885253
-0.06086789 -0.3333791 0.15991633 0.15133932 0.09732678 -0.11332051 -0.32833898 0.04571123
-0.15251116 0.034556553 -0.34740162 -0.012190735 -0.10625162 0.19824398 0.11133276 -0.21910207
0.14964333 -0.40756202 -0.109647274 0.0035543498 -0.08077444 -0.13141046 0.023628876 -0.19726373
-0.12460542 0.07340186 -0.19565186 0.042466298 0.026712641 -0.23823486 -0.15866919 0.15271209
-0.2004162 -0.14785776 -0.26860586 -0.26571402 -0.083280094 -0.052263945 0.14520313 0.08099987

weight f4 [64, 64]
00000000: b062 d73c 63b9 a83d ab77 2f3d a4f9 f63d
00000010: 221d 1abd c260 25bd bc6e 4dbd f6d8 c9bd
00000020: 74c2 d03d b6c0 bc3a 2d2f 58be 665c 98bd
00000030: 43a5 87bc 9cb1 003d 8819 39bd 7d83 8cbd
00000040: c09f eabc 38c4 62bd 4f84 e73d f032 2bbe
00000050: 9621 70bd f690 01be cf88 9fbd 4541 9ebd
00000060: 8640 d0bc 0251 913b f7f7 8cbb 25f4 bdbd
00000070: 7ee7 f6bd 28aa d3bd 9598 aabd 1774 cf3c
00000080: 9e1a d03d 609d cb3c fcc0 5bbe ecb3 063d
00000090: 55f8 76bd 9b68 c9bc 220f 853d d8c3 d63d
000000a0: 9021 153c ece5 6fbc 007a 6d3a f04b 243d
000000b0: dcb7 8c3b 14ae 75bd d0c1 ccbc 341c e9bd
000000c0: 523b ed3d e085 18be b8b4 5dbd 4ccb c63d
000000d0: c690 843d ea81 f8bd c6aa 36bd 404a 6fbb
000000e0: 70ce 3abc df4d 1bbe 3be1 f83b d2b7 0cbe
000000f0: bac9 dbbd 98f0 1c3d 58b5 453d 2770 f9bd
00000100: 9cbd 8dbd 6e6e 9e3c f294 e9be 02f4 8bbd
00000110: e5a1 74bd ea47 5c3f 4cac aa3e 9648 d73d
00000120: 3047 d1bc a837 893a 542e b0bd 00be 723d
00000130: 1ba8 1d3d f1de 153e 00e6 593a cd79 763d
00000140: 2cde bd3d bb66 fb3e 7fa5 183e b750 143e
00000150: 77e2 863e 1350 cf3e 12b5 813d c0e7 63bd
00000160: be35 bd3b 905a 6d3f 3840 023e f527 0bbe
00000170: 69ab a83d c58a 2fbd 9f0e 103e c992 e6bc
00000180: b0cf e3bb 98bc 77bd 5f67 9c3d 03dc 973d
00000190: 23af fd3d bc98 143f a8f0 bf3d f27b d73d
000001a0: caf3 a4bd 87ff 433d 4aa5 dcbd 2ec6 6fbe
000001b0: a3a1 1dbd 6724 723d 4c4c 79bd 119c be3d
000001c0: d07d a53c 1da9 8fbe 9553 ac3c 1f71 ea3d
000001d0: 14ab fd3d 9b44 3e3d 43ce 373b 7630 adbd
000001e0: e6fe 8abd 5aa4 f8bc 29c4 f0bd da3e c8bd
000001f0: 7505 4f3d b404 123d 9097 813a a7bd e73e
00000200: 806c b7bd 6dcd 90bd 6dbb 05be 809e dc3b
00000210: a1e3 41be 1bd6 5ebc 256f 9cbc e23d c6bd
00000220: ec27 67bd 95c3 12bd ff89 91bd 32f2 e1bd
00000230: caa6 90ba 0ca1 1fbd 10d5 763c afe1 dd3d
00000240: e8f0 7e3d ddd8 79be 04c7 af3d 7c45 0abe
00000250: 6292 2dbc 5a90 583d a372 c23d d8b2 b2bc
00000260: 3c56 84bd d1c5 bd3c 806a 773c b32b 0cbe
00000270: 71ae efbc 9c8c 383d a037 61be 4281 30be
00000280: 8a1a 9e3d c46a 343d f39d a4bd a597 e73d
00000290: 08b5 99bd 01a1 4ebc 96e2 a9bd 8803 dcbd
000002a0: 30ae debc 0407 ad3d 18e1 dabd 2c39 81bc
000002b0: 4ad2 c5bc c270 25be f4f1 d1bd 2582 ceb8
000002c0: ac02 403d a287 c9bd 2fc3 853c a1eb 063d
000002d0: 524e b4bd cb73 29be fa2f a1bd 705e 93bc
000002e0: e0a9 44bd 165e c23c 5038 15be 50b4 573d
000002f0: 11cb 89bd c8ff 8ebd 432c b6bc 7489 38be
00000300: a484 ddbd 659b a5bc b6f4 b8bd 18a1 8abd
00000310: a0af 743b f655 873d d9bd 2cbc d823 7fbd
00000320: e64e 8b3d ebdd 89bd 55ae a5bd 98a5 c7bc
00000330: 2c30 5fbd dc23 f73d 10c7 b7bc 807f e6bd
00000340: 549a 22bd 1cd3 3b3d 86c1 163b d97a 0cbe
00000350: 2dc6 13be 6fd0 6ebd 0fa7 bfbc 78d9 00be
00000360: 0cb5 6b3d 0621 a3bd cbca 8d3c 2a89 98bc
00000370: f867 a3bc dc0e 87bd 2fb3 8bbc 0585 f8bd
00000380: f0ba 04bd a852 6a3d 4990 28be f4ea 62bd
00000390: a156 fabc 1d7d b6bd 7862 723d 98a0 7d3d
000003a0: a875 94bc e18d 84bd 88cd 773d b24a c7bc
000003b0: 2946 1cbe 9a5b 7e3c d403 fc3d 5313 4e3d
000003c0: f437 8dbd 240d 753d e251 dbbd 8df6 f4bd
000003d0: aa52 b73d f1ca 11be 08d7 733d ace4 fa3d
000003e0: 4a0f acbd 0876 713d fdbc 96bd b2a1 abbd
000003f0: 7973 b9bb 9c61 413d ea32 dfbd cafa c73d
0.026292175 0.08238485 0.042838734 0.12059334 -0.03762544 -0.04037548 -0.050154433 -0.09855835
0.10193339 0.0014400694 -0.21111746 -0.074394986 -0.016558295 0.03141938 -0.045190364 -0.06861017
-0.028640628 -0.05536291 0.11304533 -0.1671865 -0.05862578 -0.12652954 -0.07789766 -0.07727293
-0.025421392 0.0044347057 -0.0043020207 -0.092750825 -0.120558724 -0.10335189 -0.08329884 0.02532391
0.10161327 0.024855316 -0.21460336 0.03288643 -0.06029542 -0.024586013 0.06497027 0.10486573
0.00910224 -0.01464222 0.0009059012 0.040111482 0.0042943787 -0.059980467 -0.02499476 -0.113823324
0.1158358 -0.1489482 -0.054127425 0.097067446 0.06472926 -0.12134154 -0.044596456 -0.0036512762
-0.011401758 -0.15166424 0.007595209 -0.13741997 -0.10731836 0.038315386 0.048268646 -0.121795945
-0.06920931 0.019339766 -0.4562145 -0.0683365 -0.059724707 0.8604723 0.33334577 0.105118915
-0.02554664 0.0010468857 -0.086025864 0.05926323 0.038490396 0.14635827 0.0008312166 0.060174752
0.092708915 0.49101815 0.14906882 0.14483915 0.26344654 0.4049078 0.063333645 -0.055640936
0.005774229 0.9271631 0.1271981 -0.13589461 0.08235819 -0.04285695 0.14068078 -0.028146164
-0.0069522485 -0.06048259 0.07636904 0.07415011 0.1238692 0.58045554 0.093720734 0.105216876
-0.080543116 0.04785111 -0.10773714 -0.23415443 -0.038484227 0.059116747 -0.060863778 0.09307111
0.020201594 -0.2805871 0.021035949 0.114473574 0.12386146 0.046452146 0.0028046526 -0.08456509
-0.06786899 -0.030351806 -0.117561646 -0.09777613 0.050542314 0.035649016 0.0009887088 0.4526188
-0.089562416 -0.07070432 -0.13059779 0.006732762 -0.1893449 -0.013600851 -0.019095967 -0.09679772
-0.056434557 -0.035831053 -0.07106399 -0.11032523 -0.0011036035 -0.038971946 0.0150654465 0.10834061
0.062241465 -0.24399133 0.08582881 -0.13503069 -0.010593982 0.05287204 0.094945215 -0.021813795
-0.064617604 0.023165615 0.015101075 -0.13688545 -0.029257985 0.04505597 -0.21993876 -0.17236808
0.07719906 0.044047132 -0.08037939 0.11308221 -0.07505232 -0.0126116285 -0.08295171 -0.10742861
-0.027182668 0.08448604 -0.106874645 -0.015774332 -0.024148125 -0.16156295 -0.10251227 -9.847087e-05
0.046877548 -0.09840323 0.016328422 0.032939557 -0.08804001 -0.16548078 -0.07870479 -0.017989367
-0.048013568 0.023726504 -0.14572263 0.052662194 -0.06728185 -0.0698238 -0.022237903 -0.18021184
-0.10816315 -0.0202157 -0.0903105 -0.067690074 0.0037336126 0.066081926 -0.01054331 -0.062290043
0.06802158 -0.067317806 -0.08089892 -0.024370953 -0.0544893 0.120673865 -0.022433788 -0.112547874
-0.03969796 0.045855626 0.0023003533 -0.13718738 -0.14431067 -0.058304247 -0.02339509 -0.12582958
0.057545707 -0.07965283 0.017308613 -0.018620092 -0.019947037 -0.06594631 -0.017053215 -0.121347465
-0.03240484 0.057207733 -0.1646129 -0.05539985 -0.030558886 -0.08910582 0.05917594 0.061920732
-0.01812251 -0.06472374 0.060498744 -0.02432761 -0.15261139 0.015524769 0.12305418 0.050311398
-0.06895438 0.059826985 -0.10708977 -0.11961088 0.08951314 -0.14237572 0.05953124 0.12250647
-0.08401354 0.058950454 -0.073602654 -0.0838045 -0.0056595174 0.04721223 -0.10898383 0.09764631

bias f4 [64]
00000000: 41fd b5bd df28 16be 71b6 4abe 4090 97bd
00000010: 83e4 063e 4af4 b0bd f50e 36be b9b1 2abd
00000020: 6ebf 06be 7516 203e 72b8 783e 24b2 3cbe
00000030: cd2d d73e 8798 1bbc 6fb5 6bbd 6ee0 0abe
00000040: 53ab fb3e 6500 1d3e 0b7c 21be 1cb6 80bd
00000050: d77c 41be 6d5f 14be 2a43 c43d eacd dbbd
00000060: 40fd 1dbe 851c 343d 9e51 cebd 6dd7 e6bc
00000070: 1990 12be 2385 a23e bc5a 72bd c846 b03e
00000080: 3d1e b5bd 0245 ecbd 380a df3b dbe0 bf3b
00000090: 5599 4f3d 796e a9bd 0057 4abe 6e90 f7bd
000000a0: 9eab 52be cff2 f1bd d686 2dbe 3fa0 b2bd
000000b0: fc4e 35bc b1ba b8bd 36c0 45be f251 58be
000000c0: b038 f6bc a952 da3a 2ac2 8cbd 9ac4 0dbe
000000d0: 8599 1bbe d594 073f 267e 95bd 131b aabd
000000e0: fb1d edbd 72d9 f0bd 7df9 6fbd 8ac7 083e
000000f0: 112b a6bd fde8 51bc 5ab6 013f e36b 8fbc
-0.08886195 -0.14664029 -0.19796158 -0.074005604 0.13173108 -0.086403444 -0.17779143 -0.041673396
-0.13158962 0.15633567 0.2428911 -0.1842733 0.4202713 -0.009496815 -0.057546075 -0.13562176
0.49154148 0.15332182 -0.15769975 -0.062847346 -0.18895279 -0.14489527 0.09583123 -0.10732634
-0.15428638 0.04397251 -0.10074161 -0.028178895 -0.14312781 0.317422 -0.059168562 0.34429002
-0.08843658 -0.115366 0.006806638 0.0058556623 0.05068334 -0.08273024 -0.1975975 -0.12088095
-0.2057328 -0.1181389 -0.16945967 -0.08721971 -0.011066195 -0.090199836 -0.19311604 -0.2112501
-0.030056328 0.0016656715 -0.06872971 -0.13844529 -0.15195282 0.52961475 -0.072994515 -0.08305945
-0.11577984 -0.117602244 -0.05858754 0.13357368 -0.08113683 -0.012811896 0.5066887 -0.0175075

weight f4 [1, 64]
00000000: 80c1 ecbc 8b53 a5bd 9ae9 d23c 6645 6ebc
00000010: 856f 07bf 78cf c5bc 70a5 7e3c 4a46 f9bd
00000020: b9e9 83bc 7193 1e3e 1f6d 2e3e 87ee 5bbc
00000030: e28c 813e 8552 abbd 657f 623b a52d aa3d
00000040: d3e6 aa3e 2d99 6c3e b395 88bc a6ed 4abd
00000050: bbb9 95bc f886 c6bd fec1 ff3d e573 a2bb
00000060: 9e57 22bf 11e8 debe e87e c23b c30f 94be
00000070: 3373 4ebc 500d e23e 9ffe 41be dbb2 8a3e
00000080: 8575 27bc 6223 b93b dc25 04bd 2fcb cfbd
00000090: a248 4abe 1feb 0bbe 4f72 5d3c ce4b 95bc
000000a0: 5762 2d3c 1086 a73b 8470 773c 8aa1 ecbc
000000b0: e2a3 4fbe 52c5 e3bc e496 933b f705 c3be
000000c0: 42d5 f1bc 79f3 1abb 11f1 d13c 0be1 95bc
000000d0: 4a90 5c3d 8f67 a13e 13db 2bbc e4ed e5bc
000000e0: 1ecb 3d3b 4db0 8dbc f6c9 a83c d673 6cbf
000000f0: b8e3 bd3c 2c86 873c f31a db3e ecd4 3ebc
-0.028900862 -0.08072575 0.025746156 -0.014542913 -0.5290454 -0.02414678 0.015542373 -0.1217161
-0.016102659 0.15485932 0.17033814 -0.013423569 0.25302798 -0.08365349 0.0034560796 0.08309487
0.3337923 0.23105307 -0.016672945 -0.049543045 -0.01827704 -0.09693712 0.12488173 -0.0049576634
-0.63414943 -0.43536428 0.0059355386 -0.28918275 -0.012600708 0.44150782 -0.18944786 0.2708958
-0.01022089 0.00564997 -0.032262668 -0.10146176 -0.1975427 -0.1366391 0.013516023 -0.018224623
0.010582528 0.005112417 0.015102509 -0.028885622 -0.2027736 -0.02780405 0.0045040715 -0.38090488
-0.029520635 -0.0023643656 0.025627645 -0.018295785 0.053848542 0.3152432 -0.010489243 -0.028067537
0.0028960179 -0.01729598 0.020604115 -0.9236425 0.023179874 0.01654347 0.42793998 -0.011647444
