output/ddpg/2021-12-29_12-39-33-ddpg_s2/pyt_save/model.pt (torch_old, 48433 bytes, 11 tensors)

weight f4 [64, 16]
000000 dc 50 bf 3e 3c 7f 2c 3f 72 41 6d 3d 9f e6 f6 be
       0.37366378 0.67381644 0.05792374 -0.48222825
000010 7a d4 16 bf fd cc c6 3e 2f 9a ce bd 47 7f 1b be
       -0.58917964 0.3882827 -0.10088002 -0.15185271
000020 b2 d7 9d bd 69 a3 69 be 8b 09 0f 3e e7 51 7d bc
       -0.07707156 -0.22816242 0.13968484 -0.015461422
000030 1d c7 30 bd b0 85 59 3e f0 4f 76 bd f9 6e c3 3d
       -0.04315864 0.21242404 -0.060134828 0.09542651
000040 fc ac d8 3d c2 05 17 be 98 d4 c4 bd 28 33 76 3e
       0.10579869 -0.1474829 -0.096108615 0.24042952
000050 08 bf 7a be c0 18 8b bc b0 4d a2 bc 4e 95 35 3e
       -0.24486935 -0.016979575 -0.019812435 0.17732736
000060 d0 b3 c2 bc 98 d1 86 3d 80 9f 44 bc ac 58 0f be
       -0.023767382 0.065829456 -0.012000918 -0.1399867
000070 2a 19 11 be 34 bf f8 bd 32 8d 68 be b4 23 26 be
       -0.14169756 -0.12145844 -0.22710112 -0.16224557
000080 1b 9e 0b be f7 2c 98 bd 23 78 97 3c 11 fe 7f bd
       -0.13634531 -0.07430451 0.018489903 -0.062498156
000090 a3 8a ae 3e 33 81 92 be e5 98 f4 bd df 93 82 be
       0.34090146 -0.28614196 -0.11943225 -0.25503442
0000a0 8e f0 a0 bd 2a ce 95 be 2f e7 13 3e 33 d9 06 3e
       -0.07858382 -0.29258853 0.14443658 0.13168792
0000b0 94 2e 08 bc ea 71 58 3c 6c 3f 82 3d ab 07 4c bd
       -0.008311886 0.013210753 0.06359753 -0.049812
0000c0 37 9a 63 be 92 9e 46 bf af 79 12 3e b2 10 3f 3f
       -0.22226797 -0.7758571 0.14304231 0.7463485
0000d0 f1 2d 65 3f a8 18 fe bd c8 ba c9 38 ba 2c c6 bd
       0.89523226 -0.124070466 9.6192176e-05 -0.096765
0000e0 b8 bc 0b 3e a7 3f 04 3e a3 2a 89 bd 06 e6 ad 3e
       0.13646209 0.12914906 -0.066975854 0.33964556
0000f0 30 f6 ba 3d 62 23 79 be ef 98 2e 3e da 55 68 3e
       0.09128988 -0.24329904 0.17050527 0.22689
000100 f4 63 63 3e 40 bc 80 bb a4 db a9 3d 26 24 70 be
       0.22206098 -0.003928691 0.08293846 -0.2345129
000110 e0 39 a3 bd dc ab f9 3d de 34 69 be 2c 07 5f 3e
       -0.07970023 0.12190983 -0.22774073 0.2178008
000120 10 5a 28 be e8 e7 a1 3d 60 11 1b bc 48 72 34 3d
       -0.16440606 0.07905561 -0.009464592 0.0440543
000130 90 6b c6 3c 2e 51 6f be 90 f4 5b bd 08 d2 21 be
       0.024221212 -0.23370811 -0.05370003 -0.15802777
000140 e5 fa bc 3e f9 3d 8b 3e 70 97 85 be 69 7b 8e be
       0.36910167 0.2719572 -0.260921 -0.2782853
000150 1a 58 49 be 87 cb 67 3d 69 6e f8 bd 70 33 3c 3e
       -0.19662514 0.056590583 -0.12130434 0.18378997
000160 71 1a 2d be f9 ae 39 be ce 7f 36 3d 4a 81 e5 bd
       -0.16904618 -0.18133153 0.044555478 -0.112063006
000170 d1 25 d7 3d b9 90 10 3c a3 8f e9 3d af ca a7 3d
       0.1050526 0.008823567 0.1140435 0.08192956
000180 14 4a 45 be 36 90 1f be 74 19 2f be a8 8e a4 bd
       -0.1926654 -0.15582356 -0.17099553 -0.08035022
000190 e8 18 bb bd 68 ff 24 bd 90 a7 77 be 48 37 d8 3d
       -0.0913561 -0.040282637 -0.24185014 0.10557419
0001a0 02 3b 11 3e 10 45 a2 3d 50 ad 22 3e a2 50 40 3e
       0.14182666 0.07923329 0.15886426 0.18780759
0001b0 86 b7 7c be 30 ae 1a 3d f2 77 6d 3e 06 87 39 be
       -0.24679384 0.037763774 0.23190287 -0.18117914
0001c0 2a bf b7 be d5 63 37 bf 81 36 16 be bd 64 05 3f
       -0.35888034 -0.71636707 -0.14669229 0.5210684
0001d0 ec ac 19 3f 0c 64 46 bd 78 4e 69 3d 08 0c 6d 3d
       0.6002948 -0.048435256 0.0569596 0.057872802
0001e0 02 13 cf 3e e0 73 ec 3d 6f 9c bc be 27 04 a9 3e
       0.4044419 0.11545539 -0.368381 0.3301098
0001f0 f8 42 1d 3e d2 ab 4d be 19 3d 2a 3d 1b 79 34 3e
       0.15357578 -0.20085075 0.041562174 0.17624323
000200 df 0c 9f be 77 01 03 3c b2 54 3e be 96 49 3d bd
       -0.31064507 0.007995955 -0.18586996 -0.046212755
000210 c2 5c 96 be 40 d8 93 be 6b 41 d6 3d b5 4c 81 3e
       -0.29367644 -0.28875923 0.10461696 0.25253835
000220 a9 46 00 3d 65 d7 29 be fa 6f b5 3e 16 54 0d bd
       0.031317387 -0.16586073 0.35436994 -0.03450402
000230 1a fb 3c be 57 d7 1a 3d fa fc 32 3e cd bb 28 3e
       -0.18455163 0.03780302 0.17479315 0.1647789
000240 3f 57 dc bd 89 ea 27 3d 29 74 66 be 06 1a af 3d
       -0.10758828 0.040995155 -0.22505249 0.085498855
000250 eb 34 ad 3e 25 ab 84 be 02 a4 ec bc 59 43 c6 bd
       0.33829436 -0.25911823 -0.028886799 -0.09680814
000260 a9 71 27 be 86 cb 9c bd 78 93 c3 bd e0 92 28 be
       -0.16351952 -0.076560065 -0.09549612 -0.16462278
000270 31 20 89 be 0b 3d b1 bd b4 00 73 3e b6 70 63 3c
       -0.26782373 -0.08654221 0.23730737 0.013881853
000280 1c 87 74 be 6f 2d 81 3e 35 6d af 3c 24 6b 98 be
       -0.23879665 0.25229976 0.021414379 -0.29769242
000290 26 f9 b0 bc 47 3a e3 3d 0a 34 71 be 05 d0 37 3d
       -0.021603178 0.110951 -0.23555008 0.044876117
0002a0 5f bc b8 bd e5 f6 84 be 54 4c 8b bd 4d c5 c6 3d
       -0.09020304 -0.25969616 -0.06801668 0.09705601
0002b0 a9 c2 ee 3d 3c 8f 24 be 44 4f 06 bf 37 20 9a bd
       0.11658222 -0.16070265 -0.524647 -0.07525676
0002c0 32 e3 8d be f6 a9 be be 97 2a 49 3e 5d 80 b6 3e
       -0.277124 -0.37239045 0.19645153 0.35644808
0002d0 46 cf 66 3e 0d b7 10 be c6 3b 11 3e 4b 7c 99 bd
       0.22540006 -0.14132328 0.14182958 -0.0749441
0002e0 35 26 47 be 14 5f 15 be 95 2b 2a be e4 c3 19 3e
       -0.19448169 -0.1458705 -0.16618188 0.15016133
0002f0 08 44 69 3e 05 c4 68 3d 74 e9 fa 3d a3 64 52 be
       0.22779858 0.056827564 0.12251559 -0.20546202
000300 4a d5 e3 3e ca 36 2c 3f 5a 7f a7 bd e7 26 f0 be
       0.44498664 0.672711 -0.08178587 -0.4690468
000310 65 21 f9 be 6d 57 31 3e cf 41 52 3d 52 37 7f 3e
       -0.4865829 0.17318507 0.05133229 0.24923447
000320 c3 36 38 be 23 2c 24 be 9c 86 b0 bd af 08 5f be
       -0.1798964 -0.16032462 -0.08619425 -0.21780656
000330 28 52 d9 bc 3a e7 33 3e 91 89 33 3d 3f 6b ab bd
       -0.026528433 0.17568675 0.043832365 -0.08370065
000340 ea e7 b4 be 53 94 5e bf 9e 91 46 be 95 04 e7 3e
       -0.35333186 -0.86945075 -0.19391486 0.45120683
000350 15 e9 3a 3f 51 b4 ea be e0 3c 22 be 5e d4 93 3c
       0.73011905 -0.45840696 -0.15843534 0.0180456
000360 20 a9 2b 3e 61 ec e0 bd a2 65 40 3b 58 e4 a7 3e
       0.16763735 -0.10982586 0.0029357453 0.327914
000370 08 00 f5 bc c4 06 50 be bf 32 84 3e 0f 70 17 3e
       -0.029907241 -0.20315081 0.25819966 0.1478884
000380 60 78 c3 bc bc 45 e7 bd 6c 09 d8 bd 72 3a 5f 3e
       -0.02386111 -0.11292598 -0.10548672 0.21799639
000390 3e bb 05 3e bc a5 03 be 00 7a 23 3c 50 09 52 3d
       0.13059708 -0.12856191 0.009977818 0.051278412
0003a0 c0 58 87 3d 80 bb 67 bc d4 fb 05 be 40 fb fb bb
       0.066087246 -0.014143825 -0.13084346 -0.0076898634
0003b0 84 6e 8d bd bc e1 ab bd 4c cf fd bd e0 42 f8 bd
       -0.06905845 -0.08392665 -0.12393054 -0.121221304
0003c0 d8 0b 1c be 13 79 90 3d 87 46 5c be ce 01 83 be
       -0.15238893 0.07054343 -0.21511279 -0.25587314
0003d0 97 cd 61 3e 89 80 59 3d 80 d5 8d 3d 77 85 29 3e
       0.22051083 0.053101096 0.069254875 0.16554819
0003e0 c3 f7 1e be 0f ef 6e be 0f 84 cc bd b2 e2 06 3d
       -0.15524201 -0.23333381 -0.09986126 0.032931037
0003f0 81 a6 d1 bc 4f 2f 8b be c6 c3 c2 bd cd 83 7c 3d
       -0.02559209 -0.2718453 -0.09509997 0.061649133

bias f4 [64]
000000 8f 90 5e bd c0 58 c7 bb 0e 15 06 3c 84 31 ef 3d
       -0.05433708 -0.006083578 0.008183731 0.11679366
000010 00 67 fa 3b 07 be bc bc 58 1e 54 3d 7b 79 7a 3e
       0.007641673 -0.02303983 0.05178675 0.24460404
000020 60 15 c1 3c e8 4c 07 3e 26 94 a5 be f7 af c8 3d
       0.023569763 0.13212931 -0.3233959 0.09799188
000030 2c 27 ce bd 0e 50 66 be 10 f3 45 3d e5 6a 1f 3d
       -0.10066065 -0.22491476 0.048327506 0.038920302
000040 7f 8e 33 be 92 02 9d bd 92 19 2b 3e ec 9a e7 3d
       -0.17534827 -0.07666506 0.16708973 0.11308846
000050 3a 75 12 be 4a 81 aa ba 6d 34 99 bc 9b 06 5c 3e
       -0.14302531 -0.0013008502 -0.018701756 0.21486895
000060 5b 5b 09 3e 0e ab 4e be 02 ff 65 bd 86 a4 49 bc
       0.13413756 -0.2018244 -0.056151398 -0.012307292
000070 3a ae 7d be 8d 9b 23 3d aa 38 46 3e cd 49 46 3e
       -0.24773493 0.039943267 0.19357553 0.1936409
000080 78 f2 2c 3d fc 93 09 3e 3a 21 45 bb d4 7f 99 3d
       0.042223424 0.13435358 -0.003007962 0.074950844
000090 6a 06 cf 3c c0 bf 16 3e e4 ef 4f 3e 3c cc be 3d
       0.025271613 0.14721584 0.20306355 0.09316298
0000a0 95 d9 9d be 77 9d 6f be 81 05 a9 3d 38 6a 4c be
       -0.30830064 -0.23399912 0.08253003 -0.19962394
0000b0 a8 e4 c8 bd 81 90 0b bd 45 31 73 bb bd f8 82 3e
       -0.09809238 -0.034073357 -0.0037108224 0.25580397
0000c0 e5 f3 d6 bd 80 10 c7 3c dc ad 16 be 1d 38 79 be
       -0.10495738 0.02429986 -0.1471476 -0.24337812
0000d0 59 78 4e be 1a 99 4d be dc 84 5a be 4b ee 3d bd
       -0.20163096 -0.20077935 -0.21339744 -0.046369832
0000e0 14 b7 1b 3e f4 2f 07 3e b8 60 54 3e b6 d6 5e 3e
       0.15206558 0.13201886 0.2074002 0.21761593
0000f0 aa 2c f0 3d ea 56 5c 3d fb 6e 2f be 10 33 38 3e
       0.11727269 0.053793825 -0.1713218 0.17988229

weight f4 [64, 64]
000000 b8 38 56 3d d0 4e f2 bd 04 eb bb 3d c2 62 d1 bd
       0.052300185 -0.118314385 0.09175685 -0.10223915
000010 3a d0 81 3d da db d4 3d f4 94 59 3d 24 b5 e1 bd
       0.06338544 0.10393496 0.05312057 -0.11020878
000020 70 06 02 3d d0 6c b9 3c 60 b0 ff 3c 00 47 b7 bb
       0.03174442 0.022634894 0.031212032 -0.0055931807
000030 12 12 e0 bd 0c ad 69 bd b0 1f bb bc 48 76 a1 3c
       -0.10940947 -0.057049796 -0.022842258 0.019709721
000040 5e 41 f6 3d 1c 64 01 bd 8c 76 26 bd 28 f2 f6 3c
       0.120241866 -0.031589612 -0.0406404 0.030144766
000050 d6 76 df bd 18 79 83 3d 58 69 7f bd 28 c6 b1 bd
       -0.10911338 0.06419581 -0.062356323 -0.086803734
000060 20 31 e4 bd da d1 d2 3d 9a 84 f4 3d d8 54 6a 3d
       -0.11142182 0.10293932 0.11939354 0.05720982
000070 68 e1 fd bc 14 2e d6 3d d8 68 a6 bc d8 c5 49 bd
       -0.030991271 0.104580075 -0.020313665 -0.049260944
000080 5c 19 08 bd 26 c4 e9 3d 32 c6 c8 bd e6 4f f7 bd
       -0.03322731 0.114143655 -0.09803428 -0.12075786
000090 1c 32 5f 3d e8 e3 cb 3d 00 75 d7 bd a8 22 a5 bd
       0.054491147 0.09955579 -0.10520363 -0.08063251
0000a0 40 be 89 bc 80 34 28 3d d4 55 ad 3d 66 3e 80 bd
       -0.016814351 0.041065693 0.08463636 -0.062619016
0000b0 20 4a 78 bd c0 3a d3 3c 20 b5 bc 3d 20 85 af bb
       -0.060617566 0.02578485 0.09214234 -0.005356446
0000c0 00 1b b1 bc 4c 96 00 bd 70 43 f1 3d 90 a5 b1 bd
       -0.02161932 -0.031393334 0.11780441 -0.08674157
0000d0 fe eb cc bd 0c dd e3 3d 50 38 5b 3c b2 60 84 bd
       -0.100059494 0.11126146 0.013380125 -0.06463756
0000e0 9a 16 f6 bd d8 b7 98 bc 40 a0 f3 3b 50 44 38 bc
       -0.1201603 -0.018642351 0.007434875 -0.011246756
0000f0 90 f4 73 3c 46 f2 a9 3d a2 09 ff 3d e0 74 b6 3c
       0.014889851 0.08298163 0.12453009 0.022272527
000100 d6 06 38 bb 88 c4 04 bd d9 96 f6 bd 5d 4f 28 bd
       -0.0028080246 -0.03241399 -0.12040491 -0.04109131
000110 1c c5 b1 3d 00 9e 02 3e 86 ad c2 bd f7 aa 4e 3c
       0.08680174 0.12755585 -0.09505753 0.012614003
000120 09 97 a6 bc 82 de 7e 3c 5e 77 1f 3e 89 a6 05 3d
       -0.020335691 0.01555598 0.15572879 0.032629523
000130 f8 56 9a 3d 5c 6e 72 be ea 51 ba bd b1 b8 1e 3e
       0.07536119 -0.23674911 -0.09097655 0.15500142
000140 55 05 80 3c da 2e 82 3e dc d8 2d be b1 fe fc 3c
       0.015627543 0.2542637 -0.16977257 0.030883165
000150 1f b9 81 3e f5 1c 39 3e 33 d7 8e 3d a1 62 9c 3e
       0.2533655 0.18077452 0.0697464 0.30543998
000160 60 51 11 3e 9f 87 a5 bc fd 6a 9a 3d ed 00 9b 3b
       0.14191198 -0.02020627 0.07539938 0.004730335
000170 0a 4a f2 3d ed d3 59 be 60 dd 11 3d a9 f7 77 3c
       0.11830528 -0.2127225 0.03561151 0.01513473
000180 44 12 c8 3d ae 3f 62 3e f2 3f 4e 3e f8 68 fd bd
       0.09769109 0.22094604 0.2014158 -0.12373537
000190 52 c0 c9 bc b0 90 61 3c cc 94 11 bd bc 9e 79 3d
       -0.024627838 0.013767406 -0.035542294 0.060942397
0001a0 97 a6 e4 3d 59 7a 74 3d fc 0f 6d be b1 3e 0e 3e
       0.11164587 0.059686992 -0.23150629 0.13891102
0001b0 80 07 4b 3c bd 8a 5a 3e c4 9b 18 be da a6 d7 3d
       0.012391925 0.21341987 -0.1490317 0.10529871
0001c0 0c a1 e2 3c 26 3a ff 3d 20 03 3e 3c 06 5a 84 3e
       0.027664684 0.12462263 0.011597425 0.25849932
0001d0 cf 5b 31 bb 98 81 c9 bd c8 f5 ba 3c 9c 3a 16 3e
       -0.0027062779 -0.09839171 0.022822276 0.14670795
0001e0 cd b0 80 3e a0 95 9e 3e f0 aa 99 bc 98 9d d5 3c
       0.25134888 0.3097353 -0.018758267 0.026076123
0001f0 6e 6e 2e 3b 60 f0 a4 3d 2f 34 0b bd 02 0e f9 3d
       0.0026616114 0.080536604 -0.033985313 0.12160875
000200 48 a1 8c bd 50 a5 8e bc e4 ad e7 3d dc ec 8d bd
       -0.068666995 -0.017412812 0.11312464 -0.06929943
000210 d6 ae dd bd 44 6e e8 bd 68 49 eb 3d 72 7a 76 bd
       -0.10824363 -0.113491565 0.114886105 -0.060175367
000220 7a 51 bc 3d 57 34 f4 bc 70 ff a8 3c f0 85 6f bc
       0.09195228 -0.029810114 0.020629615 -0.0146193355
000230 1a 85 e7 bd 3e 99 d7 bd 1e d7 bd bd dc 18 3c 3d
       -0.11304684 -0.105272755 -0.09269546 0.045922145
000240 4d 8e da bd 68 ba c8 3d 92 61 ae bd 6c 53 40 3d
       -0.10671673 0.09801179 -0.08514704 0.046954557
000250 79 53 bf bb 1d 70 bf 3d 5f 3b a8 bd 86 4a 6e 3d
       -0.005838808 0.09347556 -0.08214449 0.05817654
000260 ae 6c e7 3c 0a 22 84 bd 0e af 8e 3c 0e 55 82 3d
       0.028250065 -0.06451805 0.017417457 0.06363879
000270 08 3c b3 3c 22 58 b7 bd d2 dd e1 3d 20 40 8b bb
       0.021879211 -0.08952357 0.11028637 -0.0042495877
000280 60 c7 46 bd 55 0e df 3d 84 de 35 3d 75 a2 51 bd
       -0.048529983 0.108914055 0.04440166 -0.05118032
000290 81 4d c8 bd 70 73 e8 3d a4 5c 81 3d 1c a9 65 bd
       -0.09780408 0.11350143 0.06316498 -0.05606948
0002a0 70 12 01 3d 66 e0 9e 3d 90 08 9c 3c c5 1a 6f 3c
       0.031511724 0.07757644 0.019047052 0.014593785
0002b0 e4 60 c8 bd 69 92 00 be e0 ca db bb 84 f7 b6 bd
       -0.097841054 -0.12555851 -0.006707534 -0.089339286
0002c0 8e fa f0 bd 40 11 52 bb 64 ed 73 bd 66 83 8c 3d
       -0.117665395 -0.0032053739 -0.059552565 0.06861
0002d0 0a c6 d1 bd c0 dc 6f bd 92 9b b7 bd 1e cd 88 ba
       -0.10242851 -0.058560133 -0.089652196 -0.0010437106
0002e0 61 72 73 3d a4 7c 92 3d c4 ea 26 3d f4 ab f4 bd
       0.059435252 0.071526796 0.040751234 -0.1194686
0002f0 28 d0 8c bd fc 17 3f bd 60 74 cf 3b 10 79 0e bd
       -0.0687564 -0.046653733 0.0063310117 -0.034783423
000300 5c 9d bc 3d e2 7d c2 3d 68 c2 31 bd 04 1b 68 bd
       0.092097014 0.094966665 -0.04339829 -0.05666639
000310 ca 3e b0 3d 64 fa 9b bd c0 39 f2 bb 3c 40 d4 bd
       0.08605726 -0.076161176 -0.0073921382 -0.10363814
000320 6a c3 d9 3d e8 6b 33 3d fe 5f af bd 00 43 d0 3a
       0.106329754 0.04380408 -0.08563231 0.0015889108
000330 96 b0 c4 3d c0 83 e2 3c 34 2b c3 3d e0 bf 9d bd
       0.096039936 0.027650714 0.09529725 -0.07702613
000340 50 eb cc 3c 52 4c 84 bd bc 8a 13 bd 94 37 5a 3d
       0.02501455 -0.064598694 -0.03602098 0.05327566
000350 60 2a b0 bd 08 ea b5 bc fa 9f 85 3d 48 65 9d bd
       -0.086018324 -0.022206321 0.06524654 -0.076853335
000360 88 a8 3b bd a8 f4 b7 3d b4 17 e1 3d 40 ac d0 bd
       -0.04581502 0.08982211 0.10990849 -0.10189104
000370 3a 48 c3 3d 24 23 92 bd 00 07 a0 3b 12 ad 8e bd
       0.095352605 -0.07135609 0.004883647 -0.06966604
000380 2e d9 e0 bd 00 85 6b bd 00 9b 42 3a 80 e5 41 bb
       -0.10978924 -0.057499886 0.00074236095 -0.0029586256
000390 40 c2 d2 3b 60 d5 e4 3b 36 a9 f5 3d 60 e3 f8 3c
       0.006431848 0.006983444 0.11995165 0.030381858
0003a0 52 45 f6 bd fe cf b0 3d e8 ba 7f bd b6 c7 db 3d
       -0.120249406 0.08633421 -0.062434107 0.10731451
0003b0 1a 22 bc bd 46 11 e5 bd 82 89 bb 3d e4 4a 13 3d
       -0.09186192 -0.11184935 0.09157087 0.035960093
0003c0 aa 63 f5 bd a0 4f 97 3b f0 78 96 3d 00 a3 de 3c
       -0.119819 0.0046176463 0.07347286 0.027177334
0003d0 0e 9d 99 3d 30 76 5f 3c 48 09 bf 3d 54 37 a2 bd
       0.07500659 0.013639018 0.09327942 -0.07920709
0003e0 5e ee ef 3d a0 81 da bd c0 e9 29 3c ac 88 6d 3d
       0.11715387 -0.10669255 0.010370672 0.05799167
0003f0 e4 f4 f5 3d 88 2b d4 bc 58 b2 95 bc c4 eb 5a bd
       0.120096 -0.025899664 -0.018273517 -0.0534475

bias f4 [64]
000000 74 c1 28 3d 1c 83 c0 bc 11 23 45 bd 8e ae 87 3d
       0.041200116 -0.023500018 -0.048129145 0.066250905
000010 a4 57 94 bd 2c 88 de bd 86 ad f9 3c 8f c9 80 3d
       -0.072432786 -0.108658165 0.03047825 0.06288444
000020 01 7c ab bd 2f ab cf bd 9d 3a bd bc c7 58 80 3c
       -0.08373261 -0.101400726 -0.023099238 0.015667332
000030 a8 7e 19 3d 6f 24 c9 bd e8 b7 65 bd 8b 5e 29 be
       0.037474304 -0.09821402 -0.05608359 -0.16539972
000040 cb 28 9d 3d 31 97 41 bd 83 1e 7c 3d 6b 12 05 bc
       0.07673796 -0.047263328 0.061552536 -0.008122067
000050 40 7d df bc 5c 88 ee bd 56 26 89 bd 0f ce c5 bd
       -0.027281404 -0.11647102 -0.06696765 -0.09658443
000060 d3 8e c5 bd 06 a0 bd bd e5 d0 b2 3c 45 39 05 bc
       -0.09646382 -0.09259038 0.021828124 -0.00813133
000070 dd a1 8e 3c 7e 79 55 bc 7b f0 2b 3c 6c 3f 42 3d
       0.017411167 -0.013029454 0.010494347 0.047423765
000080 ae 6c f1 3d b4 26 0e bd e8 13 37 3e 6b fb 47 3c
       0.11788307 -0.03470488 0.17878687 0.012205939
000090 3a 1c 6c 3d d5 97 a6 bd 26 2f 15 bd d7 f9 8f 3c
       0.057644106 -0.081344284 -0.036421917 0.017575188
0000a0 6e f9 93 3d d9 cc 21 bd 76 9d fb bd e4 ad 4d 3d
       0.07225309 -0.039502 -0.12285893 0.050214663
0000b0 c1 cf 28 bd f6 ac 1b be 77 70 9f 3d 21 35 0a 3d
       -0.041213755 -0.15202698 0.07785123 0.033742074
0000c0 8b 39 cf 3c 0f 7f 09 3e a3 fe 07 be 90 03 9b bc
       0.025295993 0.13427375 -0.1328073 -0.018922597
0000d0 46 c8 e6 3d 28 88 d0 3c 2a a2 aa bd d5 5e 17 3e
       0.11268668 0.02545555 -0.083317116 0.1478227
0000e0 86 57 1b 3c b2 d5 e7 3a 02 64 10 3c 44 f3 3b bc
       0.009481316 0.0017687588 0.008812906 -0.011471573
0000f0 a8 74 92 3d 66 3e f5 bd 93 ea 79 bd 59 f6 86 3d
       0.07151157 -0.11974792 -0.061014723 0.06589956

weight f4 [3, 64]
000000 a0 49 a2 bc ea 2f ac be 94 2a 86 3d a8 65 0f bd
       -0.019810498 -0.33630306 0.0655109 -0.035009056
000010 6e f8 95 bd 73 34 23 3e 4a a2 ad 3d b6 e9 9f be
       -0.07322775 0.15937977 0.0847822 -0.31232995
000020 91 c0 be bd 08 43 24 bd 50 73 4e 3e 4b 6c 01 bc
       -0.09314073 -0.04010299 0.20161176 -0.007899354
000030 db a9 16 3e 7a 63 96 bd 57 7e d0 bd fb be 94 bd
       0.14713232 -0.073431924 -0.101803474 -0.07262989
000040 e8 99 a8 bd 8a 20 ae bd 3d 2c a0 be ff 44 9b bc
       -0.0823248 -0.085023 -0.3128375 -0.018953798
000050 8f 24 5e bd 38 3a a0 bd a4 aa 84 3d 58 fa 30 3e
       -0.054234084 -0.07823604 0.064778596 0.17282999
000060 d3 c3 c0 bc 78 a0 52 bd 4d 69 bb 3d 53 2f 19 3d
       -0.023530876 -0.051422566 0.09150944 0.037398648
000070 b3 4d fd bc 4f ce 9c 3d 21 f6 d4 3d 72 f7 a0 3d
       -0.030920839 0.07656538 0.10398508 0.078596964
000080 e7 2e 80 3b 3f e0 48 be ab c1 bd 3e 72 a3 dc 3d
       0.003911841 -0.19616793 0.3706182 0.10773362
000090 a4 07 f1 bc 81 7c 99 be 16 36 6a bd 01 3a 47 3e
       -0.029422589 -0.299778 -0.057180487 0.1945572
0000a0 d5 c6 0c bd 05 4e 77 3e 20 5a aa bb 1b dd 13 3e
       -0.03436931 0.24150856 -0.005198732 0.14439814
0000b0 40 ee 73 be 2f 59 bb bd ec 6f 84 be e5 95 eb 3c
       -0.23821354 -0.0914787 -0.2586664 0.028757999
0000c0 67 9e 9f be b9 23 ac 3d 30 b2 79 bd 50 2b 59 bd
       -0.3117554 0.08405251 -0.06096095 -0.05301982
0000d0 27 57 39 be 14 11 89 bd a9 69 39 3e 12 b9 ed 3d
       -0.18099652 -0.066927105 0.18106712 0.11607565
0000e0 4c 62 43 3d 23 04 a9 3d 1b 50 c5 bd 75 60 fa bd
       0.047701165 0.08252742 -0.096344195 -0.12225429
0000f0 b3 fc 9c be 38 f9 04 be 7a 5f ca bd af e4 31 be
       -0.30661544 -0.12985694 -0.09881492 -0.17372392
000100 72 fc a2 3d a2 52 84 bd 09 c7 fe bd 18 57 58 bd
       0.07958306 -0.064610735 -0.12440307 -0.052817434
000110 6c 09 84 3d 3c 45 b9 3c 0c 49 bb bd 6e 1c 2f bc
       0.064471096 0.022616021 -0.09144792 -0.0106879305
000120 72 52 32 3d 55 7a f7 3c 9f 57 99 bd 44 0f 22 bc
       0.043535657 0.0302097 -0.074874155 -0.009891335
000130 89 a6 a0 3d 58 08 6d 3d 90 cd bd bd ca 4c e7 bb
       0.07844264 0.057869285 -0.092677236 -0.0070587145
000140 c4 c0 f7 bd 11 d7 5a bd 01 51 47 3e f6 a9 88 3d
       -0.12097314 -0.05342776 0.19464494 0.066730425
000150 54 72 03 bd 28 2a 5a 3e 20 6c 40 bc c1 79 07 be
       -0.032091454 0.21305144 -0.011744529 -0.13230039
000160 af bd a0 bb ce 1d a1 3d d0 c0 1c bd 97 05 41 3d
       -0.0049054245 0.07867013 -0.038269818 0.04712447
000170 51 bb 1c be d7 b3 ff bd ae c3 34 3d 5d 62 b0 bd
       -0.1530583 -0.124854736 0.044131927 -0.08612511
000180 1f 40 09 be 96 5a 31 bd 82 c6 63 3e 6a 26 a9 3d
       -0.13403367 -0.04329928 0.22243693 0.0825928
000190 15 7b f6 bd 09 87 0a 3d 03 8e dc 3d bf bd b6 bc
       -0.12035195 0.033820186 0.10769274 -0.022307275
0001a0 22 70 2e 3d 93 a5 93 bd c0 fb 3b bb 6d 38 cf bc
       0.042587407 -0.07209315 -0.002868399 -0.02529546
0001b0 d7 90 68 3e 06 8f 75 bb ac 97 fd 3d 10 3a 37 3e
       0.22711502 -0.0037469282 0.12382445 0.17893243
0001c0 a2 38 06 3e ed 36 8e 3e fa 48 f8 bd 98 53 90 3d
       0.13107541 0.2777628 -0.12123294 0.07047194
0001d0 b2 8c b6 3c e0 53 60 3c fe 31 26 3e 4f 16 e4 bd
       0.022283886 0.013691872 0.16230008 -0.111370675
0001e0 47 2c 65 3c ec 61 0b 3d 37 1a de bd 81 d2 e0 bd
       0.013987607 0.034028932 -0.10844844 -0.109776504
0001f0 19 8f b2 3c f5 2a 64 3d 01 d7 34 bd 92 7e 89 be
       0.02179675 0.05570503 -0.044150356 -0.26854378
000200 c8 7d 89 bc a6 ef 79 3e a0 b9 7a bd 90 02 9d bd
       -0.01678361 0.24407825 -0.061212182 -0.076665044
000210 c0 d5 f5 3c c1 28 90 bd 82 b8 33 3d b9 f0 3f 3e
       0.03000915 -0.07039023 0.043877132 0.18744172
000220 34 ae d4 bd 75 a2 18 3e 26 17 3d 3c a0 7b ba bc
       -0.10384789 0.14905722 0.011541164 -0.022764027
000230 04 68 a4 bb 6e f8 a4 3d 24 55 20 bd 37 59 37 bd
       -0.0050172824 0.08055197 -0.039143696 -0.044762816
000240 75 8e 21 bd 8f 30 5b 3d 47 45 ec 3d 9e 79 5d 3c
       -0.0394425 0.053513106 0.11536651 0.013517765
000250 03 cd 1e be 20 21 f1 bd 4c db b4 3d 86 e1 ae bd
       -0.15507893 -0.11773896 0.0883089 -0.08539109
000260 8c bc 14 3b dc 7e 3e 3d 31 47 81 3d b9 fb 7d 3d
       0.002269539 0.0465077 0.06312407 0.06200764
000270 d9 be dd 3c 3b c0 e7 3c c3 7c 55 3d 76 88 da 3d
       0.027068542 0.028289905 0.052120935 0.10670559
000280 a9 6d d6 3d 3b ab 2c 3e ff fe 89 be 82 eb f0 3c
       0.10470135 0.16862194 -0.2695236 0.029409174
000290 b2 01 10 3e 75 b0 85 3e d9 44 ac 3a 87 2b c8 bd
       0.14063147 0.2611119 0.0013143077 -0.09773927
0002a0 2a 37 35 3e b9 58 b4 bd 40 52 25 bd 5a 3b fa bc
       0.17696825 -0.08805985 -0.040361643 -0.03054588
0002b0 40 f3 ab 3e 3a ba ce bd f1 70 19 be ea 62 04 be
       0.33584023 -0.10094114 -0.1498449 -0.12928358
0002c0 f9 77 15 bc d8 4d 89 3d d6 95 2a bc 40 f2 08 bc
       -0.009122842 0.06704301 -0.0104117 -0.008358538
0002d0 37 99 07 bd 34 82 09 bd 30 65 1f be 77 69 01 be
       -0.0331051 -0.033571437 -0.15565944 -0.12637888
0002e0 91 9b 63 bd 90 42 9b bc 20 31 08 3e 94 b7 43 3e
       -0.05556828 -0.018952638 0.1329999 0.19112998
0002f0 19 fd 7a bd a5 f1 b2 bd 66 0b ee bb 00 47 bc 3d
       -0.06127653 -0.08737496 -0.0072645424 0.0919323

bias f4 [3]
000000 a4 26 1c 3d 4f 0e 85 3d 89 cd 16 bd
       0.038122788 0.0649687 -0.036817107

weight f4 [64, 19]
000000 8f be 96 3f fc 91 31 3f 23 04 b6 3d e4 36 2b c0
       1.1776904 0.6936338 0.08887508 -2.6752253
000010 2d 12 2a bf b8 f7 61 3f 09 b9 2e be 84 dd 5b 3d
       -0.66433984 0.88268614 -0.17062773 0.05367805
000020 a5 3a 90 3d 00 d1 58 be b1 8b e6 bd 93 43 b6 3d
       0.070424356 -0.21173477 -0.11257113 0.088996075
000030 49 65 62 3e 74 5f 12 3e c2 ca ad 3d 1f b4 13 3e
       0.2210895 0.14294225 0.084859386 0.1442418
000040 f0 92 b6 bd 1f 6e 55 3d 89 48 9f 3d 3e 13 76 3f
       -0.08914745 0.052106973 0.07777507 0.9612311
000050 aa 48 e6 be 74 45 29 3e 8b 16 05 40 80 b6 90 3f
       -0.44977313 0.165304 2.079501 1.1305695
000060 4c d6 2b 3f 1b df 85 3e a6 b8 1f 3e da 17 a2 be
       0.67123866 0.26146778 0.15597782 -0.31658822
000070 d0 c9 49 3d 69 b6 e8 bd 78 9f 16 be 42 9a a2 bd
       0.04926473 -0.11362917 -0.1470927 -0.079395786
000080 da a3 32 3e a5 b0 b6 bd 66 db c8 ba 8a 0f 20 bb
       0.17445317 -0.08920411 -0.0015324175 -0.0024423325
000090 82 e6 d0 3d b6 9e 27 be 52 b5 88 bf b3 88 11 c0
       0.10200216 -0.16369137 -1.0680335 -2.2739685
0000a0 f0 8f 47 3f 9b ab a8 3e ba f1 2d 40 fb b1 98 bf
       0.77954006 0.32943425 2.7178788 -1.1929315
0000b0 2e 65 48 be 04 3c 70 be 52 bd 90 3d 9a 1e 62 be
       -0.19569847 -0.23460394 0.0706736 -0.22081986
0000c0 e0 81 16 3e 0f ee e6 3d cd a2 15 be 2e d1 2c be
       0.14697981 0.11275875 -0.14612885 -0.1687667
0000d0 2e 86 1c 3e 9a 4e f1 3d fe 0e 87 3d a8 5a e3 3d
       0.1528556 0.1178257 0.065946564 0.11101276
0000e0 a8 5d bf bc 85 10 d8 bf 95 aa 85 3e 33 0d db 3e
       -0.023360088 -1.6880041 0.26106706 0.42783508
0000f0 eb 46 2a 40 9b 22 68 be c0 fb a0 bf 8b b4 b0 3d
       2.6605785 -0.22669451 -1.2576828 0.08628186
000100 8f bb 02 3e ee 90 c4 3c 0e 58 c3 bd 6f 88 db bc
       0.1276686 0.02399489 -0.095382795 -0.026798455
000110 6f 18 bb bd 89 aa f6 3d b8 4d 70 bd 4b 1c 0e 3d
       -0.0913552 0.12044246 -0.05866787 0.03469495
000120 24 9a 44 3c 0e f9 e4 3d e2 30 4a 3d 7f 34 d8 3d
       0.011999641 0.11180316 0.049363025 0.10556888
000130 da f5 0c bf eb 0a 92 bf 93 bb 11 3f 29 a8 8f 3f
       -0.5506264 -1.1409582 0.5692684 1.1223193
000140 c3 17 e1 3f 37 c3 00 bf 61 fa 4b 3d 4a ed 00 3e
       1.7585377 -0.50297874 0.049799327 0.12590519
000150 2d d6 ce bc 5f b9 25 bd 6b 35 89 bd 00 ab 2c 3e
       -0.025248611 -0.040459987 -0.06699642 0.16862106
000160 5a 1e bf bc db f8 64 bd 6f c4 03 be 84 24 e6 3d
       -0.023329902 -0.05590139 -0.12867902 0.112374336
000170 1a 48 f9 3d 55 12 57 3e 80 0f 9e bd e5 cd 36 3e
       0.121719554 0.21003087 -0.077178 0.1785198
000180 17 db 68 3e 60 e7 d1 3b b1 b4 17 3e 85 b4 04 3e
       0.22739826 0.006405756 0.14815022 0.12959488
000190 80 3d 5a 3c 40 e1 45 bb fa c5 ac bd e2 50 dd bd
       0.013320327 -0.0030194074 -0.084361985 -0.10806443
0001a0 4f f7 21 be cc d7 18 3d b2 d1 b3 3d a8 35 4e be
       -0.15816997 0.037315175 0.087802306 -0.20137656
0001b0 be 37 e6 3d ec fc 73 bd 58 27 14 be 8a 26 b8 bd
       0.11241101 -0.059567377 -0.14468133 -0.08991726
0001c0 8c e9 39 3d 60 19 fd bb a0 5e cf 3f d3 19 fa 3f
       0.045388743 -0.007723972 1.6200752 1.9539131
0001d0 51 5d 79 bf 20 3d 51 c0 cb 71 0b c0 bc 44 c3 3f
       -0.97408015 -3.2693558 -2.1788204 1.5255351
0001e0 80 d8 dd bd 19 48 09 3c 02 6c 81 bd ef ad d1 bd
       -0.1083231 0.008379006 -0.06319429 -0.10238253
0001f0 08 88 d9 3d bc 35 c3 bd 33 53 3a 3e 5e a7 d3 3d
       0.10621649 -0.095317334 0.181958 0.10334657
000200 26 48 0d be fa 07 1e bd 5a cb 5b bd a4 0b 97 bd
       -0.13797054 -0.038581826 -0.053660728 -0.07375267
000210 4a 54 4b be 3d cc 24 bf 68 db 33 bf 64 64 e8 3e
       -0.19856372 -0.6437414 -0.7025666 0.45389092
000220 59 b8 99 bf 85 cd 34 3f 90 db e0 be a0 51 99 be
       -1.2009383 0.706261 -0.43917513 -0.29945087
000230 1d 26 1b be d2 f9 74 3d 80 8b c1 bd 26 4e 3e be
       -0.15151258 0.05980856 -0.09450436 -0.18584499
000240 64 6e 64 3e f9 fe be bd 5a 99 fb bc 37 96 10 3e
       0.22307736 -0.09325976 -0.030712772 0.14119802
000250 be 6e a2 bd 6a c4 85 bd 85 bb b9 3d e0 a7 20 3e
       -0.07931279 -0.06531604 0.0906897 0.15689039
000260 c0 61 46 bb 3b 6c 25 3e ef 2e 2c be 28 d3 3f be
       -0.0030270666 0.16154568 -0.16814779 -0.18732893
000270 73 74 11 3e e3 38 66 3e 60 a5 b5 bc ea 85 c4 3d
       0.14204578 0.22482638 -0.022173584 0.095958546
000280 f8 67 e7 3c 1a 52 c3 3d 6e 58 15 be 77 bc 07 3e
       0.028247818 0.09537144 -0.14584514 0.13255487
000290 28 c9 38 bd 8c b5 31 3d 47 cc 1e 3e 16 27 53 be
       -0.045113713 0.043386027 0.15507613 -0.20620379
0002a0 a4 a4 fc bd 1c 0b 39 bd 64 cf 34 be 45 63 e4 be
       -0.1233609 -0.04517661 -0.17657238 -0.44606987
0002b0 cd 25 f4 bf ae 60 68 be 07 97 62 3f ec 92 2e 40
       -1.9074036 -0.2269313 0.885117 2.7277174
0002c0 04 13 51 bf 2e 62 4b be 07 c1 88 bd 48 88 f1 3d
       -0.8166964 -0.19861671 -0.06677442 0.11793572
0002d0 b8 ba 6c be 6a ad 56 3e b6 2b 32 be c0 38 1c 3e
       -0.23118103 0.2096459 -0.17399487 0.15256023
0002e0 a4 e0 ba bc fb 3b 6c be a0 7d 11 be a4 70 4b 3d
       -0.022812195 -0.23069756 -0.14208078 0.04966797
0002f0 7c ee dc 3d bb ce ba bd e5 bc 5e 3f 47 c5 6a 3f
       0.10787675 -0.09121462 0.8700698 0.9170727
000300 d6 72 a3 3d d7 95 4c c0 60 ec bf bf 1f 52 f7 3e
       0.079808876 -3.1966455 -1.4994011 0.4830484
000310 83 20 94 be 78 bd a6 3d 3d 06 f9 3d 2f 20 97 3d
       -0.28931054 0.08141607 0.12159393 0.073791854
000320 11 47 2f 3e 88 a2 60 3e 5b 94 5a 3e 58 47 dd bd
       0.17116953 0.21937001 0.21345656 -0.10804623
000330 ef 5f 6f bd 92 f0 4c 3e 28 d2 af 3c 22 f2 73 bb
       -0.0584411 0.20013645 0.021462515 -0.003722318
000340 25 d4 84 3a 23 18 74 bf 79 67 af 40 c6 fb 17 be
       0.0010134025 -0.9534933 5.481381 -0.14842138
000350 e8 b3 5d c0 ce c5 a7 c0 54 f1 bb be b9 43 5c be
       -3.4641056 -5.242896 -0.36707556 -0.21510209
000360 e7 ca b7 3d 57 09 59 bd 5c d1 23 3e 41 5c 6c 3e
       0.089742474 -0.052987423 0.15997833 0.23082067
000370 34 e0 29 be c2 26 15 3e 68 56 67 3e 77 13 fb 3d
       -0.16589433 0.14565566 0.22591555 0.12259572
000380 16 a2 68 be fb 10 71 3d 1c b9 6e 3d 12 17 03 3d
       -0.22718081 0.058854084 0.058282003 0.032004423
000390 50 19 40 be b6 78 4d be 62 70 f9 3d a2 21 d9 3d
       -0.18759656 -0.20065579 0.121796384 0.10602118
0003a0 dc 95 e3 bd ac 3f 06 3d a7 e3 19 3e 1e 10 cf 3d
       -0.11112568 0.032775566 0.15028249 0.10110496
0003b0 3b 00 08 3e 60 80 20 bc 52 2c ff 3d 50 ca 40 be
       0.13281338 -0.009796232 0.12459625 -0.18827176
0003c0 a8 37 e4 bd 11 63 1b be 40 bd 81 3b e1 f0 0c be
       -0.11143428 -0.1517451 0.003959328 -0.13763763
0003d0 c0 09 c1 bb 90 84 26 3c 81 7c 34 3e 6e a0 27 be
       -0.005891055 0.010163441 0.1762562 -0.16369793
0003e0 53 ea 25 3e 62 33 97 bd bf 75 4d 3e b8 3f d5 bc
       0.16202669 -0.07382847 0.20064448 -0.02603136
0003f0 bf 97 1f 3e b8 34 60 be 78 64 c8 bd 84 d5 68 3d
       0.1558523 -0.2189511 -0.09784788 0.05684425

bias f4 [64]
000000 67 a6 64 be 9e 20 83 3d b6 e2 25 be 86 cf 55 be
       -0.22329102 0.064027056 -0.16199765 -0.20879945
000010 dd 41 a0 be 7f ee 20 3e 9d bc ae bd cb aa fa 3d
       -0.3130025 0.15715979 -0.08532069 0.122396074
000020 48 1a 1f be 1c 87 0d 3e 96 0a 46 be 96 0f c5 3d
       -0.15537369 0.13821071 -0.19339976 0.096221134
000030 d0 d7 2b bc 00 a5 e3 bc 66 12 95 be 50 79 13 bd
       -0.010488465 -0.027788639 -0.291156 -0.036004364
000040 a7 88 c1 3c fb 6b e3 3c c3 cb 64 bd a7 07 70 3d
       0.023624731 0.02776145 -0.055858385 0.058601048
000050 b9 d3 96 bd 3c f0 aa bc 76 d2 da bd 41 14 1b 3e
       -0.07364602 -0.020866506 -0.106846735 0.15144445
000060 13 69 1c be 24 32 29 3e 9b 06 dd 3d 3c 2f b9 3d
       -0.15274458 0.16523033 0.107922755 0.09042212
000070 1b 55 3e be 8b c8 4c 3e 9a a8 81 bd d0 d0 fc 3d
       -0.18587153 0.19998376 -0.06330986 0.12344515
000080 f4 64 63 bd 69 90 2d 3e a6 20 16 be 95 f8 44 3e
       -0.0555162 0.1694962 -0.14660892 0.19235452
000090 a5 23 13 be 92 e9 55 be da 6e cc bd 94 e0 8d be
       -0.14369066 -0.20889881 -0.09982081 -0.27710402
0000a0 b0 39 d4 bd 4a 52 61 be 9f 4f 21 3e d0 b7 e8 bc
       -0.103625655 -0.22004047 0.1575303 -0.028407961
0000b0 fc cf 94 bd 0c 23 71 3d 1f 85 f0 bd 55 ea d3 bc
       -0.07266232 0.058871314 -0.11744141 -0.025868574
0000c0 0f 92 53 be 92 d3 57 3e 3d ba 37 3e aa 3e fb 3b
       -0.20661186 0.21076801 0.17942138 0.0076673822
0000d0 cb 56 fe 3d 16 19 b7 bc 66 a9 a2 3d cc 3c 80 3d
       0.12418898 -0.02235083 0.079424664 0.06261596
0000e0 ec b1 1d be 60 36 26 3e 38 99 7f be d8 2c 55 bc
       -0.15399903 0.1623168 -0.24960792 -0.01301118
0000f0 7d 6a 55 be 3c d6 c6 bd 19 4e fe 3c 59 e4 69 3c
       -0.20841403 -0.09708831 0.0310431 0.014275634

weight f4 [64, 64]
000000 d2 6a d9 bd 1a 9a ad 3d 90 5d 15 be dc 1e a8 3d
       -0.106160775 0.08476658 -0.14586473 0.08209011
000010 7c 95 4b 3d c4 57 8b 3d 84 b2 3a be ad 00 5a bd
       0.049703106 0.06803849 -0.18232161 -0.0532233
000020 e4 86 81 3d 32 c2 29 3d d1 cf 5a 3d a0 c9 3b be
       0.063245565 0.041444965 0.053420845 -0.18338633
000030 e0 7d ad bd e0 71 88 bb e2 a3 be 3d 47 2f f1 3c
       -0.084712744 -0.0041639656 0.09308602 0.029441489
000040 4d 35 f0 bd 2e f3 5d bd c1 ef 46 be 6c 19 8b bd
       -0.11728916 -0.054186992 -0.19427396 -0.06791958
000050 7a 46 95 3b 0e c3 b9 bc fa 9c 4b be f9 b1 d3 3c
       0.0045555206 -0.022676017 -0.198841 0.0258417
000060 10 4d d9 bc f0 57 6c 3c 41 ba 03 bd ca 52 48 bc
       -0.026526004 0.014425263 -0.032160047 -0.01222677
000070 2e 7c 7a 3d 24 c7 e9 ba 80 79 bf 3a 55 c2 16 bd
       0.061153583 -0.0017835838 0.0014608353 -0.036806423
000080 fe 41 81 bd a0 b1 01 bd 10 7f 6f 3d db 11 78 3d
       -0.06311415 -0.031663537 0.058470786 0.060563903
000090 3f c3 a5 3d 61 7e 6d 3d ac 2c e9 bd 3b 27 63 bd
       0.08093881 0.057981852 -0.113854736 -0.055457335
0000a0 c0 13 72 3c d6 44 8c 3d 1c d8 c0 3d f4 d2 2d bd
       0.014775217 0.06849067 0.094162196 -0.04243751
0000b0 8f 76 c0 3d 50 87 4b bd 4a 41 10 be f8 41 10 be
       0.09397613 -0.04968959 -0.14087406 -0.14087665
0000c0 d1 4b 93 bd 39 f2 7b bb ab 34 6a bd 0d a6 5b be
       -0.07192195 -0.0038443937 -0.057179134 -0.21450062
0000d0 e1 22 09 3d af 4c b6 bd 10 7d 53 3c 19 d9 e3 3d
       0.03348053 -0.08901345 0.012908235 0.111253925
0000e0 10 a1 cc bd 74 8a b7 3d 75 9f 8b 3d ef 4b e7 3d
       -0.09991658 0.08961955 0.068175234 0.1129378
0000f0 25 f5 db bb 68 7d fe bd 80 39 a7 3d 1f 5f b2 ba
       -0.006712573 -0.12426263 0.08165264 -0.001360867
000100 49 ee 1b be d5 67 e0 bc ad 6b 16 bd af 49 6c bd
       -0.15227617 -0.027393261 -0.03672378 -0.057687458
000110 60 e1 f5 bd 8c ab b5 3d 9b f1 fd bd 35 e9 3b 3d
       -0.120058775 0.088706106 -0.12399598 0.0458767
000120 40 45 0b bd 50 13 b2 bd c5 54 79 bc ba 41 60 bd
       -0.03400159 -0.0869509 -0.015217965 -0.05475018
000130 06 ae d2 bd c0 d5 1c 3d ac 9d 93 3c ad b9 8a 3d
       -0.102870986 0.038289785 0.01801952 0.06773696
000140 f1 9a 6d bd 66 cf d2 3d be 3a 8f bd b7 34 b9 bd
       -0.05800909 0.10293464 -0.06993626 -0.09043258
000150 34 55 81 3d 96 94 14 3b c0 fb 5a 3d 2e a9 8f bd
       0.06315079 0.0022671572 0.053462744 -0.0701469
000160 18 39 a8 bd 50 a0 f0 bd fd 28 c1 3d d2 8f 38 3d
       -0.08214015 -0.11749327 0.09431646 0.045059033
000170 54 f8 a7 3d 8c 82 e7 3d a4 78 47 bd f2 8c 82 bd
       0.08201662 0.11304197 -0.048699036 -0.063745394
000180 00 9e f3 3c 00 43 06 3c e6 a5 89 3d 60 50 19 3d
       0.029738426 0.008194685 0.06721096 0.037430167
000190 10 94 09 3d 94 69 57 bd aa 65 24 3d 76 a2 73 bd
       0.03358847 -0.05259092 0.040136017 -0.059481107
0001a0 28 66 c6 3d 4d cd 8d 3d a0 31 07 bd b0 df 1a 3d
       0.096874535 0.06923924 -0.03300631 0.03781098
0001b0 07 f1 d3 bd 4a d6 b4 bd 8f 58 0b be 0f 89 52 3d
       -0.10348707 -0.08829935 -0.13608001 0.05140024
0001c0 1c 93 35 bd 99 01 14 be d4 f2 9c 3d d7 46 57 bc
       -0.044329748 -0.14453734 0.07663503 -0.013139448
0001d0 16 73 8b bd 10 0f ef 3d 91 58 bc 3a b6 3e ae bd
       -0.0680906 0.11672795 0.0014369657 -0.08508055
0001e0 78 38 ff bd d8 bc 1c 3d 20 17 07 be 30 5e e8 bc
       -0.124619424 0.038266033 -0.13192415 -0.028365225
0001f0 27 23 b5 3c f6 dd d4 bd 62 2f 64 3b e9 f3 c4 3d
       0.022111489 -0.10393898 0.0034818281 0.09616835
000200 4c 69 b3 3d c2 68 68 bd a6 c8 1a 3e e9 c8 f4 3a
       0.08760318 -0.05674053 0.15115604 0.0018675599
000210 31 20 23 bd 64 ee 6d bd 54 33 0f 3e fc 53 a7 bd
       -0.039825622 -0.058088675 0.13984424 -0.081703156
000220 04 5d 5d bd 53 73 88 3d f4 9f b9 3d 1e b3 9c 3e
       -0.054043785 0.06662621 0.09063712 0.30605406
000230 ca f6 fb bd c6 75 ff 3d 40 01 80 3c b0 ef b1 3d
       -0.12302931 0.124736354 0.015625596 0.08688295
000240 08 40 0a 3e 1f 7d b5 bd 2a a0 3c 3e a6 84 59 3d
       0.13500988 -0.088617556 0.18420473 0.05310502
000250 f7 aa 03 3d 5b e8 fe 3d e9 5e 1b 3e e2 3a fa 3d
       0.032145467 0.12446662 0.15172924 0.12218262
000260 f6 f9 e2 bd 43 c6 45 3d 7f c0 9b 3b 87 bc e7 3c
       -0.110828325 0.04828478 0.004753172 0.028288139
000270 2e b5 77 bd 8b 33 c7 bd 00 16 71 3d cf 52 ca 3d
       -0.06047552 -0.09726628 0.05885887 0.09879076
000280 6c f8 2a 3d 30 13 9c 3c 7e b6 8f 3d 79 4d 9f bc
       0.04174082 0.019052118 0.070172295 -0.019446122
000290 1b 57 34 3d 98 d4 7d bd 22 9e 85 bc 95 cf 0d bd
       0.044028383 -0.061970323 -0.016310755 -0.034621794
0002a0 92 f4 c8 3d 28 18 46 bd 70 38 5f 3c 2e c9 84 bd
       0.09812273 -0.04836288 0.013624296 -0.064836845
0002b0 f9 09 b7 3c c7 f6 4f 3d d3 d2 2b 3c 10 1d a4 3e
       0.022343623 0.050772455 0.010487276 0.32053423
0002c0 b7 8e 2b 3e 9c 1f bb 3c 57 ce 31 3d 8f fd 6b 3e
       0.1675366 0.022842221 0.04340967 0.23045944
0002d0 82 4f 5d bd 7a d8 84 bc e7 3a 38 3d f6 79 25 bc
       -0.054030903 -0.016216505 0.04497805 -0.010099879
0002e0 8a cb c9 3d 94 ba b0 3d 79 02 fe 3d 7d c5 87 3c
       0.09853275 0.08629337 0.12402815 0.016573662
0002f0 15 95 a7 bd ae 88 9c bd e0 2d 22 3d 1e bb 35 bd
       -0.08182732 -0.07643257 0.03959453 -0.044367902
000300 9b 1d 89 3d 29 6f 02 bd 2b 10 fa 3d 1a 4c db bd
       0.066951 -0.03184429 0.12210115 -0.107078746
000310 f1 6e bf 3d 60 77 5c 3d e1 ac 38 3d 3b b6 c2 3d
       0.09347332 0.053824782 0.045086745 0.09507414
000320 0c 5f c8 bd cc 3d e8 3d 7e 02 cc 3d 6c 6e 0a 3e
       -0.09783754 0.11339912 0.09961413 0.13518685
000330 60 f4 8d bb 46 17 f2 bd 28 63 92 bc f2 52 97 bd
       -0.0043321103 -0.11820845 -0.017869547 -0.073888674
000340 bb 84 13 3c 84 30 69 bc cb 88 70 3e 8e 32 84 bd
       0.009003813 -0.014232758 0.23489682 -0.06454955
000350 ed 41 a8 bd f3 20 cd bc da 33 1d 3e 27 fd bc bb
       -0.08215699 -0.025040125 0.15351811 -0.005767483
000360 ea c9 b8 3d 7d 67 ff bd b8 cc 94 3d dd 9a 44 3e
       0.09022887 -0.12470911 0.072656095 0.191997
000370 de dc a3 bd d1 2b b6 bd e0 f7 e8 3c b4 c9 01 bd
       -0.080011114 -0.08895076 0.028438509 -0.0316865
000380 46 05 b3 3d 98 0c 7a 3d 64 53 51 bd d3 33 11 3e
       0.0874124 0.061047167 -0.051104918 0.14179926
000390 9d 96 ae bb 78 b5 ca 3c 18 fc 03 3b b2 28 9f 3d
       -0.005328013 0.024744734 0.0020139273 0.07771434
0003a0 34 93 a9 3d df 5c 62 3d 0a 1f b2 bd ec d4 e9 3d
       0.0828003 0.05526435 -0.086973265 0.11417565
0003b0 45 e2 e5 bd 6d 8c d4 3c d7 a0 32 bc 02 05 3c 3e
       -0.11224798 0.025945866 -0.010902605 0.18361285
0003c0 8b 77 d7 3d e0 a9 1b be b4 b0 c6 3d 72 8d 9e 3e
       0.10520848 -0.15201521 0.09701672 0.3096729
0003d0 22 f0 a1 bd 03 10 66 3d c1 e8 0d bd e3 4e c6 3d
       -0.0790713 0.056167614 -0.0346458 0.09683015
0003e0 10 bb 00 bd 8d 97 96 3d 6a ae 48 3d 06 b0 0c 3d
       -0.031428397 0.07353125 0.04899446 0.034347557
0003f0 5e c0 ef 3d cc 21 6b bd f7 d2 90 bd 29 a3 ce bc
       0.11706613 -0.057405278 -0.07071488 -0.025224285

bias f4 [64]
000000 18 25 55 bd 4c 3c 5f bd dd 95 23 3d 68 ca 95 bc
       -0.05203733 -0.054500863 0.039937843 -0.018284991
000010 e8 ec ef 3d 4c ae 78 bd d0 45 4b 3c 27 82 df bd
       0.11715108 -0.060713097 0.012406781 -0.109134965
000020 71 56 21 bc 51 60 51 bd 4e 43 a5 3d 0f 49 08 3d
       -0.009847269 -0.051117245 0.08069478 0.0332728
000030 6b 2b 07 bd 7e 5e f2 3c f4 8d 9c 3d 70 4b 19 3c
       -0.03300039 0.029586073 0.07644263 0.009356365
000040 95 4b a2 3c c1 6d 75 3d 8d 86 09 3d e1 81 b0 bd
       0.019811431 0.059919123 0.033575583 -0.086185224
000050 4d c1 17 bd c1 e6 5e 3d 9d 06 ac 3c 9b 98 86 3c
       -0.03704958 0.054419283 0.020999247 0.01643019
000060 b0 46 d6 3c 1a c5 c8 bd c3 50 02 be f8 c7 39 3d
       0.026156753 -0.09803219 -0.1272612 0.04535672
000070 28 9d 5f bd e2 7a f1 bd 4e 21 82 bd ad 1c 2d bc
       -0.054593235 -0.11791016 -0.063540086 -0.010565919
000080 b8 b4 b6 3d f9 46 00 bd 9f 94 91 bd 62 57 b6 3d
       0.08921188 -0.031317685 -0.07108425 0.08903386
000090 f1 be a9 3d c0 a3 80 3d c6 5c e6 bd 80 be 36 3d
       0.08288372 0.06281233 -0.11248164 0.04461527
0000a0 f3 d9 ef bd cd be 83 bc c3 2a 38 3c 30 3d 96 3a
       -0.117114924 -0.016082192 0.011240664 0.0011462327
0000b0 88 70 ff 3d 8b f7 42 3d 01 29 68 3d 30 ff d7 bb
       0.124726355 0.047599357 0.05667973 -0.0065917
0000c0 4b c3 f7 bd 01 41 3b 3d bb fc 31 3d a8 a4 9e 3c
       -0.12097796 0.04571629 0.043453913 0.019365624
0000d0 90 7c 3f bd 7d e8 ae 3d 84 62 92 3d 00 51 d2 ba
       -0.04674965 0.08540437 0.071476966 -0.0016045868
0000e0 2a eb 8e bc 16 ac 0e 3e 8f f1 32 3d ee 84 13 be
       -0.01744612 0.13932833 0.0436874 -0.14406177
0000f0 5f cf bc bd de 39 ad 3d 3e 35 0d bd 08 79 dc 3d
       -0.092192404 0.08458303 -0.034474604 0.107652724

weight f4 [1, 64]
000000 65 ad ad 3c bd ca 3a bc 0c 2c a0 bd 2f 12 58 bd
       0.021200845 -0.011400876 -0.07820901 -0.052751716
000010 12 82 d8 bd f2 90 3b bc f8 2e 46 3d 7e ae 90 3c
       -0.10571684 -0.011448132 0.048384637 0.01766133
000020 e2 8c e5 bd 77 d3 17 be e9 50 d4 3c 91 78 67 3c
       -0.11208512 -0.14826761 0.025917487 0.014127866
000030 bb 1a c5 3d f3 e2 ec 3d 00 25 32 ba 60 4a a2 3d
       0.09624239 0.11566725 -0.00067956746 0.07924342
000040 49 f6 2e be 7b 52 1f bb 0b 06 90 3d 33 6c 99 ba
       -0.17086138 -0.0024310637 0.070324026 -0.001170522
000050 e2 ad e2 bc 45 bf 83 bc 35 fb bd 3b 08 8b 07 3d
       -0.027670804 -0.016082415 0.0057977685 0.033091575
000060 b5 79 89 3e b0 bf 34 3d 0a 92 a3 3b 4e eb 5e 3c
       0.26850668 0.04412812 0.0049917744 0.013605906
000070 fa 95 8e 3d c0 19 bf 3c 72 c8 ef bd f2 69 c9 bd
       0.069621995 0.023327708 -0.11708154 -0.098346606
000080 4c dc bf bd 53 b0 17 be 75 eb 43 3c 90 ad 08 bc
       -0.0936819 -0.14813356 0.011957993 -0.008342162
000090 33 88 f1 bd a8 c0 d3 3d d0 ae 75 3c 56 bb f1 bd
       -0.11793556 0.10339481 0.014995292 -0.118033096
0000a0 95 a6 a9 3b 99 bb 7e 3d 5c d9 76 bc bb 33 af ba
       0.005177329 0.062190626 -0.015066471 -0.0013366857
0000b0 b8 9a 77 3d cf e5 a7 bb f9 d9 4b be 69 b2 56 3d
       0.060450286 -0.005123831 -0.19907369 0.05241624
0000c0 0e f2 1f be ca 92 36 3e ea b7 13 be 5a 35 06 bb
       -0.1561968 0.17829433 -0.14425626 -0.0020478577
0000d0 f8 bc e2 3d be cc dd bd 2c 29 a9 3d d0 9c f4 3d
       0.11071199 -0.10830067 0.08259806 0.11943972
0000e0 c3 7d 1b bd 8f 00 08 3e 77 ac 7b be be 77 ae bc
       -0.037961733 0.13281463 -0.24577509 -0.021297332
0000f0 a7 44 bd bd 38 45 70 bd ad b7 06 be 2f 43 ff 3c
       -0.0924161 -0.058659762 -0.13156004 0.031159965
