output/2021-12-18_ddpg/2021-12-18_19-55-02-ddpg_s0/pyt_save/model.pt (torch_old, 573011 bytes, 11 tensors)

weight f4 [256, 16]
00000000: 0054 f5ba 5e54 093e 16b3 52be 8066 3cbe
00000010: f432 c5bd ec4b 893d 404f a2bb cefa 4a3e
00000020: 70bf b5bc 4c7b 873d acbb 9abd 7048 49bd
00000030: b891 74be 528b 29be e80e d3bd 00bb 173c
00000040: f70d ca3d eb8c 203e a6d8 2dbe 0e85 e7bd
00000050: 45f8 ba3d 4662 523e 6805 89bd d2f1 6e3e
00000060: 5290 863c cc59 323c ccaa a03e f1be 03be
00000070: e60e 32be 3303 1cbd b3dc 53bd 2528 4b3e
00000080: bb33 24be 98f2 08be 3570 2fbe aca2 64be
00000090: 42d2 16be 859f 643e 80b9 ec3d 7103 003e
000000a0: e31e 633c 92a4 febd 860a 103d 8c0c 85be
000000b0: 18f4 34be df31 00be cc0e 233e e4f5 193e
000000c0: 08a6 d8bd fe25 8abc e432 243e 9eaa 6b3e
000000d0: d20f d73d c832 093d 4743 c53d 1adc 0dbe
000000e0: 1a72 2b3d d70a 87be 624b 3abd b382 28bd
000000f0: 1e6d 113d 3da7 743d 3613 48be c6f4 9fbb
00000100: 6e89 0c3e 203f 01bd 4064 1c3c 0044 6d3d
00000110: 00d1 1e3e 48cf 753e 9647 45be eca1 bbbd
00000120: 9838 c93d d01b 543e e8c5 5e3e 22e2 613e
00000130: 78ca 4b3d f89c 5ebe 9066 bc3c ac27 20be
00000140: 8c94 6ebe 3e74 633e f0a6 423e fe5d 7fbe
00000150: 08aa 3f3d c880 2cbd b882 28bd 1c5f eabd
00000160: 8ce4 c43d 34a1 17be dcb1 bb3d 1676 013e
00000170: 5c43 373e 4871 bf3d 4a5f 7dbe 0011 26be
00000180: 873b f63d 9765 ff3c 0cc5 44be 7d25 19be
00000190: 4795 713e 5937 313e 131b e0bd 5f7c 69bd
000001a0: af05 74be aae5 80bb 5a21 36be 00c3 58be
000001b0: 2851 54bc f7df 243d 4179 d4bd c341 183e
000001c0: 38c9 1bbe 6849 683e d06f 2f3e 64e1 57be
000001d0: 88db 7ebd 80d2 383c 1867 153d d0dd 723d
000001e0: 5cec c83d e059 753c ccd1 f9bd d445 f23d
000001f0: 5691 75be a0bb 17be 3c2b 80bd ec66 f9bd
00000200: 9eea c0bd f350 3fbe ec72 65bd 3839 423d
00000210: f9aa 24be 0dac bbbc e4ba 353e 8a9d 14bd
00000220: a15c e1ba 7156 c1bc 9292 da3c d6d5 e03d
00000230: b437 703e 4b89 1c3e ba7c 6e3e fa0c a3bc
00000240: 73f8 65be d6b9 f2bd ca4f 2e3e c253 d5ba
00000250: dd7c febd 162d 44be 5b9b 6fbe 7b13 58be
00000260: 7fac 4fbd 1f5d 0c3e ce7b 0a3e 85b9 74be
00000270: b249 1e3e 8a52 4abe f8a4 5abd f2b5 d5bd
00000280: 816c 42bd e62d 3cbd fba1 67be fe0a 59be
00000290: 78f1 0cbd 850c 33bb 3928 e8bd b97d d13d
000002a0: b9fd 5bbe 18f2 8bbc 0e49 7b3e a9b0 72bd
000002b0: b32b 673e bcc4 c13d 6130 60be 3ee5 213e
000002c0: 044a 9bbc 5a8f ddbd 89d9 4a3e 15c8 3ebe
000002d0: 91cb e73c 31e0 4fbd f726 3f3e 45bb 6b3d
000002e0: b76e dc3d 9d95 c13d 512d e8bd 228d fcbd
000002f0: f364 4cbe 9958 083e b7e7 473e 5c4a 363e
00000300: c7ec 2cbe d69d 63bb d7fc 36be c369 19be
00000310: 26cf 05be 9e87 9f3d 0265 26be b86f 76bc
00000320: b205 9bbb a6c8 173e 7428 31be 0d1f 68be
00000330: 6bab 21be de22 273e 892d d8bd 8d78 4a3e
00000340: f3a2 ce3d 1877 383d 06ba 89bb 89da 67bd
00000350: 469c 043d 1127 6dbd b396 96bb b6f5 153d
00000360: 4f10 42be e5ad 08be a460 6c3e 754f 11be
00000370: 0ee7 a6bc 5e88 7e3e d6f8 be3d 7d40 9a3b
00000380: e17f 5fbe f211 013e 3f4e 36be 271c 95bd
00000390: a849 acbd ae19 1cbd aaf2 21bd dc31 693e
000003a0: 1336 813d 51c2 363e 9a45 593e d55c cabd
000003b0: ee04 593d a22b 71be fb2f 46bd 8ea5 683c
000003c0: 785c a13d 16c9 443e 71c0 a4bd 1ca5 84bb
000003d0: bdd3 033e 7f50 7abe 553f 0a3e 5f2b 35be
000003e0: ef45 2b3d 7ec0 b8bd c3cb 9bbd fd85 b53d
000003f0: 4bd1 1a3e a887 03be 1edd bfbd e5a5 17be
-0.001871705 0.1341109 -0.20576128 -0.18398476 -0.09628859 0.06703934 -0.004953295 0.19822237
-0.022186011 0.06615314 -0.07555327 -0.049141347 -0.23883712 -0.16557053 -0.103055775 0.009260893
0.09865945 0.15678756 -0.16977176 -0.11304675 0.09129385 0.20545301 -0.06690484 0.23334435
0.01642624 0.010885667 0.31380308 -0.12865807 -0.17388496 -0.03808899 -0.051724147 0.19839533
-0.16035359 -0.13373792 -0.17132647 -0.2232768 -0.14728644 0.22326477 0.11558819 0.12501313
0.013862344 -0.12433733 0.035166286 -0.25986135 -0.1767124 -0.12519024 0.15923613 0.15035206
-0.10578543 -0.01686382 0.16035038 0.23014304 0.10501064 0.033495694 0.09631973 -0.13853493
0.041856863 -0.26375458 -0.045482047 -0.04114027 0.035504453 0.059729803 -0.19538578 -0.004881474
0.137243 -0.03155434 0.009545386 0.057926178 0.15509415 0.24004853 -0.19265589 -0.091617435
0.098252475 0.20713735 0.21755183 0.22058919 0.049753636 -0.21739566 0.022998124 -0.15640134
-0.23298854 0.22212312 0.19008994 -0.24938199 0.046793014 -0.042115003 -0.041140288 -0.11443922
0.09613904 -0.14807588 0.09164783 0.12642702 0.1789679 0.093477786 -0.24743381 -0.16217422
0.12023073 0.031176371 -0.19215792 -0.14955707 0.23592101 0.1730627 -0.10942664 -0.057003375
-0.23830293 -0.003933628 -0.1778616 -0.21168137 -0.012958802 0.040252652 -0.1037469 0.14868836
-0.15213478 0.22684252 0.17132497 -0.21082073 -0.06222108 0.011280656 0.03647527 0.059293568
0.09810707 0.014975041 -0.12198219 0.11829725 -0.23981223 -0.14817667 -0.06258246 -0.12177834
-0.0941975 -0.18683223 -0.0560178 0.04741785 -0.16080846 -0.022909189 0.17747074 -0.036283053
-0.0017193743 -0.023600789 0.026681218 0.10978286 0.23458749 0.15286748 0.23289767 -0.019903649
-0.22458057 -0.11851852 0.17022625 -0.0016275572 -0.124261595 -0.19157824 -0.23399107 -0.21101181
-0.050701614 0.13707398 0.1352379 -0.23898895 0.154578 -0.19758049 -0.053379983 -0.10435094
-0.04746676 -0.04594221 -0.22620384 -0.211956 -0.03440997 -0.0027320695 -0.11335797 0.10229058
-0.21483506 -0.017083213 0.24539587 -0.059250508 0.22575264 0.09461352 -0.21893455 0.15810105
-0.018956192 -0.10818358 0.19809546 -0.18631013 0.02829531 -0.050750915 0.18667208 0.05755164
0.10763305 0.094523646 -0.113367684 -0.123316064 -0.19960384 0.13315047 0.19521986 0.17801803
-0.16887198 -0.0034731529 -0.17869888 -0.14981751 -0.13067302 0.07789539 -0.16249469 -0.015041284
-0.0047309035 0.14822635 -0.17300588 -0.22668095 -0.15788047 0.16321895 -0.1055556 0.19772549
0.10089674 0.04503545 -0.004203084 -0.056604896 0.032375596 -0.057898585 -0.0045956015 0.03661128
-0.18951534 -0.13347585 0.2308374 -0.14190467 -0.020373847 0.24856707 0.093248054 0.0047073946
-0.21826126 0.12604502 -0.17803286 -0.0728076 -0.08412486 -0.038110428 -0.039538063 0.22772926
0.06309142 0.17847563 0.21217957 -0.098809876 0.052983217 -0.23551801 -0.0483856 0.014199628
0.07878965 0.19217333 -0.08044518 -0.004048003 0.1287374 -0.2444477 0.13500722 -0.17692326
0.04181474 -0.0902109 -0.07607224 0.08863447 0.15118901 -0.12844718 -0.09368347 -0.14809377

bias f4 [256]
00000000: 083a 3a3e b2ec 35bd 485a cfbd 9ce1 4e3d
00000010: 5011 ad3c 1cc2 e3bd 56c6 6f3d 34b7 2abe
00000020: 8f55 6c3e 583e 603e 23cc eb3d 92d2 0e3e
00000030: 481e 86be 04b5 10be 3edd 97be 58a7 3cbe
00000040: 323e 54be 3fe1 323e 1abb e13d 28d5 0e3e
00000050: d00d e3bd 15a6 4b3e b85e c6bc 67af 46bd
00000060: 5014 fc3d f6dc d83d edee 80be 84c9 7f3e
00000070: 20b4 cebc 358c 863d 38bf 85be 6ae5 303d
00000080: a865 fdbd c24a 20be e005 abbd 00ef de3c
00000090: f4db 91bd fafd 23be c44a 373e d38b 8c3d
000000a0: b83e 6ebe 50cd 563d 708b 7b3d 3f9c 153c
000000b0: 8bc9 a83d da60 ecbc 9cd1 df3d b12a 57be
000000c0: 6f48 e5bd 6cc5 3f3e 7c36 24be a5bb 093e
000000d0: 1dfb 643e bc44 45be 331d e7bd 7271 513e
000000e0: b791 48bc 9f49 473d e486 c13b a8fe d23d
000000f0: b1f8 d8bd 3693 163d 07ce 2d3e 9fd6 b0bd
00000100: 962a 8bbe 3db2 a43d efee 4cbd 8c8f 53bd
00000110: 6779 0c3e bae1 11bd dca6 c5bd d845 ecbd
00000120: 3fcc 17bd a8fe 7cbd 4f2d 8fbd 72fa 2ebe
00000130: e060 403e 66c4 043e 1015 4a3d a2a2 8f3d
00000140: 70c1 ef3c 2be9 333e 3e5e ca3c 85ee 523d
00000150: 8ce0 03be ee46 633d 19ad 6fbe b10b 983d
00000160: e8e5 5dbe b6a2 76be fc26 073e dac1 9cbd
00000170: 695c 443e fa71 0dbe 87cb 5d3e f8cd 9d3d
00000180: e337 33be 85b0 f43d 9b67 6ebe 742c 22be
00000190: f767 38be 68c8 a13d e50c a639 ef02 77be
000001a0: aa07 773e 63c8 b4bb ac5c 09be e771 563c
000001b0: 49d6 d3bd 326c 773d c8db 903d 7cef 86bd
000001c0: 00ca 6e3c 202b 173e 67f3 17be 9bac 81bd
000001d0: 85ee 7cbc 4717 49be c911 f03c b903 f53c
000001e0: e959 59be c31a 343d ea57 743e 96d0 dd3d
000001f0: 29a8 13be 28d5 7a3e b801 1dbe 7610 febd
00000200: ac86 cf3d 9aa8 4b3e 1ce1 2f3e f927 6a3e
00000210: cdb3 04be 8851 6a3d 8fc4 26be bb04 093c
00000220: ef8a 493e c41a fc3d 43a2 9dbe 1005 e8bd
00000230: c88d 3ebe 0fba c93d b013 bdbd be78 75be
00000240: e8d4 d4bd 6b25 003e ed86 d0bb b174 5d3e
00000250: f342 423b 57f2 d23c 4019 9bbd 276a 5b3c
00000260: b5d8 2139 32e6 5b3e 2e2a 2e3d b004 1abe
00000270: 2dda 4ebe f7e0 8abe e0ef b9bd 185e 043d
00000280: 729f 7c3e 70fb 3abc 2131 bc3d 1b71 463e
00000290: 963b 44be b15d 54be 8fd6 e73d e0a5 ee3d
000002a0: bc67 eebd 9c3e 483c d8e0 8dbe b7ef 53bb
000002b0: a482 113d cff3 d03d 6dc2 f9bc f711 ea3d
000002c0: b8e2 05be d3e3 993d 3887 60be 9e4d 12be
000002d0: c111 3bbe ec86 67be 9e23 043e f8fe 27bd
000002e0: 4a18 49be 3063 543d 053c 3abe 7abd eabc
000002f0: 7152 083e 1888 58bd 15f4 183e 73a5 823d
00000300: c01c 3abe a88a 493d 4e2c 333e 1346 72bd
00000310: d8d3 c03c 66da ab3d 61c8 573c 0418 853d
00000320: 0c1c 75be 4266 423e 644e df3d a0e8 fc3c
00000330: 5f56 24bd b5bf 44be ce2a 78bd 468e 43bc
00000340: 106a 733d 6cbc 11be 8482 373c 38c7 98bd
00000350: c35b 3c3e 90bd 5bbe 5015 d63c d66e 2e3e
00000360: c47e 81be 40cb eabb 6897 ec3d e895 ca3d
00000370: 60d8 f03c 06c7 e43d f074 32be f837 553e
00000380: 40b5 b63b 95b3 d43d 881c f33d 69d3 83bd
00000390: 717d fa3d f79c 7f3e 5749 713e 7b3a 37be
000003a0: d2f7 c0bc 4bb3 22be 5611 0b3e 1401 433e
000003b0: 4a14 3bbe 0ecc 87bc 2f3a 233e 26f7 9b3d
000003c0: d58d 40be b39f 3d3e aaa9 fdbc 0c30 5dbe
000003d0: d8fa 4b3d b7de cc3d 0c6a 163e 6e0f 2ebe
000003e0: dd57 50be 1c87 30be 581c 093e f626 5cbe
000003f0: e7b2 61bc 8b6a a6bd 4550 c93d f837 3e3d
0.181862 -0.044415183 -0.10124642 0.050508127 0.02112642 -0.11121008 0.058538757 -0.16671449
0.23079513 0.21898782 0.11513545 0.13947514 -0.26194978 -0.14131552 -0.29660982 -0.18423212
-0.2072685 0.17468737 0.11022015 0.139485 -0.11086619 0.19887574 -0.024215087 -0.04850712
0.12308562 0.1058902 -0.25182286 0.24979216 -0.025232375 0.06569711 -0.2612245 0.043187536
-0.12372905 -0.15653518 -0.0835073 0.027213573 -0.07122031 -0.16014853 0.17899615 0.06862607
-0.23266113 0.052441895 0.061412275 0.00913149 0.08241566 -0.028854776 0.10928652 -0.21012379
-0.11195456 0.18727654 -0.16036409 0.13450487 0.22361417 -0.19264501 -0.11284866 0.20453432
-0.012241772 0.048654195 0.005905973 0.10302478 -0.10594309 0.036761485 0.16973124 -0.08634686
-0.27180928 0.08041809 -0.050032552 -0.05165057 0.13718186 -0.03561566 -0.096509665 -0.11536759
-0.03706002 -0.061766297 -0.06991064 -0.17087725 0.18786955 0.12965545 0.049336493 0.070134416
0.029267043 0.17569415 0.024703141 0.051497 -0.12878627 0.055487566 -0.23405875 0.07424105
-0.21669734 -0.24085507 0.13198465 -0.07654162 0.19175877 -0.1381301 0.21659671 0.07705301
-0.17501788 0.11947731 -0.2328171 -0.1583727 -0.1800841 0.078995526 0.00031671594 -0.24122213
0.24124017 -0.005517052 -0.13414258 0.01308868 -0.10343606 0.060405917 0.0707317 -0.06588647
0.014574528 0.14762545 -0.14838944 -0.0633175 -0.015437727 -0.19637786 0.029305356 0.029909002
-0.21225704 0.043970834 0.23861662 0.108308 -0.14419617 0.24495375 -0.15332687 -0.124054834
0.101331085 0.19888535 0.17175716 0.22866811 -0.12959214 0.05720666 -0.16285919 0.008362944
0.19681905 0.12309793 -0.30787858 -0.113290906 -0.18608773 0.09849941 -0.09232271 -0.2397184
-0.10392171 0.12514274 -0.0063637407 0.21626545 0.0029641956 0.025750322 -0.075731754 0.013392008
0.00015434886 0.21474531 0.042520694 -0.1504085 -0.20200415 -0.2712476 -0.09078956 0.032316297
0.24670199 -0.011412486 0.09189058 0.19379084 -0.19163355 -0.20738865 0.11320221 0.11652732
-0.116408795 0.0122219585 -0.27710605 -0.0032338926 0.03552498 0.10202753 -0.030488217 0.11429208
-0.13074768 0.07514157 -0.21926582 -0.14287421 -0.18268491 -0.22610062 0.12904212 -0.04101464
-0.19638172 0.051852405 -0.18186958 -0.028654803 0.13312699 -0.052864164 0.1493686 0.06379213
-0.1817503 0.0492045 0.1749737 -0.05914886 0.023538515 0.083912656 0.013170333 0.06498721
-0.2393648 0.18984321 0.10903624 0.030872643 -0.040121432 -0.19213755 -0.060587697 -0.011935776
0.05942732 -0.14232033 0.011200551 -0.07459873 0.1839438 -0.21459031 0.02613321 0.17034468
-0.25292027 -0.0071653426 0.11552316 0.098918736 0.02940005 0.11170773 -0.1742742 0.20822132
0.005575806 0.10385815 0.11870676 -0.06436808 0.12230957 0.24962221 0.23563133 -0.17893402
-0.02355567 -0.15888707 0.13580832 0.1904338 -0.18269458 -0.016576793 0.15940164 0.07615499
-0.18804105 0.18517952 -0.030964691 -0.2160036 0.04979977 0.10003417 0.14688891 -0.16998073
-0.20346017 -0.1723904 0.13389719 -0.21499237 -0.013775564 -0.0812579 0.09829763 0.046440095

weight f4 [256, 256]
00000000: 1446 01bd 6915 a13b 4002 533d fc76 8c3b
00000010: f4b7 fdbc 4022 093b 15b4 81bd a43f 24bd
00000020: b834 3ebc de86 1fbd f332 403d dedf c83b
00000030: f2b0 2d3d 5b9e a5bc 60ad 70bc a420 203c
00000040: e43c 98bc f1af dfbc 2dc6 89bd 56db 403d
00000050: 2e18 4f3d 2f8f 8abd 4866 a9bc 8030 5abd
00000060: 9681 00bd f150 2a3d 4bb5 e03c 90e8 9ebb
00000070: 14ad da3c 617b 4f3c 5cce 0b3d b13d 66bd
00000080: 4c43 9e3c b274 72bd c45c 28bd 84cc bebc
00000090: 1089 c7bb a296 71bd 40e0 cb3a 7595 833b
000000a0: 0832 cbbc a011 a63c e2b2 5f3d 08ea 2ebc
000000b0: ade9 20bd d258 7bbd 92ee 3abd 362d 26bd
000000c0: 1441 3dbd 004b c9bc 6ce1 e83c 2669 5e3c
000000d0: 8628 4e3d b497 653d 9684 e9bc 68ab f9bc
000000e0: 9023 273b 26d9 4bbd a55d e53c 204c 38bc
000000f0: 24ec 6ebd 82dd 59bd c866 30bd 4f1c 373c
00000100: d0b2 2b3d 643b 323d 0c27 bebc 6fc2 2cbd
00000110: 4b34 0abd 7876 47bd 3401 84bc 5434 67bd
00000120: d4d4 083d 2cf2 70bd 31d0 37bd 3acd 2b3d
00000130: 6214 58bd 60cd 743c 04c0 3f3d 79c0 633d
00000140: 8a88 013d ad70 babc 9849 123d 3f0d 04bc
00000150: c4de 9dbc 0070 5539 3b57 033c 30a7 2b3d
00000160: 54eb d63c fc4a c33c 1830 193c 8028 4ebb
00000170: 63d8 a53c 804b 763c aec1 86bd 308e 253c
00000180: 2b44 0abd 474a 20bd 2af3 943c 7865 513c
00000190: f387 963b 64e2 f2bc ba65 bb3c 103d 703d
000001a0: e08b fa3b 254a a13c 8b29 79bd d630 183d
000001b0: d8dc b13c cd83 b53c 2654 a43c d4d8 b7bc
000001c0: e0dc 75bb da9e 773d a3bb 223d b414 50bd
000001d0: d01d 4b3d 263f 663d e8aa 063c 04ba 47bd
000001e0: 9944 c83b d0ce 4ebc 860f 383d 2340 87bd
000001f0: c3b5 233c 5e1b dabb 8dc2 8dba b019 303d
00000200: 11ae 9fbb c619 4ebd f1eb 2dbd c722 febc
00000210: 91bf 2d3a ac94 c53c 9506 90bc 8942 fbbc
00000220: c18f af3c 2ce9 78bd 5f4d 1a3d e561 59bc
00000230: de21 323d ea6f 413d 0f46 313a c5a1 613c
00000240: c753 29bd b1fc 1e3d 4a83 fa3c 08d4 20bc
00000250: e090 c73c 3aac 1bbc a002 483d b195 a13c
00000260: 9d16 223d d8b2 68bd 4fd8 603d 3998 8d3c
00000270: d8ec f83c 65d1 023c 3223 283d 0001 713d
00000280: 2871 39bc 9e0d 52bd cdd7 523d f0f3 57bc
00000290: e8ec f6bc 0697 1d3d fdb6 ec3c 6818 093c
000002a0: c08e 80bb a609 93bc 3d28 523d 9c66 033d
000002b0: 9bbc ff3c e03e 233d e0fa 05bd 68ce 553c
000002c0: 5405 76bd eb48 f83c cabf 7dbd f4d8 7fbd
000002d0: d8cd 8abd ecdd 1d3d 200d 043a 0008 1539
000002e0: 40df 223c 5cc4 c1bc 19a2 ccbc 0dff 44bd
000002f0: 0014 7abc b286 1dbd 0656 8ebb a58f 303d
00000300: 1aa2 53bd 74c9 fb3c 8c69 3ebd 11a8 02bd
00000310: c83c 483c 6032 303c d85a 393d 0020 c4b7
00000320: 3001 c3bc f854 02bd 402c f03a c8f4 3fbd
00000330: 1e4e 61bd e410 dbbc 0d21 90bb 28e3 2cbd
00000340: 2022 12bd 64c8 363d 0e93 6c3d 6060 a0bc
00000350: b739 74bd 6005 c4bc f4a4 ce3c 6af9 693c
00000360: 26e1 cfbc d476 61bd c8f3 99bc 08f6 64bc
00000370: be6b 133d b779 17bd 68a4 193d 380c 0e3c
00000380: e09e 2bbc d0b8 7cbd 3ea2 643d b098 36bc
00000390: 2813 213d b500 1dbd 38f2 88bd e00e 4cbd
000003a0: c7b2 1bbd eb2b d4bc edcb 72bc 6cdb 3d3d
000003b0: c251 82bd 0e5e ce3c c7d0 3e3d f188 b7bb
000003c0: f834 38bd 6ff5 82bb c0ee 723c 0d5b b13c
000003d0: d8a1 9bbc 28b4 afbc ba54 11bd 589b 77bd
000003e0: fea3 823c c8c9 59bd b692 13bd 809a 28ba
000003f0: d3d0 2c3d b609 4b3d 73cb 52bd 8606 5e3d
-0.031560972 0.0049158824 0.051515818 0.004286645 -0.030971505 0.0020924956 -0.06333176 -0.040099755
-0.011609249 -0.03894698 0.04692359 0.0061302027 0.042405076 -0.020217111 -0.014689773 0.009773407
-0.018583722 -0.027305575 -0.06727252 0.047084175 0.05056017 -0.06765591 -0.020678654 -0.05326891
-0.031373583 0.041581098 0.027430197 -0.004849501 0.026693858 0.012663693 0.034132347 -0.056211177
0.019319199 -0.05919332 -0.041104093 -0.02329088 -0.006089337 -0.058981545 0.0015554503 0.0040156194
-0.02480413 0.020272076 0.054613955 -0.010675915 -0.03928535 -0.061364003 -0.045637675 -0.04057046
-0.04620464 -0.024571896 0.028427802 0.013574874 0.050331615 0.05605288 -0.028505605 -0.03047724
0.0025503375 -0.049767636 0.027998755 -0.011248618 -0.05833067 -0.053189762 -0.04306677 0.011176183
0.041918576 0.04351367 -0.023211978 -0.042177614 -0.033741277 -0.048696965 -0.016113855 -0.05644639
0.033406094 -0.058824703 -0.04487628 0.041943766 -0.052753814 0.014941543 0.04681398 0.055603478
0.031624354 -0.022758806 0.035714716 -0.008059799 -0.019271262 0.00020354986 0.008016403 0.04190749
0.02623526 0.023839466 0.009349845 -0.0031457245 0.020244783 0.015032649 -0.0657991 0.010104701
-0.033756416 -0.039133336 0.018182356 0.01278054 0.004593843 -0.029648967 0.022875655 0.058651984
0.007646069 0.019688675 -0.060830634 0.03715595 0.021711752 0.022157574 0.020059656 -0.022442259
-0.0037515685 0.060454227 0.039729726 -0.050800994 0.04958898 0.056212567 0.008219458 -0.048761383
0.006111693 -0.01262255 0.04493668 -0.0660403 0.009992066 -0.0066560945 -0.0010815427 0.042993248
-0.0048730453 -0.05031755 -0.04246134 -0.031022443 0.0006627972 0.024118744 -0.017581264 -0.030671375
0.021430852 -0.060769245 0.037671443 -0.013267969 0.04348933 0.04722587 0.00067624537 0.013771479
-0.041339662 0.038815204 0.030580182 -0.009816177 0.024361074 -0.009501511 0.04883063 0.019724699
0.039572347 -0.056811184 0.054893788 0.0172845 0.030386373 0.007984494 0.04104919 0.058838844
-0.011318482 -0.051282518 0.051475335 -0.013180718 -0.030142263 0.038474105 0.02889585 0.008367635
-0.003923267 -0.017948937 0.051307905 0.032080278 0.031217864 0.039854884 -0.032709956 0.013049699
-0.060063675 0.030308207 -0.061950482 -0.062462762 -0.06777543 0.03854172 0.0005037356 0.00014212728
0.009940922 -0.023653202 -0.024979638 -0.048094798 -0.015263557 -0.038458534 -0.004343751 0.04310574
-0.051668264 0.030735709 -0.046487376 -0.031898562 0.012221523 0.010754198 0.04525265 -2.3379922e-05
-0.023804277 -0.031819314 0.0018323734 -0.0468643 -0.05500614 -0.026741453 -0.004398471 -0.04220882
-0.035677075 0.0446247 0.05775743 -0.019577205 -0.059625354 -0.023928344 0.02522514 0.014280656
-0.025375914 -0.055044964 -0.018793002 -0.013974674 0.035991423 -0.03698131 0.037510306 0.008669905
-0.0104748905 -0.06169969 0.05581879 -0.011144802 0.03932491 -0.038330752 -0.066868246 -0.049818873
-0.038012292 -0.025899848 -0.0148191275 0.046351835 -0.0636325 0.025191333 0.046585824 -0.0056010415
-0.04497239 -0.003996543 0.01482743 0.021649862 -0.018998072 -0.02144821 -0.035481192 -0.06045088
0.015947338 -0.05317095 -0.036028586 -0.00064317137 0.042191338 0.049569808 -0.051463556 0.05420544

bias f4 [256]
00000000: 08ce 063c 0bf2 193c 90c8 e03b 247d 6b3d
00000010: 23ed 663d 3711 a5bc c0ed d9bc 510c 093d
00000020: df0a 00bd 4426 51bd 6bfb 2d3d 8a9c 3dbd
00000030: 8567 d73c f7cc 2f3d 3ce6 e83c 3858 d6bc
00000040: a0f3 003d c33e 923d 1c2a 82bd ba5a 3e3d
00000050: f6f7 64bd 8490 7c3d 5466 debc d302 4fbd
00000060: a938 ab3d 1543 4ebc c1b1 54bd 72ad 05bd
00000070: 7c0a 263d c201 433b 9888 44bd 7c49 14bc
00000080: 6038 313b 5396 aa3b 3110 42bc 5786 8dbc
00000090: a504 923c 9b0e 5dbc e5da fdbc 666c 563d
000000a0: 6409 bf3c e7e9 c2bb 3183 d93c 72f7 84bd
000000b0: 5fb4 7dbd 43d1 c13d fa1c dbbc bb30 6f3c
000000c0: 90a1 7f3d b60d 1abd 73cf 763d 2073 acbc
000000d0: cb3b 36bb 7eb9 783c a7a3 093d 3efa d83c
000000e0: 6bfd 63bd 2b40 f8bb 5e79 9fbb e0ce 8a3b
000000f0: 4dfd a4bc 9ce3 4abc cc34 063d 88ea 09bc
00000100: 5bfd fdbc 7bef e43d 2683 3fbd 00a8 473d
00000110: b8d4 11bc 36bc 9e3c e8ea 3fbd ca5c 173d
00000120: d113 56bd 267a 373d d51f 81bd 7522 8b3d
00000130: 6d28 29bc d6af 52bd 5c69 b83c 1b04 4b3d
00000140: 76b4 fd3c 44e6 623d 30fb 9a3c 3b5d 853d
00000150: 29fd 103d 4625 3a3d 87dc 1e3c 6d56 edbc
00000160: dcbc 6ebc 6731 403d e53b 33bd d071 9dbb
00000170: 39ea 973c 7402 3f3d 3d9b 493b 4ad6 f0bb
00000180: 009f 653c 8b63 fc3c bcd4 31bd 8362 453d
00000190: 7e78 84bb 4e20 01bc 0c8d 653d 38f0 ca3c
000001a0: 18cc 73bd 2761 9fbc 3f23 65bc 606d 61bc
000001b0: 7a84 373d dfa4 7dbd 3347 13bd c407 e1bc
000001c0: c070 6f3d f419 813d 94f0 b7bc 1f38 123c
000001d0: c5f4 2fbd 605c 273c 7665 01bd 31fd ec3c
000001e0: ab15 1bbd 5cd2 473d b81d 1e3d e1c9 80bd
000001f0: ef35 63bd 2edf 1fbd 2f12 bebd 4f68 f13b
00000200: 8aa1 23bd ee7e 85bd a6fb dfbc a748 9ebc
00000210: 542e 903c edc3 9e3b 191e 4b3d 1fcc 2fbd
00000220: 8be9 24bd 3f57 39bb e23b dcbc 20c0 aebb
00000230: fc5f 8d3c 2a1e cabc 88bc 033c 12bd 473d
00000240: 601c 00bc b5e0 47bd 96fc d4bb 6382 113c
00000250: d5eb 523d 24e0 653d 9641 85bd f158 43bc
00000260: c864 203d 096d 84bc f4bf a4bc ea9a 51bd
00000270: 48ad 57bd 2bb3 d53b 8080 633a 8edf b8bb
00000280: 75e1 b63c 86e4 16bd f3fd b7bb 185a 60bc
00000290: d318 4cbd e87f 5a3d 677d b73c 54fd 6e3d
000002a0: 2c28 d93c 88e6 393d ee8a 613d d4f7 1fbd
000002b0: 8d9c e6bc 2906 23bd 9c9a 8c3c 3888 7cbc
000002c0: 87b3 c3bc 6c73 d9bb 307c 95bb 076b e4bc
000002d0: 6a91 973d 76dc 7d3d 0ce0 dcbc e9a0 b43c
000002e0: 6c86 dc3c 1257 673d a7d6 3bbc 6a3b 583d
000002f0: 5032 3d3d 0459 f6bc 2cb4 3d3d 3dce 313d
00000300: 6a60 e43b 39d4 ecbc 7a93 803c 98ca 153c
00000310: 1cb9 0f3d a84a 303c 62d7 2fbc 1b42 2dbd
00000320: 943e 903c 6a8f d9bb 91b1 b53c 057b 783d
00000330: 903d 253d a007 f93b 201e 493b 6fe2 28bc
00000340: 33f3 94bc fc47 d33c 0bff 60bd 5484 ffbc
00000350: a075 aa3c 25a9 7f3d e3ef 59bc a86c 40bc
00000360: 6f42 48bd 61ef 56bd f06e 5abc a71c f23c
00000370: 2aae 543d eb8e 2a3d 939f 7d3d acac b7bc
00000380: a06b 73bc d574 663c b07a 373d 478a 8f3d
00000390: 467d 133d 6ef1 17bd 8c33 8d3c 08a5 b0bc
000003a0: e711 263d 7ab0 0ebd 5f9a c8bb 9c25 433d
000003b0: f0f7 18bd 6575 57bd 5a16 413d b892 033b
000003c0: 8a4e 303d 5e95 9e3d 0a53 673d 5a84 243d
000003d0: 23d1 0abc 47fe db3c 7401 b0bb b5bd 633d
000003e0: 9819 91bc 5295 53bd 8017 40bd 4dbd 13bd
000003f0: 6e11 113d 2261 4bbd cb08 9e3c 2e67 c63c
0.008227833 0.009396086 0.0068598464 0.05749239 0.056378495 -0.02014981 -0.026602626 0.03345901
-0.031260367 -0.051061884 0.0424761 -0.046291865 0.02629448 0.04292008 0.028430097 -0.026165113
0.03148234 0.07140877 -0.06355688 0.046473242 -0.055900536 0.06166126 -0.027148403 -0.050539803
0.083604164 -0.012589236 -0.05192733 -0.032636113 0.040537342 0.0029755686 -0.04798183 -0.009050723
0.0027041659 0.0052059083 -0.011844681 -0.017275972 0.01782448 -0.013492252 -0.030988166 0.05234947
0.023319907 -0.0059482935 0.026551815 -0.06492509 -0.061939593 0.09463742 -0.026747216 0.014599021
0.062409937 -0.037610732 0.060256433 -0.02105099 -0.0027806635 0.0151809435 0.033603337 0.026486512
-0.0556616 -0.007576009 -0.004866763 0.004236087 -0.020140314 -0.012383368 0.032765195 -0.008417733
-0.031004598 0.1117849 -0.046755932 0.0487442 -0.008900814 0.019376855 -0.046854883 0.036953725
-0.052264992 0.044794224 -0.063048996 0.067936815 -0.01032458 -0.05143722 0.022511177 0.049564462
0.03096984 0.05539538 0.018918604 0.06511923 0.035397682 0.045445703 0.0096961325 -0.028971875
-0.014571395 0.046922114 -0.04375829 -0.0048048273 0.018544303 0.0466332 0.0030762695 -0.007349764
0.014014959 0.030809185 -0.04341577 0.04818965 -0.004042684 -0.007881237 0.056042716 0.024772748
-0.05952081 -0.019455506 -0.013985454 -0.013758987 0.044804074 -0.06192481 -0.035956573 -0.027469523
0.058457136 0.06303778 -0.022453584 0.008924513 -0.04295804 0.010214895 -0.0315909 0.028929325
-0.03786246 0.0487846 0.03860256 -0.06288505 -0.055471357 -0.0390312 -0.09280812 0.007367171
-0.039948978 -0.065183505 -0.027341675 -0.019321753 0.017600216 0.0048451335 0.04958925 -0.042919274
-0.040261786 -0.0028280762 -0.026884023 -0.0053329617 0.017257683 -0.024672586 0.008040555 0.048764296
-0.007819265 -0.04879828 -0.006499837 0.008881184 0.05149444 0.05612196 -0.0650665 -0.011923061
0.039158612 -0.016165273 -0.020111062 -0.05117313 -0.05265549 0.0065216026 0.0008678511 -0.005641884
0.022324303 -0.03683903 -0.00561499 -0.013693355 -0.04982836 0.053344637 0.022398664 0.05834706
0.026508413 0.045385867 0.055064134 -0.039054707 -0.028150821 -0.039800797 0.017163567 -0.015413336
-0.023889316 -0.006636074 -0.0045619234 -0.027883066 0.074007824 0.061977826 -0.026962303 0.022049384
0.026919566 0.05647952 -0.011464751 0.052791037 0.04619056 -0.030071743 0.046314403 0.043409575
0.0069695013 -0.02890979 0.015695322 0.00914254 0.035088643 0.010759987 -0.010732504 -0.04229937
0.017607965 -0.0066394107 0.022179397 0.060664196 0.040341914 0.007599786 0.0030688122 -0.010307892
-0.018182373 0.02579116 -0.054930728 -0.031191029 0.020808041 0.06241717 -0.013301822 -0.011744656
-0.04889148 -0.052474383 -0.013332114 0.029554678 0.05192391 0.041640203 0.06191976 -0.022421204
-0.014857203 0.014065941 0.04479474 0.07008796 0.036008142 -0.03709548 0.017236494 -0.021563068
0.040544417 -0.03483627 -0.006121918 0.04764329 -0.037345827 -0.05260219 0.047140457 0.0020076465
0.04304365 0.07743333 0.056475677 0.040165283 -0.008472714 0.026854647 -0.005371267 0.05560084
-0.0177124 -0.051656075 -0.04689741 -0.036069203 0.035417013 -0.04965318 0.019291302 0.024219122

weight f4 [3, 256]
00000000: 3576 5bbd 0014 f038 bcd1 6b3d 726a 023c
00000010: 2af3 223d 0af8 823d 9ab6 2b3d 6219 05bd
00000020: b48f 553c 2bc6 2fbc 120c fabb 0acf 1b3c
00000030: 268c 2fbe fa75 013e 9ce5 3b3d 627b 223d
00000040: 4f8e 51bb 6541 c43c e228 4bbd 80d7 4d3a
00000050: 5f88 2e3d 9ce4 ef3c 183d 53bd 763a 40bd
00000060: 1003 25bc 0a25 033c 7d95 c73b 5f8a 24bd
00000070: 783b 4bbd b988 753c 15d3 00bd ba44 50bd
00000080: a82c 55bd c193 213d bdf5 7d3d 9ef5 233c
00000090: 7a79 49bc 88aa 91bc d87c f83c 2e61 663d
000000a0: 302c 1e3c e62e 343d 046e f13d 2bd7 863d
000000b0: 0dfe 303d e7b7 593c e94d 243c bc9d debc
000000c0: 9229 08bd 4c87 c0bc fc26 0c3d 1e52 1bbd
000000d0: b695 a43d 97c7 b63c 9bef 8e3d 66e4 ef3c
000000e0: 2b19 443c 3d36 81ba 8e37 583d f021 f1bb
000000f0: cb40 71bb 7d01 7bb8 25a9 cc3b 4491 9f3c
00000100: c80a 41bb 63d0 2c3e 7a16 473d 707b 5bbd
00000110: 34f8 47bd 286d 7bbc 1a07 1cbd dc6d f43c
00000120: 6969 e8bc bac7 3a3d f594 86bb f734 b63c
00000130: 41a0 3abd a453 c9bc 75ee ce3c da36 f13c
00000140: 1b49 9d3d b27f cf3c 7aa8 6c3d a8ea 593c
00000150: 393a 9abb 5fd3 61bd 1a53 fb3c ee6c f6bc
00000160: 66ec aeb9 86e2 043c 19dc 873d 80ab 0d3d
00000170: 5cd5 153d 2a16 723d 1eaa 76bc 5c19 9b3c
00000180: 54c8 35bb 517c 0bbd 3228 543d d81e 663d
00000190: e1e1 e03c 56b2 0a3d 1030 663d 7135 fc3c
000001a0: 3e26 19bd 4347 e5bc 3a3b 95bc a8ce ec3c
000001b0: 0429 ecbc 95e0 fb3b 7acf 3abc 91e3 8ebb
000001c0: 37a0 f03d 8b6c 843d 8017 34bd a92e 123c
000001d0: f2e7 033c 6857 05bd e0bb be3c e86e 053c
000001e0: 7b51 3f3c 0588 293d c4b3 a73c 362f 5ebb
000001f0: 4067 6bbd 60ea a2bc c110 febc f63a fb3c
00000200: c008 a23b 71dc 32bd 3cd8 1a3d 48de 053d
00000210: 821a 343d 3f09 e43c 6500 9a3b 433e d0bb
00000220: 6a89 50bd 220e 13bc 1059 5dbb 546f 8f3c
00000230: be28 5e3d ce13 403c 7424 ddbc 520c 1e3d
00000240: f6a5 42bd 7e9f 273d 302c 013d fe10 b1b9
00000250: 42c6 e53c d440 ecbc ba07 34bd 8838 a6bc
00000260: a88f 0dbd 7d8e d13c b3e3 b33c 8019 aebb
00000270: e02e 523b 1d39 c3bc 80fe 463d 9b10 fabc
00000280: 4d8c 613d 1cf0 cdbc 1fcc b73d d638 0fbd
00000290: dc5e ebbc c0d7 203d 1855 ab3c 0070 4cbd
000002a0: 7e16 133d 53d5 3d3b aa57 883d 36e1 7a3d
000002b0: e0b7 e2bc 0561 223d 6870 973c 5588 1cbd
000002c0: fa4d 8d3b 85ad a13c b0ce e5bb 4cb4 adbc
000002d0: ca02 39bd 96ae cbbc 84a2 3abd 1622 603d
000002e0: 3eb9 883d d059 a3bc dc46 07bd 613a 4e3c
000002f0: 8dfe fe3c 4ca1 7d3d dab6 3bbd 68aa 36ba
00000300: ffb4 343d 315b 4f3d 8f8a 92bc 40cf 303b
00000310: 48d6 493c d85b 763d 5cc7 06bd 211c 673d
00000320: d07f 023d c64f 8abc f9f4 b5bb 6eb9 7a3d
00000330: 10f9 00bc 5a1a 68bd 60dd 79bb 5233 853d
00000340: 925d 8f3d 66e1 13bd 9a80 2fbb 44a0 713d
00000350: c8a1 ab3c 56d2 6c3b ae2c d13c 6418 d83c
00000360: 16d1 f03c 4e34 64bd 52a0 58bd 2d7c c5bc
00000370: 38cf 193d 2584 af3d b637 793d a0bc 85bc
00000380: 88cd b73c 529a 6cbd 15a1 a73c 0c05 853d
00000390: c09d 953c f960 483d 808f fc3b 5167 db3c
000003a0: 6e3a 4c3d 7965 583d a7a0 f73c 20c9 1fbd
000003b0: 4cef cabc ef5b a9bc 0e72 32bd c8ce af3c
000003c0: 0f87 4dbd b246 043d f07c 4b3d e23b 86bc
000003d0: dc1c 57bd 0040 5f37 40cd b73c e377 473d
000003e0: 1005 493c 8a57 6d3d 7413 49bd d0de 38bd
000003f0: 0991 0a3e d00e 3f3c aaf3 be3c 819a 07bc
-0.053579528 0.00011447817 0.057573065 0.007959949 0.03978268 0.06394966 0.04192219 -0.03249491
0.01303475 -0.010728399 -0.0076308334 0.009509811 -0.17143306 0.1264266 0.04587327 0.03966845
-0.0031975692 0.023956964 -0.049599536 0.00078522414 0.042610522 0.029283814 -0.051571935 -0.046930753
-0.010071531 0.008004436 0.0060908184 -0.040171023 -0.04961726 0.0149862105 -0.031451304 -0.050846793
-0.05204454 0.03944755 0.062001932 0.01000729 -0.012297029 -0.017781511 0.030332968 0.05624502
0.00965409 0.04399004 0.11788562 0.06584009 0.04321103 0.013288475 0.010028341 -0.027174823
-0.03324277 -0.023502015 0.034216866 -0.03792011 0.080363676 0.022311969 0.06979295 0.029283714
0.011968891 -0.0009858083 0.052787356 -0.007358782 -0.0036812301 -5.984445e-05 0.0062457495 0.019478448
-0.002945589 0.16876368 0.04860542 -0.053584516 -0.04882069 -0.015345849 -0.03809271 0.029837541
-0.028370576 0.04560063 -0.0041071125 0.022242052 -0.045562986 -0.024576016 0.02526019 0.0294451
0.076799594 0.025329445 0.05777786 0.013300575 -0.0047066477 -0.05513322 0.030679274 -0.030081239
-0.00033363997 0.008110648 0.06633777 0.034587383 0.03658043 0.05910317 -0.015055208 0.01893299
-0.0027737813 -0.034054104 0.051796146 0.05618176 0.027451457 0.03386148 0.05619818 0.030787202
-0.037389986 -0.027988082 -0.018216718 0.028907135 -0.028828152 0.0076866844 -0.011402005 -0.004360624
0.117493086 0.064660154 -0.043967724 0.008922257 0.008050906 -0.03255406 0.023282945 0.008144118
0.011677141 0.041389484 0.020471461 -0.0033902652 -0.057471514 -0.01988715 -0.031013848 0.030667763
0.0049448907 -0.04366726 0.037803873 0.032682687 0.043970592 0.02783644 0.004699754 -0.0063550784
-0.0509123 -0.0089755375 -0.003377501 0.01750914 0.054238074 0.011723472 -0.026994921 0.03858597
-0.047521554 0.040923588 0.03153628 -0.0003377273 0.028048638 -0.028839506 -0.04395268 -0.020290628
-0.03456083 0.025580639 0.021959161 -0.0053130984 0.0032071397 -0.023830945 0.048582554 -0.030525496
0.055065442 -0.025138907 0.0897448 -0.034966312 -0.028731756 0.039268255 0.0209146 -0.0499115
0.035910122 0.0028966262 0.066573456 0.061249934 -0.027675569 0.039643306 0.018486217 -0.038215954
0.004312274 0.01973606 -0.0070131645 -0.021204136 -0.045168675 -0.024863522 -0.045565143 0.054720007
0.06675957 -0.019940287 -0.03302656 0.012587161 0.031127239 0.061921403 -0.045828678 -0.00069681415
0.044117924 0.050624076 -0.017888336 0.0026979 0.012319155 0.060146183 -0.032904968 0.05642331
0.031860173 -0.016883742 -0.0055528847 0.061211996 -0.007871881 -0.056665756 -0.0038126335 0.06503929
0.07000269 -0.03610363 -0.0026779533 0.05899073 0.020951167 0.0036136112 0.025534 0.026378818
0.029396575 -0.055713944 -0.05288727 -0.024107063 0.037551135 0.085701264 0.060844146 -0.016325295
0.022436872 -0.05776436 0.020462552 0.06495103 0.018263698 0.048920605 0.007707536 0.026782664
0.04986041 0.052831147 0.030227972 -0.039010167 -0.024772309 -0.02067372 -0.043565802 0.021460906
-0.05017763 0.032293983 0.049679697 -0.016385976 -0.052517757 1.3306737e-05 0.022436738 0.048698317
0.012269273 0.057944812 -0.049090818 -0.045134366 0.13531889 0.011661246 0.023309547 -0.008276583

bias f4 [3]
00000000: 0861 943d d0e1 e73c 643a 0cbd
0.0724507 0.028305918 -0.034235373

weight f4 [256, 19]
00000000: 810e adbf 8d56 abbd e539 0a3e 5f46 c5bf
00000010: d16c 323f 75bb 32bf bc00 10be 1262 163c
00000020: 95db 56bb fbda 6ebd 442a bfbd b433 f8bd
00000030: 346c 4f3d e3a7 fb3d 28e2 063e 5acf 5abe
00000040: c890 8abe ace5 4abe 1a0c 3b3e fb0d 4c3e
00000050: b4c2 07be 1097 103c bc4d 043d 9c61 5e3d
00000060: 6c11 3c3d f294 f83d c0bf 023b edfd 68be
00000070: 63be 4e3e 48b2 f3bc 0fc2 353e 8f0e 5dbe
00000080: 57a6 dabd 3fb5 173e 84ff 40bd 90c0 8ebd
00000090: 82c3 4cbe e274 26be 8b81 68be f65a aa3c
000000a0: 2402 e53d 58fd 17be 06b5 043e a146 c6bc
000000b0: 1ce9 76be 3018 aa3d b96c 253e defc 443d
000000c0: 215d b13d 7019 cc3d 3f82 c4bd 2e84 4cbe
000000d0: 8159 823d be62 5bbc ea54 78bd bcf7 aebd
000000e0: dd3c 3cbe 83df a33e 36e8 693f e381 4d3e
000000f0: 3a68 34c0 bca2 30bf f603 de3e 8d9c 7fbe
00000100: e5f0 52be 612e 963d fb9a b83d 8971 bd3d
00000110: db3b 94bd 9e90 61be f744 c0bd ca3b 6bbc
00000120: 4fbd c53d c2c6 46be 5f0c 143e c41a c93e
00000130: 44ef 54be cc43 02be 2477 38be cc7e 143d
00000140: aa13 50be e775 56be 2d67 55be 0031 ffbc
00000150: cb7d 63be 69da 033e 00f6 8b39 a758 193e
00000160: e484 073d 9e20 29be 947c 65be 8d4f 65be
00000170: c187 243e bf46 4ebe 3878 05be 53a6 5bbf
00000180: 99c6 cabc 24b6 2ebe ed31 92bf c683 5a3e
00000190: 37ee cdbe ba81 19be 3c6c 293e d75d 423e
000001a0: f243 583c 0a91 df3d 1276 263b 7243 11bd
000001b0: 3a0d cbbd ec5b 94bc 4770 2f3d ab66 cfbc
000001c0: d5bb 3abd 4665 743d 2f2b acbd 9333 2bbe
000001d0: ea7d 633e a40b eabd 383c ebbc 24d3 0d3e
000001e0: 877a 433e 3193 603e 057c c8bd ca83 47be
000001f0: b70c 423d 30e0 f43c 50d0 6bbe 29da 2dbe
00000200: b3bd 28bd 19cf 123d 4b7a 1c3e 16dc cfbd
00000210: cbd8 5bbb f249 0fbe 40e4 15bd 86ab e7bd
00000220: 7137 4fbe 90ef 90bd df38 2ebe 3a55 a4bd
00000230: c334 1c3e 840f 693d 50e8 3fbe 5cf8 c2bd
00000240: 1ba4 623e 263e 9a3d 8816 8dbc 4018 ddbc
00000250: f90e 2cbe 6c25 283d 4037 133c 9488 463d
00000260: 1b1c ffbe dcba 40be f60b 70bd 398d 22be
00000270: ead8 e3bc c140 18be 95af 88be bc06 f73d
00000280: d36c 2abe e1c5 873d 9c9d c6bc 284a b2bd
00000290: 373c 38be 641b f73c b86c ab3d 5427 e8bd
000002a0: 7c87 853d 4f15 1fbe 406b 0bbe 75fa 9c3f
000002b0: 0e15 7f3f 439e 043d cd13 9bbf 1c02 94bf
000002c0: 52ad a13f 599b b2bd afa9 283e c774 0dbd
000002d0: d190 9bbd f8c1 f93d 5b8c 153e aa89 59be
000002e0: 6c7d b6be dee7 3a3e c71a 0b3e 0ea5 b73a
000002f0: ad00 703d e19f 1abd 5978 29bd 27f5 a23d
00000300: 8e5c f13d 54c4 e9bd 46a5 cc3d 822a 42be
00000310: 7dc9 f23d 5840 f83d 47c4 cc3c 9edc d83d
00000320: 154b 813d e905 29bd 0a9a 6f3d 1324 a33c
00000330: e37c 21be c58b bbbd 5157 ae3c 66a7 973d
00000340: 8724 3bbe 2fc3 93be b10d dfbe 7ba0 b93e
00000350: 007f 53bf 4f5d 123f bd22 26be d1bb 3cbe
00000360: b8b2 a0be 1417 823d 111f 353d df5a e73d
00000370: de74 643d 3c3e bd3d 41c6 5a3d 87d5 7dbe
00000380: 231c 3abc 5992 4e3d da77 773c 3523 603e
00000390: c78c 83bf a621 90be 4b46 e63c 56e1 9ebf
000003a0: b8d7 203f 0d71 cdbe 3fd6 5ebe 16c2 3d3e
000003b0: 9756 60bd 49c4 8b3d 6f6e cab7 2664 943d
000003c0: 9b57 95be 0be6 023d dd47 30be 64ef 073e
000003d0: 4c04 50be ed0a 05be 14d2 503e 6447 50c0
000003e0: 7204 55be f6bf 6cbd 61ad fbbf b0ce 303f
000003f0: 85da 1ac0 1346 673e 3fa9 bebd b8c9 f03d
-1.3520051 -0.083661176 0.13498648 -1.54121 0.6969729 -0.69817287 -0.1406278 0.009178655
-0.003278469 -0.058314305 -0.093342334 -0.121192366 0.0506403 0.12287881 0.1317221 -0.21368161
-0.27063584 -0.19814175 0.18266335 0.19927208 -0.13257867 0.008825079 0.032300696 0.054292306
0.045915052 0.12137784 0.0019950718 -0.22753115 0.20189814 -0.029748097 0.17749809 -0.21587585
-0.10676258 0.14815234 -0.04711868 -0.06970322 -0.19996455 -0.16255525 -0.22705667 0.020795327
0.11182049 -0.14842737 0.1295968 -0.0242036 -0.24112362 0.08305395 0.16154756 0.048092715
0.08660341 0.09965789 -0.09595155 -0.19972298 0.06364728 -0.013390241 -0.060627855 -0.08543345
-0.18382592 0.32006463 0.9136995 0.20069079 -2.8188615 -0.6899831 0.43362397 -0.24962063
-0.20599706 0.07333065 0.09013935 0.09250171 -0.07237979 -0.22027823 -0.09388154 -0.014357517
0.096552484 -0.19411758 0.14457844 0.39278233 -0.20794398 -0.12721175 -0.18014199 0.036253735
-0.20320001 -0.20943414 -0.2084014 -0.031151295 -0.22215955 0.12876286 0.0002669543 0.14975224
0.03308572 -0.16516349 -0.22410804 -0.22393627 0.16067411 -0.20144175 -0.13034141 -0.85800666
-0.024752902 -0.17061669 -1.1421486 0.2133933 -0.40220806 -0.14990893 0.16545194 0.1898111
0.013199793 0.10916336 0.0025399965 -0.03546471 -0.09914632 -0.018110238 0.042831685 -0.02531751
-0.045589287 0.059666894 -0.08406674 -0.16718893 0.22216001 -0.114280015 -0.028715238 0.13850075
0.19089709 0.21931149 -0.0978928 -0.19483867 0.047375407 0.029892057 -0.23028684 -0.16977753
-0.041196536 0.035842035 0.15281026 -0.101494 -0.0033545967 -0.13993052 -0.03659463 -0.113120124
-0.20235993 -0.07076943 -0.17013882 -0.08024068 0.15254502 0.056899562 -0.18740964 -0.09520027
0.22132914 0.07531385 -0.017222658 -0.026989102 -0.16802587 0.041051313 0.008985341 0.048470095
-0.4982613 -0.18821281 -0.058605157 -0.15874185 -0.027813394 -0.14868452 -0.26696458 0.12061831
-0.16643076 0.06629539 -0.024245076 -0.087055504 -0.1799172 0.030164428 0.08370346 -0.11335626
0.06519982 -0.15535472 -0.13615131 1.2263933 0.996415 0.032377493 -1.2115418 -1.1563144
1.2631018 -0.087210365 0.16470979 -0.034535196 -0.07595981 0.121952 0.14604323 -0.21243921
-0.35642564 0.18252513 0.13584433 0.0014010982 0.058594394 -0.03775013 -0.041374538 0.07956915
0.117852315 -0.114144 0.09992461 -0.18961528 0.11854837 0.121216476 0.024995936 0.105889544
0.06313149 -0.041265402 0.058496512 0.019914662 -0.15770297 -0.09157518 0.02128187 0.074049756
-0.18275653 -0.2885985 -0.43565133 0.3625525 -0.8261566 0.5717363 -0.16224189 -0.18431021
-0.31386352 0.06352058 0.04421908 0.11296629 0.055775516 0.09240386 0.053411726 -0.24788485
-0.011359247 0.050432537 0.015104258 0.2188843 -1.0277337 -0.28150672 0.02810969 -1.2412517
0.6282916 -0.40125313 -0.21761416 0.18531069 -0.05477008 0.06824548 -2.4131701e-05 0.07245664
-0.291684 0.031957667 -0.17214914 0.13274914 -0.20314139 -0.12992449 0.20392638 -3.2543573
-0.20802477 -0.057800256 -1.9662286 0.6906538 -2.4195874 0.22585325 -0.09309625 0.11757225

bias f4 [256]
00000000: 8a72 29be d53d d6bd 8ea0 8dbd 9312 4fbe
00000010: 6fc1 153e 048a 4cbd 99e7 063e 60f6 073c
00000020: 0072 7dbe 227c b13d 0872 3c3e 8dbc 22be
00000030: b4ea 18bc 6a5a 053e 282b 4fbd 35e5 42be
00000040: 0523 1d3e 5dc2 133e 5f56 013e 0757 f53d
00000050: aba0 17be e656 1cbe 395a 853d dc58 b1bd
00000060: e26f 25bd 8654 b23d 3ee2 e83d 8797 71bd
00000070: 3e1e 22be 8c5e 02be 130d 5f3e f2da 54be
00000080: 0102 cbbd c866 f43c 67b3 943b 15f9 053d
00000090: 4857 e93d eef0 b0bd a738 bf3c b3c5 65bd
000000a0: d384 023e 3a7a 9a3c c60c 3fbe 5208 273d
000000b0: 087f 9abc 98cd 2fbe 15ab 44be 5de6 c4bc
000000c0: 5210 2c3e 54be 04be 3ed6 b6bd c2ab 4dbe
000000d0: 9d5b 69bc 4630 87be 4c40 613d 4d74 e3bc
000000e0: 82be b1bd ab3d ff3d cdc9 fd3d a828 5dbe
000000f0: 1a95 633c 26f3 ae3d 09c1 1d3e e517 43be
00000100: 86ae de3d d662 22be 8d2d e5bd d209 46be
00000110: c391 aabd 005c 4cbe fdc6 92bd 5edc 4dbe
00000120: 5a6c ec3d 1309 393e 000d 15be 7c6b 8a3d
00000130: 5814 b63c 8b5b debd c01d 0a3e 26c9 503d
00000140: 597d d83d c15c 97be 20d8 5abc d17b aabc
00000150: 0a7f 84be 9a0b 69be de1d 1a3e d654 b23d
00000160: 1a47 10be 6493 d6bd b097 88be c14e 3b3e
00000170: 1040 00be 56e9 113e 38b3 62bd 325e 7b3d
00000180: 76aa e9bc e617 6bbe de0e af3d 7da6 093e
00000190: 4719 86be c92c 0abe d8fe e8bd ad69 6abe
000001a0: 9c12 1fbe 154e debd 833b 59be 301c 883d
000001b0: 9096 823d cea4 c73d 848e 06be 38a7 9bbd
000001c0: aa6d 3cbe bb47 1abe 3b21 6c3d f917 0cbc
000001d0: 268c fc3d bfc5 1abe 80d3 bebd 102b ffbd
000001e0: 21ab 66be 9914 243e f68f 29be ca0b 723d
000001f0: a06f 2c3c 446e edbd c4f4 ccbd 59b6 36be
00000200: dbd0 48be 90a3 f3b8 c027 7ebb 1bc2 ecbd
00000210: 2075 293e a8e6 1abd 068e a6bc 0ab3 6abe
00000220: 1b33 353d a0ac adbd 5791 4a3d a145 55be
00000230: 6975 bc3d 2ebe 963d 6e40 85bd a110 08bd
00000240: 6adf debc 6d3f b8bd a434 72bd 3e29 34be
00000250: 50b2 31be 08d3 69be 43b7 d1bd da8d d9bd
00000260: 1fbe 43be 8e73 bf3c 018f 923c 907e b03c
00000270: 9ea8 58be 0413 853d b412 f8bd 0e45 44be
00000280: dd42 37bd 9a7c a4bd 6ab5 e7bd 34f5 dbbd
00000290: 889b 8bbe be5c 67bc ca6d aa3c 3cd7 29bd
000002a0: c177 603d 7888 df3c 2f4f ba3c 58af 89be
000002b0: a7f5 72bd 7e7e 68be 317f 493e 7583 883d
000002c0: ca98 20bd 4572 1a3e d9d5 1abe b997 953d
000002d0: 5f19 fc3d 1ad3 2ebe 1389 2bbe d7bf 2bbe
000002e0: 4b82 523e 34fd 4abe 0d58 38be 5a6d ee3d
000002f0: aff8 eebd 0235 253e ead4 2b3e ebc1 083e
00000300: b345 65bd 0183 673e d9d7 19be b00f e3bc
00000310: 191b 38be 11bd 72be d726 bcbd 57b7 b93d
00000320: 1592 a2be 0b81 79bd 5e7b 39bd bf0b 7abe
00000330: 8b05 103d e159 82be 2640 133e 9ad9 a93d
00000340: 1b65 1cbd ddc7 6dbd d6e6 8ebd fcdd 3d3d
00000350: 7b3c 533d 514f dbbd 13af 1c3d 1039 8fbc
00000360: ecc4 a23c d390 e4bd 34ac 2bbe cf10 f7bd
00000370: 0825 42be 20bd 51be 2fa5 623e 3121 2a3e
00000380: 5e42 52be 4a1c 2bbe 2bf6 63be e7bf 0b3e
00000390: 8e58 213e 6e89 46be 48a8 c43c 6a2a 35be
000003a0: 2acc 073e 80c0 babd f1b2 cabd 7582 983d
000003b0: 603f 0fbe dffd 023e 7488 463e c64e 2ebe
000003c0: 824d dfbd 810c d2bd 474e acbe ba9f ec3d
000003d0: eb7b 1cbe 57c5 e5bd bad6 b3bc 282a a93d
000003e0: 8350 92bd 96cb 62be 056d 28be 3d1d f5bc
000003f0: 9a27 0ebe bd70 10be 2f21 0fbe 2d0a 87bd
-0.165476 -0.10461012 -0.06915389 -0.20221929 0.1462457 -0.04993631 0.13174285 0.0082984865
-0.24750519 0.086662546 0.18402874 -0.15892239 -0.009333301 0.13022771 -0.050578266 -0.19032748
0.1534539 0.14429612 0.12630604 0.1197949 -0.14807384 -0.15267524 0.06511349 -0.08659527
-0.040389903 0.08707528 0.11371277 -0.0589824 -0.15831849 -0.1273138 0.21782331 -0.20786646
-0.099124916 0.029834166 0.004537988 0.032708246 0.11393601 -0.08639704 0.023342444 -0.056096744
0.12745981 0.01885711 -0.18657216 0.04077942 -0.018859401 -0.17168272 -0.19205888 -0.024035627
0.168031 -0.1296323 -0.08927582 -0.20085052 -0.014243034 -0.26404017 0.05499296 -0.027765417
-0.086789146 0.12462934 0.12392006 -0.2159754 0.013890529 0.08542471 0.15405668 -0.19052084
0.108731315 -0.15858015 -0.11190329 -0.19339684 -0.08328583 -0.1995697 -0.0716686 -0.20103595
0.11544104 0.18069868 -0.1455574 0.06758782 0.022226498 -0.10857304 0.13487911 0.05097308
0.10570783 -0.29562953 -0.013357192 -0.020810993 -0.25878173 -0.22758332 0.15050456 0.087075874
-0.14089623 -0.10477331 -0.26678228 0.18291761 -0.12524438 0.14249167 -0.055346698 0.06136913
-0.028523665 -0.22958335 0.085477576 0.13442416 -0.2619116 -0.13493647 -0.113767326 -0.22891875
-0.15534443 -0.10854737 -0.21214108 0.06646001 0.06376374 0.09748231 -0.13140303 -0.07600254
-0.18401209 -0.15066426 0.05764888 -0.008550637 0.12331419 -0.15114497 -0.09317684 -0.124593854
-0.22526218 0.16023482 -0.16558823 0.059093274 0.01052466 -0.11593297 -0.10007623 -0.17842998
-0.19610922 -0.00011617609 -0.0038781017 -0.1156046 0.16548586 -0.037817627 -0.020331394 -0.2291986
0.04423819 -0.08480191 0.049455013 -0.20827343 0.09202082 0.07360493 -0.065064296 -0.033218984
-0.027206142 -0.089964725 -0.059132233 -0.17593858 -0.17353177 -0.22834408 -0.102400325 -0.10622759
-0.19115494 0.02337053 0.017890455 0.021544725 -0.21158072 0.064977676 -0.12112942 -0.19166967
-0.0447415 -0.08031578 -0.11313899 -0.10740128 -0.27267098 -0.014121233 0.020804305 -0.04146503
0.054801706 0.027286753 0.022742836 -0.2689159 -0.059316304 -0.22704503 0.19677426 0.066656984
-0.03920821 0.15082653 -0.15120639 0.073043294 0.12309527 -0.17072716 -0.16751508 -0.167724
0.20557515 -0.19823152 -0.18002339 0.11641951 -0.116685264 0.16133502 0.16780439 0.13355224
-0.055974673 0.22608568 -0.15023746 -0.027717441 -0.17979087 -0.23704936 -0.091870956 0.090681724
-0.31752077 -0.06091408 -0.045283668 -0.24418543 0.035161536 -0.25459197 0.1437994 0.08293457
-0.03818236 -0.058051933 -0.06977622 0.04635428 0.05157135 -0.10708488 0.0382529 -0.017483264
0.01986929 -0.111604355 -0.16764909 -0.12063753 -0.18959439 -0.20482302 0.22133325 0.16614224
-0.2053313 -0.1671001 -0.22261874 0.13647424 0.15756437 -0.19388363 0.024006024 -0.17691961
0.13261476 -0.09118748 -0.098974116 0.07446758 -0.1398902 0.12792157 0.1938799 -0.17022237
-0.10903455 -0.10256291 -0.3365347 0.11553903 -0.15281646 -0.1121928 -0.021952976 0.08259994
-0.07144263 -0.22147974 -0.16447838 -0.029921168 -0.13882294 -0.14105506 -0.13977502 -0.06593738
