output/ppo/2021-12-17_19-30-05-ppo_s3/pyt_save/model.pt (torch_old, 47572 bytes, 12 tensors)

log_std f4 [3]
000000 a5 d1 9a bf 41 2d 87 bf b5 80 5e bf
       -1.2095228 -1.0560685 -0.8691514

weight f4 [64, 16]
000000 57 58 54 be 5b d3 fe bd d0 67 da bd 4f 3d 6f be
       -0.20736824 -0.124426566 -0.10664332 -0.23363231
000010 dc cf 55 bd 08 82 4f be bf 3f eb 3d 39 bb 05 3e
       -0.052200183 -0.20264447 0.11486768 0.13059701
000020 ff 23 63 3d 4e 69 36 3e f2 6b ac bb 68 77 26 3e
       0.05545425 0.17813608 -0.0052618915 0.16256487
000030 80 e3 44 be 24 ce 55 bd f2 7c 3a be 90 2a 12 bd
       -0.1922741 -0.052198544 -0.18211725 -0.035685122
000040 2a cb a2 be dc fb 82 3b 23 85 39 bd de da 54 bb
       -0.31795627 0.003997309 -0.045292985 -0.0032479088
000050 07 ea 93 3e da 3e 8f be 76 6f 2f 3e e5 f9 7b be
       0.28889486 -0.2797764 0.17132363 -0.24607046
000060 37 1d 2d be d0 1c 2c be 42 e9 c6 bd fe 2c 11 3d
       -0.16905676 -0.16807866 -0.09712459 0.0354433
000070 b6 24 4e be 43 68 50 be 1e 00 0f be 87 2d 12 3e
       -0.20131192 -0.20352273 -0.13964888 0.1427518
000080 d0 76 b2 be 71 78 2e 3c e4 5c 15 be 92 35 42 be
       -0.34856272 0.010648833 -0.14586216 -0.18965748
000090 90 16 93 be 25 88 d5 be 77 76 34 be 77 b9 4d bd
       -0.2872815 -0.41705433 -0.17623316 -0.0502257
0000a0 5a a6 67 3d 5c 44 9f bd 9c e8 09 bd fd c4 fc bd
       0.05655513 -0.077767104 -0.0336691 -0.1234226
0000b0 c7 b4 b6 3d c3 96 e6 bd 7b 10 59 be 10 50 cc bd
       0.08921199 -0.11259224 -0.21197693 -0.09976208
0000c0 1d 9b 08 be 4e 41 c0 3e ce f4 a5 3d ae 84 09 be
       -0.13340421 0.37549824 0.081033334 -0.1342952
0000d0 2e 7b 2c be 6b 1a fe 3d 48 0b 38 3e e3 e8 85 3d
       -0.16843864 0.124073826 0.17973053 0.0653856
0000e0 3d b0 c6 bd 6a 8d 68 3e 35 51 ba 3d f5 3c 01 be
       -0.097015835 0.22710195 0.0909752 -0.1262091
0000f0 25 51 48 3e 8b 4f 48 3d 7d e1 3a be 6e 2a bf bd
       0.19562204 0.048903983 -0.1825008 -0.09334265
000100 e5 b5 f3 bd eb 28 14 bd 82 98 9d bd 32 f3 d6 bd
       -0.11899928 -0.036171835 -0.07695104 -0.104956046
000110 64 f5 18 bd bd b4 27 3e 16 9f fa 3c e3 53 42 3e
       -0.037343398 0.1637754 0.030593436 0.18977313
000120 20 08 d1 bd e3 af 3d ba 4f fc 20 3e 54 58 c6 3d
       -0.10206628 -0.0007235987 0.15721248 0.09684816
000130 ea ac cc 3c 11 0e 46 3e 11 fe d8 3d 60 9c 27 3e
       0.024984796 0.19341303 0.10595334 0.16368246
000140 95 43 56 bf 0d fc c0 be ca ba dd be 78 a2 ef 3e
       -0.8369687 -0.376923 -0.4330657 0.4680364
000150 e9 15 bb 3e 14 53 54 bf 4d 85 42 3e 1d a8 33 be
       0.36540154 -0.8293927 0.18996163 -0.17544599
000160 8e e5 2a be 71 b4 c6 bd ff e4 b5 bd 33 ac 97 3d
       -0.1668913 -0.09702385 -0.08881568 0.07405891
000170 49 0b 64 be d2 07 9b 3e dc 62 d8 bb de 51 94 3d
       -0.2226993 0.30279404 -0.006603582 0.072421774
000180 cd cc e3 be de 5c 5c 3b 8b f3 45 be bd 45 25 be
       -0.44492188 0.003362469 -0.19331186 -0.16139884
000190 2c e4 0c 3e 5d c3 23 be ed db 81 bd a2 b8 1a be
       0.13758916 -0.15992494 -0.06340776 -0.15109494
0001a0 a6 55 4b bd 38 bb 04 be 42 f1 52 bd 84 fa cc bd
       -0.049642228 -0.12962043 -0.051499613 -0.100087196
0001b0 81 9a de 3d 6b f3 57 be dc 5d 90 3d 05 7c c3 3d
       0.10869313 -0.2108895 0.07049152 0.09545139
0001c0 b7 51 e9 be 9d 7f c3 be 26 5f 39 3e 37 d5 fb be
       -0.45570156 -0.381833 0.18102702 -0.49186108
0001d0 7a a8 cf 3e 06 7b 72 bd 84 e9 04 be 8b 2d 21 3e
       0.40558225 -0.059199356 -0.12979704 0.1574003
0001e0 c6 a5 4f 3e fa 39 8a be 98 54 6b be 2d 8b 59 bd
       0.20278081 -0.26997358 -0.22981489 -0.053111244
0001f0 57 fa 89 be 1d da 35 be 68 11 b7 3d ea 94 e6 bc
       -0.26948807 -0.17758985 0.08938867 -0.02814718
000200 7f c2 23 be a4 30 93 3d 65 9b c5 3e c2 f6 8c bd
       -0.15992163 0.07187012 0.3859512 -0.06883003
000210 8b 4c 36 3d e5 90 2b be 19 00 7e be 44 95 84 bc
       0.04450659 -0.16754492 -0.24804725 -0.016184457
000220 01 5a 38 3e 78 cd b4 3d 6d 7c 68 be d3 d2 14 3c
       0.18003084 0.088282526 -0.22703715 0.009083468
000230 ac 09 95 be af cd 4f bd c9 21 89 bc ba 97 02 3d
       -0.29108942 -0.050733265 -0.016739743 0.03188298
000240 2b a9 98 bd b0 17 6d bd 10 e1 71 be 1a fd ff bd
       -0.07454141 -0.05788392 -0.23621011 -0.12499447
000250 17 a2 0d 3e 89 e2 81 3e 01 9d 23 be 14 f3 9e 3e
       0.13831364 0.25368145 -0.15977861 0.3104483
000260 90 f1 8b 3d 44 65 74 3e dd 47 7d 3e 69 1e 5a be
       0.06833184 0.23866755 0.24734445 -0.21300663
000270 ac e8 31 3e e8 9b a2 3b a0 ba 70 3d 35 bf d0 bd
       0.17373914 0.004962433 0.05877173 -0.1019272
000280 87 4c a7 be 4b 58 8c 3d bd 8b 8f bd 5a 5d cb 3e
       -0.32675573 0.06852778 -0.07009075 0.3971966
000290 b0 4c 6a be 58 b8 c3 be b4 21 24 3e 4d 44 b2 bc
       -0.22880816 -0.3822658 0.16028482 -0.021761084
0002a0 b2 75 57 3c 1a be b6 bd 29 29 b5 3c 4c a7 4e 3d
       0.013150619 -0.08922978 0.022114353 0.050452515
0002b0 5e cc 84 be 3d 82 d7 3d 24 a4 4b 3c 71 52 b6 3d
       -0.2593717 0.10522888 0.012429271 0.08902443
0002c0 23 d1 0a be 04 e5 8d 3e e7 ef a3 bd 86 44 3d bd
       -0.13556342 0.27713788 -0.08004742 -0.046207927
0002d0 ab 23 f6 3d a7 28 ca 3c ad 2c 90 3e 92 9e 63 3e
       0.12018522 0.024677588 0.28159085 0.22228459
0002e0 5a f9 4e 3d d4 6d a4 3d fa a4 0c 3d 39 25 5d 3e
       0.05053077 0.080287606 0.03433702 0.2159623
0002f0 9f 30 45 be ac b4 36 3d 9d 69 8d 3e 67 c9 0b be
       -0.19256829 0.044605896 0.2761964 -0.13651048
000300 49 f8 36 be 13 46 e7 3d 6e 14 55 3e db da 0d 3e
       -0.17868151 0.112926625 0.20808575 0.13853018
000310 3c 41 8d bd fa 7f 6c 3c 98 77 e0 bd c7 64 5d 3e
       -0.06897208 0.014434809 -0.10960311 0.21620475
000320 2e 69 36 be 13 58 08 3e a6 cf 13 3e 06 5f 1d 3e
       -0.1781356 0.13314848 0.1443468 0.1536828
000330 fd 0b 4b 3e 02 65 f5 bd ad 7b 18 3e 0e 46 59 be
       0.19828792 -0.11982156 0.14890929 -0.2121813
000340 18 e1 0a 3e 54 6c 98 be 9e 88 c2 be b1 de 80 3d
       0.13562429 -0.29770148 -0.37994856 0.06292475
000350 c6 38 c5 3e 7d 3c 0e 3d 87 25 15 be a7 81 4f be
       0.38519877 0.034725655 -0.14565097 -0.20264302
000360 88 79 43 3b 22 3f 0f bd 15 39 40 3d 9c 37 35 3e
       0.0029827077 -0.034972318 0.046929438 0.17696995
000370 6c 1b 12 be 6e dd 50 be 08 40 74 3d e1 38 3e 3e
       -0.14268273 -0.20396969 0.059631377 0.18576385
000380 05 f0 a3 3e 54 b4 82 be ee a4 eb be 34 1b df 3d
       0.32019058 -0.25528204 -0.4602427 0.108938605
000390 44 72 d2 3e 82 f7 73 bd 1e 7d 82 bd 73 0d 2e 3e
       0.41102803 -0.059562214 -0.063715205 0.16997318
0003a0 21 71 b6 3d 36 92 67 3e f5 37 c7 3d 52 ae 7e 3e
       0.089082964 0.22614369 0.0972747 0.24871185
0003b0 7b f0 7e be 61 c9 14 3d b2 f8 59 3d f7 10 2e 3e
       -0.24896424 0.036324862 0.05321569 0.16998659
0003c0 04 ff 0e 3c 0c c3 17 3e 40 fd 51 be 64 6a 73 bd
       0.008727793 0.14820498 -0.20506763 -0.059427634
0003d0 7a 2e e6 3d d8 e1 05 3e 03 7a 43 3d 99 87 33 3e
       0.112393335 0.13074434 0.04772378 0.17532195
0003e0 56 98 b8 bd 5a 5d cc bc d2 17 31 3e 7f 0e 08 3e
       -0.09013431 -0.024946857 0.17294243 0.1328678
0003f0 5b 11 63 3e ae 7b 8f be cd 67 61 3d f8 0e 20 be
       0.2217459 -0.28024048 0.055030633 -0.1563071

bias f4 [64]
000000 74 a1 7a bd 56 25 18 3e 0e e8 0c be e6 58 75 bb
       -0.06118913 0.14857993 -0.13760397 -0.003743702
000010 20 c4 18 be da ab 7e be c0 5b 0c bd 8d 11 2e 3e
       -0.14918566 -0.24870244 -0.034267187 0.16998883
000020 70 a5 2b 3e ef b2 8a 3d be 72 e3 3d 42 52 f3 3d
       0.16762328 0.0677241 0.1110587 0.11880924
000030 a6 5d 84 be 76 fa 04 3d e0 a2 cf 3d de 6d 2d be
       -0.25852698 0.03246542 0.10138488 -0.16936442
000040 a8 da 08 be 61 df 2c be 3b 1f cb 3c f7 2c 05 bb
       -0.1336466 -0.16882087 0.024795165 -0.002032099
000050 03 10 56 be c0 62 16 3e cc aa 32 3d 88 5f 3e 3e
       -0.20904545 0.14686108 0.043619916 0.1859113
000060 20 30 a7 bd 2e fc 0f bd 78 c4 30 3e 63 cd 3a 3e
       -0.08163476 -0.035152607 0.17262447 0.18242411
000070 e1 80 51 bd dc ab ba bd fc 35 34 be 1e 96 9a 3b
       -0.0511483 -0.09114811 -0.17598718 0.0047176024
000080 c1 0d 4d 3e 9c b1 78 be 0f 9f 6c 3d 54 73 6b 3e
       0.20024778 -0.24286503 0.057768878 0.22993213
000090 3c 2c 2a 3e fe 08 89 be b6 f2 3a 3e b5 7d f9 3d
       0.16618437 -0.26764673 0.1825665 0.1218218
0000a0 2e 3b 35 3e 13 cb 9a bc 6c e6 8f 3d 4d 20 0a 3e
       0.17698357 -0.018895661 0.07026371 0.13488884
0000b0 62 f5 cb bd 39 38 1a 3d 67 7a e2 3d 78 c7 20 3e
       -0.099589124 0.037651274 0.11058503 0.15701091
0000c0 39 c7 6d 3e 50 53 b2 bd 75 22 d0 bc 92 fc e8 3c
       0.23220529 -0.08707297 -0.025407055 0.028440747
0000d0 0f de a5 3c 00 ff 23 bd b4 ac 07 3e a6 e1 3b be
       0.020247487 -0.04003811 0.13249475 -0.18347797
0000e0 79 84 53 be af 88 8f bc ce 4c 03 3e ed c9 4a 3e
       -0.20656003 -0.01752123 0.12822267 0.19803591
0000f0 bb 95 8c bd 01 e3 30 3e 90 f4 24 be 6c 44 1d be
       -0.06864496 0.17274095 -0.16108918 -0.15358132

weight f4 [64, 64]
000000 25 52 94 3c 01 d0 15 3d a2 30 3f bc f1 63 73 bd
       0.018105576 0.03657532 -0.01166931 -0.059421483
000010 3d 88 d6 3d bd ae e6 bd 54 76 1a 3d 2c 7d 16 3d
       0.10475204 -0.112637974 0.037710503 0.036740467
000020 fe 36 47 3d 65 85 1b be 78 e4 d6 bc df 54 ca bd
       0.04863643 -0.15187605 -0.02623199 -0.09879469
000030 27 b0 56 3d 89 64 8f 3d 0c 5f 7b 3d 8b e8 dc 3d
       0.052414086 0.070015974 0.06136994 0.107865416
000040 03 d0 18 3e fe 44 d5 bd 5f 36 6c bd 9c 50 3f 3d
       0.149231 -0.1041355 -0.05766904 0.046707734
000050 4e 1b 9d 3d 1f 2a 26 3c be 52 14 3e a0 9a 8d 3d
       0.076712236 0.010141878 0.14484689 0.06914258
000060 51 c6 d9 3d ad 61 25 3d 67 1f 7d 3d 95 ea c8 bd
       0.10633529 0.040376354 0.061797526 -0.09810368
000070 c4 36 74 3d 2c 6a 4b 3d 64 d6 6c 3d a9 0a 14 bd
       0.05962254 0.0496618 0.057821646 -0.03614298
000080 ae d1 6b bd 15 0a 96 3d b3 ad fe 3d b4 5a 30 3c
       -0.057573013 0.07326142 0.12435474 0.010763813
000090 e9 78 aa bc 1e 88 fa bd d9 f6 c7 3d b9 a2 67 3c
       -0.020809608 -0.122329935 0.09763879 0.014137917
0000a0 da 26 01 be e5 3d 2c be 1e 00 e6 bd 51 8c 8f 3d
       -0.12612477 -0.16820486 -0.11230491 0.07009185
0000b0 57 50 cb bd cb 65 f2 bc 79 2c 9e bd 20 8f 78 bd
       -0.09927433 -0.029589554 -0.07723326 -0.06068337
0000c0 e3 d9 8c 3d d6 8c b1 bd b9 d9 ba 3d 70 6a 9d 3d
       0.06877496 -0.086694404 0.091235586 0.07686317
0000d0 ed 1a ad bd b5 3f 22 3a 92 52 cc bc 84 f3 8e bc
       -0.08452401 0.00061893027 -0.024941716 -0.017450102
0000e0 01 fc dd 3c 7f 4e e0 3c 65 27 01 3e d2 ef cc bd
       0.027097704 0.02738118 0.12612684 -0.100066796
0000f0 e4 01 12 be 4a 0d 3b 3d 36 b6 89 3c 78 31 c2 3d
       -0.14258534 0.04566697 0.016810518 0.09482092
000100 2b 6e 1e 3d df d9 de bb dc 2a a1 3a b9 3a e8 3d
       0.038679283 -0.0068008746 0.0012296098 0.113393255
000110 0b 6b 59 3c a9 6f 90 bd c9 9f b1 3d b3 c1 0e 3e
       0.01327015 -0.070525475 0.08673055 0.13941078
000120 3d e3 fe 3c 0c 79 a6 3c d4 d4 f1 bd 0f 2e 7b 3d
       0.031114215 0.020321392 -0.11808172 0.06132322
000130 59 8b db bc d2 d3 0c be 76 64 84 bd 5d 86 38 3d
       -0.026799845 -0.13752678 -0.06464474 0.045050014
000140 34 11 8e 3d 43 16 23 bd 44 5c f2 3d 2b 18 bf bd
       0.06936875 -0.039816152 0.118340045 -0.093307815
000150 68 64 f8 3c 7c 87 d6 bd 4d 66 ab 3d 33 9e 9f 3d
       0.030321315 -0.1047506 0.08369122 0.07793846
000160 a8 69 b5 3d e8 de 0b be 0b 94 55 3d d1 74 7d bd
       0.08858043 -0.1365925 0.052143138 -0.061878983
000170 10 b2 e9 3d 15 ff be bc b2 2d d0 3d 19 fe 0c bc
       0.11410916 -0.023314992 0.10164966 -0.0086055035
000180 3d a9 b2 3b 11 52 c8 3d c0 ea d8 3d 34 d2 e0 3d
       0.0054523037 0.09781278 0.1059165 0.10977593
000190 b3 7e 6a bd 66 b2 60 bd cd 27 1c bc a1 71 69 3d
       -0.057249736 -0.054857634 -0.009530974 0.05699313
0001a0 d0 2b da 3d 91 53 02 3e 68 58 6f 3c 3a d7 25 3b
       0.10652888 0.1272719 0.01460848 0.0025305287
0001b0 10 d9 81 bd e6 76 98 bb 92 56 2d bd eb a3 b1 3d
       -0.063402295 -0.0046528457 -0.042318888 0.08673843
0001c0 c9 bb d0 bc 93 44 8a bd 6e 58 bc 3d 19 8b 8f bd
       -0.025480168 -0.06751361 0.09196554 -0.07008953
0001d0 57 7d c6 3c e8 68 e2 bb 4a b1 97 bb ca 56 80 3d
       0.024229689 -0.0069094785 -0.004629289 0.06266554
0001e0 a5 3e 11 be 7f 26 dd 3d 90 cf 35 bc a9 cd 9f 3d
       -0.14184053 0.10798358 -0.01109685 0.078028984
0001f0 1e 20 03 be 54 94 7a 3d 71 fc f7 3b 48 0c 63 3a
       -0.1280522 0.061176613 0.007567935 0.0008661193
000200 ea 07 6f 3d 94 19 47 bd 8a b2 71 bd 92 bb 06 3a
       0.058357157 -0.048608378 -0.05900816 0.00051396445
000210 f2 79 ee bd 74 58 d7 bb 0f 8b af ba 88 6f 2e bd
       -0.11644353 -0.0065718237 -0.0013392883 -0.042586833
000220 1d a8 85 3d 64 4a fd 3d 3e e9 f8 bc f2 16 34 bc
       0.06526206 0.123677045 -0.030384656 -0.010991799
000230 f9 65 ec 3c d2 d6 09 be b4 75 54 bc e9 39 35 3d
       0.028857218 -0.13460854 -0.012967516 0.04424468
000240 b1 d5 ac bd ca ae 6a 3c 91 73 1c 3d 7f fb 93 3d
       -0.08439196 0.0143238995 0.03819615 0.072257034
000250 5a cf 1e be 6e b9 a5 bc 1d 10 35 be 2d d4 28 bc
       -0.15508786 -0.020230021 -0.17681928 -0.010304493
000260 22 df 8b 3d ac 0e 71 3d 13 fb a7 3d d7 fb 67 bc
       0.068296686 0.058851883 0.082021855 -0.014159164
000270 b2 47 d9 bd ce 75 c2 bd 77 8e b0 3d 61 06 13 3e
       -0.10609378 -0.09495126 0.08620923 0.14357902
000280 1d d3 ff 3d 98 17 13 3d 95 8c 13 3d 52 04 b2 3c
       0.124914385 0.035911173 0.03602274 0.021730576
000290 d0 04 c2 bd 7c 5d d5 3c 8c b5 e1 bd 5b f0 94 bd
       -0.09473574 0.026045553 -0.110209554 -0.07272407
0002a0 f5 2f 35 3b e9 7b b7 3d 90 1c 48 bd 8d 72 82 bd
       0.0027646993 0.08959181 -0.048855364 -0.06369505
0002b0 7b ea 01 be bf c4 c0 bd d4 ca 25 3c eb 7b 99 bd
       -0.12687103 -0.09412526 0.010119159 -0.074943386
0002c0 5d 56 2f 3e 4a 73 cd bd c9 48 b5 bc d8 e2 fa bd
       0.17122789 -0.10031755 -0.022129433 -0.12250298
0002d0 f2 c8 1a 3d 56 6e 39 3d c2 72 3b bc da 5a 3a bc
       0.037789293 0.04527124 -0.011440935 -0.0113742
0002e0 25 96 d1 bd 3a 36 14 bd 4d 80 71 bd 6d b1 af 3d
       -0.10233716 -0.036184527 -0.058960248 0.08578763
0002f0 31 8d 02 3e 69 13 d0 3c 83 38 ce bd 1a 7a 78 bc
       0.12749173 0.02539988 -0.100693725 -0.01516583
000300 29 03 b3 3d 0b 94 75 3d 77 47 1c be 6c fb 24 3c
       0.08740837 0.059955638 -0.15261637 0.010069709
000310 be 44 5e 3d f4 e1 3e bd 26 f2 62 bd 18 dc 1e 3d
       0.054264776 -0.046602204 -0.055406712 0.038784117
000320 2e c6 a3 bd 22 c7 94 3d 94 98 0c 3d 9a 54 9e bd
       -0.07996784 0.07264544 0.034325197 -0.0773098
000330 e2 b1 9c 3d f1 08 01 3c 5c 5c 13 3e d7 ec 0c bd
       0.07651116 0.007875667 0.14390701 -0.034405556
000340 00 3b c7 bd b0 d1 0c 3b 24 bf db 3d 05 df 80 bd
       -0.0972805 0.0021487288 0.107298166 -0.062925376
000350 33 a7 58 3c 7e 83 97 3d 27 9d 47 3c 7f d6 35 bd
       0.013223457 0.07398127 0.012183464 -0.044394013
000360 92 00 8a bd 9c 13 83 3d 9f 51 94 3c dd e7 cb 3c
       -0.0673839 0.064002246 0.018105326 0.024890834
000370 d9 99 a6 bd 78 12 55 bc 79 7a 33 3d 61 c9 5c 3d
       -0.08134813 -0.013004892 0.04381797 0.053902987
000380 18 fd 03 3c 80 50 ae 3d 4f b5 62 bd 5a fb 33 bd
       0.008055948 0.08511448 -0.05534869 -0.04394088
000390 31 2f fe bc 04 89 f5 bd 96 18 a1 bd 8c fb c2 3d
       -0.031028362 -0.11989024 -0.078660175 0.09520635
0003a0 1b 81 1c bc fe 99 5f bc ad 73 f5 bc 9d 15 a5 bd
       -0.0095522655 -0.013647554 -0.029962385 -0.08060763
0003b0 85 87 13 bd 50 4d a5 3d af 23 ac bd 73 e7 86 3c
       -0.036017913 0.08071387 -0.084052436 0.016467785
0003c0 e1 b6 d1 bd 75 fb c4 bd ea 31 71 bd 47 57 ed bc
       -0.102399595 -0.09618274 -0.058885492 -0.028972281
0003d0 97 d4 a0 3d 34 78 67 bc a4 12 88 bd 09 bb e8 3d
       0.07853048 -0.01412778 -0.066441804 0.11363799
0003e0 7c ea 5b 3d c3 3a 99 3d b1 42 ec bc 8a 7d 0a be
       0.05369042 0.07481911 -0.028840395 -0.13524452
0003f0 48 6e 77 3d ee a5 6a 3d 95 29 84 3b ab 36 02 3e
       0.060407907 0.05728715 0.0040332773 0.12716167

bias f4 [64]
000000 af 5b 33 3d ed b1 0f bd b9 24 f1 bd 35 f8 c2 bd
       0.04378861 -0.035081793 -0.117745824 -0.09519998
000010 68 88 25 bd fa a9 a7 bd 75 41 e6 3d 86 f6 82 bd
       -0.04041329 -0.08186717 0.11242954 -0.06394677
000020 56 ae 3d 3d 4c b1 d1 bc dc ab 22 bc 68 23 ef bd
       0.046308838 -0.025597237 -0.00992867 -0.11676675
000030 e2 21 11 3c 5c 26 96 bc 74 48 68 3d 43 3c ac 3d
       0.008858176 -0.018328838 0.05670972 0.084099315
000040 be 9e de bd 4e 44 59 bd 87 43 d9 bd b0 0b fc bd
       -0.108701214 -0.053043656 -0.10608583 -0.12306917
000050 bf 10 08 3d 5e e7 1f bb 9e f3 f0 bd 54 bd 80 3d
       0.033219095 -0.002439938 -0.11765216 0.062861115
000060 3e 72 cc 3d 81 46 18 3d 5b 66 9a 3d 88 a0 df bd
       0.099827275 0.037176613 0.07539054 -0.10919291
000070 f3 5f df 3d f8 7f 91 bd 83 65 b2 3d 2e 8a 9a bd
       0.10906973 -0.07104486 0.08710768 -0.07545887
000080 80 f4 7f bd 6e e3 c2 3d 30 ab cc 3d 18 9d bd 3d
       -0.062489033 0.09516035 0.09993589 0.09258479
000090 c4 f5 51 bc a6 b4 09 be b6 b9 a3 bd 04 9f 15 3d
       -0.012814943 -0.13447818 -0.07994406 0.036528602
0000a0 e0 24 05 3c fb a9 f2 3d c4 e2 ca 3d 05 57 c0 3d
       0.0081264675 0.118488275 0.09906533 0.09391598
0000b0 c6 e4 97 bd e9 c6 79 bc a0 06 16 3d 6f 60 c1 3d
       -0.07416682 -0.015245178 0.03662741 0.094422214
0000c0 eb a3 9b bd 67 67 5e bd a9 02 d7 bd 78 06 4e bd
       -0.07599624 -0.05429783 -0.10498554 -0.050299138
0000d0 19 46 6b bc d8 13 a9 bd cc b1 13 bc 32 80 6f 3d
       -0.014359974 -0.08255738 -0.009014558 0.058471866
0000e0 78 70 75 3d 64 18 9b bd 5e ae de 3d b8 5a a5 bd
       0.05992171 -0.075730115 0.10873102 -0.08073944
0000f0 5d 31 db 3d 1c 7a 0d bd 05 c6 ea bd 8c 98 e8 bb
       0.10702775 -0.03454028 -0.114635505 -0.007098263

weight f4 [3, 64]
000000 08 10 c5 3d ce 97 f5 bd f8 41 9f bd e0 61 78 bc
       0.09622198 -0.11991845 -0.077762544 -0.015160054
000010 72 8a eb bc 6d 47 84 3d 1c 5c ac 3d 2f 2f 0e 3e
       -0.02875254 0.06458936 0.08416006 0.13885187
000020 1e 00 3b 3b f3 8c cf bd 5b 05 a6 bd 82 53 53 bd
       0.0028534005 -0.10134306 -0.0810649 -0.05159331
000030 5a e7 a4 bb dc f1 fc 3d 34 d1 8c 3d 6a 2b 4c bd
       -0.005032462 0.123508185 0.0687584 -0.04984609
000040 3f de ea bc 69 b8 25 bd 34 8a 74 3d 03 3d c8 ba
       -0.028670428 -0.04045907 0.059702113 -0.0015276972
000050 a1 23 88 ba 73 7e 93 3d fc 41 90 3d f6 46 99 3b
       -0.0010386595 0.07201853 0.070438355 0.0046776487
000060 b5 0b b8 bd 78 15 e8 bd 7e 21 83 3d e9 af d4 bc
       -0.08986608 -0.1133222 0.064028725 -0.025962787
000070 7d 73 06 3e 78 74 2d bd f8 93 83 3d 00 d4 10 be
       0.13129993 -0.0423474 0.06424707 -0.14143372
000080 c5 7d 9a bd 96 83 8a 3d 08 6d aa bc 3f 54 e7 bd
       -0.0754352 0.06763379 -0.020803943 -0.112953655
000090 da 8b 99 3c 07 f1 16 bd 52 37 e3 bd b7 c1 31 3c
       0.018743444 -0.036850955 -0.11094536 0.010849408
0000a0 d3 cd 41 3b b1 ed bd 3d fc fa 2d bd a1 62 f7 3c
       0.0029572144 0.09273852 -0.042475685 0.030198397
0000b0 e3 7b db bd d3 b1 1b be a4 69 f0 3d 6e cf 94 3d
       -0.10716989 -0.15204553 0.11738899 0.072661266
0000c0 cb ba 1d be d5 1b 15 3e e2 33 a9 3d ff 55 9f bd
       -0.15403287 0.14561398 0.08261849 -0.07780074
0000d0 b7 af c0 3c 9a 01 b9 bd 85 12 10 3e ec 0f 60 3c
       0.023521287 -0.090335086 0.14069565 0.013675671
0000e0 0e 6d 83 3d 50 59 05 be 93 fc 95 3d 1c d7 19 bd
       0.06417285 -0.13022351 0.07323565 -0.03755866
0000f0 ab f7 06 3e 3b aa d9 3d b5 30 18 3d 6f 3a c2 3d
       0.13180415 0.10628172 0.037155826 0.094838016
000100 51 4f 01 3e 6e 4e 98 bc cc 64 8f bd 2f be 8c 3c
       0.12627913 -0.018592086 -0.07001647 0.01718053
000110 2a 7d b2 bd 01 bd fc 3d 6e c0 bc 3c d9 6d d4 3d
       -0.087152794 0.12340737 0.023040976 0.10372514
000120 ed 8e f6 bd 6f b2 8a bb 47 05 24 3d ad d3 d4 bc
       -0.1203898 -0.0042326967 0.040044095 -0.025979841
000130 0b f3 30 be 29 98 26 bd 5d 09 8c 3d 5c d1 99 bd
       -0.17280214 -0.040672455 0.068377234 -0.07510635
000140 fa b8 99 bd fa bc f6 bc e9 d9 90 3d 43 b6 bc bd
       -0.075059846 -0.030119408 0.07072813 -0.09214451
000150 c7 1c 34 bd a8 68 a1 bd 22 ee a4 bd 7a 9b 4f 3d
       -0.043972757 -0.0788129 -0.08053233 0.050685383
000160 99 50 d1 3d 33 86 b4 3d 44 28 00 3d 61 f3 ab bd
       0.10220451 0.08814659 0.0312884 -0.0839603
000170 ac 3e 8b 3d f5 fe b8 bd 5a 2b b5 3d fe d6 4e 3d
       0.06799063 -0.09033004 0.08846159 0.050498
000180 2d 2b d7 3d 88 da d0 bd 17 95 52 3d 3b fd 02 3e
       0.10506282 -0.101979315 0.051411714 0.12791912
000190 a3 be a1 bd e5 ab 00 be 30 11 8c bd 4e 57 8c bc
       -0.07897689 -0.12565573 -0.06839216 -0.017131474
0001a0 48 64 a2 bd 92 f0 05 be a4 ea 51 3c 16 ba dc 3c
       -0.079292834 -0.13080052 0.01281229 0.026944201
0001b0 e7 9b d4 3d 00 2f da bc 32 72 34 3b df 25 d5 3d
       0.103812985 -0.02663374 0.0027533886 0.10407614
0001c0 83 7f 31 bd 82 33 9d 3d dd d2 99 bb 19 df 01 be
       -0.043334495 0.0767584 -0.0046943263 -0.12682761
0001d0 38 43 e8 3d da 8d 04 bd 05 30 ee 3c 24 26 13 bc
       0.11340946 -0.032361843 0.029075632 -0.008981261
0001e0 fd 0e b7 3c e5 19 f6 bd 56 78 07 3e 11 05 ce bd
       0.022346014 -0.12016658 0.13229498 -0.1005956
0001f0 42 6b c6 3b 76 24 51 bd d0 4a bc 3d 85 f2 bd bc
       0.0060552666 -0.051060162 0.09193957 -0.023186931
000200 f3 62 0b be ca 06 26 bd c8 75 a9 3d 8b 87 77 bd
       -0.13611965 -0.04053382 0.08274418 -0.060432
000210 ad a8 72 3c eb cd 57 bd a4 c4 4c bd 3b 3f e3 bd
       0.014810723 -0.052686613 -0.04999222 -0.11096045
000220 94 89 d7 3c 2a 29 59 bd f2 c1 06 bb ac b4 cb 3d
       0.02631072 -0.053017773 -0.0020562378 0.0994657
000230 03 de 84 3c 7e e4 b1 bd 2d b1 9d 3d 1c 5d cf 3d
       0.016219145 -0.086861596 0.07699809 0.10125181
000240 8d f6 00 3d b1 7c 07 3c c0 1f ea bc 79 8f 3b bd
       0.03148513 0.008269475 -0.028579593 -0.045791123
000250 46 e6 df 3a 2b f1 f8 bd dc 9b 05 3d 32 20 bb 3d
       0.0017082177 -0.12155374 0.032619342 0.09137
000260 51 de 38 3d 58 d7 b6 3d bc ca 8f b9 71 e8 b6 bd
       0.045133892 0.08927792 -0.00027426134 -0.089310534
000270 e2 d7 96 bc a4 d9 8c 3c 38 ef c6 bc 0d 89 e9 bc
       -0.018413488 0.017193623 -0.02428399 -0.028507734
000280 1a 38 7b bd 07 86 21 3c 13 ad 18 bd 6c ae 02 be
       -0.0613328 0.009858615 -0.03727443 -0.12761849
000290 61 3d b2 3d 99 56 e8 3d 14 35 a8 3d 32 f1 33 bd
       0.08703113 0.11344642 0.08213249 -0.043931194
0002a0 54 ce 72 bd 9b 7c e8 bd 49 b7 f4 3d f5 d7 23 3c
       -0.0592788 -0.113518916 0.11949021 0.010000219
0002b0 bb 4c 29 3d 4d 71 e4 3d df ef f8 bd 6d 43 dd bd
       0.04133294 0.11154423 -0.12155127 -0.10803876
0002c0 c7 2e 9b bd 99 fd d9 bd 72 dd fe 3c 0c 89 8c bd
       -0.075772814 -0.10644073 0.031111453 -0.06862077
0002d0 96 d9 a9 ba 11 16 1b 3d 13 e4 15 3d 1a 00 ed bd
       -0.0012958522 0.03786284 0.03659446 -0.11572285
0002e0 b6 16 81 bd 9f f7 c3 bd 51 90 de bd c5 bd e8 3d
       -0.0630316 -0.09568714 -0.1086737 0.11364321
0002f0 06 e2 0b be 1f 20 45 3d f9 70 07 bd fc 62 51 bd
       -0.1366044 0.048126336 -0.033066723 -0.05111979

bias f4 [3]
000000 04 63 ee 3d 9f 19 e6 bd 52 98 90 bd
       0.116399795 -0.112353556 -0.07060303

weight f4 [64, 16]
000000 0e f3 89 3e 82 51 3a 3f 2d 9b 81 bf 7a 27 60 3f
       0.2694325 0.7278062 -1.0125481 0.87560236
000010 72 8f 4a bf 3a 12 62 3e 4f ef 65 3e d6 0e 0c 3f
       -0.7912513 0.22077265 0.2245457 0.5471014
000020 11 b1 a6 be 92 9c ef bd fc 7f 10 3f bc 8b b8 be
       -0.32556966 -0.11699785 0.5644529 -0.3604411
000030 bd a0 a4 3e 7b 3e 68 3e f5 55 9a be f6 dd 4a 3e
       0.32153884 0.22680084 -0.30143705 0.19811234
000040 8b 30 7f 3f 5c 9f c4 3e 33 a6 d8 be 27 f5 07 be
       0.99683446 0.38402832 -0.423143 -0.13277112
000050 a9 d7 63 be c2 ba 72 3f 80 71 76 be 99 2a 64 3e
       -0.22250237 0.9481622 -0.24066734 0.22281875
000060 58 e8 9b 3e 5b 7b b4 bd fc ce 1b be db 8e d2 3e
       0.30450702 -0.08812591 -0.15215677 0.41124615
000070 74 bf c3 be bd 40 eb bd 69 c0 8a 3c ec ae 89 bd
       -0.38232005 -0.11486957 0.016937451 -0.06722817
000080 eb 26 fd 3d 1f 30 a4 3e 91 10 07 3e f6 28 32 bf
       0.12360939 0.32067963 0.13189913 -0.6959375
000090 da 2f 21 bf 0b 7a 2c be 4d 28 fe bd 22 ea 4d be
       -0.6296364 -0.1684343 -0.124100305 -0.20108846
0000a0 8f 7e a1 3c cc 38 98 bd 34 cc 17 be 5a 9c 09 3f
       0.019713668 -0.07432708 -0.14823991 0.537542
0000b0 86 fd fc bd 6d 85 72 bd 69 07 d7 bd 60 3d c3 bd
       -0.12353043 -0.059209276 -0.1049946 -0.09533191
0000c0 1f fe 9f 3f 9a b4 25 c0 cd c5 8d 3e 20 cb d1 bf
       1.2499427 -2.589148 0.27689973 -1.6390114
0000d0 be eb 33 40 4b 6b b1 3f 3b 9b ff be 7a cd aa 3e
       2.8112636 1.3860868 -0.4992312 0.3335989
0000e0 f6 75 97 3e d0 09 ac 3d 3b ca 34 3f bc 30 41 bf
       0.29582185 0.08400309 0.7062108 -0.7546499
0000f0 fb b4 71 3d 0f 83 05 3e 0d 99 23 3e 70 cc 6c be
       0.059010487 0.13038276 0.15976353 -0.23124862
000100 14 9c e6 bd b2 78 35 3f 92 35 3a 3f ca 17 b4 bf
       -0.11260238 0.7088729 0.7273799 -1.406976
000110 ce 21 88 bf 6e e9 97 bd 4d 70 13 be 05 5c 43 bf
       -1.0635316 -0.0741757 -0.14398308 -0.76312286
000120 36 f6 83 be 4f c0 82 3d 5b 38 1b bf 1a ed cd be
       -0.25773782 0.06384336 -0.60632867 -0.40219957
000130 55 a4 25 3e 8b fe db 3c db 58 e9 bc f2 20 c5 bd
       0.16175969 0.026854774 -0.028484752 -0.096254244
000140 69 ae 8a 3e 11 16 2f 3f 70 4b c3 3f 3b 89 27 c0
       0.2708619 0.68393046 1.5257397 -2.617751
000150 79 15 4b bf 74 ef b1 3d 36 8b 93 be 38 df 94 3c
       -0.7932964 0.0868825 -0.28817147 0.018172845
000160 54 5f a3 be de f4 58 3d 4a 39 3a 3c ea ca 64 bf
       -0.31908667 0.0529679 0.011366198 -0.8937212
000170 04 52 58 3e 5d a2 0b 3e a6 7d d3 be 08 20 10 be
       0.21125036 0.13636155 -0.413068 -0.14074719
000180 96 94 05 3e 56 fc 07 bf 45 2a 63 bf fd 29 c1 bd
       0.13044962 -0.5311941 -0.88736373 -0.09431837
000190 e7 15 31 3f f3 74 66 3d 3a c8 34 3d ee f5 03 3f
       0.69174045 0.056263875 0.044136263 0.51547134
0001a0 75 0f fe 3d 9e 81 ae 3d fe bb 69 3e a2 76 9d bb
       0.12405292 0.08520816 0.2282562 -0.004805402
0001b0 d6 f4 9f 3e 5d 05 de 3d fa 37 bd bc f5 78 81 3e
       0.31241482 0.10840867 -0.02309798 0.25287595
0001c0 f3 d8 a8 3f d9 21 0a 40 43 a0 70 be 79 4a 2c c0
       1.3191208 2.158316 -0.23498635 -2.6920455
0001d0 83 6c eb bf b2 21 a8 3f c9 f2 ae be 4a d8 47 3b
       -1.839249 1.3135283 -0.34169605 0.0030493909
0001e0 d5 5e a5 3e 21 62 ac 3e 39 37 5a 3e 69 97 0d be
       0.32298914 0.33668616 0.21310128 -0.1382729
0001f0 cc 01 3c 3e d3 b1 0e 3f cc 90 02 3f 4c be f7 3c
       0.1836006 0.5574009 0.5100219 0.030242108
000200 28 3d 4a c0 ce 05 2e c0 e8 1b 6c bf 5a a1 86 40
       -3.1599827 -2.7191043 -0.9223008 4.207196
000210 16 3c 2b 40 4b 10 3f c0 4d c9 6d 3f 4c d0 81 3e
       2.6755424 -2.9853694 0.92885286 0.2535423
000220 0d 27 93 be e5 88 50 bd 79 53 00 bd c7 b1 09 bb
       -0.2874073 -0.050911803 -0.031329606 -0.0021010505
000230 48 17 88 3e 2d bd e4 3d 29 a1 5b bc 2a 72 bb 3d
       0.26580262 0.11168895 -0.013405123 0.091526344
000240 ae 04 92 3c a5 fa ae bd 33 00 9a bd 56 e2 f3 3e
       0.017824497 -0.085439004 -0.07519569 0.47633618
000250 63 3d bd 3e 41 84 9e bd 65 aa 82 bd 3c f4 bb 3e
       0.36960897 -0.07740069 -0.063801564 0.36709774
000260 5c e7 36 be fe 92 98 be 54 bc 2e 3e 59 ee 21 bd
       -0.17861694 -0.29799646 0.17064029 -0.039533947
000270 1a c5 89 be 91 d7 c2 3e 08 56 36 be ed 40 84 be
       -0.2690819 0.3805509 -0.17806256 -0.25830784
000280 f8 11 1e 3c 2f 2e 5d be 32 8b 06 be bd 94 df bc
       0.009647839 -0.21599649 -0.13139036 -0.027292604
000290 1b 86 af 3e 57 00 08 be c1 c7 4d 3b 10 06 aa bd
       0.34282002 -0.1328138 0.003139958 -0.083019376
0002a0 8d a2 47 bd 13 a1 39 be 83 db 96 3d 40 ed 1d bd
       -0.048739005 -0.18127851 0.07366087 -0.038556337
0002b0 6c 2e 4f bd b2 24 e0 be 76 60 71 be 7d 49 33 be
       -0.05058138 -0.43777996 -0.23571953 -0.17508502
0002c0 f3 bb a3 bf 29 50 d6 bf 3a 0e f6 3e ca 0c 72 40
       -1.2791733 -1.6743213 0.4805773 3.7820306
0002d0 59 e8 da 3f 03 10 bc bf c4 41 65 3f ab b2 01 3f
       1.7102157 -1.4692386 0.89553475 0.5066325
0002e0 6a 82 82 be 93 5e a8 3d f5 31 08 3d fb 5e 04 3e
       -0.25490123 0.082211636 0.033250768 0.12926857
0002f0 74 8c 6f 3d 23 19 23 3f 58 29 f8 be 65 0a 1b 3e
       0.058483556 0.6371023 -0.48469043 0.15140684
000300 3a 82 ab bf 28 28 19 c0 8a 5e 90 bf 5d ad 76 40
       -1.3399117 -2.393076 -1.1278851 3.8543313
000310 11 f4 0c 40 cd b8 ca bf f1 b0 8a 3e c2 e1 2a 3f
       2.2023966 -1.5837647 0.2708812 0.6675073
000320 c0 f3 e6 bd 19 7d 77 3e 91 8d 47 3e 4d 58 07 be
       -0.112769604 0.24168815 0.19487597 -0.13217278
000330 1d a4 6d 3d b1 c0 a1 3e bd da d0 3d 8f 67 74 3e
       0.05801784 0.31592324 0.10197971 0.2386763
000340 18 6f 1e bd e9 8a cd 3f 1b ce 2e 3e 9f f4 1e c0
       -0.038680166 1.6058017 0.1707081 -2.4836805
000350 23 a4 b6 bf ae bd 08 3e a0 a5 9b be df 5f 76 be
       -1.426884 0.13353607 -0.303998 -0.2406001
000360 35 97 d2 be de 76 20 3e 74 b8 d0 be 20 4a 90 bf
       -0.41130987 0.15670344 -0.40765727 -1.1272621
000370 54 b4 9a 3d f4 3c 1f 3e e4 f8 86 3d 8b fb ba bc
       0.07553926 0.15550596 0.06590441 -0.022825023
000380 41 b6 21 40 2d ed 52 bf 31 31 0e 3d 26 79 2c c0
       2.526749 -0.8239315 0.03471488 -2.6948943
000390 21 47 87 3f 0c dd 13 40 ff 7b 5e bf d1 4f 92 3a
       1.0568582 2.3103666 -0.86907953 0.0011162703
0003a0 97 7f 9d 3c 79 57 eb be 88 06 6b 3e 5e b5 05 3f
       0.019225879 -0.45965174 0.2295171 0.5222987
0003b0 ab b9 9d be dc 8b 14 3e af 37 0b 3e 5b 42 92 be
       -0.30805716 0.14506477 0.1359546 -0.2856625
0003c0 e5 d0 f8 be 09 72 5d be a7 b4 5f be d0 ef af 3f
       -0.48596874 -0.21625532 -0.21846257 1.374506
0003d0 b1 16 81 3e 1b 90 cc be 9d b7 fd bd 29 78 d9 be
       0.25212625 -0.39953694 -0.12388537 -0.42474487
0003e0 61 d8 63 bb 3b ff 93 bd 6a d5 01 be 24 38 71 3e
       -0.0034766423 -0.07226416 -0.12679067 0.23556572
0003f0 73 39 c9 bd be 9d 1f bf 33 e7 76 3d b1 c4 9a be
       -0.09825411 -0.6235007 0.060279083 -0.3022819

bias f4 [64]
000000 06 0e 2a bc 75 68 91 bb 4f e3 86 be 90 c0 60 bb
       -0.01037932 -0.004437501 -0.26345298 -0.0034294464
000010 b1 8f 13 3e 2f e7 96 3e b0 e3 a1 3c 9e 81 91 3e
       0.14410283 0.29473254 0.01976189 0.28419203
000020 7a b3 89 3e 30 28 db be 4a 89 f3 3d d4 44 df bc
       0.26894742 -0.42804098 0.1189142 -0.0272545
000030 ba da c4 3d a1 46 94 bc 18 a2 f9 bc 27 32 df be
       0.09612031 -0.018100085 -0.0304728 -0.4359295
000040 c0 78 78 bd 2c 7c b1 3b 90 af de 3e 42 50 8d 3d
       -0.06066203 0.005416414 0.4349332 0.069000736
000050 9c e0 03 be cd 65 0b bd 16 4b 22 be 3f 4e 3c 3e
       -0.1287865 -0.03403263 -0.15848956 0.18389224
000060 89 6b e8 3e ec d2 a2 3c a5 ee 4d 3a 8a 7b 55 be
       0.45394543 0.019875966 0.000785569 -0.20847908
000070 e0 43 4c be 52 94 80 3d e4 65 ab be 3a 67 b2 3d
       -0.19947767 0.0627829 -0.33476174 0.08711095
000080 3f 13 75 bd 59 a7 6d 3c 4c c4 a9 be cd 59 aa be
       -0.059832808 0.014505231 -0.33157575 -0.33271638
000090 31 56 74 3c c2 52 b0 be 86 72 10 be e5 37 9d 3e
       0.014913128 -0.3443814 -0.14106187 0.30706707
0000a0 8a 9f 6a be 8f 6d 96 be 46 e7 71 3b 64 e1 55 3e
       -0.22912422 -0.29380462 0.0036911531 0.20886761
0000b0 88 4f 32 be aa 66 c5 3e 6a 01 22 be fe 75 d0 3e
       -0.17413151 0.3855489 -0.15820852 0.4071502
0000c0 69 22 85 3e 35 fe f8 bc 81 98 a2 3e e8 7d 7b be
       0.26002815 -0.030394653 0.31756976 -0.24559748
0000d0 d2 4d 90 be 2e 91 50 be 25 db 91 be 71 ea c1 3d
       -0.28184372 -0.20367882 -0.28487507 0.09468544
0000e0 48 93 01 be 24 0e b9 3e 15 41 0c be 39 b4 90 3c
       -0.1265384 0.361436 -0.13696702 0.017664062
0000f0 e7 39 8b bc 3e d2 37 be 3e b5 4f be bc c9 6c bd
       -0.016995383 -0.17951295 -0.20283982 -0.057809576

weight f4 [64, 64]
000000 c0 10 d5 3d 33 94 b7 be e2 85 17 3d e7 bd 4d 3f
       0.104035854 -0.35855255 0.036992915 0.80367893
000010 b4 06 26 be 40 e8 9d bb 9e 97 6d 3e e6 2d 24 3f
       -0.16213495 -0.004818946 0.23202369 0.64132535
000020 42 88 63 be 8a 41 bd 3d 37 2b a5 bd 6f 40 dd be
       -0.22219947 0.09241016 -0.08064883 -0.4321322
000030 0c aa 0d 3e 03 f5 e9 3d 35 0f bd 3d 5e e8 e1 be
       0.13834399 0.114236854 0.09231416 -0.44122595
000040 a7 a9 ec 3e b5 36 22 3e c1 82 5f 3e 13 a7 1b bd
       0.46223184 0.15841182 0.21827222 -0.03800113
000050 d8 27 69 bb 0f 97 9d be 53 8d 04 be 76 80 f1 3e
       -0.0035576727 -0.3077931 -0.12944536 0.4716832
000060 f2 4c 14 3f 64 53 7c 3e e1 6f 14 3e 2a 47 4b bf
       0.5792991 0.24641186 0.14495803 -0.7940546
000070 ec f7 15 3d df 8f 14 3f a0 1d 92 bc 0f b3 f4 bb
       0.03661339 0.5803203 -0.017836392 -0.0074676345
000080 b3 47 11 be 9f 14 01 be 97 8d 2e 3c ab 4b 3b bf
       -0.14187507 -0.12605523 0.010653875 -0.73162335
000090 72 b4 e6 3e 81 8f 35 bf c1 b0 50 3e cb 68 58 bd
       0.45059544 -0.70922095 0.20379926 -0.052834313
0000a0 4d 39 03 3e 97 a8 0a 3e 03 b5 a6 bd a8 e2 fd 3d
       0.12814827 0.13540874 -0.08139994 0.12396747
0000b0 28 25 08 be 76 93 0a bf 0f a8 d2 be e9 cb 85 be
       -0.13295424 -0.5413126 -0.41143844 -0.26132134
0000c0 43 6d 66 bd f7 84 0c 3e 8f a1 af be ce fb 88 bd
       -0.056256544 0.13722597 -0.34302947 -0.06688653
0000d0 fd 66 9a bd d9 34 59 3e 80 a2 19 bf 1f b4 21 3e
       -0.07539175 0.21211566 -0.6001358 0.15791367
0000e0 be 47 c5 3e 0b 28 0e 3e d6 32 03 bf 15 11 61 be
       0.38531297 0.13882463 -0.51249444 -0.21979173
0000f0 8f 65 e5 bd aa 09 33 bd 82 fc 99 bd 24 7f 42 3d
       -0.112010114 -0.04371039 -0.07518865 0.047484532
000100 b8 42 8a 3e 00 90 5e 3d ef 55 a8 3d 2b b0 09 bf
       0.27004027 0.054336548 0.082195155 -0.53784436
000110 12 3c 07 bd cc a7 2f bf cb 05 22 bd d3 69 2a bd
       -0.033016272 -0.6861541 -0.039556306 -0.041604828
000120 02 7b f4 3e 6f be 70 3e e1 f4 bf 3d c9 bb 4e 3e
       0.47750098 0.23510145 0.09372879 0.20188822
000130 99 d8 36 3f e2 d1 14 bf 50 09 84 3c 65 91 11 3d
       0.7142425 -0.58132756 0.016117722 0.03553905
000140 55 fb d8 be 19 22 49 3f 74 f9 49 3d f8 bb ae 3e
       -0.4237925 0.78567654 0.049310163 0.34127784
000150 d8 59 74 bd a7 a3 d0 3e 6b a2 a8 3d a0 06 4f bd
       -0.059655994 0.40749857 0.08234104 -0.050543427
000160 80 ad 4d bd 1d b3 c2 3e 70 8a 13 3c 07 f1 ea 3e
       -0.05021429 0.38027278 0.009005174 0.45887014
000170 18 e6 c5 3c cc 37 a4 bd f2 95 25 bd f0 f3 c1 bb
       0.024157569 -0.08018455 -0.040426202 -0.005918972
000180 14 bb 9a 3e 24 0d 78 3d b4 b7 2e 3f 80 ef 9a 3d
       0.30220854 0.060559407 0.6824906 0.07565212
000190 7f e4 d1 bd 5d 22 32 3f c8 49 4c 3f f9 35 e5 bd
       -0.1024866 0.69583684 0.7980008 -0.11191935
0001a0 95 2f 0b bf 36 40 fa bd 9b 11 68 3c 7d 68 ab 3d
       -0.5436948 -0.122192785 0.014164354 0.08369539
0001b0 bf c3 2c 3d 28 60 d1 bd 72 7b 37 bf 3b 84 d7 be
       0.042178866 -0.102234185 -0.7167274 -0.4209307
0001c0 ee 3a 02 be 38 a0 ec 3d c1 83 e1 bc fd 11 ea 3e
       -0.12717792 0.11553997 -0.027528645 0.4571685
0001d0 57 fe b1 bc 18 2b d5 be 55 8e ce 3d a6 5d 85 3e
       -0.021727724 -0.4163444 0.100857414 0.2604801
0001e0 54 50 d6 3e fc f1 1b 3e 62 ec a3 be de e1 8e 3e
       0.4185816 0.15229028 -0.32016283 0.27906698
0001f0 65 7d f0 bd 98 5e 82 b8 70 b2 51 3d 83 0e 12 be
       -0.11742667 -6.2165025e-05 0.051195562 -0.14263348
000200 7b ff 98 be 25 1f 4d 3d 89 23 24 3e 77 d2 8d 3e
       -0.29882416 0.05007853 0.1602918 0.27699634
000210 6f 99 82 be 28 ed 66 3f e6 e2 5c be 87 c7 32 bd
       -0.25507686 0.9020562 -0.2157093 -0.043647315
000220 a6 6e b0 be 59 be 56 be 04 16 43 3e c9 0e 94 3c
       -0.34459418 -0.2097105 0.19051367 0.018073456
000230 77 ee 17 bf ec 2c ba 3e 26 6e 19 3e 2d a1 91 be
       -0.59348243 0.36362398 0.14983425 -0.2844328
000240 c2 f0 bf bd a3 06 dd be dd 8a 1c 3e c3 29 c9 be
       -0.09372093 -0.43169126 0.15287347 -0.39289674
000250 fa 10 49 bd 1b 03 ce 3c 82 ae 9a 3e 42 11 12 be
       -0.049088456 0.025147965 0.30211264 -0.14264396
000260 cd d2 18 be 6f bd a0 bd c8 58 4c bd 51 05 a1 3e
       -0.14924164 -0.078486316 -0.049889356 0.3144937
000270 f1 14 5a be 8a 49 9c 3e 6f 07 cb 3e 4d 39 a1 bd
       -0.21297051 0.30524856 0.3965411 -0.078722574
000280 e2 17 91 be 59 e8 2f 3e a2 be 8f be 69 c6 5d bc
       -0.28338534 0.17178477 -0.2807513 -0.013536074
000290 91 d2 94 3e 1a c9 b8 3e 87 09 9a be 1a 20 53 be
       0.290669 0.36090928 -0.30085394 -0.20617715
0002a0 41 09 4f be 50 fe 11 3e 1d 02 e9 3d 2d bb 70 be
       -0.20218374 0.14257169 0.11377356 -0.23508902
0002b0 72 32 89 3e 0a 7c 46 be df dc fa 3e c1 ae 7f 3d
       0.267963 -0.19383255 0.48996636 0.062422518
0002c0 2b 8e e3 3d ef d7 5e 3e 49 66 95 3e 0c 11 fb bd
       0.11111101 0.2176206 0.291796 -0.12259111
0002d0 bc ac c9 3d 30 51 a3 3e 1e c5 08 3e a4 71 4a bf
       0.098473996 0.3189788 0.13356444 -0.7907965
0002e0 56 c9 03 be 57 dc 0a be b0 bf 3a 3d 86 81 2f 3e
       -0.12869772 -0.13560615 0.045592964 0.17139253
0002f0 a6 48 cf 3d 0d 25 95 3d 07 06 54 3e 0f 7c 86 bd
       0.101212785 0.072824575 0.20705424 -0.06566631
000300 82 fe 8f be a9 13 8a 3e f1 22 2a 3d 66 d2 3e bf
       -0.28123862 0.26968125 0.04153723 -0.7453979
000310 0c de 3a 3e d1 5a 17 bf 63 8a 36 3e eb b0 a8 be
       0.18248767 -0.5912295 0.17826228 -0.32947478
000320 b2 52 0f 3f 38 11 91 3e de ac 90 3e 75 60 c0 3d
       0.5598556 0.2833345 0.28256887 0.09393398
000330 57 04 99 3d 45 41 ab be e5 b8 7b 3a ee 5b bd 3e
       0.07471531 -0.33448234 0.00096024416 0.369842
000340 62 e9 e0 be 4a 24 79 3e 02 7c c5 be c1 57 4d 3e
       -0.43928057 0.2433025 -0.38571173 0.20053007
000350 d5 fe b3 3d f5 b6 ab 3e 53 c2 83 be f3 de 1f bf
       0.0878884 0.33538023 -0.25734195 -0.6244957
000360 74 ce 0e be 81 77 d6 3d 71 be 3b be c8 e6 5d 3f
       -0.13945943 0.10472012 -0.18334366 0.8668027
000370 5b ea 3d 3e fb ea 84 bd 82 80 a8 be e3 dd 1c 3e
       0.18546431 -0.064901315 -0.32910544 0.15319018
000380 ac db 12 3e 6f 1b 77 be 13 5b 8a 3d 16 06 f1 3e
       0.1434161 -0.24131559 0.06755652 0.47074956
000390 74 26 4d 3d 1d fc 35 3f 6c d0 ed 3d 02 84 13 3e
       0.0500855 0.7108782 0.11612019 0.14405826
0003a0 25 7c bc be 0e 8b 94 be a9 d1 ff 3d e7 ba 2c 3e
       -0.36813465 -0.2901234 0.124911614 0.16868173
0003b0 45 8b af bd a6 4b ae 3d 77 74 ab 3d 42 10 39 be
       -0.085714854 0.085105225 0.08371823 -0.18072608
0003c0 5f 12 43 3e 65 d6 59 3d 65 73 72 3e 80 61 ae bd
       0.19049977 0.05318298 0.23676832 -0.085146904
0003d0 97 10 da bd 42 d4 07 bf 34 ce 88 3e ac f1 45 3e
       -0.106476955 -0.53058255 0.2671982 0.19330472
0003e0 a2 77 a5 be 7f 40 52 3d fc 24 93 bc 9c de 17 3e
       -0.32317835 0.05133104 -0.017961971 0.14831012
0003f0 8d ef 35 3d b5 40 5d bd 3d 72 d6 bc 7b fc a4 be
       0.044417907 -0.054016788 -0.02617752 -0.32223877

bias f4 [64]
000000 4c 70 bd 3c 55 99 db bc eb 94 7e be a3 d7 a2 3d
       0.023124836 -0.026806513 -0.24861495 0.07951286
000010 9d 60 92 3b 87 82 36 3e fa 83 14 3e 67 a8 80 3e
       0.0044670836 0.1782323 0.1450347 0.2512848
000020 ef 81 12 be ca e6 e1 bd c8 47 87 bd e0 9c 49 be
       -0.14307378 -0.11030348 -0.06605488 -0.1968875
000030 1f cd 22 be 4e f9 cd 3d 9b 67 46 3e d4 fb 04 be
       -0.1589856 0.10057317 0.1937546 -0.1298669
000040 3f d2 9a 3d e4 65 de bd b3 28 38 3e 5c 1d 62 3b
       0.075596325 -0.10859278 0.17984276 0.0034502363
000050 05 cf 1f be 31 39 a0 be 8b 3b aa 3b 30 b0 9e b9
       -0.15606315 -0.31293634 0.0051950864 -0.00030267378
000060 f2 e2 8a bc 5c 21 83 3e 0d 6c fc bd 47 5e 0f 3e
       -0.01695392 0.2561139 -0.123252966 0.14000808
000070 17 04 03 3e 57 cd 1f 3e 73 ba 78 3e 64 22 31 be
       0.12794529 0.15605675 0.24289875 -0.17298275
000080 83 77 e6 3c 25 c6 12 bd 6a 4e 45 be 7d 54 b1 3e
       0.02813316 -0.035833497 -0.19268194 0.34634772
000090 06 bb a5 be 1d b7 c0 bb f9 81 0e 3e 82 82 a8 3e
       -0.3236925 -0.005881204 0.13916768 0.3291207
0000a0 4b 66 76 bd 8b dc 80 be 8d b5 97 3d 7c 8f a3 3c
       -0.060156148 -0.2516826 0.07407675 0.01996588
0000b0 39 b0 af be c8 6d 28 be e1 82 53 3e 63 f7 8d 3e
       -0.34314135 -0.16448128 0.20655395 0.27727804
0000c0 49 09 64 3d 28 d5 8f 3e 03 70 85 3e 9a af 4b be
       0.055672918 0.28092313 0.2606202 -0.19891205
0000d0 ec c7 79 3e a2 cf 65 be 51 68 ac 3d a3 55 b2 3e
       0.2439267 -0.22442487 0.08418334 0.3483096
0000e0 0e 91 8a be 99 aa aa 3d cf 03 04 be 04 c9 52 be
       -0.27063793 0.0833332 -0.12892078 -0.20584494
0000f0 f0 cd 18 bc 2a 49 32 bd ed 2a 05 3e 41 20 0d be
       -0.009326443 -0.043526806 0.13004656 -0.13781835

weight f4 [1, 64]
000000 b5 fa 26 3f 60 03 f3 bf 9b d2 60 40 d6 bb 09 c0
       0.652263 -1.8985405 3.5128543 -2.1520896
000010 87 2a 7f 40 b4 46 85 c0 c0 b5 76 c0 a5 5a 7a c0
       3.9869707 -4.1648808 -3.8548431 -3.9117825
000020 01 b5 6d 40 8f 74 25 40 53 95 83 40 3d 76 83 40
       3.7141726 2.5852392 4.111978 4.1081834
000030 c9 65 82 40 0a 83 70 c0 da 9d 8a c0 c2 0c 7d 40
       4.074925 -3.757998 -4.331769 3.9539037
000040 b6 5e 5e 40 28 11 b6 3f 48 2b bc bf 35 cd 4c c0
       3.4745307 1.4223986 -1.4700708 -3.2000248
000050 29 27 81 40 69 86 32 40 56 4c e7 3e 39 07 d0 bf
       4.0360303 2.7894537 0.45175427 -1.6252204
000060 96 ff 32 c0 d3 3d 84 c0 0b ea 34 c0 d1 df 66 c0
       -2.7968497 -4.132547 -2.8267848 -3.6074107
000070 36 1e 13 3e 1a fd cb bf 86 df 1a c0 d7 87 01 40
       0.14366993 -1.5936615 -2.4198928 2.023916
000080 d8 cc 10 c0 18 22 63 40 24 e9 4c 40 c0 12 83 c0
       -2.2625027 3.548956 3.2017298 -4.096039
000090 b7 a8 d3 3f 38 92 27 c0 d5 19 e5 bf 0d 04 7f c0
       1.6535863 -2.6182995 -1.7898508 -3.9846222
0000a0 97 4c 82 3f 3d c5 5d 40 fd 28 55 c0 b3 c8 ee 3f
       1.0179623 3.4651635 -3.3306267 1.8654999
0000b0 53 a7 73 40 97 23 f1 3f 06 74 81 c0 ed 98 84 c0
       3.8070877 1.8838986 -4.045413 -4.1436677
0000c0 c2 68 cf bf 09 d7 81 c0 ef b1 80 c0 3e 5a 87 40
       -1.6203845 -4.0574994 -4.0217204 4.229766
0000d0 97 9f 84 c0 19 bd 77 40 c3 fb 45 c0 dd 6d 2c c0
       -4.144481 3.8709166 -3.0934913 -2.6942055
0000e0 07 e7 2d 3f bc 85 16 c0 2d 78 80 40 06 4c 14 40
       0.67930645 -2.3519125 4.01467 2.31714
0000f0 57 9f be bf 00 84 52 40 35 42 30 40 1a 12 50 40
       -1.4892377 3.2893066 2.754041 3.2511048
