output/ppo/2021-12-17_19-30-05-ppo_s3/pyt_save/model.pt (torch_old, 47572 bytes, 12 tensors)

log_std f4 [3]
000000 a8 a7 d0 bf 61 41 d8 bf f0 d1 9c bf
       -1.6301165 -1.6894952 -1.2251568

weight f4 [64, 16]
000000 89 42 70 be 15 4d c4 bd 76 46 de bd be 56 72 be
       -0.23462881 -0.09585015 -0.10853283 -0.23665902
000010 34 be 7d bd e8 99 5f be 21 c3 e7 3d 98 b5 08 3e
       -0.06194897 -0.21836054 0.11316515 0.13350523
000020 46 99 8d 3d fc da 33 3e f3 80 2a 3b 8f c4 32 3e
       0.06914 0.17564005 0.00260168 0.17457794
000030 8c ef 44 be 1c 51 29 bd 16 40 19 be ba 6b 15 bd
       -0.19232005 -0.041337118 -0.14965853 -0.03647969
000040 6f a7 9d be a5 99 41 bd 08 24 89 3e fb 7c 0d bd
       -0.30791804 -0.047265667 0.26785302 -0.03454302
000050 e2 32 a9 3e 77 24 8a be a8 58 26 3e cb 16 5e be
       0.33046633 -0.26980945 0.16244757 -0.21688382
000060 58 1a a0 be 43 cc 1a be a4 3f e0 bd 2b ef fb 3c
       -0.312701 -0.15116982 -0.109496385 0.030753693
000070 b1 81 3f be 9d b2 48 be b6 de f2 bd 14 3c 20 3e
       -0.18701817 -0.19599386 -0.11858885 0.15647918
000080 49 66 d6 be f6 84 d6 bb e7 ff aa be 76 01 6f be
       -0.41874912 -0.006546612 -0.33398363 -0.23340401
000090 4b fb 8a be 06 4e f9 be 90 7c 35 be 55 3a a4 bc
       -0.27144846 -0.4869234 -0.17723298 -0.020047346
0000a0 d1 e1 9b 3d 0d e8 8d bd b1 38 17 bd c9 95 06 be
       0.076114304 -0.06929026 -0.0369193 -0.13143076
0000b0 2b 25 c8 3d af 3e c5 bd ec 18 46 be 63 04 bb bd
       0.09772714 -0.096310966 -0.19345444 -0.09131696
0000c0 7b 8b 11 be a4 29 be 3e 03 7a 68 be 58 f6 2c be
       -0.14213364 0.37141144 -0.22702794 -0.16890848
0000d0 93 bf 26 be 6d 0c de 3d 2d 14 33 3e df d2 d8 3d
       -0.16284017 0.10842214 0.17488165 0.105870955
0000e0 18 30 80 bd 42 d7 6d 3e 40 a4 ad 3d 34 48 06 be
       -0.06259173 0.23226646 0.08478594 -0.13113481
0000f0 6e b9 4f 3e 63 32 59 3d 5d e8 35 be 88 40 b3 bd
       0.2028558 0.05302657 -0.17764421 -0.08752543
000100 fd fa 4a bd 73 68 e1 3d bd c7 f0 3d 5d 5e da bd
       -0.049555767 0.1100625 0.11756847 -0.106625296
000110 32 29 33 be 31 e2 63 3e 5a d0 ed 3c ec 78 0f 3e
       -0.17496184 0.22254254 0.029030014 0.14010972
000120 dc 62 a0 bd 43 00 04 3c ad 7c 16 3e e7 7a b6 3d
       -0.07831356 0.008056703 0.14695998 0.089101605
000130 6b 1b 13 3d 20 65 53 3e 56 77 ca 3d 7f b0 31 3e
       0.03591482 0.20644045 0.09886043 0.17352484
000140 39 d4 55 bf fe 69 b3 be db 2d 00 bf 29 7a d5 3e
       -0.8352695 -0.35041803 -0.5006997 0.41694763
000150 d1 8f ad 3e 61 de 4e bf ff 17 37 3e a2 9d 19 be
       0.33898786 -0.80808073 0.17880248 -0.15001538
000160 07 77 12 be 76 10 dd bd 19 54 9f bd 2e 38 bc 3d
       -0.14303218 -0.10794155 -0.07779712 0.09190403
000170 d9 34 6e be f0 00 a6 3e f9 ac 96 bc 62 e3 83 3d
       -0.23262347 0.3242259 -0.018393027 0.06439854
000180 b1 0a d6 be 46 48 f6 3c e1 18 43 be 72 e8 58 be
       -0.41805032 0.03006376 -0.1905246 -0.21182421
000190 bf b0 e2 3d 4e f3 06 be cd 5c 5c bd a2 61 be bd
       0.11068868 -0.13178751 -0.05379944 -0.09295966
0001a0 8a 2c 73 bc 18 fd eb bd 91 d9 36 bd 56 8f f6 bd
       -0.014842162 -0.11522883 -0.04464108 -0.12039058
0001b0 b6 fc fa 3d 21 15 48 be fc 19 a6 3d f7 18 e1 3d
       0.12255232 -0.1953931 0.08110425 0.1099109
0001c0 0d a5 fc be 1e 17 cf be 71 ab 0e 3f 59 2e 0d bf
       -0.49344674 -0.40447325 0.5573035 -0.55148846
0001d0 ea f5 d6 3e fe 12 af bd 1f 38 0a be 55 37 18 3e
       0.41984493 -0.08548544 -0.13497971 0.14864857
0001e0 d1 f9 3e 3e ab 44 89 be eb 99 69 be 26 ad 31 bd
       0.18649985 -0.26810202 -0.22812621 -0.043378018
0001f0 32 ed 8a be da 2e 33 be 16 4c 0c 3e 3b 5f e0 bc
       -0.2713409 -0.17498341 0.137009 -0.02738916
000200 39 dd 1d be b7 d7 87 3d ae f8 32 3f 72 f7 07 be
       -0.15416421 0.06632941 0.69910705 -0.13277987
000210 c3 96 0d 3d b8 27 10 be 3d ad 84 be 94 1e e8 bc
       0.034567606 -0.14077652 -0.2591342 -0.028334893
000220 0f 1f ce 3d 54 46 c1 3d 71 e9 6a be 6e 17 99 3c
       0.10064518 0.09437242 -0.22940613 0.01868793
000230 bd 20 94 be 2f 67 83 bd c7 90 ac 3c e4 9c 10 3d
       -0.28931227 -0.06416165 0.021065129 0.035305873
000240 12 52 1a be 7d b2 78 bc e1 13 5f be e8 3b ba bd
       -0.1507037 -0.015179274 -0.21784927 -0.090934575
000250 5b c8 ca 3d 4f a1 34 3e 1c ef 22 be d9 cc b7 3e
       0.09901496 0.1763966 -0.15911525 0.35898474
000260 50 43 db 3d 15 7b 72 3e d5 55 7f 3e 9f 65 5b be
       0.10706198 0.23679765 0.24935086 -0.21425484
000270 7c c6 30 3e bd 78 d7 3b 22 1c 68 3d 93 7e d2 bd
       0.17263216 0.0065756724 0.056667455 -0.10278048
000280 f5 d3 c0 be 01 1d 73 bb 26 5c 44 be 17 41 0e 3f
       -0.3766171 -0.0037096145 -0.19175777 0.5556807
000290 e6 f1 11 be ce 32 de be b7 d6 2d 3e 6f 00 12 bd
       -0.14252433 -0.43398136 0.16976438 -0.035644945
0002a0 5d cc b1 3d 5e 74 dd bd 15 30 2d 3d 9b 9d 88 3d
       0.08681557 -0.10813211 0.042282183 0.06670686
0002b0 a2 de 8d be ff 07 a9 3d 3a 90 04 bb c5 1f 8e 3d
       -0.27708918 0.08253478 -0.0020227567 0.06939653
0002c0 1f d3 1b bd 66 2c ed 3e 2f a2 9d 3e c0 15 4c bc
       -0.038043138 0.46322936 0.307878 -0.0124563575
0002d0 a1 f4 85 bd 66 95 f3 3d 9c d3 8e 3e 85 8c 41 3e
       -0.065408 0.1189373 0.2789582 0.1890126
0002e0 82 a8 d4 bd 49 16 ca 3d 6b b5 6d 3c a1 02 4f 3e
       -0.10383703 0.09867532 0.014508585 0.20215847
0002f0 51 63 33 be 0a 7e 6f 3d b4 bc 94 3e 56 80 f7 bd
       -0.17518355 0.05846981 0.2905022 -0.12085025
000300 69 b0 85 be 39 1d 9d 3d 5c 14 ea 3e aa a3 ab 3e
       -0.26111153 0.076715894 0.45718658 0.33523303
000310 68 9c 0d bd 3c b3 83 bd 05 54 b4 bd a4 e4 1e 3e
       -0.03457299 -0.064306706 -0.08805088 0.15516907
000320 79 9a 8c be a6 2d 16 3e 60 b9 f3 3d 0f 5a fb 3d
       -0.27461603 0.14665851 0.11900592 0.12273037
000330 02 14 5a 3e cc 14 05 be 1e 08 23 3e 6a ff 4d be
       0.21296695 -0.12996215 0.15921065 -0.20116964
000340 cd 54 11 3e 20 1d dc be ee 9a e3 be 00 56 7c 3e
       0.14192505 -0.4299097 -0.4445414 0.24642181
000350 5a 16 04 3f 52 22 22 3d fe 75 0c be e5 19 37 be
       0.51596606 0.03958351 -0.13716885 -0.17880972
000360 0e 22 47 bc f9 0c 49 bd 4b 30 8a 3d 5e e9 3a 3e
       -0.012154115 -0.049084637 0.067474924 0.18253085
000370 a1 e8 1f be 90 72 5d be ff c5 2b 3d b5 76 2f 3e
       -0.15616085 -0.21625733 0.04193687 0.17135127
000380 bd 4a ba 3e 2a 03 44 be af d7 df bd 72 19 60 3e
       0.36385146 -0.19141832 -0.1092981 0.21884707
000390 f2 9b b2 3e 60 4d e6 bb db cc c6 bc d9 da 59 3e
       0.34884602 -0.007028267 -0.024267605 0.2127489
0003a0 8e fc 02 bd 9c 7c 6e 3e 99 d5 b1 3d a9 e2 7c 3e
       -0.031979136 0.23289722 0.08683319 0.24695839
0003b0 dc 49 78 be bd f7 11 3c 00 bf 7d 3d c5 81 34 3e
       -0.24246925 0.008909163 0.06194973 0.17627628
0003c0 e5 e0 71 3d b2 7d 4c 3e e8 ba fe bd 0c 5d 28 bd
       0.059052367 0.19969824 -0.12437993 -0.04110436
0003d0 1b 75 7a 3d 2c 01 3a 3e 6a 33 a1 3d 76 e6 a2 3d
       0.061146837 0.1816451 0.078711346 0.07954113
0003e0 d8 d7 b0 bc 3e ec 30 3d 2c 2a ef 3d 6d 99 cf 3d
       -0.021587297 0.043194048 0.116779655 0.101366855
0003f0 9f d7 92 3e 71 0a a2 be e2 a1 ef 3d f5 d3 c2 bd
       0.2868013 -0.3164859 0.117007986 -0.09513084

bias f4 [64]
000000 27 01 81 bd 7a 6b 26 3e 00 8e 04 be 53 8b c7 3a
       -0.06299048 0.16251937 -0.12944794 0.0015224017
000010 1a c1 0f be 32 ab 83 be 72 9d 9e bc 8d 64 30 3e
       -0.14038506 -0.2571655 -0.019362185 0.17225857
000020 9e 43 30 3e 91 a8 89 3d 64 b8 b6 3d df 3a 08 3e
       0.17213294 0.067216046 0.089218885 0.13303708
000030 ea 76 7f be bb 7b 8d 3c c4 39 dc 3d 52 ed e3 bd
       -0.24947706 0.017270913 0.107532054 -0.1112925
000040 0f 16 f0 bd 6a 63 31 be 4d 60 88 3d f8 13 3a 3b
       -0.11722957 -0.1732308 0.06658993 0.002839325
000050 9b 90 58 be 93 8f 02 3e e9 af ed 3c 88 5f 3e 3e
       -0.21148913 0.12750082 0.029014545 0.1859113
000060 7c 41 d8 3a 42 01 64 bd 51 f8 35 3e 93 ed 49 3e
       0.0016499008 -0.055665262 0.17770506 0.19719534
000070 2a fa 6c bd ad 6f d0 bd 9e e6 31 be e0 5a 91 ba
       -0.057855763 -0.101775505 -0.1737313 -0.0011089705
000080 b4 1c 4d 3e ca 45 6d be 86 d9 2f 3d 8d 7e 79 3e
       0.2003048 -0.23171154 0.042932056 0.24364682
000090 9a 4d 3a 3e cd 6d 85 be bf 09 1c 3e 70 05 10 3e
       0.18193665 -0.26060334 0.15238093 0.14064574
0000a0 0f 7f 1b 3e 4c 80 d3 bc 33 5a 28 3d ae 3e 04 3e
       0.15185188 -0.025818013 0.041101646 0.12914535
0000b0 db 46 9a bd c3 3a 09 3d dc 78 c6 3d 0f f8 6d 3e
       -0.07533046 0.033503305 0.09691021 0.23239158
0000c0 e8 19 78 3e de d7 9b bd 6f 3f 2a bd bb 33 99 3c
       0.24228632 -0.07609533 -0.0415644 0.018701425
0000d0 32 3d 05 3d d4 30 36 bd d0 12 15 3e 05 80 49 be
       0.032529064 -0.04448016 0.14557958 -0.19677742
0000e0 28 9a 5b be f7 50 8b bb 1f a8 f7 3d 9c 4b 54 3e
       -0.21445525 -0.004251595 0.120926134 0.20731968
0000f0 92 b7 8b bd fd 32 6d 3e ca 64 24 be c2 4b 26 be
       -0.06822123 0.23163982 -0.16054073 -0.16239837

weight f4 [64, 64]
000000 e4 05 f0 3c e6 60 1f 3d 1c 45 a5 ba e6 85 53 bd
       0.029299684 0.03891077 -0.0012609097 -0.051641367
000010 63 2f c6 3d 0b 70 06 be 73 70 d2 3c e8 ed 0b 3d
       0.09677007 -0.13128679 0.025688386 0.034162432
000020 4e 6a 42 3d b5 44 0e be 4e 98 b9 bc 56 b0 c4 bd
       0.04746466 -0.13893397 -0.022655632 -0.09603946
000030 27 a9 82 3d 6d 1a ae 3d 88 da 8a 3d 59 3d fe 3d
       0.063799195 0.08501134 0.06779963 0.12414045
000040 6d bb 1b 3e 07 f5 d9 bd 9e e2 3d bd 95 75 11 3d
       0.15208216 -0.106424384 -0.046358697 0.035512526
000050 7f 5c c0 3d ff d3 df bc 1b ef 0e 3e aa 87 a4 3d
       0.09392642 -0.027322767 0.13958399 0.08033688
000060 9c 59 cb 3d ac d9 2a 3d e8 b6 45 3d 11 2a da bd
       0.09929201 0.041711494 0.048270136 -0.10652555
000070 0f 6e 2d 3d 2d 90 1d 3d 86 f1 8d 3d f1 86 c5 bc
       0.04234129 0.038467575 0.069308326 -0.024112197
000080 ad d5 8c bd 40 99 aa 3d 99 56 f4 3d 98 a9 69 3b
       -0.06876693 0.08330011 0.1193058 0.0035654064
000090 23 0c 1e bc aa ac e1 bd ca 29 c6 3d dd 3a 1f 3c
       -0.009646448 -0.11019261 0.096759394 0.009718624
0000a0 50 c4 07 be 5d 55 4e be 6b 6b 00 be c1 d8 95 3d
       -0.13258481 -0.20149751 -0.12540977 0.07316733
0000b0 26 58 a8 bd 60 bd 27 bd 60 0e 8f bd 0b c8 2d bd
       -0.08219938 -0.040952086 -0.06985164 -0.042427104
0000c0 31 d2 8a 3d dd 78 9a bd 9c eb a3 3d ad ba ad 3d
       0.06778372 -0.07542584 0.08003923 0.08482871
0000d0 79 1d a5 bd 37 bd dc bb 52 24 a3 bc 70 7a cd bc
       -0.08062262 -0.0067364234 -0.01991478 -0.025082797
0000e0 a2 a8 21 3d 67 e6 a7 3c 21 40 e8 3d 09 de a9 bd
       0.03946746 0.020495607 0.113403566 -0.08294303
0000f0 71 55 11 be b6 3a 34 3d 66 9b 26 3b 9f 3c d7 3d
       -0.1419275 0.044001304 0.0025422215 0.105096094
000100 10 48 10 3d d9 df ef bc 5b 95 a5 bc 55 0b d1 3d
       0.035224974 -0.029281544 -0.02021282 0.102072395
000110 83 0b cf 3c 34 03 4e bd 64 3a b7 3d 8b 50 0a 3e
       0.025274044 -0.050296023 0.08946684 0.13507287
000120 79 03 82 3c 52 68 c9 3c ef 0c c9 bd fe 69 8a 3d
       0.015870797 0.024585877 -0.0981692 0.06758498
000130 a4 ef f8 bc fb 9f 18 be bf 35 77 bd 15 e6 23 3d
       -0.030387707 -0.14904778 -0.06035399 0.040014345
000140 36 a1 9d 3d d6 be 3a bd 35 2c d8 3d a6 04 b8 bd
       0.07696764 -0.04559215 0.10555307 -0.089852616
000150 70 f0 e5 3c a2 6a ae bd 6d 7d 9c 3d fe 8a 98 3d
       0.028068751 -0.08516432 0.076411106 0.07448386
000160 b6 be bf 3d 04 c6 03 be 70 ac 6f 3d ae a4 92 bd
       0.09362547 -0.12868506 0.05851406 -0.071603164
000170 f6 de fd 3d 62 b2 a2 bc 8c 03 b6 3d f2 ee 4c bc
       0.12396042 -0.01986045 0.08887395 -0.012508141
000180 2b e7 11 3c 86 df ce 3d 0e 62 e7 3d 5c 4d ff 3d
       0.008905212 0.101012275 0.11297999 0.12465927
000190 30 25 78 bd 11 c5 67 bd 88 a0 4e bb b5 5c 4a 3d
       -0.06058234 -0.05658442 -0.003152879 0.04940482
0001a0 99 56 e2 3d 77 c5 0e 3e f4 18 05 3d b1 ba 19 bc
       0.110516734 0.13942514 0.0324945 -0.00938289
0001b0 75 7f 9c bd b9 fb 63 ba ad 92 2a bd 4a b1 97 3d
       -0.07641498 -0.00086968724 -0.041643787 0.07406862
0001c0 22 96 9c bc 3a 81 8f bd 86 28 c4 3d 41 a0 88 bd
       -0.019114558 -0.0700707 0.09578042 -0.06671191
0001d0 f4 cd ad 3c 96 c7 30 3b 9e bf bd bb aa be b2 3d
       0.02121637 0.0026974431 -0.005790665 0.087277725
0001e0 7b 19 0d be 06 69 e6 3d 64 94 5a 3b 45 c0 a1 3d
       -0.13779251 0.112505004 0.0033352608 0.07898001
0001f0 01 3a fb bd 55 58 8e 3d 31 13 d4 3c 6e ee b8 3b
       -0.12266923 0.06950442 0.025888057 0.0056436574
000200 98 f9 4b 3d fd ac 51 bd f0 b7 88 bd 85 f7 45 bc
       0.049798578 -0.051190365 -0.06675708 -0.012082939
000210 15 1f e1 bd ba e4 3e 3c 6f b1 00 3c 2d 58 21 bd
       -0.109922566 0.011651212 0.007854803 -0.03939073
000220 cd 09 86 3d 7d fd dd 3d 16 52 e3 bc 59 03 eb bb
       0.06544838 0.10839365 -0.027749103 -0.00717203
000230 61 d5 a4 3c 7a 4b 17 be c3 10 74 bc 49 12 f4 3c
       0.020121278 -0.14774886 -0.014896574 0.029793875
000240 6e d5 ab bd a4 f9 24 3c e3 b8 ca 3c 20 83 a5 3d
       -0.08390318 0.010069285 0.024746364 0.08081651
000250 2d 4f 28 be c9 f0 05 3c 0d 60 2b be e5 86 9a bc
       -0.16436453 0.008175083 -0.16735859 -0.01886315
000260 80 29 90 3d 17 a2 80 3d cf 4d be 3d 51 1b 53 bc
       0.070391655 0.06280916 0.092921846 -0.012884931
000270 ab 99 b3 bd 8a ee b0 bd eb 0b 93 3d 7c 33 00 3e
       -0.08769544 -0.08639248 0.071800075 0.1251964
000280 f3 ac 08 3e c7 0e 01 3d 11 c5 33 3d 6f 48 fc 3c
       0.13347225 0.031508233 0.04388911 0.030796258
000290 c3 7e d3 bd cc d3 86 3c 7f 64 e6 bd b0 dd 98 bd
       -0.10326912 0.016458414 -0.11249637 -0.074641585
0002a0 8a 9e 6d 3c f5 92 e0 3d 47 d6 07 bd 40 55 8f bd
       0.014503131 0.1096553 -0.033163335 -0.06998682
0002b0 a1 f7 11 be 9d 66 ae bd 1f eb 08 3c 97 6b bb bd
       -0.14254619 -0.08515666 0.0083568385 -0.091513805
0002c0 8a 24 2d 3e c8 47 de bd 75 d4 68 bc f0 e7 fe bd
       0.1690847 -0.10853535 -0.01421081 -0.12446582
0002d0 d9 80 dc 3c ee 3f 65 3d d2 a3 9a bc 1d e4 c4 b9
       0.026916908 0.05596917 -0.018876944 -0.0003755399
0002e0 c3 31 db bd 4d e9 e2 bc c1 b5 44 bd 94 50 9b 3d
       -0.10702851 -0.027699137 -0.048024897 0.075837284
0002f0 98 76 01 3e 96 4f ba 3c ef d2 a0 bd 56 04 e8 bc
       0.12642896 0.022743028 -0.078527324 -0.02832238
000300 f8 7c d5 3d f8 76 2f 3d a6 0b 1a be 50 42 af 3c
       0.104242265 0.042838067 -0.15043506 0.021393925
000310 22 8e 2a 3d bf 5d 53 bd 63 fc 97 bd 53 bb fe 3c
       0.041639455 -0.051603075 -0.07421186 0.031095183
000320 fc 69 b4 bd 53 93 c2 3d 45 2a 6d 3d f0 d5 8b bd
       -0.088092774 0.09500756 0.05790164 -0.06827915
000330 07 44 bf 3d 17 c6 04 bb 84 d7 0c 3e 74 62 47 bc
       0.09339147 -0.0020259672 0.13754088 -0.012169469
000340 b2 c5 c7 bd 55 14 90 ba 24 b7 ce 3d 0e 59 a3 bd
       -0.09754504 -0.0010992388 0.10093525 -0.0797597
000350 5e dc a6 3c 6b 7a 93 3d c6 cb 39 bc 19 c6 e1 bc
       0.020368751 0.07201084 -0.011340087 -0.02756028
000360 93 53 89 bd 90 21 8a 3d 7c 36 5a 3b 55 94 a6 3b
       -0.06705394 0.06744683 0.0033296635 0.0050836005
000370 60 c4 b0 bd 05 70 f4 bc 89 18 2d 3d f6 fa 8c 3d
       -0.086312056 -0.029838571 0.042259727 0.068838045
000380 59 d6 0f bc c8 a0 af 3d 92 a3 8f bd ce 67 05 bd
       -0.008779132 0.085755885 -0.070136204 -0.0325697
000390 2d 87 63 bc 5f a1 cf bd d5 8d b9 bd a2 85 ae 3d
       -0.013887209 -0.10138201 -0.090602554 0.08521582
0003a0 1f 48 ba bb fc 9e dd bc 2a 32 d6 bc f3 c2 b7 bd
       -0.005684867 -0.027053349 -0.026146967 -0.089727305
0003b0 fa fe 75 bc 09 1b 83 3d 98 c1 9a bd 98 98 82 3c
       -0.015014404 0.06401641 -0.07556456 0.015941903
0003c0 5d 83 b3 bd 16 a3 9f bd 42 84 9a bd e4 5e 0e bd
       -0.0876529 -0.07794778 -0.075447574 -0.034758464
0003d0 e8 b1 bb 3d d5 ea e5 bc 1e a1 4b bd 5c 36 ee 3d
       0.09164792 -0.028066078 -0.0497142 0.11631462
0003e0 21 44 87 3d 94 23 95 3d 2d 3d 2e bd a9 38 fa bd
       0.066047914 0.072821766 -0.04253881 -0.12217838
0003f0 f9 64 87 3d 07 ca 7a 3d 53 7c 24 3c 46 e9 10 3e
       0.06611056 0.061227825 0.010039407 0.14151487

bias f4 [64]
000000 ec 81 05 3d b2 8b 01 bd 92 9d df bd 10 72 e5 bd
       0.032594606 -0.031627364 -0.10918726 -0.11203396
000010 5f cf 29 bd a1 3d a9 bd 70 4c de 3d 63 cd 8b bd
       -0.04145753 -0.08263708 0.10854423 -0.06826284
000020 1f ed 3e 3d b6 ae e0 bc fd f2 1f b9 c2 e2 d8 bd
       0.046612855 -0.027427059 -0.00015253942 -0.105901256
000030 d2 71 4b 3c cf d2 c7 bc bc f3 8e 3d de 54 ba 3d
       0.012417274 -0.024392514 0.069800824 0.090982184
000040 70 25 d8 bd 68 9d 48 bd d1 a6 d9 bd c4 37 04 be
       -0.10554016 -0.04897824 -0.10627521 -0.12911898
000050 c8 0d 1f 3d 9d 3b 7a bc b7 b2 f9 bd 62 48 a2 3d
       0.038831502 -0.015273002 -0.1219229 0.07923962
000060 92 46 d2 3d f2 ee 37 3d ec 0f 98 3d 51 93 eb bd
       0.102673665 0.04490561 0.07424912 -0.11502708
000070 1d ce e2 3d 2d 38 88 bd 3a 58 b1 3d 72 b0 83 bd
       0.11074469 -0.0665134 0.08659406 -0.06430139
000080 9e 1c 82 bd 67 27 b0 3d 00 07 d3 3d 6f d0 b9 3d
       -0.063531145 0.086012654 0.103040695 0.09072959
000090 56 0e 10 bc 46 fc 00 be 16 09 96 bd 8e 08 b5 3c
       -0.00879248 -0.12596235 -0.07325952 0.022098806
0000a0 44 86 9c bb a4 bc e7 3d 8a b8 f2 3d 81 2e c3 3d
       -0.004776748 0.11315277 0.11851604 0.09530354
0000b0 36 87 96 bd 70 3f 91 3a 01 c3 c8 3c 21 db ac 3d
       -0.07350008 0.0011081528 0.024507048 0.08440233
0000c0 62 d7 88 bd 71 01 77 bd b5 da d3 bd e3 cf 41 bd
       -0.06681706 -0.06030411 -0.103444494 -0.047317397
0000d0 2c cd 3c bc bf 18 9c bd 53 99 07 bc 2a 72 65 3d
       -0.011523526 -0.076219074 -0.008276301 0.05601708
0000e0 b8 57 5b 3d 2b c4 a2 bd 6f e6 d6 3d 8f 2a 93 bd
       0.053550452 -0.07947572 0.104931705 -0.07185852
0000f0 e7 a8 c9 3d d9 59 ff bc 27 12 ee bd a5 0e 8c bc
       0.09846669 -0.031170772 -0.11624556 -0.017096827

weight f4 [3, 64]
000000 e4 ae d0 3d c5 47 e5 bd 31 ce a3 bd ce a6 54 bc
       0.10189608 -0.111953296 -0.07998312 -0.012979222
000010 d5 be 10 bd d7 d5 82 3d 64 ed 92 3d 7f 94 03 3e
       -0.03533824 0.06388443 0.07174185 0.12849616
000020 f3 2d 84 ba e0 8e cb bd 85 fa 82 bd 05 66 46 bd
       -0.0010084495 -0.099393606 -0.06395439 -0.048437137
000030 65 8c e0 bb 8f ff c9 3d f7 cf 86 3d f0 9f 4e bd
       -0.006852674 0.09863197 0.06582635 -0.050445497
000040 99 a9 c6 bc df a5 13 bd 4c 73 70 3d d6 1a 53 bc
       -0.024250792 -0.03604686 0.058703706 -0.012884816
000050 34 b1 6b 3a b4 78 81 3d 48 8e 80 3d 53 42 2a 3b
       0.0008990944 0.063218504 0.06277138 0.0025979474
000060 82 92 93 bd bd ed d0 bd 2f f0 44 3d e9 d4 0e bd
       -0.072056785 -0.10201595 0.04808062 -0.034871016
000070 cb f2 07 3e 19 65 37 bd 87 ac 72 3d 71 bb 04 be
       0.13276212 -0.04477415 0.059246566 -0.12962128
000080 f8 9a 8f bd 6b 05 71 3d c0 67 c6 bc 42 97 e0 bd
       -0.0701198 0.058843058 -0.024219394 -0.1096635
000090 9b d7 86 3c 72 9d 14 bd d5 5e b3 bd 56 7c 97 ba
       0.01646023 -0.036282964 -0.08758322 -0.0011557441
0000a0 af eb 30 bb ca 39 b5 3d 86 3c bf bc 94 5c d2 3c
       -0.0026995947 0.08848913 -0.02334429 0.02567891
0000b0 95 32 cc bd d7 1d 05 be c5 54 02 3e 1d 25 8d 3d
       -0.09970585 -0.12999664 0.1272765 0.068918444
0000c0 ec 1c 0e be 80 28 0f 3e f0 d8 75 3d e9 6a 97 bd
       -0.1387822 0.13980293 0.06002134 -0.07393438
0000d0 13 42 c1 3c 85 b1 ba bd c1 f5 0a 3e 89 35 2c 3c
       0.023591077 -0.091158904 0.1357031 0.010510811
0000e0 12 93 60 3d 87 2b fc bd e3 31 85 3d e3 c8 20 bd
       0.054827757 -0.1231299 0.06503656 -0.03925408
0000f0 41 1e 04 3e f7 ff bd 3d da 0b 2c 3d d7 b7 b1 3d
       0.12902166 0.09277337 0.04200349 0.08677643
000100 8d a3 04 3e 74 ae 0c bc d1 91 a0 bd 03 6f 31 3c
       0.12953015 -0.008586515 -0.07840312 0.01082969
000110 c2 e6 ac bd f4 e3 f8 3d b0 c5 cd 3c 32 74 dc 3d
       -0.08442451 0.121528536 0.025118679 0.1076435
000120 0a e6 03 be 2b 58 1f 3c e1 1d 45 3d 5f 19 ed bc
       -0.12880722 0.009725611 0.048124198 -0.028942762
000130 f5 da 31 be cc 68 3c bd b6 98 87 3d 73 7d 90 bd
       -0.17368682 -0.04599838 0.06620924 -0.070551775
000140 b2 59 a4 bd b7 6e ad bc 1c 05 8b 3d ae 53 c7 bd
       -0.080249205 -0.021170957 0.06788084 -0.097327575
000150 8e 6e 55 bd d1 65 a1 bd e1 dd a5 bd 3e c6 42 3d
       -0.052107386 -0.07880748 -0.08098961 0.04755234
000160 36 8a d9 3d 21 12 b6 3d fa 39 f8 3c 65 fe bb bd
       0.10622065 0.088901766 0.030301083 -0.09179381
000170 09 07 93 3d 96 f5 c5 bd 7b 3b bb 3d e3 6c 6a 3d
       0.07179076 -0.096659824 0.091422044 0.05723275
000180 80 24 ca 3d b7 3d dc bd 4c e9 47 3d e8 8c 06 3e
       0.09870243 -0.10753959 0.048806474 0.13139689
000190 a5 0c 9a bd 67 c4 02 be 5b 4d 92 bd 0d 55 c5 bc
       -0.07521943 -0.12770234 -0.07143661 -0.024088407
0001a0 88 f8 a1 bd f2 37 0c be 09 4f 84 3c a9 70 01 3d
       -0.07908732 -0.13693216 0.016150968 0.03160158
0001b0 92 1a df 3d ca 5c 9a bc 2d f9 15 3c 84 22 e4 3d
       0.1089374 -0.018843073 0.009153646 0.11139396
0001c0 21 4b cd bc 65 4f 95 3d fa 23 0c bc 50 eb 08 be
       -0.025060238 0.07290534 -0.008553499 -0.13371015
0001d0 fd 9d d2 3d a9 34 18 bd 4f d0 95 3c d7 0d 3a bc
       0.1028404 -0.037159596 0.018287806 -0.011355839
0001e0 49 26 ec 3c d9 42 fa bd 75 34 0d 3e 2e 80 d4 bd
       0.02882685 -0.122197814 0.13789542 -0.10376011
0001f0 22 66 47 3c 14 ee 66 bd 4a 1e be 3d fb 8e a7 bc
       0.012170346 -0.056379393 0.09283121 -0.02045392
000200 cb 1d ea bd ed 39 4d bc 60 60 78 3d e1 db 2d bd
       -0.11431464 -0.012526018 0.060638785 -0.04244602
000210 b6 b4 42 3c b0 0e 1d bd 23 ec 1a bd 16 21 e2 bd
       0.011883905 -0.038344085 -0.037822854 -0.11041467
000220 1b 96 6e 3c 51 1b fb bc aa c9 c4 3c b6 db af 3d
       0.014562155 -0.030652674 0.024021942 0.085868284
000230 db cf 48 bb aa d3 9e bd ee ae 89 3d 8c 6b 9a 3d
       -0.003064147 -0.077552155 0.06722818 0.07540044
000240 2f 1f 94 3c 59 75 38 3c 6c fe 89 bc a0 0f 57 bd
       0.018081276 0.011258447 -0.01684495 -0.052505136
000250 b4 c3 64 bc 6d 62 df bd 8d e4 20 3b 03 d8 8e 3d
       -0.013962675 -0.10907445 0.002455029 0.06974795
000260 ab bd 6a 3d e7 65 a5 3d 63 f9 67 bb a6 7b 98 bd
       0.057309788 0.08076077 -0.0035396449 -0.07445459
000270 f1 98 97 bc 11 0d f5 3a ff 25 ed ba 7b d4 9e bc
       -0.018505545 0.0018695911 -0.0018092989 -0.019388428
000280 2a c9 99 bd 52 7a a1 3b e7 6d b4 bc 52 2c c8 bd
       -0.07509072 0.004927912 -0.022025062 -0.097740784
000290 51 4b 48 3d 21 a1 be 3d 56 91 96 3d f1 25 1b bd
       0.048899952 0.09308077 0.073519394 -0.03787798
0002a0 d5 11 73 bd a2 39 f5 bd a3 8c cf 3d c2 99 41 3c
       -0.059343178 -0.11973883 0.10134246 0.011816444
0002b0 68 f2 49 3d 7e 6a e5 3d 77 0b ca bd e4 ff be bd
       0.049303442 0.112019524 -0.09865468 -0.09326151
0002c0 8b 7e 65 bd ba 62 c3 bd f6 62 9a 3c 0b 51 a0 bd
       -0.056028884 -0.09540315 0.018846016 -0.07827958
0002d0 3b 84 33 3c b2 d1 dc 3c 8f 8b dc 3c 12 61 b5 bd
       0.010956819 0.02695546 0.026922015 -0.08856405
0002e0 73 3e f0 bc 5d 29 e0 bd 1f 00 b1 bd 26 d5 b5 3d
       -0.029326653 -0.109453894 -0.08642601 0.088785455
0002f0 9d dc 05 be 67 0c 02 3d a9 29 a8 bc 66 d2 0a bd
       -0.13072439 0.03175011 -0.020527678 -0.033892058

bias f4 [3]
000000 5e 0a eb 3d fd 93 de bd 19 4b 59 bd
       0.11476587 -0.1086807 -0.053050134

weight f4 [64, 16]
000000 ad dd cd be e0 90 4b 3f a9 65 95 bf df fc 23 40
       -0.40208188 0.79517937 -1.1671649 2.562309
000010 3e e4 62 bf 0a c4 02 bf 1e 87 ec 3e 17 04 41 3f
       -0.8862952 -0.5108038 0.46196836 0.75396866
000020 be 7d 00 bf 48 71 4b be 18 99 38 3f 0a fa de be
       -0.5019187 -0.19867432 0.721086 -0.4355014
000030 6e 97 8c 3e 91 8c 19 3e c6 76 12 bf c6 11 da 3d
       0.27459282 0.14995028 -0.57212484 0.10647921
000040 d2 30 ae 3f 67 c0 55 3f df bb de bc a6 fc ef be
       1.3608649 0.8349671 -0.027189193 -0.46872443
000050 dd 24 2b bf 64 c7 a6 3f f2 06 89 be 37 46 ab 3e
       -0.66853124 1.3029599 -0.2676311 0.33452007
000060 34 22 8c 3e 3e c0 02 be 68 1d c8 bd d6 a5 f0 3e
       0.27369845 -0.12768647 -0.09771234 0.47001523
000070 a3 42 d7 be 8a ea 09 be f0 6d 21 bc 2d e0 db bd
       -0.42043027 -0.13468376 -0.009852871 -0.107361175
000080 4c 80 51 3d 64 09 5c 3e 8a d0 b1 bd 4a d8 72 bf
       0.051147744 0.21487957 -0.08682354 -0.9486128
000090 b2 62 07 bf 5c a3 70 be 12 c1 2f be 67 68 a1 be
       -0.5288497 -0.23499817 -0.17163494 -0.31524965
0000a0 c8 74 17 3b 20 a5 c8 bd 59 03 51 be 32 3f 1d 3f
       0.0023110379 -0.0979712 -0.20411433 0.61424553
0000b0 cd c7 1e be 8a a9 b6 bd af cb fa bd e4 aa ec bd
       -0.15505905 -0.08919056 -0.12245881 -0.11556032
0000c0 3d b5 f8 3f 0f c7 85 c0 42 7c 34 3f 0c 2c 2b c0
       1.943031 -4.180549 0.705021 -2.6745634
0000d0 ad c2 8c 40 a2 eb 07 40 58 7b 55 bf c6 79 bd 3e
       4.398764 2.123757 -0.8339133 0.37006968
0000e0 23 76 9e 3e aa 0f 3b 3d c1 1d 3c 3f 76 7f 14 bf
       0.30949506 0.045669235 0.734829 -0.5800699
0000f0 46 89 ab 3c a3 e0 c6 3d 93 93 78 3e 29 90 85 be
       0.02093948 0.09710815 0.24275045 -0.26086548
000100 2a 93 e2 3e 16 05 fc bd 2c d0 2f bd 26 8c 2f c0
       0.44252902 -0.123056576 -0.042923138 -2.742929
000110 07 85 79 be a1 28 01 3f d0 f9 bd be 0c 0e 7b bf
       -0.24367152 0.5045262 -0.37104654 -0.9806831
000120 2e 2b be be fd 70 62 3d ec 25 63 bf 34 2f 21 bf
       -0.37142318 0.055283535 -0.8872974 -0.6296265
000130 84 97 0b 3e b6 78 ef bb 44 1b 34 3b c4 46 cb bd
       0.13632017 -0.007308091 0.0027482072 -0.09925607
000140 90 c0 05 40 60 ed e4 3f fc 77 84 3f 6f c2 d2 c0
       2.089878 1.7884941 1.0349116 -6.5862346
000150 53 0f f6 bf 31 f8 f5 3f ee 65 25 bf 0f a8 69 be
       -1.9223427 1.9216367 -0.6460866 -0.22818016
000160 3c 05 f7 bd 11 16 23 3e 03 d4 26 be 36 27 a0 bf
       -0.12061545 0.15926386 -0.16291814 -1.2511966
000170 b3 79 9f 3e 21 e8 4e 3e 04 85 a5 be 70 11 d9 bc
       0.31147537 0.20205738 -0.32328045 -0.026497573
000180 d6 c1 32 bf 90 07 6c 3f e0 97 51 bd 0a 3d 44 be
       -0.6982702 0.9219904 -0.05117023 -0.1916391
000190 75 9e 2b bf ca 59 46 bf ad 1f de bd 6e fe 4f 3f
       -0.6703866 -0.7748076 -0.108458854 0.81247604
0001a0 94 61 20 bd d5 4a 15 be 4c a2 6d 3f f8 07 c0 3d
       -0.039155558 -0.14579327 0.9282577 0.0937652
0001b0 32 4d a5 3d ad d8 32 3e 2a ca 0e be c2 09 98 3c
       0.080713645 0.17465468 -0.13944307 0.01855934
0001c0 d7 5b b0 3f a5 f8 29 40 a3 c8 de be f4 9c 3c c0
       1.3778027 2.655801 -0.4351245 -2.9470797
0001d0 db 8f 16 c0 37 26 af 3f 09 7b 01 bf 15 62 55 3e
       -2.3525302 1.3683537 -0.5057836 0.20838197
0001e0 cb 0e 0f 3f ff 21 43 3e ca 75 c4 3e d5 3f 27 3d
       0.5588195 0.19055937 0.38371116 0.04083236
0001f0 43 3d 26 3d 62 7f e5 3e 2b 95 24 3f 8b 81 ea bd
       0.040585767 0.44823748 0.6429011 -0.114504896
000200 dc 6f 65 c0 a3 e8 3f c0 a8 92 87 bf 4e 9e a2 40
       -3.5849524 -2.998574 -1.0591631 5.0818243
000210 f8 00 3d 40 61 4b 5a c0 52 27 83 3f 14 5d 84 3e
       2.9531841 -3.4108508 1.0246375 0.25852263
000220 2e 8f 84 be 29 4c a7 bb 6c 98 a8 bd 39 e8 bf 3d
       -0.25890487 -0.0051055145 -0.08232197 0.09370465
000230 0b 0b a1 3e 23 f4 16 bd 74 80 17 3d ff bf 0a 3e
       0.31453738 -0.03685392 0.036987737 0.13549803
000240 3e a9 9b 3f 1e f3 0d 40 17 fc 2f 3f dd 67 03 40
       1.2161024 2.2179637 0.68744034 2.0532143
000250 6c d6 f0 bf b2 4a 81 3f 05 0e 5b 3f e0 01 2d 3f
       -1.8815436 1.010092 0.8556827 0.67580986
000260 51 fa 16 3e bb b0 2a be d8 75 50 3f e9 83 7c bd
       0.14743926 -0.1666898 0.81429815 -0.061649237
000270 5b 90 a6 bd b8 f2 0d 3f 04 d9 98 3d 7b 73 1b be
       -0.08133002 0.55448484 0.074632674 -0.15180771
000280 29 b5 67 3d 11 14 26 be a3 38 12 be f9 d6 98 bd
       0.056569252 -0.16218592 -0.14279418 -0.07462878
000290 de 8a 8d 3e a0 71 bd bd 19 04 21 bd 38 d5 e2 bc
       0.2764501 -0.09250188 -0.03931055 -0.027689561
0002a0 e7 0c 51 bc cd ab 61 be 8f 0c ed 3d 4b 61 a6 ba
       -0.012759424 -0.22038193 0.11574661 -0.001269379
0002b0 97 4a ba bd 65 42 e7 be 1d 88 6a be f7 14 5b be
       -0.09096258 -0.45167843 -0.22903486 -0.21394716
0002c0 e0 a0 62 bf 21 c6 84 c0 69 e3 5c 3f c3 38 b4 40
       -0.88526726 -4.1491857 0.862845 5.631929
0002d0 99 0a 85 40 70 21 87 bf a2 6f 99 3f ef d0 24 3f
       4.1575437 -1.0557079 1.1987193 0.6438131
0002e0 44 89 75 be 5c 36 78 3d 3c 2c 4c 3d 94 dc 56 3e
       -0.23978144 0.060598716 0.049846873 0.20982581
0002f0 06 d5 10 3d 35 bf 1e 3f 13 5a f6 be a0 db fb 3d
       0.035359405 0.6201051 -0.48115596 0.122977495
000300 ab e1 29 c0 a7 00 4f c0 cc 68 27 bf 58 41 b2 40
       -2.6543987 -3.2344148 -0.6539428 5.5704765
000310 fa c2 46 40 77 20 37 c0 5c 89 75 3e 11 39 5e 3f
       3.1056504 -2.8613565 0.2397818 0.86805826
000320 83 3a 1e bd b0 59 15 3a 14 18 d0 3e 5f 7e 58 3e
       -0.03863002 0.00056972634 0.4064337 0.21141957
000330 c2 70 3d be 79 12 39 3e a7 5d 4b bd e6 f2 49 bb
       -0.18500045 0.18073453 -0.04964986 -0.0030814945
000340 77 99 2b 3e 7f d0 c3 3f 03 b7 0a be 4d 5a 5b c0
       0.16757761 1.5298003 -0.13546376 -3.4273865
000350 eb de ad bf 4c d9 b5 3e 77 05 bf be 16 93 c5 be
       -1.3583654 0.35517347 -0.37308857 -0.3858878
000360 e5 a6 ee be c9 49 21 3e a5 66 08 bf 79 0b b4 bf
       -0.46611705 0.15750803 -0.53281623 -1.4066001
000370 f1 20 9b 3d b6 b7 fd 3d 16 dc 28 3d dc 19 b1 bc
       0.075746424 0.12388556 0.041225515 -0.021618776
000380 56 59 1f 40 df 74 6b bf 5b ec 9c 3a 1a c4 2c c0
       2.4898276 -0.91975206 0.0011972295 -2.699469
000390 e5 76 93 3f 6a 83 11 40 34 9a 6b bf 01 f9 16 bd
       1.1520659 2.2736459 -0.9203217 -0.036858562
0003a0 1a 92 21 bd 0e 0d 03 bf be 66 8e 3e a0 d9 ee 3e
       -0.039445974 -0.51191795 0.2781276 0.4665041
0003b0 5b 7a b9 be 36 5e c1 3d 97 89 a7 3d 24 bb ac be
       -0.36226162 0.094417974 0.0818054 -0.33736527
0003c0 79 e3 1d bf 9a 6d 08 bf f3 f2 00 3e 1d 5a cf 3f
       -0.6167522 -0.5329224 0.12592678 1.6199375
0003d0 9f ce 11 3f 84 b8 05 bf 4d 09 66 bd 88 83 d0 be
       0.56955904 -0.52234674 -0.056161214 -0.4072535
0003e0 25 44 53 bc b5 11 b0 bd 79 6d dd bd d3 af 66 3e
       -0.012894665 -0.08597127 -0.10811896 0.22528009
0003f0 28 38 e4 bd 17 11 21 bf d0 36 34 3d e5 68 a2 be
       -0.111435235 -0.629167 0.043997586 -0.31720653

bias f4 [64]
000000 be 74 06 be 8f 88 3b bd fd 5e 8d be b5 d1 3c bd
       -0.13130471 -0.04578453 -0.27611533 -0.04609843
000010 30 13 1f 3e 86 75 cb 3e 09 50 57 be 41 fd 0c 3e
       0.15534663 0.397381 -0.21026625 0.13768484
000020 b7 33 9f 3e 2e 3a bb be cc 0c a6 3d 9f e5 51 bd
       0.31094143 -0.36567825 0.081079096 -0.051244374
000030 d9 1d 13 be d2 e4 8b bc 66 c2 a4 bd 7f d7 e5 be
       -0.14366855 -0.017076883 -0.08044891 -0.44890973
000040 1f e0 11 3e 68 bf 8c bc d1 c8 82 3e 89 68 d9 3c
       0.14245652 -0.017181113 0.25543836 0.026539104
000050 9c e0 03 be 42 b2 ad 3c c3 d3 50 be 4d 60 62 3e
       -0.1287865 0.021203164 -0.2039328 0.22107048
000060 7e 96 ea 3e 3e 3b 02 bd 77 22 09 bb e3 07 4e be
       0.4581794 -0.03179478 -0.0020925084 -0.20120196
000070 e0 43 4c be 5a 3c 01 be a9 22 b7 be 93 87 0b be
       -0.19947767 -0.12620679 -0.3576863 -0.13625936
000080 94 0d 98 be 59 a7 6d 3c 38 fb 1e be f9 5d be be
       -0.2969786 0.014505231 -0.1552552 -0.3718107
000090 5c d0 2e be 5c a5 53 be f6 8b 16 be fd d2 a7 3e
       -0.1707167 -0.20668548 -0.14701828 0.3277816
0000a0 05 9d 11 be 66 ef ba be 41 3e 9a 3b 83 47 66 3e
       -0.14220054 -0.36510772 0.0047071283 0.22488217
0000b0 ab a7 42 3c f6 9a dd 3e 50 20 51 bd 65 b2 e7 3e
       0.0118807955 0.43282288 -0.051056206 0.45253292
0000c0 85 e3 7f 3e d5 36 e8 bc 37 c7 61 3e a3 01 56 b9
       0.24989136 -0.028346458 0.2204865 -0.0002040924
0000d0 d2 4d 90 be f3 0b 33 be d4 6c 92 be ad df c9 bd
       -0.28184372 -0.17485027 -0.28598654 -0.09857116
0000e0 50 b1 71 be b4 f8 9d 3e 9d 39 0a be 79 ac 9d 3d
       -0.23602796 0.30853808 -0.1349854 0.07698912
0000f0 2b c7 66 be de fe b9 bd 88 f2 7b be a8 e9 b2 bc
       -0.22536914 -0.09081815 -0.24604237 -0.021839932

weight f4 [64, 64]
000000 78 5e 0b ba e8 76 e4 bd a7 32 8f 3e e9 65 95 3f
       -0.0005316506 -0.11155492 0.27968332 1.1671726
000010 c7 06 d1 be bd 83 cb 3e 90 f3 98 3e ce fa bc 3e
       -0.40825483 0.39748946 0.29873323 0.369101
000020 eb 12 f1 be fa 43 0c 3e 07 67 2a 3e b8 f4 3d bf
       -0.47084746 0.13697806 0.16640864 -0.74201536
000030 b3 05 d5 be b7 7d 53 be fb c0 ad 3e 63 76 4b be
       -0.4160591 -0.20653425 0.33936295 -0.1986938
000040 f2 b9 46 3f 8c fe d4 3e 47 c4 ec bc 02 cd b3 bb
       0.7762748 0.41600454 -0.028902186 -0.0054870853
000050 a4 50 80 be e9 0d ab be 7a 51 f0 3d ab 07 66 3e
       -0.25061524 -0.3340905 0.117342904 0.22463863
000060 f3 1a aa 3e 1a cf 18 3f c8 a9 15 3e 33 55 46 bf
       0.33223686 0.5969101 0.14615548 -0.77473754
000070 cc 7e 57 be 42 cc 27 3f 47 0f 31 3e 56 90 e4 bd
       -0.21044463 0.6554605 0.17290984 -0.111603424
000080 c4 6f 78 3d f2 cf f7 3d a0 44 67 bc 72 40 1d bf
       0.060653463 0.12100209 -0.014115483 -0.6142646
000090 c0 7e 0b 3f 36 4a ab bf 03 63 e7 3e 6a 8b 99 be
       0.5449028 -1.3382022 0.45192727 -0.29989177
0000a0 c5 09 f7 be 9c d2 c3 3e a1 e6 3a 3c d6 05 fc bd
       -0.4824964 0.3824662 0.011407525 -0.123058006
0000b0 9d 66 c6 be f6 d2 49 bf ca 92 21 bf 48 ef 01 bf
       -0.38750163 -0.78837526 -0.6311461 -0.5075574
0000c0 bf 1f 9e be 41 d6 c4 3e a5 52 29 be ac c3 8f be
       -0.30883595 0.38444713 -0.16535433 -0.28078973
0000d0 3e c9 2f 3e ea 4e 27 3f 6b b2 c9 be 10 8e 1f 3c
       0.17166612 0.6535479 -0.39393935 0.00973846
0000e0 ef cb 24 3f 0a d8 2a be 09 a3 1a bf 86 db 3a be
       0.6437368 -0.16683975 -0.6040502 -0.18247804
0000f0 ed 26 77 be a1 fe 6a be 77 fe 2f 3e 41 5d 4c be
       -0.24135943 -0.22948696 0.17186914 -0.19957449
000100 32 f4 a2 3e 7e 0a 13 3d 9a f2 82 3d 32 4e f1 be
       0.3182693 0.035898678 0.06393929 -0.4712997
000110 d1 90 15 3d a5 63 e8 be 08 00 b7 3e 21 b4 ba bc
       0.03651506 -0.45388523 0.3574221 -0.02279097
000120 70 8c fd 3e d8 53 e7 3e e7 8d 9a 3d e8 f1 60 3e
       0.49521208 0.45181155 0.07546597 0.2196728
000130 68 09 7b 3f ae 53 c9 be 4e ab 0c bb 30 87 8d 3c
       0.9806123 -0.39321655 -0.002146441 0.017276376
000140 7a f5 bf be ed c9 1a 3f 5d 84 8c 3d b2 3d 3e 3f
       -0.3749197 0.60464364 0.06861184 0.7431289
000150 1a 8c 29 bd c0 74 da 3e 68 d4 77 3d ec 46 03 bd
       -0.041393377 0.42667198 0.0605053 -0.03205006
000160 45 d7 02 bd d2 96 72 3f 14 a3 21 3d bb a1 de 3e
       -0.03194358 0.94761384 0.039462164 0.43482766
000170 66 c1 2d 3d 6b ae 83 be 62 47 9f 3d 11 4d c8 bd
       0.042420767 -0.25719008 0.07777287 -0.09780324
000180 ee 44 27 3f 66 3f 2d 3d 2e ab 4a 3f 3d 41 88 be
       0.65339553 0.04229679 0.7916745 -0.26612273
000190 d0 96 ae be 6a 04 2d 3f a2 0b 48 3f eb ce bf bd
       -0.34099436 0.6758486 0.7814275 -0.09365638
0001a0 28 80 b8 be 9d d3 0f be 9b 08 ec bc 4f fe 92 3e
       -0.36035275 -0.14045568 -0.028812697 0.28709647
0001b0 20 ca 8d 3e 1b f9 ab bd 04 95 82 bf 44 e4 fc be
       0.27693272 -0.083971225 -1.0201726 -0.49392903
0001c0 5c 17 df bd 33 39 c7 3d 9d 25 b9 be 60 00 fd 3e
       -0.10893127 0.09727707 -0.3616151 0.4941435
0001d0 83 cd 23 bd a1 84 de be 52 e3 99 3d 16 e8 1c 3e
       -0.039990913 -0.43460563 0.07514061 0.15322909
0001e0 f0 5b 46 3e b3 e3 2e 3e 3e 0b 0d bf 7c 6c a7 3e
       0.19371009 0.17079048 -0.5509528 0.32699955
0001f0 fb 1f 40 be 48 0e 83 be b7 e4 06 3d 16 ab fe bd
       -0.187622 -0.25596833 0.032932963 -0.12434976
000200 6f 76 41 bf 67 41 95 3d 02 03 4c 3d bc 09 57 3e
       -0.7557134 0.07287865 0.049807556 0.20999807
000210 20 d9 ae be c6 45 8b 3f 93 2f a6 be a4 c9 18 bd
       -0.34150028 1.0880668 -0.3245817 -0.037301674
000220 22 fb 9b be d6 69 fb be e1 1b 5a 3e a1 25 a1 be
       -0.30465037 -0.49104184 0.21299697 -0.3147402
000230 05 a6 50 bf 4c ae e7 3e 21 72 30 3e 7c ef 8b be
       -0.81503326 0.45250165 0.17231037 -0.2733115
000240 ae ce ef bc e1 90 d1 be 84 6e 07 3f b1 51 bd be
       -0.029273357 -0.40930846 0.5290301 -0.36976388
000250 9f 93 92 bd f5 e9 f0 be cc 53 a6 3e d3 02 29 be
       -0.07157063 -0.47053495 0.32485807 -0.16504984
000260 90 da 2f be 42 53 57 be ce 35 41 3e f2 24 88 3e
       -0.17173219 -0.21027854 0.18868181 0.26590687
000270 0e 1b 71 be 8b 1b 17 3f 3e c5 33 3e 38 ed f5 bd
       -0.23545477 0.590264 0.1755571 -0.120081365
000280 ad 28 86 be ed ed 46 3e 9c b1 f4 bd f2 ef ec 3e
       -0.26202908 0.19426699 -0.11947939 0.46276814
000290 de 8e 41 3f 61 f5 f6 be bc 89 8e be 3d 26 6a be
       0.75608623 -0.48234084 -0.27839458 -0.22866149
0002a0 5f 2c 3b bd 1b 04 29 3e 17 4d 81 3d 71 0f bf be
       -0.045696612 0.16505472 0.06313532 -0.37316468
0002b0 d1 66 d5 3e 0d 82 5d be 20 e9 1f 3f cf 05 c3 3c
       0.41680005 -0.21631642 0.62465096 0.02380648
0002c0 30 fc 9f 3d 1a e0 75 3e 2e 22 28 3f d2 90 36 3e
       0.07811773 0.24011269 0.65677154 0.17828682
0002d0 cf b7 f7 3d 54 18 d1 3e 69 8d 45 bd 1f 77 53 bf
       0.120956056 0.40838873 -0.048230562 -0.8260364
0002e0 27 78 9d bc 50 d7 fd be 8e 5d 8b 3d b4 64 cb be
       -0.019222332 -0.49578333 0.068049535 -0.39725268
0002f0 66 3b d4 3e ff 84 3c 3d 22 0c 6b 3e f3 83 b4 bd
       0.41451567 0.046025272 0.22953847 -0.0881423
000300 32 0b 45 be 87 1e 93 3e f3 ff 7c 3d 1e a8 51 bf
       -0.19242552 0.28734228 0.06176753 -0.8189715
000310 53 e3 20 3e 99 7e 39 bf 9e 89 48 3e 31 be ae be
       0.15711717 -0.724588 0.19583747 -0.3412948
000320 d6 e5 05 3f bd 85 ac 3d 91 c7 99 3e 04 f8 20 3e
       0.52303827 0.08423946 0.3003507 0.1571961
000330 b2 06 63 be 21 28 ce bd fc 9e 99 3c 57 a7 c9 3e
       -0.22170523 -0.10066248 0.018752567 0.39385483
000340 43 c0 33 bf 9c 7f 85 3e 4c 60 2a bf 47 62 43 3e
       -0.70215243 0.2607392 -0.6655319 0.19080459
000350 1b 95 8f 3d 01 60 36 3f 97 91 76 be 1e 6d 24 bf
       0.070108615 0.7124024 -0.24078976 -0.64229
000360 e4 6a 20 be 79 b4 0f 3d a6 40 be be ce 38 b9 3f
       -0.15665776 0.03508422 -0.37158698 1.447046
000370 99 b5 2b 3e 3b 7d d6 be bb dc aa be ad d3 05 3e
       0.16768493 -0.41892418 -0.3337153 0.13069029
000380 bf c8 3e 3e 54 e6 64 be 27 0e b3 bd ba fd dc 3e
       0.18631266 -0.22353488 -0.08742934 0.43162328
000390 52 e6 8d be 05 13 b2 3f 50 1d 09 3e 40 4f 01 3e
       -0.27714783 1.3912054 0.13390088 0.12627888
0003a0 29 bd 1b be 6d 70 8b be c2 25 02 3e 15 b4 19 3e
       -0.15208878 -0.27234212 0.12709716 0.15010102
0003b0 95 fd cb bd d1 e1 89 3d 53 f1 f3 3d 30 0b 4a be
       -0.09960476 0.06732524 0.11911263 -0.1973083
0003c0 d2 c9 3f 3e 8f 1e 92 3d e7 d1 89 3e 38 04 91 3d
       0.18729332 0.07134735 0.26917955 0.07080883
0003d0 d9 a6 b5 bd 81 1f 0b bf a7 ae e6 3e b3 28 30 3e
       -0.08869714 -0.54344946 0.45055124 0.17203026
0003e0 1c 97 ab be 8c 2e 84 3d 4b b6 d9 3e 7e 2d 04 3e
       -0.33513725 0.064541906 0.4252189 0.12907979
0003f0 34 db 3e 3e 7a 77 14 bc c8 96 09 bc 35 17 ae be
       0.18638307 -0.009061689 -0.008397765 -0.3400208

bias f4 [64]
000000 c2 4e 65 be d7 fa 0b bc 89 cd 8a be d0 db 7c 3d
       -0.22393325 -0.008543692 -0.27109936 0.061733067
000010 98 6d 7e be cb af 91 3e f2 35 7e 3b c7 5d 77 3e
       -0.24846494 0.28454432 0.0038789478 0.24156867
000020 cc 81 5a be b0 6e 73 3d 39 04 0d bd 97 74 d4 bd
       -0.21338576 0.05943173 -0.034427855 -0.103738
000030 d4 7e 50 be 2e 83 a5 3e cb 2f 00 3e 34 51 ad bd
       -0.20360881 0.32326645 0.12518232 -0.08462754
000040 bc 85 fe bc b0 da bd be 85 b3 84 3e 92 d8 73 3d
       -0.031069629 -0.37080908 0.25918213 0.05953271
000050 1d fb 57 be d5 85 a7 be e7 65 81 bd 8d 2f 76 bd
       -0.21091886 -0.32719293 -0.063182645 -0.06010394
000060 6c 2d 65 3e 8f 8b b6 3e c2 40 5f 3e 37 9d 4a 3e
       0.22380608 0.3565335 0.21802047 0.19786535
000070 e9 ad 3d be 49 fd 9c 3e 6a ed ec 3e 2d 8c 28 be
       -0.18523373 0.3066199 0.46274883 -0.16459723
000080 a3 d3 cb 3d 89 85 78 bd 7b 59 32 be a9 b9 96 3e
       0.09952476 -0.060674224 -0.17416947 0.29438522
000090 41 43 5d be 5f 76 20 3e 73 ce d5 3e ac 0f fd 3e
       -0.21607687 0.15670155 0.4175907 0.4942602
0000a0 31 59 b6 be f0 f7 a3 be 91 b2 8b 3c b5 d4 53 be
       -0.35614923 -0.320251 0.01705292 -0.2068661
0000b0 c1 18 cf be 73 f0 24 be b6 78 92 3e c4 00 7b 3e
       -0.40448573 -0.16107349 0.2860772 0.24512011
0000c0 e5 6d 94 3e c8 0e c9 3e 07 71 b9 3e 4f 8d 92 be
       0.28990093 0.3926909 0.36219046 -0.28623435
0000d0 24 0e 91 3e 7a 52 c0 be 03 1d 08 3e 4f 53 c3 3e
       0.283311 -0.37562925 0.13292317 0.38149497
0000e0 bb 81 12 be 94 81 b3 3e f6 05 26 3d 51 d2 98 be
       -0.14307301 0.35059798 0.04053303 -0.2984796
0000f0 cd 66 2c 3c bd 47 b3 3d 17 04 b0 3d 93 4f 9e 3d
       0.0105225565 0.08753917 0.0859453 0.07730021

weight f4 [1, 64]
000000 9f f5 97 3f 8d 56 e2 bf ec 15 63 40 38 a7 12 c0
       1.1871833 -1.7682663 3.548213 -2.2914562
000010 81 27 88 40 d1 23 86 c0 e4 bd 98 c0 0c a3 72 c0
       4.2548223 -4.191872 -4.77318 -3.7912016
000020 ab d3 68 40 bb 89 33 40 d5 97 92 40 92 d5 5c 40
       3.6379192 2.8052814 4.581034 3.4505353
000030 73 f8 75 40 cd 66 7e c0 84 b1 94 c0 cf a4 76 40
       3.8432891 -3.9750245 -4.6466694 3.853809
000040 6c 28 5d 40 83 60 b6 3f ba f2 11 c0 c5 f3 4d c0
       3.4555922 1.4248203 -2.2804399 -3.2180035
000050 26 5f 9a 40 8e b2 32 40 74 88 95 3f b5 23 a9 bf
       4.824115 2.792148 1.1682267 -1.3214022
000060 47 d2 30 c0 c6 19 97 c0 e2 ca 25 c0 01 f3 6b c0
       -2.7628343 -4.721896 -2.590508 -3.6867068
000070 5d 91 73 3e 2c a4 de bf dc 19 05 c0 17 21 d8 3f
       0.2378592 -1.7393851 -2.0797033 1.6885098
000080 10 a9 27 c0 77 58 77 40 ec 59 78 40 c0 c0 7c c0
       -2.6196938 3.8647745 3.8804884 -3.9492645
000090 12 53 00 40 fc ec 2f c0 7a 1a 8a bf 03 8a 84 c0
       2.0050702 -2.7488394 -1.078933 -4.141847
0000a0 c1 31 9c 3f c4 62 70 40 c1 3c 4b c0 9a 22 0f 40
       1.2202684 3.7560282 -3.1755831 2.236487
0000b0 6a 15 7d 40 4d 5b 05 40 8c eb 8b c0 46 3a 97 c0
       3.954432 2.0836976 -4.3725033 -4.7258635
0000c0 d6 ea ef bf e0 b9 85 c0 cf 4f 84 c0 5e 43 8b 40
       -1.8743541 -4.17894 -4.1347423 4.3519735
0000d0 da 6a 7c c0 89 40 8a 40 bc 29 4f c0 36 33 31 c0
       -3.9440217 4.320378 -3.2369223 -2.7687507
0000e0 45 24 59 3f 47 70 12 c0 60 c1 95 40 37 f7 15 40
       0.8482097 -2.2881029 4.6798553 2.3432138
0000f0 49 3f e1 bf cf 78 1e 40 b3 54 1c 40 af e6 24 40
       -1.7597438 2.4761236 2.4426696 2.5765798
