output/ppo/2021-12-16_18-24-08-ppo_s1/model.pt (torch_old, 47590 bytes, 12 tensors)

log_std f4 [3]
-1.4939947 -1.8149607 -1.0082284
00000000: 383b bfbf a250 e8bf a10d 81bf

weight f4 [64, 16]
-0.17316963 -0.57521313 0.18851978 0.55004895 0.22643887 -0.14916314 0.067655765 0.21510932
0.05819591 -0.004956134 0.07427499 -0.031938624 0.11342218 -0.0591839 -0.017329883 -0.0014543767
0.18039688 0.22393268 0.44705555 -0.31004354 -0.30924696 -0.005023001 -0.08058425 -0.18945225
-0.06718735 0.014771606 0.1487148 0.14251475 -0.24206467 0.1354238 0.13138042 0.23994304
-0.051665124 -0.27259067 -0.30105788 -0.08413936 0.24685961 -0.24235 0.11598783 -0.27682775
0.31705862 -0.10670081 0.18347104 -0.014549021 -0.13222137 0.13207325 -0.1256039 0.073826715
0.17349802 0.13541485 -0.2541661 -0.38327312 -0.029812131 0.18992819 0.20876786 0.14809489
-0.024901731 -0.17458203 0.16410771 0.08968789 -0.16811605 0.14865206 0.17731489 0.21498899
-0.5219499 -0.10075293 -0.14290643 0.26164404 -0.1294176 -0.5480887 0.18130754 -0.13862987
0.14678258 -0.017149944 0.11858429 0.11181872 0.057444934 0.09923581 -0.24327415 0.09240688
-0.6725738 -0.19356926 0.0383691 0.25545853 0.14549823 -0.6551561 -0.12851436 0.14753911
0.0024205176 0.15733242 0.06029245 -0.21046172 0.07422349 0.054632895 -0.18415147 -0.102636285
0.17447941 0.10586623 -0.11105594 0.0058296067 0.17100264 0.04358541 0.17474547 0.065918095
-0.20835347 -0.19276525 0.2218542 -0.015767384 0.18758883 0.10908897 0.10972704 0.21177296
0.20896006 -0.16645245 -0.07058939 0.47871464 0.17749134 0.12115847 -0.07073929 -0.13091666
-0.09517934 0.04188661 0.2693358 -0.16847992 0.1457553 -0.12231206 -0.2231862 -0.041308157
-0.05947207 0.2993721 -0.15032241 0.2443849 0.15847026 -0.037352834 0.17800061 0.05012744
0.04998958 0.031161264 -0.14376155 -0.27565244 -0.15208952 -0.05930626 -0.18104653 0.05887989
-0.055527586 -0.07047245 0.08563544 0.22885613 0.15438566 0.005680419 -0.04949068 0.2742569
-0.20559278 -0.024780015 -0.24140018 -0.15134013 -0.15730286 -0.12034415 0.16031249 -0.09201867
-0.33962128 0.039401855 0.13273461 0.14178048 -0.104547486 -0.059201866 -0.10290918 -0.03875942
-0.18606251 -0.116117 -0.0037889548 0.12673242 0.025113164 0.06613518 0.24486877 0.21517427
0.12697649 0.031315304 -0.46523687 0.26006937 -0.1075562 -0.081003785 -0.20683818 -0.089445494
-0.2528461 0.2109824 -0.23289609 -0.15811063 -0.024409184 -0.15804811 0.10918508 -0.10895285
-0.522112 0.34206018 0.17671217 -0.11692029 -0.21468498 -0.24215227 0.29781765 -0.222893
-0.0051428424 -0.16325697 0.22583783 -0.09923997 0.1666536 0.02761225 -0.0053100674 0.009900858
0.070487425 0.04224705 0.03800548 0.0697479 -0.17564261 0.18940832 0.2009171 0.1872086
0.14088711 -0.19903149 -0.07505598 0.20981817 -0.20744865 0.20192093 -0.21798694 -0.2016361
0.09215963 -0.08896095 -0.11711134 0.2304781 0.10824063 0.21771926 -0.07251706 -0.1626777
0.2288858 -0.07614625 -0.070514254 0.032008383 -0.1968241 0.1486405 0.13170001 -0.22123106
-0.2809487 0.14212707 0.3452693 0.08305643 -0.2663505 -0.046416044 -0.1880273 -0.07770801
0.08205065 0.24494386 0.25810325 -0.15090302 0.03941222 0.14803854 0.04499081 -0.09536876
00000000: 6153 31be 2b41 13bf 540b 413e 02d0 0c3f
00000010: 97df 673e 39be 18be 1b8f 8a3d 9e45 5c3e
00000020: d65e 6e3d 1167 a2bb 7c1d 983d 13d2 02bd
00000030: e349 e83d d16a 72bd 66f7 8dbc c9a0 beba
00000040: f6b9 383e 9c4e 653e 77e4 e43e 07be 9ebe
00000050: 9e55 9ebe fd97 a4bb 5b09 a5bd c5ff 41be
00000060: 8599 89bd 9b04 723c b148 183e 63ef 113e
00000070: cddf 77be 89ac 0a3e 9788 063e a1b3 753e
00000080: cf9e 53bd 0191 8bbe 4224 9abe 4251 acbd
00000090: c4c8 7c3e 992a 78be 078b ed3d 5ebc 8dbe
000000a0: 8255 a23e f485 dabd d5df 3b3e 045f 6ebc
000000b0: 0a65 07be 363e 073e 4f9e 00be 7632 973d
000000c0: 77a9 313e 31aa 0a3e 0f22 82be 603c c4be
000000d0: 9238 f4bc 897c 423e 3ec7 553e 30a6 173e
000000e0: b7fe cbbc a2c5 32be da0b 283e 49ae b73d
000000f0: 9d26 2cbe 3f38 183e 0992 353e 1326 5c3e
00000100: 829e 05bf 8d57 cebd 1056 12be 35f6 853e
00000110: 0c86 04be 8b4f 0cbf afa8 393e fdf4 0dbe
00000120: 2c4e 163e 0a7e 8cbc 52dc f23d 3701 e53d
00000130: 614b 6b3d 253c cb3d dc1c 79be d13f bd3d
00000140: cc2d 2cbf 0537 46be eb28 1d3d 76cb 823e
00000150: 7dfd 143e 4fb8 27bf 4599 03be 7e14 173e
00000160: 8ca1 1e3b c01b 213e 37f5 763d 4783 57be
00000170: 7c02 983d bec6 5f3d 3492 3cbe f932 d2bd
00000180: bbaa 323e 65d0 d83d 4c71 e3bd 4906 bf3b
00000190: 511b 2f3e 9d86 323d 7af0 323e 1100 873d
000001a0: 9d5a 55be 4164 45be bf2d 633e 9a2a 81bc
000001b0: 4917 403e 0a6a df3d 92b8 e03d 03db 583e
000001c0: a0f9 553e 8372 2abe 2c91 90bd 161a f53e
000001d0: 4ac0 353e ef21 f83d c3df 90bd 040f 06be
000001e0: 63ed c2bd 4b91 2b3d 62e6 893e 0086 2cbe
000001f0: e140 153e bf7e fabd ec8a 64be be32 29bd
00000200: fc98 73bd 4d47 993e 1eee 19be 0940 7a3e
00000210: 0746 223e 49ff 18bd cb45 363e 6e52 4d3d
00000220: e0c1 4c3d e845 ff3c 3a36 13be 5122 8dbe
00000230: 5bbd 1bbe 1feb 72bd 4364 39be 0a2c 713d
00000240: e570 63bd dc53 90bd a261 af3d 4359 6a3e
00000250: 4617 1e3e cf22 ba3b bdb6 4abd 676b 8c3e
00000260: ea86 52be 75ff cabc 9c31 77be e8f8 1abe
00000270: 0014 21be fe76 f6bd f528 243e 4974 bcbd
00000280: d7e2 adbe d763 213d 95eb 073e e72e 113e
00000290: fe1c d6bd a87d 72bd 0cc2 d2bd 33c2 1ebd
000002a0: 2c87 3ebe c0ce edbd 1d50 78bb 25c6 013e
000002b0: 1fba cd3c e271 873d e1be 7a3e a556 5c3e
000002c0: 2006 023e 7a44 003d 8733 eebe d027 853e
000002d0: 6d46 dcbd 50e5 a5bd 63cd 53be 332f b7bd
000002e0: 0b75 81be c50b 583e 507c 6ebe c1e7 21be
000002f0: c5f5 c7bc 5dd7 21be 6d9c df3d ac22 dfbd
00000300: 22a9 05bf 8322 af3e 09f4 343e e873 efbd
00000310: 61d6 5bbe c4f6 77be 8e7b 983e 103e 64be
00000320: 4a85 a8bb d62c 27be 0842 673e 533e cbbd
00000330: 3ea7 2a3e 1633 e23c 1300 aebb 3537 223c
00000340: b65b 903d 3e0b 2d3d a2ab 1b3d fdd7 8e3d
00000350: a8db 33be 41f4 413e 36bd 4d3e 9cb3 3f3e
00000360: b644 103e e9ce 4bbe f3b6 99bd 93da 563e
00000370: 6b6d 54be 5cc4 4e3e f837 5fbe b279 4ebe
00000380: 30be bc3d 2931 b6bd 12d8 efbd 7302 6c3e
00000390: 43ad dd3d ccf1 5e3e d383 94bd fc94 26be
000003a0: 0a61 6a3e 91f2 9bbd c769 90bd 391b 033d
000003b0: 428c 49be 3735 183e 5edc 063e 658a 62be
000003c0: 82d8 8fbe c289 113e 23c7 b03e 7d19 aa3d
000003d0: 185f 88be c01e 3ebd 3b8a 40be 6125 9fbd
000003e0: 2c0a a83d 90d2 7a3e 1c26 843e 5286 1abe
000003f0: b56e 213d 6a97 173e 4948 383d b250 c3bd

bias f4 [64]
0.062107626 0.012974192 0.039311398 -0.14819649 -0.27958927 0.020639284 -0.07894067 -0.075417876
0.15630564 0.03041225 0.107635364 -0.08107425 -0.17982784 0.024417045 -0.18782708 0.063196935
-0.21245112 0.16648477 -0.17699519 0.24141662 0.1737435 0.17621335 0.18899664 0.12876946
-0.034173433 -0.019822262 -0.08298474 -0.20358723 0.1814478 0.09413891 0.077324465 -0.033510756
0.116595 -0.11495664 -0.18928008 0.19618763 0.043594383 0.11787328 -0.20999867 -0.010735102
-0.25855738 -0.0056634974 -0.0026761924 -0.20638739 -0.21483316 0.036764402 0.271934 0.20286597
-0.19034794 -0.08101779 -0.30413127 -0.22431174 -0.027282774 0.2602847 -0.062346626 0.06943825
0.2133293 0.06752973 0.23106682 0.058585484 0.28988874 0.047212712 -0.21800192 -0.15061517
00000000: 9164 7e3d b591 543c fd04 213d d2c0 17be
00000010: 5326 8fbe b713 a93c a5ab a1bd b074 9abd
00000020: 960e 203e 1c23 f93c ee6f dc3d 420a a6bd
00000030: ca24 38be 4106 c83c be55 40be 656d 813d
00000040: c98c 59be fc7a 2a3e 3a3e 35be eb35 773e
00000050: d1e9 313e 4671 343e 5688 413e 24dc 033e
00000060: 71f9 0bbd 4c62 a2bc e7f3 a9bd 2c79 50be
00000070: 74cd 393e e7cb c03d 4a5c 9e3d 9342 09bd
00000080: 5cc9 ee3d 636e ebbd a3d2 41be 69e5 483e
00000090: 0690 323d 8c67 f13d e409 57be 48e2 2fbc
000000a0: a261 84be dc94 b9bb 0f63 2fbb 3757 53be
000000b0: 39fd 5bbe 4596 163d ef3a 8b3e 19bc 4f3e
000000c0: 92ea 42be a8ec a5bd 18b7 9bbe fab1 65be
000000d0: 2080 dfbc 0944 853e 2d5f 7fbd a435 8e3d
000000e0: ff72 5a3e 074d 8a3d c89c 6c3e 55f7 6f3d
000000f0: 4c6c 943e 1e62 413d e53b 5fbe dd3a 1abe

weight f4 [64, 64]
-0.09347023 0.10233806 0.044936124 0.038585722 -0.111969344 -0.11424864 0.10250605 -0.020681074
-0.117357746 0.01714419 -0.029459007 0.037733555 0.049908075 0.047629666 -0.0959313 -0.012232213
-0.06291829 0.085724704 0.09705805 0.06940136 0.11326486 0.0773994 -0.12605073 0.04119245
-0.09003808 0.037501205 0.013166436 0.12433093 -0.087289445 -0.11849754 -0.034944825 0.025979178
0.12313179 0.13271838 0.095962636 0.038899258 -0.037563834 -0.034957375 -0.07547858 0.019416189
-0.087487735 0.045997452 0.1149274 0.10542908 -0.15141158 0.09717466 -0.07628971 -0.004441703
0.12316334 0.06718021 -0.054152753 0.0734349 -0.093094245 0.09834725 0.12079759 -0.0046711992
0.022145472 -0.023213334 -0.079790585 -0.059537373 -0.0075035617 -0.10380501 -0.12478823 0.012401224
-0.05035424 -0.063064225 -0.02926991 -0.053775504 0.0905789 -0.0161411 -0.07025604 -0.044134628
-0.08565884 0.0800642 0.10735711 -0.05170862 -0.10062989 0.11696245 -0.08764549 -0.005300331
-0.11015289 -0.12466963 0.016242702 -0.07250851 0.06604525 -0.025237944 -0.012066218 -0.07887853
0.041527666 0.110526234 -0.023544367 -0.07734168 -0.13479549 0.12846373 0.061499584 0.06832337
-0.01000549 0.060031783 0.031329367 0.061059456 0.08362259 -0.019514367 0.07506003 0.075022556
-0.0037891706 -0.058494154 0.022723205 0.09739116 0.13182744 -0.07332894 -0.025604222 0.094041765
0.08923454 0.119066454 0.054999873 0.051837243 0.031977944 -0.11692192 -0.04594446 -0.00068063644
-0.083551586 -0.09297911 0.08553491 0.06975649 -0.102442004 -0.0002522047 0.13956799 0.101661235
0.14145875 -0.06428158 0.11142217 -0.10979925 0.026871663 -0.029375872 -0.023353728 0.0966353
0.0647133 -0.09487981 -0.030869992 -0.054998934 0.0088784015 -0.06893459 0.09223276 0.15110025
0.10432104 -0.07996554 0.070396855 -0.03697658 -0.02923822 -0.06527409 0.023203412 -0.0776477
0.0080592055 -0.12994577 0.0737593 -0.104774326 -0.045554243 -0.08128145 0.09896757 0.098745495
-0.1095935 -0.06605126 0.11530912 0.036295604 0.08548089 -0.11781124 0.04553006 0.07931682
-0.029136978 -0.004170444 0.054234 0.033950064 0.00025060834 -0.039664987 -0.054180164 -0.03356326
0.114466995 -0.010007606 0.12371147 0.09090335 -0.08308185 0.0077685383 -0.032197084 0.012688092
0.09294908 0.03634626 -0.07288336 -0.079521865 -0.08664353 -0.15200219 0.07781265 -0.057819556
-0.00547601 0.0063131484 0.06861021 -0.004388448 0.10737328 0.026375106 0.10403301 0.036985345
-0.008311588 -0.021588448 0.09750856 -0.024966285 0.15033458 -0.026249947 -0.014234969 0.14603451
-0.10215463 -0.0027328199 0.07478335 -0.047271665 -0.035423726 -0.04082921 0.045658622 0.03383459
0.03475603 0.032090753 -0.048118997 0.06686016 -0.0549372 0.068186104 -0.0402539 -0.10599944
-0.009841651 0.022529503 -0.012471801 -0.012555808 0.016459545 0.068069816 0.014963075 -0.124250375
-0.10333596 -0.0070650526 -0.05604569 0.10530243 -0.035657626 0.08420256 -0.09298555 -0.11434719
-0.059408244 -0.09333651 -0.028652884 0.015927143 -0.13804963 0.099472314 -0.09011291 0.11911611
0.06702179 -0.038731188 -0.095870756 -0.00028787708 -0.0821231 0.09893705 -0.132597 -0.048236452
00000000: 526d bfbd 9e96 d13d f10e 383d 100c 1e3d
00000010: 2f50 e5bd 31fb e9bd b1ee d13d 5b6b a9bc
00000020: 4259 f0bd f971 8c3c 0454 f1bc 808e 1a3d
00000030: 696c 4c3d 5317 433d a177 c4bd 9f69 48bc
00000040: 4edb 80bd 6f90 af3d 5fc6 c63d 4d22 8e3d
00000050: 68f7 e73d 9483 9e3d 7113 01be 6ab9 283d
00000060: e365 b8bd dd9a 193d 09b8 573c 37a1 fe3d
00000070: cfc4 b2bd d7ae f2bd 4e22 0fbd 49d2 d43c
00000080: 852c fc3d 54e7 073e 0f88 c43d d454 1f3d
00000090: 89dc 19bd 772f 0fbd 8494 9abd b30e 9f3c
000000a0: c52c b3bd d367 3c3d 0f5f eb3d 34eb d73d
000000b0: a30b 1bbe 8203 c73d c83d 9cbd b58b 91bb
000000c0: 103d fc3d c795 893d 47cf 5dbd 0965 963d
000000d0: 32a8 bebd 486a c93d ba64 f73d dc10 99bb
000000e0: 6c6a b53c e429 bebc 3f69 a3bd 76dd 73bd
000000f0: 70e0 f5bb b997 d4bd f990 ffbd 812e 4b3c
00000100: 3f40 4ebd d127 81bd 73c7 efbc b443 5cbd
00000110: 6e81 b93d 573a 84bc 66e2 8fbd 83c6 34bd
00000120: e76d afbd b3f8 a33d 0bde db3d 6bcc 53bd
00000130: 0b17 cebd 028a ef3d 7b7f b3bd 66ae adbb
00000140: d797 e1bd ca52 ffbd 6a0f 853c 577f 94bd
00000150: bb42 873d cebf cebc 63b1 45bc 118b a1bd
00000160: ea18 2a3d 945b e23d 1ee0 c0bc 5165 9ebd
00000170: d407 0abe ff8b 033e fde6 7b3d 1fed 8b3d
00000180: 11ee 23bc e3e3 753d 3953 003d 7b19 7a3d
00000190: 5242 ab3d 98dc 9fbc 13b9 993d 6da5 993d
000001a0: bc53 78bb 9197 6fbd 0426 ba3c 0475 c73d
000001b0: c6fd 063e 7c2d 96bd f2bf d1bc f898 c03d
000001c0: 99c0 b63d 1dd9 f33d 8c47 613d 4a53 543d
000001d0: 4efb 023d c274 efbd 4230 3cbd bd6c 32ba
000001e0: 181d abbd d56b bebd ed2c af3d 7edc 8e3d
000001f0: 1dcd d1bd 583a 84b9 e9ea 0e3e c433 d03d
00000200: 90da 103e 10a6 83bd 4f31 e43d 6ede e0bd
00000210: f621 dc3c aba5 f0bc 5150 bfbc bae8 c53d
00000220: 6888 843d 5950 c2bd 11e3 fcbc 9046 61bd
00000230: b776 113c 942d 8dbd 87e4 bc3d 06ba 1a3e
00000240: 45a6 d53d f9c4 a3bd 3a2c 903d c174 17bd
00000250: fe84 efbc 6cae 85bd 1515 be3c c205 9fbd
00000260: c20a 043c 8110 05be 1e0f 973d ec93 d6bd
00000270: 1697 3abd e476 a6bd 82af ca3d 143b ca3d
00000280: 8f72 e0bd e245 87bd 3027 ec3d b3aa 143d
00000290: 9b10 af3d 0547 f1bd ba7d 3a3d db70 a23d
000002a0: acb0 eebc 38a8 88bb 7924 5e3d 390f 0b3d
000002b0: 1564 8339 c177 22bd 05ec 5dbd a179 09bd
000002c0: ac6d ea3d f1f6 23bc 705c fd3d 892b ba3d
000002d0: d126 aabd 398f fe3b 17e1 03bd b7e1 4f3c
000002e0: 165c be3d d1df 143d df43 95bd 5cdc a2bd
000002f0: 2a72 b1bd 76a6 1bbe 3d5c 9f3d 33d4 6cbd
00000300: 1a70 b3bb 87de ce3b 8383 8c3d f8cc 8fbb
00000310: 86e6 db3d 9b10 d83c 420f d53d f27d 173d
00000320: 542d 08bc 42da b0bc 91b2 c73d 1886 ccbc
00000330: 4ff1 193e 210a d7bc ca39 69bc 128a 153e
00000340: 7236 d1bd 1c19 33bb 0328 993d ef9f 41bd
00000350: 7818 11bd 883c 27bd 8904 3b3d 2496 0a3d
00000360: 575c 0e3d 9871 033d 6d18 45bd fbed 883d
00000370: d405 61bd 28a5 8b3d 46e1 24bd 3c16 d9bd
00000380: e03e 21bc cb8f b83c 8656 4cbc e0b6 4dbc
00000390: 2bd6 863c 3068 8b3d af27 753c fb76 febd
000003a0: cea1 d3bd f581 e7bb 2a90 65bd cda8 d73d
000003b0: bb0d 12bd 6472 ac3d 356f bebd dc2e eabd
000003c0: 0f56 73bd 3627 bfbd 74b9 eabc a479 823c
000003d0: e25c 0dbe 24b8 cb3d 1e8d b8bd 26f3 f33d
000003e0: b842 893d 98a4 1ebd e357 c4bd 35ee 96b9
000003f0: 2830 a8bd 829f ca3d 82c7 07be 9693 45bd

bias f4 [64]
-0.059350356 0.034302052 -0.08486436 -0.03432895 0.07803118 0.053291034 0.08618297 -0.033376116
0.11232615 0.07139907 0.06144536 0.06547257 -0.097492546 -0.056837857 -0.011309814 0.033318464
0.13303609 0.110169284 -0.028364478 0.07768277 0.05326825 -0.062824994 -0.11591912 0.03815924
0.013770301 0.015107077 0.090103105 -0.0528064 -0.036366206 0.021174872 -0.052959938 -0.0759429
-0.13974664 -0.11320774 -0.013827233 0.10435815 -0.0774377 0.025954558 0.08131448 0.037001938
-0.0090771625 0.09686579 -0.11851778 0.105617404 0.10996511 0.100901365 0.10783885 0.003186237
-0.07172293 -0.09199421 -0.112071514 -0.0747812 -0.09947965 0.08531287 0.0788583 -0.071795896
0.009640159 0.017836712 0.011733159 0.0967376 0.07279354 -0.08391878 0.11554662 -0.060710326
00000000: 5c19 73bd 4f80 0c3d 5ecd adbd 839c 0cbd
00000010: d0ce 9f3d b347 5a3d b280 b03d 65b5 08bd
00000020: 410b e63d ad39 923d 21ae 7b3d 7c16 863d
00000030: 2caa c7bd d0ce 68bd cc4c 39bc f178 083d
00000040: 9d3a 083e 6fa0 e13d 9f5c e8bc 2518 9f3d
00000050: cf2f 5a3d 64aa 80bd 0167 edbd dd4c 1c3d
00000060: d49c 613c ac83 773c fa87 b83d 864b 58bd
00000070: bbf4 14bd ed76 ad3c 85ec 58bd f387 9bbd
00000080: be19 0fbe 76d9 e7bd 9e8b 62bc bab9 d53d
00000090: a897 9ebd a79e d43c 3588 a63d 588f 173d
000000a0: 61b8 14bc 9261 c63d 73b9 f2bd f04d d83d
000000b0: 6335 e13d 60a5 ce3d 9dda dc3d 30d0 503b
000000c0: 79e3 92bd 7667 bcbd c085 e5bd e326 99bd
000000d0: fdbb cbbd 84b8 ae3d 7680 a13d ba09 93bd
000000e0: c2f1 1d3c 4c1e 923c 703c 403c 5d1e c63d
000000f0: c814 953d 9cdd abbd b5a3 ec3d 64ab 78bd

weight f4 [3, 64]
-0.05761891 0.10660454 -0.061598208 -0.039145205 0.02717837 -0.13088015 0.068903945 0.08601142
-0.11913342 -0.019791998 0.0026694997 0.073018946 0.072309636 -0.0050409613 0.07744499 -0.020282632
0.031196222 -0.08432876 -0.06765341 -0.008871833 -0.09665127 -0.0045577404 0.04196737 -0.059835434
-0.09063818 0.10196221 -0.058853704 -0.08125739 -0.006893935 -0.01837989 -0.08773191 -0.014881763
-0.05738538 -0.048269104 0.034329444 -3.2115422e-05 0.09982199 -0.10922897 0.08623082 0.07068961
-0.019594088 0.064103946 0.077677 0.0051666014 0.030644221 -0.00397916 -0.013928951 -0.0094185
-0.06735761 0.024251115 -0.034470327 0.052229855 0.051649306 -0.06421849 0.10801341 0.027474808
0.017775945 -0.10927645 0.078318834 0.041383468 -0.0049394993 -0.09812169 0.02412765 0.049509138
0.06154288 0.081372745 -0.13016367 -0.09316449 0.06976395 0.11721095 0.0031593337 0.06560463
0.09217121 0.08348151 -0.058697566 -0.06011504 -0.099275425 -0.039867684 0.10197768 -0.008665627
-0.10241878 0.104908586 0.03959932 0.0021077485 -0.053304628 0.11011281 -0.074933976 0.06113706
-0.03798043 -0.031193448 -0.12366198 0.023411574 -0.043069102 -0.045571756 0.045281537 -0.10545353
0.09119704 0.11525586 0.08079058 0.02136744 -0.04938506 -0.05720482 -0.06821407 -0.045919765
-0.12959258 -0.06856548 0.0106421895 -0.03738104 -0.027869796 0.032106824 -0.045797873 -0.08568562
-0.09366311 0.13192125 0.06487893 -0.11001594 -0.0705872 -0.0013332379 -0.074251436 0.04294662
-0.020620612 0.026700735 -0.031225368 -0.073429525 -0.036597796 0.14510193 0.10112343 -0.061202817
-0.013936383 0.10781208 0.08079128 -0.0702981 0.091585584 -0.03183198 -0.07734547 0.11197384
0.06564 -0.11217957 0.10372698 0.10924023 0.09424996 -0.08003867 -0.01622134 0.09528964
0.1268488 -0.1471046 0.089297414 0.04410032 0.058762442 -0.06580523 -0.030716278 0.12564532
0.04450057 0.08789072 -0.10591722 -0.042812787 0.029679192 0.07890105 0.1066264 0.07814173
-0.03744036 -0.054928385 -0.029588656 -0.062346037 0.017245358 0.13079533 -0.019518312 0.09371226
0.09756844 -0.11150355 -0.04936658 0.114521354 -0.04671841 0.008574327 -0.04407913 0.05218123
-0.05661721 -0.00026365064 -0.0372613 0.107311465 -0.051805828 0.007388476 0.10214635 -0.010207796
0.056066237 0.018421086 0.0648384 0.08401046 -0.0044881804 -0.040259816 0.006527828 0.027303958
00000000: ce01 6cbd 7b53 da3d 674e 7cbd b956 20bd
00000010: 2ca5 de3c 7205 06be 831d 8d3d c126 b03d
00000020: 39fc f3bd d422 a2bc c6f2 2e3b f58a 953d
00000030: 1317 943d a62e a5bb 7b9b 9e3d c327 a6bc
00000040: 388f ff3c 8fb4 acbd df8d 8abd 2a5b 11bc
00000050: 1af1 c5bd 1959 95bb fae5 2b3d 0016 75bd
00000060: 83a0 b9bd 90d1 d03d 9510 71bd 466a a6bd
00000070: 85e6 e1bb 6c91 96bc caac b3bd a3d2 73bc
00000080: ef0c 6bbd d3b5 45bd 089d 0c3d acb3 06b8
00000090: 796f cc3d 70b3 dfbd c999 b03d b7c5 903d
000000a0: c883 a0bc ee48 833d 1e15 9f3d 984c a93b
000000b0: 9709 fb3c 9d63 82bb 4136 64bc 0d50 1abc
000000c0: c9f2 89bd 46aa c63c c230 0dbd f9ee 553d
000000d0: 398e 533d fc84 83bd 2236 dd3d d912 e13c
000000e0: dc9e 913c 55cc dfbd a065 a03d b681 293d
000000f0: 86db a1bb 06f4 c8bd 59a7 c53c 18ca 4a3d
00000100: 6314 7c3d c1a6 a63d a049 05be 06cd bebd
00000110: 67e0 8e3d 4b0c f03d d30c 4f3b b85b 863d
00000120: 42c4 bc3d 5bf8 aa3d dc6c 70bd 303b 76bd
00000130: ea50 cbbd 4c4c 23bd add9 d03d 46fa 0dbc
00000140: f0c0 d1bd 50da d63d e632 223d 2722 0a3b
00000150: f455 5abd d382 e13d fc76 99bd db6a 7a3d
00000160: 5e91 1bbd 6789 ffbc 7e42 fdbd a1c9 bf3c
00000170: 3a69 30bd 73a9 3abd 2279 393d 05f8 d7bd
00000180: 84c5 ba3d 440b ec3d 8875 a53d c50a af3c
00000190: fd47 4abd 9a4f 6abd d1b3 8bbd 5d16 3cbd
000001a0: ebb3 04be 0f6c 8cbd 945c 2e3c dd1c 19bd
000001b0: 334f e4bc 7282 033d 8d96 3bbd f17b afbd
000001c0: 72d2 bfbd 5d16 073e 3fdf 843d 0a50 e1bd
000001d0: 0690 90bd 0ac0 aeba 2311 98bd cce8 2f3d
000001e0: 8fec a8bc 80bb da3c 58cc ffbc 3862 96bd
000001f0: 92e7 15bd 9a95 143e cd19 cf3d ceaf 7abd
00000200: 6d55 64bc 94cc dc3d e675 a53d 73f8 8fbd
00000210: 3991 bb3d 4062 02bd 4d67 9ebd 8a52 e53d
00000220: 446e 863d 67be e5bd d06e d43d 57b9 df3d
00000230: 1f06 c13d 50eb a3bd 9ee2 84bc 3727 c33d
00000240: a7e4 013e 97a2 16be 90e1 b63d 8aa2 343d
00000250: e3b0 703d e4c4 86bd b4a0 fbbc 2ba9 003e
00000260: 3b46 363d 0d00 b43d 21eb d8bd 765c 2fbd
00000270: c721 f33c e096 a13d f15e da3d c508 a03d
00000280: 105b 19bd 96fc 60bd e963 f2bc 8f5e 7fbd
00000290: 2346 8d3c 36ef 053e dee4 9fbc 37ec bf3d
000002a0: f6d1 c73d f95b e4bd 9c34 4abd 2c8a ea3d
000002b0: ce5b 3fbd 567b 0c3c 518c 34bd fcbb 553d
000002c0: 73e7 67bd 973a 8ab9 4e9f 18bd 1dc6 db3d
000002d0: 5932 54bd 071b f23b 1b32 d13d 993e 27bc
000002e0: b6a5 653d d1e7 963c ffc9 843d ad0d ac3d
000002f0: 9611 93bb 7ae7 24bd 64e7 d53b 8dac df3c

bias f4 [3]
-0.02379577 0.017308448 -0.062180847
00000000: 59ef c2bc 72ca 8d3c 58b1 7ebd

weight f4 [64, 16]
0.47200882 -0.697882 0.78653425 1.1282456 0.43769082 0.18201159 0.4765026 -0.15393135
-0.20300059 0.33316532 -0.3317042 -0.46086168 0.057929654 0.6172874 -0.3742379 0.18239586
-0.014352193 -1.0130229 0.01708684 -0.057334207 1.017407 0.22271755 -0.12540121 0.31063837
0.9737044 0.037844427 0.28109476 0.39479062 0.11510921 -0.24967755 0.7269214 -0.11689649
0.2799523 -0.5627767 0.07989663 0.41316864 0.6307552 0.23924257 -0.08968708 -0.084514946
0.032782935 0.2678902 -0.030993883 0.08981375 0.041229445 -0.08482317 0.33376727 0.30665746
1.063771 3.6591487 -0.07814773 -2.2104292 -3.2262497 0.9628009 -0.29607418 1.0252744
-0.32308814 -0.17009716 0.35832375 -0.24677399 0.047487084 0.4025297 0.0900568 -0.10930704
-0.49160084 0.31181324 -0.42899355 -0.090498894 -0.43107653 -0.41528997 -0.14236924 -0.083241224
-0.22867337 -0.2433659 0.019845728 -0.04171062 -0.06668403 0.17409915 -0.045366116 -0.44340324
1.6463896 -4.675409 0.29337695 -0.8401468 4.683336 1.8438331 -0.35898808 0.08865616
0.13158338 0.29602343 -0.32369897 -0.12767024 0.13019346 -0.34656104 0.28147176 0.013982719
2.6153126 -1.719991 0.6208387 -1.6368172 1.4920759 2.49218 -0.82166225 0.29326844
-0.66824496 -0.16637112 0.3192656 -0.4708552 -0.110895686 0.26661363 -0.16876614 -0.19600718
-0.3756375 -0.9462102 0.2346391 -0.10280393 0.58063084 -0.12338888 0.08190018 0.41820872
0.36254784 0.41873348 0.17108628 -0.008198077 0.016543819 -0.08698528 0.21805616 0.17707048
-0.11159146 -0.37268555 -0.14860758 -0.6077026 0.47289348 -0.20685013 -0.548243 0.08420214
-0.06499872 0.028680017 0.20593841 -0.027750207 -0.33713472 -0.046740636 -0.29802296 -0.1930184
1.6224356 -1.1219766 0.47793078 -0.49397698 1.4744216 1.8867604 -0.27280158 -0.29716164
0.2740077 0.2617877 -0.5129286 -0.2530932 0.16255605 -0.46333885 -0.16246098 -0.019098433
2.4946134 3.83239 -0.16950274 -5.397361 -3.9440112 2.5644028 -0.91722834 -0.53958
0.57166606 0.20454933 0.22731183 -0.109080024 -0.14589857 -0.26423392 0.28339374 -0.26701224
-0.5307959 -0.6187208 -0.4550059 1.3521365 0.71466863 -0.46089193 -0.06611718 0.34226787
0.25008616 -0.2143463 0.59892195 0.4633596 -0.21825632 0.4898757 -0.41355738 -0.040628016
0.057837985 -0.21267529 -0.18285303 -0.93726367 0.13773584 -0.10049953 -0.010532572 0.3663087
-0.17756762 -0.42315915 -0.08716719 0.33146882 -0.55572027 0.15024012 0.13745941 -0.25135165
-2.3650024 2.6545327 -0.08701101 1.2675941 -2.8200257 -2.2756703 -0.06731087 0.63416106
-0.213627 -0.09800451 0.6103034 0.21584783 0.0309222 0.36142796 -0.4350059 -0.07515073
-0.06947742 0.11194098 0.29039255 0.6380315 -0.3235161 -0.27535024 -0.13131769 -0.33228293
-0.37564042 0.020998288 0.035211265 -0.7579851 0.42297047 -0.18235709 0.018583324 -0.0572163
-0.67812 -0.5485981 0.5362488 0.6258714 0.877264 -0.5612594 -0.015268245 -0.15243736
-0.026153384 -0.055163365 0.0779764 0.19406228 -0.13077654 0.23820017 -0.34829345 -0.13348636
00000000: 24ab f13e 65a8 32bf 4f5a 493f 5a6a 903f
00000010: 0319 e03e 3f61 3a3e 26f8 f33e 2ea0 1dbe
00000020: 63df 4fbe a594 aa3e 22d5 a9be 10f6 ebbe
00000030: a547 6d3d 8c06 1e3f 1c9c bfbe fbc5 3a3e
00000040: 7625 6bbc bcaa 81bf b3f9 8b3c 46d7 6abd
00000050: 643a 823f 1210 643e 2d69 00be fe0b 9f3e
00000060: b144 793f c202 1b3d a7eb 8f3e ff21 ca3e
00000070: 61be eb3d 79ab 7fbe 8517 3a3f 6d67 efbd
00000080: e855 8f3e 2212 10bf d8a0 a33d d78a d33e
00000090: 2c79 213f 01fc 743e dcad b7bd 2c16 adbd
000000a0: 6647 063d e728 893e e2e6 fdbc 45f0 b73d
000000b0: 35e0 283d c5b7 adbd 8be3 aa3e 3502 9d3e
000000c0: a629 883f 7e2f 6a40 eb0b a0bd ac77 0dc0
000000d0: e07a 4ec0 1f7a 763f 0997 97be 313c 833f
000000e0: cf6b a5be f32d 2ebe 3676 b73e 52b2 7cbe
000000f0: d181 423d 5f18 ce3e b36f b83d 5fdc dfbd
00000100: 1bb3 fbbe fca5 9f3e 0ba5 dbbe 7c57 b9bd
00000110: 10b6 dcbe e3a0 d4be 3ec9 11be 607a aabd
00000120: 5a29 6abe e934 79be 8293 a23c c1d8 2abd
00000130: a391 88bd 0c47 323e d2d1 39bd c005 e3be
00000140: e5bc d23f f39c 95c0 8135 963e dc13 57bf
00000150: e3dd 9540 b902 ec3f 49cd b7be 5c91 b53d
00000160: cbbd 063e 6290 973e dfbb a5be fdbb 02be
00000170: 6f51 053e 7370 b1be 111d 903e c617 653c
00000180: 4861 2740 aa28 dcbf 49ef 1e3f 3a83 d1bf
00000190: 58fc be3f e17f 1f40 7558 52bf 4827 963e
000001a0: 1a12 2bbf 315d 2abe c876 a33e ef13 f1be
000001b0: 471d e3bd 9581 883e 08d1 2cbe 1bb6 48be
000001c0: 8f53 c0be d53a 72bf 3b45 703e de8a d2bd
000001d0: 39a4 143f 4fb3 fcbd 48bb a73d 741f d63e
000001e0: df9f b93e 3c64 d63e 3e31 2f3e 3a51 06bc
000001f0: e786 873c 5725 b2bd 1d4a 5f3e f751 353e
00000200: 108a e4bd a4d0 bebe 962c 18be 6692 1bbf
00000210: 181f f23e 85d0 53be a759 0cbf 2c72 ac3d
00000220: 0d1e 85bd 5bf2 ea3c 85e1 523e 6754 e3bc
00000230: ec9c acbe 1c73 3fbd 7796 98be 9ea6 45be
00000240: f8ab cf3f ee9c 8fbf 58b3 f43e 8dea fcbe
00000250: d9b9 bc3f 5d81 f13f a6ac 8bbe 9225 98be
00000260: bd4a 8c3e 0a09 863e 4a4f 03bf 6f95 81be
00000270: 1875 263e c03a edbe 2c5c 26be 5174 9cbc
00000280: bfa7 1f40 e145 7540 2092 2dbe 2eb7 acc0
00000290: ae6a 7cc0 2d1f 2440 7acf 6abf ea21 0abf
000002a0: b558 123f 6175 513e 6fc4 683e 5965 dfbd
000002b0: 6f66 15be ab49 87be fc18 913e d4b5 88be
000002c0: 3de2 07bf 7d64 1ebf 89f6 e8be cf12 ad3f
000002d0: 86f4 363f 07fa ebbe 7268 87bd bc3d af3e
000002e0: 4b0b 803e 997d 5bbe f352 193f 783d ed3e
000002f0: 967e 5fbe fdd0 fa3e cbbd d3be 9069 26bd
00000300: 86e7 6c3d 8dc7 59be d33d 3bbe 83f0 6fbf
00000310: a00a 0d3e b3d2 cdbd cf90 2cbc d08c bb3e
00000320: 49d4 35be 51a8 d8be b684 b2bd 48b6 a93e
00000330: af43 0ebf 8cd8 193e 29c2 0c3e 2ab1 80be
00000340: 335c 17c0 dde3 2940 d432 b2bd 8640 a23f
00000350: 4d7b 34c0 95a4 11c0 48da 89bd 6158 223f
00000360: 09c1 5abe 97b6 c8bd d83c 1c3f 3707 5d3e
00000370: 8e50 fd3c 160d b93e 18b9 debe a0e8 99bd
00000380: 2d4a 8ebd 5041 e53d 55ae 943e 0856 233f
00000390: e7a3 a5be b5fa 8cbe 2578 06be fd20 aabe
000003a0: f153 c0be 9a04 ac3c b039 103d 500b 42bf
000003b0: 968f d83e d1bb 3abe 0e3c 983c a45b 6abd
000003c0: 4699 2dbf ed70 0cbf 9a47 093f 1c39 203f
000003d0: 6094 603f b2ae 0fbf a927 7abc 8a18 1cbe
000003e0: 9f3f d6bc fbf2 61bd 17b2 9f3d 43b8 463e
000003f0: 49ea 05be bfea 733e 8553 b2be a6b0 08be

bias f4 [64]
-0.062252928 -0.12654348 0.13960458 -0.15089247 -0.41629925 0.41762495 0.13161397 -0.022607869
-0.33611262 0.22865392 -0.026261102 -0.32271984 -0.17100753 -0.39438933 -0.043490026 -0.41035596
-0.106571525 0.09825939 -0.16558583 0.3431012 -0.12484164 0.16281146 -0.21188666 0.10976228
0.20509748 -0.038263656 -0.24366105 -0.2096837 -0.44707984 -0.105585486 0.1609018 0.20243824
0.06292166 -0.30798566 -0.13184465 0.057668187 -0.049345836 -0.15771279 0.011442677 -0.07216366
-0.18598159 -0.17856085 0.03082907 0.1953721 -0.20900276 0.24286367 0.2308527 0.030989835
-0.090251066 0.13560572 0.16829515 -0.08106565 -0.33663002 0.024908716 -0.27307817 -0.06580358
-0.041382417 0.19883841 0.08229755 0.009354145 -0.28361586 0.068532735 0.06827802 -0.024891987
00000000: edfc 7ebd 9d94 01be 81f4 0e3e 8e83 1abe
00000010: 2d25 d5be f0d2 d53e d0c5 063e 2334 b9bc
00000020: f416 acbe 4124 6a3e 8621 d7bc 893b a5be
00000030: 991c 2fbe 66ed c9be 9922 32bd 2d1a d2be
00000040: 2c42 dabd 383c c93d 558f 29be f6aa af3e
00000050: f9ac ffbd 0cb8 263e d1f8 58be 0ccb e03d
00000060: 1305 523e 5aba 1cbd 4882 79be 53b7 56be
00000070: a6e7 e4be 343d d8bd 71c3 243e f84b 4f3e
00000080: 12dd 803d 4cb0 9dbe 4902 07be 7a35 6c3d
00000090: dc1e 4abd 767f 21be 117a 3b3c 8aca 93bd
000000a0: f571 3ebe a8d8 36be 3f8d fc3c a00f 483e
000000b0: d204 56be 41b1 783e a664 6c3e 65de fd3c
000000c0: 8dd5 b8bd 3adc 0a3e 9055 2c3e bf05 a6bd
000000d0: c55a acbe 5d0d cc3c e7d0 8bbe 07c4 86bd
000000e0: 9c80 29bd 4c9c 4b3e 9e8b a83d 2142 193c
000000f0: 1936 91be e45a 8c3d 59d5 8b3d 48ea cbbc

weight f4 [64, 64]
0.23565699 0.71827596 0.12000881 0.283726 0.13708447 0.7664324 -0.25959772 0.02248197
0.1776529 -0.36227003 0.48415658 -0.0003422249 0.17101544 -0.34233627 -0.2449991 -0.11490456
0.39908278 -0.20190915 0.31846938 0.07701663 0.20818558 0.24831446 -0.4029001 -0.60129523
-0.16278444 -0.56197315 -0.060837023 0.43486917 0.2736076 0.16037524 -0.3989815 -0.05798627
0.14978522 0.072668545 0.17644817 -0.0606727 0.06064496 -0.6543545 -0.077098474 0.35709956
0.43768182 -0.14680004 0.12660505 -0.08809873 0.088227 0.13480605 0.06782934 0.14148653
-0.45421824 0.16828872 0.1818835 -0.10000339 -0.38052723 0.25406957 -0.11136958 -0.14129308
0.0037853979 0.5204259 0.23347585 1.1239092 1.274764 0.36008942 -0.19282214 0.15466857
-0.08574503 -0.4208715 0.032854754 1.3103158 0.084251404 -0.28321746 0.32955098 -0.13066487
0.13353917 -0.54785144 0.6140063 -0.039710153 0.0061747083 0.009069413 0.07072141 -0.037122387
-0.14937519 -0.038911168 0.82607406 -0.43666127 0.04493987 0.124904655 -1.1295586 -0.3095783
0.13502826 0.24444604 0.12878814 -0.016045649 0.1581983 0.07380983 -0.48030946 -0.086659625
-0.089966156 0.20984216 0.06493699 -0.54987895 0.15248622 -0.33766443 0.16428432 -0.21426463
0.21246985 -0.14445385 0.19761567 -0.035327263 -0.036111206 -0.12073564 -0.045012474 0.027599141
0.59375465 -0.48341525 -0.27386358 -0.035130333 -0.352426 0.20028967 0.33657292 0.32802013
0.18755528 0.61160845 -0.3597434 1.4379002 0.30479276 0.05611808 -0.11853369 0.3152714
0.04379231 0.7389493 -0.07181845 -0.092290916 -0.045299064 0.421497 -0.6807036 0.22408207
0.049780946 0.30327526 0.30389887 -0.21478674 0.06883105 -0.3553489 0.078234725 -0.34341434
0.3528802 -0.1584773 -0.1591935 -0.13241239 0.07331342 0.24386711 -0.39363748 -0.5115409
-0.05821274 -0.6461479 -0.15757969 -0.16204911 0.046846665 -0.08687504 -0.039121795 0.018520825
0.04003776 0.020299165 0.027081102 0.31928736 0.05464489 -1.0719613 -0.1467466 -0.20935133
0.43526772 -0.1793713 0.08653387 -0.12441925 0.024799723 0.4283312 0.09927221 -0.07872551
0.14432786 -0.11870815 0.13551822 -0.1386294 -0.21661128 0.02452413 -0.5389116 -0.36195472
-0.5365185 -0.09239311 0.6991576 -0.27338463 0.27851546 0.7374514 0.06451866 0.022591786
-0.53733975 0.38341713 -0.100159325 0.47942254 0.078909 0.37178552 0.38308337 0.113651074
0.23789445 0.1629316 0.20355637 0.2804583 0.18289846 -0.07648851 -0.14822057 0.43926224
0.021127352 -0.16411638 0.04258516 -0.21801932 0.19979908 -0.5962282 0.13210341 -0.13331959
-0.068635695 -0.042695593 -0.19282396 0.16235602 0.11441617 0.12203591 -0.12406396 -0.07263725
-0.22811714 0.3021049 0.2107707 -0.7945448 0.090321414 -0.8192434 0.01360111 0.3897665
0.5554626 -0.11979281 0.087953486 0.20013304 0.43872446 0.13460146 0.1396494 0.13356197
0.6319206 -0.1871814 -0.059602387 -0.1529661 -0.011278461 0.26032752 -0.2298079 -0.27505648
-0.32801673 0.19300355 0.37590048 1.3319514 0.2913202 0.3671677 -0.13514133 0.12180249
00000000: 1150 713e efe0 373f 2ec7 f53d 8944 913e
00000010: df5f 0c3e ea34 443f fee9 84be 1c2c b83c
00000020: a4ea 353e 757b b9be 5fe3 f73e a66c b3b9
00000030: ac1e 2f3e b346 afbe 0be1 7abe 1553 ebbd
00000040: 9454 cc3e 46c1 4ebe 6b0e a33e e5ba 9d3d
00000050: 9a2e 553e 2546 7e3e ec48 cebe 7cee 19bf
00000060: f7b0 26be 79dd 0fbf 3e30 79bd 2ca7 de3e
00000070: 4c16 8c3e 6839 243e 4e47 ccbe 0383 6dbd
00000080: 4c61 193e 3fd3 943d d4ae 343e f083 78bd
00000090: d966 783d c783 27bf cee5 9dbd c1d5 b63e
000000a0: d517 e03e c052 16be c1a4 013e 1b6d b4bd
000000b0: 5bb0 b43d 990a 0a3e 1cea 8a3d d8e1 103e
000000c0: 4b8f e8be e153 2c3e ab3f 3a3e 94ce ccbd
000000d0: 77d4 c2be 6815 823e bc15 e4bd 22af 10be
000000e0: 7014 783b a23a 053f 4b14 6f3e 42dc 8f3f
000000f0: 772b a33f a45d b83e 2b73 45be 7061 1e3e
00000100: 179b afbd 787c d7be b592 063d 6eb8 a73f
00000110: 008c ac3d e101 91be e8ba a83e 03cd 05be
00000120: 7ebe 083e fe3f 0cbf 842f 1d3f 1da7 22bd
00000130: 3555 ca3b e097 143c 63d6 903d a50d 18bd
00000140: cff5 18be 5161 1fbd 9779 533f 1192 dfbe
00000150: de12 383d 03ce ff3d 6095 90bf 0c81 9ebe
00000160: d944 0a3e 1050 7a3e 0ae1 033e 2a72 83bc
00000170: bcfe 213e 9c29 973d 1feb f5be 9a7a b1bd
00000180: 2d40 b8bd dde0 563e affd 843d dec4 0cbf
00000190: 5925 1c3e 5ae2 acbe 263a 283e 3068 5bbe
000001a0: b291 593e b6eb 13be c35b 4a3e 52b3 10bd
000001b0: 58e9 13bd 3f44 f7bd 005f 38bd 9817 e23c
000001c0: 4e00 183f 3482 f7be d937 8cbe d3e4 0fbd
000001d0: 2e71 b4be bc18 4d3e 4953 ac3e 41f2 a73e
000001e0: 7e0e 403e 5f92 1c3f 4930 b8be 1d0d b83f
000001f0: cc0d 9c3e 12dc 653d cbc1 f2bd 416b a13e
00000200: 915f 333d c82b 3d3f 8d15 93bd 0503 bdbd
00000210: 838b 39bd 74ce d73e 9742 2ebf c575 653e
00000220: 1be7 4b3d e546 9b3e a298 9b3e 0ef1 5bbe
00000230: 4bf7 8c3d 4bf0 b5be 8739 a03d 01d4 afbe
00000240: b7ac b43e e047 22be 9f03 23be 1d97 07be
00000250: 5925 963d 4db8 793e da8a c9be 58f4 02bf
00000260: 7b70 6ebd f369 25bf 925c 21be 34f0 25be
00000270: 4ae2 3f3d 8aeb b1bd 2d3e 20bd fcb8 973c
00000280: a2fe 233d 6f4a a63c 30d9 dd3c a279 a33e
00000290: 52d3 5f3d 0736 89bf be44 16be 3260 56be
000002a0: 69db de3e 1cad 37be ab38 b13d 85cf febd
000002b0: ca28 cb3c 3a4e db3e 3a4f cb3d d73a a1bd
000002c0: afca 133e 421d f3bd 4ac5 0a3e def4 0dbe
000002d0: 59cf 5dbe d4e6 c83c 1cf6 09bf 2152 b9be
000002e0: 4759 09bf 9938 bdbd fefb 323f 12f9 8bbe
000002f0: 9499 8e3e 9dc9 3c3f 5c22 843d 6912 b93c
00000300: 198f 09bf 404f c43e 5520 cdbd df76 f53e
00000310: 0b9b a13d ac5a be3e 8123 c43e e5c1 e83d
00000320: 9a9a 733e 8bd7 263e 1571 503e 3b98 8f3e
00000330: bc49 3b3e 02a6 9cbd 22c7 17be fbe6 e03e
00000340: 4513 ad3c 200e 28be c76d 2e3d 7540 5fbe
00000350: 2198 4c3e 69a2 18bf 1e46 073e ee84 08be
00000360: df90 8cbd 93e1 2ebd a573 45be a840 263e
00000370: 0653 ea3d f7ed f93d 3f15 febd d7c2 94bd
00000380: 8a97 69be 7ead 9a3e 46d4 573e 4a67 4bbf
00000390: 6ffa b83d efb9 51bf 31d7 5e3c 7a8f c73e
000003a0: cc32 0e3f ef55 f5bd f520 b43d adef 4c3e
000003b0: 7ea0 e03e f7d4 093e 4100 0f3e 78c4 083e
000003c0: 8cc5 213f 7bac 3fbe a221 74bd 25a3 1cbe
000003d0: 4bc9 38bc a649 853e c352 6bbe 34d4 8cbe
000003e0: cff1 a7be b9a2 453e 0776 c03e 627d aa3f
000003f0: ec27 953e 68fd bb3e 7d62 0abe 9573 f93d

bias f4 [64]
-0.18433283 -0.103712305 -0.17359872 -0.101099305 -0.10794827 -0.27116716 -0.2780319 0.30737543
0.21000406 0.14307334 0.21505553 0.09116172 -0.3041608 0.1328402 -0.33431453 -0.062204067
-0.08287527 -0.30545032 -0.123161964 -0.07231274 -0.17054535 -0.11329916 -0.11765646 0.22526485
-0.18970937 0.11897163 0.10861421 -0.21319702 0.043619476 0.18300664 0.13098273 0.08553593
0.04326452 -0.15429442 -0.081772305 -0.19136827 -0.14980263 -0.025484415 -0.2916867 0.20541282
-0.15953328 0.2529402 0.012396325 0.1041602 -0.015107047 0.19147903 -0.19316632 -0.05132327
-0.21849951 -0.0933666 -0.071259335 0.033484288 0.08316535 0.09757445 0.20028286 -0.16300969
-0.023731044 0.115488485 -0.2404221 0.1843372 -0.093078285 0.026934726 -0.25358915 -0.16317613
00000000: bfc1 3cbe 1e67 d4bd ddc3 31be 270d cfbd
00000010: fc13 ddbd 6cd6 8abe 325a 8ebe 5060 9d3e
00000020: 4e0b 573e d181 123e 8437 5c3e ffb2 ba3d
00000030: f7ba 9bbe 4307 083e 462b abbe b1c9 7ebd
00000040: 82ba a9bd fc63 9cbe 573c fcbd b418 94bd
00000050: 71a3 2ebe 6409 e8bd dff5 f0bd d4ab 663e
00000060: 2c43 42be 66a7 f33d 2071 de3d 5250 5abe
00000070: 56aa 323d 1866 3b3e 5620 063e 762d af3d
00000080: 2336 313d 5bff 1dbe 3d78 a7bd 0bf6 43be
00000090: dc65 19be b1c4 d0bc f657 95be bd57 523e
000000a0: b15c 23be 6181 813e f519 4b3c f151 d53d
000000b0: 8c83 77bc 1413 443e 64cd 45be 5938 52bd
000000c0: 56be 5fbe fd36 bfbd 6af0 91bd d226 093d
000000d0: 9852 aa3d 1dd5 c73d f316 4d3e 03ec 26be
000000e0: 9b67 c2bc 3a85 ec3d 3631 76be e4c2 3c3e
000000f0: d49f bebd 37a6 dc3c 70d6 81be a517 27be

weight f4 [1, 64]
0.39437997 0.7050853 0.5000455 0.5820957 0.5117483 0.36361945 1.0174177 -0.51984024
-0.5207512 -0.65994066 -0.27264032 -0.1765587 0.5749299 0.2491496 0.4314859 -0.03867329
0.2616344 0.5887757 0.3522806 -0.10383168 -0.40366256 0.6531737 0.578342 -0.49491352
0.6758516 0.2834355 0.4635728 0.37256873 -0.31417996 0.20193654 -0.02911493 0.3564182
0.13268459 0.46641558 0.07767806 0.54849786 0.5293302 -0.66415125 0.49608856 -0.57137847
0.36584553 -0.49042442 -0.24663101 -0.8419721 0.41285133 0.22827697 0.32505387 0.048143964
0.61782885 0.6244547 -0.24991176 -0.14778265 -1.195521 -0.25260305 -0.51515806 0.08335412
0.007951572 -0.4829483 0.46560177 0.28762707 -0.30657512 -0.31021276 -0.09454304 0.3224166
00000000: 2cec c93e 7880 343f fb02 003f 3904 153f
00000010: f001 033f 542c ba3e be3a 823f 4014 05bf
00000020: f34f 05bf dff1 28bf 8397 8bbe cecb 34be
00000030: 9b2e 133f 1321 7f3e b8eb dc3e e267 1ebd
00000040: f2f4 853e 01ba 163f 1f5e b43e b4a5 d4bd
00000050: dcac cebe 6436 273f 390e 143f 4e65 fdbe
00000060: 9c04 2d3f 751e 913e 6a59 ed3e 54c1 be3e
00000070: 32dc a0be 74c8 4e3e 6f82 eebc 727c b63e
00000080: 78de 073e 06ce ee3e ad15 9f3d 5b6a 0c3f
00000090: 2f82 073f d105 2abf 52ff fd3e dc45 12bf
000000a0: 1b50 bb3e e918 fbbe d78c 7cbe 7c8b 57bf
000000b0: 4061 d33e 70c1 693e 766d a63e 9b32 453d
000000c0: 082a 1e3f 43dc 1f3f dee8 7fbe 5654 17be
000000d0: d506 99bf 3055 81be 66e1 03bf 91b5 aa3d
000000e0: 4f47 023c 0045 f7be 5b63 ee3e db43 933e
000000f0: 6af7 9cbe 35d4 9ebe c89f c1bd ca13 a53e
