output/ddpg/2021-12-19_old/2021-12-19_15-12-55-ddpg_s0/pyt_save/model.pt (torch_old, 573011 bytes, 11 tensors)

weight f4 [256, 16]
00000000: 0054 f5ba 5e54 093e 16b3 52be 8066 3cbe
00000010: f432 c5bd ec4b 893d 404f a2bb cefa 4a3e
00000020: 70bf b5bc 4c7b 873d acbb 9abd 7048 49bd
00000030: b891 74be 528b 29be e80e d3bd 00bb 173c
00000040: a925 c23d 1c80 1e3e 6bbe 2dbe 5049 f7bd
00000050: 790b b43d 1d85 533e 7036 82bd 5dd0 4b3e
00000060: ba7c 02bd 0e9a 833c 0197 823e c8fe 48be
00000070: 658d 2cbe dc76 83bd 3641 cabd 0040 513e
00000080: 0332 1fbe 171f ddbd 1243 2fbe acca 5ebe
00000090: 5ee9 1bbe f19d 623e 0f25 ef3d b761 043e
000000a0: 49c6 af3c 50ff fcbd abe7 4d3d 73e3 41be
000000b0: 3e30 34be 5d24 fbbd 494d 283e d0d3 1a3e
000000c0: 583b ccbd 9959 e33b ffb0 243e 431a 953e
000000d0: 3094 b13d 3b96 383d 1b97 343e f03b 01be
000000e0: 936a 903d 4d97 42be 8626 10be 6af2 88bd
000000f0: 9ede ee3d a88c e63d c0a1 07be 7770 a13d
00000100: 6e89 0c3e 203f 01bd 4064 1c3c 0044 6d3d
00000110: 00d1 1e3e 48cf 753e 9647 45be eca1 bbbd
00000120: 9838 c93d d01b 543e e8c5 5e3e 22e2 613e
00000130: 78ca 4b3d f89c 5ebe 9066 bc3c ac27 20be
00000140: 8c94 6ebe 3e74 633e f0a6 423e fe5d 7fbe
00000150: 08aa 3f3d c880 2cbd b882 28bd 1c5f eabd
00000160: 8ce4 c43d 34a1 17be dcb1 bb3d 1676 013e
00000170: 5c43 373e 4871 bf3d 4a5f 7dbe 0011 26be
00000180: 7d07 023e 47d3 713d 242e 44be 400f 13be
00000190: 5d7a 6b3e 99fc 2e3e b7a3 dcbd 345e 62bd
000001a0: f49b 6cbe 24af 40bb 7c3f 32be e0d6 37be
000001b0: 9afb 46bc a0ab 2b3d 21b5 c8bd 1f6f 193e
000001c0: 38c9 1bbe 6849 683e d06f 2f3e 64e1 57be
000001d0: 88db 7ebd 80d2 383c 1867 153d d0dd 723d
000001e0: 5cec c83d e059 753c ccd1 f9bd d445 f23d
000001f0: 5691 75be a0bb 17be 3c2b 80bd ec66 f9bd
00000200: 3c7f c3bd c833 5abe 8ae4 67bd 8e98 1f3d
00000210: 03be 1ebe 2203 aabc 9a65 2f3e becd 0abd
00000220: 6cdd 13ba 99cd ecbc 278b 623d 1c6a 1b3e
00000230: 1cf2 6a3e 86a4 1a3e 4c91 6b3e 2c28 d0bc
00000240: 66f8 65be 40ba f2bd ce4f 2e3e 006b d4ba
00000250: dc7c febd 022d 44be 0094 6fbe ec10 58be
00000260: 70b4 4fbd 5664 0c3e 7467 0a3e 02e5 76be
00000270: 2eb0 1f3e 8a52 48be f07b 58bd 1c9a cfbd
00000280: a0b2 65bd 43e7 69bd feb4 66be 9ce1 5dbe
00000290: fa76 01bd 072f 95bb d467 f6bd 6589 ae3d
000002a0: dc3a 70be 65be c3bc ed77 603e 7d6c 08be
000002b0: 59f7 5f3e c023 a93d 20bb 6fbe 2fc7 1a3e
000002c0: dc81 96bc 01a6 f3bd 750b 4b3e 1a5d 3abe
000002d0: f235 fe3c 7e95 39bd 14e9 413e a4a3 6f3d
000002e0: 66e1 df3d bcb9 c53d 885d 9bbd 8904 3cbd
000002f0: 737c 4abe 61a5 0a3e 1d4e 493e f2fa 373e
00000300: e047 3bbe 34d0 3b3b 8fc2 39be edd0 39be
00000310: 0b60 0dbe 8482 a13d df71 21be fac8 44bc
00000320: 6f42 353b 2423 1e3e f009 3bbe af92 1fbe
00000330: 2d7e 1bbe 4b59 2c3e 4b61 c7bd 2a09 513e
00000340: f1bc b43d da27 ea3c ddca a6bb 80d2 88bd
00000350: 78c1 0f3d 7ae1 73bd 36b9 02bc f9fc 023d
00000360: ba77 46be 1fbd 0bbe 93c7 623e 7f5f 23be
00000370: a95a bfbc d851 7a3e ec37 b63d 4c79 d63a
00000380: ca82 7cbe 6d47 0d3e ba4d 35be e33c 98bd
00000390: 027f b4bd 742d 58bd 5815 c9bc 7b52 6d3e
000003a0: 0a3b 1b3d af2b 483e 4a01 3b3e 907a 0abe
000003b0: b228 a93d b31a 4cbe b22a 16be 32bd 313d
000003c0: f824 583d 4002 563e cd87 a0bd 6c2b 8d3c
000003d0: aa47 f33d bb9c 82be 9d9f 383e 45ac 4ebe
000003e0: 6e71 52bc 4685 3cbd ad65 03be 18c6 f83c
000003f0: 9d63 503e 54d5 8fbd ed1a 5bbe 11f0 c4bd
-0.001871705 0.1341109 -0.20576128 -0.18398476 -0.09628859 0.06703934 -0.004953295 0.19822237
-0.022186011 0.06615314 -0.07555327 -0.049141347 -0.23883712 -0.16557053 -0.103055775 0.009260893
0.09479839 0.15478557 -0.1696717 -0.1207453 0.08791251 0.20656247 -0.063580394 0.19903703
-0.03185723 0.01606467 0.25505832 -0.19628441 -0.16850813 -0.06419155 -0.09875719 0.2043457
-0.15546422 -0.107969455 -0.17115429 -0.21757 -0.15225741 0.22130562 0.1167699 0.129279
0.021456854 -0.123533845 0.050269764 -0.18934421 -0.17596528 -0.12262795 0.16435732 0.15119863
-0.099722564 0.006938171 0.16083144 0.291216 0.08670843 0.045065146 0.17635767 -0.1262052
0.070515774 -0.19003029 -0.14077196 -0.06686862 0.116635546 0.11257297 -0.13245296 0.07882779
0.137243 -0.03155434 0.009545386 0.057926178 0.15509415 0.24004853 -0.19265589 -0.091617435
0.098252475 0.20713735 0.21755183 0.22058919 0.049753636 -0.21739566 0.022998124 -0.15640134
-0.23298854 0.22212312 0.19008994 -0.24938199 0.046793014 -0.042115003 -0.041140288 -0.11443922
0.09613904 -0.14807588 0.09164783 0.12642702 0.1789679 0.093477786 -0.24743381 -0.16217422
0.12698169 0.05903938 -0.19158226 -0.14361286 0.22995897 0.17088546 -0.10773414 -0.05526562
-0.23106366 -0.0029401267 -0.1740703 -0.17953062 -0.012144947 0.04191172 -0.098001726 0.14983796
-0.15213478 0.22684252 0.17132497 -0.21082073 -0.06222108 0.011280656 0.03647527 0.059293568
0.09810707 0.014975041 -0.12198219 0.11829725 -0.23981223 -0.14817667 -0.06258246 -0.12177834
-0.095457524 -0.21308815 -0.056614436 0.038963847 -0.15502171 -0.020753447 0.17128602 -0.033887617
-0.00056405994 -0.02890663 0.055308487 0.15177196 0.2294392 0.15101823 0.23004645 -0.02540978
-0.22458038 -0.118519306 0.1702263 -0.0016206205 -0.12426159 -0.19157794 -0.23396301 -0.21100205
-0.050709188 0.1371015 0.13516027 -0.24110797 0.15594551 -0.19562736 -0.05285257 -0.10136816
-0.056078553 -0.057105314 -0.2252998 -0.21668094 -0.031607606 -0.0045527252 -0.120315224 0.085223
-0.23459953 -0.023894498 0.21920748 -0.13322635 0.218717 0.08258772 -0.23411226 0.15115045
-0.018372469 -0.11896897 0.1982859 -0.18199578 0.031031583 -0.045308582 0.18936568 0.05850567
0.10931663 0.09654567 -0.07586199 -0.045902763 -0.19774036 0.1353965 0.19658704 0.17966822
-0.18289137 0.0028658034 -0.18140624 -0.18146105 -0.13806169 0.07886222 -0.15766095 -0.012010807
0.0027658006 0.15443093 -0.1826551 -0.15583299 -0.15184851 0.16830938 -0.09735354 0.20413652
0.088251 0.028583456 -0.005090101 -0.06680775 0.035096616 -0.059541203 -0.007978728 0.031979535
-0.1938161 -0.13646363 0.22146444 -0.15954398 -0.02335866 0.24445283 0.08897385 0.0016363054
-0.24659267 0.13796778 -0.17705432 -0.07433488 -0.08813287 -0.052777722 -0.02454631 0.23175995
0.0378981 0.19547914 0.1826221 -0.13523316 0.08259715 -0.1993206 -0.14664724 0.04339332
0.05276963 0.20899296 -0.07838402 0.01723262 0.11878903 -0.255102 0.18029638 -0.20182903
-0.012844427 -0.046025537 -0.12831755 0.030367896 0.203505 -0.07023111 -0.2139699 -0.096161015

bias f4 [256]
00000000: 083a 3a3e b69c 1cbd 5e7b cdbd 55fa 083e
00000010: 5011 ad3c 1cc2 e3bd f966 753d 34b7 2abe
00000020: 6f74 663e 2062 603e 69c1 dd3d 086f 103e
00000030: e8b5 82be cae7 13be 74a2 8abe 0486 09be
00000040: 323e 54be 43e7 363e abec 183e 42b9 143e
00000050: 5edf dbbd d027 4f3e 04d5 cbbc 4c65 62bd
00000060: 38a5 fa3d 9c47 283e 2b6c 6abe a23a 7c3e
00000070: 20b4 cebc 31a8 7b3d aa01 80be e785 3b3d
00000080: a865 fdbd c24a 20be e686 c2bd aa27 8a3c
00000090: f4db 91bd fafd 23be c44a 373e f746 8c3d
000000a0: b83e 6ebe 50cd 563d 708b 7b3d 8082 163c
000000b0: 7897 a03d 5b88 c3bc 60eb df3d 6a10 2bbe
000000c0: 7d86 e8bd 6cc5 3f3e 42c7 1fbe b1d7 063e
000000d0: 6671 673e 0722 41be be29 f0bd 9cfc 543e
000000e0: aca9 d1bb a00c d13c e905 cc3c a8fe d23d
000000f0: f423 e6bd 51cb 143d e061 2e3e b4bf 7ebd
00000100: 423f 8dbe d60e b93d 7c53 74bd 3290 72bd
00000110: 0fa9 0e3e 7e3c 193d cab2 22be d845 ecbd
00000120: d47b 81bd a8fe 7cbd ba18 7cbd 72fa 2ebe
00000130: acf9 443e 66c4 043e 1015 4a3d 359a 733d
00000140: 70c1 ef3c 707c 3f3e 38b6 673d fb03 523d
00000150: 3858 03be d1c9 6d3d 4296 5cbe 1c11 943d
00000160: e8e5 5dbe ea97 09be fc26 073e a142 18be
00000170: 969d 403e fa71 0dbe 7dfa 6e3e f8cd 9d3d
00000180: 0983 04be be99 0e3e 60ac 6abe 742c 22be
00000190: acbe 1ebe db4e ed3c 84a1 673c 5ad3 68be
000001a0: aa07 773e 2835 a9bb 9d1b 0dbe 7af2 983c
000001b0: de11 e1bd 568a 883d b225 b43d 8ca3 79bd
000001c0: 00ca 6e3c 7252 183e 8b07 1cbe b5dc 6ebd
000001d0: 04a1 e6bc 3677 10be fcaa b23c 97da c03c
000001e0: 7b6c 57be 24f6 363d ea57 743e c835 023e
000001f0: 1730 15be fab2 7c3e cc0e 26be b006 08be
00000200: 4b0a d63d 9aa8 4b3e 8936 6f3e 228b 643e
00000210: c154 04be 8851 6a3d 6ec1 26be 3807 623c
00000220: feb3 493e c41a fc3d 8444 82be 5a87 e0bd
00000230: 08c9 48be 72d4 e33d 447b 12bd 2966 48be
00000240: 3c71 afbd 2ab7 c73d 5fbf e8bb e834 703e
00000250: 6507 0b3a 8f33 a43d 4019 9bbd 4ab3 b43c
00000260: 5ed8 7b3b 32e6 5b3e 0218 873d 2ee6 0ebe
00000270: 38e2 5fbe 257f 6dbe e0ef b9bd 185e 043d
00000280: e0ca 793e 5421 90bc c540 bc3d ee51 0a3e
00000290: 8279 cfbd d5dd 61be a185 e13d e0a5 ee3d
000002a0: bc67 eebd b441 233c c4f6 84be 6832 8fbb
000002b0: 0760 4d3d b179 543d e53e edbc cec6 e53d
000002c0: b9bb 93bd 0403 2b3e 5369 64be 9e4d 12be
000002d0: bd4a 47be ec86 67be d533 323e 9c49 7fbd
000002e0: 4a18 49be 3063 543d 3047 38be bd97 ab3c
000002f0: 422c 013e 1888 58bd 208c 103e db2f 683d
00000300: a190 46be a88a 493d 53b7 2d3e 731b 56bd
00000310: 4a61 d13c c43c 2c3d 4c63 4a3c 0418 853d
00000320: 0c1c 75be 4df2 3e3e 644e df3d a0e8 fc3c
00000330: 7418 2c3d 3701 47be 7baf 71bd 1cc1 33bc
00000340: 106a 733d f35e 11be 404d d93c 953f a9bd
00000350: e048 413e 90bd 5bbe 5015 d63c 1bf3 363e
00000360: 3728 40be 40cb eabb 6897 ec3d fdf7 c43d
00000370: 60d8 f03c f4fe e73d f074 32be f837 553e
00000380: 40b5 b63b e456 233e 2d6b 4b3d d38d 63bd
00000390: 364f d53d fd90 783e 3d4a 823e 7b6f 3cbe
000003a0: e724 b5ba c476 2ebe 6aa6 0e3e ba87 6c3e
000003b0: 1469 3cbe 27a6 3bbc 8911 283e 28fa 293e
000003c0: cf97 3ebe 6159 3e3e 048a 1dbd 8668 55be
000003d0: d8fa 4b3d 7c85 ee3d 44a1 163e 6e0f 2ebe
000003e0: 042a 52be 848d 24be 7b55 0b3e 25f7 74be
000003f0: c204 9f3a e045 8ebd 0387 d03d e018 493d
0.181862 -0.03823539 -0.10033296 0.13376744 0.02112642 -0.11121008 0.059912656 -0.16671449
0.22505353 0.21912432 0.10827906 0.14104855 -0.25529408 -0.1444389 -0.27077067 -0.13430029
-0.2072685 0.17861657 0.14934032 0.14523795 -0.10735963 0.20230031 -0.024881847 -0.055272385
0.12238544 0.16433567 -0.22892825 0.24631742 -0.025232375 0.061439697 -0.2500127 0.045781996
-0.12372905 -0.15653518 -0.09498386 0.016864616 -0.07122031 -0.16014853 0.17899615 0.06849473
-0.23266113 0.052441895 0.061412275 0.009186387 0.0784139 -0.02386873 0.10933566 -0.1670548
-0.113537766 0.18727654 -0.15603355 0.13168217 0.22601852 -0.18860637 -0.11726712 0.20799488
-0.0063984003 0.025518715 0.024905162 0.10302478 -0.11237326 0.03632671 0.17029524 -0.06219454
-0.27587324 0.09036033 -0.05964993 -0.059219547 0.13931678 0.037411205 -0.15888515 -0.11536759
-0.063224465 -0.061766297 -0.06154702 -0.17087725 0.19235867 0.12965545 0.049336493 0.059473235
0.029267043 0.18699813 0.05657026 0.051273327 -0.12826622 0.058053795 -0.21541694 0.07229826
-0.21669734 -0.13436857 0.13198465 -0.14869167 0.18810114 -0.1381301 0.23337741 0.07705301
-0.12940611 0.13925835 -0.22917318 -0.1583727 -0.15502423 0.028968265 0.014137629 -0.22736874
0.24124017 -0.0051638074 -0.13780065 0.01867031 -0.10989736 0.066670105 0.08796252 -0.060946986
0.014574528 0.148752 -0.15237252 -0.05831595 -0.02815295 -0.14107975 0.021810047 0.023541732
-0.21037476 0.04466833 0.23861662 0.12715828 -0.14569126 0.24677649 -0.16216582 -0.13283801
0.10451182 0.19888535 0.23360647 0.223187 -0.12922956 0.05720666 -0.16284725 0.013795666
0.19697568 0.12309793 -0.25442898 -0.10963316 -0.19607937 0.11124505 -0.035762087 -0.19570221
-0.085665196 0.09751733 -0.0071028913 0.23457682 0.0005303531 0.080176465 -0.075731754 0.022058148
0.0038428525 0.21474531 0.06596376 -0.13954994 -0.2186364 -0.23193033 -0.09078956 0.032316297
0.24393797 -0.017594017 0.09192041 0.13507816 -0.10130598 -0.22057278 0.11011816 0.11652732
-0.116408795 0.009964395 -0.25969517 -0.0043700226 0.050140407 0.051873866 -0.028960655 0.112195596
-0.0721354 0.16700369 -0.22305803 -0.14287421 -0.19462104 -0.22610062 0.17402585 -0.06232606
-0.19638172 0.051852405 -0.17995906 0.020946378 0.1261454 -0.052864164 0.14115953 0.056686264
-0.19391109 0.0492045 0.16964464 -0.05227227 0.025559086 0.042050138 0.012352776 0.06498721
-0.2393648 0.18647118 0.10903624 0.030872643 0.042015508 -0.19434057 -0.05900524 -0.010971334
0.05942732 -0.14196377 0.026526093 -0.082640804 0.18875456 -0.21459031 0.02613321 0.17866175
-0.18765341 -0.0071653426 0.11552316 0.096176125 0.02940005 0.11327925 -0.1742742 0.20822132
0.005575806 0.15951115 0.049662758 -0.055555176 0.10415499 0.24274059 0.25447264 -0.18401901
-0.0013820202 -0.17037493 0.1393067 0.2309865 -0.18399459 -0.011453188 0.16412939 0.16599333
-0.18612598 0.18588783 -0.0384617 -0.20840654 0.04979977 0.11646554 0.14709955 -0.16998073
-0.2052384 -0.16069609 0.13606827 -0.23922403 0.0012132155 -0.06946921 0.101820014 0.04909599

weight f4 [256, 256]
00000000: 1446 01bd 5c17 a13b 8102 533d cc77 8c3b
00000010: f4b7 fdbc 4022 093b 07b4 81bd a43f 24bd
00000020: b834 3ebc de86 1fbd 2033 403d 6ee1 c83b
00000030: 08b1 2d3d 469c a5bc bcab 70bc 6a23 203c
00000040: e43c 98bc 7caf dfbc 0cc5 89bd 56db 403d
00000050: 4018 4f3d 8589 8abd 4866 a9bc f22f 5abd
00000060: 7781 00bd 2d51 2a3d 9db5 e03c 90e8 9ebb
00000070: 14ad da3c 367c 4f3c 5cce 0b3d b73c 66bd
00000080: 4c43 9e3c b274 72bd c45c 28bd 84cc bebc
00000090: 1089 c7bb a296 71bd 40e0 cb3a dda6 833b
000000a0: 0832 cbbc a011 a63c e2b2 5f3d 08ea 2ebc
000000b0: 5ee9 20bd 8658 7bbd 92ee 3abd 0a2d 26bd
000000c0: 1441 3dbd 004b c9bc bce1 e83c cf6d 5e3c
000000d0: be28 4e3d fd97 653d eb83 e9bc f2aa f9bc
000000e0: 0f26 273b 26d9 4bbd 9a5e e53c 204c 38bc
000000f0: bfeb 6ebd 65dd 59bd c866 30bd 0c1d 373c
00000100: 7fb3 2b3d 8f3b 323d b926 bebc e1bb 2cbd
00000110: 1634 0abd 4676 47bd 3401 84bc 5434 67bd
00000120: d4d4 083d 2cf2 70bd d0cf 37bd 3acd 2b3d
00000130: 4814 58bd 60cd 743c 04c0 3f3d 91c0 633d
00000140: 8a88 013d ac6e babc 9849 123d 850b 04bc
00000150: c4de 9dbc 0070 5539 c157 033c 30a7 2b3d
00000160: 54eb d63c 294b c33c 1830 193c 8028 4ebb
00000170: 14d9 a53c 804b 763c 64c1 86bd 308e 253c
00000180: ef43 0abd 7749 20bd f1f4 943c 7865 513c
00000190: 438e 963b 64e2 f2bc df65 bb3c 103d 703d
000001a0: e08b fa3b b04a a13c 2429 79bd d630 183d
000001b0: d8dc b13c 5984 b53c 5754 a43c 97d8 b7bc
000001c0: e0dc 75bb da9e 773d b7bb 223d 8614 50bd
000001d0: d01d 4b3d fa3f 663d e8aa 063c 04ba 47bd
000001e0: 8045 c83b d0ce 4ebc 860f 383d cc3f 87bd
000001f0: 7fb6 233c fdf9 d9bb 54bc 8dba b019 303d
00000200: abac 9fbb c619 4ebd ceeb 2dbd ef21 febc
00000210: 5bc8 2d3a ac94 c53c 76fd 8fbc 6142 fbbc
00000220: dc90 af3c 2ce9 78bd 8a4d 1a3d 4961 59bc
00000230: de21 323d ea6f 413d c956 313a 18a3 613c
00000240: f352 29bd c2fe 1e3d ce83 fa3c 08d4 20bc
00000250: e090 c73c 34ab 1bbc a002 483d f395 a13c
00000260: 3f17 223d d8b2 68bd 87d8 603d 9e98 8d3c
00000270: d8ec f83c 3cde 023c 3223 283d 0001 713d
00000280: d66e 39bc 9e0d 52bd 52dc 523d f0f3 57bc
00000290: e8ec f6bc 0697 1d3d 2eb9 ec3c 6818 093c
000002a0: c08e 80bb 5508 93bc 9428 523d e566 033d
000002b0: dbbc ff3c e03e 233d e0fa 05bd 68ce 553c
000002c0: cf04 76bd 3149 f83c cabf 7dbd f4d8 7fbd
000002d0: 97cd 8abd ecdd 1d3d 1a1d 043a 0008 1539
000002e0: 40df 223c 5cc4 c1bc 9ca1 ccbc 82fe 44bd
000002f0: 0014 7abc b286 1dbd de4e 8ebb e38f 303d
00000300: 1aa2 53bd 74c9 fb3c 8c69 3ebd f4a7 02bd
00000310: c83c 483c 6032 303c 015b 393d 0020 c4b7
00000320: 3001 c3bc 3853 02bd 402c f03a c8f4 3fbd
00000330: ef4d 61bd e410 dbbc 6d20 90bb 28e3 2cbd
00000340: 2022 12bd 64c8 363d 0e93 6c3d 6060 a0bc
00000350: a539 74bd 6005 c4bc f4a4 ce3c d2f9 693c
00000360: b2e0 cfbc d476 61bd c8f3 99bc 08f6 64bc
00000370: be6b 133d e278 17bd 68a4 193d 380c 0e3c
00000380: e09e 2bbc 92b8 7cbd 43a8 643d b098 36bc
00000390: 2813 213d 7f00 1dbd 2af2 88bd e00e 4cbd
000003a0: 8eb1 1bbd e32a d4bc 72c9 72bc c0e6 3d3d
000003b0: 6a51 82bd 415e ce3c e5d0 3e3d 0788 b7bb
000003c0: 6c34 38bd 5af1 82bb c0ee 723c 325b b13c
000003d0: d8a1 9bbc 28b4 afbc 3854 11bd 589b 77bd
000003e0: 3ba4 823c 76c5 59bd 9d92 13bd 809a 28ba
000003f0: 9cd1 2c3d ef09 4b3d 5dcb 52bd 8606 5e3d
-0.031560972 0.0049161147 0.05151606 0.004286742 -0.030971505 0.0020924956 -0.063331656 -0.040099755
-0.011609249 -0.03894698 0.046923757 0.006130389 0.04240516 -0.020216119 -0.014689382 0.009774068
-0.018583722 -0.027305357 -0.06727037 0.047084175 0.050560236 -0.06764511 -0.020678654 -0.05326838
-0.031373467 0.04158132 0.02743035 -0.004849501 0.026693858 0.012663892 0.034132347 -0.056210246
0.019319199 -0.05919332 -0.041104093 -0.02329088 -0.006089337 -0.058981545 0.0015554503 0.0040176944
-0.02480413 0.020272076 0.054613955 -0.010675915 -0.039285056 -0.06136372 -0.045637675 -0.040570296
-0.04620464 -0.024571896 0.028427951 0.013575985 0.050331824 0.05605315 -0.028505286 -0.03047702
0.0025504862 -0.049767636 0.027999211 -0.011248618 -0.058330294 -0.053189654 -0.04306677 0.011176359
0.041919228 0.04351383 -0.023211824 -0.042171363 -0.03374108 -0.04869678 -0.016113855 -0.05644639
0.033406094 -0.058824703 -0.04487592 0.041943766 -0.052753717 0.014941543 0.04681398 0.055603568
0.031624354 -0.02275785 0.035714716 -0.008059387 -0.019271262 0.00020354986 0.008016528 0.04190749
0.02623526 0.02383955 0.009349845 -0.0031457245 0.020245112 0.015032649 -0.06579855 0.010104701
-0.033756193 -0.03913256 0.018183203 0.01278054 0.0045945956 -0.029648967 0.022875724 0.058651984
0.007646069 0.019688934 -0.06083025 0.03715595 0.021711752 0.022157835 0.020059748 -0.022442145
-0.0037515685 0.060454227 0.0397298 -0.050800823 0.04958898 0.056213357 0.008219458 -0.048761383
0.0061118007 -0.01262255 0.04493668 -0.06603965 0.009992241 -0.0066521154 -0.0010813572 0.042993248
-0.0048728785 -0.05031755 -0.04246121 -0.03102204 0.00066292816 0.024118744 -0.017576914 -0.0306713
0.021431379 -0.060769245 0.037671603 -0.0132678235 0.04348933 0.04722587 0.0006764946 0.013771795
-0.041338872 0.038817175 0.030580427 -0.009816177 0.024361074 -0.009501267 0.04883063 0.019724822
0.03957295 -0.056811184 0.054893997 0.017284688 0.030386373 0.007987555 0.04104919 0.058838844
-0.011317929 -0.051282518 0.051479645 -0.013180718 -0.030142263 0.038474105 0.028896894 0.008367635
-0.003923267 -0.017948309 0.05130823 0.03208055 0.031217983 0.039854884 -0.032709956 0.013049699
-0.06006318 0.030308338 -0.061950482 -0.062462762 -0.067774944 0.03854172 0.0005039737 0.00014212728
0.009940922 -0.023653202 -0.024979405 -0.04809428 -0.015263557 -0.038458534 -0.004342898 0.04310597
-0.051668264 0.030735709 -0.046487376 -0.031898454 0.012221523 0.010754198 0.045252804 -2.3379922e-05
-0.023804277 -0.031817645 0.0018323734 -0.0468643 -0.055005964 -0.026741453 -0.0043983967 -0.04220882
-0.035677075 0.0446247 0.05775743 -0.019577205 -0.059625287 -0.023928344 0.02522514 0.014280753
-0.025375698 -0.055044964 -0.018793002 -0.013974674 0.035991423 -0.036980517 0.037510306 0.008669905
-0.0104748905 -0.061699457 0.05582453 -0.011144802 0.03932491 -0.03833055 -0.06686814 -0.049818873
-0.038011126 -0.025899356 -0.014818536 0.04636264 -0.06363185 0.025191428 0.046585936 -0.0056009325
-0.04497187 -0.0039960565 0.01482743 0.02164993 -0.018998072 -0.02144821 -0.035480708 -0.06045088
0.015947452 -0.05316683 -0.036028493 -0.00064317137 0.042192087 0.04957002 -0.051463474 0.05420544

bias f4 [256]
00000000: a4d1 063c 305d 213c 06ad e63b 36ae 7d3d
00000010: c8fc 6b3d 838a b3bc c0ed d9bc 150d 093d
00000020: 43d0 ffbc 4426 51bd ec9e 2b3d c692 40bd
00000030: c888 c3bb 6f6d c43c 3ce6 e83c 133e d7bc
00000040: 9dd7 203d 4f75 893c 1b2a 82bd df57 3e3d
00000050: ac8d 5abd 5c99 833d 5466 debc 3bd6 4cbd
00000060: 1190 413d d559 4dbc 0bbb 54bd 0ead 04bd
00000070: 7c0a 263d 3140 7c3b 577b 3abd 9646 14bc
00000080: 6038 313b 771f aa3b 5ce0 4dbc 6f09 8abc
00000090: df6b 9f3c a91b 13bc e126 fcbc 666c 563d
000000a0: 6409 bf3c 4066 0c3b 347b 903d ed98 89bd
000000b0: b140 11bd 9f7c 193c 86bf e1bc 387e 713c
000000c0: 27e1 843d b60d 1abd 3a20 823d 3025 e7bb
000000d0: ef91 a8bc 7cb9 783c 3a8b d33c 638e da3c
000000e0: 8a33 64bd 07bb 22bc 46a6 22bc e0ce 8a3b
000000f0: a0d7 aabc d0a1 2ebc 03c7 063d 4bcc 0abc
00000100: 61fc fdbc c8e1 513d 2683 3fbd 00a8 473d
00000110: 507c 0bbc aa0b c03c 2155 08bd ca5c 173d
00000120: 72fe 51bd e07b 9f3c cfca 80bd 03f1 893d
00000130: 7927 29bc d6af 52bd 71b7 67bb 1804 4b3d
00000140: 6797 783c fcf5 623d ec7d 063c 8055 31bb
00000150: edf4 233d 038e 4c3d f56e 193c b3c3 e6bc
00000160: 9970 5fbc 59fa 3fbd 6b99 53bd 6d68 92bb
00000170: 681b 953c 7402 3f3d f3a2 493b df30 64bc
00000180: bd35 723c 9ae8 be3d bcd4 31bd e8ef 423d
00000190: 1709 613b 85f9 eeba ce95 5b3d 35e0 f63c
000001a0: 18cc 73bd decd 99bc 8eee 53bc 606d 61bc
000001b0: 7a84 373d 4c1f c73c 7c2c 11bd a19d d2bc
000001c0: 1992 483d 2b8e 7b3d 94f0 b7bc 8ed9 bd3c
000001d0: b81f 1fbd 605c 273c 7665 01bd 9346 c83c
000001e0: 0922 cdbc 17f8 4e3d b81d 1e3d cbfa 4fbd
000001f0: 9c90 06bd 2edf 1fbd 8ace 93bd 5ad5 f23b
00000200: 80a0 23bd 86e8 84bd d5bc f4bc 1574 9dbc
00000210: 542e 903c 608c 5c3b 181e 4b3d 7fe6 0cbd
00000220: 30a5 37bc a626 903b 0ef8 ddbc 20c0 aebb
00000230: 8955 8b3c daf1 c6bc 88bc 033c 12bd 473d
00000240: 601c 00bc b7e0 47bd c56e f4bc 2f69 133c
00000250: 9a55 3d3d 28e0 653d 1353 84bd 2d3d 44bc
00000260: c864 203d 44ba 84bc 0a64 a5bc 44fc 53bd
00000270: 48ad 57bd 438f 823c 8080 633a b62a 57bb
00000280: f93e 8f3c 86e4 16bd e24b 97bc 185a 60bc
00000290: 469e 4ebd e87f 5a3d 6c7d b73c 54fd 6e3d
000002a0: 2c28 d93c 61e9 343d 06dd 043d d4f7 1fbd
000002b0: 5069 e6bc 2b06 23bd 9c9a 8c3c 7754 6bbb
000002c0: 87b3 c3bc 5723 13bc 307c 95bb b4af e1bc
000002d0: f97b a63b 8811 863d 0ce0 dcbc 3d98 b53c
000002e0: 5f86 dc3c 1257 673d 5b8e 1fbc cdf2 573d
000002f0: d5fe 3c3d 0435 f8bc 0afe 133d c3eb 393d
00000300: ef58 7cbd 5719 efbc b2a3 843c 98ca 153c
00000310: 1cb9 0f3d a84a 303c d041 a5bb 55b1 31bd
00000320: 943e 903c 488f d9bb 08f9 b53c e253 793d
00000330: 903d 253d a007 f93b 201e 493b 6132 27bc
00000340: e718 e2bc fc47 d33c c490 6cbd 5484 ffbc
00000350: 6552 af3c 50ef 7d3d cb6b 59bc 26a7 95bc
00000360: 26fc 47bd 6077 2cbd f06e 5abc ca15 f23c
00000370: eec5 493d 1df2 b73c 1dc4 293d acac b7bc
00000380: a06b 73bc 80bd 6e3c cca8 883c fbf9 7e3d
00000390: 467d 133d e81c 19bd 8c33 8d3c 0c7e dbbc
000003a0: 9128 013d 14b6 42bd f324 023c 9c25 433d
000003b0: f0f7 18bd d5eb 4ebd 5a16 413d ba2c a13b
000003c0: 5669 353d 9d7d 743d 0a53 673d c3b6 733d
000003d0: e2d4 0abc c416 dd3c 55d7 c2bb 9328 623d
000003e0: 9819 91bc 2cd1 44bd 8017 40bd 8bc6 13bd
000003f0: d056 09bd 2261 4bbd 5463 9c3c 8189 28ba
0.008228693 0.009848878 0.007039669 0.06193372 0.057614118 -0.021916633 -0.026602626 0.03345974
-0.031227237 -0.051061884 0.041899607 -0.047014974 -0.0059672333 0.023977963 0.028430097 -0.026274716
0.039268125 0.01677957 -0.06355687 0.04647052 -0.053357765 0.06425735 -0.027148403 -0.050008994
0.047256533 -0.012533625 -0.05193619 -0.0323916 0.040537342 0.003849041 -0.045527782 -0.009050032
0.0027041659 0.005191739 -0.0125656985 -0.016850201 0.019460617 -0.008978763 -0.030780258 0.05234947
0.023319907 0.002142325 0.07054749 -0.067186214 -0.035462085 0.009368091 -0.027557146 0.014739566
0.06488257 -0.037610732 0.06353803 -0.0070539936 -0.020577399 0.015180942 0.025823224 0.026679223
-0.055713214 -0.009932286 -0.009927338 0.004236087 -0.020854771 -0.010658696 0.032904636 -0.008471559
-0.031004133 0.051240712 -0.046755932 0.0487442 -0.008513525 0.023443062 -0.03328431 0.036953725
-0.05126805 0.019468248 -0.06288683 0.067354225 -0.010324352 -0.05143722 -0.0035357142 0.04956445
0.015172816 0.05541037 0.008208733 -0.0027059019 0.0400285 0.04994012 0.009364833 -0.028169489
-0.013637685 -0.04686961 -0.051659983 -0.004468015 0.018201545 0.0466332 0.0030767291 -0.013927667
0.01478332 0.09321709 -0.04341577 0.047592074 0.0034337693 -0.0018232322 0.05360966 0.030136207
-0.05952081 -0.018774923 -0.012935294 -0.013758987 0.044804074 0.024306916 -0.035442814 -0.025709929
0.048967455 0.06141488 -0.022453584 0.023175027 -0.03884861 0.010214895 -0.0315909 0.024447715
-0.025040643 0.050529566 0.03860256 -0.050776284 -0.032852754 -0.0390312 -0.072171286 0.0074106874
-0.039947987 -0.06489663 -0.029875198 -0.019220391 0.017600216 0.0033653006 0.049589247 -0.034399506
-0.011208817 0.0043991385 -0.02709582 -0.0053329617 0.01700856 -0.024285246 0.008040555 0.048764296
-0.007819265 -0.04879829 -0.029837975 0.008997246 0.046224214 0.056121975 -0.06461158 -0.011977476
0.039158612 -0.0162021 -0.020189304 -0.05175425 -0.05265549 0.015937453 0.0008678511 -0.0032831854
0.017486082 -0.03683903 -0.018468801 -0.013693355 -0.05044391 0.053344637 0.022398673 0.05834706
0.026508413 0.04416788 0.032437347 -0.039054707 -0.028126389 -0.039800804 0.017163567 -0.00359085
-0.023889316 -0.008980594 -0.0045619234 -0.027549602 0.0050806967 0.065463126 -0.026962303 0.02216732
0.026919542 0.05647952 -0.00973853 0.052721787 0.046141464 -0.030298717 0.036130942 0.045390856
-0.06160825 -0.029186888 0.016191337 0.00914254 0.035088643 0.010759987 -0.005043246 -0.043382008
0.017607965 -0.006639395 0.022213474 0.060871013 0.040341914 0.007599786 0.0030688122 -0.010204882
-0.027599765 0.02579116 -0.057755247 -0.031191029 0.021401593 0.061995804 -0.013270329 -0.01826818
-0.048824452 -0.042106032 -0.013332114 0.029551405 0.049261026 0.022454316 0.041446794 -0.022421204
-0.014857203 0.0145715475 0.016682051 0.06225012 0.036008142 -0.037381083 0.017236494 -0.026793502
0.031532828 -0.047536924 0.00794338 0.04764329 -0.037345827 -0.050517876 0.047140457 0.004918662
0.04428991 0.059690107 0.056475677 0.059500467 -0.008473607 0.026988395 -0.0059460797 0.055214476
-0.0177124 -0.048051044 -0.04689741 -0.036078017 -0.033530056 -0.04965318 0.019090332 -0.0006429181

weight f4 [3, 256]
00000000: 3276 5bbd 0014 f038 bcd1 6b3d 2b3e 8bbd
00000010: fb34 c5bc 8119 923c 9ab6 2b3d 5c19 05bd
00000020: 4385 793a 58d2 2fbc 787f 78bc 1cb0 a2bc
00000030: efa9 afbd d4dd 423d 9ce5 3b3d 627b 223d
00000040: 4523 5abc fd71 223d 7c29 4bbd d7bf 4d3a
00000050: 9df4 c3bc 23cb be3d 183d 53bd 249a 46bd
00000060: a5ea 47bc 05fb 56bc 6a9c 6fbc cd63 55bd
00000070: 783b 4bbd d4fb 06bd 2089 95bd 7e44 50bd
00000080: a82c 55bd 251b e73c f645 d23b e0af 98bc
00000090: 540e 13bd d7cb 1c3c 69bb 473b 2e61 663d
000000a0: 302c 1e3c e62e 343d cd7c 12be a614 413d
000000b0: 58db 643d f754 cd3c 6bc9 9bbc 8e1c 16bd
000000c0: e79d a1bd 4c87 c0bc 21c0 64bd 1e52 1bbd
000000d0: aa45 f53c e8ef 283c 2b5b 1f3d 302a 0cbc
000000e0: 1862 bdbc 8f6b d6bc 4547 343d f021 f1bb
000000f0: 6fcd 07bd 9954 9cbc a986 24bc 5fae 78bc
00000100: 9e0a 41bb 94dd 83bd 7a16 473d 707b 5bbd
00000110: 0666 4abd 0f3e a3bc cfed 61bd dc6d f43c
00000120: 162e 49bd bb57 a53c 7309 c1bc ccca 8bbc
00000130: 41c1 6bbd a453 c9bc 3380 113b 2bde 8e3c
00000140: 2fc5 e83c fa7f cf3c 654c 193a a8ea 593c
00000150: 05e0 adbd 1eb3 73bd c370 113c 548c 45bd
00000160: 6766 6fbd 772f 93bc 6937 aa3c 41ec 1ebc
00000170: 9c08 983c 2a16 723d d8a9 76bc ee4d 10bc
00000180: 2f7c 89bd ce36 80bc 3228 543d 3ca0 273d
00000190: f25e e8bc 6fc4 b8bc c575 353d cbf7 1abd
000001a0: 3e26 19bd 1a69 73bd 7ff7 21bd a8ce ec3c
000001b0: 0429 ecbc 630b 42be 0178 09bd ce10 08bd
000001c0: c78f c3bc e06e b43c 8017 34bd 93cf 75bd
000001d0: 670b d2bc 6857 05bd e0bb be3c e254 2ebc
000001e0: 5f7c abbd f9ff 133d c4b3 a73c 8478 13bd
000001f0: 4067 6bbd 60ea a2bc dca7 c03c 429f 08bc
00000200: c008 a23b a4e3 4bbd a610 a5bb 3697 e9bb
00000210: 821a 343d 949a 97bb 9bf0 993b 42dd 10bd
00000220: 6a89 50bd 6d0f 9ebc 2ab3 12bc 546f 8f3c
00000230: be28 5e3d e873 aa3b 7424 ddbc 520c 1e3d
00000240: f6a5 42bd efea ec3c 8756 783b 1556 81bc
00000250: 9ccd ba3c f642 ecbc 0b41 60bd 89b9 61bd
00000260: a88f 0dbd 5ef3 073c a07c 1d3c 8019 aebb
00000270: e02e 523b 31c5 7cbd 80fe 463d 39d2 85bd
00000280: b15d 4f3c 1cf0 cdbc d115 303c d638 0fbd
00000290: 8374 4cbd c0d7 203d 3651 ab3c 0070 4cbd
000002a0: 7e16 133d 9448 e7bc 3a66 0f3d 36e1 7a3d
000002b0: e0b7 e2bc 7268 e23c 6870 973c 01b4 a7bd
000002c0: 7f4a 8d3b 80d7 d2bc b0ce e5bb 7f54 24bd
000002d0: ca02 39bd 402b 9ebd 84a2 3abd 1a22 603d
000002e0: 7845 603d d059 a3bc 3ef4 98bd ddc8 babb
000002f0: f5d6 f4bb 77e6 373d 7e58 16bd 39ab 1cbd
00000300: bbbd 053c 864c 053d 3c14 92bd 40cf 303b
00000310: 48d6 493c d85b 763d fcd5 73bd 4c8a 233c
00000320: d07f 023d 279d e5bc c26f 83bc 6eb9 7a3d
00000330: 10f9 00bc 5a1a 68bd 60dd 79bb 5533 853d
00000340: a83f fd3c 66e1 13bd 746f 29bd 44a0 713d
00000350: 2a21 a4ba 7a12 b5bc 272d d13c 6418 d83c
00000360: 2dd1 f03c 9432 63bd 52a0 58bd 197c c5bc
00000370: 34bc 8e3c 3624 863b 5e8b c13c a0bc 85bc
00000380: 88cd b73c 529a 6cbd dece 06bb b103 8a3c
00000390: c09d 953c 24ac e43c 808f fc3b 163c 11bc
000003a0: 35e2 69bc c190 f53c eb6b 1b3d 20c9 1fbd
000003b0: 4cef cabc 0ac7 37bd 0e72 32bd c8ce af3c
000003c0: a090 96bd 9855 db3c f07c 4b3d e2a1 8bbd
000003d0: d81c 57bd 0040 5f37 0830 16ba d183 053d
000003e0: 1005 493c 7748 5e3a 7413 49bd b9de 38bd
000003f0: a2d1 023d d00e 3f3c 7f05 2bbd df7c 27bd
-0.053579517 0.00011447817 0.057573065 -0.06798967 -0.024073115 0.017834427 0.04192219 -0.032494888
0.0009518454 -0.010731302 -0.01516711 -0.019859366 -0.08577334 0.047574833 0.04587327 0.03966845
-0.013314073 0.03965949 -0.04960011 0.0007848716 -0.023920352 0.09316089 -0.051571935 -0.048486844
-0.01220194 -0.013121371 -0.014624694 -0.05209713 -0.04961726 -0.032955006 -0.07301545 -0.05084657
-0.05204454 0.028211186 0.0064170314 -0.018638551 -0.035902336 0.009570084 0.0030476695 0.05624502
0.00965409 0.04399004 -0.1430542 0.047138833 0.055873245 0.025064928 -0.019016942 -0.036648326
-0.078914456 -0.023502015 -0.05584729 -0.03792011 0.029940445 0.010311104 0.038905304 -0.00855498
-0.023118064 -0.026174335 0.04401328 -0.007358782 -0.0331549 -0.019083308 -0.010041871 -0.015178292
-0.0029455791 -0.06438747 0.04860542 -0.053584516 -0.049413703 -0.019927053 -0.055158433 0.029837541
-0.049116217 0.020183435 -0.023564076 -0.017064475 -0.05755735 -0.024576016 0.0022201657 0.017439922
0.028414337 0.025329579 0.00058478705 0.013300575 -0.08489994 -0.05949699 0.008876982 -0.04822953
-0.058447268 -0.017966969 0.020778375 -0.009699882 0.018558793 0.05910317 -0.015055142 -0.008807642
-0.06713139 -0.015651133 0.051796146 0.040924296 -0.028365586 -0.022554604 0.044301767 -0.03783397
-0.037389986 -0.059426405 -0.03954267 0.028907135 -0.028828152 -0.18949656 -0.03356171 -0.03321915
-0.02387227 0.022025526 -0.043967724 -0.06001241 -0.025640203 -0.03255406 0.023282945 -0.010640355
-0.08373331 0.036132786 0.020471461 -0.036003605 -0.057471514 -0.01988715 0.023517542 -0.008338751
0.0049448907 -0.049777642 -0.005037385 -0.0071286215 0.043970592 -0.0046265814 0.004697872 -0.035367258
-0.0509123 -0.019294465 -0.008953849 0.01750914 0.054238074 0.0052018054 -0.026994921 0.03858597
-0.047521554 0.028920619 0.0037893371 -0.015788117 0.02280312 -0.028840523 -0.05474953 -0.05510858
-0.03456083 0.008297769 0.009612232 -0.0053130984 0.0032071397 -0.061711494 0.048582554 -0.065342374
0.012656615 -0.025138907 0.010747389 -0.034966312 -0.0499158 0.039268255 0.020912748 -0.0499115
0.035910122 -0.02823285 0.0350096 0.061249934 -0.027675569 0.027637694 0.018486217 -0.0818863
0.004311859 -0.025737524 -0.0070131645 -0.040119644 -0.045168675 -0.07723093 -0.045565143 0.05472002
0.05475375 -0.019940287 -0.074684605 -0.0057002143 -0.007471914 0.044897523 -0.036705486 -0.03824923
0.008162911 0.03254368 -0.07132766 0.0026979 0.012319155 0.060146183 -0.059530243 0.009981703
0.031860173 -0.028029038 -0.016044501 0.061211996 -0.007871881 -0.056665756 -0.0038126335 0.065039314
0.030914143 -0.03610363 -0.041366056 0.05899073 -0.0012522091 -0.022103537 0.025534226 0.026378818
0.029396618 -0.055468157 -0.05288727 -0.024107026 0.017423727 0.004093672 0.023626026 -0.016325295
0.022436872 -0.05776436 -0.002057008 0.016847463 0.018263698 0.027914114 0.007707536 -0.008864423
-0.014275123 0.02997625 0.037944715 -0.039010167 -0.024772309 -0.044867553 -0.043565802 0.021460906
-0.07351804 0.026774213 0.049679697 -0.06817986 -0.052517742 1.3306737e-05 -0.0005729203 0.032596413
0.012269273 0.0008479426 -0.049090818 -0.04513428 0.031938203 0.011661246 -0.04175329 -0.04089057

bias f4 [3]
00000000: ecde f43c 6b19 de3c 42ea 0cbd
0.029891454 0.02711173 -0.034403093

weight f4 [256, 19]
00000000: 0047 a4be d8b7 7b3f e4b7 663e a64d fd3c
00000010: 622b c4be 5e34 9bbd 4a18 fabd 152b 97bd
00000020: 2e8d 41bc e7d1 68bd 3d9e e9bd e9f6 01be
00000030: 907c 693d 9445 d43d 5392 0f3e fb7a 5dbe
00000040: 312d d9bd 691a 38be 1c31 633e fb0d 4c3e
00000050: b4c2 07be 1097 103c bc4d 043d 9c61 5e3d
00000060: 6c11 3c3d f294 f83d c0bf 023b edfd 68be
00000070: 63be 4e3e 48b2 f3bc 0fc2 353e 8f0e 5dbe
00000080: 57a6 dabd 3fb5 173e 84ff 40bd 90c0 8ebd
00000090: 82c3 4cbe e274 26be 2b34 45be a1fa 283c
000000a0: f580 f63d bdd0 00be 7ad0 103e 532f 3fbc
000000b0: dbdd 7abe 47f1 b73d e578 0e3e c5e8 1f3d
000000c0: a28c 933d 2523 af3d ff86 b5bd 69f7 76be
000000d0: b408 933d 42bc aebb 647e b2bc 9f42 b2bd
000000e0: 5d7a 1bbe 3c8d 663d 6161 4d3f 385e 843e
000000f0: 54b1 27bf 2629 ebbe 80a5 913d 1b03 35be
00000100: 703d 9abe 00b8 163e 780a 903d 628f 383e
00000110: a239 dfbc 6163 73be 1dec 0abe cb36 84bd
00000120: c157 983d 52fa 5d3e 7fd5 0938 969c 853e
00000130: 44ef 54be cc43 02be 2477 38be cc7e 143d
00000140: aa13 50be e775 56be 2d67 55be 0031 ffbc
00000150: cb7d 63be 69da 033e 00f6 8b39 a758 193e
00000160: e484 073d 9e20 29be 947c 65be 8d4f 65be
00000170: c187 243e bf46 4ebe 3878 05be 0722 91bd
00000180: a579 013f e4f1 933d e850 3fbf 4728 cfbe
00000190: b169 7fbc 84ec 1dbe 99d7 083e 2e64 1a3e
000001a0: dbad 653c 923c d33d b64d f53c 8ae5 40bd
000001b0: 67d5 97bd 5e7a 24bd 14c8 d23c c402 1b3e
000001c0: d9fd b53a 1d76 0e3e 7d7b 0ebd 08ca 22be
000001d0: 951e 633e bd0a c4bd 060b 1fbd 26f3 3a3e
000001e0: ab32 3f3e c116 673e 7690 dbbd fca0 4bbe
000001f0: c2e0 393d c353 d73c 890c 6abe 7bff 2dbe
00000200: 0d8a 20bd a3a0 1c3d 652a 503e f45f cbbd
00000210: 1b9c 3cba f249 0fbe 40e4 15bd 86ab e7bd
00000220: 7137 4fbe 90ef 90bd df38 2ebe 3a55 a4bd
00000230: c334 1c3e 840f 693d 50e8 3fbe 5cf8 c2bd
00000240: 1ba4 623e 263e 9a3d 8816 8dbc 4018 ddbc
00000250: f90e 2cbe 6c25 283d 4037 133c 9488 463d
00000260: 8980 41bf 7686 8dbe 19d8 c0be a83f 1ec0
00000270: d214 973e 45b7 12bf 1c82 a2be d929 d63d
00000280: 2f0e d3bd 4025 553d 7c58 8c3e a3cf 40bd
00000290: f947 55be 012a 053b e5d9 eb3d ab2e e4bd
000002a0: e419 33be 71c0 8fbe bab1 83be e51e debd
000002b0: dab2 4cbe 5157 16be 3b78 433e 34ed 963e
000002c0: ef0b f33d 18f6 743d 8308 143e 78ef b0bc
000002d0: b40c d3bd 5313 2c3e 7da3 a03e 25e2 7bbe
000002e0: 82e7 78be 7814 0c3e 3527 cc3d 0a67 20bd
000002f0: de5a 523d 301e 09bd 3c19 8fbd 9be5 b03d
00000300: 0038 e83d 5de8 dabd 0af3 b73d da36 51be
00000310: 4963 f43d 37a4 233e 76d0 ba3c 7806 dd3d
00000320: d728 d73d d50e 33bd 6f29 7e3d 6673 193c
00000330: 814e f0bd 8988 b4bd e9b1 e1bc e449 803d
00000340: 6015 47be 3f03 09bf 0b7e 8d3e f2b4 d43e
00000350: ab10 3dbf d206 89bc 5865 abbe 5366 60be
00000360: dcfc afbe 654e 163e 92a7 fa3c 8f81 bd3d
00000370: c58a 113e 6efa ad3d aebe f93c 0af5 5bbe
00000380: c0a1 edbc deee 8d3e 00d4 333b 309c 303e
00000390: 45c7 92be 7044 813e cd79 f83d 7aef 75bf
000003a0: 5c19 10bc 54dc eabc 305d 82be 7b3a 5d3e
000003b0: e0d0 2ebc 8f36 3f3d d60d 443c 0763 d03d
000003c0: 5ceb 9ebe c430 993c 53d2 02be e7ec dc3d
000003d0: 5884 f2bc e0b6 69bd 2092 313e 7b89 53bf
000003e0: fabd 233f 9a28 84bd 6813 84bf 1aa8 45be
000003f0: eb51 15bf 9c46 b33d 1ec1 47be b819 283e
-0.3208542 0.983274 0.22531086 0.030920815 -0.38314348 -0.075783476 -0.12211664 -0.07381264
-0.011813445 -0.056840803 -0.11407135 -0.12691845 0.057003558 0.103648335 0.14020662 -0.21628945
-0.10604323 -0.17978825 0.22186702 0.19927208 -0.13257867 0.008825079 0.032300696 0.054292306
0.045915052 0.12137784 0.0019950718 -0.22753115 0.20189814 -0.029748097 0.17749809 -0.21587585
-0.10676258 0.14815234 -0.04711868 -0.06970322 -0.19996455 -0.16255525 -0.19258182 0.010313661
0.12036315 -0.12579627 0.14142027 -0.011668998 -0.24498694 0.08981567 0.13913305 0.039040346
0.07204558 0.08551625 -0.08863639 -0.24117817 0.07179394 -0.0053325007 -0.021788783 -0.08704113
-0.15183397 0.056287035 0.80226713 0.25853133 -0.65504956 -0.4592983 0.07111645 -0.17676966
-0.30124998 0.14718628 0.07033247 0.18023446 -0.027249161 -0.23768379 -0.13566633 -0.064557634
0.07438613 0.21677521 3.286218e-05 0.26096028 -0.20794398 -0.12721175 -0.18014199 0.036253735
-0.20320001 -0.20943414 -0.2084014 -0.031151295 -0.22215955 0.12876286 0.0002669543 0.14975224
0.03308572 -0.16516349 -0.22410804 -0.22393627 0.16067411 -0.20144175 -0.13034141 -0.07086568
0.5057624 0.07223871 -0.7473283 -0.40460417 -0.015589164 -0.15422255 0.13363494 0.15077278
0.014018501 0.10314287 0.029944282 -0.047093906 -0.0741375 -0.04015576 0.02573017 0.15137774
0.0013884857 0.13912244 -0.034785736 -0.15897381 0.22179635 -0.09572361 -0.038828872 0.18256816
0.18671672 0.22567274 -0.10720913 -0.1988563 0.04538036 0.026285058 -0.22856344 -0.1699199
-0.039194155 0.038239133 0.20328672 -0.09930411 -0.00071948924 -0.13993052 -0.03659463 -0.113120124
-0.20235993 -0.07076943 -0.17013882 -0.08024068 0.15254502 0.056899562 -0.18740964 -0.09520027
0.22132914 0.07531385 -0.017222658 -0.026989102 -0.16802587 0.041051313 0.008985341 0.048470095
-0.75586754 -0.27641648 -0.3766487 -2.4726353 0.29508072 -0.573109 -0.3173989 0.104572006
-0.1030544 0.052037477 0.27411258 -0.047073018 -0.20828237 0.0020319226 0.115161695 -0.11141714
-0.17490345 -0.2807651 -0.25721532 -0.108457364 -0.19990101 -0.14681746 0.19088833 0.29477847
0.118675105 0.059805006 0.14456372 -0.021598563 -0.10305157 0.16804247 0.31374732 -0.24597986
-0.24307063 0.13679683 0.09968416 -0.039160766 0.05135619 -0.033476055 -0.06987235 0.08637544
0.11338806 -0.10688851 0.08981903 -0.2043108 0.11933 0.15980612 0.02280448 0.107922494
0.105058365 -0.043715317 0.062051233 0.009365892 -0.117337234 -0.088151045 -0.027550654 0.062640935
-0.19441748 -0.5352058 0.27635226 0.415443 -0.7385356 -0.016726885 -0.33475757 -0.21914034
-0.34372604 0.14678343 0.030597482 0.09253227 0.14213093 0.08495031 0.030486431 -0.21480194
-0.029007792 0.27721304 0.0027439594 0.17247081 -0.28667656 0.25247526 0.12132607 -0.9606854
-0.008795109 -0.028669514 -0.2546172 0.2160434 -0.010669917 0.04668289 0.011966189 0.10175138
-0.3103894 0.018700011 -0.12775545 0.10787373 -0.029604122 -0.05705917 0.17340899 -0.82631654
0.63961756 -0.06453057 -1.0318422 -0.19302407 -0.5832812 0.08753702 -0.19507262 0.16416061

bias f4 [256]
00000000: c467 2bbe d53d d6bd 6185 89bd 5f54 66be
00000010: 6fc1 153e 0d19 80bd 0de9 063e 60f6 073c
00000020: d8f2 84be cfd3 523d 6980 3f3e a79e 36be
00000030: 2d65 10bd 7d93 163d 282b 4fbd 3607 91be
00000040: 132c 2e3e 75b8 113e 5f56 013e d7b0 ec3d
00000050: f94e 12be e656 1cbe a545 d73c dc58 b1bd
00000060: b987 cbbd 4303 7d3e 3ee2 e83d 48d0 68bd
00000070: 8d96 1dbe 3f17 2cbe 130d 5f3e dcd1 65be
00000080: 78c7 4cbe c866 f43c 0bb4 c0bc c6e9 8bba
00000090: bc0b a03c c199 12be c334 ed3a 2ce1 debd
000000a0: d384 023e d6e7 d4bd c60c 3fbe 227a a6bc
000000b0: 087f 9abc ad3a 24be 15ab 44be e4b3 acbc
000000c0: 6059 1c3e d4d6 00be 3ed6 b6bd bf0b 36be
000000d0: c1ef 2abd 8033 82be 3f98 0c3c 5396 f9bc
000000e0: c6c1 8dbd 6398 9c3d ba9a 083e c601 85be
000000f0: 19e8 e3bd 26f3 ae3d 3e85 263e b47d 90be
00000100: 80fa af3d 0948 69be 9d84 4dbd 0fa3 65be
00000110: 04a5 e2bd 56b1 4dbe 74c8 e9bd 7d60 77be
00000120: 3897 ff3a 1309 393e 000d 15be 8bdc 393d
00000130: 5814 b63c 70cf 1ebe 372b aa3d a2e7 cebd
00000140: ea9a 8a3d ac8e 9ebe 20d8 5abc 2109 d7ba
00000150: c1e8 83be e5f1 67be 9e15 a03d d654 b23d
00000160: 1152 0ebe 6151 9bbd d6a6 7cbe c14e 3b3e
00000170: 1040 00be 8d84 0f3e 7d99 97bd bb82 09bd
00000180: b9af 26bd 405e 65be 0f28 743d 7da6 093e
00000190: 4f96 9dbe 441a f8bd d8fe e8bd ad69 6abe
000001a0: 9c12 1fbe 4e7f f0bd 833b 59be 02aa 473c
000001b0: 260b 9a3e e8a1 ca3d 848e 06be 4dac 20be
000001c0: e80a 66be 1bd6 31be b5e6 f83c 4faa 0f3c
000001d0: 544d ea3d 4e04 38be 9b5a c5bd 6b72 70be
000001e0: 21ab 66be 9914 243e 27cc 5bbe 1497 613d
000001f0: a06f 2c3c d520 44be c4f4 ccbd 59b6 36be
00000200: 1185 4dbe 2e00 53bc c027 7ebb 68b0 e9bd
00000210: ff1a 883d 43cf debc 0606 0abd 3827 9dbd
00000220: 070c 883c 01ea 66bd d611 693d fc43 4cbe
00000230: 81ff c43d ac25 c33d a47f 9ebd 9f57 c4bd
00000240: f7eb 10bd d84f c5bd a434 72bd 33ac 19be
00000250: 50b2 31be e3b7 98be 9a63 0dbe da8d d9bd
00000260: d336 2ebe 747c 183b 3cfe 023d 032b c4bc
00000270: 3aaa 8fbe e43d 623c b412 f8bd a4bc 56be
00000280: c539 9dbd e931 c6bd 6ab5 e7bd 34f5 dbbd
00000290: 4d80 80be ccbd 00bb 9c9a 973c 3cd7 29bd
000002a0: c804 133d 7888 df3c 9257 25bc 6ca5 83be
000002b0: 093d 13bd 2623 81be 317f 493e 7638 05bd
000002c0: 83d7 9bbc 4572 1a3e 0ddc 00be 187e c13d
000002d0: a55f 123e 4b9a 5ebe 727b 52be f6d7 30be
000002e0: 4b82 523e e8b5 4bbe ae31 50be 181e d53d
000002f0: 345b 5bbd 3f0e 7a3e 02c2 c53d eaa1 41bc
00000300: a9aa 4bbd 0183 673e cfaf 58bd b5a2 14bd
00000310: cff8 52be 860a 99be 1ff0 ffbd 7e4c 0e3c
00000320: d931 a6be 247a 2abe cc6d 52bd 3512 8bbe
00000330: 4379 b8bc 5b61 77be 6b64 063e 036b 853d
00000340: 021f 0abd f13b fabd 8d2b d2bd fcdd 3d3d
00000350: d057 723b 04a1 bcbd d618 a8bd 1039 8fbc
00000360: c4f4 bcbb db9e eabd 34ac 2bbe eeb1 78be
00000370: 0825 42be 20bd 51be 2fa5 623e d6bd 333e
00000380: 6b43 77be ef82 4abe ad07 5ebe e487 193e
00000390: 63c6 0c3e 76c1 90be 48a8 c43c 98df ffbb
000003a0: 1cc5 383e 80c0 babd 2ffe 13be edb9 043e
000003b0: 0a87 6abd a2df 023e 3c3a 113e cafa 17be
000003c0: f801 00be a7c8 27be 2fd7 a0be ba9f ec3d
000003d0: e41e 31be 12de 0cbe e10b 3ebd e0cd 153d
000003e0: 5854 2bbd b0d4 62be 7c7b 2cbe 6f2d 92bc
000003f0: 3c4d 37be ec28 4dbe b31e 0ebe ca8d bc3b
-0.16738802 -0.10461012 -0.06714893 -0.22493123 0.1462457 -0.06254778 0.1317484 0.0082984865
-0.25966525 0.051471528 0.18701328 -0.17833959 -0.03525274 0.03676175 -0.050578266 -0.28325814
0.17009 0.14230521 0.12630604 0.11557167 -0.14287938 -0.15267524 0.026278326 -0.08659527
-0.099379964 0.24708275 0.11371277 -0.056839257 -0.15389462 -0.16805743 0.21782331 -0.22443336
-0.19997966 0.029834166 -0.023523351 -0.0010674528 0.019536845 -0.14316465 0.0018097389 -0.10882792
0.12745981 -0.10395782 -0.18657216 -0.02032191 -0.018859401 -0.16038008 -0.19205888 -0.021081872
0.15268469 -0.1258195 -0.08927582 -0.17777918 -0.041732553 -0.25429916 0.00858122 -0.030467188
-0.06921725 0.07646253 0.13340273 -0.25977916 -0.111282535 0.08542471 0.16261765 -0.28220904
0.08592701 -0.22781385 -0.050175298 -0.22425483 -0.110666305 -0.2008718 -0.114151865 -0.24157901
0.0019500023 0.18069868 -0.1455574 0.04537634 0.022226498 -0.15508819 0.08309024 -0.10102774
0.06767829 -0.30968225 -0.013357192 -0.0016405919 -0.25763515 -0.22650869 0.07816623 0.087075874
-0.13898493 -0.07583881 -0.24673018 0.18291761 -0.12524438 0.14015408 -0.074023224 -0.03357194
-0.040694926 -0.22399235 0.059608515 0.13442416 -0.3077874 -0.12114385 -0.113767326 -0.22891875
-0.15534443 -0.117430314 -0.21214108 0.012186529 0.3008663 0.098941624 -0.13140303 -0.15690728
-0.22465098 -0.17366831 0.030383447 0.008768632 0.114405304 -0.17970392 -0.09636422 -0.23481147
-0.22526218 0.16023482 -0.21464597 0.05507572 0.01052466 -0.1915315 -0.10007623 -0.17842998
-0.20070292 -0.012878461 -0.0038781017 -0.114106 0.06645774 -0.02719844 -0.03369715 -0.07673496
0.016607298 -0.056375507 0.056901775 -0.19947809 0.09619046 0.0952867 -0.07739189 -0.09587025
-0.035381284 -0.096343696 -0.059132233 -0.15007095 -0.17353177 -0.29827794 -0.13807526 -0.10622759
-0.17013101 0.002326754 0.031980738 -0.02394629 -0.2805956 0.013808701 -0.12112942 -0.20970398
-0.07677034 -0.09677488 -0.11313899 -0.10740128 -0.25097886 -0.0019644378 0.01850634 -0.04146503
0.03589323 0.027286753 -0.010091679 -0.25712144 -0.03594688 -0.2522213 0.19677426 -0.03252455
-0.019023662 0.15082653 -0.12583943 0.094478786 0.14294298 -0.21738546 -0.20554903 -0.17269883
0.20557515 -0.1989361 -0.20331451 0.104061306 -0.053553775 0.24419497 0.09656145 -0.0118183885
-0.0497233 0.22608568 -0.05290204 -0.036287982 -0.20602725 -0.2989084 -0.12496971 0.008685229
-0.32459906 -0.16648155 -0.05137424 -0.27162328 -0.02251876 -0.24158232 0.13124244 0.065145515
-0.033720978 -0.12218464 -0.10262213 0.04635428 0.003697861 -0.09210399 -0.08207862 -0.017483264
-0.005766483 -0.114560805 -0.16764909 -0.24286625 -0.18959439 -0.20482302 0.22133325 0.17552885
-0.24146812 -0.1977651 -0.21682616 0.14993244 0.13747554 -0.282726 0.024006024 -0.007808637
0.18043941 -0.09118748 -0.14452432 0.1296155 -0.05725769 0.12780622 0.14182371 -0.14841762
-0.12500751 -0.16385137 -0.31414172 0.11553903 -0.1729694 -0.13756588 -0.046398047 0.03657329
-0.041828483 -0.22151446 -0.1684398 -0.01784393 -0.17900556 -0.20035142 -0.13878898 0.0057542073
