output/ppo/2021-12-16_16-33-57-ppo/model.pt (torch_old, 47590 bytes, 12 tensors)

log_std f4 [3]
00000000: cbac 05c0 0b6e 14c0 8452 33c0
-2.0886714 -2.3192165 -2.8019114

weight f4 [64, 16]
00000000: b5db 18be 0858 da3c 9ec0 91be d6a2 f3bd
00000010: f13e 0d3c 7a49 b2bd c796 6dbd 36dd 223e
00000020: a472 a3bd e7ad 813d 3a3f 80bd 3b26 00bd
00000030: db71 83be 4ae9 51be eedd a0bd 92ae 0ebc
00000040: 90d1 8c3c 88b5 4cbe 7460 3dbf 69c5 823d
00000050: b709 e43e 5c46 0c3e 06d8 6cbd 6633 2b3e
00000060: e17b 84bd b642 963c 5afe 6e3e d3bb 69be
00000070: cf0b 2abe bbcb 8abd 21a9 cdbd 001a 563e
00000080: aca5 e7be 5279 adbe cd70 77bf 8473 a1be
00000090: e6af 933d 1597 66bd 2fb5 483d 7c39 023e
000000a0: 11fa 8dbd 4553 1fbe df6c 8e3d 23c2 77be
000000b0: c990 53be e976 20be 681f 053e 7fca f43d
000000c0: b149 09be dd17 193e 827b d73d 205b 693e
000000d0: d747 87bd 83e2 8fbc e72c 093e 7182 0ebc
000000e0: a968 4e3d c86b 4fbe f5d9 2abe 36da 1dbe
000000f0: e680 cb3d 8c77 b23d 4c21 25be 38ad 823d
00000100: 56e8 fe3d 051b 05bd ab5b 1f3c 955c 6f3d
00000110: 471a 1f3e 70a7 713e 602d 45be 3373 babd
00000120: 7c8f c73d b596 523e 0e44 5e3e e34f 633e
00000130: 838a 2c3d dfa4 65be 9016 863c 344a 26be
00000140: 4b2f 77be e3f2 8b3f 0c57 6d3f eeec 28bf
00000150: 3c2a 4bbf 9723 70bd 733c 7ebd cf65 3e3d
00000160: f677 a5bc 32fd d0bd c6da 373e 1f43 9e3d
00000170: 4219 693e e38b 263e 3b0e 34be 43f1 ddbd
00000180: a7ab f7bc 93ef 4abd bd49 adbe 44ea bcbe
00000190: a74e a53e 725b 1c3d 2d8c 54be 125b 83be
000001a0: c456 b3be cc27 91bd e056 0cbe 2568 60be
000001b0: d95d 9fbd 8bc5 00bd b96d 2dbe 8e96 a93d
000001c0: ecaf cdbd c881 743e d4ba 2f3e 215b 66be
000001d0: e7b7 87bd fdc0 093d b0ed ac3c 6871 823d
000001e0: ec80 bd3d f834 3d3b be7f 9bbd 9b38 1a3e
000001f0: 87fb 91be 7b4f fcbd 8652 dabd 2e68 2ebe
00000200: 48ca 273e f737 35bf 5f6d 193e d3a4 cb3e
00000210: a54b b03e 11fe 763e 16d8 343e 5cc4 04be
00000220: 97d8 7cbe 41b6 0ebd a183 af3d b22e 493e
00000230: 8d86 4a3e 5de2 dc3d 21c7 5b3e 3918 69bd
00000240: 8edb 15bf 940f 65be 426a 863e 7aba 133d
00000250: 5cfd 90bc 9a0c 12bf 6266 4bbe c021 cabd
00000260: 9f31 ba3d a760 293e d303 cf3d fed7 85be
00000270: 6d33 3c3e 662c 5ebe b613 d6bb 6874 90bd
00000280: 9a77 d8be c2fd efbd 6f66 d1be cbc0 c5bd
00000290: cb45 ff3c f0dc b9be ecd1 a8bd 7e47 ba3d
000002a0: 7043 60be 130d ce3c 3ba2 323e ac62 01be
000002b0: 2307 8a3e 46fe 913d f4fa 3abe 7884 4e3e
000002c0: 1140 28bf 669f 473e 7db3 963e 20ec 94be
000002d0: dc6b 9bbe 3447 29bf 3c10 4fbd c608 473e
000002e0: 5966 873e 19a1 27bd 39e8 113d 0240 7d3d
000002f0: 6a9d a2be 4d75 81bc 87d3 433e 4cc2 5f3d
00000300: 70bb 5cbf 5e5f a13d d101 8dbe 6f1b ddbe
00000310: 1031 46be cb24 10bf 3f8a 91be 604c 823d
00000320: 8ea4 0dbc d655 d83d bb87 dabd 4e76 dabd
00000330: a29a 5ebe 8706 0d3e 52c7 28be 4d29 0a3e
00000340: 53ad 213f 04eb 95bd af31 09bf 6025 803e
00000350: a533 f93d da36 ff3e 787e e23d 381c 62bd
00000360: b7e6 a0be c8cc e7bd 3faa 423e 4a82 3ebe
00000370: 45f8 12bc ce53 ad3e db0a cb3d 3810 983c
00000380: 816a 43bf df08 1b3f 06d7 203e add4 11bf
00000390: 3e3b 14bf 726f 1abf 83b5 d8bd 411a 8d3e
000003a0: 762b a33e 75ba 293e edd7 763e c3f3 8fbd
000003b0: 8c21 813d 8872 43be 856d 9bbd ed61 b33c
000003c0: 282f 1ebe 2db1 523f bf9c 69be 64cf 55bd
000003d0: f725 01bf b3ed efbe e59e 603e f713 47bd
000003e0: a10a 14bd 65b1 5bbc 7797 16be d748 6bbc
000003f0: f9a8 733e 51d9 02bd 3e7c 08be 5f2c 85bd
-0.14927562 0.026653305 -0.28467268 -0.11896293 0.008620963 -0.08705421 -0.05800512 0.15904698
-0.0798085 0.06331997 -0.062620595 -0.03128646 -0.25672802 -0.20499149 -0.0785483 -0.008708613
0.017189771 -0.19991124 -0.739753 0.06385309 0.44538662 0.13698715 -0.057823204 0.16718826
-0.064689405 0.018342357 0.23339215 -0.22825556 -0.16606067 -0.0677714 -0.100420244 0.20908356
-0.45243585 -0.33881623 -0.96656495 -0.31533444 0.07211284 -0.056296427 0.049000915 0.12717241
-0.06932462 -0.15559109 0.06954359 -0.24195151 -0.206607 -0.1567036 0.13000262 0.119526856
-0.13407017 0.1495051 0.10521604 0.22788668 -0.06605499 -0.017564064 0.13396035 -0.008698092
0.05039278 -0.20255959 -0.16684707 -0.15415272 0.09936695 0.08714208 -0.16125983 0.06380695
0.12446658 -0.03249647 0.009726445 0.058437902 0.15537368 0.23599029 -0.1925559 -0.09104004
0.09744164 0.20565303 0.21705648 0.22198443 0.042124283 -0.22426175 0.01636818 -0.16239244
-0.24139135 1.0933498 0.9271095 -0.65986526 -0.7936132 -0.05862769 -0.062069368 0.04648381
-0.020198803 -0.10204543 0.17954549 0.07727646 0.22763541 0.162643 -0.17583553 -0.10837033
-0.030233217 -0.049544882 -0.3384532 -0.3689748 0.3228657 0.038173147 -0.20756598 -0.2565542
-0.35027134 -0.07087669 -0.13705015 -0.21914728 -0.07781572 -0.03143839 -0.16936387 0.08280669
-0.1004332 0.23877633 0.17161113 -0.224957 -0.066268735 0.033631314 0.021109432 0.06369287
0.092531055 0.0028870683 -0.07592724 0.15060656 -0.28512213 -0.12319847 -0.10660271 -0.17031929
0.16385758 -0.7078852 0.14983128 0.39774188 0.34432712 0.24120356 0.17660555 -0.1296553
-0.24691997 -0.03484178 0.08570028 0.19646719 0.1977789 0.10785363 0.2146268 -0.056907866
-0.5853814 -0.22369224 0.26252943 0.03606651 -0.017698936 -0.5705048 -0.19863275 -0.098697186
0.09091496 0.16540776 0.10108151 -0.2614135 0.18378992 -0.21696624 -0.0065331114 -0.07053453
-0.4227875 -0.11718322 -0.40898463 -0.09655913 0.03116121 -0.36301374 -0.082431644 0.09095667
-0.21900725 0.025152719 0.17444699 -0.12635297 0.2695857 0.07128577 -0.18259794 0.2016772
-0.6572276 0.194944 0.29433814 -0.290864 -0.30355728 -0.6612427 -0.05055259 0.1943694
0.26445273 -0.04092512 0.035621855 0.06182862 -0.31760722 -0.015803004 0.1912366 0.054628655
-0.86223507 0.07879518 -0.27540448 -0.43184993 -0.19354653 -0.5630614 -0.28425786 0.063622236
-0.00864519 0.10563247 -0.1067042 -0.10667096 -0.21738675 0.13772021 -0.16482285 0.13492317
0.63155097 -0.07320216 -0.53591436 0.25028515 0.121680535 0.49846536 0.11059278 -0.055202693
-0.3142602 -0.11318356 0.19010256 -0.18604389 -0.008970325 0.33853 0.0991418 0.018562421
-0.7633439 0.6056041 0.15707025 -0.5696514 -0.57902896 -0.603263 -0.105814956 0.27559093
0.31869096 0.16575034 0.24105807 -0.07028916 0.06305227 -0.19086659 -0.075892486 0.02189728
-0.15447676 0.823016 -0.228137 -0.052199736 -0.50448555 -0.46861038 0.21935613 -0.048603024
-0.03614295 -0.013408993 -0.14706217 -0.014360628 0.23794927 -0.03194553 -0.13328645 -0.06502604

bias f4 [64]
00000000: 63d7 0ebd 863f 79be 1c73 30be 8e2e bf3d
00000010: 3604 b8bd 797a 663e db94 043e b98c 293c
00000020: 05d5 62bd 2982 41bd bec5 ec3c 85f6 93bd
00000030: 9741 85be 89a9 40bd 3eec 84be 98d3 383e
00000040: 04a2 03be 0274 433e 1e0a 29bd d53b 05be
00000050: 8961 b33d fb01 d63c 67f1 203e 9936 bf3d
00000060: fb6d 73be e93e 283e dcad ffbc bb2c ddbd
00000070: 1140 363e f68a 203e 0cb3 92be 21aa 49bd
00000080: 714a 6e3e 60bb 213e 865b 603e 1053 c7bd
00000090: 6599 b3bd 4abc 743e 0fd7 033e 4f23 883e
000000a0: ed47 8bbd be5a 25be 58cf 84bd 1199 6dbe
000000b0: 9f0c 783d a3f7 2d3e 0ff4 fa3d d541 09be
000000c0: fd23 483d 14b8 01be 5217 193e 630b 88be
000000d0: ae09 97be c4a1 e6bb 5794 493e 2952 42bc
000000e0: db4f 483c e834 21be 2c11 e33d e201 69bc
000000f0: 7803 103e 0839 3a3e 1794 d73d aac0 aabd
-0.034873378 -0.24340639 -0.1723141 0.093350515 -0.08985178 0.22507657 0.12947409 0.010348492
-0.055378933 -0.04724327 0.028902885 -0.07224754 -0.26026604 -0.04703668 -0.25961488 0.18049467
-0.12854773 0.19087222 -0.041269414 -0.13011105 0.08758838 0.026123991 0.15717088 0.093365856
-0.23772423 0.16430248 -0.031210832 -0.10799547 0.17797877 0.1567801 -0.28652227 -0.049234513
0.23270585 0.15794134 0.21909913 -0.0973264 -0.08769492 0.23899952 0.12875007 0.26589438
-0.06800828 -0.16147897 -0.0648486 -0.23202921 0.06055891 0.16988997 0.12253582 -0.13404019
0.048862446 -0.12667876 0.14950302 -0.26571187 -0.29499573 -0.007038327 0.19685493 -0.011860409
0.01222607 -0.15742838 0.1108726 -0.01422164 0.14063823 0.18185818 0.10526293 -0.08337529

weight f4 [64, 64]
00000000: 4711 78bc 0b88 68bd f9f1 43bd 4a45 b33d
00000010: 7501 6abd a855 3f3d cb9f 37bd f6f0 13bd
00000020: c612 7d3b 336b bbbd c96e 883c 2bf3 a2bc
00000030: 391a 9b3b 32c6 f6bc 9e7d 1f3e c45d 003e
00000040: 9c3b b2bd 56d3 493d 1dd4 d0bd 1185 febd
00000050: 27d9 393d e0d0 e7bc 0008 94bd 9752 dfbd
00000060: 9615 29bd b2ac 833d 02ae b6bd 0057 0cbe
00000070: 55fd b93b c66c b4bd ff85 c8bd 8094 90bd
00000080: 00eb 273b 512c cdbd 94e2 84bd 6971 a1bc
00000090: 7be4 44be 1f12 6bbc 162d 02be f438 4bbd
000000a0: ded9 423d 5e22 d3bd 48ca d1bd 392f 853d
000000b0: b391 163d 028b b53d 2607 3ebd 44d5 62bd
000000c0: d40d 9dbc 66a2 6fbc 57b8 033e 73f5 1ebe
000000d0: 1adf d7bb 02fd 773d a814 98bd 43b0 6cbd
000000e0: efc1 a53d 40da e0bd 90d1 463d 11eb 1bbe
000000f0: 0558 663d 988a ccbd 30e0 973d d35f c5bd
00000100: 2c33 bcbd 256f 63bb 6e7f 9b3d f96c 06be
00000110: 6ac4 00bd e48f 2f3e 9277 1fbd 01dd 9b3d
00000120: 4722 e7bd ee91 53bd da75 b3bd c8b3 a43d
00000130: b846 b13c 3f75 99bd 8dd3 953c 814a bbbc
00000140: f627 68bd 5ca4 c3bd 2965 11bd 8383 e23d
00000150: 5a4c e9bd b0b8 5dbd f9a9 99bc 0273 29bc
00000160: 3a42 213c 7d4c 9a39 4857 9fbd 025d dcbc
00000170: 6120 65bb 6210 48bd b8f6 c83d 0aa8 0fbe
00000180: 82d1 6fbd 0eec d0bd fbcd adbc ccca f33d
00000190: d8f0 853d 372b 01be a2b1 c8bb 7de5 2f3d
000001a0: f3d6 9a3d 5ead 013e 7cc0 a83c 95bc bcbd
000001b0: 10f7 833d c944 70bd d753 833d 1e80 77bc
000001c0: d224 883d d18e d83d 2a0b e93d 08be 29be
000001d0: 66e9 b6bd 2bf5 95bd cb58 9bbd 9699 a63d
000001e0: bd77 13bc 5c4b b3bd 5aff 8dbd 00af 03be
000001f0: bcc1 ef3c 548d 08be 591a edbd cfc8 f9bd
00000200: 241a 2d3d d497 983d 341e 49bd bebc 583d
00000210: 9162 8f3d dd8d 91bd 6840 f93a 8767 55bc
00000220: e80f a8bc b2c9 a93d ef93 70bd a956 5c3d
00000230: e624 c83d 55d1 9ebd 5d28 0f3e 53c5 373e
00000240: 15bb 8ebd a421 e3bc c531 5b3d 0ccf 09be
00000250: 78f3 923d 9021 b5bc 463c 3e3d 50d1 b7bd
00000260: 0d80 a7bd 83b8 a43d c26e c33d 6f14 41be
00000270: ab2b 9ebd 3ecb eebd a671 85bd fdac 8bbd
00000280: d75a f13d bf80 64bd b962 903d 35de df3d
00000290: a923 ec3c 7e3c c9bd 0e53 043d 456d ce3d
000002a0: 1ed1 ad3d 78b9 14be 5f9f 603d 475f cf3d
000002b0: 879e c0bd 0920 8d3b d2e3 cc3d 4bcf 6fbd
000002c0: 02ec c43c e647 223d 08d3 943d c31e f03d
000002d0: 0712 da3d 88bc 003e 532b 2cbd ef6a fa3d
000002e0: 8c92 91bd b834 38bd 4c6c 11bb a051 aabc
000002f0: c747 ec3d 2856 a63d 2aa7 843d 0bec 003e
00000300: 20a9 e3bd 275c eabb 46e0 2c3d 59a1 713d
00000310: 5426 1a3d 0235 f2bd 51e5 2cbc 48a3 9f3d
00000320: cd04 f0bc 5a53 9bbd b346 dc3d b14d ac3d
00000330: 11d9 73bc cfd2 4fbc 38d1 b6bd 241f b2bd
00000340: 7537 6e3d 8143 79bd d828 c23d 8e5a efbd
00000350: b55e 1a3c 5dde 6fbc 8db8 3f3d c206 e93d
00000360: 9a0b e43d 7622 653d 442d 88bc 1cfd 12be
00000370: 76e8 0cbe 7261 d93b 5e4e fb3d b98f 8dbb
00000380: 21ad 47bc 83af c9bd 5217 423d 8e8b 613d
00000390: 187f a9bd b5b5 c4bd f71e c83d 7e9e 253d
000003a0: 731e bfbc 33ea 88bb a8a4 38bd 3c27 a7bd
000003b0: 01ec c2bd 866b 953d 37f5 86bc 7077 9abd
000003c0: e7a0 45bd ea8b 9fbd 0012 4abd 4072 8abd
000003d0: 58c3 a33d 4b0b 9b3d bcae 5fbd 39b5 cdbc
000003e0: 0fba 263d d610 42bd 9149 373d b95e 5c3d
000003f0: 1432 85bd 6864 6d3d 53bd 263c 1804 aa3d
-0.015140838 -0.056770366 -0.047838185 0.0875345 -0.057130296 0.046712548 -0.044830125 -0.03611847
0.0038615926 -0.09151306 0.016654389 -0.019891342 0.0047333506 -0.030123804 0.15575263 0.12535769
-0.08702776 0.04927381 -0.101967074 -0.12427724 0.04537311 -0.028297842 -0.072280884 -0.10904425
-0.04128035 0.064294234 -0.08919908 -0.13705063 0.0056759515 -0.088098094 -0.09791183 -0.07059574
0.0025622249 -0.10018218 -0.06488529 -0.019707398 -0.19227783 -0.014347582 -0.12712511 -0.04961486
0.047571056 -0.103092894 -0.1024366 0.06503148 0.036760043 0.08864404 -0.046393536 -0.055379167
-0.019171633 -0.014626121 0.12863289 -0.15523319 -0.006587875 0.06054402 -0.07425815 -0.057785284
0.080936305 -0.10979128 0.048539698 -0.1522639 0.056236286 -0.09987372 0.07415807 -0.09637418
-0.09189448 -0.0034703698 0.07592665 -0.13127507 -0.031437315 0.17144734 -0.03893239 0.076105125
-0.11285835 -0.05165284 -0.08762713 0.08042103 0.021640167 -0.07493066 0.018289352 -0.022862675
-0.056678735 -0.095528334 -0.035496864 0.1106024 -0.11391516 -0.05413121 -0.018757807 -0.010342361
0.00984245 0.00029430157 -0.077803195 -0.026899818 -0.0034961926 -0.04884375 0.09812683 -0.14028946
-0.05854941 -0.10201274 -0.021216383 0.11903915 0.06540078 -0.12614141 -0.006124691 0.042943466
0.075605296 0.1266379 0.020599596 -0.09215657 0.06443608 -0.05865935 0.064124756 -0.015106229
0.06647648 0.10574115 0.113790825 -0.16576397 -0.08931236 -0.07322153 -0.07585295 0.08134763
-0.009000716 -0.08754608 -0.0693347 -0.12859726 0.029267184 -0.13335162 -0.11577291 -0.12196504
0.042261258 0.07450834 -0.04910107 0.052914374 0.07001222 -0.071071364 0.0019016387 -0.013025171
-0.020515397 0.082904235 -0.05873483 0.053793583 0.09772663 -0.07754771 0.13980241 0.17946367
-0.06969277 -0.027726002 0.05351426 -0.13457888 0.07175344 -0.02211073 0.0464442 -0.0897547
-0.081787206 0.08043005 0.0954261 -0.18855451 -0.07723173 -0.11659859 -0.06515817 -0.06820104
0.117849045 -0.055786844 0.0705008 0.109310545 0.028825598 -0.09825991 0.03230577 0.10079435
0.084871516 -0.14523876 0.054839488 0.101255946 -0.09405237 0.0043067974 0.10004391 -0.0585473
0.024038319 0.03961935 0.072668135 0.11724617 0.1064797 0.12571919 -0.042033505 0.12227427
-0.0710803 -0.04497215 -0.0022189794 -0.020790875 0.11537128 0.08121902 0.064771965 0.12590043
-0.111162424 -0.0071520987 0.04220607 0.058991764 0.03763421 -0.11826517 -0.01055272 0.07794815
-0.029299164 -0.075842574 0.10755672 0.08413256 -0.014883296 -0.012684538 -0.08926624 -0.08697346
0.058158357 -0.060855392 0.094804466 -0.11687194 0.009421994 -0.014640418 0.04680686 0.11378242
0.11135025 0.055941068 -0.016623147 -0.14354366 -0.13760552 0.006633931 0.12270807 -0.0043201116
-0.012187273 -0.09847929 0.04738552 0.05506473 -0.08276194 -0.0960497 0.09771531 0.040434353
-0.023329949 -0.0041783093 -0.045078903 -0.0816178 -0.095176704 0.07295899 -0.01647435 -0.07542312
-0.04824915 -0.07790358 -0.049333572 -0.06760073 0.07996243 0.07570513 -0.05461 -0.025110828
0.040704783 -0.047379337 0.044747893 0.053801272 -0.06503692 0.057957083 0.010176974 0.08301562

bias f4 [64]
00000000: 688a 9e3d 79b6 aabd 5b7e bc3d 0997 013d
00000010: a0a3 b03d 606f d33d 5502 b7bd 1c90 f43d
00000020: 5ddd c73d 6671 03be c86e d43c 24b4 07be
00000030: 9790 123d d0be 303c 767b e6bd c36b 493d
00000040: 098d dfbc 1acc 123e 3580 e83d e359 ee3c
00000050: 4f0b d93d 9d9c 593d 46c6 dc3d 620a 403c
00000060: 8b9d bc3c cf9c 453a 98ee 363c bee8 61bd
00000070: 24d7 73bd 8508 503d e9e7 1b3d 438a 43bd
00000080: 05ec e6bd fa11 4b3d 3dc4 08be b6dd a9bb
00000090: 81ea eebd 20d0 e53d 9272 ab3d 17bd 00be
000000a0: cfcf dabd 69ac 93bd 9a7d 503d 80cc cdbd
000000b0: a42b 61bd 9698 debc e21d 5d3c 9901 aabd
000000c0: 8f18 ac3d c425 95bd 12f0 61bc 0393 c53d
000000d0: 5a14 c0bd fa0a 9a3d 40dd 2b3d 020a 9dbc
000000e0: 5c5b 383d ef0b abbd acdd abbb 6a1a 083d
000000f0: e0e4 043e 8bc3 6ebd 0b5b 5ebd e3ed 4dbd
0.07741243 -0.08335585 0.09203788 0.03163818 0.08624959 0.103239775 -0.08935992 0.11941549
0.097590186 -0.12836227 0.02593173 -0.13252312 0.035782423 0.010787681 -0.11254017 0.049175035
-0.02728893 0.14335671 0.113525786 0.029095596 0.1059786 0.053127874 0.10780005 0.011721225
0.023024341 0.000753832 0.011165284 -0.0551536 -0.059531346 0.050789375 0.038062964 -0.04773928
-0.11275486 0.04957769 -0.13356109 -0.0051839007 -0.11665822 0.11221337 0.08371462 -0.12572132
-0.106841676 -0.07210619 0.050901033 -0.10048771 -0.05497326 -0.027172368 0.013495894 -0.08301086
0.08403122 -0.07282594 -0.013790147 0.09647181 -0.09378882 0.07521625 0.041959047 -0.019169811
0.045009002 -0.083518855 -0.005244931 0.033228315 0.12977934 -0.058291953 -0.054286044 -0.050275695

weight f4 [3, 64]
00000000: 8fb9 17be 352a 0a3d 51b1 12be 02e1 99bc
00000010: d39b 75bc 9bc7 88bc 29c4 ecbc 5d80 07be
00000020: 532b 9bbd 2bc3 edbc 3a23 a1bd 575e 9c3c
00000030: 299a fe3c a7a0 aebd 61db ef3d 2582 6d3d
00000040: 409b c6bd 7536 0dbd 7594 553d 0078 6dbd
00000050: aaf6 52bd 0d53 0f3e 2cbd 9c3d 3ade bbbd
00000060: ba2d 72bd 3ff6 f53d ed96 69bb 48eb 5a3c
00000070: b398 953d 5242 b53d c2d6 3a3d 35bc d43d
00000080: aa8d 733d 5972 113e 8cfe 74bd 12fa 98bd
00000090: 4805 0c3d 8745 a83c 774e 1b3e 58f7 df3c
000000a0: e1d1 b93c 4282 47bd 03e4 c23d f29a be38
000000b0: 47c5 cabc 38aa e53d abd1 dd3d e96c 163e
000000c0: 0f64 11be 7c56 08bb 8bce 39bd 9c02 84bd
000000d0: e011 ac3c 0e91 023d 2132 9438 d9a9 933c
000000e0: 5f58 383d 908c d93d 1e3e 1d3d 4e23 81bd
000000f0: adae ddbd f4e2 ae3d 8db8 33bd a8e6 eebd
00000100: 2f45 c8bd ce91 153d 663e b3bc d971 89bd
00000110: d448 143d cfbf dd3d 8929 9c3d 981e a63d
00000120: 9432 6cbd e05a cc3d b441 823d e65c a63d
00000130: d481 e0bb 0561 4e3c c8c4 82bd 1967 6dbd
00000140: 8e54 28bc 102f 32bc 76d5 03be 745f 4c3d
00000150: 164a 99bd beeb 1abe e590 003d e287 cdbd
00000160: 48a8 c53d 0423 d63d f07f b9bc a303 3b3c
00000170: 2e8f b6bd fb81 4bbc 739e e03c 70fe 65bd
00000180: 1ac5 3a3d eb37 68bc 69c2 a73b 8f6e 04bc
00000190: d610 ccbd 3714 b5bd 79ef 883c efb6 c33d
000001a0: 41e4 5abd 426a cf3d 5af0 fabc 750b ebbc
000001b0: 0e58 113d f78f e2bc f9aa b6bc 1709 033e
000001c0: 983a 16bd 5963 8ebd 5192 f83d 9fce 3dbc
000001d0: 9c17 ec3d e876 053d 1823 863d 5af2 29be
000001e0: 68f9 f3bd 5201 013d 7189 b13c 9040 6e3d
000001f0: 4e7e babd 7c41 4bbd 131c a83d 9c07 993c
00000200: 6b04 b83d 1152 a83d c928 31bd ef67 8cbd
00000210: 4eb7 2fbd 08b6 153c 688a 4cbd d2c4 78bc
00000220: 3e4f c23a d832 2e3d 17ee 2e3d 3378 473d
00000230: 286c 9fbb beb7 7e3d 5778 e3bc e80e 20bd
00000240: b9b1 85bc 7ef5 a0bd a0dd e53d 1014 2ebb
00000250: 2864 9b3c e6f1 ec3a 8970 28b9 df68 78bd
00000260: d827 28b8 1834 e7bd d0f1 1ebd 2bbb a33d
00000270: f0bb c0bd 25d5 183c a211 ca3b 07ec a9bd
00000280: 75e4 ea3a 8aa0 863d 3818 b93d 71e6 373c
00000290: abe6 de3d 9c56 c7bb ab99 313d 354b fa3c
000002a0: ccc2 95bd ed27 87bc 3617 9abd 20cb c53d
000002b0: 1f43 d1ba 0eb4 c9bc c3fe 4ebb 1218 b73c
000002c0: 33a3 c4bd 7c64 033c 83be 1c3d 4c36 dd3b
000002d0: ef14 39bc 94f2 123d 820e 7c3c 542b bebd
000002e0: 7814 8b3d 4baa 9fbd 3db0 093d 8fbf b63d
000002f0: 6019 6f3a d592 8ebc 2c14 99bd 4633 56bd
-0.14816879 0.033731658 -0.14325453 -0.01878405 -0.014990765 -0.016696742 -0.02890213 -0.1323256
-0.07576623 -0.029023727 -0.07868047 0.019087953 0.031079369 -0.08526736 0.11711765 0.057985444
-0.0969758 -0.034475762 0.052143533 -0.05797577 -0.05150477 0.13996525 0.07653269 -0.09173246
-0.05912564 0.12009858 -0.0035642937 0.0133617595 0.07304516 0.0885054 0.045614965 0.1038746
0.059461273 0.14203776 -0.059813067 -0.07469572 0.034184724 0.020540966 0.1516665 0.027339622
0.022683086 -0.048708208 0.09516146 9.088767e-05 -0.024752272 0.11214107 0.108310066 0.14689983
-0.14198326 -0.0020803502 -0.04536299 -0.0644581 0.021004617 0.031876616 7.066527e-05 0.018025326
0.045006152 0.10622513 0.038389318 -0.06305562 -0.108243324 0.085393816 -0.043877173 -0.11665088
-0.09778821 0.036516003 -0.02188034 -0.06711168 0.036202267 0.108276 0.0762511 0.08111304
-0.057665423 0.099782705 0.06360188 0.08123188 -0.006851414 0.012596373 -0.06385189 -0.05795965
-0.010274066 -0.010875478 -0.12874398 0.04989572 -0.07484834 -0.15128991 0.031388182 -0.10035683
0.09651238 0.104558975 -0.022644013 0.011414441 -0.08914028 -0.0124211265 0.027419304 -0.056150854
0.045598127 -0.014173488 0.005119611 -0.008083 -0.09964149 -0.08841746 0.016715752 0.09556376
-0.053440336 0.10127689 -0.030632187 -0.028691987 0.035484366 -0.027656538 -0.022298323 0.12796436
-0.036676973 -0.06952543 0.12137283 -0.011584907 0.11527941 0.0325841 0.06549662 -0.16596356
-0.11912805 0.0314954 0.021671982 0.05816704 -0.09106122 -0.049622998 0.0820848 0.018680386
0.08985218 0.08218778 -0.043251786 -0.06855761 -0.042899422 0.009137638 -0.049936682 -0.015183644
0.0014824641 0.042528957 0.04270753 0.048698615 -0.004865188 0.06218695 -0.027767343 -0.039076716
-0.016320096 -0.07859324 0.11223912 -0.002656225 0.018968657 0.0018077462 -0.00016063651 -0.060646888
-4.009143e-05 -0.11289233 -0.03880483 0.07994684 -0.09410846 0.009328161 0.006166653 -0.08296972
0.0017920869 0.06573589 0.090378225 0.011224375 0.1088384 -0.0060833227 0.04335944 0.03055344
-0.07312545 -0.01649853 -0.075239584 0.09657884 -0.0015965438 -0.02462199 -0.0031584955 0.022350345
-0.0960144 0.008019563 0.038267624 0.0067508575 -0.011296495 0.03587587 0.015384318 -0.09285608
0.067910135 -0.07796153 0.03361534 0.08923256 0.00091209076 -0.017404 -0.074745506 -0.052294992

bias f4 [3]
00000000: a665 f5bc c338 88bd d19f e13d
-0.029955696 -0.066514514 0.11016811

weight f4 [64, 16]
00000000: 4cd9 dcbd a093 d43d 4665 6dbe 84c5 013e
00000010: 5cd5 593e 9c84 37be f288 82bd 401f 743d
00000020: 5808 75be b6ee 21be d410 b23d aa0f 713e
00000030: f8f4 98bd b153 62bb a5bc 77be a96f 76be
00000040: cb58 b0bd 2941 673f 6465 bfbf 210b 1cc0
00000050: 9967 38bf c27b 51be a232 6cbd b67e b3bf
00000060: 5a68 71bd ea9c 0abe 3d61 dcbe 562c 413e
00000070: ccec f63c ee09 33bf a7c5 c83c 5bc5 2f3e
00000080: a071 cdbf 4b27 22c0 01ea e03f 6556 9bbf
00000090: f222 1b40 b4f7 ecbf a9ac 863e 414c 94be
000000a0: 73d2 8a3e 0464 07be 4e09 a4be eeb8 80be
000000b0: 1718 a63e 8c13 243e 4a5e 2f3e 4a82 53bd
000000c0: 68ec 34be 3409 78bd 557b 68be 8e30 ccbd
000000d0: 646e 093e d56c 193e fb29 30be 5ee8 2b3e
000000e0: 0197 96bd 7a75 8bbe 4488 973e f93b 273e
000000f0: 0cb8 7dbe 2e88 58be 16e0 713d 9e0d 57be
00000100: 6b77 bcbf 51c1 3440 4f88 cc3d f727 c5bf
00000110: 2096 28c0 c630 d3bf 7279 66be 3b02 873f
00000120: 779c 4abf 140c 44bc 6020 3a3e eb88 adbe
00000130: aa37 babd 43e8 393f 8a86 803e 7926 66be
00000140: 9e06 a23f 0aaa 2ac0 e30b afbf 47da 0e3f
00000150: dbb4 2340 4088 9f3f fc37 2a3f 2edd 8abe
00000160: f842 033f df97 cbbe 45eb 633e 39cb 8e3e
00000170: ec8c 21be 4e34 06be 35ad babe e9d1 68bc
00000180: 1081 2a3e 94d1 0cbd 4dc3 583d e6d2 053e
00000190: b171 99bd 80f0 3c3e 5fc1 6bbe 08fb c83d
000001a0: b996 83bd 98f9 8fbe f14f 0b3a 7e92 443e
000001b0: 370f 16be 2c79 40bd fa08 28be 10a8 48be
000001c0: 723d 1940 b0ae 1bc0 20e0 90bf 288c 0340
000001d0: e387 2740 40eb 0a40 c8b6 453f 6866 a03e
000001e0: 0e12 ba3e e3c5 8a3e 91a3 f33c a3f5 e63d
000001f0: 1af6 5a3e 8e05 d43d 5097 793e d8f4 6f3e
00000200: 521b 1b40 ef83 82bf f5a2 bc3f 90f6 5240
00000210: cd39 8b3f b5f5 0c40 0b23 443f ecda 863f
00000220: 88ca 463f 32e0 813e d961 b83e 5a36 ca3d
00000230: 31ee 053e 2534 573e 96db fa3e fdac d93d
00000240: 1dd1 94c0 1206 3340 3ee1 cdbd 07b8 0740
00000250: 1c43 43c0 fde2 8dc0 f9c7 ee3e 1b72 bbbe
00000260: 497b 89be 68ed b93e 1476 91be a8da 51bf
00000270: fcd3 da3e d4e0 1fbd 6cc7 54bd 3f06 403e
00000280: 93e1 603f 4161 a7c0 d07b 193f e91c a8bf
00000290: 009f a740 9abc 8e3f a5db 3fbf 2f42 0cbf
000002a0: 0884 1abe fd01 c6bd 3bb9 a3be 82a2 83be
000002b0: 785b 54be 7ad8 71be 9216 4d3e 2f1b babd
000002c0: 02e6 f03c 1ef4 9cbd 3afa dbbe 12bb 0bbf
000002d0: 3022 aabe aadf 6e3c 7776 03bf d36a 0e3f
000002e0: a75b 5f3e 431b 13bf 7a49 053f c5d2 c13e
000002f0: ba85 09be dbdc 75bc e3ff 213e 6eff b1be
00000300: 065a 7f3f f942 29c0 68d3 383e 98fd 4940
00000310: 37f6 1240 7b49 5d3f 2f9b 743e b124 b4bc
00000320: 3afc 96be 94f2 60bc df71 0d3f 1ea6 56be
00000330: 5a8e d23e 9c16 11be fe03 a9b8 2f6b db3e
00000340: 3fa6 1ac0 cf3a 0cc0 79f1 ab3e 9fa7 2ac0
00000350: 8173 0d40 1732 0fc0 db14 cebe fb46 063f
00000360: fc52 a6be 345c 3bbe 150c 2b3f dd28 313e
00000370: bcf8 163e 1c50 e53d 5155 3f3d 735e 713d
00000380: 0525 f93c a31f 82c0 7d51 a13d 0093 f1c0
00000390: 0a32 7a40 d460 953e 3d94 823d 747b 04bf
000003a0: 1d41 af3e 721b 91be 105a c1bd a077 e83e
000003b0: 0753 36bc 4286 2bbd 5348 343e 7b57 c0bd
000003c0: 007a 403c 14f4 f7bd 80d9 bf3d 9c3f 413e
000003d0: 50d8 d6bd 7597 afbc 2604 903e ab7a 743e
000003e0: 572f 133d e7a8 99bd ab61 073b c49c b4be
000003f0: 5ec6 a63e 9fed fd3d 9935 343e c142 0e3e
-0.107836336 0.1037972 -0.23183164 0.12673002 0.21272796 -0.1792168 -0.063737765 0.059600115
-0.23928964 -0.15813717 0.08694616 0.23541132 -0.07468599 -0.0034534747 -0.24193056 -0.24066032
-0.08610686 0.903338 -1.4952817 -2.4381793 -0.7203308 -0.20457366 -0.057665475 -1.4023044
-0.058937408 -0.1353642 -0.43042937 0.18864569 0.03014221 -0.69937027 0.02450831 0.17165129
-1.6050301 -2.5336483 1.7571412 -1.213574 2.424008 -1.8513093 0.26303604 -0.28964427
0.27113685 -0.13221747 -0.3203835 -0.2514109 0.32440254 0.16023082 0.17125812 -0.051637925
-0.17668307 -0.06055565 -0.22703297 -0.099701986 0.13421017 0.14982922 -0.17203514 0.1678786
-0.073530205 -0.27238065 0.2959615 0.16331472 -0.2477724 -0.21145698 0.059051596 -0.21001288
-1.4723943 2.824299 0.09986936 -1.5402821 -2.634163 -1.649926 -0.22507265 1.0547556
-0.79144996 -0.01196577 0.18176413 -0.33893523 -0.09092648 0.7262003 0.25102645 -0.22475614
1.265827 -2.6666284 -1.3675503 0.55801815 2.5579135 1.2463455 0.66491675 -0.27121872
0.5127406 -0.39764306 0.22257717 0.27889422 -0.15776414 -0.1310589 -0.3646027 -0.014210203
0.16650796 -0.034379557 0.05292063 0.13068733 -0.07492388 0.18451118 -0.23022984 0.098135054
-0.064252324 -0.28120112 0.00053143414 0.19196507 -0.14654242 -0.04699056 -0.16409674 -0.19595361
2.3943753 -2.432537 -1.1318398 2.0554295 2.6176689 2.1706085 0.7723203 0.3132813
0.363419 0.271041 0.02974108 0.1127732 0.21382943 0.10352622 0.24374127 0.23433244
2.4235425 -1.0196513 1.473723 3.296299 1.0877014 2.2024968 0.7661597 1.053556
0.7765279 0.2536636 0.36012152 0.09873648 0.13079144 0.21015985 0.48995656 0.10628698
-4.6505265 2.7972455 -0.10052727 2.1206071 -3.050971 -4.4339585 0.46636942 -0.36610493
-0.26851872 0.3631394 -0.284104 -0.8197427 0.42739856 -0.039032772 -0.051947996 0.18752383
0.878442 -5.230622 0.5995455 -1.3133823 5.238159 1.1151307 -0.74944526 -0.5478849
-0.15089428 -0.09668348 -0.31977257 -0.2570992 -0.20738018 -0.23617736 0.20028141 -0.09087216
0.029406551 -0.07663749 -0.42964345 -0.5458232 -0.33229208 0.014579693 -0.5135264 0.5563175
0.21812306 -0.57463473 0.5206524 0.37856117 -0.13429919 -0.015006269 0.1582027 -0.3476519
0.9974674 -2.6447127 0.18049395 3.1561031 2.2962778 0.8644025 0.23887323 -0.021990152
-0.2948931 -0.01372971 0.5525188 -0.20961806 0.4112423 -0.14168781 -8.0592916e-05 0.42855212
-2.4163969 -2.1910894 0.33582667 -2.6664808 2.2101748 -2.2374322 -0.40250286 0.5245206
-0.32485187 -0.18296891 0.6681531 0.17300744 0.14743322 0.1119692 0.046712223 0.058927964
0.03041316 -4.066362 0.07876871 -7.5491943 3.9093041 0.29175436 0.063759305 -0.51750875
0.34229365 -0.28341252 -0.09441006 0.45403767 -0.011128194 -0.041876085 0.17605714 -0.093916856
0.011747837 -0.12107101 0.09367657 0.18871921 -0.10490477 -0.021434525 0.28128165 0.23874919
0.03593382 -0.07502919 0.002065758 -0.35275853 0.32573217 0.12398838 0.17598571 0.13892652

bias f4 [64]
00000000: 222e eebd 8cdd 98be e37e 8b3e c680 53be
00000010: 04cd 7a3e 2064 9bbe 0666 18be 566a 3b3e
00000020: f579 6ebc 9542 213e ed0f 163e 91d0 f5be
00000030: badc 833d 14ba 1dbe 12ae a8bd f8c2 023e
00000040: c7de 80be 2b02 a03e 9519 a7bc 3870 e63d
00000050: 6ab2 613c edd6 383e 9cbd e73c 029d f3bd
00000060: 953d 8c3c 8553 77bd eed6 103e 611b aa3d
00000070: bd00 30bd 0d1f 0bbe aed8 453d 710a 6c3e
00000080: 8028 38bc d58f 0bbd f076 ed3d a50b 3e3e
00000090: e7eb 60be 76da bc3e 8ead aa3e 5b2d 4b3e
000000a0: 3bdc 5bbb 1bfc 95be 6eeb 493e 361e 9ebe
000000b0: e853 103d 170f 6cbe d095 b93e 573e 193e
000000c0: bf19 483d 514b 6bbd 3a05 cd3c ef05 85be
000000d0: 0403 cebd a850 a3be f4af 4cbd c5f4 67be
000000e0: 16b9 8cbe 9bbf 143e 0c82 ab3e 0497 293e
000000f0: cb15 f33e 7b70 8c3d defd 843c 4b03 82bd
-0.11629893 -0.29856527 0.27245244 -0.20654592 0.2449227 -0.30349827 -0.14882669 0.18302283
-0.014555444 0.15748055 0.14654513 -0.48010686 0.064385846 -0.15403014 -0.08236326 0.12769687
-0.25169966 0.31251654 -0.02039794 0.11251873 0.013775447 0.18050738 0.028288655 -0.11895181
0.017119208 -0.060382385 0.14144489 0.08306003 -0.042969454 -0.13586064 0.048302345 0.23050858
-0.011240125 -0.034072716 0.11594951 0.1855913 -0.2196499 0.36885422 0.33335537 0.1984152
-0.0033548016 -0.29293904 0.19718716 -0.30882424 0.03523627 -0.23052631 0.3624711 0.14965187
0.04885268 -0.057444874 0.025026906 -0.2598109 -0.10059169 -0.31897473 -0.04997249 -0.22651966
-0.2748496 0.14526217 0.33497655 0.16561514 0.47477564 0.068573914 0.016234335 -0.06348284

weight f4 [64, 64]
00000000: d4a2 313e 2478 be3e dcbb 7ebe e642 003d
00000010: b68f 00be bf4a 2f3f 2036 533e 11a2 62be
00000020: 0152 a63c 5722 e4be ec79 eabe e8a2 963e
00000030: 4d24 44be 7ce9 043e 11e8 1b3e b09f 42be
00000040: 6203 453e a5fc b2be ebfe 17be fea8 d5bd
00000050: c07a f63d 7dac 10bf c487 b3bd d60d bb3e
00000060: 796a 3e3e 0923 dfbe 2c17 5c3e ca4c 643e
00000070: 6c14 6e3d 531c aabd 1fa5 e43e b3d9 77be
00000080: 8cc3 46be 9348 73be 225b 02bf 36fb 6fbe
00000090: 9a2c 05bf 82c5 5fbe e64d ae3e ffaa 86bd
000000a0: 0887 d83e 3ce3 7c3e 36d3 3dbd 3425 873e
000000b0: 2159 c23d 3d27 803e 433d 75be 547b eb3c
000000c0: 7c6f ffbe a45a 64be b0b1 47bf 012a fd3d
000000d0: 3b0c 613d 341b 643d 4ab0 af3c 88dd 283d
000000e0: 378d 9d3d a000 8abe ba60 83be cb0b 893d
000000f0: 8130 edbe 3b45 273e 6b76 1b3e 7e6c 73bd
00000100: 25ca 86be 0aa7 303f 1a34 46be 8950 81bd
00000110: 239a 2fbf 315a 903e 9c5b 41be 737a c03c
00000120: 1f19 133e 391b 973f ebe3 91bd 1063 1a3d
00000130: d663 1dbf c52d f4bd 54b1 163f 84d8 2f3e
00000140: 7dbf 32bd e248 40be 7b4e 64be 3bc4 e2bd
00000150: f3c0 9ebe e55a a73e 19af 113e 9eb9 49be
00000160: 1f7d aebe e997 72be 4428 3abe 556f 95be
00000170: 43e0 583f 1758 45bd 2fb5 813e ede4 93be
00000180: acd4 303e 3d15 023f d1bf 38bf ff6f 4cbe
00000190: 722e 6c3d d7cc cf3d 81f2 bfbe f895 2f3e
000001a0: 9473 093f 155e a8bd 850e b33d d469 be3e
000001b0: f2ce 7a3d 42ad 01bf eece 123e b69e 5bbe
000001c0: 792b c8bc 5a7c 693e bca5 04be 6ae8 fcbd
000001d0: 8da2 7ebf e36e 13be c4fd 33be f05f 913e
000001e0: de33 dfbd 84e9 2dbe 507b 34be 68b4 babc
000001f0: a3f9 c43e 31d5 30bf ec29 2c3e 298c 85be
00000200: 19ac b63e 4bca abbe 782f 05bd 010a c13e
00000210: c561 4f3e a56d 00bf 87b4 c53e fe19 6ebe
00000220: 85ae 61be 8ddf cabe 58a7 90bc b992 f03d
00000230: 67c9 5e3e 64e5 183e dafd ba3c cde4 edbe
00000240: 33b8 cd3e ea4e 7d3e d62f 833e 5ed2 b83d
00000250: fab5 043e c4e9 a03a ec56 613e 1dc3 513e
00000260: 2763 5e3e fad2 84ba 1d52 da3e a3ba fd3e
00000270: 8888 283e daff 8dbe 5ea5 96be ec3a 603d
00000280: 553e e2be 8762 923d 9337 3dbe 7651 d93e
00000290: d4ba 9e3e e9cf 2c3e 0937 ce3d cb47 fdbe
000002a0: 8ac3 10bd b544 4d3e 6b34 d9be c4a3 ad3d
000002b0: ad52 583e b77c c73e 5328 a2be 53b4 c43e
000002c0: b799 f83d 5f00 72be acef 593e 4feb d73e
000002d0: b874 803e 816c 993e a90b 9a3e 1d70 d3bd
000002e0: abab 8a3e 7f82 8bbd f89a 853e 78c9 4abe
000002f0: cc94 1abe f37c e73d f3d4 f5bd 902c 3b3c
00000300: bbc9 b0bd 6d0c 123f b593 b3bd d7c2 023c
00000310: 255d f7be 0a2f 103f 3ddc 9ebd ada0 4b3c
00000320: 93c4 af3c e433 6a3b bb76 473e b08a 213d
00000330: ee40 8fbe 0b53 04bf fe43 783d 4c18 4e3d
00000340: 7a19 f8bd aa7d bfbe cae0 7ebe 6747 6cbe
00000350: c6da 2f3e fd9b 91be d2c0 25bf c831 d23d
00000360: 08f1 563c 4178 c7bd 78e2 14bc 0ab1 f1bd
00000370: 00d2 83bd 615d a4be 87c0 50be cea6 2cbe
00000380: 255e 5b3e b6d7 8a3e 6613 cfbe 862e 9cbe
00000390: c105 edbe 0257 4dbd 300e a4be b1b2 5e3e
000003a0: 21bd c43e b672 d3bc 09eb 063e 3b84 283e
000003b0: 895b 05bc 256c ecbd 778e c23d 0c7d 18be
000003c0: 03b4 a8bd 4b48 883c 0eb5 1bbe 2325 96bd
000003d0: cc71 f2be f555 0cbe 4189 efbd 5dac 0c3f
000003e0: 10c3 ffbd 1cc2 36bf ef64 23bd 9775 ddbe
000003f0: 6bff 1abe 3a8f b6be 0807 483d e275 5cbe
0.1734727 0.37201035 -0.2487635 0.0313138 -0.12554821 0.6847343 0.20626116 -0.22132136
0.020302774 -0.4455745 -0.45796144 0.29421163 -0.19154473 0.12979692 0.15225245 -0.19006228
0.19239572 -0.34958377 -0.14843337 -0.10432623 0.120351315 -0.56513196 -0.087661296 0.36533993
0.18595304 -0.43581417 0.21493214 0.22294918 0.058124945 -0.08306184 0.44657227 -0.2420414
-0.19410533 -0.23758154 -0.5092031 -0.23435673 -0.5202118 -0.21852687 0.34043807 -0.06575584
0.4229052 0.24696058 -0.046344005 0.2639557 0.09489656 0.25029936 -0.2394915 0.02874533
-0.49889743 -0.22300202 -0.78005505 0.12361527 0.054943305 0.055690005 0.021446366 0.041226894
0.0769295 -0.26953602 -0.25659734 0.066917025 -0.46326068 0.16335003 0.15181892 -0.059429638
-0.263261 0.6900488 -0.19355813 -0.06314189 -0.6859457 0.2819381 -0.18882602 0.023495888
0.14365052 1.1805183 -0.0712355 0.03769213 -0.6148046 -0.11922792 0.5886433 0.17172438
-0.04363965 -0.18777803 -0.22295563 -0.11072584 -0.31006584 0.32686535 0.1422695 -0.19699714
-0.34079835 -0.23690762 -0.18179423 -0.29186502 0.84717196 -0.048179712 0.25333545 -0.28885594
0.17268628 0.5081366 -0.7216769 -0.19964598 0.05766148 0.10146492 -0.37489703 0.17147052
0.53691983 -0.0822107 0.08743004 0.37190115 0.061232515 -0.50654995 0.1433675 -0.21447262
-0.024434792 0.22801343 -0.12953848 -0.12349017 -0.9946678 -0.14397769 -0.17577273 0.28393507
-0.10898565 -0.1698361 -0.17625165 -0.022791103 0.38471708 -0.69075304 0.16812867 -0.26083496
0.35678175 -0.33552775 -0.032515973 0.37702945 0.2025214 -0.50167304 0.38614294 -0.23252103
-0.2203923 -0.3962368 -0.01765792 0.11746735 0.21756516 0.14931256 0.022826124 -0.46463624
0.40179595 0.24737135 0.25622433 0.09024499 0.12960044 0.0012276699 0.22005814 0.20484586
0.21717511 -0.0010133677 0.42640772 0.49556455 0.16458333 -0.27734262 -0.2942304 0.054743692
-0.4418818 0.07147699 -0.18478231 0.42444962 0.31001914 0.16876186 0.10069091 -0.49468836
-0.03534273 0.20045741 -0.42422804 0.084785014 0.21125288 0.38962337 -0.3167139 0.38418826
0.12138694 -0.23632954 0.21282834 0.42171714 0.2508905 0.29965594 0.3008702 -0.10324118
0.27084097 -0.068119995 0.26094794 -0.19803417 -0.15095824 0.11303129 -0.120035075 0.011424199
-0.08632227 0.5705021 -0.08768407 0.007981024 -0.4831325 0.56321776 -0.07756851 0.012428445
0.021456039 0.0035736496 0.19478886 0.039438903 -0.27979225 -0.51689214 0.060611717 0.05031614
-0.12114234 -0.37400562 -0.24890438 -0.23074113 0.17173299 -0.28439322 -0.64747345 0.10263401
0.01311899 -0.097397335 -0.0090871975 -0.11801346 -0.06436539 -0.32102492 -0.20385943 -0.16860506
0.21422632 0.271177 -0.40444487 -0.30504245 -0.46293452 -0.050131805 -0.32042074 0.21747853
0.38425544 -0.025811534 0.13175596 0.16456692 -0.008139499 -0.115440644 0.09499829 -0.14891452
-0.082374595 0.016636034 -0.15205786 -0.07331302 -0.47352445 -0.13704665 -0.11696101 0.54950505
-0.12488377 -0.7138994 -0.03989118 -0.43253776 -0.15136497 -0.35656148 0.04883483 -0.21529344

bias f4 [64]
00000000: 5273 49be bb1b 8a3e d294 8ebe cffe 033e
00000010: 63bf 5c3e bd00 0f3e 1f8d 863d fdf0 91be
00000020: c4bf 18ba 9e22 ddbe 0cd5 7b3e fbf4 2ebb
00000030: 1293 313e 0464 87bd b28e 0c3d b8f3 f53e
00000040: 8dbd febb 4dab 4f3d 7fac 9abe 6e3f b5be
00000050: 6f0f 313d 6974 b33d e294 70be a156 aabd
00000060: bd0d 11bd 8799 e8bd 3cfd f8bd d64c ca3e
00000070: e413 013e b2fd 383e 4003 c3bd 824d 4e3d
00000080: a2b3 733e f8da a5bd b540 573d 22b0 edbe
00000090: bc97 d9be 2ac1 893e c521 24be f86c 91be
000000a0: a942 21be b617 a53e 8a95 353e 0fb6 c139
000000b0: 62f7 3abd 5b3f 933e 93a0 35be 7ced c43d
000000c0: d0f7 87be ff3a c33e e35f e7be 99cb 5c3e
000000d0: 431b 45bd 141f 6cbe 2934 963d 711b a1be
000000e0: 6bd8 913e 3276 9cbe 101f d13c de50 19be
000000f0: 1869 6e3e b045 aa3e e1ec 633e 3105 59be
-0.19672897 0.26974282 -0.27847916 0.1289017 0.21557383 0.13965125 0.065698855 -0.28504172
-0.0005826915 -0.43190473 0.2459299 -0.0026696313 0.17341259 -0.06610873 0.034315772 0.48037505
-0.007774061 0.050700475 -0.3020973 -0.35399956 0.04322761 0.08762438 -0.23494294 -0.083173044
-0.035413492 -0.11357408 -0.121576756 0.39511746 0.12605244 0.18065527 -0.09522104 0.050366886
0.23798993 -0.080984056 0.052551944 -0.4642344 -0.42498577 0.26905185 -0.16028507 -0.2840345
-0.15748085 0.32244653 0.17732826 0.00036947473 -0.04564608 0.28759274 -0.17737035 0.09615609
-0.26556253 0.38130948 -0.45190343 0.21562041 -0.048121702 -0.2305873 0.073341675 -0.3146625
0.28485426 -0.30558926 0.025527507 -0.14972255 0.23282278 0.33256292 0.22258331 -0.21193387

weight f4 [1, 64]
00000000: aeee 00bf 0da7 51be 3fc5 2b3f aba7 07bf
00000010: d937 853f 14e3 593f e3a3 b7be 7a11 eb3e
00000020: 4464 1bbf 4987 3d3f d329 1cbf 8a4e d0be
00000030: 955d b9be 1c77 75bf 0862 cd3e ef47 29bf
00000040: 212a 623f 3d37 263f e4c6 1d3f f023 153f
00000050: cc91 8c3f 0063 f8bf 7481 34bf a36f abbe
00000060: e2d7 f53f 95a4 603f 5aca e23e 1769 3fbf
00000070: faf0 12bf 4865 96bf d3be 1c3f 2ad5 cc3e
00000080: 25b2 40be 2ffb b6be a226 003f f5a7 2a3f
00000090: 95c7 84be 010f f2bd 4d6d e63e 21f9 1f3f
000000a0: 7b08 11be ef3d 21bf d0f4 9cbf 6846 1abf
000000b0: 43f9 41bf cfad 21bf a31a 953e 8dcc 26be
000000c0: eab8 06be 4b59 22bf 93cd 5d3f d4f7 0c3e
000000d0: 478f da3e 66d4 b83e 81c4 61bf 3cba d63e
000000e0: e698 ccbe 847f b03e 2e53 9c3e 62e6 30bf
000000f0: ff2d c9bf 0bdf a7bf 0a83 a7be 7431 483e
-0.50364196 -0.20473881 0.6709785 -0.52990216 1.0407668 0.8511212 -0.35867223 0.4591177
-0.6069987 0.74034554 -0.6100132 -0.4068492 -0.3620421 -0.9588487 0.40113854 -0.66125387
0.88345534 0.64928037 0.6163161 0.5825796 1.0981994 -1.9405212 -0.7051003 -0.3348361
1.9206507 0.8775113 0.44295007 -0.7476973 -0.5739895 -1.1749659 0.61228675 0.4000638
-0.18817957 -0.35738513 0.5005895 0.6666253 -0.2593352 -0.11819268 0.45005265 0.62489516
-0.14163391 -0.6298513 -1.2262211 -0.6026368 -0.7577097 -0.63155836 0.29121885 -0.16288967
-0.13156477 -0.634175 0.86641806 0.13766414 0.42687437 0.36099547 -0.88190466 0.4193896
-0.39960402 0.34472287 0.3053221 -0.69101536 -1.5717162 -1.3114942 -0.32717162 0.19550115
