output/ppo/2021-12-16_16-33-57-ppo/model.pt (torch_old, 47590 bytes, 12 tensors)

log_std f4 [3]
00000000: b731 0bbf b1b7 14bf 4a7a 1cbf
-0.54372734 -0.5809279 -0.611241

weight f4 [64, 16]
00000000: f5fe 9bbd 4ed7 a73d d191 0dbe f4a9 0cbe
00000010: 2db2 31bd 18b0 0ebc 9b7e 6e3b 4bbe 513e
00000020: 4f81 d0bc f266 853d ad9a 99bd 6167 45bd
00000030: b957 75be 80b7 2fbe 5114 cdbd c36a 013c
00000040: 0e8b 143e 6607 743e 3396 62be 3c9f efbd
00000050: ed52 f43b 3bef 7d3e 61f9 3bbd b765 2b3e
00000060: caed 5ebc 0b35 bd3c 7f3e 6d3e ccc2 6ebe
00000070: 535a 24be 2662 7abd 3c8a d1bd 0e1a 5b3e
00000080: cba5 2fbe 3dda 11be 2e80 6fbe 87ff 52be
00000090: 0eba ecbd ef50 4e3e cc4e f03d 6b9f 003e
000000a0: 6964 913c 6ad0 00be 4f6e 403d d125 6abe
000000b0: 39c1 36be 6113 02be 4db1 223e 8b36 183e
000000c0: 5c87 afbd 8c34 6bbc 3be3 ee3d 7b94 4e3e
000000d0: c7fa d43d 18f6 6e3d 788b 223e 9351 14be
000000e0: 7ce6 553d 6007 44be 5463 32be 0886 01be
000000f0: ebe9 e83d dbd6 ce3d 9745 15be f24a 9e3d
00000100: dd7b 0d3e acfe 00bd 1509 1d3c f331 6c3d
00000110: 96ce 1e3e 081f 763e 376a 45be dcaf bbbd
00000120: e63c c93d 953d 543e 0c7d 5b3e 280d 613e
00000130: 4e7a 593d 589f 5fbe b6b7 d63c 6b34 1cbe
00000140: 74cc 82be 75cb b53e 288d 8a3e 3197 91be
00000150: e8fa 98bd 7109 7cbd 0fb0 00bd 4faa e2bd
00000160: 0373 a93d 3bc0 02be 2d01 983d ec89 c63d
00000170: 4ed7 503e 9ace f03d 8e4c 74be ff8c 0cbe
00000180: 7669 da3d f5b0 243d 0c9a 1fbe dce9 fbbd
00000190: a4c6 7b3e 540c 1a3e f733 d2bd 0107 7dbd
000001a0: 4016 77be f111 0cbb 56e7 48be 980d 4abe
000001b0: 5926 ffbb 99a2 223d cc9b cbbd 9a89 1b3e
000001c0: d2a4 f7bd f6b9 763e bf49 2f3e 296c 68be
000001d0: 2730 89bd 04ba d33c 6ad2 ba3c 86f3 803d
000001e0: b9a4 c53d 29c9 0a3c fa98 e1bd 4ff6 023e
000001f0: 7d47 80be d80c 0abe 6f00 99bd 22e2 08be
00000200: 09d6 20be f513 8ebe e3a3 a93d e8b3 c53d
00000210: 8735 babd c6e1 acbd c2f0 423e 4f1a a2bc
00000220: 5577 3a3b 0a8e a3bc af33 473d ae12 213e
00000230: 88b9 743e 5e46 223e faa3 753e 5a06 87bc
00000240: 9121 83be 9f25 5abe 90da 1f3d b1b0 a73d
00000250: be2a eebc 9b0f 65be ee83 5bbe ea54 5fbe
00000260: daa9 6dbd 96bf 123e d78b fb3d c71d 7cbe
00000270: f2fd 243e 6fd7 50be c60a 57bd d768 c3bd
00000280: 922d e5bd ac57 38be b205 91bd 2859 adbd
00000290: f8b1 b83d 7f39 84bd 285d b3bd 7202 be3d
000002a0: a5e7 5ebe e653 2cbc 8d5a 5b3e 4018 d4bd
000002b0: 393a 6b3e 650d c33d dd96 60be 84ea 283e
000002c0: 662f 85bd 0e62 0bbe 4815 4c3e 113a 4dbe
000002d0: 31ad 223d 7ec2 a2bd 7a07 313e 43b5 a13d
000002e0: c40e f73d 5a7b a63d 112c 55bd 369a 33bd
000002f0: ee77 5abe 8714 003e a8b9 553e fcdc 263e
00000300: 80ec 23be f53b e73a 19a9 34be c8fe 0ebe
00000310: 24ab 0ebe 3120 c43d b7cb 17be 9bca d1bb
00000320: e177 483c bbaa 273e 6bf5 40be 5dd4 2bbe
00000330: d999 17be 0f39 2c3e 8555 bfbd 67b3 543e
00000340: 39e5 823d fc53 e73d 4a7d 7fbd 9e5e 14bc
00000350: e332 46bd 82b4 aabd 1f18 913c 6033 b83c
00000360: 5874 37be f774 08be b28a 513e 1e78 48be
00000370: a762 9dbc 9c55 793e f8d7 bf3d 2a15 b43b
00000380: 1bbd 08be e14c 8d3e 8ef2 88be 8976 01be
00000390: f4c4 6bbe 6bce 403d 562b a9ba 49bf 513e
000003a0: 52a6 1a3d 9df6 643e 6626 1b3e 47c0 22be
000003b0: e718 e63d 41d6 39be 752b debd 9b0f 973d
000003c0: 6a28 243e e17d 843e 6a3f 89bd 848a 343c
000003d0: 3718 7e3d 9cf9 25be 7ebd 493e f199 56be
000003e0: 7145 4f3c da50 3cbd 844f 02be ae44 243d
000003f0: 1ae7 503e c353 94bd c432 1dbe 1393 c4bd
-0.076169886 0.08195363 -0.13825156 -0.13736707 -0.043382812 -0.008708976 0.003639138 0.20482747
-0.025452284 0.06513776 -0.07500205 -0.048194293 -0.23959245 -0.17159843 -0.10013641 0.007898989
0.1450617 0.23830947 -0.22127609 -0.117002934 0.0074561746 0.2479829 -0.045892123 0.1673802
-0.013606498 0.023096582 0.23168372 -0.23316497 -0.16050081 -0.061128758 -0.10231444 0.21396658
-0.17153089 -0.14243408 -0.2338874 -0.20605288 -0.115589246 0.20148061 0.11733779 0.12560813
0.017748075 -0.12579504 0.0469802 -0.22865988 -0.17847146 -0.12702705 0.15887947 0.14864556
-0.085707396 -0.01435579 0.116644345 0.20173828 0.103993945 0.058340162 0.15873516 -0.14484243
0.05222176 -0.19143438 -0.17420703 -0.12648785 0.11372741 0.10099574 -0.14577328 0.077291384
0.13816781 -0.031492874 0.009584685 0.057664823 0.15508494 0.24035275 -0.19278799 -0.09164402
0.098260686 0.20726617 0.2143442 0.21977675 0.053095154 -0.21838129 0.026210647 -0.15254371
-0.2554661 0.35506788 0.2706082 -0.28435662 -0.074697316 -0.06153244 -0.031417903 -0.1106764
0.0827389 -0.12768643 0.07422099 0.09694275 0.20394632 0.11758156 -0.23857328 -0.1372566
0.10664646 0.040207822 -0.15586108 -0.123004645 0.24587494 0.15043765 -0.10263818 -0.061774258
-0.24129581 -0.0021372999 -0.19619498 -0.19731748 -0.007786554 0.039705846 -0.09941825 0.1518921
-0.12091984 0.24094376 0.17117976 -0.2269751 -0.066986375 0.025845535 0.022805411 0.062964484
0.09650559 0.008470812 -0.11015506 0.12789272 -0.2505454 -0.13481462 -0.07470786 -0.13367513
-0.15706648 -0.277496 0.08283212 0.09653455 -0.09092241 -0.084415 0.19037154 -0.019787936
0.0028452475 -0.01996519 0.048633274 0.15729782 0.238989 0.15847155 0.23988333 -0.01648252
-0.25611547 -0.21303414 0.039026797 0.08187998 -0.029073115 -0.22369234 -0.21437046 -0.21809736
-0.05802331 0.14330897 0.12282532 -0.24620734 0.16112497 -0.20394681 -0.05250051 -0.09541481
-0.111903325 -0.18002194 -0.070811644 -0.08464271 0.0901832 -0.06456279 -0.087580025 0.0927781
-0.21768053 -0.01051805 0.21421261 -0.10356188 0.22971429 0.09524039 -0.2193255 0.1649571
-0.06503181 -0.13611624 0.19929993 -0.20041682 0.03971595 -0.07947253 0.17288008 0.07895901
0.12063363 0.08128996 -0.052043978 -0.04384824 -0.21334812 0.1250783 0.20871603 0.16295236
-0.16008186 0.001764177 -0.1764263 -0.13964379 -0.13932472 0.095764525 -0.14823805 -0.0064023263
0.012235613 0.16373722 -0.1884362 -0.16780229 -0.14804782 0.16818641 -0.093424834 0.20771562
0.06391377 0.112953156 -0.062375344 -0.009055762 -0.048388373 -0.083352104 0.017711697 0.022485435
-0.17915475 -0.13325869 0.20463064 -0.19577071 -0.01921208 0.24349064 0.09367365 0.005495687
-0.13353388 0.27597716 -0.26747555 -0.12642874 -0.2302435 0.047071856 -0.0012906592 0.20483126
0.03775627 0.223597 0.15151367 -0.1589366 0.112352185 -0.18148138 -0.108481325 0.073760234
0.16031042 0.25877288 -0.067015484 0.011019353 0.06203481 -0.162085 0.19701192 -0.20957161
0.012650833 -0.045975544 -0.12725645 0.04010456 0.20400658 -0.07242539 -0.15351397 -0.09598365

bias f4 [64]
00000000: 93b2 9bbc 596a 74be 15a3 11be b6b3 d33d
00000010: c089 acbd 6956 493e 9903 4d3e ec6c d03c
00000020: 1a77 95bc 5c4b 95bd 4b2f c2bb 7a16 183d
00000030: feeb 43be 712c 7dbd e546 55be a8f6 183e
00000040: 7e02 2cbe 7e78 653e a120 8ebd 2bca 18be
00000050: 3464 f33d dd00 103d 35cd 223e de35 c93d
00000060: 00ef 67be f0c5 113e d237 1fbd 8480 d0bd
00000070: 963c 1d3e 7c05 3a3e c113 62be 5eb8 bfbc
00000080: 8ba7 4d3e 08d1 193e dcbc 583e 3bd2 b7bd
00000090: 51eb 09be c78a 593e dfff e83d 9b37 7e3e
000000a0: 0c24 e1bd 2169 2bbe c615 19bd dcdc 66be
000000b0: b811 b93d 00d6 473e d4f9 833d 7aef 4dbd
000000c0: 6d20 e93d 409a 21be 0557 7d3e a961 78be
000000d0: 8e8c 73be a826 36bd 6924 4b3e 5f8b 8d3c
000000e0: 832d bf3d 7a75 3ebe e20e d63d e7a3 b7bc
000000f0: f937 c33d 281e 353e 23cb f23d fe65 a5bc
-0.01900605 -0.23868693 -0.14222367 0.103370115 -0.08424711 0.19661869 0.20020904 0.025442563
-0.018245269 -0.07289764 -0.005926048 0.03713081 -0.19132993 -0.06180996 -0.20827825 0.14937842
-0.16797826 0.22409245 -0.06939817 -0.14920871 0.118843466 0.035157073 0.15898593 0.098247275
-0.22649765 0.14235663 -0.038871594 -0.101807624 0.15355143 0.18166155 -0.22077848 -0.023403343
0.20083444 0.15021145 0.21165794 -0.08975645 -0.13468672 0.21244346 0.113769285 0.248259
-0.109932035 -0.16739322 -0.03737428 -0.22545189 0.09036583 0.19515228 0.06444135 -0.05027721
0.11383138 -0.15781498 0.24740227 -0.24256004 -0.23784086 -0.04447046 0.19838108 0.017278371
0.093348525 -0.18599501 0.104520574 -0.022417022 0.0953216 0.17687285 0.118551515 -0.020190235

weight f4 [64, 64]
00000000: d1b0 15bc 8984 94bd 1ca5 39bd 66e6 a53d
00000010: f070 4cbd 4f87 9f3d 6be4 4bbd 68c0 ecbc
00000020: 05ad e63b b8c9 ebbd 2060 bdba 42e7 51bc
00000030: df77 3bbc 6d6c c2bc 1fa8 cc3d c96e b33d
00000040: 5b9c adbd d7ad 6c3d d6b1 bcbd 612f dabd
00000050: 61a3 1b3d e54f f73b 96c5 6cbd 7e00 f7bd
00000060: 7a34 47bd 92e8 243d b004 f5bd febd 01be
00000070: 811e 833c d4d2 b7bd b51b f0bd e351 5abd
00000080: a1a2 a0bc 6339 e9bd ee16 a7bd c0da 853b
00000090: 1374 f0bd 3ce2 8cbc e4b7 a4bd a9ca bdbd
000000a0: 7a08 4a3d 35a4 c4bd 7e1e c1bd 8875 983d
000000b0: 76fb bd3c b996 e83d 1756 ffbc b470 83bd
000000c0: 93b1 8ebb 8971 98bb afb5 c23d ef1d fdbd
000000d0: ab6c 15bc 41c4 563d ce33 8cbd f3d5 82bd
000000e0: 7349 763d decd eebd d814 0c3d afc1 c5bd
000000f0: 972e 7a3d 4d53 dbbd 628f a53d 3c0c f1bd
00000100: 84ad d7bd bfc6 ee3a ebe2 c63d 9e76 debd
00000110: ade6 5dbd a620 e43d c8b3 b8bc f097 5a3d
00000120: 3651 f2bd ac6b 19bd 7aac 81bd 5f95 d43d
00000130: fe04 4e3d abe7 a4bd ced1 a73c 1b66 a5bb
00000140: 4650 46bd 3f6d 95bd b3ad 14bd 5fda c73d
00000150: 28c1 babd 890a a5bd b57d 0ebd 16d7 543a
00000160: 84f0 043d 2062 ec3a 377e e5bc ebfa 91bd
00000170: 11a4 abbc 7e6a 44bd 434c c03d 11f4 f4bd
00000180: d8c9 a0bd 7a2c cdbd cde9 b2bc 4d55 b43d
00000190: 6149 e53d 45c4 dbbd 9926 7cbb 0a84 8b3d
000001a0: 9797 683d 4a1c d53d 0c34 e5ba d347 a6bd
000001b0: fa25 a63d d3ae 36bd 067d 893d cd86 0dbd
000001c0: e115 803d 9a71 db3d 5c93 ea3d 9e1e ecbd
000001d0: 55a0 acbd c0bc 53bd 4ed9 9abd a031 f23d
000001e0: 61fe 4ebc b2b9 a9bd afd5 6bbd 7ac1 8abd
000001f0: 9867 5f3d 7b89 e2bd a3b0 e5bd 6ea0 fdbd
00000200: 681b 573d c6b1 853d b62c 9cbd 42fd 043d
00000210: 41f2 b93d 2226 893c 788a ccbc 4a2a fe3b
00000220: f0cf 13bc 1463 733d 4cd5 aebd c7d8 843d
00000230: d050 933d c49e a6bd b7c4 d33d ae66 f83d
00000240: c052 5bbd 0ab6 09bd 829a 7d3d 575b c7bd
00000250: fc87 503d 04d8 cf3c 0f3e 9c3d 600c dcbd
00000260: 45ac d1bd f343 643d 0d73 273d 483c f8bd
00000270: 09ba 91bd 0019 f0bd fc6d b6bd 60ee 7dbd
00000280: a79d d43d 0b82 dbbc 41c5 983d 67c7 fc3d
00000290: c0ae 613d 0442 e6bd 17b0 7b3d 20e2 313d
000002a0: 6315 c33d f9b1 ffbd f47d 9a3d dc4f d63d
000002b0: 3423 ebbd 6ed0 6f3c 494f db3d e40c babd
000002c0: 5afa 203d 4414 5e3d f558 0c3d ab65 013e
000002d0: e3a4 d43d c638 d73d 512b 9cbc 107e d93d
000002e0: 00a2 ebbd 6475 85bd 9338 babc 42a2 1cbd
000002f0: b3c3 e23d cc8c 773d 85c7 a63d fa1b b13d
00000300: 376a b5bd 6bdf 58bc 2993 4a3c db0d dd3c
00000310: bee4 8e3d 1a60 35bd 4ce5 30bd d774 e13d
00000320: 5c14 11bd d434 acbd b1f5 a33d fc19 a23d
00000330: 7d0c 37bd 2ff5 10bd 74e6 bdbd a0b9 cdbd
00000340: 810b 503d d65b 71bd 718c c93d 8db9 b8bd
00000350: 378c babc 2859 01bc 0e8a 7c3d fdf7 c33d
00000360: b30e a23d d630 673d 77d2 88bd fc9b babd
00000370: aea5 d9bd efa5 723a dc1b fd3d 504d f1bc
00000380: 101b e439 70f9 aebd 388f 193d 10f8 c63d
00000390: d9ba f1bd b009 acbd 8107 c93d b7d0 0e3d
000003a0: 9687 1dbb 27d2 e33c 376f 5ebc 30e2 aabd
000003b0: 2c6d fabd 2c60 9d3d 499d 1dbc b0ad 49bd
000003c0: d3b8 17bd c879 7abd 7a16 2ebd cd05 e6bd
000003d0: 4271 b43d f241 343d 0ab5 92bd e6df 44bd
000003e0: 57a8 4e3d ce40 22bd 7537 153d ebf9 253d
000003f0: 7e32 afbd 3083 d33c b2f1 f73b 723f cd3d
-0.009136395 -0.072518416 -0.045323476 0.08100586 -0.049912393 0.0778948 -0.049778383 -0.02890034
0.0070396685 -0.11513084 -0.0014448203 -0.012811484 -0.011442154 -0.023733342 0.09993004 0.08761365
-0.08477088 0.057782974 -0.09213607 -0.10653568 0.037997607 0.007547366 -0.05780562 -0.12060641
-0.04863403 0.04026086 -0.11963785 -0.12670133 0.016005756 -0.08975759 -0.11724035 -0.05330075
-0.019608798 -0.11387899 -0.0815867 0.004084915 -0.117408894 -0.01719772 -0.08042887 -0.0926717
0.04932449 -0.096016325 -0.09429644 0.07444292 0.023191195 0.11356873 -0.03116898 -0.06417981
-0.0043546646 -0.0046522063 0.0950731 -0.12359225 -0.009120147 0.052433256 -0.068458185 -0.06388464
0.06012864 -0.1166036 0.034199566 -0.09656083 0.061079588 -0.10709248 0.08083989 -0.11769912
-0.10531142 0.001821719 0.0971125 -0.10862468 -0.054175068 0.1113904 -0.022546664 0.053367555
-0.11831896 -0.0374562 -0.063317254 0.10380053 0.05029773 -0.08052 0.020485785 -0.0050475723
-0.0484164 -0.07296228 -0.036298465 0.09758448 -0.09118873 -0.0805865 -0.034787852 0.00081192085
0.032455936 0.0018034615 -0.028014285 -0.07127937 -0.020952256 -0.04795312 0.09389546 -0.119606145
-0.07850999 -0.10018249 -0.02184 0.08805332 0.111956365 -0.10730795 -0.0038475154 0.06812294
0.056785192 0.10405786 -0.0017486825 -0.08119168 0.08112712 -0.04460032 0.067132995 -0.034552384
0.06254173 0.10715027 0.11453888 -0.11529277 -0.084290184 -0.051693678 -0.07560979 0.118258715
-0.012633891 -0.08287372 -0.05757683 -0.06775184 0.054542154 -0.110613786 -0.112153314 -0.12384115
0.05251637 0.06528048 -0.076257154 0.032468088 0.090794094 0.016741816 -0.02496837 0.007756506
-0.009021744 0.05942066 -0.08536777 0.064866595 0.07193148 -0.08135751 0.10340255 0.121289596
-0.053545713 -0.03362087 0.06191493 -0.097342186 0.050910935 0.025371559 0.07629024 -0.10744548
-0.10237936 0.055728864 0.040881205 -0.12120873 -0.071155615 -0.11723518 -0.089076966 -0.06199491
0.10381632 -0.026795408 0.07459498 0.123427205 0.055098295 -0.1124306 0.06144723 0.04342854
0.095255636 -0.124851175 0.07543555 0.10464451 -0.11481324 0.014637096 0.10708482 -0.0908449
0.039301254 0.054218546 0.034264524 0.1263644 0.10383012 0.105088755 -0.019063624 0.10619748
-0.115055084 -0.06516531 -0.022732055 -0.03824068 0.11072483 0.06043701 0.08143524 0.08647914
-0.088581495 -0.013236861 0.012364187 0.026984146 0.06977223 -0.044281103 -0.043187425 0.110086136
-0.035419807 -0.08408514 0.08005846 0.079151124 -0.044689644 -0.035390075 -0.09272471 -0.10045171
0.05079222 -0.058925472 0.0984124 -0.09019766 -0.022771938 -0.007894792 0.061655097 0.095687844
0.0791296 0.056443058 -0.06680768 -0.09111783 -0.10627304 0.00092562934 0.123588294 -0.02945581
0.00043507712 -0.0854367 0.0374901 0.09715283 -0.118032165 -0.08400285 0.098158844 0.034867015
-0.0024037114 0.02781017 -0.01357632 -0.08343923 -0.12227854 0.07684359 -0.009620019 -0.049237907
-0.037041496 -0.061151296 -0.042501904 -0.11231575 0.08810665 0.044008203 -0.07163437 -0.04806509
0.05045351 -0.039612584 0.03642984 0.040521543 -0.085545525 0.025819391 0.007566654 0.10021867

bias f4 [64]
00000000: b5c1 8f3d ad4a 78bd a5ee 913d a7ef 02ba
00000010: 0b6d a73d 55ea fe3d a308 babd 0cd8 ff3d
00000020: 28a6 bf3d 39ff bebd 6667 3c3d cce0 c4bd
00000030: 42b0 183d ec1a b93c b920 01be 82db 223d
00000040: d8df 14bd 53c9 f93d 3b41 f63d 252c 3e3d
00000050: 0631 cb3d ceb0 273d 2f23 ef3d 6858 86bc
00000060: 333c 113d 85d6 89bc 4b90 fbbb af05 07bd
00000070: 7f7e 5ebd 9da5 8f3d 0104 5d3d 6f39 7abd
00000080: f253 d5bd 3b25 753d 8d58 ebbd c7dd dc3a
00000090: 54d3 e3bd 71da c93d d8eb cf3d ad7f c8bd
000000a0: 9fe7 f7bd ba9f 8cbd df20 033d 40b9 81bd
000000b0: 30ce dfbc 1675 0ebd 9dc4 8c3c f4cb 6bbd
000000c0: e378 683d 44f7 b8bd 7459 b8bb 31dd d93d
000000d0: f89f 8cbd f659 cb3d 2e5a 913d 3297 3bbd
000000e0: 2959 1f3d e96c afbd 8e86 5c3c 4c6a 223d
000000f0: cfd5 df3d 8475 97bd 2ef5 8abd 5540 72bd
0.070193686 -0.06061809 0.07125596 -0.00049948174 0.08175095 0.12447039 -0.090836786 0.124923795
0.09357864 -0.093260236 0.045997046 -0.09613189 0.037277468 0.022595845 -0.12610139 0.03976012
-0.036346287 0.12196603 0.120241605 0.04642882 0.0992146 0.0409401 0.116766326 -0.016399577
0.0354578 -0.016825924 -0.007677113 -0.032964405 -0.054319855 0.0701401 0.053958897 -0.06108993
-0.10416402 0.05984996 -0.11491499 0.0016850763 -0.11124292 0.098561175 0.101524055 -0.09789977
-0.12104725 -0.06866403 0.03201377 -0.06334162 -0.027319998 -0.03477963 0.017183596 -0.05756755
0.05675591 -0.09031537 -0.005625898 0.10637892 -0.06866449 0.09929268 0.070972785 -0.045798488
0.03890339 -0.08565695 0.013459815 0.039652154 0.10929453 -0.07395461 -0.067850456 -0.059143383

weight f4 [3, 64]
00000000: a97f 03be f639 d63c b601 d7bd 52e5 0ebd
00000010: 1f0c 45bd b355 a7ba 3c07 fe3c 75ba babd
00000020: 57e3 26bd 2d97 50bc 36d6 98bd 592a d13c
00000030: 37ea 0b3d 555c b0bd 84e0 c43d 6f38 aa3d
00000040: dc2d 0dbd e2bf 8f3c 7fb8 8a3c 1113 80bc
00000050: 7283 abbd d911 dc3d 9ee9 743d 2ac9 cabd
00000060: cdd6 b7bd 8b71 eb3d f07c 483c 85f0 e0bc
00000070: d3fe 943d 99e6 0a3d 5fe2 ef3c f579 bf3d
00000080: 28bb 1dbc 4f62 003e 36f7 a1bd b29c 9abd
00000090: 03d4 b33c a117 9cbc 43b0 743d 12a5 d6bc
000000a0: 4243 8c3c 7968 babc 0c00 bb3d c3e4 e8bb
000000b0: 9c43 aebb 34a4 c73d 8e19 f63d 22cc e13d
000000c0: 42e3 f4bd 1692 8abd 6bf6 cabc 18a8 eebc
000000d0: 6d33 853d 309b 623d 1c7a 42bc bdab a33b
000000e0: a0a6 f03c 4d50 e13d 3f00 713d ef47 81bd
000000f0: dfdb 90bd 1db7 1f3d 2c79 6cbc f921 95bd
00000100: c2b8 ecbd 97db 873c 6448 26bd 790f 8bbd
00000110: a842 9f3c b6f1 c73d fecb c93d 42c8 853d
00000120: 3fbb aabd ffde 9b3d 1fa8 8e3d 5959 3d3d
00000130: a198 c7bc 457f b7bb ca54 93bd db46 b1bc
00000140: 1b3a 8cbc d94a 13bc f775 e8bd 51b8 313d
00000150: a9a3 d9bd a28f bebd 8b41 303d 76c0 dbbd
00000160: 1674 ef3d fb89 fb3d 5104 e6bc ba49 e8bc
00000170: ddda c7bd 81d8 0f3c 5d8f 7c3c 972f 8abd
00000180: 1745 083d 71a5 07bc 2da8 0ebd 2b36 5b3b
00000190: bc94 febd 9116 abbd f0a7 673c db6e e33d
000001a0: 0585 93bd 3ba5 9a3d 8630 863c 9258 69bd
000001b0: 4f48 bc3a c180 693d 96ba a63c 889a cf3d
000001c0: 0f1f f1bc 1657 adbd c10b da3d 94c1 e5bc
000001d0: 056e aa3d 4fd3 b23d d4b6 e33c f0a7 d8bd
000001e0: d77c 01be bf0a 5e3d 88ad 0f3d e396 893d
000001f0: 351d d2bd 73c1 94bc 217e d13d cbaa 6e3d
00000200: 5ce2 d33d 7e52 a23d a9b6 00bd 80d1 a8bd
00000210: 1f4c 9abd cd0b 2e3d 2382 2cbd 1339 90bb
00000220: 5612 b23c ea08 9e3d 53c2 923d cf8b 973d
00000230: fd0b b73b 9eb5 853d e2e5 86bd ec01 4ebd
00000240: 3f17 4fbc 93f7 80bd 3ca9 da3d bc9b 8bbc
00000250: 333b 103d bc8a a6bb c098 e9bb c608 81bd
00000260: c2f0 21bc 038d dcbd cf3c 61bd 59fd bd3d
00000270: 6d08 e8bd 7313 ec3c 3763 043d d9d6 e4bd
00000280: 1f91 213c 5561 693d 07d8 a73d 7f58 de3c
00000290: 3e87 c23d 432f 033b 7818 3a3d 9ecb 063d
000002a0: 12e7 d1bd fa8b 06bd aaff a9bd 4fa6 c33d
000002b0: 8c17 2f3d fd2f 36bd fc8b a6bc 207a 063d
000002c0: 4a3d e6bd 818b e03a 7239 603d 2f1a 613c
000002d0: a89b 04bc 8f0a a73d 17d3 643d d345 ecbd
000002e0: c7e9 8a3d 7bbe d1bd af55 923d c651 de3d
000002f0: bb7d 093c 07c8 14bd bb33 92bd 5ac7 2ebd
-0.12841667 0.026150685 -0.10498373 -0.034886666 -0.048107263 -0.0012766629 0.031009309 -0.09117595
-0.040744152 -0.012731356 -0.074627325 0.025532888 0.03415891 -0.08611361 0.096131355 0.08311545
-0.034467563 0.017547552 0.016933678 -0.015634092 -0.083746806 0.10745592 0.059793107 -0.0990165
-0.08976517 0.11496266 0.012236819 -0.027458439 0.07275166 0.03391132 0.029282747 0.09349433
-0.009627141 0.12537502 -0.0790848 -0.075494185 0.021951681 -0.019054236 0.05973841 -0.026201759
0.017121915 -0.022754895 0.09130868 -0.0071073486 -0.0053181183 0.09748116 0.12016593 0.11025263
-0.119574085 -0.06766145 -0.024775704 -0.029132888 0.06503949 0.05532378 -0.011869933 0.004994838
0.029376328 0.11001644 0.058838125 -0.06312548 -0.07073187 0.03899299 -0.0144331865 -0.072818704
-0.11558677 0.0165842 -0.04059638 -0.067900605 0.019440964 0.097628996 0.098533615 0.06532337
-0.083364956 0.076108925 0.0696566 0.046227787 -0.024364771 -0.0055998885 -0.071939066 -0.021640232
-0.01711755 -0.008990013 -0.11350625 0.04338867 -0.10626919 -0.093047395 0.043031257 -0.107300684
0.116920635 0.12282177 -0.02807823 -0.028355468 -0.09758542 0.008779646 0.01541504 -0.06747358
0.033269014 -0.00827919 -0.034828354 0.0033449035 -0.124307126 -0.083539136 0.0141391605 0.111051284
-0.07203106 0.075510465 0.01638056 -0.056969233 0.0014364811 0.057007555 0.020352643 0.10136896
-0.029433755 -0.08463876 0.10646773 -0.028046407 0.08321766 0.0873171 0.02779714 -0.105789065
-0.12645279 0.054209467 0.0350776 0.067182325 -0.10259477 -0.01815865 0.10229135 0.05826835
0.10345909 0.079258904 -0.0314242 -0.08243084 -0.0753405 0.042491723 -0.042116296 -0.004401335
0.021737259 0.07716544 0.07165971 0.07399713 0.005586146 0.06528781 -0.065868154 -0.0502948
-0.01263982 -0.06297221 0.1067681 -0.017042033 0.035212707 -0.0050824564 -0.007128805 -0.063005015
-0.009884061 -0.10769083 -0.054989632 0.09276838 -0.11329732 0.028817868 0.03232118 -0.111737914
0.00986126 0.05697759 0.08195501 0.027141808 0.09498452 0.0020017184 0.04543349 0.03290903
-0.10249151 -0.032848336 -0.08300717 0.09553205 0.042747065 -0.04447936 -0.020330422 0.03283131
-0.11242159 0.0017131419 0.054742284 0.013739153 -0.008093752 0.08156311 0.055865373 -0.115367554
0.06782871 -0.102414094 0.07145249 0.10855441 0.008391793 -0.036323573 -0.07138773 -0.042670585

bias f4 [3]
00000000: 115b d7bc 9d33 3fbd 18ee 013e
-0.026288541 -0.04668008 0.12688482

weight f4 [64, 16]
00000000: 4cd9 dcbd a093 d43d 4665 6dbe 84c5 013e
00000010: 5cd5 593e 9c84 37be f288 82bd 401f 743d
00000020: 5808 75be b6ee 21be d410 b23d aa0f 713e
00000030: f8f4 98bd b153 62bb a5bc 77be a96f 76be
00000040: 1201 9f3e da39 8d3e f262 95bd 9c2e 1ebd
00000050: dbe8 b9bd bd84 533e 01b0 29be bfde febd
00000060: 5dc0 bebd c66d 0bbd e865 84bd fc5a ec3d
00000070: 9611 f63d 91a9 0abe d899 7d3e 66be 8c3e
00000080: 52eb ee3d 258b fe3d 1426 293e 58ec 973e
00000090: 218f 7bbe 876c f1bd 1eb4 763c be6f 80bd
000000a0: 35c1 0ebe 40ad 48be ff92 4fbe fc88 2cbe
000000b0: 5419 833e 3d94 263e b476 dd3d 1bdd e0bd
000000c0: 3223 f3bd 6183 693c cb48 6dbe 7555 0abd
000000d0: d81e 653d d171 5b3e 7ea8 babd 7880 643e
000000e0: 8e23 85bb d688 4bbe 1e66 893e d0c6 483e
000000f0: 50df 66be c36a 30be eda9 bc3d d09b 39be
00000100: 47a2 043e 6db1 70bd b04b 8fbd 4fd6 19be
00000110: 87df 383e ff2c 01be a1dd f1bd 68dd 473e
00000120: 1131 2bbe d2e6 8bbd 8022 eabd 6799 15be
00000130: 6fe6 f8bd cdf9 973c dfb1 443e 905a 9dbe
00000140: 9b3b 5fbd b1ee 8f3d 4b05 123e 1033 493e
00000150: fc02 56be 9037 27bd 9e23 cd3d a014 71be
00000160: 94be b43d c5a4 49be e247 dd3d 9342 263d
00000170: e834 b3bc 4aea 083e 8912 373e 6a50 703e
00000180: 6a6f 243e f85d 18bd 806c 3d3c a329 273e
00000190: 2970 42bd bd03 313e dc11 19be 171c 233e
000001a0: fb14 593b ad56 5cbe 18f0 bcbd e6c7 7e3e
000001b0: 52a6 9ebd 151e e4bc 0907 b3bd 7ada 00be
000001c0: c46f 9c3d 52d1 103e b4be 053d e13a f73c
000001d0: f1a8 b13c fd79 1dbe 1eb1 c0bd efca d4bc
000001e0: 3b99 70be 127d 243e 48c0 603a 28d3 09bd
000001f0: 1a8a a63c c684 7b3e 5e2d 523e b5d5 223e
00000200: 40c5 413e 046f 0ebe fe96 0c3e 0443 f4bd
00000210: f2e6 ff3d a1d3 f7bd 55e9 343d 67c4 113e
00000220: 640e 0b3e 3d4c 883e ce0b fd3c c98c 673d
00000230: f527 fa3d e91f 6f3e d6c5 113e c022 053e
00000240: 58da 46be 8948 32be d5b7 d3bd c69a d43c
00000250: c194 a5bd 762f b6bc a6a7 313e 1500 583e
00000260: aad1 11be 0eff e63c a4fd 443e 9c9d 3bbe
00000270: 2334 ed3d 495e 65be be47 2ebe 6c56 18be
00000280: 95ad 29be 1e28 21be 2714 f3be ec8c 323e
00000290: d414 183e e023 e83d a46a fdbd bbc8 fcbe
000002a0: f8f3 c4bc 533c c9bd 3583 29be 7263 f83c
000002b0: ab17 13be 54f3 34be 577d 573e a856 01be
000002c0: 0520 2d3e 4afb 76be 4e59 1b3e cd58 513e
000002d0: 4fbc 1cbe 39a0 403e 73ef 89bd 1a70 f53d
000002e0: c769 553e d201 17be b7c4 c03c 59b6 ed3d
000002f0: 7e9d 973e 417e 7e3e c6df e83d 3138 b13d
00000300: 4266 f93c 2f1b 52bd 3a93 d63c 5ba1 193d
00000310: b673 80be f427 05bd f761 5bbd e2c2 a0bd
00000320: 04d4 bcbd 9815 8cbe 9202 8e3e 1bf5 183e
00000330: b3d9 1f3e b7c6 62be 06ae 88be af2c 253e
00000340: 8de1 95bd 6719 463b 8e7e 1a3e 1bb7 93bc
00000350: 7805 fc3c e230 f33d 5261 173e a1c7 a7bd
00000360: 0b56 54be a213 43be 180f 6e3e 725f aa3d
00000370: b18e 243e db34 04be d616 84be 8144 c63c
00000380: cbed d0bd 3dec cebd 4921 1f3e 07e3 b43c
00000390: b2ac 89bd de8d 7d3e 66ef 673e f471 48be
000003a0: 1124 62be 8a97 e9bd 1ab1 50be c0d6 80bd
000003b0: bc24 2b3e cb8c 20be 3ef2 733e 5665 af3d
000003c0: c22c bf3c 4c33 cbbb 5393 bc3d 64a6 083e
000003d0: df14 2cbe dd4c 493c 13af 503e 1f04 773e
000003e0: 07fd 6cbc dc99 11be 7cb9 8c3d 4071 9cbe
000003f0: cb76 853e b2b8 1c3e efe8 e23d 358d 973d
-0.107836336 0.1037972 -0.23183164 0.12673002 0.21272796 -0.1792168 -0.063737765 0.059600115
-0.23928964 -0.15813717 0.08694616 0.23541132 -0.07468599 -0.0034534747 -0.24193056 -0.24066032
0.31055504 0.275832 -0.07294263 -0.03861867 -0.09077617 0.20656104 -0.16571046 -0.12444829
-0.09314034 -0.034040235 -0.064647496 0.115407914 0.12015073 -0.13541247 0.24765718 0.27489012
0.116659775 0.124288835 0.16518432 0.29672503 -0.24566318 -0.11788278 0.015057592 -0.06271313
-0.1394089 -0.1959734 -0.20270918 -0.1684913 0.2560526 0.16267486 0.108136564 -0.109796725
-0.11871947 0.014252515 -0.231723 -0.033772904 0.055937618 0.21430136 -0.091141686 0.22314632
-0.0040630763 -0.19876418 0.26835722 0.19607091 -0.22546124 -0.17228226 0.09212098 -0.18125844
0.12952529 -0.058762956 -0.06996858 -0.15023158 0.18054019 -0.12614821 -0.118098505 0.19518054
-0.16717936 -0.06831135 -0.114323616 -0.146093 -0.12153327 0.018551731 0.19208477 -0.30733156
-0.054500204 0.07027949 0.14259832 0.19648385 -0.20899576 -0.040824473 0.10016559 -0.23543024
0.088254124 -0.19691761 0.10804726 0.040590834 -0.021875814 0.13370624 0.17878164 0.23468176
0.16058126 -0.03719899 0.011561513 0.16324477 -0.047470246 0.17286582 -0.14948219 0.15928684
0.0033124078 -0.21517439 -0.09225482 0.24880943 -0.07746567 -0.027846375 -0.08741576 -0.12583342
0.07638505 0.1414235 0.03265257 0.030179443 0.021687003 -0.15378566 -0.094087824 -0.025975673
-0.23495953 0.16063336 0.0008573574 -0.03364864 0.020329524 0.24562368 0.20525119 0.15901835
0.18922901 -0.13909537 0.13729474 -0.11926845 0.12495221 -0.12100912 0.044167835 0.14235078
0.13579708 0.26620665 0.030889418 0.056530748 0.122146524 0.23352017 0.14235625 0.13001537
-0.19419229 -0.17410482 -0.103377976 0.025952708 -0.08085013 -0.022239428 0.17349109 0.21093781
-0.14240137 0.028197791 0.19237381 -0.18321842 0.1158221 -0.22399248 -0.17019555 -0.14876717
-0.16570123 -0.1573796 -0.47476313 0.1743657 0.14851695 0.113349676 -0.12373856 -0.49371895
-0.024042115 -0.09825959 -0.16553958 0.030320857 -0.14364497 -0.17670947 0.21043907 -0.12630713
0.16906746 -0.24119297 0.15170786 0.20444031 -0.15306209 0.1881112 -0.067351244 0.11984272
0.20841132 -0.14746788 0.023531301 0.11607046 0.29612345 0.2485285 0.113708064 0.08653296
0.030444268 -0.051295456 0.02619325 0.037507396 -0.2508828 -0.032508805 -0.053560223 -0.07849671
-0.09220126 -0.27360225 0.27736336 0.1493725 0.1561039 -0.22146116 -0.2669527 0.16130327
-0.07318411 0.0030227543 0.1508734 -0.018031647 0.030764326 0.11874558 0.14783219 -0.08192373
-0.20735948 -0.19050458 0.23247945 0.08318986 0.16070057 -0.12910788 -0.25798672 0.024202587
-0.102016054 -0.101036526 0.15540041 0.022080911 -0.06722392 0.2476115 0.22649917 -0.1957472
-0.2208407 -0.11405857 -0.20380059 -0.0629096 0.16713232 -0.15678708 0.23822877 0.0856425
0.023336772 -0.0062011834 0.09207787 0.13344723 -0.16804837 0.012286392 0.20379286 0.24122666
-0.014464623 -0.14218849 0.06871316 -0.30555153 0.26067194 0.1530483 0.11079585 0.0739998

bias f4 [64]
00000000: 222e eebd 9d46 2dbe 7ca1 613e e781 12be
00000010: f693 143e 3aa3 09bb 0489 a8bd 4c98 283e
00000020: 864e e73c d885 58be 6763 6f3d 7eaf 39bd
00000030: e874 52be 554b 58be e836 c63d 706c 793d
00000040: 79f2 33be 8035 2b3e bbc1 46be dde9 2dbe
00000050: d867 8e3c 9673 b5bd e790 09be ce36 d13d
00000060: 018e 9c3e 258d 49be 7c12 353e caee 143e
00000070: e669 91bd e51d 4dbe a9ad bdbd 8ea9 3e3d
00000080: 8028 38bc 5701 303d 78d4 8c3d f5a0 7aba
00000090: e8ff 2bbe 45e1 963e b518 a23e 8500 2d3e
000000a0: 0f5c d53d a0d5 39be 6bd7 c03d 2565 7abe
000000b0: b81c 8a3e 5c7f 86be 439b 963e 1405 4b3e
000000c0: 7147 07be f9a7 80be 14f9 453d ef05 85be
000000d0: 8c92 85be 524f 84be e0a9 663d 5e93 c7bd
000000e0: 2d57 32be f380 723d 322f fb3d bc3e 103d
000000f0: df9c b23d dfcd a2bd f28f dbbc af23 713d
-0.11629893 -0.16921468 0.22034258 -0.14307366 0.14509568 -0.0021001832 -0.08229259 0.16464347
0.028235685 -0.21144807 0.058444407 -0.045333378 -0.20552409 -0.21122487 0.09678441 0.06089443
-0.17572965 0.16719627 -0.1940984 -0.16983743 0.017383501 -0.08859937 -0.13434182 0.10215531
0.3057709 -0.19682749 0.17682832 0.14544216 -0.07100277 -0.20030935 -0.09261639 0.04654842
-0.011240125 0.042970028 0.06876463 -0.00095607276 -0.16796839 0.29468742 0.31659475 0.1689473
0.104179494 -0.18147898 0.09416088 -0.24452646 0.26975036 -0.26269042 0.2941533 0.19826156
-0.13210846 -0.25128153 0.048333243 -0.2598109 -0.2608837 -0.25841767 0.05631435 -0.09744905
-0.17416067 0.059205007 0.12264861 0.03521608 0.08721327 -0.07949423 -0.026802037 0.05887192

weight f4 [64, 64]
00000000: 2baa 04bd 8ac0 3e3e 67f9 0cbd 95bb 32be
00000010: 36d9 e23b fc13 eb3d 8c97 7d39 afc0 513d
00000020: 2352 543e ee1e 09bd ad77 79bd 13fd b53c
00000030: 3f11 50bd 0f55 b0bd b40c b63c 996d 813c
00000040: c324 5bbc 09bd 113e 09b0 213e 698e 97bd
00000050: 1f60 20be 4b65 22be dd86 2bbe 57d3 103e
00000060: 7c6e e7bd 92f8 c43c 1b90 113c 2301 8c3c
00000070: 4043 03be 2466 8d3d 6bb5 eb3d 0e07 08be
00000080: e49e 403c 9916 3dbe e10a 27be b599 28bd
00000090: 04ad e0bd ae27 bebd ee2c 843d 5e76 0f3e
000000a0: e8bd 9ebc 5a6c 203d e3bc 233e 95ee 0ebd
000000b0: 6196 9abd 67ea 3a3d ee3c 08bd db5c 35be
000000c0: 11fe af3c 9c5b b4bc e38c ffbd e66f a8bd
000000d0: 6179 99be bca1 19be 2d1f 3cbe 296d 7b3d
000000e0: 3c05 04be c28e d83d 0b7f 07bb 796a 843d
000000f0: 4a91 43be 9c65 8ebd 6b3b 3e3e 2879 22bd
00000100: 7ea5 2abe 9736 373e f156 ad3c fc17 093d
00000110: 407d 08be b7a6 173e 33f6 bcbd cc5a bcbc
00000120: acf9 183e 35e7 03be 3ddb fdbb 0a88 3d3d
00000130: fe4b e6bd 9935 ecbd 90b3 103e a4d2 993d
00000140: 92ce 583d ba6e ff3d 6218 02bb cdb8 093d
00000150: 9a51 02be bdc4 e1bd 3e95 2bbe 142b a83c
00000160: f72c 12be 757b d73d a64e c5bd d90e 48be
00000170: b5ab 8a3d ae95 263e 58cc 2f3e 2134 15be
00000180: dcca 9b3d 0eb7 4bbc 9de2 40be 6e78 9ebd
00000190: d937 953d 0ed0 bc3d 2537 12bd 6b4d 993d
000001a0: 4526 623d bd13 b33c 4ab3 08bc ef6d 0c3e
000001b0: 2646 2c3e bc68 1bbe c9f4 463e 1d60 f1bd
000001c0: e0ea 6ebd f4cd f83d 4bb3 13be 082d dcbc
000001d0: 8ec8 edbd ca5e 43bd 812d b9bd e624 3c3e
000001e0: 72c8 68bc 4281 c6bd 0583 4a3d 5604 20bd
000001f0: 5de5 af3c 8988 cb3d d56f 25bd b4e5 6c3c
00000200: 0bc5 8e3d e74b 8cbd 068d acbd 7f3d b83d
00000210: b644 9b3d a33e 4fbe 70eb ca3d b5c8 d83c
00000220: 25fd 40bd 3371 e4bc ab0e 853d 91c2 ddbd
00000230: 046e 023e 57a8 d4bc 3fe9 89bd 6fd3 35be
00000240: 0c25 e43d acf9 26bc 60b5 8a3d e84d ce3c
00000250: 3d0f 4c3e 4867 2e3d d3a4 853c 8bee babc
00000260: 4ed8 923d 7e65 3fbe 0abe 2b3e 8e69 553e
00000270: eebe cb3d cb7a ddbd 5fd2 3cbe a0d1 613e
00000280: 8587 1ebe 528e df3d 2d1d 78bd 874a 293e
00000290: 8b5e a23d 2cac 9a3d 73ba 0d3e 8d9a 54be
000002a0: 9ecf 473d 6c1f c8bd 38cf 00be e470 0a3b
000002b0: 04d6 d3bd ebc7 ab3d 0dc7 99bd 11e1 c63d
000002c0: 15b0 a63c cb7f 573d f47d d93d 77e1 093e
000002d0: 7fb2 043e 3980 fa3b ff50 283d 3a42 23bb
000002e0: 0a2e 9abc 32b9 083d f6cd 05bc 8517 86bc
000002f0: 7d1e d73d 4284 32bc 758e 0f3d 7f3b 3c3e
00000300: de06 84bd cb7e 563e f737 b93d a368 f43c
00000310: 7c89 7bbd 8977 b23d cf63 64bd 4bb8 ffbb
00000320: ed31 453e 35e8 c63c a319 16be d976 843c
00000330: 0b87 df3b 545f 73bd 4f8f 3a3d 0c25 e93c
00000340: a7bd cabd 56b7 843d f02e 153e 2104 f0bd
00000350: aedd 95bd ed1f b3bc 0b70 1cbe d9bf 983d
00000360: 4497 c8bd 57a1 3e3e 7959 adba addd c4bd
00000370: d369 c2bd 749a 9b3c b289 033d 56d4 06bd
00000380: 0afd 443e 82ab 89bd b6bd 3ebe a51f 50bd
00000390: 5345 9ebd 3361 e33d c432 a2bc 9551 483e
000003a0: 1da3 523d 2217 c23b f3c5 dd3d eacd f43d
000003b0: 2107 f63d a4bf 883c b0e5 843d 1e1b 02be
000003c0: 5c6f cd3c a933 acbc 31d1 8dbd 1ec5 52bd
000003d0: d5fa 55bd 7fc0 eabd 128b eabd b71c ae3d
000003e0: d37f d2bd b2b6 2cbe a898 2abd 4059 0abe
000003f0: d484 fabd be00 b03c 379e e63d 51d5 e6bd
-0.032388847 0.18628135 -0.034417536 -0.1745437 0.006922866 0.11478421 0.00024184416 0.051209148
0.20734458 -0.033476762 -0.060905147 0.022215402 -0.050797697 -0.08609974 0.022222854 0.01579933
-0.013375464 0.14232267 0.15789808 -0.074002095 -0.15661667 -0.15858953 -0.16750665 0.1414312
-0.1130037 0.024044309 0.008884455 0.017090386 -0.12818623 0.069042474 0.11509212 -0.13283941
0.0117566325 -0.18465652 -0.16312744 -0.04116221 -0.109705 -0.09284912 0.06453882 0.14009997
-0.019377664 0.039165832 0.15990023 -0.0348955 -0.07548214 0.0456337 -0.033261232 -0.17711203
0.021483453 -0.022016339 -0.12478044 -0.08224468 -0.29975417 -0.15003103 -0.18371268 0.0613834
-0.12892622 0.10574104 -0.0020675089 0.064656205 -0.19098392 -0.06952974 0.18577354 -0.039666325
-0.16664693 0.17891918 0.021159621 0.03347014 -0.13329029 0.1480969 -0.09226646 -0.022992514
0.14938992 -0.12881167 -0.0077470825 0.046272315 -0.11244963 -0.115336604 0.14130998 0.0751088
0.052931376 0.12472291 -0.001985096 0.033623505 -0.12726441 -0.11023853 -0.1675615 0.020528354
-0.14274965 0.105215944 -0.096341416 -0.19536914 0.06771032 0.16268036 0.17167795 -0.14570667
0.07607052 -0.01243378 -0.18836446 -0.07737814 0.07286043 0.09219371 -0.03569712 0.074854694
0.055212278 0.021859998 -0.008343527 0.13713811 0.16823635 -0.15176672 0.19429316 -0.1178591
-0.058329463 0.121486574 -0.14423864 -0.026876941 -0.116105184 -0.04769782 -0.09041882 0.1837345
-0.014207946 -0.09692623 0.049441356 -0.039066635 0.021471674 0.099381514 -0.040389854 0.014459062
0.06971177 -0.06850415 -0.084253356 0.089961044 0.07581465 -0.20238738 0.099081874 0.026462892
-0.047116417 -0.027886009 0.06496938 -0.10828126 0.1273728 -0.025959177 -0.06733941 -0.17756437
0.11139879 -0.010191362 0.06772876 0.025183633 0.19927688 0.042578965 0.016313946 -0.022818824
0.07170163 -0.1869106 0.16771713 0.20841047 0.09948526 -0.108144365 -0.18439625 0.22052622
-0.15481384 0.10915817 -0.0605747 0.16532336 0.07928189 0.075523704 0.13840656 -0.20762081
0.048781984 -0.09771618 -0.12579048 0.0021124417 -0.103435546 0.08387741 -0.07508669 0.09710897
0.020347634 0.052612107 0.10619727 0.13464914 0.12958716 0.00764468 0.04109287 -0.00249113
-0.018820781 0.03337974 -0.008166781 -0.016368637 0.10503862 -0.0108957905 0.035047967 0.18382071
-0.06446622 0.20946805 0.090438776 0.02983505 -0.061410412 0.08714206 -0.055759247 -0.007803952
0.19257326 0.024280647 -0.14658217 0.016169952 0.0068215183 -0.059417084 0.045546826 0.028460048
-0.098994546 0.06480281 0.14568686 -0.117195375 -0.07317673 -0.02186581 -0.15277116 0.07458467
-0.09794477 0.18616234 -0.0013225517 -0.09612594 -0.094928406 0.018994547 0.03211374 -0.032917343
0.19237152 -0.06722166 -0.18627056 -0.05081143 -0.07728066 0.11102524 -0.019799598 0.19562371
0.05142509 0.005923168 0.108287714 0.119533375 0.120130785 0.016692944 0.06489122 -0.12705657
0.025077514 -0.021020727 -0.06924666 -0.051457517 -0.052241165 -0.11462497 -0.11452307 0.08501571
-0.10278287 -0.16866568 -0.04164949 -0.13510609 -0.12232366 0.021484729 0.11260646 -0.112711556

bias f4 [64]
00000000: dba2 153c 9a48 313e 2fc1 0c3c 5a3a db3d
00000010: e3b1 1abc 8c22 d53c c742 273e d8b1 65bd
00000020: 2f83 c83c 4188 dfbd 2ecb aebc e069 fa3c
00000030: 8804 3abd 7aed e03d aab6 a8bd 90fe 493e
00000040: 7c74 96bd 80bd cabd 45b1 bfbd 9579 bdbb
00000050: bb0a 8abc 84d4 c03c e1ac e23c ac1a cc3d
00000060: 6e1e 2dbd cf9e 4cbd cd68 20bc 901c b33d
00000070: df31 db3d 0849 cebc 66f7 bd3d 7ba1 b33d
00000080: 969a 153e 19c4 483c 1fac 8f3d 1b0f 57be
00000090: b9a9 29bd 6ef6 443e d621 fd3d 50d0 5c3b
000000a0: 474a d23d 36c5 853d 4620 123e f6e9 cdbd
000000b0: 8f8c bfbb 3bcb 363d b0a6 23be 87f3 b03d
000000c0: 722e e6bd c8d4 463e 4867 10be 29e0 2cbd
000000d0: 0588 d93d dd3e 08be ef71 503d 589a 3dbd
000000e0: cd39 803d 793e bf3d 1c5b 4abd 37b2 cd3d
000000f0: 47f0 293e f75a b13c 2c0d 043e 261b b1ba
0.009133066 0.17312852 0.00859098 0.10704489 -0.009441826 0.02601745 0.16334067 -0.05607781
0.024476616 -0.1091466 -0.021337118 0.030568063 -0.045414478 0.10982795 -0.082379654 0.19726014
-0.073464364 -0.098994255 -0.09359983 -0.005782316 -0.01685082 0.023538835 0.027670326 0.09966025
-0.042265348 -0.04995614 -0.009790611 0.08745682 0.107028715 -0.025181308 0.09275703 0.08771034
0.14609751 0.012253785 0.07015251 -0.21001856 -0.041421626 0.1923463 0.12359969 0.00336935
0.102680735 0.065317556 0.14270124 -0.1005439 -0.0058456133 0.04462741 -0.15981555 0.08640199
-0.112393275 0.19417107 -0.14101899 -0.042205963 0.10621647 -0.1330523 0.050889906 -0.04628977
0.062610246 0.093380876 -0.049403295 0.100437574 0.16595565 0.02164982 0.1289565 -0.0013512119

weight f4 [1, 64]
00000000: 7d2d 90be 461d 37be b95e 743e da40 87be
00000010: cf0f 153e 65f6 3ebe 1d9a 3a3e 1533 453e
00000020: 5c4b 8abe d08a 923e e092 41be fd43 0bbe
00000030: e369 50be 532d 99be 2a9e 5b3e 2150 78be
00000040: 9c87 0a3e bbde 703e e128 7d3e 110e f93d
00000050: f40b 2a3e 5fa3 96be a4fb 33be dbc7 73be
00000060: 61e1 883e b641 783e a1d9 383e da79 a2be
00000070: 0dee 90be 1ce1 92be 73ad 163e 7101 053e
00000080: ff8d a7be e2aa 99be 1e42 4b3e 625e 683e
00000090: 2a0a 8fbe 5878 50be ee20 163e 55e4 753e
000000a0: 13c2 d6bd af1e 73be 03eb 5fbe 9861 10be
000000b0: d0b5 85be 726d 8abe 1c98 123e 2af9 db3d
000000c0: bc8d 283e 93fb 91be b4f6 363e 9007 953e
000000d0: 60f4 183e fa50 babd 5391 5cbe 1ec1 933e
000000e0: 3e81 62be 6498 64be 1df5 bebd 7611 63be
000000f0: 8a89 09be c144 75be 2b7e 84be a92e fa3d
-0.28159705 -0.1788226 0.23864259 -0.26416665 0.14556812 -0.1864868 0.18222852 0.19257767
-0.2701062 0.2862153 -0.18903685 -0.13600154 -0.20352893 -0.29917392 0.21447054 -0.24249317
0.13528293 0.23522465 0.24722625 0.12160886 0.16606122 -0.29421517 -0.17576462 -0.23806708
0.2673445 0.24243817 0.18051769 -0.3173359 -0.28306618 -0.2868737 0.14714603 0.12988831
-0.32725522 -0.30013186 0.1984944 0.22692254 -0.27937442 -0.20358407 0.14660999 0.24012883
-0.104862355 -0.23742174 -0.21866994 -0.14099729 -0.26115274 -0.27036625 0.14315838 0.10740884
0.16460317 -0.28512248 0.17867547 0.29107332 0.14936972 -0.09097476 -0.21539812 0.28858274
-0.22119614 -0.22323757 -0.093240954 -0.2217463 -0.13431373 -0.23952009 -0.2587751 0.12215931
