output/2021-12-19_ddpg/2021-12-19_01-15-44-ddpg_s0_should_t5/pyt_save/model.pt (torch_old, 48433 bytes, 11 tensors)

weight f4 [64, 16]
000000 00 54 f5 ba 5e 54 09 3e 16 b3 52 be 80 66 3c be
       -0.001871705 0.1341109 -0.20576128 -0.18398476
000010 f4 32 c5 bd ec 4b 89 3d 40 4f a2 bb ce fa 4a 3e
       -0.09628859 0.06703934 -0.004953295 0.19822237
000020 70 bf b5 bc 4c 7b 87 3d ac bb 9a bd 70 48 49 bd
       -0.022186011 0.06615314 -0.07555327 -0.049141347
000030 b8 91 74 be 52 8b 29 be e8 0e d3 bd 00 bb 17 3c
       -0.23883712 -0.16557053 -0.103055775 0.009260893
000040 2b ad 9a 3b 25 fa 36 3e 7b 52 2e be 9c 77 1c bd
       0.0047203503 0.1786886 -0.17023651 -0.038200006
000050 27 88 78 3d e7 f6 0b 3e ba f4 46 3d 05 2b 8a 3e
       0.06067672 0.13668405 0.048573233 0.26985946
000060 59 01 3f 3b 43 43 fe 3d f5 62 1d 3e 5a 63 e2 be
       0.002914509 0.12415173 0.1536978 -0.44216424
000070 2c f9 74 bd c9 3c 8c 3c 66 1a e2 bc 82 da 9f 3e
       -0.05980794 0.017118828 -0.027600478 0.31221396
000080 d7 94 79 be eb 61 b3 bd 57 4c 32 be 6d a4 59 be
       -0.24373184 -0.08758911 -0.17411934 -0.2125413
000090 48 32 30 be 18 ed 10 3e 4e ea 23 3e bf 55 2f 3e
       -0.17206681 0.14152944 0.16007349 0.17122553
0000a0 c3 32 47 3c f7 ff a7 bd f5 d3 31 3d 05 b0 a7 be
       0.012158099 -0.08203118 0.04341503 -0.3275148
0000b0 1e e5 0c be 97 2b ce bd 0a a9 33 3e b8 c0 40 3e
       -0.13759276 -0.10066908 0.17544952 0.18823516
0000c0 ec f6 1d be 0c 65 c5 3b e1 c3 24 3e c4 99 97 3e
       -0.15426224 0.0060240086 0.16090347 0.296095
0000d0 7f 86 ae 3d 51 07 0c 3c 40 59 6b 3e f6 a5 bf bd
       0.08521747 0.008546666 0.22983265 -0.093578264
0000e0 bc 49 d3 3d 75 6e 0d be 86 d8 61 be 78 a9 36 be
       0.10316798 -0.13811667 -0.22055253 -0.17838085
0000f0 79 44 23 3e 57 1d 11 3e 56 7c e4 bd 3b 87 f9 3d
       0.15944089 0.14171349 -0.11156528 0.12183996
000100 6e 89 0c 3e 20 3f 01 bd 40 64 1c 3c 00 44 6d 3d
       0.137243 -0.03155434 0.009545386 0.057926178
000110 00 d1 1e 3e 48 cf 75 3e 96 47 45 be ec a1 bb bd
       0.15509415 0.24004853 -0.19265589 -0.091617435
000120 98 38 c9 3d d0 1b 54 3e e8 c5 5e 3e 22 e2 61 3e
       0.098252475 0.20713735 0.21755183 0.22058919
000130 78 ca 4b 3d f8 9c 5e be 90 66 bc 3c ac 27 20 be
       0.049753636 -0.21739566 0.022998124 -0.15640134
000140 8c 94 6e be 3e 74 63 3e f0 a6 42 3e fe 5d 7f be
       -0.23298854 0.22212312 0.19008994 -0.24938199
000150 08 aa 3f 3d c8 80 2c bd b8 82 28 bd 1c 5f ea bd
       0.046793014 -0.042115003 -0.041140288 -0.11443922
000160 8c e4 c4 3d 34 a1 17 be dc b1 bb 3d 16 76 01 3e
       0.09613904 -0.14807588 0.09164783 0.12642702
000170 5c 43 37 3e 48 71 bf 3d 4a 5f 7d be 00 11 26 be
       0.1789679 0.093477786 -0.24743381 -0.16217422
000180 62 c7 dd 3d d3 1b fa 3d 86 07 48 be 3d 6d 5e be
       0.10829045 0.12212338 -0.1953412 -0.21721359
000190 3b 1a 3e 3e 31 d6 1d 3e 22 72 e8 bd e0 2b d2 bc
       0.18564694 0.15413739 -0.11349894 -0.025655687
0001a0 af e7 59 be 7e d5 80 3b 00 6a 3b be 3e 21 71 be
       -0.21279787 0.0039317003 -0.18302155 -0.23547837
0001b0 2d 70 3f bc 3f 0c 25 3d 78 ca 9d bd 49 61 19 3e
       -0.01168446 0.040294882 -0.077046335 0.14978518
0001c0 38 c9 1b be 68 49 68 3e d0 6f 2f 3e 64 e1 57 be
       -0.15213478 0.22684252 0.17132497 -0.21082073
0001d0 88 db 7e bd 80 d2 38 3c 18 67 15 3d d0 dd 72 3d
       -0.06222108 0.011280656 0.03647527 0.059293568
0001e0 5c ec c8 3d e0 59 75 3c cc d1 f9 bd d4 45 f2 3d
       0.09810707 0.014975041 -0.12198219 0.11829725
0001f0 56 91 75 be a0 bb 17 be 3c 2b 80 bd ec 66 f9 bd
       -0.23981223 -0.14817667 -0.06258246 -0.12177834
000200 a1 a8 18 bd 17 e7 65 be 3e 09 52 bd cd fe fe 3c
       -0.037270192 -0.22451435 -0.051278345 0.031127358
000210 b8 23 16 be cc 9a d6 3c c0 cb fd 3d 7b 42 a9 bc
       -0.14662063 0.02619686 0.12392378 -0.020661583
000220 4f 15 1c 3d 38 58 a3 bd 0e 3b fc 3d 5c a0 a5 3e
       0.03810626 -0.07975811 0.12315951 0.32348907
000230 b2 ff 37 3e 2c bf 1d 3e 71 96 5c 3e 5b c3 98 bd
       0.17968634 0.15404958 0.21541764 -0.07459136
000240 66 f8 65 be 40 ba f2 bd ce 4f 2e 3e 00 6b d4 ba
       -0.22458038 -0.118519306 0.1702263 -0.0016206205
000250 dc 7c fe bd 02 2d 44 be 00 94 6f be ec 10 58 be
       -0.12426159 -0.19157794 -0.23396301 -0.21100205
000260 70 b4 4f bd 56 64 0c 3e 74 67 0a 3e 02 e5 76 be
       -0.050709188 0.1371015 0.13516027 -0.24110797
000270 2e b0 1f 3e 8a 52 48 be f0 7b 58 bd 1c 9a cf bd
       0.15594551 -0.19562736 -0.05285257 -0.10136816
000280 90 60 9a 3a 91 37 a3 3c e4 93 68 be 7d 5a 85 be
       0.0011778045 0.019923957 -0.22712666 -0.260456
000290 62 67 a5 bd b3 e3 33 3d 6e a0 2d be 2f 2b bf 3d
       -0.08076359 0.043918323 -0.1695573 0.093344085
0002a0 e0 bb 67 be 47 24 9a bd ae 9c a2 3e 18 b0 80 bd
       -0.22630262 -0.075264506 0.31760162 -0.06283587
0002b0 cf 25 24 3e 93 bd 4d 3d 12 64 8f be 6a c5 bc 3d
       0.16030048 0.05022962 -0.28006035 0.09217341
0002c0 b8 2f a2 3d cd 50 76 bc 67 3c 46 3e cd cd 8a be
       0.07919258 -0.015033913 0.19358979 -0.2711014
0002d0 62 bd ed bc a6 e1 d1 3c 70 58 6a 3d bc 83 05 3c
       -0.029020969 0.025620293 0.057213247 0.008149084
0002e0 0a 19 f5 3c b6 b5 1f bd b1 0a b3 3d 05 1e a4 bd
       0.029919166 -0.038991652 0.087422736 -0.08013538
0002f0 f1 a3 b3 be 2c 0b 48 3c 87 b6 79 3d 53 16 d2 3c
       -0.35086015 0.012209695 0.060965087 0.02564541
000300 1b 64 f1 bd 9e 3a 7b 3d 46 a9 34 be dc ae 54 be
       -0.11786672 0.0613352 -0.17642698 -0.20769829
000310 d3 55 2b be a4 79 07 3e b2 26 6e be 5e b9 64 bd
       -0.16731958 0.13229996 -0.23256949 -0.055840842
000320 19 53 86 3c 52 f4 9e 3d 9c 8b e1 bd 1f 27 9c bd
       0.016397046 0.07761444 -0.110129565 -0.07624649
000330 8a 6e 76 be 8f 1a bc 3d 8a 00 15 be 1e 45 ec 3d
       -0.24065605 0.09184753 -0.14550987 0.115366206
000340 3f c9 04 3d a3 a7 4e ba b0 63 91 bb e6 b7 81 bd
       0.032418486 -0.0007883256 -0.0044369325 -0.06333904
000350 f5 94 46 3d b8 b4 dd bd f1 99 05 3d 89 22 b7 3d
       0.0484819 -0.10825485 0.032617513 0.08942134
000360 d8 dd 52 be 88 71 bf bd 10 05 a1 3e c8 b9 89 be
       -0.20592439 -0.09347826 0.31449175 -0.26899552
000370 28 0c b2 3c b4 03 93 3e d9 3a a7 3d 24 85 36 3d
       0.021734312 0.28713763 0.08165521 0.044560567
000380 c3 6a 9a be 80 0d b1 3d 95 73 37 be cc fd 67 bc
       -0.30159578 0.08645153 -0.17915185 -0.014159631
000390 f2 52 8c bd 52 48 e5 bd b8 59 ed 3d 42 56 5f 3e
       -0.06851758 -0.11195435 0.11589378 0.21810248
0003a0 63 ad 98 3c 7b e0 af 3e 35 c9 10 3d de 50 97 be
       0.018637365 0.34350953 0.035348136 -0.29553884
0003b0 29 90 75 3e 1d d4 b6 bd 55 df ba bc 99 39 4e 3e
       0.23980774 -0.08927176 -0.022811571 0.2013916
0003c0 22 73 20 3c d9 1d 15 3e de 17 a8 bd e5 32 8f 3d
       0.009793075 0.14562167 -0.08207677 0.06992129
0003d0 d1 16 11 3e af e8 98 be 44 2f 82 3e bb b8 9c be
       0.1416886 -0.29865023 0.25426686 -0.30609688
0003e0 9f ac ed bd ee 03 e3 3c b7 39 6a be c2 61 3c be
       -0.116051905 0.027711835 -0.22873579 -0.18396667
0003f0 3c 34 90 3e bb 36 70 bd cb 41 33 be 64 28 85 bc
       0.28164852 -0.058645945 -0.17505567 -0.016254611

bias f4 [64]
000000 c0 7e 8f bc d7 88 0f be 79 27 d0 bd 1a 6d 1a 3e
       -0.017516494 -0.14017044 -0.10163779 0.15080681
000010 70 a8 ad bd da b2 30 3e 0b 20 4e 3e 10 f6 14 3d
       -0.084793925 0.17255726 0.20129411 0.036367476
000020 41 da 9c bd d0 85 a2 bd 9c 17 9d bd 21 85 c2 bd
       -0.07658816 -0.07935679 -0.07670519 -0.094980486
000030 1a 91 90 be 35 37 ad bc 83 c8 a9 bd 39 5a 6a 3e
       -0.28235704 -0.021144489 -0.08290198 0.2288598
000040 b4 07 23 be 2e ec 34 3e 28 29 cd bd a4 48 27 be
       -0.15920907 0.1766822 -0.100176156 -0.16336304
000050 b1 54 e8 3d 1b a4 bf bc 2d e3 0c 3e 04 62 2c bd
       0.113442786 -0.023393681 0.13758536 -0.042085662
000060 c4 1b ae be 1b b8 9e 3e ac 40 f5 bb b9 b8 26 be
       -0.34005558 0.30999836 -0.007484516 -0.16281404
000070 e4 92 22 3e 7b 2f 96 3e 10 bf fd bd ec d4 da bc
       0.15876347 0.293331 -0.12389958 -0.026712857
000080 da 9b 70 3e 74 4a c6 3d 78 71 18 3e 0c 5f 09 be
       0.23496953 0.096821696 0.14887035 -0.13415164
000090 70 38 0d be 0a 23 5c 3e d0 69 d5 3d 68 1a ea 3e
       -0.1379106 0.21497741 0.10420573 0.4572327
0000a0 54 dc d5 bd 7e 5e 24 be 50 0d f0 bc 62 0b 71 be
       -0.10442415 -0.16051671 -0.029303223 -0.23539498
0000b0 09 24 75 3d bd e6 c2 3d 78 d1 75 3d c9 c4 c3 bd
       0.05984882 0.09516666 0.060014218 -0.09559018
0000c0 e3 b7 54 3e 10 7f 22 be 0c 88 ab 3e 3a 06 41 be
       0.20773272 -0.15868783 0.33502233 -0.18850031
0000d0 a7 b9 af be c4 f6 0e be 74 9b 17 3e a9 6d 32 bd
       -0.3432133 -0.13961321 0.14805394 -0.04356161
0000e0 df 4f e8 3d 91 c5 2a be 22 4c 8f 3e c0 d9 e4 bc
       0.11343359 -0.16676928 0.27987772 -0.027935863
0000f0 47 93 40 3d 6d 49 12 3e 0a 42 c6 3d cf 64 f1 3d
       0.047015455 0.14285822 0.09680565 0.11786806

weight f4 [64, 64]
000000 60 4f fc bb e2 8e a0 bd 04 31 39 bd ca 5b a6 3d
       -0.007699892 -0.07839753 -0.04521276 0.08122976
000010 6c 4f 4d bd 76 fc 9e 3d 3c 06 4b bd 08 7d ee bc
       -0.05012457 0.07762997 -0.049566492 -0.029112354
000020 00 58 2e 3b 20 ec ea bd 00 98 a3 ba 00 6e 4e bc
       0.0026602745 -0.114708185 -0.0012481213 -0.012599468
000030 20 fc 37 bc b0 b3 cc bc 18 d3 c9 3d ba ec bc 3d
       -0.011229545 -0.024988025 0.09854716 0.092248395
000040 80 81 ad bd 74 d6 6d 3d 4c cd c8 bd 32 f0 d9 bd
       -0.08471966 0.058065847 -0.09804782 -0.10641517
000050 58 82 1c 3d 80 c9 f0 3a ec d9 6e bd b8 e9 f6 bd
       0.038210243 0.0018370599 -0.058313295 -0.12056297
000060 b4 36 46 bd fc 01 2b 3d 38 f4 ec bd f6 b1 f8 bd
       -0.048392013 0.04174994 -0.115700185 -0.12143318
000070 e0 ea 81 3c 68 6c b8 bd cc 46 e0 bd 3c 44 45 bd
       0.015859067 -0.09005052 -0.109510034 -0.048160776
000080 68 dd a4 bc e8 a0 e8 bd 34 f0 aa bd 70 48 06 3c
       -0.020125106 -0.113588154 -0.08346596 0.008195981
000090 98 66 f1 bd 80 ed 8f bc c6 4c a5 bd 00 78 b1 bd
       -0.11787146 -0.017569304 -0.08071284 -0.08665466
0000a0 5c 3b 49 3d 62 0a c5 bd 6c 01 c2 bd f8 fd 91 3d
       0.049128875 -0.09621121 -0.094729275 0.07128519
0000b0 18 74 bf 3c 7a 24 e9 3d f4 da 08 bd c0 4d 77 bd
       0.023370788 0.113839105 -0.033411935 -0.060376883
0000c0 00 89 3d bc 00 c9 25 3a a8 3c c3 3d 18 ff fe bd
       -0.011568308 0.0006324202 0.09533054 -0.12450999
0000d0 b0 d1 11 bc fc 7b 62 3d 90 f9 8c bd 84 15 82 bd
       -0.008900091 0.055294022 -0.06883538 -0.0635176
0000e0 e0 6e 77 3d a0 4b f5 bd 88 a4 f2 3c 16 31 c6 bd
       0.060408473 -0.11977315 0.02961947 -0.09677331
0000f0 e4 7e 7e 3d ee e3 da bd d8 63 9d 3d 84 56 f2 bd
       0.06213273 -0.106880054 0.07685059 -0.11832908
000100 62 2f d7 bd 00 73 f1 3a 9c b9 c9 3d be 3c db bd
       -0.105070844 0.0018421113 0.09849855 -0.10704945
000110 f0 61 64 bd 20 d7 e0 3d e0 b8 ab bc 1c 1d 54 3d
       -0.055757463 0.10978532 -0.020962179 0.051785573
000120 84 45 f6 bd a4 03 21 bd 4a 01 82 bd dc d2 d7 3d
       -0.12024978 -0.039310113 -0.06347902 0.10538265
000130 1c 80 54 3d 06 cc ba bd b0 18 a5 3c 00 4f bc ba
       0.051879987 -0.09120946 0.020153373 -0.0014366806
000140 88 5d 52 bd 14 32 92 bd c0 e6 29 bd 36 c9 c9 3d
       -0.05135873 -0.07138458 -0.041479826 0.09852831
000150 a2 83 b7 bd 22 5c b6 bd 38 f6 1d bd c0 82 0e 3b
       -0.08960654 -0.08904292 -0.03856489 0.0021745414
000160 5c 5f 0b 3d 80 d3 75 3b c8 80 f6 bc c4 39 9b bd
       0.03402649 0.0037510097 -0.030090705 -0.07579377
000170 30 bd b7 bc 78 1b 4e bd 6c d4 ce 3d 5e 31 f9 bd
       -0.022429079 -0.050319165 0.1009911 -0.12167619
000180 ba 4a a3 bd 72 47 d0 bd 98 24 bb bc 76 7e c7 3d
       -0.07973237 -0.10169877 -0.022844598 0.097409174
000190 e0 64 e0 3d b6 dc de bd 80 77 b1 bb 6a 43 96 3d
       0.109567404 -0.10881941 -0.005415857 0.07337077
0001a0 34 b0 61 3d ca b0 d1 3d 40 3b 63 bb 2a 01 ac bd
       0.05509968 0.10238798 -0.0034672767 -0.083986595
0001b0 10 5a a9 3d 80 92 2f bd a2 8d 84 3d d8 59 fc bc
       0.08269131 -0.042864323 0.06472327 -0.03080456
0001c0 f0 a5 59 3d c8 40 e6 3d 02 0b ee 3d 06 fa e8 bd
       0.053136766 0.11242825 0.11623193 -0.11375813
0001d0 c6 56 a9 bd ec b1 53 bd 60 40 a3 bd cc a1 f5 3d
       -0.08268504 -0.05168335 -0.07971263 0.11993751
0001e0 80 e0 34 bc b0 d0 a9 bd a8 d5 63 bd c4 67 8d bd
       -0.011039853 -0.08291757 -0.05562368 -0.06904557
0001f0 fc e3 50 3d da 4b df bd f8 b1 ee bd d8 5a fc bd
       0.050998673 -0.109031394 -0.116550386 -0.123220146
000200 a8 6d 5c 3d 10 76 8b 3e 3b f8 b7 3d 4d 02 1e 3e
       0.053815514 0.27238512 0.08982893 0.15430565
000210 ac f9 bc 3d e0 c9 94 3c 8d e4 74 3d a0 4f 17 3c
       0.09227309 0.018162668 0.059788276 0.009235293
000220 4f db a3 bd 52 e5 80 3d da 1a 8b bd 52 7f e8 3c
       -0.08000814 0.062937394 -0.06792231 0.028381024
000230 69 91 38 3d 9d b9 d4 3d ae e6 ae 3e 2d 16 a8 3e
       0.04506055 0.103869654 0.3416037 0.3282942
000240 58 d8 49 bd e6 fc 9d bd 2f 3c d4 3d 17 1a a5 bd
       -0.049278587 -0.07714252 0.103630416 -0.08061617
000250 0b 50 b8 3d 8f eb 34 bd 0e 08 09 3c 2f 40 34 be
       0.08999642 -0.04416996 0.008363737 -0.17602609
000260 d6 fe fa bd 2c 25 8e 3e a5 1b 00 3e 91 df c0 bd
       -0.12255637 0.27762735 0.12510546 -0.09417642
000270 c6 c2 8e bd c5 95 b6 3d 13 ac 1f be 60 01 ed bd
       -0.06970744 0.08915285 -0.15592985 -0.11572528
000280 6c 5e 83 3e 00 d4 cb bc be f1 55 3d 4a ed fa 3c
       0.25657976 -0.024881363 0.052232496 0.030630726
000290 bc 55 69 3d 82 2c e5 bd 34 d3 80 3d ae dd a1 3e
       0.05696653 -0.1119013 0.06290284 0.3161444
0002a0 b2 6a c6 3d f4 86 fc bd b0 71 9d 3d ee 8b d1 3d
       0.09688319 -0.12330428 0.076877 0.102317676
0002b0 0c 7f d5 bd b3 bf 08 3d 52 8a da 3d b8 8e 08 be
       -0.10424623 0.033385944 0.10670914 -0.13335693
0002c0 8e 2c 57 3e c0 3d 62 3d f0 b6 63 3e fc 23 a0 3e
       0.2101309 0.05523467 0.22237754 0.31277454
0002d0 47 b7 6f 3d cb c6 c6 3d 4a 4b 8d 3d d8 17 93 3d
       0.058524396 0.097058855 0.06899126 0.07182282
0002e0 f0 5a f7 bd d5 3d 07 3d db 7a 5f 3e d4 17 18 bd
       -0.12077892 0.033017952 0.2182421 -0.0371321
0002f0 5c ba a0 3d cc 68 42 3d 02 a6 a8 3d b2 9e 8c 3e
       0.07848045 0.047463223 0.082347885 0.27464825
000300 a0 3b bf bd 72 bb 24 bc 0c cf 27 3d b1 fa 88 3d
       -0.093375444 -0.010054456 0.04096894 0.066884406
000310 c0 a4 83 3d 70 ba 4b bd 4a 2c 12 bc ae 34 d6 3d
       0.06427908 -0.049738348 -0.008921692 0.104592666
000320 ef 5e 13 bd 04 d4 b1 bd 67 05 f7 3d 55 d1 fe 3d
       -0.035979208 -0.08683017 0.12061577 0.12442271
000330 df 36 0b bd b4 79 5f bd 32 af f2 bd 6c 46 05 be
       -0.033987876 -0.054559425 -0.11849822 -0.13015145
000340 90 89 40 3d 30 99 2c bd 06 0e 72 3d 9d 1d aa bd
       0.04700619 -0.04213828 0.059095405 -0.083064295
000350 08 1e d9 bb 8a c9 2e 3b 05 c5 9f 3d cd cc 0c 3e
       -0.0066258945 0.002667042 0.0780125 0.1375
000360 8d a8 15 3e 28 20 45 3c 87 bf 31 bc be cf 64 bd
       0.14615078 0.012031592 -0.010848886 -0.05586218
000370 58 05 e5 bd f9 09 89 bc 38 15 a4 3c ac cd a2 bd
       -0.1118266 -0.016728388 0.02002965 -0.07949385
000380 83 cb b6 bd 9e 08 ba bd c4 a1 da 3d 9c d0 6a 3d
       -0.089255355 -0.09083675 0.106753856 0.05732785
000390 fc 64 fc bd 5a 41 b4 bd 06 9f bd 3d ec 30 10 bd
       -0.12323949 -0.08801527 0.09258847 -0.035202906
0003a0 a0 5e ff bb 68 0c b7 3c e0 b0 9b bc 5e ef b2 bd
       -0.0077932626 0.022344783 -0.019005239 -0.08737062
0003b0 17 9b da bd 1d 19 31 3e 10 95 73 bc cd 83 13 bd
       -0.10674112 0.17294736 -0.014867082 -0.036014367
0003c0 94 62 5c bd d8 a0 8b bd 74 89 c5 bd 57 32 f4 bd
       -0.05380495 -0.06817788 -0.09645358 -0.11923664
0003d0 0a 11 d7 3d aa 42 cc 3d 29 85 02 bc 88 96 9c 3b
       0.10501297 0.09973653 -0.007966318 0.004778687
0003e0 8a 83 0c 3d 56 01 0f be d1 6b 52 bc 90 f9 0c 3d
       0.034305133 -0.13965353 -0.012843088 0.03441769
0003f0 b3 e0 bf bd aa d3 09 3d 00 d3 0f bc eb 52 5c 3d
       -0.0936903 0.033649124 -0.008778334 0.053790014

bias f4 [64]
000000 10 31 90 3d 64 cf 71 bd 02 40 99 3d 61 b4 f5 39
       0.07040608 -0.059035674 0.07482912 0.00046864434
000010 3f ba b1 3d 50 c0 f4 3d d9 40 81 bd b2 06 f3 3d
       0.08678102 0.11950743 -0.06311197 0.118665114
000020 de 38 34 3e 76 b1 ca bd 08 ad 1c 3d 3b e0 55 bd
       0.17599818 -0.09897129 0.038250953 -0.052215796
000030 06 2e 22 3e 30 e5 3b 3c 27 3e 20 be 2b 1a 4e 3d
       0.15837869 0.011468217 -0.15648709 0.050317924
000040 29 54 9e 3d b3 31 f1 3d 20 79 11 3e c6 95 00 3d
       0.07730896 0.117770575 0.14206362 0.031392835
000050 44 eb c8 3d af 40 0a 3e 76 33 f2 3d 9a 28 e5 bc
       0.09810498 0.13501237 0.11826222 -0.027973462
000060 35 67 4c 3d 94 e4 02 3d b4 a0 b4 bb 72 10 82 bd
       0.049903113 0.03195627 -0.0055123214 -0.06350793
000070 ef 25 45 bd 86 91 10 3d 19 0c c4 3c 30 4e ac bd
       -0.04813188 0.035295032 0.02393155 -0.084133506
000080 c9 31 f5 bd 6b 89 39 3d cb d4 11 be 57 ba 3b bd
       -0.119723864 0.045297068 -0.1424133 -0.045832004
000090 b1 4b ed bd 50 5b d6 3d a6 a3 5c 3e 3a 64 d2 bd
       -0.115867026 0.10466635 0.21546802 -0.10273023
0000a0 2a 9d ef bd d0 63 ae bd fe cc 65 3d d3 d0 16 ba
       -0.116998985 -0.085151315 0.0561037 -0.0005753163
0000b0 ab df 0c 3d 90 82 2e bd 00 7a b9 3d 7b 53 d8 bc
       0.034392994 -0.042604983 0.09056473 -0.026406994
0000c0 21 1e 0e 3d a6 40 d7 bd fc 57 d5 bc 8d 3a 2e 3e
       0.034696702 -0.105103776 -0.02604293 0.17014523
0000d0 d8 d7 eb bd 9e a4 b3 3d b0 37 3f 3e d2 2c 31 bd
       -0.11515778 0.087716326 0.18673587 -0.043255635
0000e0 1c 8b 31 3d 16 5f b5 bc 49 41 06 bd 70 4c cf 3d
       0.043345556 -0.022140067 -0.032777105 0.10122001
0000f0 1b 70 9d 3d c0 ca 99 bd 06 14 97 bd 41 9f aa bd
       0.07687398 -0.075093746 -0.07376866 -0.083311565

weight f4 [3, 64]
000000 5e 63 f9 bd b8 14 cf 3c 6e 87 83 be 8b dc 9d 3a
       -0.12177156 0.025278434 -0.25689262 0.0012043876
000010 86 05 e2 3b 00 03 e5 3b 80 f3 c1 3d 12 08 ba bd
       0.006897631 0.006988883 0.09470272 -0.090835705
000020 f7 f8 48 be 8c 28 89 bd 42 1e 4b be 2f 52 93 3c
       -0.19626223 -0.06697187 -0.19835761 0.017983524
000030 dc 27 7b bd 8f 6e b4 bd 03 44 91 3d 84 ed 0f 3e
       -0.06131731 -0.0881015 0.0709305 0.14055449
000040 b0 e3 e9 bd 04 a3 5f 3d 42 bc f1 3c 66 64 25 bd
       -0.11420381 0.054598823 0.029508714 -0.04037895
000050 85 ce ab bd e3 a5 61 3d ec f4 7b 3d 64 ee d5 bd
       -0.08389 0.055089843 0.061512873 -0.1044586
000060 1d a6 6f bd c3 1d 2c 3e db 75 75 3d b9 c7 e6 bc
       -0.058508027 0.16808228 0.05992685 -0.028171407
000070 48 d0 fc 3d b7 96 03 3d 4c 00 e5 3c 39 22 77 3d
       0.12344414 0.032126155 0.027954243 0.06033537
000080 84 15 81 bc 65 94 00 3e f9 b3 b3 bd a9 41 81 bd
       -0.01575733 0.12556608 -0.087745614 -0.06311352
000090 13 78 ea 3c 10 a3 78 bc 57 01 b0 3d 08 3a 0b bd
       0.028621709 -0.015175596 0.085940056 -0.03399089
0000a0 18 2e 7a 3d 2e 2e 8b bc ef 3b ff 3d d2 43 34 bd
       0.061079115 -0.016989794 0.12462603 -0.04400999
0000b0 c3 1b 82 bd 60 4e af 3d 75 81 44 3e e4 17 0f 3e
       -0.063529514 0.08559871 0.19190009 0.13973957
0000c0 e9 36 eb bd 55 4f 56 bd 6c c3 07 bd 20 88 3d be
       -0.11485083 -0.05232175 -0.033145353 -0.18508959
0000d0 13 06 4d 3d b0 a3 3a 3d f4 94 b2 3d 14 d6 a9 3c
       0.05005462 0.04556626 0.08719817 0.020731963
0000e0 58 66 db 3c 77 c6 4b 3d 0c 97 42 3d 62 c9 c4 bd
       0.0267822 0.049749818 0.04750733 -0.09608723
0000f0 63 be 80 bd 75 0c 2d 3d 11 e4 27 3c f0 d3 5b bd
       -0.062863134 0.042248208 0.010247246 -0.053668916
000100 b4 c6 f7 bd b0 ad 92 3c f3 98 9e bd 20 71 78 bc
       -0.120984465 0.017905086 -0.077440165 -0.01516369
000110 4f e7 cc 3d ee 49 f9 3d ef 35 1f 3e 12 f6 91 3d
       0.10005056 0.12172304 0.15547918 0.07127012
000120 9d 03 97 be ce c2 e3 3b 52 65 5a 3d c5 91 b8 bc
       -0.29494944 0.0069507128 0.053319283 -0.022530446
000130 66 a9 4a be ab df 16 bb a0 6a 66 bd d9 0c 3a 3d
       -0.19791183 -0.00230215 -0.05625403 0.04542241
000140 4d 14 c2 bd 6e 2d 35 3d 81 29 88 be 34 49 de 3c
       -0.09476528 0.04423278 -0.26594165 0.027134515
000150 42 74 d1 bd 65 99 76 be c4 0f 50 3d 6a 8e d1 bd
       -0.102272525 -0.24081953 0.050796285 -0.102322415
000160 4d 1d 41 3e ea 08 07 3e b2 ba c3 3c b6 13 0e 3c
       0.18858834 0.13186994 0.023892734 0.008671692
000170 19 d8 1b bd 4c 58 68 3c 38 b4 eb 3c fa b8 7f bd
       -0.038047884 0.014181208 0.028772458 -0.062432267
000180 4b c8 06 3d 90 51 d2 3a fe f6 8c bc 7f 15 5d 3c
       0.032905858 0.0016046036 -0.017207619 0.013493895
000190 cc ef e8 bd ac 55 b4 bd 2b cc 0c be 94 39 f7 3d
       -0.113738626 -0.08805403 -0.13749759 0.12071529
0001a0 70 1f ca 3a 7d f1 a1 3d eb 57 5d bd 67 ae 23 bd
       0.0015420746 0.07907388 -0.054038923 -0.039961245
0001b0 56 55 76 bd 62 e9 5c 3d af 82 d5 3d 4e ac 6f 3d
       -0.060139976 0.05393351 0.104253165 0.058513932
0001c0 85 1c c1 bc b0 f3 aa bd 8a 79 d9 3d 1c 6c 44 be
       -0.02357317 -0.08347261 0.10618885 -0.19181865
0001d0 75 d1 9b 3d 12 9e e9 3c 97 e4 98 3d 82 dd 47 bd
       0.0760831 0.028517757 0.07465475 -0.04879523
0001e0 82 53 fb bd 39 9b b9 bd 56 25 61 3d 37 2f 46 3c
       -0.12271787 -0.090628095 0.054967247 0.012096218
0001f0 02 53 bf bd a9 3d ad 3a 38 f6 1b 3e 8b ae d5 3d
       -0.09342004 0.0013217229 0.15230644 0.10433682
000200 a6 be d4 3d bc fd c8 3d 1d 07 b1 3b 1b 29 c5 bd
       0.10387926 0.09814021 0.0054024593 -0.09626981
000210 a9 45 c6 bd 8c e3 2d 3d 88 4d bb bc 00 f5 01 3a
       -0.09681255 0.042453334 -0.022864118 0.00049574673
000220 90 15 d8 3d a1 fa df 3d 1c 4f 32 3d 26 8b 0a 3e
       0.10550988 0.109364755 0.043532476 0.13529643
000230 2d f1 bb 3d aa 8f 90 3d ce fe 90 bd c3 97 4d bd
       0.0917686 0.07058652 -0.0707985 -0.05019356
000240 e9 87 05 3e 82 b2 a4 bd 44 9a 3e 3e e0 de ae bc
       0.13040127 -0.0804186 0.18613535 -0.02134651
000250 98 c0 14 3d a3 5f 37 3e 80 15 e0 ba 55 35 19 bd
       0.036316484 0.17907576 -0.0017096251 -0.037404377
000260 f9 41 c4 bc 96 77 0b 3d 34 53 6c bd f0 01 c5 3d
       -0.02395724 0.034049593 -0.057696536 0.0961951
000270 4c ef ee bd ab bc 04 3c e8 1b 19 3c a5 02 ff bd
       -0.11666736 0.008101623 0.009345032 -0.12451676
000280 5f 17 f9 3c e6 84 3e 3d 3f 6a b9 3d 2f 1b 20 3c
       0.030406652 0.04651346 0.09053468 0.009772106
000290 97 07 b9 3d a0 2c 9a 3b 00 d4 8b 3e a4 25 17 3d
       0.09034651 0.0047050267 0.2731018 0.03690113
0002a0 ee f5 c3 bd 07 bc df bc 54 c7 21 bc 62 af 30 3e
       -0.09568392 -0.027311338 -0.009874184 0.17254403
0002b0 9d e5 03 3e 67 7c 29 bd 66 31 1e bd ea 05 ef 3d
       0.1288056 -0.041378405 -0.03862133 0.1167105
0002c0 5e 36 df bd 40 51 67 3b e0 60 86 3d d2 cf bb 3d
       -0.108990416 0.0035296232 0.06561446 0.09170498
0002d0 de 04 ac bc bc 9d e9 3d c1 ef 81 3e 86 dd ae bd
       -0.020998415 0.114070386 0.2537823 -0.08538346
0002e0 ce a8 96 3d bf 3a 9e 3d 03 68 5f 3d 76 02 48 3e
       0.07356416 0.07726049 0.054542553 0.19532189
0002f0 3f c1 2f 3c ea 9f 2d bd a0 f3 26 bd 88 b3 66 bd
       0.010727226 -0.042388834 -0.040759683 -0.056323558

bias f4 [3]
000000 ee e1 fd 3b 38 4a af bc 43 82 fd 3d
       0.00774788 -0.021397695 0.12378361

weight f4 [64, 19]
000000 2e aa ca bd de 12 c3 3d 61 d9 59 be 12 24 ee 3d
       -0.098957404 0.09525083 -0.2127433 0.116279736
000010 df e5 47 3e 60 68 28 be 34 c1 6f bd f4 f6 5f 3d
       0.19521283 -0.16446066 -0.058533862 0.054678872
000020 9b df 60 be b2 a3 14 be 82 67 a3 3d 81 36 5d 3e
       -0.21960299 -0.1451557 0.07978727 0.21602823
000030 e6 5c 8c bd 00 ed 08 bb 2a c7 62 be 2f 7d 61 be
       -0.068536565 -0.0020893216 -0.22146288 -0.2202041
000040 5f 4e 4c 3e 37 5b 47 3e 98 31 8f bd 13 50 ed 40
       0.19951771 0.1946839 -0.06991881 7.4160247
000050 2c e0 a8 c0 bd 16 01 be 1e 0c be 3f 35 f2 a7 40
       -5.2773647 -0.1260633 1.4847448 5.2483163
000060 fa 52 ec 40 47 54 a6 be 3a b8 d7 be 50 3d ca be
       7.385129 -0.32486174 -0.4213274 -0.39499903
000070 8c 76 02 bd 7d 3a 0a bd d8 ad 94 3c 06 36 a0 3b
       -0.031851336 -0.033747185 0.018149301 0.0048892526
000080 23 d6 ab 3c 90 b2 0c 3c 3a 85 01 3d a7 02 15 3c
       0.020976132 0.0085874945 0.031621195 0.009094871
000090 cb 27 c6 ba d1 fd fa 3a 06 57 08 41 aa 70 0e 40
       -0.001511806 0.001914913 8.521246 2.2256265
0000a0 69 94 5d 3e 6c 8b 1f c0 ad d9 3c c0 25 42 0a 41
       0.21638645 -2.4928846 -2.9507859 8.641149
0000b0 2a 10 7b bf fb e0 c3 bb 52 12 95 be 1f 66 51 be
       -0.9807154 -0.0059777475 -0.2911554 -0.20449112
0000c0 be 00 b7 bd 60 2a 41 3e 42 92 97 be ae 4b 81 3c
       -0.089356884 0.18863821 -0.29603773 0.015783157
0000d0 29 c4 5b be a7 3d 19 3e 86 c4 4e bc 8b 82 58 bc
       -0.21461548 0.14964925 -0.012620097 -0.013214718
0000e0 4b e0 6b ba 4a fc 22 be b5 07 5e 3e fd ab 4b 3e
       -0.0008997961 -0.15916553 0.21682627 0.19889827
0000f0 03 a0 39 be e0 46 08 be d2 a7 e0 3d 86 8c 10 be
       -0.18127446 -0.13308287 0.10969509 -0.14116105
000100 49 bc 1f 3e 5d 2d e0 bd 84 d2 91 bd 6a e0 86 bd
       0.15599169 -0.10946152 -0.07120231 -0.06585772
000110 71 1f 60 3e ca e1 9e bd d4 b7 36 bd 4b 25 0e 3e
       0.21886994 -0.077579096 -0.044608906 0.13881414
000120 6b bb 20 be 00 d8 90 ba 8c 75 35 be e7 d3 58 be
       -0.15696494 -0.0011050701 -0.17720622 -0.21174584
000130 c9 15 fa 3f 87 e0 8d c0 6f 1a 66 bd 69 78 c1 bf
       1.9537898 -4.433658 -0.056177553 -1.5114871
000140 2a 71 ac 40 fa b0 0f 40 05 e1 0f be 83 b9 3c bf
       5.388814 2.2451768 -0.14050682 -0.7372057
000150 29 10 3c bf 41 14 6b be ce af c3 bd 25 71 9f be
       -0.7346216 -0.22956945 -0.095550165 -0.3114101
000160 b6 d4 48 be b0 61 ba be 7e de 2f 3d 7d e3 78 bd
       -0.19612393 -0.36402655 0.042936794 -0.060763825
000170 14 09 f7 3a 70 cc 3a 3a bc 7f d9 39 43 fb 04 c0
       0.001884731 0.00071258005 0.00041484635 -2.0778358
000180 89 71 e7 c0 bb 48 ad 3c e8 4f 8d 3e 3f df f3 40
       -7.2326093 0.021152845 0.27600026 7.6210017
000190 6c ec ff bf 30 0a f5 3e 79 bc 85 bf 1c 7b a8 3e
       -1.9994025 0.47859335 -1.0448142 0.32906425
0001a0 1e 7d 43 bd 00 e5 e7 be 56 95 32 bc 89 b9 1d 3d
       -0.047726743 -0.452919 -0.010899862 0.03850702
0001b0 34 90 ad be 1d 6a eb 3d e3 34 c8 bd c7 fd 88 3b
       -0.3389908 0.11494849 -0.09775712 0.0041806432
0001c0 fe b8 97 3a b1 fc 1b 3a a7 59 82 c0 1b b4 98 3f
       0.0011575518 0.0005950435 -4.073444 1.1929964
0001d0 55 eb d2 3d d1 01 e4 bf 09 f7 c2 be 5d e0 7a c0
       0.10298792 -1.7813054 -0.38079098 -3.919944
0001e0 86 39 86 3e 71 b3 7d be 23 f1 69 3f 67 e0 5b bd
       0.26215762 -0.24775483 0.9138357 -0.053680804
0001f0 92 66 08 be 7c b4 96 3d b9 57 90 bc f8 10 44 3e
       -0.13320377 0.073586434 -0.017619954 0.19147098
000200 ed 91 45 3e ac 90 f5 bd 50 1d de ba 6e 71 07 3b
       0.19293948 -0.119904846 -0.0016945992 0.0020666975
000210 81 82 6b ba 54 d0 26 be 00 7a a4 ba 8b 44 2a 3e
       -0.0008983985 -0.16290408 -0.0012548566 0.1662771
000220 cb fe 1b 3e 19 b8 4f 3e 32 46 a0 3d 02 62 b6 3d
       0.15233915 0.20285071 0.07825889 0.08905412
000230 14 fe 7b 3d 0b 8b 2b 3e 32 8d f6 3d f2 a2 8a 3d
       0.061521605 0.1675226 0.120386496 0.067693606
000240 a6 ef a3 bd 1e 63 e3 bd f0 52 68 bd 3e 3a e0 3d
       -0.08004694 -0.111028895 -0.05671972 0.10948609
000250 54 c1 ff bd 66 5d 80 3d 99 88 4d 3e 51 eb 46 3e
       -0.12488046 0.06267814 0.20071639 0.19425704
000260 e0 f5 2c be de eb 85 3d dd 9b 19 3e 6a 62 55 be
       -0.16890669 0.06539129 0.15000863 -0.20838323
000270 75 24 16 3e a3 60 12 be 20 dc 29 be d0 29 c7 bd
       0.14662345 -0.14294676 -0.16587877 -0.09724772
000280 6a b9 b0 bd ba 40 c2 bd 7a 44 87 3d 8e 04 b6 3d
       -0.08629115 -0.09485002 0.06604858 0.088875875
000290 62 9a b6 3d 5f 32 22 3e 18 a3 14 be a8 10 5f be
       0.08916165 0.15839528 -0.1451534 -0.21783698
0002a0 f8 75 3c be 6f 1e 01 be 1e e9 d6 bd 3c c2 89 c0
       -0.18404377 -0.12609266 -0.10493682 -4.3049603
0002b0 fb d9 8d 3f c2 80 3c bc f0 f2 48 3e 06 1a 7e bf
       1.1082147 -0.011505308 0.19623923 -0.9925846
0002c0 6a 30 8d c0 30 59 48 3e 4d d9 bd 3e 54 09 a1 3e
       -4.41216 0.19565272 0.3707985 0.3145243
0002d0 e1 47 45 be 6a ea aa 3d 8c b8 e9 3c 47 05 2a 3e
       -0.19265701 0.08345492 0.028530382 0.16603576
0002e0 50 8b 49 3e 14 7a ce be 03 42 a5 3d c2 83 da 3a
       0.1968205 -0.40327513 0.08069231 0.0016671347
0002f0 e5 24 a6 39 c6 b0 19 3b b2 40 25 c0 c1 bd 6b be
       0.00031689476 0.0023451312 -2.5820737 -0.23021604
000300 da 57 8d bc 46 5c 8f bf 58 6a 29 3f 27 18 28 c0
       -0.017253805 -1.1200035 0.6617789 -2.6264741
000310 ad fe 9f 3d 0e 9d 8f be 72 b5 9d 3e 8e 8c 4c be
       0.078122474 -0.2804951 0.30802494 -0.19975492
000320 78 bb da bd 59 54 13 be 6a ee 9e bc fa 6c f9 3d
       -0.10680288 -0.14387645 -0.019400794 0.12178989
000330 a5 80 26 3e 83 6e 90 be 36 a5 87 bc 5a 4f 0c 3d
       0.16260011 -0.28209314 -0.01655827 0.034255363
000340 0e a7 37 bc 34 7a 12 3d 16 99 eb 3d 40 31 70 3c
       -0.011209263 0.035761073 0.11503808 0.01466018
000350 40 f8 f8 bb 15 97 0b 3e c1 ac 3b 3e 0e ef 82 bd
       -0.007597953 0.13631852 0.18327619 -0.06393252
000360 12 91 48 be f8 d0 00 be 87 e1 27 3e c8 6b a3 3c
       -0.1958659 -0.12579715 0.16394626 0.019948855
000370 61 26 49 3e b0 5b a4 bd f5 97 5e be 56 e8 91 3d
       0.19643547 -0.080253005 -0.21737655 0.07124393
000380 d6 37 c8 bd 30 73 0c be c1 75 12 3e 00 b2 82 3c
       -0.09776275 -0.13715816 0.14302732 0.015954018
000390 2e 8c 6e c0 6e b0 7a 40 99 60 4e 3d c5 03 0b c0
       -3.727306 3.9170184 0.05038509 -2.172105
0003a0 b3 17 31 c0 66 8e 7a c0 9a 05 77 3e 58 5d 51 be
       -2.7670715 -3.9149413 0.2412323 -0.20445764
0003b0 03 1d 80 3f 18 7c 5c be 17 63 ed 3d 82 0d cd bd
       1.0008854 -0.21531713 0.115911655 -0.10012342
0003c0 ba 6b 73 be 3b 8d 2e 3e 73 8e 08 3e 9b ef 7f 3d
       -0.23771563 0.17046063 0.1333559 0.062484365
0003d0 f3 c5 79 bb fc 01 68 ba 4d 98 68 bb ee 06 78 3e
       -0.0038112372 -0.00088503934 -0.003549117 0.24221393
0003e0 09 91 83 3c e5 8d 16 be 5c 12 b0 3d eb 02 76 be
       0.01606037 -0.14702566 0.08597252 -0.2402455
0003f0 6a 26 61 3e 37 a1 fa 3d 32 55 ab 3d 2d ec 4e 3d
       0.2198731 0.122377805 0.08365859 0.050518204

bias f4 [64]
000000 10 4a 0b bd 4b 2d 94 3d a6 7e fb bc 00 f3 4e 3b
       -0.03400618 0.072352014 -0.03070004 0.0031577945
000010 12 ef 04 bd c5 66 de bd 35 0a 26 3e 11 90 57 3e
       -0.032454558 -0.108594455 0.16214831 0.2105105
000020 4e 1b 9a 3d 5a 7e 6f be 7e 84 72 3d 24 36 18 bd
       0.07524739 -0.23388043 0.059208386 -0.037161008
000030 1b c7 60 3e 48 5d 6b be cc 15 1d 3d de ca 3e be
       0.21950953 -0.22984803 0.038350865 -0.18632075
000040 04 b5 05 3d a4 bb d7 3b 8d 0f 89 3c 5d 80 4e 3d
       0.032643333 0.006583648 0.016731048 0.050415386
000050 c7 15 c3 3d 5d 7d 17 3e eb 00 33 be 25 dd 8c 3e
       0.09525638 0.14793916 -0.17480819 0.2751247
000060 49 0b 43 bd e7 25 c3 be 27 9d 13 3e 0c 4b a1 3e
       -0.047618184 -0.38114855 0.14415418 0.3150257
000070 a2 1b ab 3d 8f b7 d4 bd e4 f5 91 be cc 26 c7 3d
       0.0835488 -0.103865735 -0.28507912 0.09724197
000080 7f be 1b be 2c 8b 0d 3d ea 46 c0 be 5a bd bd 3d
       -0.15209387 0.034556553 -0.37554103 0.092646316
000090 d2 2b 85 3d f4 cb aa 3d 6e 02 e4 3d 4b 5c 60 be
       0.06502499 0.08339682 0.11133276 -0.21910207
0000a0 7b 4a 19 3e 4e 92 42 be c0 8e e0 bd 3b 22 d7 bc
       0.14969818 -0.19001123 -0.109647274 -0.02626144
0000b0 94 df d7 bb 10 80 1f bd 58 91 c1 3c 9b 88 a4 3d
       -0.006587932 -0.03894049 0.023628876 0.08033868
0000c0 20 31 ff bd 16 ba 8c 3d af f8 b6 bd cf 9f 47 bd
       -0.12460542 0.068714306 -0.089341514 -0.04873639
0000d0 78 d4 da 3c 28 9e 16 3c 5d 07 b1 be 8f 60 1c 3e
       0.026712641 0.009192981 -0.3457593 0.15271209
0000e0 e8 39 4d be 0c 3e c2 bd fb 73 5b be 1f a0 5e be
       -0.2004162 -0.09484491 -0.21430962 -0.21740769
0000f0 2e bf 2b be b8 12 56 bd 43 45 16 3e 98 31 5a 3e
       -0.16772148 -0.052263945 0.14674859 0.21307981

weight f4 [64, 64]
000000 b0 62 d7 3c 14 98 17 3f ee 47 39 be a4 f9 f6 3d
       0.026292175 0.5921643 -0.18093845 0.12059334
000010 fb d8 48 be 58 19 27 be 37 1c 75 3e f6 d8 c9 bd
       -0.19614021 -0.16318262 0.23936544 -0.09855835
000020 74 c2 d0 3d cd 00 f7 3d b0 f4 fc bc 66 5c 98 bd
       0.10193339 0.120606996 -0.030878395 -0.074394986
000030 86 19 65 3e 9d 87 7c 3d 88 19 39 bd e2 82 60 bf
       0.22373018 0.06165277 -0.045190364 -0.8769971
000040 c0 9f ea bc 3c 88 d7 bc 96 76 cd 3d df 23 18 3d
       -0.028640628 -0.026310079 0.10032384 0.037143584
000050 7f 23 bd 3c d6 0e d1 3e a4 56 ba bd b5 10 4f 3e
       0.023088215 0.4083163 -0.09098557 0.20221217
000060 3d 61 06 bd b7 1e 27 be c1 21 98 3e c7 d5 3d bc
       -0.032807577 -0.1632031 0.29713252 -0.011586613
000070 bc 53 c2 bd 6e 3a cf be de f5 06 bf f3 f5 48 3e
       -0.09488627 -0.40474266 -0.52718914 0.19625072
000080 9e 1a d0 3d 60 9d cb 3c 43 3f 01 bd 65 a2 03 3d
       0.10161327 0.024855316 -0.03155447 0.032137293
000090 aa b2 7a bf 47 b1 30 be 22 0f 85 3d d8 c3 d6 3d
       -0.9792887 -0.17255126 0.06497027 0.10486573
0000a0 90 21 15 3c 38 ac f5 3d 00 7a 6d 3a 8b 5f e7 be
       0.00910224 0.11995739 0.0009059012 -0.4519008
0000b0 26 2a d0 3d a8 c5 93 3e d0 c1 cc bc 84 9a 19 3e
       0.10164289 0.28861737 -0.02499476 0.1500035
0000c0 52 3b ed 3d ba 8d d1 be b8 8b 88 3e 06 5c e2 3b
       0.1158358 -0.4092844 0.26669097 0.0069079427
0000d0 c6 90 84 3d 25 54 a7 3d f2 b2 b3 be 40 4a 6f bb
       0.06472926 0.08170346 -0.35097462 -0.0036512762
0000e0 70 ce 3a bc 47 3a ad be 8d 5a 58 3e 3a e4 cb 3d
       -0.011401758 -0.33833525 0.21128292 0.0995564
0000f0 62 08 06 3e 98 f0 1c 3d 1d 47 b3 3e b8 3c 52 3e
       0.13089135 0.038315386 0.35015193 0.20530975
000100 9c bd 8d bd 3b df f2 3c 07 4d 0b be 02 f4 8b bd
       -0.06920931 0.02964746 -0.13603602 -0.0683365
000110 33 37 51 3e 30 bd 04 3f 4e a4 18 3e 96 48 d7 3d
       0.20431213 0.5185118 0.14906427 0.105118915
000120 30 47 d1 bc bc 82 2d 3d b5 87 4d 3c 00 be 72 3d
       -0.02554664 0.042361006 0.012544562 0.05926323
000130 f3 35 99 3d f8 39 11 3e 00 e6 59 3a a2 20 ac 3e
       0.07480993 0.1418227 0.0008312166 0.33618647
000140 2c de bd 3d be a8 5e 3e a8 cf 4d 3e 4e 27 79 3d
       0.092708915 0.21744058 0.20098746 0.0608285
000150 48 97 bc 3d 6d 0a 78 3e e6 51 b3 bd a2 46 d8 3c
       0.09208542 0.24222727 -0.08755855 0.026400868
000160 80 0f a2 3d 3b 8a 67 bd 27 b6 21 bd c2 b6 43 bd
       0.07913113 -0.05652831 -0.039480355 -0.047781713
000170 5f 2a ad 3d ee 1c 8a 3d 07 54 a3 3e 3b 74 36 be
       0.08455347 0.06743799 0.31900045 -0.17817776
000180 39 53 92 bb 98 bc 77 bd f8 80 cd 3e ec fd 0d 3d
       -0.0044654873 -0.06048259 0.40137458 0.034665987
000190 1b d9 dd 3b c5 c0 9f 3e a8 f0 bf 3d f2 7b d7 3d
       0.0067702658 0.3120176 0.093720734 0.105216876
0001a0 d7 6e a5 bd c8 40 80 3e 4a a5 dc bd 37 11 00 bd
       -0.08077782 0.25049424 -0.10773714 -0.031266417
0001b0 1e 57 15 3b 24 83 d0 bd 4c 4c 79 bd 40 d4 77 3e
       0.0022787522 -0.10181263 -0.060863778 0.2420206
0001c0 d0 7d a5 3c e4 51 71 3e 40 55 ce bd 6e 2e fa 3c
       0.020201594 0.23566395 -0.10074854 0.030539718
0001d0 14 ab fd 3d e3 d0 fe 3c c1 78 12 3f 76 30 ad bd
       0.12386146 0.031105464 0.57215506 -0.08456509
0001e0 e6 fe 8a bd 81 a4 65 be ba 9e 10 be 38 af d0 bd
       -0.06786899 -0.22426035 -0.1412305 -0.1018967
0001f0 d5 82 92 3e b4 04 12 3d a9 05 9d 3e 02 a8 08 3e
       0.28615442 0.035649016 0.3066838 0.1334534
000200 80 6c b7 bd 0f e4 70 bf 0b b3 bb bf 80 9e dc 3b
       -0.089562416 -0.9409799 -1.4664015 0.006732762
000210 03 2d ad 3d 78 69 17 3e 99 49 ee 3e e2 3d c6 bd
       0.08455851 0.14786327 0.46540526 -0.09679772
000220 ec 27 67 bd c8 4a 46 3e db 05 2d bd 32 f2 e1 bd
       -0.056434557 0.19364464 -0.042241912 -0.11032523
000230 49 dd a2 3e f3 9f 79 bc 10 d5 76 3c 63 fa 1e 3f
       0.31809452 -0.015235889 0.0150654465 0.6210081
000240 e8 f0 7e 3d 92 a9 ea bd 69 8b 53 be a6 28 46 3d
       0.062241465 -0.11458124 -0.2065865 0.04837861
000250 b1 1e 82 3d e1 c8 5d be 7c b6 32 3d 54 ce 71 bd
       0.0635351 -0.2165866 0.043631062 -0.05903466
000260 57 c7 ab bd b4 d3 bd 3e 92 67 d3 bd 97 cf 92 be
       -0.083876304 0.3707558 -0.10322489 -0.28674003
000270 3b 2b 8d 3b b7 49 3d be 44 24 0c bf 20 72 eb bd
       0.004308132 -0.18485151 -0.54742837 -0.11496377
000280 8a 1a 9e 3d c4 6a 34 3d 1d 35 95 3e c8 db b1 3d
       0.07719906 0.044047132 0.29142085 0.08684498
000290 cc bc 5c be fa 0c 71 3c 96 e2 a9 bd 88 03 dc bd
       -0.21556395 0.0147125665 -0.08295171 -0.10742861
0002a0 30 ae de bc 3f d5 c1 be 18 e1 da bd 13 db 09 bf
       -0.027182668 -0.37858006 -0.106874645 -0.53849906
0002b0 39 0a 0e 3e aa 15 77 3e f4 f1 d1 bd 0c 6e c0 3e
       0.13871087 0.24129358 -0.10251227 0.3758396
0002c0 ac 02 40 3d 88 ca 9a be ee 19 13 3f 4a 3d 92 3c
       0.046877548 -0.30232644 0.5746144 0.01785149
0002d0 52 4e b4 bd 56 06 9a 3e d6 ca 2a 3d 70 5e 93 bc
       -0.08804001 0.3008296 0.041697346 -0.017989367
0002e0 e0 a9 44 bd fe b4 22 be 49 49 3c bd 46 22 8a 3e
       -0.048013568 -0.15889356 -0.045968328 0.26979274
0002f0 ce 9a b5 be c8 ff 8e bd d0 8d 0f be db d6 f1 3d
       -0.3546967 -0.0698238 -0.14018941 0.118085586
000300 a4 84 dd bd 97 5c c9 bc b6 28 aa bd 18 a1 8a bd
       -0.10816315 -0.024580283 -0.08308546 -0.067690074
000310 78 90 21 3c e3 a9 88 3d 13 5e 80 bc d8 23 7f bd
       0.009861104 0.06673028 -0.015669858 -0.062290043
000320 e6 4e 8b 3d d2 55 e9 bd 98 9f d7 bd 98 a5 c7 bc
       0.06802158 -0.11393322 -0.10528487 -0.024370953
000330 fc ad 62 bd dc 23 f7 3d 10 c7 b7 bc bc 91 f4 bd
       -0.055341706 0.120673865 -0.022433788 -0.11941859
000340 54 9a 22 bd 06 fb 64 3d 0f d4 eb 3c 16 27 05 be
       -0.03969796 0.055903457 0.02878764 -0.13003191
000350 a9 f9 0a be 43 b5 75 bd f0 f5 02 3c 45 f9 22 be
       -0.135718 -0.059987318 0.007993206 -0.15915401
000360 0c b5 6b 3d 13 a8 a3 bd 0c a7 42 3d 17 ef 44 3c
       0.057545707 -0.07991042 0.04752259 0.012019894
000370 f8 67 a3 bc 74 c9 97 bd 1e 87 b2 bb 5f db 24 be
       -0.019947037 -0.07411471 -0.005448236 -0.16099308
000380 f0 ba 04 bd a8 52 6a 3d 34 20 0c be 20 dc cb bc
       -0.03240484 0.057207733 -0.1368416 -0.024885237
000390 d6 04 0c bd c3 87 c3 bd 78 62 72 3d 98 a0 7d 3d
       -0.0341843 -0.09547379 0.05917594 0.061920732
0003a0 a8 75 94 bc b7 bd d5 bd 88 cd 77 3d 8e 8f 39 bd
       -0.01812251 -0.10436576 0.060498744 -0.04530292
0003b0 fd e6 1d be 9c 48 3f 3d d4 03 fc 3d c8 d7 5e 3d
       -0.15420146 0.046700105 0.12305418 0.054405004
0003c0 f4 37 8d bd 9d db 66 3d 3d be 14 be 02 b9 f5 bd
       -0.06895438 0.056361783 -0.14525695 -0.11998178
0003d0 aa 52 b7 3d fc f2 e7 bd f6 d7 69 3d ac e4 fa 3d
       0.08951314 -0.113256425 0.057090722 0.12250647
0003e0 4a 0f ac bd d0 39 6d 3d 27 3d c2 bd 65 1f bd bd
       -0.08401354 0.057916462 -0.0948432 -0.09234504
0003f0 be 73 c8 bc 9c 61 41 3d a2 32 e1 bd d8 71 37 3d
       -0.024469253 0.04721223 -0.109959856 0.044786304

bias f4 [64]
000000 42 b2 1f 3e 40 f2 7b 3e 9f 6e c2 bc ad 48 a2 bd
       0.15595344 0.2460413 -0.023734389 -0.07924018
000010 b4 3b ca ba 4d 4a 5a bd 11 50 31 be f6 4f a9 3c
       -0.001542917 -0.053293515 -0.17315699 0.020668011
000020 e2 85 01 be a4 eb 22 3e e0 22 70 be 3f f5 1f be
       -0.12648728 0.15910202 -0.23450804 -0.15620898
000030 ca 8a 1b 3f bb 1c a1 3e a8 b7 ab bc 3b d9 10 be
       0.6075865 0.31467232 -0.020961598 -0.14145367
000040 b3 b4 81 be eb d1 5a bd 7a 4a 6e bd 94 84 59 3e
       -0.25333175 -0.05342285 -0.058176495 0.21241981
000050 49 61 24 be 3d 95 1b be 50 d1 1d be 98 f3 9a bd
       -0.16052736 -0.15193649 -0.15411878 -0.07565993
000060 87 8e e4 3d 52 04 88 3a 19 3a 15 bd e9 b5 a6 3e
       0.111599974 0.0010377264 -0.03643236 0.3256066
000070 77 5e a6 bd 3b f2 c1 bc c5 37 3f 3e 6f 59 61 be
       -0.081234865 -0.023675075 0.18673618 -0.22006772
000080 75 c7 c6 bd f6 a4 f1 bd 57 50 bd 3c 7e 54 ba 3e
       -0.09706012 -0.11799042 0.023109598 0.36392587
000090 9c bf ac 3e 5f c8 cc 3e cc 6c 11 be 08 f8 f4 bc
       0.33739936 0.3999662 -0.14201659 -0.029903427
0000a0 da ea 08 be d6 93 e8 bd 7e 0a 30 be 6b 83 2c bc
       -0.13370839 -0.113563225 -0.17191502 -0.010529379
0000b0 7b 21 98 3e dc 34 e4 3d c1 cc 0c be 98 f8 98 3e
       0.29713044 0.111428946 -0.13749982 0.29877162
0000c0 22 96 c5 3c 09 c7 d8 3c f3 0e 27 bd 9c fd af bd
       0.02411944 0.026462095 -0.04078574 -0.08593294
0000d0 39 b1 10 be 8d 9d 82 be 89 3e 63 bd c5 41 a4 bd
       -0.14130105 -0.25510827 -0.05547956 -0.08020357
0000e0 74 f7 9d bd 7e 85 6d bd e6 87 ed bc 0e 23 e5 bd
       -0.077132136 -0.057988636 -0.028995465 -0.11188327
0000f0 94 42 15 bd 60 3b 8f 3d 83 f7 d8 3c 28 6b c9 bc
       -0.036440447 0.06993747 0.02648521 -0.024587229

weight f4 [1, 64]
000000 17 f2 80 be 19 4e 14 be ad 83 57 be c8 c8 8d bc
       -0.251847 -0.14482917 -0.21046324 -0.017307654
000010 3e 39 97 bc c3 43 17 bc f6 7b 87 bc 70 40 99 bb
       -0.018459912 -0.009232464 -0.016538601 -0.004676871
000020 37 b4 b2 3e 1a f7 86 3e da f3 2f 3c 7e 03 49 3c
       0.34903118 0.263604 0.010739291 0.012268899
000030 d4 69 75 3d 40 ff 00 be c6 9d 37 3d 6a eb a9 3d
       0.05991538 -0.1259737 0.0448282 0.08296855
000040 19 8c 0c 3e e8 48 e0 3c f3 83 7b bc 45 9e 8f bd
       0.13725318 0.027378514 -0.015351283 -0.070126094
000050 02 08 82 3c 4d 34 86 bd cc 54 79 3d 05 77 1f bd
       0.015872959 -0.06552944 0.060871884 -0.038931865
000060 2d 55 bd be 3b 83 c0 3c 82 f5 06 3c 12 0d 73 be
       -0.36979046 0.023500076 0.008237245 -0.23735455
000070 1c 9c bf 3c 95 3e 63 3c d6 d6 bb bd 11 48 e7 3b
       0.023389868 0.013869901 -0.09171836 0.0070581515
000080 ff 16 99 bc 39 42 b4 3b 36 9b b0 bd c0 92 2f be
       -0.018687723 0.0055010584 -0.08623354 -0.17145824
000090 2b 25 25 be fb f1 7e be 15 1d 48 bd 98 78 9c be
       -0.1612746 -0.24896996 -0.04885586 -0.30560756
0000a0 0d 46 8e 3d 10 80 81 3c 23 fc b3 bc b9 74 22 bb
       0.06946955 0.015808135 -0.021970814 -0.002478881
0000b0 d3 a5 42 be b2 ac 09 3e 28 60 ce 3c 72 a8 70 be
       -0.1900857 0.13444784 0.025192335 -0.23501757
0000c0 0d 3f 23 bc e9 ae 4d 3d 86 a3 cf 3c 9f 43 a5 3d
       -0.009963763 0.050215635 0.025346529 0.08069538
0000d0 64 d5 a5 3d 5d cd 5e 3e 1a bd d6 bc 9d 2a fc bb
       0.08097342 0.21758027 -0.026213218 -0.0076955096
0000e0 75 5e fb ba 69 25 99 bd 21 3a be 3c 55 8d 50 bd
       -0.0019177931 -0.074778385 0.023221077 -0.050916035
0000f0 f5 9d ba 3d e5 c5 af 3b 92 92 d4 3e 67 f7 09 3c
       0.09112159 0.005364167 0.41518074 0.008420802
