output/ppo/2021-12-17_21-04-33-ppo_s0_nocol/pyt_save/model.pt (torch_old, 47572 bytes, 12 tensors)

log_std f4 [3]
0	0xc01c2921	-2.4400103
1	0xc00588fd	-2.086486
2	0xbfb15136	-1.3852909

weight f4 [64, 16]
0	0xbebee1c8	-0.37281632
1	0x3d44ff4f	0.048095044
2	0xbdbe98a3	-0.09306457
3	0xbdf67d0e	-0.12035571
4	0xbbc63919	-0.006049287
5	0xbe7aa472	-0.24476793
6	0xbc44b329	-0.012005606
7	0x3e27931b	0.1636471
8	0x3d8f0407	0.0698319
9	0x3d82260d	0.06354914
10	0xbd9abbac	-0.07555327
11	0xbd494870	-0.049141347
12	0xbe7491b8	-0.23883712
13	0xbe29869d	-0.16555257
14	0xbdd30618	-0.10303897
15	0x3c180165	0.009277676
16	0x3f00e7a5	0.5035346
17	0x3ee84a1f	0.4536905
18	0x3d3bf8ae	0.045891456
19	0x3e1d3c84	0.15355116
20	0xbe60f25e	-0.21967456
21	0x3f21525a	0.63016284
22	0x39935b91	0.00028106247
23	0x3e52805d	0.20556779
24	0xbdccc017	-0.09997576
25	0x3cbd6d18	0.023123309
26	0x3e67cd4a	0.22636905
27	0xbe6d7bce	-0.23191759
28	0xbe212966	-0.15738449
29	0xbd855edd	-0.06512234
30	0xbdcb53de	-0.09928106
31	0x3e5b4f38	0.21416938
32	0xbf5c5289	-0.8606344
33	0xbed26787	-0.4109461
34	0xbe3289d7	-0.17435394
35	0xbe7d79be	-0.24753472
36	0x3e28e99b	0.16495363
37	0xbf01cb2b	-0.50700635
38	0x3d53defa	0.05172632
39	0x3dedb159	0.11606092
40	0x3d980cbc	0.07424304
41	0xbe26ed41	-0.16301443
42	0x3d2d3ec0	0.04229617
43	0xbe6f069e	-0.23342368
44	0xbe38fa1a	-0.18064156
45	0xbe2861e8	-0.16443598
46	0x3dfa3a87	0.122181945
47	0x3de362d3	0.111028336
48	0x3edd95eb	0.4327844
49	0x3db34625	0.087536134
50	0xbe876dff	-0.26451108
51	0x3e7821ef	0.24231695
52	0xbc5710c2	-0.013126554
53	0x3f144a6a	0.57926047
54	0x3e3c07a4	0.1836229
55	0xbe00d1f5	-0.12580092
56	0xbd511f17	-0.05105504
57	0xbe540026	-0.20703182
58	0xbe316e18	-0.17327154
59	0xbe043ed2	-0.12914589
60	0x3de7aa8c	0.11311826
61	0x3db26683	0.08710959
62	0xbe2564fc	-0.16151804
63	0x3d7e58b9	0.06209633
64	0x3e0e9e37	0.13927542
65	0x3a9cf3c8	0.0011974508
66	0x3c4e8bf4	0.01260661
67	0x3d979fe7	0.07403546
68	0x3e143721	0.14474155
69	0x3e76f36b	0.24116294
70	0xbe40a2d6	-0.18812117
71	0xbdd05948	-0.10173279
72	0x3ddb94c4	0.10721734
73	0x3e4d3853	0.20041017
74	0x3e5ec5e8	0.21755183
75	0x3e61e222	0.22058919
76	0x3d4bca78	0.049753636
77	0xbe6e318f	-0.23261093
78	0x3c024e8a	0.0079532955
79	0xbe2f995d	-0.17148347
80	0xbefdac43	-0.49545488
81	0x3e20864e	0.15676233
82	0xbde25d76	-0.110529825
83	0xbf281084	-0.656502
84	0x3dbf9262	0.09354092
85	0xbea33871	-0.31879
86	0xbd94433c	-0.072393864
87	0xbdf44aac	-0.11928305
88	0x3df7b170	0.120943904
89	0xbdbfc45e	-0.09363626
90	0x3dbbb1dc	0.09164783
91	0x3e017616	0.12642702
92	0x3e37435c	0.1789679
93	0x3e13a1a1	0.14417125
94	0xbe4976bf	-0.19674204
95	0xbde44ffb	-0.111480676
96	0xbef7708f	-0.48328063
97	0xbe1e1e5f	-0.15441273
98	0xbe82e47a	-0.2556494
99	0xbe51e8e4	-0.20498997
100	0x3ee638ee	0.4496531
101	0xbee326c0	-0.443655
102	0xbe1742f8	-0.1477164
103	0xbdcdbff2	-0.10046376
104	0xbe1faf3a	-0.15594187
105	0xbbc22258	-0.0059245043
106	0xbe40c878	-0.18826473
107	0xbe4577a2	-0.19283918
108	0xbc61b020	-0.013774902
109	0x3d113bb1	0.035457317
110	0xbdd5f021	-0.104461916
111	0x3e15c6b9	0.14626588
112	0xbf52eca5	-0.8239234
113	0x3ea9c415	0.3315741
114	0x3e54ead6	0.20792708
115	0xbe3996cf	-0.18123935
116	0xbe549855	-0.20761235
117	0xbf235924	-0.6380789
118	0x3dac1fa6	0.08404474
119	0xbd28ef03	-0.041243564
120	0x3e925f90	0.28588533
121	0x3dcbacbe	0.09945057
122	0xbdf9d1cc	-0.12198219
123	0x3df245d4	0.11829725
124	0xbe759156	-0.23981223
125	0xbd276ecb	-0.040877145
126	0x3d362e4b	0.044477742
127	0xbc70481d	-0.014665631
128	0xbefd50a7	-0.49475595
129	0xbec9c203	-0.39405832
130	0xbe204232	-0.15650252
131	0xbe1cf7d3	-0.15328912
132	0xbb1a89ba	-0.0023580627
133	0xbebd57ce	-0.36981052
134	0x3dcd7df3	0.100337885
135	0xbb532882	-0.003222019
136	0x3cfaee35	0.030631164
137	0xbd5d57c4	-0.054038778
138	0x3d4f3d10	0.050595343
139	0x3e22c660	0.15895987
140	0x3e727eba	0.23681155
141	0x3dddb895	0.10826222
142	0x3e3f8490	0.18702912
143	0xbd8c2c12	-0.06844343
144	0xbf4b8adf	-0.79508775
145	0xbe592c64	-0.2120834
146	0x3f24f2d7	0.64433044
147	0x3cc781db	0.024353912
148	0xbd336954	-0.04380162
149	0xbf2c4a3b	-0.67300767
150	0xbe4585e0	-0.1928935
151	0xbe942ecb	-0.2894195
152	0x3db37287	0.08762079
153	0x3e36fdcb	0.17870252
154	0x3e0a6774	0.13516027
155	0xbe76e502	-0.24110797
156	0x3e1fb02e	0.15594551
157	0xbe0966ca	-0.13418117
158	0x3c0a1d3b	0.008429821
159	0xbd240add	-0.040049423
160	0xbf38a0b5	-0.7212022
161	0xbe96b22e	-0.29432815
162	0xbe63bf80	-0.2224102
163	0xbe5d3006	-0.2160035
164	0x3e601795	0.21883996
165	0xbf337c12	-0.7011119
166	0xbe264b25	-0.16239603
167	0x3da37ff0	0.079833865
168	0xbe274b60	-0.16337347
169	0xbd193a48	-0.037409097
170	0x3e6121a2	0.21985486
171	0xbdd0d738	-0.101973
172	0x3e672b36	0.22575077
173	0x3d8dafeb	0.06918319
174	0xbe7ce5de	-0.24697062
175	0x3e0c1a68	0.13681948
176	0xbe192cfe	-0.1495857
177	0xbdddff05	-0.10839657
178	0x3e75e6b5	0.24013789
179	0xbe6b0908	-0.22952664
180	0x3cdd064c	0.026980542
181	0xbe126a3c	-0.14298338
182	0x3e1050c8	0.14093316
183	0x3d894f8b	0.06704625
184	0x3e27a3f4	0.16371137
185	0x3d5269f1	0.051370565
186	0xbd763f00	-0.060118675
187	0xbd575a50	-0.052576363
188	0xbe52f700	-0.20602036
189	0x3d3a144b	0.04542951
190	0x3de76e61	0.1130035
191	0x3dad640d	0.08466349
192	0xbed502a8	-0.4160359
193	0x3eabde41	0.33568004
194	0xbe84a03e	-0.25903505
195	0xbae0d152	-0.0017152226
196	0xbee88375	-0.45412794
197	0xbdce38e5	-0.100694455
198	0xbe441009	-0.19146742
199	0xbd91cdc9	-0.071193285
200	0xbd144775	-0.03620096
201	0x3d76b807	0.060234096
202	0xbe4183fa	-0.18898001
203	0xbe2fbf44	-0.17162806
204	0xbe14a63c	-0.14516538
205	0x3d90f257	0.07077473
206	0xbe46b116	-0.1940349
207	0x3dda82dc	0.10669491
208	0x3e964483	0.29349145
209	0x3dcb518a	0.09927662
210	0x3d0c358e	0.03423076
211	0x3cc26e5d	0.023734266
212	0x3cb21361	0.021737756
213	0x3d8cd60a	0.06876762
214	0x3c85f09c	0.016350083
215	0x3d9e36a9	0.07725269
216	0xbe79df78	-0.24401653
217	0xbe117f08	-0.14208615
218	0x3e4eb7d8	0.20187318
219	0xbe4fc186	-0.20288667
220	0xbc930f20	-0.017951548
221	0x3e67022b	0.22559421
222	0x3d8cb0e6	0.06869678
223	0xbc6e7e65	-0.014556502
224	0xbf4842d9	-0.78227
225	0x3f257b85	0.646416
226	0x3d20d3b6	0.039264403
227	0x3e1ba35a	0.15199032
228	0xbf1836ac	-0.5945842
229	0xbf0eb641	-0.5574685
230	0x3dc8aa98	0.09798163
231	0x3e60a4d0	0.21937871
232	0x3e5a44d5	0.2131532
233	0x3e9a665b	0.30156216
234	0x3e1c9930	0.15292811
235	0xbe21d8c6	-0.15805349
236	0x3de5a254	0.11212602
237	0xbdc45cf2	-0.095880404
238	0xbccdcb63	-0.025121396
239	0x3e1e1254	0.15436679
240	0x3f446a70	0.7672491
241	0x3f1ec74e	0.62022865
242	0x3e80878d	0.25103417
243	0x3e7b7808	0.24557507
244	0xbe9c01b8	-0.3047006
245	0x3edf9adc	0.43672836
246	0x3ea534fb	0.32266983
247	0xbe4c35b7	-0.19942366
248	0xbd9162b1	-0.07098902
249	0x3d4fb533	0.050709914
250	0xbe06d40a	-0.13166824
251	0x3d0757d8	0.03304276
252	0x3e53b0f2	0.20672968
253	0x3cb97662	0.022639457
254	0xbd57e6c5	-0.052710313
255	0x3b555124	0.0032549584

bias f4 [64]
0	0xbc8fe041	-0.017562987
1	0xbe73aa9c	-0.23795551
2	0xbe3802d7	-0.17969833
3	0x3db42071	0.0879525
4	0xbdc35247	-0.095371775
5	0x3e649b75	0.22324927
6	0x3e484000	0.19555664
7	0x3e0a66fa	0.13515845
8	0xbd837a2a	-0.06419785
9	0xbcc50702	-0.024051193
10	0xbd0b4025	-0.03399672
11	0xbbb2d7f5	-0.005457873
12	0xbe964449	-0.29348972
13	0xbd9f5fcf	-0.07781946
14	0xbe02843e	-0.12745759
15	0x3e7edbca	0.2488853
16	0xbdedc7c9	-0.116103716
17	0x3e1021ec	0.1407544
18	0xbd87bf60	-0.06628299
19	0xbe34e9ef	-0.17667364
20	0x3d99959d	0.074992396
21	0xbc800153	-0.015625631
22	0x3e1178ee	0.14206287
23	0x3cd7d34d	0.026345873
24	0xbe746d58	-0.23869836
25	0x3e1ef70a	0.15523925
26	0xbd81b021	-0.06332422
27	0xbe09e1d6	-0.13465056
28	0x3e6cf4ef	0.2314031
29	0x3e167c5a	0.14695874
30	0xbe660a80	-0.22464943
31	0xbdb1ed32	-0.086878195
32	0x3e5211fc	0.20514673
33	0x3de4aaba	0.11165376
34	0x3e38eddf	0.1805949
35	0xbd9597e5	-0.07304362
36	0xbe0d7d18	-0.1381725
37	0x3e7ec877	0.24881159
38	0x3d7f585c	0.062340125
39	0x3e9cb931	0.3061004
40	0xbdd31213	-0.10306182
41	0xbe26ad7b	-0.16277115
42	0xbce7f445	-0.028314719
43	0xbe530b74	-0.20609838
44	0x3dd2b306	0.10288052
45	0x3e23ff5f	0.16015385
46	0x3dc41efe	0.09576224
47	0xbbf6494e	-0.007516063
48	0x3da61c73	0.08110895
49	0xbdbece37	-0.09316676
50	0x3e87dc68	0.26535344
51	0xbe9135bd	-0.28361312
52	0xbe9a5447	-0.30142424
53	0xbe2728d9	-0.16324176
54	0x3e24ff31	0.16112973
55	0xbd1ab34a	-0.03776864
56	0x3d99344d	0.07480679
57	0xbe46eb9e	-0.19425818
58	0x3d9b3985	0.0757933
59	0xbc469315	-0.012120028
60	0x3d7fb233	0.062425803
61	0x3e0760d8	0.13220537
62	0x3e1659f9	0.1468276
63	0x3cbaab1d	0.022786671

weight f4 [64, 64]
0	0xbcb19976	-0.021679621
1	0xbdb85a0a	-0.090015486
2	0xbd36e10e	-0.044648223
3	0x3db3f0ca	0.08786161
4	0xbd834b1b	-0.064108096
5	0x3d825715	0.06364266
6	0xbcf8e57f	-0.03038287
7	0xbdefe5ad	-0.11713729
8	0x3c885fcc	0.016647242
9	0xbe03cf57	-0.12872063
10	0xbb935951	-0.0044967313
11	0x3ab55e57	0.001383732
12	0xbb83de98	-0.004024338
13	0xbc344e1a	-0.011004949
14	0xbcf696f0	-0.03010127
15	0x3d95a148	0.073061526
16	0xbdeebaac	-0.116566986
17	0x3bcc161f	0.006228223
18	0xbeb15255	-0.34633127
19	0xbde38b4c	-0.11110553
20	0x3d78fd97	0.060788717
21	0xbd560f65	-0.052260775
22	0xbd358ca1	-0.044323567
23	0xbe9f18ab	-0.31073508
24	0x3e0ed420	0.13948107
25	0x3ce5339c	0.02797871
26	0xbe38cd4c	-0.18047065
27	0xbddb32de	-0.107030615
28	0x3da91541	0.08256007
29	0xbe0b9bc6	-0.13633642
30	0xbdd4e377	-0.10394948
31	0xbc9df762	-0.019283
32	0xbc93eb88	-0.018056646
33	0xbdc6dfd0	-0.097106576
34	0xbdfca070	-0.123352885
35	0xbd04881f	-0.032356378
36	0xbe8651f8	-0.26234412
37	0xbd5642a0	-0.052309632
38	0xbdc21e46	-0.094784304
39	0xbdcab9a0	-0.098986864
40	0x3d0ff429	0.03514496
41	0xbe0eaaa6	-0.13932285
42	0xbe073a05	-0.13205726
43	0x3d88a57d	0.066721894
44	0x3d190110	0.03735453
45	0x3df4f727	0.11961203
46	0xbd40801a	-0.046997167
47	0xbd7d063e	-0.06177353
48	0x3a0ea8f8	0.00054420484
49	0xbc5ff2d6	-0.013668736
50	0x3e348eab	0.17632549
51	0xbe451100	-0.19244766
52	0xbc4feb04	-0.012690309
53	0x3d7ca2d8	0.061678737
54	0xbd451bd7	-0.048122253
55	0xbd54f4af	-0.05199116
56	0x3d0ba4c6	0.034092687
57	0xbe08f788	-0.13375676
58	0x3c804422	0.015657488
59	0xbddcadf5	-0.10775367
60	0xbd4722fa	-0.04861734
61	0xbdbe3e88	-0.09289271
62	0x3e0460ff	0.12927626
63	0xbe059aaf	-0.13047288
64	0xbe07729d	-0.13227315
65	0x3d174a46	0.036936067
66	0x3e8485ee	0.2588343
67	0xbdc5b6f5	-0.09654037
68	0xbda9e99d	-0.08296511
69	0x3da808d7	0.08204811
70	0x3c2e986e	0.010656459
71	0x3d77c793	0.060493063
72	0xbdbe8eb4	-0.09304562
73	0xbd85eedf	-0.06539702
74	0x3e24fcc2	0.16112044
75	0x3e07c348	0.13258088
76	0x3db636a0	0.08897138
77	0xbd83132c	-0.06400141
78	0xbc74f3d0	-0.014950708
79	0x39394966	0.00017670318
80	0xbd14eec0	-0.036360502
81	0x3d4d2233	0.050081443
82	0x3cd3faf2	0.025876496
83	0x3daf0a6b	0.08546909
84	0xbdf559c6	-0.119800135
85	0xbe13d73d	-0.14437576
86	0xbc39e2fa	-0.011345619
87	0x3e6008b6	0.21878323
88	0xbe74439e	-0.23853919
89	0xbcbed42f	-0.023294536
90	0x3d91d126	0.0711997
91	0xbd48c170	-0.0490126
92	0x3ca1c40f	0.019746808
93	0xbd9f2bf4	-0.07772055
94	0x3d957f3b	0.07299658
95	0xbe254485	-0.1613942
96	0xbe1c8126	-0.15283641
97	0xbdd4b2a8	-0.103856385
98	0x3b7806ce	0.0037845853
99	0x3e15eb4f	0.14640544
100	0x3eaee4d7	0.34158966
101	0xbd9e03b1	-0.07715548
102	0x3dc02edb	0.09383937
103	0x3d5704f6	0.052494965
104	0x3ce47d9c	0.027891926
105	0xbdc180cb	-0.094483934
106	0x3c8f00e1	0.017456474
107	0xbdad7f27	-0.08471518
108	0x3de112ce	0.10989915
109	0xbd9a8a62	-0.07545926
110	0x3d1dad87	0.038495567
111	0xbd5ebfce	-0.054382138
112	0x3da6a545	0.081369914
113	0x3daedb92	0.085379735
114	0x3df2717c	0.11838052
115	0xbd7cb201	-0.061693195
116	0xbd269670	-0.040670812
117	0xbc4edd60	-0.012626022
118	0xbd6a2df7	-0.05717274
119	0x3e152396	0.14564356
120	0xbd044314	-0.032290533
121	0xbde18960	-0.1101253
122	0xbda99d22	-0.08281924
123	0xbd92537a	-0.07144828
124	0x3e2a86ef	0.16653036
125	0xbda791a1	-0.081820734
126	0xbdefa404	-0.117012054
127	0xbe19b8e9	-0.15011944
128	0x3d5d4216	0.054018103
129	0x3dcd81e0	0.10034537
130	0xbe627306	-0.2211419
131	0x3cd96236	0.026536088
132	0x3dbd6187	0.092471175
133	0x3c99f624	0.018794127
134	0xbcdef6ca	-0.027217288
135	0xbc459aa5	-0.012060796
136	0xbc5ec700	-0.01359725
137	0x3d8021d1	0.0625645
138	0xbe79d34f	-0.24397014
139	0x3d816b6d	0.06319318
140	0x3d5a8ae5	0.053355116
141	0xbd9b8278	-0.07593244
142	0x3dbcfbd0	0.09227717
143	0x3e013c65	0.12620695
144	0xbd421d54	-0.04739125
145	0xbe02ab97	-0.12760769
146	0xbe15e99a	-0.14639893
147	0xbdb42539	-0.08796162
148	0x3d63c99b	0.055612188
149	0x3ddd679b	0.10810777
150	0x3da10dc1	0.078639515
151	0xbecfb80a	-0.40570098
152	0x3eaf890c	0.34284246
153	0x3d674221	0.05645955
154	0xbdb0f986	-0.08641343
155	0xbdedaa23	-0.11604717
156	0xbe01ccc3	-0.12675767
157	0xbd6beafb	-0.05759714
158	0xbdb70fa4	-0.0893853
159	0xbd65f794	-0.056144312
160	0x3dd6b212	0.10483183
161	0xbcf27898	-0.02959852
162	0x3d89b518	0.06723994
163	0x3deb76f1	0.11497296
164	0xbea2bee1	-0.31786254
165	0xbdf379b5	-0.11888448
166	0xbd2dae62	-0.042402633
167	0x3d38231c	0.044955358
168	0x3dc6d28a	0.09708126
169	0x3cc13ee8	0.023589566
170	0x3d80c732	0.062879935
171	0x3e098ffe	0.13433835
172	0xbdee943f	-0.116493694
173	0x3c439118	0.0119364485
174	0x3dda1d58	0.10650128
175	0xbd9e1698	-0.07719153
176	0x3d1ca7b6	0.03824588
177	0x3d61f675	0.05516668
178	0x3c54cb28	0.012987889
179	0x3d8e3d03	0.06945231
180	0x3d9dac53	0.07698884
181	0x3dc2e335	0.095159926
182	0xbc470115	-0.012146254
183	0x3dd26fd5	0.102752365
184	0xbe3477f0	-0.17623878
185	0xbd89bd2f	-0.06725537
186	0xbcd95a55	-0.026532331
187	0xbd46444d	-0.04840498
188	0x3c9a6b98	0.018850133
189	0x3d70b05e	0.058761947
190	0x3d5b0784	0.053473964
191	0x3db202df	0.08691954
192	0xbda8fab0	-0.0825094
193	0xbcb4876f	-0.022037236
194	0xbdf4a720	-0.11945939
195	0x3cbd1b3d	0.023084277
196	0x3d99e4db	0.07514354
197	0xbd1cc2e7	-0.03827181
198	0xbd4d01c1	-0.0500505
199	0x3db302fd	0.08740804
200	0xbd35e3bd	-0.04440664
201	0xbd9d7697	-0.07688635
202	0xbd9bdba1	-0.0761025
203	0x3d971c4b	0.07378443
204	0xbd9d359d	-0.076762415
205	0xbd12dd03	-0.035855304
206	0xbda6b15b	-0.081392966
207	0xbddb2033	-0.10699501
208	0x3d22868b	0.03967909
209	0xbe227754	-0.15865833
210	0xbd10a691	-0.0353151
211	0xbdaef35b	-0.0854251
212	0x3af6cec1	0.0018829928
213	0x3d94b214	0.07260528
214	0x3d5acc61	0.053417567
215	0xbe11a186	-0.14221773
216	0x3ef1ffcb	0.47265467
217	0x3d86fc08	0.0659104
218	0xbe0cdb51	-0.13755538
219	0xbdcbc0a2	-0.09948851
220	0xbe219614	-0.15779907
221	0x3d5fa555	0.054601032
222	0x3e06587f	0.13119696
223	0xbb9eb030	-0.0048427805
224	0xbb791ce0	-0.0038011596
225	0xbdb8e1b2	-0.09027423
226	0x3d014528	0.031560093
227	0x3d336462	0.043796904
228	0xbee1a8b8	-0.44074035
229	0xbe0571c9	-0.13031687
230	0x3c5be3b8	0.013420992
231	0x3d1588c0	0.036507368
232	0x3b494faf	0.003071766
233	0x3e29b09c	0.16571277
234	0xbd41898a	-0.047250308
235	0xbd7f4707	-0.062323596
236	0xbe02bba6	-0.12766895
237	0x3dc675ab	0.09690412
238	0xbb93fc21	-0.00451614
239	0xbce40ded	-0.027838672
240	0xbd3bae0a	-0.045820273
241	0xbd6b8d49	-0.057507787
242	0xbd497304	-0.049181953
243	0xbe2c55d4	-0.16829616
244	0x3d9614dd	0.07328198
245	0x3cbfae18	0.023398444
246	0xbd8dbf98	-0.06921309
247	0xbd5ea998	-0.054360956
248	0x3d0e611d	0.034760583
249	0xbd1117eb	-0.0354232
250	0x3d3383a4	0.043826714
251	0x3cdca0c4	0.026932128
252	0xbe3ce42f	-0.1844642
253	0x3ca780bc	0.020447128
254	0xbbea13f8	-0.0071434937
255	0x3df7f9a3	0.12108161

bias f4 [64]
0	0x3dacd4a7	0.08438998
1	0xbd025e25	-0.031828064
2	0x3d8e7f43	0.06957867
3	0xbbc062e3	-0.005871163
4	0x3da6a486	0.08136849
5	0x3e0154e5	0.12630041
6	0xbde8c33c	-0.11365363
7	0x3de8a496	0.11359517
8	0x3dd0d510	0.101968884
9	0xbdbbd1cf	-0.09170877
10	0x3d4673b3	0.048450183
11	0xbd9c3b7b	-0.076285325
12	0x3d2e490f	0.042550143
13	0x3d238a79	0.03992698
14	0xbe23d3b5	-0.15998729
15	0x3d062b47	0.032756116
16	0xbc8ea599	-0.017412947
17	0x3dfbd192	0.12295832
18	0x3e00163e	0.12508485
19	0x3d04740a	0.032337226
20	0x3dd6dda5	0.10491494
21	0x3d2d96a8	0.042380005
22	0x3db28026	0.087158486
23	0xbd0ec401	-0.034854893
24	0x3d39246c	0.04520075
25	0xbd2131ed	-0.039354254
26	0xbc182aa0	-0.009287506
27	0xbcb9c28c	-0.022675775
28	0xbd8efa51	-0.06981338
29	0x3d77b2e2	0.06047333
30	0x3d86bed0	0.06579363
31	0xbd9afa7d	-0.07567308
32	0xbddebc53	-0.10875764
33	0x3d826ac2	0.06368019
34	0xbdd58400	-0.104255676
35	0x3b6bea3b	0.0035997767
36	0xbdab6d4f	-0.08370458
37	0x3de2176f	0.11039626
38	0x3dd40769	0.10352976
39	0xbdc7687a	-0.09736724
40	0xbe0fec81	-0.14055063
41	0xbd9d331b	-0.07675763
42	0x3c262ebd	0.010142979
43	0xbd62e4e1	-0.055394057
44	0xbc2fa254	-0.010719854
45	0xbd3a56e5	-0.045493025
46	0x3cc844a1	0.024446787
47	0xbd83a78a	-0.0642844
48	0x3d4de843	0.05027033
49	0xbda2a3f6	-0.07941429
50	0x3b980a44	0.0046398956
51	0x3de0a956	0.10969798
52	0xbd8e8adc	-0.06960079
53	0x3dd000e1	0.10156418
54	0x3d93478e	0.07191382
55	0xbd71d639	-0.05904219
56	0x3d31816e	0.043336324
57	0xbdc956f7	-0.0983104
58	0x3c823f69	0.015899377
59	0x3d9ab249	0.075535364
60	0x3e0ae485	0.13563736
61	0xbd922fa1	-0.07137991
62	0xbd95cf6f	-0.073149554
63	0xbd8b2086	-0.06793313

weight f4 [3, 64]
0	0xbe04c769	-0.12966694
1	0xbbe8bd93	-0.007102677
2	0xbd9c769c	-0.076398104
3	0xbd803ffc	-0.06262204
4	0xbc1ea535	-0.009682943
5	0x3d52d412	0.051471777
6	0x3d3230a0	0.043503404
7	0xbc89d797	-0.016826434
8	0xbd71efdb	-0.059066635
9	0x3dfaff1a	0.12255688
10	0xbc7efbc5	-0.015562956
11	0x3c248ad6	0.010042867
12	0x3cceba44	0.025235303
13	0xbd040509	-0.032231364
14	0x3dc2788c	0.09495649
15	0x3e1bb948	0.15207398
16	0xbe47a73e	-0.19497392
17	0xbb1d6ddc	-0.002402178
18	0xbc716d1c	-0.014735486
19	0x3de60332	0.11231078
20	0xbda0c008	-0.07849127
21	0x3da68ea1	0.08132673
22	0x3c52219c	0.012825396
23	0xbbf00074	-0.0073242728
24	0xbbbe4158	-0.0058061294
25	0x3d85c239	0.06531186
26	0xbc3ae602	-0.011407377
27	0xbdde0f27	-0.10842734
28	0x3d3724cd	0.04471283
29	0x3d4ec75c	0.050483093
30	0x3dafb230	0.085789084
31	0x3d47653a	0.04868052
32	0x3a7fce8e	0.0009758257
33	0x3dd69bdb	0.10478946
34	0xbdb61b2e	-0.08891903
35	0xbd73eb78	-0.059550732
36	0xbd1b41ed	-0.03790467
37	0xbd30ba69	-0.043146525
38	0x3c88dba1	0.01670629
39	0x3ced4dc4	0.028967746
40	0x3c9591c1	0.018257977
41	0x3c1e0a68	0.009646036
42	0x3daf0460	0.08545756
43	0x3c8137cb	0.015773674
44	0xbc2d1774	-0.010564674
45	0x3d711108	0.058854133
46	0x3e34114d	0.17584725
47	0x3e1322eb	0.14368789
48	0xbdbad170	-0.09121978
49	0xbdc6a971	-0.09700287
50	0xb7cfad75	-2.4757095e-05
51	0xbc641c8d	-0.013922823
52	0x3d7cc286	0.06170895
53	0x3d4423fd	0.047885884
54	0x3cdea8cd	0.0271801
55	0xbddc7fe1	-0.107665785
56	0x3d095942	0.03353239
57	0x3dea66e7	0.11445408
58	0x3dad2604	0.084545165
59	0xbd78b4f1	-0.060719434
60	0xbbd52c30	-0.0065055117
61	0x3d9ffd81	0.07812024
62	0x3b0fa381	0.0021917524
63	0xbabed729	-0.0014559972
64	0xbe258960	-0.16165686
65	0x3c01e358	0.007927738
66	0xbbc49941	-0.0059997146
67	0x3cb3175c	0.021861725
68	0x3d169c61	0.03677023
69	0x3d856efc	0.06515309
70	0x3d1aeab9	0.037821505
71	0xbd3a17ef	-0.04543298
72	0xbddddf57	-0.10833614
73	0x3cee187f	0.029064415
74	0x3c87f42e	0.016595926
75	0x3d02e0f5	0.031952817
76	0x3d42c830	0.047554195
77	0xbd01f19c	-0.031724557
78	0xbd7e154e	-0.062032036
79	0x3dc7ec47	0.09761863
80	0x3d886fd1	0.06661952
81	0x3bdbb28e	0.006704635
82	0xbdc2cef8	-0.095121324
83	0x3df17caf	0.1179136
84	0xbda4c294	-0.08044925
85	0xbd8b03b4	-0.06787816
86	0xbd4ac5d8	-0.049505085
87	0x3add4993	0.0016882889
88	0x3d4a05b4	0.049321845
89	0x3e0b3205	0.135933
90	0x3c6ec2f0	0.014572844
91	0xbda71d3c	-0.08159873
92	0xbc55207a	-0.013008231
93	0xbb937776	-0.004500325
94	0x3b52d55b	0.0032170627
95	0xbbf1e2f3	-0.007381791
96	0xbc7e38ec	-0.015516501
97	0xbbc3ac5c	-0.0059714746
98	0xbd9e4929	-0.07728798
99	0x3c1f54ec	0.009724837
100	0xbdd06df6	-0.101772234
101	0xbdf102fc	-0.11768147
102	0x3cd1583d	0.02555477
103	0x3d902e84	0.07040122
104	0xbcba1762	-0.022716228
105	0x3d5c3914	0.05376537
106	0x3d0e79a2	0.034783967
107	0xbd10d7f3	-0.035362195
108	0xbd02aaf8	-0.03190133
109	0x3cc807e6	0.024417829
110	0xbc6bb6e9	-0.014386871
111	0x3d29892a	0.041390575
112	0xbc0b1e30	-0.008491084
113	0xbdcad934	-0.099047095
114	0x3d21875e	0.039435737
115	0xbd4e025b	-0.050295215
116	0x3d18d119	0.037308786
117	0x3d583f9f	0.05279505
118	0x3bfbf9c7	0.007689688
119	0xbd9d1300	-0.076696396
120	0xbdd20c47	-0.10256248
121	0x3d4c8898	0.049934953
122	0xbbf2bc6e	-0.0074077165
123	0x3d3322ae	0.043734245
124	0x3c877e67	0.016539766
125	0xbd07e537	-0.03317758
126	0x3da17587	0.07883745
127	0x3d4b9873	0.049705934
128	0x3d5b2ef8	0.05351159
129	0x3df73b50	0.1207186
130	0xbdd706d8	-0.10499352
131	0xbe5760a7	-0.21032964
132	0xbd883c3a	-0.06652112
133	0x3dd146e7	0.10218602
134	0xbd2cd128	-0.042191654
135	0xbdbb526a	-0.091465786
136	0xbcb83b4d	-0.022489214
137	0x3e64034e	0.22266886
138	0x3d740ce6	0.059582613
139	0x3d6227b5	0.05521365
140	0x3dbcc62b	0.09217485
141	0xbd5f49ba	-0.05451367
142	0xbd99937f	-0.07498836
143	0xbd50f2fb	-0.051012974
144	0xbe7c07ae	-0.24612305
145	0x3ce22c11	0.027608903
146	0x3dce5192	0.10074152
147	0xbd45d08e	-0.048294596
148	0xbd813afd	-0.06310079
149	0x3ce084b7	0.027407033
150	0xbce01735	-0.027354816
151	0xbe0ec944	-0.13943964
152	0x3ca09cd5	0.019606033
153	0x3c072b6e	0.008250101
154	0xbd8dc45a	-0.06922217
155	0x3de38570	0.111094356
156	0xbd6a5ada	-0.05721555
157	0x3ddc83ec	0.107673496
158	0x3e28a747	0.16470061
159	0xbd7a9391	-0.061175887
160	0xbd26ddfe	-0.040739052
161	0x3df50a3a	0.11964841
162	0x3ccab3f5	0.024744013
163	0x3cac27d6	0.021015089
164	0x3db6f05b	0.08932563
165	0x3d18febd	0.037352312
166	0x3db28c89	0.08718211
167	0x3db080f3	0.08618345
168	0xbdb305af	-0.087413184
169	0xbd0b0bf0	-0.03394693
170	0xbd394e51	-0.045240704
171	0x3de23249	0.110447474
172	0x3da8d9b3	0.08244648
173	0x3d4503d8	0.04809937
174	0x3e20bafe	0.15696332
175	0x3e047727	0.12936078
176	0xbe0f2ee5	-0.13982733
177	0xbc5b1d80	-0.013373733
178	0x3d4a8e75	0.049452264
179	0xbcfe0f65	-0.0310132
180	0x3d31ac5f	0.043377277
181	0x3e0c8da1	0.13725902
182	0x3df46ecc	0.11935195
183	0xbe89bdb8	-0.26902556
184	0x3d6bafe5	0.057540793
185	0xbd9b4482	-0.07581426
186	0x3e2b7698	0.16744459
187	0x3d9fb019	0.0779726
188	0x3d106fac	0.03526275
189	0x3e05b0b1	0.13055684
190	0xbd55b469	-0.052174006
191	0xbd830a7f	-0.06398486

bias f4 [3]
0	0xbd0ed87d	-0.034874428
1	0xbd24f543	-0.040272962
2	0x3e1b3924	0.15158516

weight f4 [64, 16]
0	0xbe2b5c47	-0.1673442
1	0x3e23406e	0.15942547
2	0xbe6d634b	-0.23182409
3	0x3db302a3	0.08740737
4	0x3e4b9973	0.19882755
5	0xbe579d75	-0.21056159
6	0xbe03052a	-0.12794939
7	0x3da185bd	0.07886837
8	0xbe678641	-0.22609808
9	0xbe52fae1	-0.20603515
10	0x3db210d4	0.08694616
11	0x3e710faa	0.23541132
12	0xbd98f4f8	-0.07468599
13	0xbd64f938	-0.055901736
14	0xbe97ef55	-0.29674783
15	0xbe970b69	-0.29500893
16	0x3ec2c6b2	0.38042217
17	0x3e274af5	0.16337188
18	0xbd1aa2ac	-0.037752792
19	0x3cbbf9b8	0.022946224
20	0x3cb1eab9	0.02171837
21	0x3e8d9f16	0.27660435
22	0xbe256924	-0.16153389
23	0xbe8efcee	-0.27927345
24	0xbd8348c3	-0.064103626
25	0xbd412158	-0.04715094
26	0xbbd86940	-0.0066043437
27	0x3e3aba7a	0.18235198
28	0x3d5f9418	0.054584593
29	0xbe2901b1	-0.16504551
30	0x3e95b80b	0.29241976
31	0x3e8665d9	0.2624958
32	0x3e75a2f4	0.23987943
33	0x3cff2f06	0.031150352
34	0x3e2a97a2	0.16659406
35	0x3eb32ffc	0.34997547
36	0xbe25d33b	-0.1619386
37	0x3b4e6041	0.0031490477
38	0x3d44c152	0.048035927
39	0xbe76e5d6	-0.24111113
40	0xbe45c91e	-0.19315001
41	0xbe3e6db8	-0.18596542
42	0xbe438376	-0.19093117
43	0xbd1f0a98	-0.038828462
44	0x3e594fd0	0.21221852
45	0x3e5fa4ef	0.21840261
46	0x3dff6bf1	0.1247176
47	0xbdce9ee0	-0.10088897
48	0xbe8bb3f8	-0.27285743
49	0x3d982d20	0.07430482
50	0xbe7e9470	-0.24861312
51	0xbe08ebd6	-0.13371214
52	0x3c06a123	0.008217129
53	0x3d7247ef	0.059150632
54	0xbe0a789f	-0.13522576
55	0x3ec44ea7	0.38341257
56	0x3d16f461	0.03685415
57	0xbe617252	-0.22016266
58	0x3e71f3a2	0.23628095
59	0x3e5df23c	0.21674436
60	0xbe4a47bc	-0.19753927
61	0xbe427c43	-0.18992715
62	0x3d98de97	0.07464331
63	0xbe4b7e16	-0.19872317
64	0x3eb63529	0.35587433
65	0xbe389fcf	-0.18029712
66	0xbccfd1a1	-0.025368514
67	0x3db2c2d7	0.08728569
68	0x3e931c23	0.28732404
69	0x3dcd10f7	0.100130014
70	0x3d6296c7	0.055319574
71	0x3cdb7928	0.02679117
72	0xbe2cc99e	-0.16873786
73	0x3d98242e	0.07428776
74	0xbe45bd94	-0.193106
75	0xbe6c4856	-0.23074469
76	0xbd69ca88	-0.057077914
77	0x3dd07fb4	0.101806074
78	0x3e932147	0.28736326
79	0xbe298d5e	-0.16557834
80	0xbd260ba9	-0.040538464
81	0x3dc511ed	0.0962256
82	0x3dc137db	0.09434482
83	0x3e23d653	0.15999727
84	0xbe69a919	-0.22818412
85	0xbd013dce	-0.031553082
86	0x3db62eab	0.0889562
87	0xbe2f0b78	-0.17094219
88	0x3e1f7f2d	0.15575857
89	0xbe5426d2	-0.20717934
90	0x3e1fbd7e	0.1559963
91	0x3da6756c	0.08127865
92	0xbd916ecc	-0.07101211
93	0x3de894d9	0.113565154
94	0x3e7a0f7e	0.24419972
95	0x3e5d8f1d	0.21636625
96	0xbbce547f	-0.006296694
97	0xbd67d42a	-0.05659882
98	0x3d8349e5	0.06410579
99	0x3d39d626	0.045370243
100	0xbd08c24d	-0.033388425
101	0x3c806824	0.015674658
102	0xbe676519	-0.2259716
103	0x3ea31bef	0.3185725
104	0x3d480418	0.04883203
105	0xbe8a2f37	-0.26989147
106	0xbd84b938	-0.0648064
107	0x3e6243ca	0.22096172
108	0xbdb2dd28	-0.087335885
109	0xbdb4b690	-0.088238835
110	0xbe1456a9	-0.14486183
111	0xbe392463	-0.18080287
112	0x3d3167a0	0.043311715
113	0x3e1b4c50	0.1516583
114	0x3cf22a80	0.029561281
115	0xbc7ca1a0	-0.015419394
116	0x3c6cf0e0	0.014461726
117	0xbe3ff8cc	-0.18747252
118	0xbe06e2c6	-0.13172445
119	0x3c4cf640	0.012509882
120	0xbe4c9e8e	-0.19982359
121	0x3dfd9844	0.12382558
122	0x3d1c13f0	0.03810495
123	0x3b2c8500	0.0026324391
124	0xbc836d50	-0.016043335
125	0x3e58377c	0.21114916
126	0x3e69a1c2	0.22815612
127	0x3df9ff04	0.122068435
128	0x3e3ec924	0.18631417
129	0xbe1b3da1	-0.15160228
130	0x3dd10876	0.10206692
131	0xbe01c7af	-0.1267383
132	0x3dcaac18	0.098961055
133	0xbe0bc5b3	-0.13649635
134	0x3d8bdc3d	0.068291165
135	0x3e3a692b	0.18204181
136	0x3e33a443	0.1754313
137	0x3e8e5589	0.27799633
138	0x3daea7a0	0.08528066
139	0x3dc6bf40	0.09704447
140	0x3d894d1c	0.067041606
141	0x3e829477	0.25503895
142	0x3e51e11c	0.20496029
143	0x3e16d050	0.14727902
144	0xbe0b0095	-0.13574441
145	0xbda87479	-0.082253404
146	0xbd7d52a5	-0.061846394
147	0x3dbb1fa9	0.09136898
148	0xbe1337ea	-0.14376798
149	0x3d2e594b	0.042565625
150	0x3e2d45c2	0.16921142
151	0x3e66d887	0.22543536
152	0xbe362f94	-0.17791587
153	0x3d0c7d53	0.034299206
154	0x3e276430	0.16346812
155	0xbe6887c2	-0.22708037
156	0x3e239d28	0.15977919
157	0xbe4e79f2	-0.20163706
158	0xbe69ddfb	-0.22838585
159	0xbe1ceaeb	-0.15323989
160	0xbe7aa40e	-0.24476644
161	0xbd3e0096	-0.046387278
162	0x3dabb050	0.08383238
163	0xbd59aa01	-0.053140644
164	0x3d5c98cd	0.05385666
165	0x3d1a8e25	0.037733216
166	0xbe846ec3	-0.25865754
167	0xbe4b3dca	-0.1984779
168	0xbe3c9bd5	-0.1841882
169	0xbe5dfe1e	-0.2167897
170	0xbdea3184	-0.114352256
171	0x3de0fac8	0.10985333
172	0xbe3941dc	-0.1809153
173	0xbe851f1c	-0.26000297
174	0x3d68d4e5	0.056843657
175	0xbe71d052	-0.23614624
176	0x3e6dce7e	0.23223302
177	0xbe90c89f	-0.28278062
178	0x3db7d51f	0.089761965
179	0x3ea7ad34	0.3274933
180	0xbe0616ca	-0.13094631
181	0x3e8230f1	0.25427964
182	0xbc8f7dbe	-0.017516013
183	0x3d8f8471	0.07007683
184	0x3e5413fb	0.20710747
185	0xbe07f3b1	-0.13276555
186	0x3dbf8344	0.09351209
187	0x3e2ce354	0.16883594
188	0x3e68bf68	0.22729266
189	0x3e84c0ba	0.2592829
190	0x3df4fe24	0.11962536
191	0x3dae3b82	0.08507444
192	0xbdaf041d	-0.085457064
193	0xbdb0bd33	-0.08629837
194	0xbd3c6a1f	-0.045999642
195	0xbdfe1366	-0.12406044
196	0xbe4ed8ec	-0.20199937
197	0xbdf745a0	-0.12073827
198	0xbe042964	-0.12906414
199	0xbd73bbdd	-0.059505332
200	0xbd81686f	-0.06318747
201	0xbea56ffe	-0.32312006
202	0x3e73f782	0.23824885
203	0x3dfc5dc0	0.12322569
204	0x3e391456	0.18074164
205	0xbe8f5cdd	-0.28000537
206	0xbe9f9f96	-0.31176442
207	0x3df371c8	0.118869364
208	0xbe48d308	-0.19611752
209	0x3dbf07f1	0.093276866
210	0x3e0f7968	0.14011157
211	0xbdf9913b	-0.12185904
212	0xbd5bd5fe	-0.053670876
213	0x3b289bac	0.0025727553
214	0x3de978aa	0.11399968
215	0xbc929d3c	-0.01789724
216	0xbe3e5380	-0.1858654
217	0xbe4fcfd2	-0.20294121
218	0x3e36f1ae	0.17865631
219	0x3cb21580	0.021738768
220	0x3e5b32b2	0.21406057
221	0xbe1c1bd4	-0.1524499
222	0xbe9a8453	-0.3017908
223	0x3c503bcd	0.01270957
224	0x3d1e370a	0.038626708
225	0xbe60d725	-0.21957071
226	0x3ccb3e74	0.024810053
227	0x3d22395a	0.039605476
228	0x3d323e61	0.04351652
229	0x3ebf3d81	0.3735161
230	0x3e7d0b8e	0.24711439
231	0xbfb5148f	-1.4146899
232	0xbeb043a4	-0.34426606
233	0xbde5ece6	-0.112268254
234	0xbe46c380	-0.19410515
235	0xbe0691f0	-0.13141608
236	0x3e2cb630	0.16866374
237	0xbe11db95	-0.1424392
238	0x3e81a308	0.25319695
239	0x3dd0b717	0.101911716
240	0x3e109690	0.14119935
241	0xbc2ebd95	-0.010665317
242	0x3d3da9f0	0.046304643
243	0x3e4b0f47	0.19830047
244	0xbe2a8ff6	-0.16656479
245	0x3dceeb75	0.101035036
246	0x3e8439bf	0.25825307
247	0x3e7491d2	0.23883751
248	0xbca40399	-0.020021247
249	0xbdd8be87	-0.10583215
250	0x3deb4e10	0.114894986
251	0xbe6a3a08	-0.228737
252	0x3e642dfe	0.2228317
253	0x3e661c85	0.22471817
254	0x3e3baa52	0.18326691
255	0x3dd6d073	0.10488977

bias f4 [64]
0	0xbe389a47	-0.18027602
1	0xbe3bccf2	-0.18339899
2	0x3e6aaf67	0.22918473
3	0xbe24ce21	-0.16094257
4	0x3e93f3c9	0.2889693
5	0xbc899cfa	-0.016798485
6	0xbe0b70f8	-0.13617313
7	0x3e02571e	0.12728545
8	0x3d4fcc79	0.05073211
9	0xbe64284f	-0.22281002
10	0xbd4a6b46	-0.04941871
11	0xbd361431	-0.04445285
12	0xbe7fad91	-0.24968554
13	0xbe63327d	-0.22187229
14	0x3de2ad36	0.110681936
15	0x3dba0d08	0.09084517
16	0xbe2d208b	-0.16906945
17	0x3e215da3	0.15758376
18	0xbbefb6a3	-0.007315473
19	0xbe580ab4	-0.21097833
20	0x3cb878b2	0.02251849
21	0xbe18a298	-0.14905775
22	0xbe0b4862	-0.1360183
23	0x3e7f1a29	0.24912323
24	0x3de9fbd4	0.114249855
25	0xbe347ab3	-0.17624931
26	0x3e20e296	0.15711436
27	0x3e23d1c5	0.1599799
28	0xbe7d679e	-0.24746558
29	0xbe423c28	-0.1896826
30	0xbdedbba6	-0.11608057
31	0xbe029583	-0.12752347
32	0xbc382880	-0.011240125
33	0xbb2c4603	-0.0026286847
34	0x3e04c58e	0.12965986
35	0xbc179946	-0.009252852
36	0xbe0ca435	-0.13734515
37	0x3e9f59a4	0.31123078
38	0x3e2e2766	0.17007217
39	0x3df97304	0.121801406
40	0x3dec1677	0.11527722
41	0xbd95f372	-0.07321824
42	0x3da72350	0.08161032
43	0xbde12ef9	-0.109952874
44	0x3e2e7f5d	0.17040773
45	0xbe8eda35	-0.27900854
46	0x3e917310	0.28408098
47	0x3e1ca3b2	0.1529682
48	0xbe4e90cc	-0.20172423
49	0xbe162b93	-0.1466506
50	0x3d35fabd	0.044428576
51	0xbe5367d6	-0.20645079
52	0xbe96af23	-0.29430494
53	0xbe530c06	-0.20610055
54	0x3e7acb78	0.2449168
55	0xbe5ad888	-0.21371663
56	0xbe29d3b5	-0.16584666
57	0xbe00fb63	-0.12595896
58	0x3e036054	0.12829715
59	0x3d1f8727	0.03894725
60	0x3da88bea	0.082298115
61	0x3c8a0696	0.016848844
62	0xbe67a3f1	-0.22621132
63	0x3cc75137	0.024330718

weight f4 [64, 64]
0	0xbdbd7ec6	-0.09252696
1	0x3e7cccaa	0.24687448
2	0x3cd0508c	0.025429033
3	0xbe705534	-0.23470002
4	0x3e7984bf	0.24367045
5	0x3e338012	0.17529324
6	0xbd759ac6	-0.059962057
7	0x3de40beb	0.11135086
8	0x3e8902d2	0.26759964
9	0xbdc0bc07	-0.09410863
10	0xbe43efc1	-0.19134428
11	0x3da91e11	0.08257688
12	0xbde1868b	-0.1101199
13	0xbe158c12	-0.14604214
14	0x3cf31cba	0.029676784
15	0x3d9b90f2	0.075960055
16	0xbde4f818	-0.11180133
17	0x3e51a757	0.20473991
18	0x3e8627ce	0.26202244
19	0xbe487cdb	-0.19578879
20	0xbe5df64a	-0.21675983
21	0xbe6392c7	-0.2222396
22	0xbe69474a	-0.22781101
23	0x3e91bea0	0.28465748
24	0xbe513de0	-0.2043376
25	0x3db12615	0.08649842
26	0xbd510bcd	-0.051036645
27	0xbd32697e	-0.043557636
28	0xbe83c707	-0.25737783
29	0x3e044819	0.12918128
30	0x3e38e730	0.18056941
31	0xbdff4912	-0.12465109
32	0x3d933da2	0.0718949
33	0xbe8c659c	-0.27421272
34	0x3d842e3a	0.064541295
35	0xbdcf828d	-0.101323225
36	0x3dc8a69e	0.09797405
37	0x3cf0afde	0.029380735
38	0xbd18088d	-0.03711753
39	0x3e4d0b1c	0.20023769
40	0x3dd880c9	0.10571439
41	0x3e26e9dc	0.16300148
42	0x3ddbc3d2	0.10730709
43	0x3d79f045	0.061020155
44	0xbe86f1c7	-0.26356336
45	0xbd7c287e	-0.061562054
46	0x3ce18128	0.027527407
47	0xbe790363	-0.24317698
48	0xbd1e5481	-0.038654808
49	0x3d838ed8	0.0642373
50	0xbe3d5db4	-0.18492776
51	0xbe11e688	-0.14248097
52	0xbe9d6856	-0.30743665
53	0xbe834e28	-0.25645566
54	0x3d4aa2cf	0.049471673
55	0xbdd835a8	-0.10557109
56	0xbe40c063	-0.1882339
57	0xbda02b72	-0.078207865
58	0xbd803197	-0.062594585
59	0xbce8560d	-0.028361345
60	0xbe8095bd	-0.2511424
61	0x3dabe045	0.083923854
62	0xbdeb387c	-0.11485383
63	0xbdebc48d	-0.115120985
64	0xbe582e81	-0.2111149
65	0x3e65860f	0.2241442
66	0x3d872a0f	0.06599819
67	0xbc34a923	-0.011026653
68	0x3d443042	0.047897585
69	0x3e472620	0.19448137
70	0xbe0c13b5	-0.13679393
71	0x3cb013fe	0.021493908
72	0x3e47088c	0.19436854
73	0xbe33c7f1	-0.1755674
74	0xbe029473	-0.12751941
75	0x3dbb75e5	0.09153346
76	0xbe216b37	-0.15763555
77	0xbe259171	-0.16168763
78	0x3e0575c5	0.13033207
79	0x3df4eec8	0.119596064
80	0xbd650eee	-0.05592244
81	0x3e38986b	0.18026893
82	0x3e041005	0.12896736
83	0xbda31411	-0.07962812
84	0xbe2fde2c	-0.17174596
85	0xbe68073b	-0.22659008
86	0xbe5954d1	-0.21223761
87	0x3d7da3d3	0.061923813
88	0xbe6c6f8b	-0.23089425
89	0x3e1c136d	0.15241785
90	0xbe1079d5	-0.14108975
91	0xbe77e626	-0.24208888
92	0xbd84d0ca	-0.06485136
93	0x3e541f34	0.20715028
94	0x3e719676	0.23592553
95	0xbe008284	-0.12549788
96	0x3df6dd7b	0.12053963
97	0xbda6682a	-0.081253365
98	0x3d1164bd	0.035496462
99	0xbdf9c86f	-0.12196433
100	0x3e67a56d	0.22621699
101	0x3e5d7991	0.21628405
102	0xbe0b80aa	-0.136233
103	0x3df460b9	0.11932511
104	0x3e329900	0.17441177
105	0x3e201c97	0.15635906
106	0x3e09ccdd	0.13457055
107	0x3e6b7eeb	0.22997634
108	0xbcefecb8	-0.029287681
109	0xbe4d996a	-0.20078054
110	0x3e77ff48	0.24218476
111	0xbe2c96d3	-0.1685441
112	0xbdd2882d	-0.1027988
113	0x3e76ce3a	0.24102107
114	0xbe414991	-0.1887572
115	0xbd923f00	-0.071409225
116	0xbe42265e	-0.18959948
117	0xbe4d3d4d	-0.20042916
118	0x3e051f21	0.13000156
119	0x3d36572e	0.044516735
120	0xbd75ac7e	-0.059978954
121	0xbe57fa31	-0.21091534
122	0xbc883627	-0.016627384
123	0xbde96e88	-0.11398035
124	0xbcbca090	-0.02302578
125	0x3e7f3116	0.24921069
126	0xbe64d137	-0.22345434
127	0xbd356334	-0.04428406
128	0x3dea6b13	0.11446204
129	0xbde940bf	-0.113893025
130	0xbe03a505	-0.12855919
131	0x3e09f76a	0.13473287
132	0xbe27999b	-0.1636719
133	0xbe7d81b7	-0.24756514
134	0x3e134f91	0.14385821
135	0xbc95d7df	-0.018291412
136	0xbdbc65eb	-0.09199127
137	0x3c8f48db	0.017490795
138	0x3e2014af	0.1563289
139	0xbe1ceb5c	-0.15324157
140	0x3e2de9c3	0.16983704
141	0x3c95193a	0.018200506
142	0xbd3afb44	-0.04564978
143	0xbe63a961	-0.22232582
144	0x3e27af87	0.16375552
145	0xbd6ce7c9	-0.057838235
146	0xbd3a57ad	-0.04549377
147	0x3de63505	0.112405814
148	0x3e79e3f8	0.2440337
149	0x3e012739	0.12612619
150	0x3d7ac2fb	0.061221104
151	0xbdc46a63	-0.09590604
152	0x3e0e007d	0.13867374
153	0xbe6fd51a	-0.23421136
154	0x3e592966	0.21207199
155	0x3e81c4ff	0.2534561
156	0x3e4e4ae2	0.20145753
157	0xbe1c9065	-0.15289457
158	0xbe739eb7	-0.23791014
159	0x3e76bd35	0.24095614
160	0xbe4c5a93	-0.19956426
161	0x3e3f8b72	0.18705538
162	0xbe822ff1	-0.254272
163	0x3e5724c4	0.21010119
164	0xbdf0d989	-0.117602415
165	0xbc667d3e	-0.014067946
166	0x3e5445ff	0.20729826
167	0xbe8136d1	-0.25237134
168	0xbd0c4f3d	-0.034255255
169	0xbe6fb731	-0.23409726
170	0xbe4f0da0	-0.20220041
171	0xbd8c6149	-0.06854493
172	0x3d91ef25	0.07125691
173	0x3e29d49a	0.16585007
174	0xbdf5ff96	-0.1201164
175	0x3e17bc88	0.14818013
176	0x3d855237	0.06509822
177	0xbd3a68ad	-0.045509983
178	0x3e1a94cd	0.15095825
179	0x3e37cd79	0.17949475
180	0x3e3c704d	0.18402214
181	0x3d9104f6	0.07081024
182	0xbe3f5dab	-0.18688075
183	0x3e19d16e	0.15021297
184	0x3cc331db	0.023827484
185	0x3de8ebdb	0.11373111
186	0x3c986ad6	0.01860563
187	0x3d810945	0.06300596
188	0x3e1966a1	0.14980556
189	0xbe25ee1c	-0.16204113
190	0x3e7429a9	0.23844017
191	0x3e7f8fa6	0.24957141
192	0xbdee28e7	-0.11628895
193	0x3e861230	0.2618575
194	0x3e113a69	0.14182438
195	0xbcb446a9	-0.02200635
196	0x3e3ae14f	0.18250011
197	0x3e0eb7c1	0.13937284
198	0xbddc6f26	-0.107633874
199	0x3d34514f	0.044022854
200	0x3e7a623d	0.24451537
201	0xbce7132c	-0.028207384
202	0xbe814a15	-0.25251833
203	0x3d8ba796	0.06819074
204	0xbd335ca3	-0.043789517
205	0xbde3aaf1	-0.11116589
206	0x3d22ae88	0.039717227
207	0x3da47513	0.08030143
208	0xbe3ba2cd	-0.18323822
209	0x3df3fea9	0.11913807
210	0x3e840c62	0.25790697
211	0xbe5fea1e	-0.21866652
212	0xbe0001b8	-0.12500656
213	0xbddc7b54	-0.107657105
214	0xbe51ae89	-0.20476736
215	0x3e1dbf91	0.15405108
216	0xbe296e6b	-0.16546027
217	0x3e7659bd	0.2405767
218	0xbd589e92	-0.0528856
219	0xbe182dc7	-0.14861213
220	0xbe539e63	-0.20665888
221	0x3d91091b	0.07081815
222	0x3db71f51	0.0894152
223	0xbd0f854c	-0.03503923
224	0x3e7a0e4f	0.24419521
225	0xbe16c085	-0.14721878
226	0x3d15f6ef	0.036612447
227	0xbdd240ae	-0.10266243
228	0x3e06bde0	0.13158369
229	0x3e59a745	0.21255215
230	0xbdbeb55a	-0.09311934
231	0x3e7d62eb	0.24744765
232	0x3e1b5eec	0.15172929
233	0x3e1be6f9	0.15224828
234	0x3e1c8d2c	0.15288228
235	0x3e6acdbd	0.22930045
236	0xbd5d29f0	-0.053995073
237	0xbdab90c1	-0.08377219
238	0x3df0d136	0.11758654
239	0xbe3de3bf	-0.1854391
240	0xbcdb195a	-0.026745487
241	0x3d9f9500	0.07792091
242	0xbdf7f8bf	-0.121079914
243	0xbdd3bb87	-0.103385024
244	0xbde91f53	-0.11382928
245	0xbe5fa45f	-0.21840046
246	0x3e01190e	0.12607214
247	0xbdb6ccb5	-0.089257635
248	0xbe1db7b0	-0.15402102
249	0xbe8e9e40	-0.2785511
250	0xbdb59eeb	-0.08868202
251	0xbe7a3eb2	-0.24437979
252	0xbe32589e	-0.17416617
253	0x3e39d7c7	0.18148719
254	0xbdc72d66	-0.09725456
255	0xbe383cbc	-0.17991918

bias f4 [64]
0	0x3d8dde16	0.06927125
1	0x3e5ed195	0.21759637
2	0xbd141bd7	-0.036159363
3	0x3e22ae54	0.15886813
4	0xbe1cdf44	-0.15319544
5	0x3e2c139b	0.16804354
6	0xbd17a006	-0.037017845
7	0xbdda067f	-0.1064577
8	0x3d87030f	0.0659238
9	0xbe27720e	-0.16352102
10	0x3cc337d8	0.02383034
11	0x3e0d2240	0.13782597
12	0x3bea55a8	0.0071513243
13	0x3e31be54	0.1735776
14	0xbe02a8bf	-0.12759684
15	0x3e7545a2	0.23952344
16	0xbe395764	-0.18099743
17	0xbe15ba01	-0.14621736
18	0xbe153f53	-0.14574938
19	0xbe341354	-0.17585498
20	0xbe2e0b92	-0.16996601
21	0x3dc1e60e	0.094677076
22	0x3d94f3f1	0.07273091
23	0x3e1d3fe5	0.15356405
24	0xbdaf07fa	-0.08546443
25	0xbdece754	-0.1156756
26	0xbd03ffdf	-0.03222644
27	0x3df600a8	0.12011844
28	0x3e25b17d	0.16180988
29	0x3d0b231f	0.03396904
30	0xbd5cf6f0	-0.053946435
31	0xbd069009	-0.032852206
32	0x3e41e0a4	0.1893335
33	0x3d83048e	0.06397353
34	0xbe179482	-0.14802745
35	0xbe732cf5	-0.23747618
36	0x3cb1b9d8	0.021695063
37	0x3e75679c	0.23965305
38	0xbd750163	-0.059815776
39	0xbd1f5123	-0.038895737
40	0x3e5d00f2	0.21582392
41	0x3df41ede	0.1191995
42	0x3e4b8c53	0.19877748
43	0x3da80610	0.08204281
44	0x3d2d7433	0.042347144
45	0x3df3c204	0.1190224
46	0xbe5db12f	-0.21649621
47	0xbca35f5e	-0.019942936
48	0xbe6dce9e	-0.2322335
49	0x3e82892e	0.25495285
50	0xbe33742e	-0.17524788
51	0xbdc2b614	-0.09507385
52	0xbce667f7	-0.028125746
53	0xbe3fa45f	-0.18715046
54	0x3db047e5	0.08607463
55	0xbdb93487	-0.09043222
56	0x3dc7008c	0.09716901
57	0x3e1b03f6	0.1513823
58	0x3e54555c	0.20735687
59	0x3e0bb48c	0.13643092
60	0x3e651389	0.22370733
61	0x3da75132	0.08169784
62	0x3e310458	0.17286813
63	0xbdfbfa31	-0.123035796

weight f4 [1, 64]
0	0xbf5e8bce	-0.86932075
1	0xbf45b568	-0.7722993
2	0x3f54c02c	0.8310573
3	0xbf5cb29e	-0.8621005
4	0x3f6345d0	0.887784
5	0xbf5beaac	-0.85904956
6	0x3f52b59e	0.82308376
7	0x3f4d8772	0.802848
8	0xbf59a24a	-0.8501326
9	0x3f5fba48	0.8739362
10	0xbf4de738	-0.80430937
11	0xbf4c1ff4	-0.79736257
12	0xbf4cba0e	-0.79971397
13	0xbf690dce	-0.9103669
14	0x3f53ad60	0.82686424
15	0xbf519d28	-0.81880426
16	0x3f5913c0	0.8479576
17	0x3f560d70	0.83614254
18	0x3f5a2f32	0.85228264
19	0x3f51459e	0.8174685
20	0x3f4f2c78	0.8092723
21	0xbf631d48	-0.88716555
22	0xbf442724	-0.76622224
23	0xbf56828c	-0.8379295
24	0x3f600fc0	0.8752403
25	0x3f53f700	0.8279877
26	0x3f463b8a	0.774346
27	0xbf66d4ac	-0.9016826
28	0xbf6099ac	-0.87734485
29	0xbf6333ba	-0.88750803
30	0x3f5e2164	0.867697
31	0x3f5b93c2	0.85772336
32	0xbf660fb8	-0.89867735
33	0xbf65eb62	-0.8981229
34	0x3f618890	0.88099
35	0x3f539c28	0.8266015
36	0xbf5e019c	-0.86721206
37	0xbf4babea	-0.79559195
38	0x3f56a76a	0.83849204
39	0x3f59e6ec	0.85117984
40	0xbf498a0a	-0.78726256
41	0xbf53f81e	-0.8280047
42	0xbf51b68c	-0.8191917
43	0xbf5103a8	-0.81646204
44	0xbf5c2840	-0.85998917
45	0xbf5f614e	-0.8725785
46	0x3f60cb62	0.8781034
47	0x3f4e33ac	0.80547595
48	0x3f51aa4a	0.81900465
49	0xbf61545a	-0.88019335
50	0x3f4c3212	0.797639
51	0x3f5e389a	0.8680512
52	0x3f578354	0.84184766
53	0x3f4d49fe	0.8019103
54	0xbf56a032	-0.8383819
55	0x3f65b018	0.8972182
56	0xbf540154	-0.82814527
57	0xbf52561c	-0.8216264
58	0xbf4baffc	-0.79565406
59	0xbf51ebc6	-0.82000387
60	0xbf489f6c	-0.7836826
61	0xbf514202	-0.81741345
62	0xbf56092c	-0.83607745
63	0x3f489624	0.78354096
