output/2021-12-19_ddpg/2021-12-19_10-11-01-ddpg_s0/pyt_save/model.pt (torch_old, 48433 bytes, 11 tensors)

weight f4 [64, 16]
00000000: 0f16 98bd b447 2c3d a1ec 4abe 285c 15be
00000010: e68c 14b8 b0a1 b83b 3ff6 c4bc b795 7a3e
00000020: 387b 6ebd f1ec 583d 51a0 65bd 5dc2 3ebd
00000030: 38e5 70be c9fe fbbd 474f 19be d778 ff3a
00000040: f274 cf40 cc8f 5241 8fe3 f5be 2dcf c1c0
00000050: abca 56c1 4e27 d340 9fef 62bf 2886 343f
00000060: 4391 b33d 1726 2bbe 6da3 313e a569 7fbd
00000070: 749e 0bbf d040 313e de96 983e 7caa 963d
00000080: 4af0 b7bd f5bd f0bd e949 2ebe e3b0 7ebe
00000090: 42c6 01be d897 8d3e fa8f 373d 7e46 b23d
000000a0: 9c66 c8bc de55 49be f03b 153e 9794 c6bd
000000b0: f06a 80be 09dd 46be 210e c83d a63d 983d
000000c0: e05e 22c1 ada6 0d41 de78 ba3d c823 0cc1
000000d0: 457c 1ec1 8b1d 29c1 26a9 e4bf 6eaf 893f
000000e0: 9f46 9f3f adf5 10be f3d4 af3e 0473 083e
000000f0: d58b 903e 49f5 093e e4b7 543e 7950 b93d
00000100: 6e89 0c3e 203f 01bd 4064 1c3c 0044 6d3d
00000110: 00d1 1e3e 48cf 753e 9647 45be eca1 bbbd
00000120: 9838 c93d d01b 543e e8c5 5e3e 22e2 613e
00000130: 78ca 4b3d f89c 5ebe 9066 bc3c ac27 20be
00000140: 8c94 6ebe 3e74 633e f0a6 423e fe5d 7fbe
00000150: 08aa 3f3d c880 2cbd b882 28bd 1c5f eabd
00000160: 8ce4 c43d 34a1 17be dcb1 bb3d 1676 013e
00000170: 5c43 373e 4871 bf3d 4a5f 7dbe 0011 26be
00000180: f353 40c1 cacd 1640 931c de3e e227 2241
00000190: adf8 07c0 c3d3 4ec1 5e50 0b40 1424 5ebe
000001a0: 9a88 603f e3c0 a4be 09e2 03bf 35ed 9dbe
000001b0: 2c60 40bf 6d64 a43e ef04 7a3e 19d5 a0bd
000001c0: 38c9 1bbe 6849 683e d06f 2f3e 64e1 57be
000001d0: 88db 7ebd 80d2 383c 1867 153d d0dd 723d
000001e0: 5cec c83d e059 753c ccd1 f9bd d445 f23d
000001f0: 5691 75be a0bb 17be 3c2b 80bd ec66 f9bd
00000200: 9e87 88be 01f3 31c1 b358 93bf 8dc0 8dc0
00000210: c757 3541 15fa 13bf 07f2 87bf 681c 92bf
00000220: f8bb c83e 0f85 b0bc ad65 21bd eb69 cebe
00000230: 30ac a63e 21d3 89bd fc41 8a3e ef9c 39bd
00000240: 60d7 47be 4acf d3bd d63d 2f3e 2f09 bdbc
00000250: 3cfd 03be 8c84 2bbe 1afb 85be 26a0 6bbe
00000260: 8a19 f4bc a2b9 e03d 75c5 2a3e 3ea0 55be
00000270: 6347 fd3d b77b 69be d863 acbd 3460 09be
00000280: a1f1 4040 cad5 8040 fb9b c5be 78cb 2bc0
00000290: b022 85c0 ef5e 2f40 06bb c5bf fead 813f
000002a0: 3a66 09c0 c392 353c 4c3e 883f 51c7 36bd
000002b0: dc41 243f d0ed 863e a0b3 09c0 248f 993d
000002c0: 9b86 813d c26f 91bd 988e 493e c558 97be
000002d0: 9d37 033d a0a4 c33c 603e 183d 64fe 953c
000002e0: 968b 843d ab0b 28bd 3109 573d 0c17 87bd
000002f0: 7c9a c1be b20b 0ebd 9a03 0e3d 95a7 dcbb
00000300: afc1 6bc0 d239 c340 9687 5b3e 6fa1 08c0
00000310: 6043 b3c0 6496 60c0 debc 04bf 21c1 84be
00000320: 15df 0a3e 7b89 39be f418 eabd be06 58be
00000330: 32d3 3fbf 5eed e8be ff42 02bf 58b5 8abd
00000340: c7b6 f23f 551e 8040 caf5 293e 61d7 6340
00000350: 152a 91c0 9b39 223f 84ce 683e b373 8a3f
00000360: bc32 563f e1b8 72bd e9ba b33f fcef 473f
00000370: 9779 6d3e b8d2 093f 17ca 143f 699a 8d3c
00000380: 6966 4340 b5db 0a40 b080 59be e29d 2ec0
00000390: 155d 10c0 3a0b 3140 9beb cbbe 0375 613f
000003a0: acb2 4abd c35e 873d aee6 d63e bde5 ffbd
000003b0: 17a8 dabc 3d60 4b3c 2e18 57bf f2ad c7bd
000003c0: 3460 e73d 9ecf c33e c1ca bdbd 9157 8ebc
000003d0: 8a1b a8bc d526 4ebe 490d 003e 324c 98be
000003e0: 3227 68be 44c7 cbbd eebb 9abd 2c9a 4dbd
000003f0: 6a7f 063e 0887 3abe d752 acbe 752d 30be
-0.07426082 0.04206057 -0.1981683 -0.14585936 -3.541717e-05 0.005634509 -0.0240432 0.24471174
-0.05822298 0.05296034 -0.056061093 -0.046572078 -0.2352494 -0.12304456 -0.14971648 0.0019490969
6.4830256 13.160107 -0.48025176 -6.05654 -13.4244795 6.598548 -0.8864688 0.70517206
0.08767941 -0.16713749 0.17347498 -0.06235661 -0.54538655 0.1730988 0.29802603 0.07356736
-0.089813784 -0.117549814 -0.17020382 -0.24872164 -0.12673286 0.2765491 0.04481504 0.087048516
-0.02446299 -0.19661662 0.14573646 -0.0969631 -0.25081587 -0.19420256 0.0976832 0.074336335
-10.148163 8.853192 0.09105085 -8.758736 -9.905339 -10.569713 -1.786412 1.0756662
1.2443427 -0.14156218 0.34342155 0.13325125 0.28231683 0.13472475 0.20773274 0.09048552
0.137243 -0.03155434 0.009545386 0.057926178 0.15509415 0.24004853 -0.19265589 -0.091617435
0.098252475 0.20713735 0.21755183 0.22058919 0.049753636 -0.21739566 0.022998124 -0.15640134
-0.23298854 0.22212312 0.19008994 -0.24938199 0.046793014 -0.042115003 -0.041140288 -0.11443922
0.09613904 -0.14807588 0.09164783 0.12642702 0.1789679 0.093477786 -0.24743381 -0.16217422
-12.020495 2.3563104 0.43381175 10.134737 -2.124553 -12.9267 2.1767802 -0.2169345
0.8770844 -0.3217841 -0.5151678 -0.30845037 -0.75146747 0.3210787 0.24415945 -0.07853145
-0.15213478 0.22684252 0.17132497 -0.21082073 -0.06222108 0.011280656 0.03647527 0.059293568
0.09810707 0.014975041 -0.12198219 0.11829725 -0.23981223 -0.14817667 -0.06258246 -0.12177834
-0.26665968 -11.121827 -1.1511444 -4.4297547 11.33393 -0.5780347 -1.0620736 -1.1414919
0.3920591 -0.021547822 -0.039403606 -0.40315184 0.32553244 -0.06729723 0.27003467 -0.04531568
-0.19515753 -0.103422716 0.17113432 -0.023075668 -0.1288957 -0.16749781 -0.26168138 -0.2301031
-0.029797334 0.10972907 0.16676886 -0.20861909 0.123671316 -0.228011 -0.08417481 -0.13415605
3.0147479 4.0260973 -0.38595566 -2.6842937 -4.1604843 2.7401693 -1.54477 1.0131223
-2.1468644 0.011082354 1.0644011 -0.044623677 0.64162993 0.26353312 -2.1515884 0.07498005
0.06324502 -0.07101394 0.19683301 -0.29559913 0.03203546 0.02388221 0.03716886 0.01830978
0.064719364 -0.041026752 0.052499 -0.06596193 -0.37813175 -0.034679122 0.034671403 -0.0067338445
-3.6836965 6.100808 0.2143844 -2.1348531 -5.6019745 -3.509179 -0.5185069 -0.25928596
0.13561662 -0.18118851 -0.11430541 -0.21096322 -0.74931633 -0.45493597 -0.5088348 -0.0677287
1.8962029 4.0037026 0.16597667 3.5600207 -4.536387 0.6336915 0.2273503 1.0816559
0.83671165 -0.059258346 1.4041415 0.7810056 0.23190914 0.53837156 0.58120865 0.017285543
3.0531256 2.1696599 -0.21240497 -2.7283864 -2.2556813 2.7663102 -0.3982819 0.8806917
-0.0494868 0.06609871 0.4197287 -0.12494991 -0.02669148 0.012413082 -0.8402127 -0.09749974
0.11297646 0.38244337 -0.09267188 -0.01737574 -0.020520944 -0.20132 0.12505068 -0.29745632
-0.22671202 -0.09950116 -0.07555376 -0.050195858 0.13134542 -0.18215573 -0.33656952 -0.1720484

bias f4 [64]
00000000: b74b 0bbd e8e4 56be e169 5ebe 04ff f53b
00000010: 70a8 adbd dab2 303e aa79 a83e 10f6 143d
00000020: a416 00be 6d53 e1bd 4598 e6be 385e f6bd
00000030: 4fc9 75be c423 5dbe 67d3 ccbe 0eda a63d
00000040: b407 23be dbe9 1bbe d226 acbd 8b6c 36be
00000050: 4060 a6bd 0744 0abe 688b 243e afe8 92bd
00000060: 0c1b f8be b4fb 943e a887 77be 3e9a 983c
00000070: e492 223e bd10 bf3e d37e b6be 01e5 febd
00000080: a538 6bbe 744a c63d 88b1 fd3e e53a f9bd
00000090: 7038 0dbe b43b 2f3e d069 d53d 40dc 1d3e
000000a0: 54dc d5bd 7e5e 24be 500d f0bc b2be 2d3d
000000b0: 7b17 70bd 3c42 013e b5cc 183d 5542 8e3d
000000c0: cd9f 573e 5d14 45be e601 eebc dcb3 94be
000000d0: dcdb b8be 3e59 d1be 8c85 8f3e e98e c1bd
000000e0: 1458 37bd f660 22bf d90d f43d c0d9 e4bc
000000f0: a91d adbc 155c e33c f744 d73d 57b5 1cbe
-0.034007754 -0.20985758 -0.21720077 0.007507207 -0.084793925 0.17255726 0.32905322 0.036367476
-0.12508637 -0.1100224 -0.45038047 -0.120296896 -0.24002574 -0.21595675 -0.40005037 0.081470594
-0.15920907 -0.15225928 -0.08405842 -0.17814843 -0.08123827 -0.13502513 0.16068804 -0.07173287
-0.48458135 0.29098284 -0.24172843 0.018628236 0.15876347 0.37317458 -0.35643634 -0.12446023
-0.22970827 0.096821696 0.49549508 -0.12169436 -0.1379106 0.17112619 0.10420573 0.1541605
-0.10442415 -0.16051671 -0.029303223 0.04241819 -0.058616143 0.12622923 0.0373046 0.069462456
0.21057053 -0.19246049 -0.02905364 -0.29043472 -0.3610524 -0.408884 0.28031576 -0.09451086
-0.044761732 -0.634292 0.11916704 -0.027935863 -0.021132307 0.02775387 0.10511201 -0.1530355

weight f4 [64, 64]
00000000: 891a 093d a67a 1f3f 0431 39bd 40bb d63e
00000010: 6c4f 4dbd 76fc 9e3d 940c dbbf 087d eebc
00000020: cb1a 96be 20ec eabd a43c 9d3f 006e 4ebc
00000030: ce95 e73d d62c f93e f9a4 c0be baec bc3d
00000040: 8081 adbd 7b1e 763e 4ccd c8bd 32f0 d9bd
00000050: 1a35 063c ed8f 213f 1c43 edbf b8e9 f6bd
00000060: 0516 17bf 7d32 cf3f 424f fcbd 6e23 13bf
00000070: e0ea 813c bb4b 3c40 9dd0 ca3e 1a54 4fbd
00000080: 4d9e d8bf e8a0 e8bd 8703 f2be 7048 063c
00000090: 9866 f1bd 80ed 8fbc c64c a5bd 0078 b1bd
000000a0: 5c3b 493d 620a c5bd 6c01 c2bd 753a 713f
000000b0: c076 a43c 7a24 e93d f4da 08bd 4ff5 1ec0
000000c0: 4743 083e 00c9 253a 1d89 adbf 18ff febd
000000d0: b0d1 11bc 2161 d03e f8e0 923f 8415 82bd
000000e0: 029a 6e3d 7623 913f 9723 e13f 1631 c6bd
000000f0: 2f9d 7a3d eee3 dabd 2c64 9d3d 8456 f2bd
00000100: 622f d7bd f0c7 e8be 9cb9 c93d e94a 58bf
00000110: f061 64bd 20d7 e03d 1a8c 6d3e 1c1d 543d
00000120: 2b8b 64be a403 21bd 2c9a 0cbf dcd2 d73d
00000130: 1c80 543d 4daf 7ebf b018 a53c 004f bcba
00000140: 885d 52bd cd1b 7cbe c0e6 29bd 36c9 c93d
00000150: a283 b7bd 2b1b 363d 252f 6dbe c082 0e3b
00000160: 4538 da3b d9f9 633d c880 f6bc aa01 7b3d
00000170: 30bd b7bc 433b 8dbe 6cd4 ce3d 5e31 f9bd
00000180: 4eb3 d5bd 7247 d0bd 6f3c 123e 767e c73d
00000190: e064 e03d b6dc debd 8077 b1bb 6a43 963d
000001a0: 34b0 613d cab0 d13d 403b 63bb bb9f 463d
000001b0: 105a a93d 8092 2fbd a28d 843d 06ea 93bd
000001c0: 1719 f83b c840 e63d 2d40 40be 06fa e8bd
000001d0: c656 a9bd ecb1 53bd 7508 1bbf cca1 f53d
000001e0: 80e0 34bc 6aa3 39bf abd9 1abf c467 8dbd
000001f0: fce3 503d da4b dfbd f8b1 eebd d85a fcbd
00000200: 5c79 143d d269 773f 717b f3bc 3bb9 9b3e
00000210: acf9 bc3d e0c9 943c 3fa3 6c3f a04f 173c
00000220: f500 253e 6534 813d c1ae 04be d16c 883d
00000230: 45f8 733f 91d1 b13e 3ab8 19be 1954 4d3e
00000240: 58d8 49bd 4196 aabe 5a1b c03d 9302 d1bd
00000250: 1403 c13e ffa5 223e 8d1b 1b3e 333c 12be
00000260: d2b8 fdbf ed51 e03f 4210 b43e 4ba7 f4be
00000270: c6c2 8ebd 39af 673f 56c9 e5be 4ef1 9dbe
00000280: 8473 9fbe 00d4 cbbc 01aa 043e a7b6 d93d
00000290: bc55 693d f0fc e9bd 34d3 803d c5ae 393e
000002a0: b26a c63d f486 fcbd b071 9d3d 6814 6c3f
000002b0: c1a4 eebd 5f1b 073d 1bc2 013e 92a4 763e
000002c0: c649 f9bc 1055 d63d 50f7 43bb 5110 8c3d
000002d0: 81ec a13d 707c de3e af42 fd3f 6bd6 993d
000002e0: 8274 fabd 4c6d e6be f843 f53e d417 18bd
000002f0: 8885 293e 7254 b13d 9cf2 a63d 92e6 e03d
00000300: a03b bfbd 2cc8 223d 4dc0 78bc 739d 6a3c
00000310: c0a4 833d 70ba 4bbd 8ef0 e1bd ae34 d63d
00000320: 2b0b 89be 6742 b0bd d48e c53d 4d77 283d
00000330: 6a07 79bd fa8a c9bd 7720 c13c 19dd 9cbc
00000340: 9089 403d e00f 92be 5e97 033e cdb3 2abe
00000350: 841e fdbc 47e9 95bc 39e0 24be 7a98 643d
00000360: 4c23 093c 9b6f bb3d 5180 d43c 1138 acbe
00000370: 5805 e5bd 8a8c b23d 7fb7 dcbc 2696 75be
00000380: 5aab b1bd 9e08 babd 758c 0bbe b619 733c
00000390: fc64 fcbd 5a41 b4bd 069f bd3d d435 653e
000003a0: a05e ffbb 680c b73c e0b0 9bbc 6e81 95bd
000003b0: 258e 97be af13 863d 6b35 5e3c 85be 5bbe
000003c0: f1a3 76bd d8a0 8bbd eaab 20be 6d54 31be
000003d0: de2b 0f3d 5f8c 84bd 368e 38be 5c68 cabd
000003e0: 34d6 adbd dff9 ffbd 2da7 453d 90f9 0c3d
000003f0: 6511 02be 155f 1a3b ac58 143c b987 0c3e
0.03347257 0.6229652 -0.04521276 0.41939735 -0.05012457 0.07762997 -1.7113214 -0.029112354
-0.29317316 -0.114708185 1.2284131 -0.012599468 0.1130787 0.4866702 -0.37625864 0.092248395
-0.08471966 0.24035065 -0.09804782 -0.10641517 0.008191371 0.6311024 -1.8536105 -0.12056297
-0.59017974 1.6187283 -0.12319805 -0.57475936 0.015859067 2.9421222 0.39612284 -0.050617315
-1.692331 -0.113588154 -0.47268316 0.008195981 -0.11787146 -0.017569304 -0.08071284 -0.08665466
0.049128875 -0.09621121 -0.094729275 0.94229823 0.020076156 0.113839105 -0.033411935 -2.4837224
0.13306914 0.0006324202 -1.3557469 -0.12450999 -0.008900091 0.40699103 1.1474905 -0.0635176
0.058252342 1.1338947 1.7588986 -0.09677331 0.06118506 -0.106880054 0.07685122 -0.11832908
-0.105070844 -0.4546504 0.09849855 -0.84489304 -0.055757463 0.10978532 0.23197976 0.051785573
-0.22318713 -0.039310113 -0.5492275 0.10538265 0.051879987 -0.9948624 0.020153373 -0.0014366806
-0.05135873 -0.2461998 -0.041479826 0.09852831 -0.08960654 0.044459503 -0.23162515 0.0021745414
0.00665954 0.055658195 -0.030090705 0.061280884 -0.022429079 -0.27584276 0.1009911 -0.12167619
-0.1043459 -0.10169877 0.14280866 0.097409174 0.109567404 -0.10881941 -0.005415857 0.07337077
0.05509968 0.10238798 -0.0034672767 0.048492175 0.08269131 -0.042864323 0.06472327 -0.07222371
0.0075713503 0.11242825 -0.18774481 -0.11375813 -0.08268504 -0.05168335 -0.6055978 0.11993751
-0.011039853 -0.72514975 -0.60488385 -0.06904557 0.050998673 -0.109031394 -0.116550386 -0.123220146
0.03624855 0.96645844 -0.029721947 0.30414757 0.09227309 0.018162668 0.92436594 0.009235293
0.16113646 0.063088216 -0.12957288 0.0666138 0.95300704 0.347302 -0.15011683 0.20051612
-0.049278587 -0.3331776 0.09380217 -0.10205569 0.3769766 0.15883635 0.15147229 -0.14280777
-1.9822028 1.7525002 0.35168654 -0.47783884 -0.06970744 0.90501744 -0.4488017 -0.30848163
-0.3114282 -0.024881363 0.12955476 0.10630541 0.05696653 -0.11425197 0.06290284 0.18133076
0.09688319 -0.12330428 0.076877 0.9221864 -0.11652518 0.032985087 0.12671702 0.24086216
-0.030430686 0.10465443 -0.0029902048 0.068390496 0.07906438 0.43454313 1.9785975 0.075116
-0.12229253 -0.45005262 0.4790342 -0.0371321 0.16554844 0.08658685 0.08151743 0.10981478
-0.093375444 0.03974168 -0.015182567 0.014319765 0.06427908 -0.049738348 -0.1103221 0.104592666
-0.26766333 -0.08606415 0.09646383 0.0411294 -0.060798086 -0.09840961 0.02357505 -0.019148396
0.04700619 -0.28527737 0.12850711 -0.16670151 -0.03089834 -0.018299712 -0.16101159 0.055809475
0.008370232 0.091521464 0.025940092 -0.33636525 -0.1118266 0.08718212 -0.026942967 -0.23983058
-0.08675261 -0.09083675 -0.13627799 0.014837673 -0.12323949 -0.08801527 0.09258847 0.22383815
-0.0077932626 0.022344783 -0.019005239 -0.073000774 -0.29600635 0.06546723 0.0135625405 -0.21459396
-0.06021494 -0.06817788 -0.1569058 -0.17317362 0.034953944 -0.06472086 -0.18022999 -0.09883186
-0.08488122 -0.12498831 0.048255134 0.03441769 -0.12701948 0.0023555208 0.009054344 0.13723649

bias f4 [64]
00000000: 6af9 b8bf 14f8 8ebe 7129 4bbe 8537 1ebe
00000010: e09e 513d 358c 4e3f 4991 d93e 9b21 26be
00000020: 3b91 2ebe 9c26 21be eef5 3fbd 4ded 60be
00000030: ed07 abbe 3470 12bd 5a99 403e dda8 603f
00000040: 3d99 92bf 0fc6 0abf 842b 1ebf 38ce 32be
00000050: 11a5 5d3d 0bee cebc 54a8 a53d 7886 88bd
00000060: 9f6b ffbc 35ec ed3e fec8 09bf 9705 c73e
00000070: 81bd 8e3e d8e8 b23e 0a66 653f ba77 9b3e
00000080: d9f2 203e c84e dbbb 8228 60be c70b 60bd
00000090: 6256 54be 4f91 a63d 5a4b 983e 39c2 8cbe
000000a0: 80b4 203f 124f 0bbe 1738 8cbc 9874 94be
000000b0: 068e a7be 126e 58bf 740f 833e 2935 2e3f
000000c0: 09c6 43bf 7a30 da3d 3a65 aebd 7f82 c5bd
000000d0: 24a2 0dbe 58f3 ba3e 0311 763c efbe fb3e
000000e0: 51ce d9b9 3c91 fdbd c8b9 1ebe a6a1 b1bd
000000f0: 6e22 fc3e 6649 f5be 59c2 43bf 3afc 2e3f
-1.4451115 -0.27923644 -0.19840027 -0.15450867 0.051176906 0.8068269 0.42493656 -0.16223757
-0.17047589 -0.15737385 -0.046865396 -0.21965523 -0.33404484 -0.035751536 0.18808499 0.87757665
-1.1453015 -0.54208463 -0.6178515 -0.17461479 0.054112498 -0.025259992 0.08088747 -0.06666273
-0.031179247 0.46469274 -0.53822315 0.38871452 0.27878955 0.3494327 0.89608824 0.30364782
0.15717639 -0.006692741 -0.21890453 -0.05469873 -0.20736077 0.08133184 0.2974499 -0.2749193
0.6277542 -0.13604382 -0.01711659 -0.28995204 -0.32725543 -0.84542954 0.25597727 0.68049866
-0.7647405 0.106537774 -0.08515401 -0.09644031 -0.13831383 0.36513782 0.015018704 0.49169108
-0.00041543183 -0.12381217 -0.15500557 -0.0867341 0.49245018 -0.4790756 -0.76468426 0.6835362

weight f4 [3, 64]
00000000: 82df 13c0 58a3 80be 0487 603f da1c 6bbd
00000010: 47cd f8be eade 0d40 9e01 a4be d6b8 1cbf
00000020: f9e1 db3f 8742 293a b632 fdbc de30 883c
00000030: 8cbf fe3f 2f29 82bd 1f60 3bbe d75b 9f3e
00000040: dfcc c6be e8fc 673f 8db9 aa3f 288f 0bbf
00000050: 9a97 a6bd 0c11 8b3d 75d6 833d 02a5 8ebd
00000060: c6ca aebf d3c7 973f 0be1 d9bf e532 4ebf
00000070: 7e0f 35c0 7577 44bf 52ba 1e3f 328d 0140
00000080: 7b95 75be bf19 b23d 1ba2 5fbd 2038 81bd
00000090: ee82 2d3e e037 823c d800 ddbf 1810 d0be
000000a0: 536c f73f 9e76 47bb 4eaf 903d 0af9 1bbf
000000b0: 5670 52bf 6b58 383f 4c6a 953f 4727 29bd
000000c0: b14f 943e 32e8 7abe eb8d 61bc 5ce5 ff3f
000000d0: 6222 a2bb 10f2 babf 0de4 e43c fe07 c73f
000000e0: 67e3 033d ca1e 223e bb9e 64bf 43c2 88bd
000000f0: 205f 973f d83b c13f bb44 e03f 8364 75bf
00000100: c5b7 13c0 6554 b83e fa03 aebf 906e 53bd
00000110: fad3 3e3f 6153 03bf db43 c2bd 5903 b73e
00000120: 48a3 59be 3673 823d d06b e33c abeb 3a3c
00000130: 0354 9ebf 2d41 11bb a521 a7bf c579 913f
00000140: 799f 08bf 7c79 f6bf d2f7 37be 678d 963f
00000150: 5338 d3bd a28a 0ebb a1ce cd3c 133a 4f3c
00000160: 3176 bf3e b066 4a3e 5c62 3440 e2af 72bd
00000170: c9c4 e33f 14d5 4b3f f8a7 2b40 6373 8bbe
00000180: c933 c4bf cad9 4f3d 8b81 82bd 535b 28bb
00000190: 0b18 a0bc ac55 b4bd 770f 7640 81aa 5b3d
000001a0: c8ff 77bf 7bdd fd3c 4ec1 303c 88af a2bf
000001b0: 5375 11bf ecb8 2440 bf9e c63f d9d4 0ebc
000001c0: 877d 88be 9291 c83c 761e 2f3e 5c04 3dc0
000001d0: 0be4 903d 121a da3f 8fb9 633b 6345 8cbd
000001e0: f8c9 97bd a29f 733d 2746 cc3f d9c9 093e
000001f0: 5095 f6bf de99 9bbf b6f9 45bf 1453 4940
00000200: 219e 37bf ceb5 b9be b4e5 71be 8db7 35bd
00000210: 5a33 52bf bf73 f03f 3117 9e3f 4362 033f
00000220: cd2a 2c40 ea19 873d 6422 f43c ade7 c2bb
00000230: 3e47 84bf 2318 423d 9d48 3dc0 1e46 03c0
00000240: 84d9 3abf c227 a0be 6a9c 663f c251 1cc0
00000250: f889 9f3c 21a0 3fbd a4f7 363c 6621 b1bd
00000260: 3788 ab3d 7282 35c0 5361 ac3d 51bb 2640
00000270: b72e 2cbe 72e8 7c3f 4159 683f da8f ebbf
00000280: ca29 c23f a097 76bc 8bc2 353d 76f6 49bc
00000290: a682 cc3d a02c 9a3b 864b a9be 8514 1cbe
000002a0: b801 64bb 50d5 e2bc 17c6 bcbd 6c24 b6be
000002b0: 727a 9e3f c01e 57c0 d457 c43f 82a6 1340
000002c0: 8fb6 99bf f617 2240 657d 8c3d 105f 873f
000002d0: 9260 5dba e5dd 84bd cc8d 553d 42b1 6cbd
000002e0: caa3 a03d dfaa c4bb 120e 07bf 6433 bf3e
000002f0: f775 7abe 5b9f 8ec0 a8e1 2fc0 462b 30bf
-2.3105168 -0.2512462 0.8770602 -0.057400562 -0.48594114 2.2167306 -0.32032484 -0.6121954
1.7178336 0.0006456752 -0.03090797 0.016624864 1.9902205 -0.063555114 -0.18298386 0.31124756
-0.3882818 0.9062028 1.3337876 -0.54515314 -0.081343845 0.06790361 0.06437389 -0.069650665
-1.3655632 1.1857857 -1.7021803 -0.8054641 -2.8290706 -0.76744777 0.6200305 2.0242429
-0.23982804 0.08696317 -0.054597955 -0.06309533 0.16944477 0.015895784 -1.7265882 -0.4063728
1.9329933 -0.0030435692 0.07064687 -0.6092688 -0.8220266 0.72009915 1.1673064 -0.041297223
0.2896705 -0.24502638 -0.013766746 1.999187 -0.0049479464 -1.4605122 0.027940774 1.5549314
0.03219929 0.15832058 -0.89304703 -0.066776775 1.1825905 1.5096388 1.7520975 -0.95856494
-2.3080914 0.36001888 -1.3594964 -0.051619112 0.745422 -0.512991 -0.09485599 0.35744742
-0.21253693 0.06369631 0.02776137 0.011408727 -1.2369388 -0.0022164092 -1.3057142 1.1365286
-0.53368336 -1.9255824 -0.1796563 1.1761903 -0.10313477 -0.0021750112 0.025122942 0.012648123
0.3739486 0.19765735 2.8185034 -0.059249766 1.7794429 0.79622006 2.682127 -0.2723647
-1.5328304 0.05074481 -0.063723646 -0.00256892 -0.019542715 -0.08805403 3.844694 0.053629402
-0.96874666 0.0309894 0.010788275 -1.2709818 -0.5681965 2.5737867 1.5517195 -0.008717739
-0.2665827 0.024483476 0.17101464 -2.953391 0.07074746 1.7039206 0.0034748053 -0.06849172
-0.07411569 0.05947841 1.5958909 0.13455905 -1.9264317 -1.2156332 -0.77334154 3.1456957
-0.7172566 -0.36271518 -0.23622781 -0.0443645 -0.82109606 1.8785323 1.2350827 0.5132181
2.6901124 0.065967396 0.029801555 -0.005948028 -1.0334241 0.0473863 -2.957557 -2.0511546
-0.7298815 -0.31280333 0.9008242 -2.44249 0.019474968 -0.04678357 0.011167441 -0.08648948
0.0837559 -2.8360868 0.084170006 2.605183 -0.16814695 0.98792183 0.9076119 -1.8403275
1.5169003 -0.015050799 0.044374984 -0.012326827 0.09985857 0.0047050267 -0.33065432 -0.15242203
-0.0034791064 -0.027689606 -0.0921747 -0.35574663 1.2381117 -3.3612518 1.5339303 2.3070378
-1.2008837 2.5327125 0.068598546 1.0575886 -0.0008444871 -0.064876355 0.05213718 -0.057786234
0.0784374 -0.0060018147 -0.52755845 0.37343895 -0.24459063 -4.4569526 -2.748148 -0.6881603

bias f4 [3]
00000000: b67a 0c3e f8e8 cb3e 6101 963e
0.13718686 0.3982618 0.29297927

weight f4 [64, 19]
00000000: 2eaa cabd de12 c33d 61d9 59be 1224 ee3d
00000010: dfe5 473e 6068 28be 34c1 6fbd f4f6 5f3d
00000020: 9bdf 60be b2a3 14be 8267 a33d 8136 5d3e
00000030: e65c 8cbd 00ed 08bb 2ac7 62be 2f7d 61be
00000040: 5f4e 4c3e 375b 473e 9831 8fbd de78 0340
00000050: 87e5 72c0 27c3 1ec0 c625 8240 7199 8140
00000060: 1024 d53f 16c8 473e 4b62 31bf a6a8 d9be
00000070: 5e5d f03d 6ead dd3c 96ba 8c3e d7d8 1e3f
00000080: a4b0 9ebe 4c84 5bbe 9e9c 4d3d 9e51 183d
00000090: b1db 28ba 20c1 8e3c 2262 0741 b8ee b7bf
000000a0: 93c8 0a3f 01ac 5440 1b78 0740 1db8 0741
000000b0: 69a2 503f 3821 72be 4991 56bf abde 52be
000000c0: ef72 afbe c237 243e d036 bdbe 1153 133e
000000d0: 36f2 56be c901 2c3e 7c9a 153d b017 f03c
000000e0: ae46 babc 4afc 22be b507 5e3e fdab 4b3e
000000f0: 03a0 39be e046 08be d2a7 e03d 868c 10be
00000100: 49bc 1f3e 5d2d e0bd 84d2 91bd 6ae0 86bd
00000110: 711f 603e cae1 9ebd d4b7 36bd 4b25 0e3e
00000120: 6bbb 20be 00d8 90ba 8c75 35be e7d3 58be
00000130: 46de c53f a4c4 4fbe c4be ac3e 773d 55c0
00000140: 9059 9d3e 00dc 2240 f849 08be ff9d c2be
00000150: 8c51 2cbf a90d c1bd 8cde c23d 48a0 73be
00000160: fc18 483e fcdb b9bf 418e 573e 6838 663b
00000170: 030f 09bd a970 413c 1528 113d 48f9 2ac0
00000180: 85e8 23c1 785a 683d 1f4d 1ac0 5465 3741
00000190: fa78 4bc0 3aa0 fb3d 642c 49bf e1a4 b43e
000001a0: a499 40be e66d 8cbe 380d ea3e 3e39 9dbc
000001b0: bba6 c3bd ddb9 1bbd e1ae 85be fd0a 613e
000001c0: c715 d03c 3955 6dbe c387 0ac1 a3b6 2040
000001d0: a584 4abf 9650 ae40 a3cd 31c0 e2f9 04c1
000001e0: 0738 af3f 6506 b73e d0c7 2b3f dac2 07be
000001f0: 985e 30bd d689 253d f36c c5bd 2070 563e
00000200: 3650 bf3e 39fa 4abe c773 fabc f2d8 cfb8
00000210: bf31 ae3c 54d0 26be 007a a4ba 8b44 2a3e
00000220: cbfe 1b3e 19b8 4f3e 3246 a03d 0262 b63d
00000230: 14fe 7b3d 0b8b 2b3e 328d f63d f2a2 8a3d
00000240: a6ef a3bd 1e63 e3bd f052 68bd 3e3a e03d
00000250: 54c1 ffbd 665d 803d 9988 4d3e 51eb 463e
00000260: e0f5 2cbe deeb 853d dd9b 193e 6a62 55be
00000270: 7524 163e a360 12be 20dc 29be d029 c7bd
00000280: 6ab9 b0bd ba40 c2bd 7a44 873d 8e04 b63d
00000290: 629a b63d 5f32 223e 18a3 14be a810 5fbe
000002a0: f875 3cbe 6f1e 01be 1ee9 d6bd 05d8 abc0
000002b0: 3f6c 0040 a456 bc3c 83c4 fcbf cb4a 5fc0
000002c0: d7c7 c0c0 ea67 a6be fae2 1f3f 89c2 1a3f
000002d0: 8d5c 8fbe f497 e73b 9f69 27be 04ea 7cbd
000002e0: 5ae7 c13e 1fcf cdbe 9cab 043d 8d1c efbc
000002f0: 10b5 e23c 4f61 9cbd 72dc d0bf 1e66 2240
00000300: cc82 813f a850 44c0 2c30 04c0 66c7 b6bf
00000310: be45 78be 6d7e 3dbe 524c 13be 5ae2 90be
00000320: 0e1d 3ebe 20cf 99be f589 0bbe 4a90 d4be
00000330: caf2 d6bd 5cf7 b5be c767 ab3d 31d2 a8bd
00000340: 31b6 14bc 347a 123d 1699 eb3d 4031 703c
00000350: 40f8 f8bb 1597 0b3e c1ac 3b3e 0eef 82bd
00000360: 1291 48be f8d0 00be 87e1 273e c86b a33c
00000370: 6126 493e b05b a4bd f597 5ebe 56e8 913d
00000380: d637 c8bd 3073 0cbe c175 123e 00b2 823c
00000390: f08b 6bc0 9047 2541 dd2a d2be 66fa aec0
000003a0: 51d4 39c1 1a11 2cbf cbd3 ddbe 5956 be3e
000003b0: 60ba 91be da74 7dbe 932b 8b3e 20d6 bcbd
000003c0: 816f 1fbe e65b 833d 1600 d33d 762f 8dba
000003d0: b6f7 bebc f1e4 013c 0a8c 50bd 05fc 4c3e
000003e0: bdb2 263c 9fc4 28be c3d4 b13d 3281 62be
000003f0: dc9d 3c3e a57b eb3d 73fd b13d 821a 433d
-0.098957404 0.09525083 -0.2127433 0.116279736 0.19521283 -0.16446066 -0.058533862 0.054678872
-0.21960299 -0.1451557 0.07978727 0.21602823 -0.068536565 -0.0020893216 -0.22146288 -0.2202041
0.19951771 0.1946839 -0.06991881 2.0542521 -3.7952592 -2.4806612 4.067111 4.0499806
1.665163 0.1950992 -0.6929061 -0.4251148 0.117365584 0.027060237 0.27486104 0.6204962
-0.3099414 -0.21437186 0.05019819 0.03718721 -0.0006441428 0.017426074 8.461458 -1.4369726
0.542123 3.3229983 2.1167057 8.48245 0.8149782 -0.23645484 -0.8381544 -0.20592754
-0.34267375 0.16036895 -0.3695588 0.14387156 -0.20990834 0.16797556 0.03652428 0.02930817
-0.02273878 -0.15916553 0.21682627 0.19889827 -0.18127446 -0.13308287 0.10969509 -0.14116105
0.15599169 -0.10946152 -0.07120231 -0.06585772 0.21886994 -0.077579096 -0.044608906 0.13881414
-0.15696494 -0.0011050701 -0.17720622 -0.21174584 1.5458457 -0.20289856 0.33739293 -3.3318765
0.30732393 2.5446777 -0.13309467 -0.38011166 -0.6731193 -0.094264336 0.09515104 -0.23791611
0.19540781 -1.4520259 0.2105036 0.0035128836 -0.033461582 0.011806645 0.035438616 -2.671465
-10.244267 0.056726903 -2.410957 11.462238 -3.1792588 0.1228642 -0.7858336 0.35282043
-0.18808609 -0.27427596 0.4571321 -0.019192334 -0.09553286 -0.03801905 -0.26109985 0.21976848
0.02540101 -0.23177041 -8.658145 2.5111473 -0.7910865 5.447337 -2.778176 -8.311007
1.3688973 0.35747066 0.67101765 -0.13257924 -0.04305896 0.040414654 -0.09639921 0.2094121
0.37365884 -0.19822015 -0.030572785 -9.9109384e-05 0.021263955 -0.16290408 -0.0012548566 0.1662771
0.15233915 0.20285071 0.07825889 0.08905412 0.061521605 0.1675226 0.120386496 0.067693606
-0.08004694 -0.111028895 -0.05671972 0.10948609 -0.12488046 0.06267814 0.20071639 0.19425704
-0.16890669 0.06539129 0.15000863 -0.20838323 0.14662345 -0.14294676 -0.16587877 -0.09724772
-0.08629115 -0.09485002 0.06604858 0.088875875 0.08916165 0.15839528 -0.1451534 -0.21783698
-0.18404377 -0.12609266 -0.10493682 -5.3701196 2.0066068 0.022990532 -1.9747471 -3.48894
-6.0243945 -0.32501155 0.62455714 0.6045309 -0.28000298 0.007067675 -0.16348885 -0.061746612
0.3787182 -0.40197083 0.032390222 -0.029188419 0.027674228 -0.07635748 -1.6317275 2.5374827
1.0118041 -3.0674229 -2.0654402 -1.4279602 -0.24245355 -0.18505259 -0.14384583 -0.28297693
-0.18565771 -0.30040836 -0.13626845 -0.41516334 -0.10495527 -0.35540283 0.08369403 -0.08243216
-0.009076641 0.035761073 0.11503808 0.01466018 -0.007597953 0.13631852 0.18327619 -0.06393252
-0.1958659 -0.12579715 0.16394626 0.019948855 0.19643547 -0.080253005 -0.21737655 0.07124393
-0.09776275 -0.13715816 0.14302732 0.015954018 -3.680416 10.329971 -0.41048327 -5.468066
-11.614335 -0.67213595 -0.43325648 0.37175253 -0.28462505 -0.24751607 0.27181682 -0.092205286
-0.15569879 0.064140126 0.10302751 -0.0010771591 -0.023311477 0.007928119 -0.0509148 0.20018013
0.01017445 -0.16481255 0.08683159 -0.22119597 0.18419594 0.11498193 0.0869092 0.0476327

bias f4 [64]
00000000: 104a 0bbd 82d1 a7be ab6e 4b3d 00f3 4e3b
00000010: 2c89 46be 3a53 b0be 8ce2 b23d 1190 573e
00000020: 4e1b 9a3d 38bf 21be 0625 9b3c 2436 18bd
00000030: bc3b 6a3d 1987 76be cc15 1d3d f580 69be
00000040: 04b5 053d 4f30 473d df4f 183e 8526 023e
00000050: 4e14 803d 8457 0abe 93d8 3cbe da65 91bd
00000060: ef4a c6bd 2def 9ebe ea2d 29bb 8561 03be
00000070: 59a0 bf3d 2787 363d a787 b5be 5557 10bd
00000080: d37b 19be 2c8b 0d3d 7d1a 97be 3337 9d3d
00000090: d02d a4be f293 f53d 6e02 e43d 4b5c 60be
000000a0: 8d5c 193e 8486 d3be c08e e0bd 6e50 af3d
000000b0: 1e10 33be 06fd a6bd 5891 c13c 5867 44be
000000c0: 2031 ffbd 3bb6 08be 6ba2 0c3d 8c99 d5bd
000000d0: 78d4 da3c 7e9c 8abe 0e7c 9abe 8f60 1c3e
000000e0: e839 4dbe 9bf0 cf3d 59cb 03bf cc62 dfbe
000000f0: 5f14 603c b812 56bd 581f 27be cb48 01be
-0.03400618 -0.3277703 0.049666088 0.0031577945 -0.19388264 -0.34438497 0.08734617 0.2105105
0.07524739 -0.157956 0.018938553 -0.037161008 0.057185873 -0.24074973 0.038350865 -0.228031
0.032643333 0.048630055 0.14874218 0.12710007 0.06253873 -0.13509947 -0.18441992 -0.07099505
-0.09682261 -0.31041852 -0.002581472 -0.1283017 0.09356756 0.044562485 -0.35455057 -0.035239536
-0.14988641 0.034556553 -0.29512396 0.07676544 -0.32066202 0.11991109 0.11133276 -0.21910207
0.14976712 -0.41313565 -0.109647274 0.085602626 -0.17486617 -0.08153729 0.023628876 -0.19180048
-0.12460542 -0.13350765 0.03433458 -0.10429677 0.026712641 -0.2707252 -0.3017277 0.15271209
-0.2004162 0.10153314 -0.5148216 -0.43630064 0.013676732 -0.052263945 -0.1632055 -0.12625425

weight f4 [64, 64]
00000000: b062 d73c 1a2d 64be 28d5 93bf a4f9 f63d
00000010: fea1 833e 3fce 3cbf 5159 4b3f f6d8 c9bd
00000020: 74c2 d03d b61d 7bbe ba11 aabe 665c 98bd
00000030: 689d c3bd 9cb1 003d 8819 39bd 3c9f 05bf
00000040: c09f eabc 4798 c6bc de75 de3e cc38 86bf
00000050: eb56 4fbd 9c41 263e d618 79bd adf8 c8bd
00000060: ad68 27bf dbf9 723d 15b4 b23d bde7 32bf
00000070: ea36 bfbd bd7f 2cc0 3a9e 84bf 55b4 0bbf
00000080: 9e1a d03d 609d cb3c 7f64 1d3e 7524 fd3c
00000090: 7ff3 eb3d 5f50 19bf 220f 853d d8c3 d63d
000000a0: 9021 153c 5349 c13e 007a 6d3a 5638 a4be
000000b0: b228 933e 2714 3abd d0c1 ccbc 9412 29be
000000c0: 523b ed3d 5c5b 8abf 2f7d 54bf 4bdd 31bf
000000d0: c690 843d a978 a13e 7f46 353d 404a 6fbb
000000e0: 70ce 3abc 46b7 38be 364e 2fc0 6ffc 433f
000000f0: 96df 3fbf 98f0 1c3d bdaf 76be d65d c13e
00000100: 9cbd 8dbd 7c8b 403e 66b1 c33e 02f4 8bbd
00000110: ac09 fe3c 2ad6 aa3e 7c8f 723e 9648 d73d
00000120: 3047 d1bc 1f9f 17bf 77b6 e2bc 00be 723d
00000130: d36c 133f 54aa f23d 00e6 593a cb84 363f
00000140: 2cde bd3d 2f4d 1a3e c90d e33c 4adb 983d
00000150: 732b c13d 78c3 5ebd c1ae d0bd dc52 563f
00000160: e1a2 de3e 8a1c bd3d 6b65 43be b569 21be
00000170: c59f 9c3d 6563 29b9 ea05 fd3e c78f 07be
00000180: 03d6 89bb 98bc 77bd f1d7 dbbd 0ad4 923d
00000190: f10e d6bd 85b2 0dbd a8f0 bf3d f27b d73d
000001a0: 37d6 dabd ba75 4f3f 4aa5 dcbd 8eeb 9d3e
000001b0: f2f6 74bd a85d 473d 4c4c 79bd 8dab fd3d
000001c0: d07d a53c b262 1a3e 9d86 903e 3c88 813e
000001d0: 14ab fd3d 586a f2bd e719 9b3f 7630 adbd
000001e0: e6fe 8abd 11c4 883d 4a6b d4be 1156 6e3d
000001f0: ae82 63be b404 123d 7dda 473e fdfb 6a3e
00000200: 806c b7bd 21df fabd 3962 39be 809e dc3b
00000210: 0088 36be 49ae 11bd acb9 dc3c e23d c6bd
00000220: ec27 67bd 4df3 a3bc 77ff d6bd 32f2 e1bd
00000230: 11c0 da3d 0ca1 1fbd 10d5 763c b8cb 623d
00000240: e8f0 7e3d 7b68 42be de37 b53d 92ae d6bd
00000250: 3f82 7dbc ce57 593d 92cc 403d ad8c 963c
00000260: 5591 99bd 90ca 563d 9a17 0e3e e55a e4bd
00000270: eb4b 9fbb 5a62 023d 75dd 19be 29ff 29be
00000280: 8a1a 9e3d c46a 343d 4f3a ceb9 6609 a93d
00000290: cef0 8bbd ca38 a43d 96e2 a9bd 8803 dcbd
000002a0: 30ae debc c7ed 963c 18e1 dabd aaa1 37bc
000002b0: ad69 a7bc edef b1bd f4f1 d1bd 3a12 fabc
000002c0: ac02 403d 2d62 c4bd 6324 c4bc 13cb 133d
000002d0: 524e b4bd 3427 08be 9fbe e6bd 705e 93bc
000002e0: e0a9 44bd 4893 fd3c 22cc 25be 14e4 0c3d
000002f0: b6c4 dabd c8ff 8ebd d924 b3bc 9873 d4bd
00000300: a484 ddbd de83 82bd ebc8 ebbd 18a1 8abd
00000310: 9ff2 12bd f3b0 8b3d 877d 2cbd d823 7fbd
00000320: e64e 8b3d da6b d1bd 9c2c e5bd 98a5 c7bc
00000330: 4283 8dbd dc23 f73d 10c7 b7bc 9fa7 19be
00000340: 549a 22bd a88c 8db9 a707 57bd 9ced 2abe
00000350: 7bdb 15be 93df 73bd f0f5 023c d506 07be
00000360: 0cb5 6b3d 164f a2bd 59ef 423d e2bd 93bc
00000370: f867 a3bc 6f86 babd cf75 91bd a703 20be
00000380: f0ba 04bd a852 6a3d cc9a 2fbe 20dc cbbc
00000390: 25ef 6dbd 1769 b7bd 7862 723d 98a0 7d3d
000003a0: a875 94bc 746f eebd 88cd 773d 50ed 6dbd
000003b0: 44fe 45be d926 7c3c d403 fc3d 4af5 523c
000003c0: f437 8dbd 2b89 a13c 3abd b0bd 99e6 3fbe
000003d0: aa52 b73d be3b 0dbe 0165 603c ace4 fa3d
000003e0: 4a0f acbd 54ce dc3c b124 a9bd eb19 d3bd
000003f0: dbfb cfbc 9c61 413d 281f 1abe 0939 7e3d
0.026292175 -0.2228283 -1.1549425 0.12059334 0.25709528 -0.73752207 0.7943316 -0.09855835
0.10193339 -0.24523053 -0.3321665 -0.074394986 -0.09551507 0.03141938 -0.045190364 -0.521961
-0.028640628 -0.024242533 0.434493 -1.0486083 -0.05062 0.16235965 -0.0608147 -0.09813056
-0.653941 0.059320312 0.08725754 -0.69884855 -0.09336646 -2.6952965 -1.0360787 -0.5457204
0.10161327 0.024855316 0.15370367 0.030901173 0.115210526 -0.5988826 0.06497027 0.10486573
0.00910224 0.37751254 0.0009059012 -0.3207423 0.28741986 -0.045429375 -0.02499476 -0.16510993
0.1158358 -1.0809131 -0.83003515 -0.6947829 0.06472926 0.3153737 0.044256683 -0.0036512762
-0.011401758 -0.18038663 -2.7391486 0.7655706 -0.7495054 0.038315386 -0.24090476 0.37766904
-0.06920931 0.18803209 0.38221282 -0.0683365 0.031010471 0.3336652 0.23687547 0.105118915
-0.02554664 -0.59227175 -0.027674897 0.05926323 0.5758793 0.11848894 0.0008312166 0.71296376
0.092708915 0.15068506 0.027716534 0.07463701 0.094321154 -0.054385632 -0.10189582 0.83720183
0.43483642 0.09233959 -0.19081657 -0.1576298 0.07647661 -0.00016154123 0.49418575 -0.1323844
-0.0042064204 -0.06048259 -0.10734547 0.071693495 -0.104520686 -0.034594078 0.093720734 0.105216876
-0.106853895 0.8103901 -0.10773714 0.30843776 -0.059805818 0.048673302 -0.060863778 0.12386236
0.020201594 0.15076712 0.28227702 0.2529925 0.12386146 -0.1183669 1.211728 -0.08456509
-0.06786899 0.06678022 -0.41488105 0.058187548 -0.22217819 0.035649016 0.1951694 0.22947688
-0.089562416 -0.1224959 -0.18103875 0.006732762 -0.17825317 -0.035566602 0.026944004 -0.09679772
-0.056434557 -0.020013476 -0.10497945 -0.11032523 0.10681165 -0.038971946 0.0150654465 0.055370063
0.062241465 -0.18985169 0.088485464 -0.104825154 -0.015472948 0.053062253 0.047070093 0.018377626
-0.07498423 0.052439272 0.13876191 -0.11150149 -0.004861345 0.031832077 -0.15025885 -0.16601242
0.07719906 0.044047132 -0.00039334825 0.08253746 -0.06833039 0.08018644 -0.08295171 -0.10742861
-0.027182668 0.018423928 -0.106874645 -0.011207977 -0.020436132 -0.0868834 -0.10251227 -0.03052627
0.046877548 -0.09589038 -0.023943132 0.03608234 -0.08804001 -0.13296205 -0.11266827 -0.017989367
-0.048013568 0.030954018 -0.16191152 0.0343972 -0.10682051 -0.0698238 -0.021868156 -0.1037361
-0.10816315 -0.06372808 -0.115129314 -0.067690074 -0.035875913 0.0682086 -0.0421119 -0.062290043
0.06802158 -0.10225649 -0.11190149 -0.024370953 -0.06909801 0.120673865 -0.022433788 -0.15005349
-0.03969796 -0.00026998413 -0.052497532 -0.16692203 -0.14634506 -0.05953939 0.007993206 -0.131862
0.057545707 -0.07925241 0.04759154 -0.01803488 -0.019947037 -0.091076724 -0.07102548 -0.15626393
-0.03240484 0.057207733 -0.17148894 -0.024885237 -0.058089394 -0.08955591 0.05917594 0.061920732
-0.01812251 -0.11642352 0.060498744 -0.058087647 -0.19335276 0.015390121 0.12305418 0.012875864
-0.06895438 0.019718727 -0.08629842 -0.1874031 0.08951314 -0.13792321 0.013695956 0.12250647
-0.08401354 0.026953854 -0.082589515 -0.10307678 -0.025388649 0.04721223 -0.15050948 0.06206611

bias f4 [64]
00000000: 5297 3e3e 590d 073f f1ae 41be cc32 e3bd
00000010: 229a 803b 417e 8dbd 0631 12be 30ef 8cbc
00000020: 1a84 e1bd c830 73bf 49e4 723e 80ed 45be
00000030: c7fc a8be ab36 fa3e 1d82 38bd b286 10be
00000040: e807 db3d 13b3 f8be 04fc 1fbe 99af 113f
00000050: 18aa 46be 7b8f 39be f576 0c3e cffd e1bd
00000060: 21f4 e73d d88d 41bc 2061 e5bd b850 bb3e
00000070: bad2 0fbe cbf5 33be 1a62 80bc 76d4 583e
00000080: 7998 f9bd 2f62 18be 7baf dd3c 3e89 0f3f
00000090: dd2b 0c3f 924c b43e 43aa 38be 80af 10be
000000a0: 9b03 04be 5ec1 10be e14d 3fbe c13c 27bf
000000b0: 248a db3e 5853 a13e 5b79 2bbe 9590 1b3f
000000c0: b7ae 823c 338a d83c 5ddb 5cbd 900d d2bd
000000d0: efef 30be 795a 533f 1788 dcbd af4c ebbd
000000e0: 7b5c c3be 7923 b7bd b48f 15bf 1691 33be
000000f0: 78f0 f5bd fd7b b2be b0e5 9a3e 7d86 66bd
0.18612412 0.5275474 -0.18914391 -0.11093673 0.003924624 -0.06908847 -0.14276513 -0.017203897
-0.110115245 -0.9499631 0.23719896 -0.1932888 -0.33005354 0.48869833 -0.04504596 -0.14113882
0.10694867 -0.48574123 -0.1562348 0.56908566 -0.19400823 -0.1812114 0.13717254 -0.11034738
0.11325861 -0.011813603 -0.11200166 0.3658502 -0.1404523 -0.17574231 -0.015671778 0.21174797
-0.12187285 -0.14881204 0.027061215 0.5606879 0.5475443 0.3521467 -0.180337 -0.14129448
-0.12892 -0.14136264 -0.18682052 -0.6532708 0.4287883 0.315089 -0.16745512 0.6076749
0.015952451 0.026433086 -0.05392014 -0.10256493 -0.17279027 0.82559925 -0.107681446 -0.114892356
-0.38156494 -0.08942313 -0.584224 -0.17535815 -0.120087564 -0.3486022 0.30253363 -0.0562806

weight f4 [1, 64]
00000000: b82e 4fbe 4a55 23be 0061 33bc bf15 e2bc
00000010: 1f1a abbe 1036 dcbc 3b16 953c 112e f9bc
00000020: 8b59 c93c aaff bdbb 57e5 9cbe 62e6 06bc
00000030: 3436 333e 7edc 08be a022 003d e6ad a63d
00000040: 30f8 d83d 745c 8f3d b0d0 40bc 0402 e1bd
00000050: 4f21 abbc edd8 b7bc 6254 1d3e fbe3 cd39
00000060: 20c4 a7be 7b08 c83c 4905 483c ab6a e9be
00000070: dd9b 983c 496f d73b 9203 eabc 5088 933e
00000080: 8da5 1d3c 8676 f9be 0d08 2abc 3bf2 e7bd
00000090: 1f23 c2bd 5e40 0cbe a7d4 763c a7f7 14bb
000000a0: 5cf1 8d3d ecc7 603b ae4b 66bc cb6e f03d
000000b0: 6484 64bd 5897 a13e f0d5 75bc 4a8e eabd
000000c0: e076 e7bb 307f ce3c b7fe 2ebc 86a0 203d
000000d0: 673d 4e3d e813 a93e 2524 2bbc 63f8 143b
000000e0: 56cf ca3c 0c01 6abd 9a05 713e 917c 953b
000000f0: 0bf9 bb3c 34e1 a23e 73f8 8a3e 16f7 a0bc
-0.20232666 -0.15950504 -0.01094842 -0.02759826 -0.33418366 -0.026881248 0.018199077 -0.030417474
0.02457883 -0.0057983 -0.30643722 -0.0082336385 0.17501146 -0.13365361 0.03128302 0.08138637
0.10594213 0.07000056 -0.011768505 -0.109867126 -0.020889906 -0.022442305 0.1536422 0.00039270506
-0.3276682 0.024418106 0.012208291 -0.45589194 0.018629009 0.0065745455 -0.028566156 0.28814936
0.00962199 -0.4872324 -0.010377896 -0.11325499 -0.09479355 -0.13696429 0.015065349 -0.002273062
0.06930801 0.003429885 -0.014056129 0.11739882 -0.05579032 0.3156078 -0.01500462 -0.11452921
-0.0070637316 0.025207132 -0.010680846 0.039215587 0.050351527 0.33023 -0.010445629 0.0022731058
0.024757069 -0.057129905 0.23537293 0.0045619686 0.022945901 0.3181244 0.27142677 -0.01964907
